…
W0630 12:57:32.863454 23788 upgrade_proto.cpp:72] Note that future Caffe releases will only support input layers and not input fields.
I0630 12:57:32.864451 23788 net.cpp:322] The NetState phase (0) differed from the phase (1) specified by a rule in layer detection_out
I0630 12:57:32.865449 23788 net.cpp:58] Initializing net from parameters: 
name: "VGG_wastedata_SSD_512x512_deploy"
state {
  phase: TRAIN
  level: 0
  stage: ""
}
layer {
  name: "input"
  type: "Input"
  top: "data"
  input_param {
    shape {
      dim: 1
      dim: 3
      dim: 512
      dim: 512
    }
  }
}
layer {
  name: "conv1_1"
  type: "Convolution"
  bottom: "data"
  top: "conv1_1"
  param {
    lr_mult: 1
    decay_mult: 1
  }
  param {
    lr_mult: 1
    decay_mult: 0
  }
  convolution_param {
    num_output: 64
    pad: 1
    kernel_size: 3
    weight_filler {
      type: "xavier"
    }
    bias_filler {
      type: "constant"
      value: 0
    }
  }
}
layer {
  name: "relu1_1"
  type: "ReLU"
  bottom: "conv1_1"
  top: "conv1_1"
}
layer {
  name: "conv1_2"
  type: "Convolution"
  bottom: "conv1_1"
  top: "conv1_2"
  param {
    lr_mult: 1
    decay_mult: 1
  }
  param {
    lr_mult: 1
    decay_mult: 0
  }
  convolution_param {
    num_output: 64
    pad: 1
    kernel_size: 3
    weight_filler {
      type: "xavier"
    }
    bias_filler {
      type: "constant"
      value: 0
    }
  }
}
layer {
  name: "relu1_2"
  type: "ReLU"
  bottom: "conv1_2"
  top: "conv1_2"
}
layer {
  name: "pool1"
  type: "Pooling"
  bottom: "conv1_2"
  top: "pool1"
  pooling_param {
    pool: MAX
    kernel_size: 2
    stride: 2
  }
}
layer {
  name: "conv2_1"
  type: "Convolution"
  bottom: "pool1"
  top: "conv2_1"
  param {
    lr_mult: 1
    decay_mult: 1
  }
  param {
    lr_mult: 1
    decay_mult: 0
  }
  convolution_param {
    num_output: 128
    pad: 1
    kernel_size: 3
    weight_filler {
      type: "xavier"
    }
    bias_filler {
      type: "constant"
      value: 0
    }
  }
}
layer {
  name: "relu2_1"
  type: "ReLU"
  bottom: "conv2_1"
  top: "conv2_1"
}
layer {
  name: "conv2_2"
  type: "Convolution"
  bottom: "conv2_1"
  top: "conv2_2"
  param {
    lr_mult: 1
    decay_mult: 1
  }
  param {
    lr_mult: 1
    decay_mult: 0
  }
  convolution_param {
    num_output: 128
    pad: 1
    kernel_size: 3
    weight_filler {
      type: "xavier"
    }
    bias_filler {
      type: "constant"
      value: 0
    }
  }
}
layer {
  name: "relu2_2"
  type: "ReLU"
  bottom: "conv2_2"
  top: "conv2_2"
}
layer {
  name: "pool2"
  type: "Pooling"
  bottom: "conv2_2"
  top: "pool2"
  pooling_param {
    pool: MAX
    kernel_size: 2
    stride: 2
  }
}
layer {
  name: "conv3_1"
  type: "Convolution"
  bottom: "pool2"
  top: "conv3_1"
  param {
    lr_mult: 1
    decay_mult: 1
  }
  param {
    lr_mult: 1
    decay_mult: 0
  }
  convolution_param {
    num_output: 256
    pad: 1
    kernel_size: 3
    weight_filler {
      type: "xavier"
    }
    bias_filler {
      type: "constant"
      value: 0
    }
  }
}
layer {
  name: "relu3_1"
  type: "ReLU"
  bottom: "conv3_1"
  top: "conv3_1"
}
layer {
  name: "conv3_2"
  type: "Convolution"
  bottom: "conv3_1"
  top: "conv3_2"
  param {
    lr_mult: 1
    decay_mult: 1
  }
  param {
    lr_mult: 1
    decay_mult: 0
  }
  convolution_param {
    num_output: 256
    pad: 1
    kernel_size: 3
    weight_filler {
      type: "xavier"
    }
    bias_filler {
      type: "constant"
      value: 0
    }
  }
}
layer {
  name: "relu3_2"
  type: "ReLU"
  bottom: "conv3_2"
  top: "conv3_2"
}
layer {
  name: "conv3_3"
  type: "Convolution"
  bottom: "conv3_2"
  top: "conv3_3"
  param {
    lr_mult: 1
    decay_mult: 1
  }
  param {
    lr_mult: 1
    decay_mult: 0
  }
  convolution_param {
    num_output: 256
    pad: 1
    kernel_size: 3
    weight_filler {
      type: "xavier"
    }
    bias_filler {
      type: "constant"
      value: 0
    }
  }
}
layer {
  name: "relu3_3"
  type: "ReLU"
  bottom: "conv3_3"
  top: "conv3_3"
}
layer {
  name: "pool3"
  type: "Pooling"
  bottom: "conv3_3"
  top: "pool3"
  pooling_param {
    pool: MAX
    kernel_size: 2
    stride: 2
  }
}
layer {
  name: "conv4_1"
  type: "Convolution"
  bottom: "pool3"
  top: "conv4_1"
  param {
    lr_mult: 1
    decay_mult: 1
  }
  param {
    lr_mult: 1
    decay_mult: 0
  }
  convolution_param {
    num_output: 512
    pad: 1
    kernel_size: 3
    weight_filler {
      type: "xavier"
    }
    bias_filler {
      type: "constant"
      value: 0
    }
  }
}
layer {
  name: "relu4_1"
  type: "ReLU"
  bottom: "conv4_1"
  top: "conv4_1"
}
layer {
  name: "conv4_2"
  type: "Convolution"
  bottom: "conv4_1"
  top: "conv4_2"
  param {
    lr_mult: 1
    decay_mult: 1
  }
  param {
    lr_mult: 1
    decay_mult: 0
  }
  convolution_param {
    num_output: 512
    pad: 1
    kernel_size: 3
    weight_filler {
      type: "xavier"
    }
    bias_filler {
      type: "constant"
      value: 0
    }
  }
}
layer {
  name: "relu4_2"
  type: "ReLU"
  bottom: "conv4_2"
  top: "conv4_2"
}
layer {
  name: "conv4_3"
  type: "Convolution"
  bottom: "conv4_2"
  top: "conv4_3"
  param {
    lr_mult: 1
    decay_mult: 1
  }
  param {
    lr_mult: 1
    decay_mult: 0
  }
  convolution_param {
    num_output: 512
    pad: 1
    kernel_size: 3
    weight_filler {
      type: "xavier"
    }
    bias_filler {
      type: "constant"
      value: 0
    }
  }
}
layer {
  name: "relu4_3"
  type: "ReLU"
  bottom: "conv4_3"
  top: "conv4_3"
}
layer {
  name: "pool4"
  type: "Pooling"
  bottom: "conv4_3"
  top: "pool4"
  pooling_param {
    pool: MAX
    kernel_size: 2
    stride: 2
  }
}
layer {
  name: "conv5_1"
  type: "Convolution"
  bottom: "pool4"
  top: "conv5_1"
  param {
    lr_mult: 1
    decay_mult: 1
  }
  param {
    lr_mult: 1
    decay_mult: 0
  }
  convolution_param {
    num_output: 512
    pad: 1
    kernel_size: 3
    weight_filler {
      type: "xavier"
    }
    bias_filler {
      type: "constant"
      value: 0
    }
    dilation: 1
  }
}
layer {
  name: "relu5_1"
  type: "ReLU"
  bottom: "conv5_1"
  top: "conv5_1"
}
layer {
  name: "conv5_2"
  type: "Convolution"
  bottom: "conv5_1"
  top: "conv5_2"
  param {
    lr_mult: 1
    decay_mult: 1
  }
  param {
    lr_mult: 1
    decay_mult: 0
  }
  convolution_param {
    num_output: 512
    pad: 1
    kernel_size: 3
    weight_filler {
      type: "xavier"
    }
    bias_filler {
      type: "constant"
      value: 0
    }
    dilation: 1
  }
}
layer {
  name: "relu5_2"
  type: "ReLU"
  bottom: "conv5_2"
  top: "conv5_2"
}
layer {
  name: "conv5_3"
  type: "Convolution"
  bottom: "conv5_2"
  top: "conv5_3"
  param {
    lr_mult: 1
    decay_mult: 1
  }
  param {
    lr_mult: 1
    decay_mult: 0
  }
  convolution_param {
    num_output: 512
    pad: 1
    kernel_size: 3
    weight_filler {
      type: "xavier"
    }
    bias_filler {
      type: "constant"
      value: 0
    }
    dilation: 1
  }
}
layer {
  name: "relu5_3"
  type: "ReLU"
  bottom: "conv5_3"
  top: "conv5_3"
}
layer {
  name: "pool5"
  type: "Pooling"
  bottom: "conv5_3"
  top: "pool5"
  pooling_param {
    pool: MAX
    kernel_size: 3
    stride: 1
    pad: 1
  }
}
layer {
  name: "fc6"
  type: "Convolution"
  bottom: "pool5"
  top: "fc6"
  param {
    lr_mult: 1
    decay_mult: 1
  }
  param {
    lr_mult: 1
    decay_mult: 0
  }
  convolution_param {
    num_output: 1024
    pad: 6
    kernel_size: 3
    weight_filler {
      type: "xavier"
    }
    bias_filler {
      type: "constant"
      value: 0
    }
    dilation: 6
  }
}
layer {
  name: "relu6"
  type: "ReLU"
  bottom: "fc6"
  top: "fc6"
}
layer {
  name: "fc7"
  type: "Convolution"
  bottom: "fc6"
  top: "fc7"
  param {
    lr_mult: 1
    decay_mult: 1
  }
  param {
    lr_mult: 1
    decay_mult: 0
  }
  convolution_param {
    num_output: 1024
    kernel_size: 1
    weight_filler {
      type: "xavier"
    }
    bias_filler {
      type: "constant"
      value: 0
    }
  }
}
layer {
  name: "relu7"
  type: "ReLU"
  bottom: "fc7"
  top: "fc7"
}
layer {
  name: "conv8_1"
  type: "Convolution"
  bottom: "fc7"
  top: "conv8_1"
  param {
    lr_mult: 1
    decay_mult: 1
  }
  param {
    lr_mult: 2
    decay_mult: 0
  }
  convolution_param {
    num_output: 256
    pad: 0
    kernel_size: 1
    stride: 1
    weight_filler {
      type: "xavier"
    }
    bias_filler {
      type: "constant"
      value: 0
    }
  }
}
layer {
  name: "conv8_1_relu"
  type: "ReLU"
  bottom: "conv8_1"
  top: "conv8_1"
}
layer {
  name: "conv8_2"
  type: "Convolution"
  bottom: "conv8_1"
  top: "conv8_2"
  param {
    lr_mult: 1
    decay_mult: 1
  }
  param {
    lr_mult: 2
    decay_mult: 0
  }
  convolution_param {
    num_output: 512
    pad: 1
    kernel_size: 3
    stride: 2
    weight_filler {
      type: "xavier"
    }
    bias_filler {
      type: "constant"
      value: 0
    }
  }
}
layer {
  name: "conv8_2_relu"
  type: "ReLU"
  bottom: "conv8_2"
  top: "conv8_2"
}
layer {
  name: "conv9_1"
  type: "Convolution"
  bottom: "conv8_2"
  top: "conv9_1"
  param {
    lr_mult: 1
    decay_mult: 1
  }
  param {
    lr_mult: 2
    decay_mult: 0
  }
  convolution_param {
    num_output: 128
    pad: 0
    kernel_size: 1
    stride: 1
    weight_filler {
      type: "xavier"
    }
    bias_filler {
      type: "constant"
      value: 0
    }
  }
}
layer {
  name: "conv9_1_relu"
  type: "ReLU"
  bottom: "conv9_1"
  top: "conv9_1"
}
layer {
  name: "conv9_2"
  type: "Convolution"
  bottom: "conv9_1"
  top: "conv9_2"
  param {
    lr_mult: 1
    decay_mult: 1
  }
  param {
    lr_mult: 2
    decay_mult: 0
  }
  convolution_param {
    num_output: 256
    pad: 1
    kernel_size: 3
    stride: 2
    weight_filler {
      type: "xavier"
    }
    bias_filler {
      type: "constant"
      value: 0
    }
  }
}
layer {
  name: "conv9_2_relu"
  type: "ReLU"
  bottom: "conv9_2"
  top: "conv9_2"
}
layer {
  name: "conv10_1"
  type: "Convolution"
  bottom: "conv9_2"
  top: "conv10_1"
  param {
    lr_mult: 1
    decay_mult: 1
  }
  param {
    lr_mult: 2
    decay_mult: 0
  }
  convolution_param {
    num_output: 128
    pad: 0
    kernel_size: 1
    stride: 1
    weight_filler {
      type: "xavier"
    }
    bias_filler {
      type: "constant"
      value: 0
    }
  }
}
layer {
  name: "conv10_1_relu"
  type: "ReLU"
  bottom: "conv10_1"
  top: "conv10_1"
}
layer {
  name: "conv10_2"
  type: "Convolution"
  bottom: "conv10_1"
  top: "conv10_2"
  param {
    lr_mult: 1
    decay_mult: 1
  }
  param {
    lr_mult: 2
    decay_mult: 0
  }
  convolution_param {
    num_output: 256
    pad: 1
    kernel_size: 3
    stride: 2
    weight_filler {
      type: "xavier"
    }
    bias_filler {
      type: "constant"
      value: 0
    }
  }
}
layer {
  name: "conv10_2_relu"
  type: "ReLU"
  bottom: "conv10_2"
  top: "conv10_2"
}
layer {
  name: "conv11_1"
  type: "Convolution"
  bottom: "conv10_2"
  top: "conv11_1"
  param {
    lr_mult: 1
    decay_mult: 1
  }
  param {
    lr_mult: 2
    decay_mult: 0
  }
  convolution_param {
    num_output: 128
    pad: 0
    kernel_size: 1
    stride: 1
    weight_filler {
      type: "xavier"
    }
    bias_filler {
      type: "constant"
      value: 0
    }
  }
}
layer {
  name: "conv11_1_relu"
  type: "ReLU"
  bottom: "conv11_1"
  top: "conv11_1"
}
layer {
  name: "conv11_2"
  type: "Convolution"
  bottom: "conv11_1"
  top: "conv11_2"
  param {
    lr_mult: 1
    decay_mult: 1
  }
  param {
    lr_mult: 2
    decay_mult: 0
  }
  convolution_param {
    num_output: 256
    pad: 1
    kernel_size: 3
    stride: 2
    weight_filler {
      type: "xavier"
    }
    bias_filler {
      type: "constant"
      value: 0
    }
  }
}
layer {
  name: "conv11_2_relu"
  type: "ReLU"
  bottom: "conv11_2"
  top: "conv11_2"
}
layer {
  name: "conv12_1"
  type: "Convolution"
  bottom: "conv11_2"
  top: "conv12_1"
  param {
    lr_mult: 1
    decay_mult: 1
  }
  param {
    lr_mult: 2
    decay_mult: 0
  }
  convolution_param {
    num_output: 128
    pad: 0
    kernel_size: 1
    stride: 1
    weight_filler {
      type: "xavier"
    }
    bias_filler {
      type: "constant"
      value: 0
    }
  }
}
layer {
  name: "conv12_1_relu"
  type: "ReLU"
  bottom: "conv12_1"
  top: "conv12_1"
}
layer {
  name: "conv12_2"
  type: "Convolution"
  bottom: "conv12_1"
  top: "conv12_2"
  param {
    lr_mult: 1
    decay_mult: 1
  }
  param {
    lr_mult: 2
    decay_mult: 0
  }
  convolution_param {
    num_output: 256
    pad: 1
    kernel_size: 4
    stride: 1
    weight_filler {
      type: "xavier"
    }
    bias_filler {
      type: "constant"
      value: 0
    }
  }
}
layer {
  name: "conv12_2_relu"
  type: "ReLU"
  bottom: "conv12_2"
  top: "conv12_2"
}
layer {
  name: "conv4_3_norm"
  type: "Normalize"
  bottom: "conv4_3"
  top: "conv4_3_norm"
  norm_param {
    across_spatial: false
    scale_filler {
      type: "constant"
      value: 20
    }
    channel_shared: false
  }
}
layer {
  name: "conv4_3_norm_mbox_loc"
  type: "Convolution"
  bottom: "conv4_3_norm"
  top: "conv4_3_norm_mbox_loc"
  param {
    lr_mult: 1
    decay_mult: 1
  }
  param {
    lr_mult: 2
    decay_mult: 0
  }
  convolution_param {
    num_output: 16
    pad: 1
    kernel_size: 3
    stride: 1
    weight_filler {
      type: "xavier"
    }
    bias_filler {
      type: "constant"
      value: 0
    }
  }
}
layer {
  name: "conv4_3_norm_mbox_loc_perm"
  type: "Permute"
  bottom: "conv4_3_norm_mbox_loc"
  top: "conv4_3_norm_mbox_loc_perm"
  permute_param {
    order: 0
    order: 2
    order: 3
    order: 1
  }
}
layer {
  name: "conv4_3_norm_mbox_loc_flat"
  type: "Flatten"
  bottom: "conv4_3_norm_mbox_loc_perm"
  top: "conv4_3_norm_mbox_loc_flat"
  flatten_param {
    axis: 1
  }
}
layer {
  name: "conv4_3_norm_mbox_conf"
  type: "Convolution"
  bottom: "conv4_3_norm"
  top: "conv4_3_norm_mbox_conf"
  param {
    lr_mult: 1
    decay_mult: 1
  }
  param {
    lr_mult: 2
    decay_mult: 0
  }
  convolution_param {
    num_output: 12
    pad: 1
    kernel_size: 3
    stride: 1
    weight_filler {
      type: "xavier"
    }
    bias_filler {
      type: "constant"
      value: 0
    }
  }
}
layer {
  name: "conv4_3_norm_mbox_conf_perm"
  type: "Permute"
  bottom: "conv4_3_norm_mbox_conf"
  top: "conv4_3_norm_mbox_conf_perm"
  permute_param {
    order: 0
    order: 2
    order: 3
    order: 1
  }
}
layer {
  name: "conv4_3_norm_mbox_conf_flat"
  type: "Flatten"
  bottom: "conv4_3_norm_mbox_conf_perm"
  top: "conv4_3_norm_mbox_conf_flat"
  flatten_param {
    axis: 1
  }
}
layer {
  name: "conv4_3_norm_mbox_priorbox"
  type: "PriorBox"
  bottom: "conv4_3_norm"
  bottom: "data"
  top: "conv4_3_norm_mbox_priorbox"
  prior_box_param {
    min_size: 35.84
    max_size: 76.8
    aspect_ratio: 2
    flip: true
    clip: false
    variance: 0.1
    variance: 0.1
    variance: 0.2
    variance: 0.2
    step: 8
    offset: 0.5
  }
}
layer {
  name: "fc7_mbox_loc"
  type: "Convolution"
  bottom: "fc7"
  top: "fc7_mbox_loc"
  param {
    lr_mult: 1
    decay_mult: 1
  }
  param {
    lr_mult: 2
    decay_mult: 0
  }
  convolution_param {
    num_output: 24
    pad: 1
    kernel_size: 3
    stride: 1
    weight_filler {
      type: "xavier"
    }
    bias_filler {
      type: "constant"
      value: 0
    }
  }
}
layer {
  name: "fc7_mbox_loc_perm"
  type: "Permute"
  bottom: "fc7_mbox_loc"
  top: "fc7_mbox_loc_perm"
  permute_param {
    order: 0
    order: 2
    order: 3
    order: 1
  }
}
layer {
  name: "fc7_mbox_loc_flat"
  type: "Flatten"
  bottom: "fc7_mbox_loc_perm"
  top: "fc7_mbox_loc_flat"
  flatten_param {
    axis: 1
  }
}
layer {
  name: "fc7_mbox_conf"
  type: "Convolution"
  bottom: "fc7"
  top: "fc7_mbox_conf"
  param {
    lr_mult: 1
    decay_mult: 1
  }
  param {
    lr_mult: 2
    decay_mult: 0
  }
  convolution_param {
    num_output: 18
    pad: 1
    kernel_size: 3
    stride: 1
    weight_filler {
      type: "xavier"
    }
    bias_filler {
      type: "constant"
      value: 0
    }
  }
}
layer {
  name: "fc7_mbox_conf_perm"
  type: "Permute"
  bottom: "fc7_mbox_conf"
  top: "fc7_mbox_conf_perm"
  permute_param {
    order: 0
    order: 2
    order: 3
    order: 1
  }
}
layer {
  name: "fc7_mbox_conf_flat"
  type: "Flatten"
  bottom: "fc7_mbox_conf_perm"
  top: "fc7_mbox_conf_flat"
  flatten_param {
    axis: 1
  }
}
layer {
  name: "fc7_mbox_priorbox"
  type: "PriorBox"
  bottom: "fc7"
  bottom: "data"
  top: "fc7_mbox_priorbox"
  prior_box_param {
    min_size: 76.8
    max_size: 153.6
    aspect_ratio: 2
    aspect_ratio: 3
    flip: true
    clip: false
    variance: 0.1
    variance: 0.1
    variance: 0.2
    variance: 0.2
    step: 16
    offset: 0.5
  }
}
layer {
  name: "conv8_2_mbox_loc"
  type: "Convolution"
  bottom: "conv8_2"
  top: "conv8_2_mbox_loc"
  param {
    lr_mult: 1
    decay_mult: 1
  }
  param {
    lr_mult: 2
    decay_mult: 0
  }
  convolution_param {
    num_output: 24
    pad: 1
    kernel_size: 3
    stride: 1
    weight_filler {
      type: "xavier"
    }
    bias_filler {
      type: "constant"
      value: 0
    }
  }
}
layer {
  name: "conv8_2_mbox_loc_perm"
  type: "Permute"
  bottom: "conv8_2_mbox_loc"
  top: "conv8_2_mbox_loc_perm"
  permute_param {
    order: 0
    order: 2
    order: 3
    order: 1
  }
}
layer {
  name: "conv8_2_mbox_loc_flat"
  type: "Flatten"
  bottom: "conv8_2_mbox_loc_perm"
  top: "conv8_2_mbox_loc_flat"
  flatten_param {
    axis: 1
  }
}
layer {
  name: "conv8_2_mbox_conf"
  type: "Convolution"
  bottom: "conv8_2"
  top: "conv8_2_mbox_conf"
  param {
    lr_mult: 1
    decay_mult: 1
  }
  param {
    lr_mult: 2
    decay_mult: 0
  }
  convolution_param {
    num_output: 18
    pad: 1
    kernel_size: 3
    stride: 1
    weight_filler {
      type: "xavier"
    }
    bias_filler {
      type: "constant"
      value: 0
    }
  }
}
layer {
  name: "conv8_2_mbox_conf_perm"
  type: "Permute"
  bottom: "conv8_2_mbox_conf"
  top: "conv8_2_mbox_conf_perm"
  permute_param {
    order: 0
    order: 2
    order: 3
    order: 1
  }
}
layer {
  name: "conv8_2_mbox_conf_flat"
  type: "Flatten"
  bottom: "conv8_2_mbox_conf_perm"
  top: "conv8_2_mbox_conf_flat"
  flatten_param {
    axis: 1
  }
}
layer {
  name: "conv8_2_mbox_priorbox"
  type: "PriorBox"
  bottom: "conv8_2"
  bottom: "data"
  top: "conv8_2_mbox_priorbox"
  prior_box_param {
    min_size: 153.6
    max_size: 230.4
    aspect_ratio: 2
    aspect_ratio: 3
    flip: true
    clip: false
    variance: 0.1
    variance: 0.1
    variance: 0.2
    variance: 0.2
    step: 32
    offset: 0.5
  }
}
layer {
  name: "conv9_2_mbox_loc"
  type: "Convolution"
  bottom: "conv9_2"
  top: "conv9_2_mbox_loc"
  param {
    lr_mult: 1
    decay_mult: 1
  }
  param {
    lr_mult: 2
    decay_mult: 0
  }
  convolution_param {
    num_output: 24
    pad: 1
    kernel_size: 3
    stride: 1
    weight_filler {
      type: "xavier"
    }
    bias_filler {
      type: "constant"
      value: 0
    }
  }
}
layer {
  name: "conv9_2_mbox_loc_perm"
  type: "Permute"
  bottom: "conv9_2_mbox_loc"
  top: "conv9_2_mbox_loc_perm"
  permute_param {
    order: 0
    order: 2
    order: 3
    order: 1
  }
}
layer {
  name: "conv9_2_mbox_loc_flat"
  type: "Flatten"
  bottom: "conv9_2_mbox_loc_perm"
  top: "conv9_2_mbox_loc_flat"
  flatten_param {
    axis: 1
  }
}
layer {
  name: "conv9_2_mbox_conf"
  type: "Convolution"
  bottom: "conv9_2"
  top: "conv9_2_mbox_conf"
  param {
    lr_mult: 1
    decay_mult: 1
  }
  param {
    lr_mult: 2
    decay_mult: 0
  }
  convolution_param {
    num_output: 18
    pad: 1
    kernel_size: 3
    stride: 1
    weight_filler {
      type: "xavier"
    }
    bias_filler {
      type: "constant"
      value: 0
    }
  }
}
layer {
  name: "conv9_2_mbox_conf_perm"
  type: "Permute"
  bottom: "conv9_2_mbox_conf"
  top: "conv9_2_mbox_conf_perm"
  permute_param {
    order: 0
    order: 2
    order: 3
    order: 1
  }
}
layer {
  name: "conv9_2_mbox_conf_flat"
  type: "Flatten"
  bottom: "conv9_2_mbox_conf_perm"
  top: "conv9_2_mbox_conf_flat"
  flatten_param {
    axis: 1
  }
}
layer {
  name: "conv9_2_mbox_priorbox"
  type: "PriorBox"
  bottom: "conv9_2"
  bottom: "data"
  top: "conv9_2_mbox_priorbox"
  prior_box_param {
    min_size: 230.4
    max_size: 307.2
    aspect_ratio: 2
    aspect_ratio: 3
    flip: true
    clip: false
    variance: 0.1
    variance: 0.1
    variance: 0.2
    variance: 0.2
    step: 64
    offset: 0.5
  }
}
layer {
  name: "conv10_2_mbox_loc"
  type: "Convolution"
  bottom: "conv10_2"
  top: "conv10_2_mbox_loc"
  param {
    lr_mult: 1
    decay_mult: 1
  }
  param {
    lr_mult: 2
    decay_mult: 0
  }
  convolution_param {
    num_output: 24
    pad: 1
    kernel_size: 3
    stride: 1
    weight_filler {
      type: "xavier"
    }
    bias_filler {
      type: "constant"
      value: 0
    }
  }
}
layer {
  name: "conv10_2_mbox_loc_perm"
  type: "Permute"
  bottom: "conv10_2_mbox_loc"
  top: "conv10_2_mbox_loc_perm"
  permute_param {
    order: 0
    order: 2
    order: 3
    order: 1
  }
}
layer {
  name: "conv10_2_mbox_loc_flat"
  type: "Flatten"
  bottom: "conv10_2_mbox_loc_perm"
  top: "conv10_2_mbox_loc_flat"
  flatten_param {
    axis: 1
  }
}
layer {
  name: "conv10_2_mbox_conf"
  type: "Convolution"
  bottom: "conv10_2"
  top: "conv10_2_mbox_conf"
  param {
    lr_mult: 1
    decay_mult: 1
  }
  param {
    lr_mult: 2
    decay_mult: 0
  }
  convolution_param {
    num_output: 18
    pad: 1
    kernel_size: 3
    stride: 1
    weight_filler {
      type: "xavier"
    }
    bias_filler {
      type: "constant"
      value: 0
    }
  }
}
layer {
  name: "conv10_2_mbox_conf_perm"
  type: "Permute"
  bottom: "conv10_2_mbox_conf"
  top: "conv10_2_mbox_conf_perm"
  permute_param {
    order: 0
    order: 2
    order: 3
    order: 1
  }
}
layer {
  name: "conv10_2_mbox_conf_flat"
  type: "Flatten"
  bottom: "conv10_2_mbox_conf_perm"
  top: "conv10_2_mbox_conf_flat"
  flatten_param {
    axis: 1
  }
}
layer {
  name: "conv10_2_mbox_priorbox"
  type: "PriorBox"
  bottom: "conv10_2"
  bottom: "data"
  top: "conv10_2_mbox_priorbox"
  prior_box_param {
    min_size: 307.2
    max_size: 384
    aspect_ratio: 2
    aspect_ratio: 3
    flip: true
    clip: false
    variance: 0.1
    variance: 0.1
    variance: 0.2
    variance: 0.2
    step: 128
    offset: 0.5
  }
}
layer {
  name: "conv11_2_mbox_loc"
  type: "Convolution"
  bottom: "conv11_2"
  top: "conv11_2_mbox_loc"
  param {
    lr_mult: 1
    decay_mult: 1
  }
  param {
    lr_mult: 2
    decay_mult: 0
  }
  convolution_param {
    num_output: 16
    pad: 1
    kernel_size: 3
    stride: 1
    weight_filler {
      type: "xavier"
    }
    bias_filler {
      type: "constant"
      value: 0
    }
  }
}
layer {
  name: "conv11_2_mbox_loc_perm"
  type: "Permute"
  bottom: "conv11_2_mbox_loc"
  top: "conv11_2_mbox_loc_perm"
  permute_param {
    order: 0
    order: 2
    order: 3
    order: 1
  }
}
layer {
  name: "conv11_2_mbox_loc_flat"
  type: "Flatten"
  bottom: "conv11_2_mbox_loc_perm"
  top: "conv11_2_mbox_loc_flat"
  flatten_param {
    axis: 1
  }
}
layer {
  name: "conv11_2_mbox_conf"
  type: "Convolution"
  bottom: "conv11_2"
  top: "conv11_2_mbox_conf"
  param {
    lr_mult: 1
    decay_mult: 1
  }
  param {
    lr_mult: 2
    decay_mult: 0
  }
  convolution_param {
    num_output: 12
    pad: 1
    kernel_size: 3
    stride: 1
    weight_filler {
      type: "xavier"
    }
    bias_filler {
      type: "constant"
      value: 0
    }
  }
}
layer {
  name: "conv11_2_mbox_conf_perm"
  type: "Permute"
  bottom: "conv11_2_mbox_conf"
  top: "conv11_2_mbox_conf_perm"
  permute_param {
    order: 0
    order: 2
    order: 3
    order: 1
  }
}
layer {
  name: "conv11_2_mbox_conf_flat"
  type: "Flatten"
  bottom: "conv11_2_mbox_conf_perm"
  top: "conv11_2_mbox_conf_flat"
  flatten_param {
    axis: 1
  }
}
layer {
  name: "conv11_2_mbox_priorbox"
  type: "PriorBox"
  bottom: "conv11_2"
  bottom: "data"
  top: "conv11_2_mbox_priorbox"
  prior_box_param {
    min_size: 384
    max_size: 460.8
    aspect_ratio: 2
    flip: true
    clip: false
    variance: 0.1
    variance: 0.1
    variance: 0.2
    variance: 0.2
    step: 256
    offset: 0.5
  }
}
layer {
  name: "conv12_2_mbox_loc"
  type: "Convolution"
  bottom: "conv12_2"
  top: "conv12_2_mbox_loc"
  param {
    lr_mult: 1
    decay_mult: 1
  }
  param {
    lr_mult: 2
    decay_mult: 0
  }
  convolution_param {
    num_output: 16
    pad: 1
    kernel_size: 3
    stride: 1
    weight_filler {
      type: "xavier"
    }
    bias_filler {
      type: "constant"
      value: 0
    }
  }
}
layer {
  name: "conv12_2_mbox_loc_perm"
  type: "Permute"
  bottom: "conv12_2_mbox_loc"
  top: "conv12_2_mbox_loc_perm"
  permute_param {
    order: 0
    order: 2
    order: 3
    order: 1
  }
}
layer {
  name: "conv12_2_mbox_loc_flat"
  type: "Flatten"
  bottom: "conv12_2_mbox_loc_perm"
  top: "conv12_2_mbox_loc_flat"
  flatten_param {
    axis: 1
  }
}
layer {
  name: "conv12_2_mbox_conf"
  type: "Convolution"
  bottom: "conv12_2"
  top: "conv12_2_mbox_conf"
  param {
    lr_mult: 1
    decay_mult: 1
  }
  param {
    lr_mult: 2
    decay_mult: 0
  }
  convolution_param {
    num_output: 12
    pad: 1
    kernel_size: 3
    stride: 1
    weight_filler {
      type: "xavier"
    }
    bias_filler {
      type: "constant"
      value: 0
    }
  }
}
layer {
  name: "conv12_2_mbox_conf_perm"
  type: "Permute"
  bottom: "conv12_2_mbox_conf"
  top: "conv12_2_mbox_conf_perm"
  permute_param {
    order: 0
    order: 2
    order: 3
    order: 1
  }
}
layer {
  name: "conv12_2_mbox_conf_flat"
  type: "Flatten"
  bottom: "conv12_2_mbox_conf_perm"
  top: "conv12_2_mbox_conf_flat"
  flatten_param {
    axis: 1
  }
}
layer {
  name: "conv12_2_mbox_priorbox"
  type: "PriorBox"
  bottom: "conv12_2"
  bottom: "data"
  top: "conv12_2_mbox_priorbox"
  prior_box_param {
    min_size: 460.8
    max_size: 537.6
    aspect_ratio: 2
    flip: true
    clip: false
    variance: 0.1
    variance: 0.1
    variance: 0.2
    variance: 0.2
    step: 512
    offset: 0.5
  }
}
layer {
  name: "mbox_loc"
  type: "Concat"
  bottom: "conv4_3_norm_mbox_loc_flat"
  bottom: "fc7_mbox_loc_flat"
  bottom: "conv8_2_mbox_loc_flat"
  bottom: "conv9_2_mbox_loc_flat"
  bottom: "conv10_2_mbox_loc_flat"
  bottom: "conv11_2_mbox_loc_flat"
  bottom: "conv12_2_mbox_loc_flat"
  top: "mbox_loc"
  concat_param {
    axis: 1
  }
}
layer {
  name: "mbox_conf"
  type: "Concat"
  bottom: "conv4_3_norm_mbox_conf_flat"
  bottom: "fc7_mbox_conf_flat"
  bottom: "conv8_2_mbox_conf_flat"
  bottom: "conv9_2_mbox_conf_flat"
  bottom: "conv10_2_mbox_conf_flat"
  bottom: "conv11_2_mbox_conf_flat"
  bottom: "conv12_2_mbox_conf_flat"
  top: "mbox_conf"
  concat_param {
    axis: 1
  }
}
layer {
  name: "mbox_priorbox"
  type: "Concat"
  bottom: "conv4_3_norm_mbox_priorbox"
  bottom: "fc7_mbox_priorbox"
  bottom: "conv8_2_mbox_priorbox"
  bottom: "conv9_2_mbox_priorbox"
  bottom: "conv10_2_mbox_priorbox"
  bottom: "conv11_2_mbox_priorbox"
  bottom: "conv12_2_mbox_priorbox"
  top: "mbox_priorbox"
  concat_param {
    axis: 2
  }
}
layer {
  name: "mbox_conf_reshape"
  type: "Reshape"
  bottom: "mbox_conf"
  top: "mbox_conf_reshape"
  reshape_param {
    shape {
      dim: 0
      dim: -1
      dim: 3
    }
  }
}
layer {
  name: "mbox_conf_softmax"
  type: "Softmax"
  bottom: "mbox_conf_reshape"
  top: "mbox_conf_softmax"
  softmax_param {
    axis: 2
  }
}
layer {
  name: "mbox_conf_flatten"
  type: "Flatten"
  bottom: "mbox_conf_softmax"
  top: "mbox_conf_flatten"
  flatten_param {
    axis: 1
  }
}
I0630 12:57:32.866446 23788 layer_factory.hpp:77] Creating layer input
I0630 12:57:32.866446 23788 net.cpp:100] Creating Layer input
I0630 12:57:32.866446 23788 net.cpp:408] input -> data
I0630 12:57:32.877418 23788 net.cpp:150] Setting up input
I0630 12:57:32.877418 23788 net.cpp:157] Top shape: 1 3 512 512 (786432)
I0630 12:57:32.877418 23788 net.cpp:165] Memory required for data: 3145728
I0630 12:57:32.877418 23788 layer_factory.hpp:77] Creating layer data_input_0_split
I0630 12:57:32.877418 23788 net.cpp:100] Creating Layer data_input_0_split
I0630 12:57:32.877418 23788 net.cpp:434] data_input_0_split <- data
I0630 12:57:32.877418 23788 net.cpp:408] data_input_0_split -> data_input_0_split_0
I0630 12:57:32.877418 23788 net.cpp:408] data_input_0_split -> data_input_0_split_1
I0630 12:57:32.877418 23788 net.cpp:408] data_input_0_split -> data_input_0_split_2
I0630 12:57:32.877418 23788 net.cpp:408] data_input_0_split -> data_input_0_split_3
I0630 12:57:32.877418 23788 net.cpp:408] data_input_0_split -> data_input_0_split_4
I0630 12:57:32.877418 23788 net.cpp:408] data_input_0_split -> data_input_0_split_5
I0630 12:57:32.877418 23788 net.cpp:408] data_input_0_split -> data_input_0_split_6
I0630 12:57:32.877418 23788 net.cpp:408] data_input_0_split -> data_input_0_split_7
I0630 12:57:32.877418 23788 net.cpp:150] Setting up data_input_0_split
I0630 12:57:32.877418 23788 net.cpp:157] Top shape: 1 3 512 512 (786432)
I0630 12:57:32.877418 23788 net.cpp:157] Top shape: 1 3 512 512 (786432)
I0630 12:57:32.877418 23788 net.cpp:157] Top shape: 1 3 512 512 (786432)
I0630 12:57:32.877418 23788 net.cpp:157] Top shape: 1 3 512 512 (786432)
I0630 12:57:32.877418 23788 net.cpp:157] Top shape: 1 3 512 512 (786432)
I0630 12:57:32.877418 23788 net.cpp:157] Top shape: 1 3 512 512 (786432)
I0630 12:57:32.877418 23788 net.cpp:157] Top shape: 1 3 512 512 (786432)
I0630 12:57:32.877418 23788 net.cpp:157] Top shape: 1 3 512 512 (786432)
I0630 12:57:32.877418 23788 net.cpp:165] Memory required for data: 28311552
I0630 12:57:32.877418 23788 layer_factory.hpp:77] Creating layer conv1_1
I0630 12:57:32.877418 23788 net.cpp:100] Creating Layer conv1_1
I0630 12:57:32.877418 23788 net.cpp:434] conv1_1 <- data_input_0_split_0
I0630 12:57:32.877418 23788 net.cpp:408] conv1_1 -> conv1_1
I0630 12:57:32.877418 23788 common.cpp:36] System entropy source not available, using fallback algorithm to generate seed instead.
I0630 12:57:33.781999 23788 net.cpp:150] Setting up conv1_1
I0630 12:57:33.782996 23788 net.cpp:157] Top shape: 1 64 512 512 (16777216)
I0630 12:57:33.782996 23788 net.cpp:165] Memory required for data: 95420416
I0630 12:57:33.782996 23788 layer_factory.hpp:77] Creating layer relu1_1
I0630 12:57:33.782996 23788 net.cpp:100] Creating Layer relu1_1
I0630 12:57:33.782996 23788 net.cpp:434] relu1_1 <- conv1_1
I0630 12:57:33.782996 23788 net.cpp:395] relu1_1 -> conv1_1 (in-place)
I0630 12:57:33.782996 23788 net.cpp:150] Setting up relu1_1
I0630 12:57:33.782996 23788 net.cpp:157] Top shape: 1 64 512 512 (16777216)
I0630 12:57:33.782996 23788 net.cpp:165] Memory required for data: 162529280
I0630 12:57:33.782996 23788 layer_factory.hpp:77] Creating layer conv1_2
I0630 12:57:33.782996 23788 net.cpp:100] Creating Layer conv1_2
I0630 12:57:33.782996 23788 net.cpp:434] conv1_2 <- conv1_1
I0630 12:57:33.782996 23788 net.cpp:408] conv1_2 -> conv1_2
I0630 12:57:33.786985 23788 net.cpp:150] Setting up conv1_2
I0630 12:57:33.786985 23788 net.cpp:157] Top shape: 1 64 512 512 (16777216)
I0630 12:57:33.786985 23788 net.cpp:165] Memory required for data: 229638144
I0630 12:57:33.786985 23788 layer_factory.hpp:77] Creating layer relu1_2
I0630 12:57:33.786985 23788 net.cpp:100] Creating Layer relu1_2
I0630 12:57:33.786985 23788 net.cpp:434] relu1_2 <- conv1_2
I0630 12:57:33.786985 23788 net.cpp:395] relu1_2 -> conv1_2 (in-place)
I0630 12:57:33.786985 23788 net.cpp:150] Setting up relu1_2
I0630 12:57:33.787983 23788 net.cpp:157] Top shape: 1 64 512 512 (16777216)
I0630 12:57:33.787983 23788 net.cpp:165] Memory required for data: 296747008
I0630 12:57:33.787983 23788 layer_factory.hpp:77] Creating layer pool1
I0630 12:57:33.787983 23788 net.cpp:100] Creating Layer pool1
I0630 12:57:33.787983 23788 net.cpp:434] pool1 <- conv1_2
I0630 12:57:33.787983 23788 net.cpp:408] pool1 -> pool1
I0630 12:57:33.787983 23788 net.cpp:150] Setting up pool1
I0630 12:57:33.787983 23788 net.cpp:157] Top shape: 1 64 256 256 (4194304)
I0630 12:57:33.787983 23788 net.cpp:165] Memory required for data: 313524224
I0630 12:57:33.787983 23788 layer_factory.hpp:77] Creating layer conv2_1
I0630 12:57:33.787983 23788 net.cpp:100] Creating Layer conv2_1
I0630 12:57:33.787983 23788 net.cpp:434] conv2_1 <- pool1
I0630 12:57:33.787983 23788 net.cpp:408] conv2_1 -> conv2_1
I0630 12:57:33.790975 23788 net.cpp:150] Setting up conv2_1
I0630 12:57:33.790975 23788 net.cpp:157] Top shape: 1 128 256 256 (8388608)
I0630 12:57:33.790975 23788 net.cpp:165] Memory required for data: 347078656
I0630 12:57:33.790975 23788 layer_factory.hpp:77] Creating layer relu2_1
I0630 12:57:33.790975 23788 net.cpp:100] Creating Layer relu2_1
I0630 12:57:33.790975 23788 net.cpp:434] relu2_1 <- conv2_1
I0630 12:57:33.790975 23788 net.cpp:395] relu2_1 -> conv2_1 (in-place)
I0630 12:57:33.791972 23788 net.cpp:150] Setting up relu2_1
I0630 12:57:33.791972 23788 net.cpp:157] Top shape: 1 128 256 256 (8388608)
I0630 12:57:33.791972 23788 net.cpp:165] Memory required for data: 380633088
I0630 12:57:33.791972 23788 layer_factory.hpp:77] Creating layer conv2_2
I0630 12:57:33.791972 23788 net.cpp:100] Creating Layer conv2_2
I0630 12:57:33.791972 23788 net.cpp:434] conv2_2 <- conv2_1
I0630 12:57:33.791972 23788 net.cpp:408] conv2_2 -> conv2_2
I0630 12:57:33.794965 23788 net.cpp:150] Setting up conv2_2
I0630 12:57:33.794965 23788 net.cpp:157] Top shape: 1 128 256 256 (8388608)
I0630 12:57:33.794965 23788 net.cpp:165] Memory required for data: 414187520
I0630 12:57:33.794965 23788 layer_factory.hpp:77] Creating layer relu2_2
I0630 12:57:33.794965 23788 net.cpp:100] Creating Layer relu2_2
I0630 12:57:33.794965 23788 net.cpp:434] relu2_2 <- conv2_2
I0630 12:57:33.794965 23788 net.cpp:395] relu2_2 -> conv2_2 (in-place)
I0630 12:57:33.795961 23788 net.cpp:150] Setting up relu2_2
I0630 12:57:33.795961 23788 net.cpp:157] Top shape: 1 128 256 256 (8388608)
I0630 12:57:33.795961 23788 net.cpp:165] Memory required for data: 447741952
I0630 12:57:33.795961 23788 layer_factory.hpp:77] Creating layer pool2
I0630 12:57:33.795961 23788 net.cpp:100] Creating Layer pool2
I0630 12:57:33.795961 23788 net.cpp:434] pool2 <- conv2_2
I0630 12:57:33.795961 23788 net.cpp:408] pool2 -> pool2
I0630 12:57:33.795961 23788 net.cpp:150] Setting up pool2
I0630 12:57:33.795961 23788 net.cpp:157] Top shape: 1 128 128 128 (2097152)
I0630 12:57:33.795961 23788 net.cpp:165] Memory required for data: 456130560
I0630 12:57:33.795961 23788 layer_factory.hpp:77] Creating layer conv3_1
I0630 12:57:33.795961 23788 net.cpp:100] Creating Layer conv3_1
I0630 12:57:33.795961 23788 net.cpp:434] conv3_1 <- pool2
I0630 12:57:33.795961 23788 net.cpp:408] conv3_1 -> conv3_1
I0630 12:57:33.800948 23788 net.cpp:150] Setting up conv3_1
I0630 12:57:33.800948 23788 net.cpp:157] Top shape: 1 256 128 128 (4194304)
I0630 12:57:33.800948 23788 net.cpp:165] Memory required for data: 472907776
I0630 12:57:33.800948 23788 layer_factory.hpp:77] Creating layer relu3_1
I0630 12:57:33.800948 23788 net.cpp:100] Creating Layer relu3_1
I0630 12:57:33.800948 23788 net.cpp:434] relu3_1 <- conv3_1
I0630 12:57:33.800948 23788 net.cpp:395] relu3_1 -> conv3_1 (in-place)
I0630 12:57:33.801946 23788 net.cpp:150] Setting up relu3_1
I0630 12:57:33.801946 23788 net.cpp:157] Top shape: 1 256 128 128 (4194304)
I0630 12:57:33.801946 23788 net.cpp:165] Memory required for data: 489684992
I0630 12:57:33.801946 23788 layer_factory.hpp:77] Creating layer conv3_2
I0630 12:57:33.801946 23788 net.cpp:100] Creating Layer conv3_2
I0630 12:57:33.801946 23788 net.cpp:434] conv3_2 <- conv3_1
I0630 12:57:33.801946 23788 net.cpp:408] conv3_2 -> conv3_2
I0630 12:57:33.808928 23788 net.cpp:150] Setting up conv3_2
I0630 12:57:33.808928 23788 net.cpp:157] Top shape: 1 256 128 128 (4194304)
I0630 12:57:33.808928 23788 net.cpp:165] Memory required for data: 506462208
I0630 12:57:33.808928 23788 layer_factory.hpp:77] Creating layer relu3_2
I0630 12:57:33.808928 23788 net.cpp:100] Creating Layer relu3_2
I0630 12:57:33.808928 23788 net.cpp:434] relu3_2 <- conv3_2
I0630 12:57:33.808928 23788 net.cpp:395] relu3_2 -> conv3_2 (in-place)
I0630 12:57:33.809924 23788 net.cpp:150] Setting up relu3_2
I0630 12:57:33.809924 23788 net.cpp:157] Top shape: 1 256 128 128 (4194304)
I0630 12:57:33.809924 23788 net.cpp:165] Memory required for data: 523239424
I0630 12:57:33.809924 23788 layer_factory.hpp:77] Creating layer conv3_3
I0630 12:57:33.809924 23788 net.cpp:100] Creating Layer conv3_3
I0630 12:57:33.809924 23788 net.cpp:434] conv3_3 <- conv3_2
I0630 12:57:33.809924 23788 net.cpp:408] conv3_3 -> conv3_3
I0630 12:57:33.816905 23788 net.cpp:150] Setting up conv3_3
I0630 12:57:33.816905 23788 net.cpp:157] Top shape: 1 256 128 128 (4194304)
I0630 12:57:33.816905 23788 net.cpp:165] Memory required for data: 540016640
I0630 12:57:33.816905 23788 layer_factory.hpp:77] Creating layer relu3_3
I0630 12:57:33.816905 23788 net.cpp:100] Creating Layer relu3_3
I0630 12:57:33.816905 23788 net.cpp:434] relu3_3 <- conv3_3
I0630 12:57:33.816905 23788 net.cpp:395] relu3_3 -> conv3_3 (in-place)
I0630 12:57:33.816905 23788 net.cpp:150] Setting up relu3_3
I0630 12:57:33.817903 23788 net.cpp:157] Top shape: 1 256 128 128 (4194304)
I0630 12:57:33.817903 23788 net.cpp:165] Memory required for data: 556793856
I0630 12:57:33.817903 23788 layer_factory.hpp:77] Creating layer pool3
I0630 12:57:33.817903 23788 net.cpp:100] Creating Layer pool3
I0630 12:57:33.817903 23788 net.cpp:434] pool3 <- conv3_3
I0630 12:57:33.817903 23788 net.cpp:408] pool3 -> pool3
I0630 12:57:33.817903 23788 net.cpp:150] Setting up pool3
I0630 12:57:33.817903 23788 net.cpp:157] Top shape: 1 256 64 64 (1048576)
I0630 12:57:33.817903 23788 net.cpp:165] Memory required for data: 560988160
I0630 12:57:33.817903 23788 layer_factory.hpp:77] Creating layer conv4_1
I0630 12:57:33.817903 23788 net.cpp:100] Creating Layer conv4_1
I0630 12:57:33.817903 23788 net.cpp:434] conv4_1 <- pool3
I0630 12:57:33.817903 23788 net.cpp:408] conv4_1 -> conv4_1
I0630 12:57:33.827877 23788 net.cpp:150] Setting up conv4_1
I0630 12:57:33.827877 23788 net.cpp:157] Top shape: 1 512 64 64 (2097152)
I0630 12:57:33.827877 23788 net.cpp:165] Memory required for data: 569376768
I0630 12:57:33.827877 23788 layer_factory.hpp:77] Creating layer relu4_1
I0630 12:57:33.827877 23788 net.cpp:100] Creating Layer relu4_1
I0630 12:57:33.827877 23788 net.cpp:434] relu4_1 <- conv4_1
I0630 12:57:33.827877 23788 net.cpp:395] relu4_1 -> conv4_1 (in-place)
I0630 12:57:33.828873 23788 net.cpp:150] Setting up relu4_1
I0630 12:57:33.828873 23788 net.cpp:157] Top shape: 1 512 64 64 (2097152)
I0630 12:57:33.828873 23788 net.cpp:165] Memory required for data: 577765376
I0630 12:57:33.828873 23788 layer_factory.hpp:77] Creating layer conv4_2
I0630 12:57:33.828873 23788 net.cpp:100] Creating Layer conv4_2
I0630 12:57:33.828873 23788 net.cpp:434] conv4_2 <- conv4_1
I0630 12:57:33.828873 23788 net.cpp:408] conv4_2 -> conv4_2
I0630 12:57:33.846825 23788 net.cpp:150] Setting up conv4_2
I0630 12:57:33.846825 23788 net.cpp:157] Top shape: 1 512 64 64 (2097152)
I0630 12:57:33.846825 23788 net.cpp:165] Memory required for data: 586153984
I0630 12:57:33.847823 23788 layer_factory.hpp:77] Creating layer relu4_2
I0630 12:57:33.847823 23788 net.cpp:100] Creating Layer relu4_2
I0630 12:57:33.847823 23788 net.cpp:434] relu4_2 <- conv4_2
I0630 12:57:33.847823 23788 net.cpp:395] relu4_2 -> conv4_2 (in-place)
I0630 12:57:33.847823 23788 net.cpp:150] Setting up relu4_2
I0630 12:57:33.847823 23788 net.cpp:157] Top shape: 1 512 64 64 (2097152)
I0630 12:57:33.847823 23788 net.cpp:165] Memory required for data: 594542592
I0630 12:57:33.847823 23788 layer_factory.hpp:77] Creating layer conv4_3
I0630 12:57:33.847823 23788 net.cpp:100] Creating Layer conv4_3
I0630 12:57:33.847823 23788 net.cpp:434] conv4_3 <- conv4_2
I0630 12:57:33.847823 23788 net.cpp:408] conv4_3 -> conv4_3
I0630 12:57:33.864778 23788 net.cpp:150] Setting up conv4_3
I0630 12:57:33.864778 23788 net.cpp:157] Top shape: 1 512 64 64 (2097152)
I0630 12:57:33.864778 23788 net.cpp:165] Memory required for data: 602931200
I0630 12:57:33.864778 23788 layer_factory.hpp:77] Creating layer relu4_3
I0630 12:57:33.864778 23788 net.cpp:100] Creating Layer relu4_3
I0630 12:57:33.864778 23788 net.cpp:434] relu4_3 <- conv4_3
I0630 12:57:33.864778 23788 net.cpp:395] relu4_3 -> conv4_3 (in-place)
I0630 12:57:33.866772 23788 net.cpp:150] Setting up relu4_3
I0630 12:57:33.866772 23788 net.cpp:157] Top shape: 1 512 64 64 (2097152)
I0630 12:57:33.866772 23788 net.cpp:165] Memory required for data: 611319808
I0630 12:57:33.866772 23788 layer_factory.hpp:77] Creating layer conv4_3_relu4_3_0_split
I0630 12:57:33.866772 23788 net.cpp:100] Creating Layer conv4_3_relu4_3_0_split
I0630 12:57:33.866772 23788 net.cpp:434] conv4_3_relu4_3_0_split <- conv4_3
I0630 12:57:33.866772 23788 net.cpp:408] conv4_3_relu4_3_0_split -> conv4_3_relu4_3_0_split_0
I0630 12:57:33.866772 23788 net.cpp:408] conv4_3_relu4_3_0_split -> conv4_3_relu4_3_0_split_1
I0630 12:57:33.866772 23788 net.cpp:150] Setting up conv4_3_relu4_3_0_split
I0630 12:57:33.866772 23788 net.cpp:157] Top shape: 1 512 64 64 (2097152)
I0630 12:57:33.866772 23788 net.cpp:157] Top shape: 1 512 64 64 (2097152)
I0630 12:57:33.866772 23788 net.cpp:165] Memory required for data: 628097024
I0630 12:57:33.866772 23788 layer_factory.hpp:77] Creating layer pool4
I0630 12:57:33.866772 23788 net.cpp:100] Creating Layer pool4
I0630 12:57:33.866772 23788 net.cpp:434] pool4 <- conv4_3_relu4_3_0_split_0
I0630 12:57:33.866772 23788 net.cpp:408] pool4 -> pool4
I0630 12:57:33.866772 23788 net.cpp:150] Setting up pool4
I0630 12:57:33.866772 23788 net.cpp:157] Top shape: 1 512 32 32 (524288)
I0630 12:57:33.866772 23788 net.cpp:165] Memory required for data: 630194176
I0630 12:57:33.866772 23788 layer_factory.hpp:77] Creating layer conv5_1
I0630 12:57:33.866772 23788 net.cpp:100] Creating Layer conv5_1
I0630 12:57:33.866772 23788 net.cpp:434] conv5_1 <- pool4
I0630 12:57:33.866772 23788 net.cpp:408] conv5_1 -> conv5_1
I0630 12:57:33.883728 23788 net.cpp:150] Setting up conv5_1
I0630 12:57:33.883728 23788 net.cpp:157] Top shape: 1 512 32 32 (524288)
I0630 12:57:33.883728 23788 net.cpp:165] Memory required for data: 632291328
I0630 12:57:33.883728 23788 layer_factory.hpp:77] Creating layer relu5_1
I0630 12:57:33.883728 23788 net.cpp:100] Creating Layer relu5_1
I0630 12:57:33.883728 23788 net.cpp:434] relu5_1 <- conv5_1
I0630 12:57:33.883728 23788 net.cpp:395] relu5_1 -> conv5_1 (in-place)
I0630 12:57:33.884724 23788 net.cpp:150] Setting up relu5_1
I0630 12:57:33.884724 23788 net.cpp:157] Top shape: 1 512 32 32 (524288)
I0630 12:57:33.884724 23788 net.cpp:165] Memory required for data: 634388480
I0630 12:57:33.884724 23788 layer_factory.hpp:77] Creating layer conv5_2
I0630 12:57:33.884724 23788 net.cpp:100] Creating Layer conv5_2
I0630 12:57:33.884724 23788 net.cpp:434] conv5_2 <- conv5_1
I0630 12:57:33.884724 23788 net.cpp:408] conv5_2 -> conv5_2
I0630 12:57:33.901679 23788 net.cpp:150] Setting up conv5_2
I0630 12:57:33.901679 23788 net.cpp:157] Top shape: 1 512 32 32 (524288)
I0630 12:57:33.901679 23788 net.cpp:165] Memory required for data: 636485632
I0630 12:57:33.901679 23788 layer_factory.hpp:77] Creating layer relu5_2
I0630 12:57:33.901679 23788 net.cpp:100] Creating Layer relu5_2
I0630 12:57:33.901679 23788 net.cpp:434] relu5_2 <- conv5_2
I0630 12:57:33.901679 23788 net.cpp:395] relu5_2 -> conv5_2 (in-place)
I0630 12:57:33.901679 23788 net.cpp:150] Setting up relu5_2
I0630 12:57:33.902676 23788 net.cpp:157] Top shape: 1 512 32 32 (524288)
I0630 12:57:33.902676 23788 net.cpp:165] Memory required for data: 638582784
I0630 12:57:33.902676 23788 layer_factory.hpp:77] Creating layer conv5_3
I0630 12:57:33.902676 23788 net.cpp:100] Creating Layer conv5_3
I0630 12:57:33.902676 23788 net.cpp:434] conv5_3 <- conv5_2
I0630 12:57:33.902676 23788 net.cpp:408] conv5_3 -> conv5_3
I0630 12:57:33.919631 23788 net.cpp:150] Setting up conv5_3
I0630 12:57:33.919631 23788 net.cpp:157] Top shape: 1 512 32 32 (524288)
I0630 12:57:33.919631 23788 net.cpp:165] Memory required for data: 640679936
I0630 12:57:33.919631 23788 layer_factory.hpp:77] Creating layer relu5_3
I0630 12:57:33.919631 23788 net.cpp:100] Creating Layer relu5_3
I0630 12:57:33.919631 23788 net.cpp:434] relu5_3 <- conv5_3
I0630 12:57:33.919631 23788 net.cpp:395] relu5_3 -> conv5_3 (in-place)
I0630 12:57:33.920629 23788 net.cpp:150] Setting up relu5_3
I0630 12:57:33.920629 23788 net.cpp:157] Top shape: 1 512 32 32 (524288)
I0630 12:57:33.920629 23788 net.cpp:165] Memory required for data: 642777088
I0630 12:57:33.920629 23788 layer_factory.hpp:77] Creating layer pool5
I0630 12:57:33.920629 23788 net.cpp:100] Creating Layer pool5
I0630 12:57:33.920629 23788 net.cpp:434] pool5 <- conv5_3
I0630 12:57:33.920629 23788 net.cpp:408] pool5 -> pool5
I0630 12:57:33.920629 23788 net.cpp:150] Setting up pool5
I0630 12:57:33.920629 23788 net.cpp:157] Top shape: 1 512 32 32 (524288)
I0630 12:57:33.920629 23788 net.cpp:165] Memory required for data: 644874240
I0630 12:57:33.920629 23788 layer_factory.hpp:77] Creating layer fc6
I0630 12:57:33.920629 23788 net.cpp:100] Creating Layer fc6
I0630 12:57:33.920629 23788 net.cpp:434] fc6 <- pool5
I0630 12:57:33.920629 23788 net.cpp:408] fc6 -> fc6
I0630 12:57:33.949551 23788 net.cpp:150] Setting up fc6
I0630 12:57:33.949551 23788 net.cpp:157] Top shape: 1 1024 32 32 (1048576)
I0630 12:57:33.949551 23788 net.cpp:165] Memory required for data: 649068544
I0630 12:57:33.949551 23788 layer_factory.hpp:77] Creating layer relu6
I0630 12:57:33.949551 23788 net.cpp:100] Creating Layer relu6
I0630 12:57:33.949551 23788 net.cpp:434] relu6 <- fc6
I0630 12:57:33.949551 23788 net.cpp:395] relu6 -> fc6 (in-place)
I0630 12:57:33.950548 23788 net.cpp:150] Setting up relu6
I0630 12:57:33.950548 23788 net.cpp:157] Top shape: 1 1024 32 32 (1048576)
I0630 12:57:33.950548 23788 net.cpp:165] Memory required for data: 653262848
I0630 12:57:33.950548 23788 layer_factory.hpp:77] Creating layer fc7
I0630 12:57:33.950548 23788 net.cpp:100] Creating Layer fc7
I0630 12:57:33.950548 23788 net.cpp:434] fc7 <- fc6
I0630 12:57:33.950548 23788 net.cpp:408] fc7 -> fc7
I0630 12:57:33.959524 23788 net.cpp:150] Setting up fc7
I0630 12:57:33.959524 23788 net.cpp:157] Top shape: 1 1024 32 32 (1048576)
I0630 12:57:33.959524 23788 net.cpp:165] Memory required for data: 657457152
I0630 12:57:33.960521 23788 layer_factory.hpp:77] Creating layer relu7
I0630 12:57:33.960521 23788 net.cpp:100] Creating Layer relu7
I0630 12:57:33.960521 23788 net.cpp:434] relu7 <- fc7
I0630 12:57:33.960521 23788 net.cpp:395] relu7 -> fc7 (in-place)
I0630 12:57:33.960521 23788 net.cpp:150] Setting up relu7
I0630 12:57:33.960521 23788 net.cpp:157] Top shape: 1 1024 32 32 (1048576)
I0630 12:57:33.960521 23788 net.cpp:165] Memory required for data: 661651456
I0630 12:57:33.960521 23788 layer_factory.hpp:77] Creating layer fc7_relu7_0_split
I0630 12:57:33.960521 23788 net.cpp:100] Creating Layer fc7_relu7_0_split
I0630 12:57:33.960521 23788 net.cpp:434] fc7_relu7_0_split <- fc7
I0630 12:57:33.960521 23788 net.cpp:408] fc7_relu7_0_split -> fc7_relu7_0_split_0
I0630 12:57:33.960521 23788 net.cpp:408] fc7_relu7_0_split -> fc7_relu7_0_split_1
I0630 12:57:33.960521 23788 net.cpp:408] fc7_relu7_0_split -> fc7_relu7_0_split_2
I0630 12:57:33.960521 23788 net.cpp:408] fc7_relu7_0_split -> fc7_relu7_0_split_3
I0630 12:57:33.960521 23788 net.cpp:150] Setting up fc7_relu7_0_split
I0630 12:57:33.960521 23788 net.cpp:157] Top shape: 1 1024 32 32 (1048576)
I0630 12:57:33.960521 23788 net.cpp:157] Top shape: 1 1024 32 32 (1048576)
I0630 12:57:33.960521 23788 net.cpp:157] Top shape: 1 1024 32 32 (1048576)
I0630 12:57:33.960521 23788 net.cpp:157] Top shape: 1 1024 32 32 (1048576)
I0630 12:57:33.960521 23788 net.cpp:165] Memory required for data: 678428672
I0630 12:57:33.960521 23788 layer_factory.hpp:77] Creating layer conv8_1
I0630 12:57:33.960521 23788 net.cpp:100] Creating Layer conv8_1
I0630 12:57:33.960521 23788 net.cpp:434] conv8_1 <- fc7_relu7_0_split_0
I0630 12:57:33.960521 23788 net.cpp:408] conv8_1 -> conv8_1
I0630 12:57:33.965508 23788 net.cpp:150] Setting up conv8_1
I0630 12:57:33.965508 23788 net.cpp:157] Top shape: 1 256 32 32 (262144)
I0630 12:57:33.965508 23788 net.cpp:165] Memory required for data: 679477248
I0630 12:57:33.965508 23788 layer_factory.hpp:77] Creating layer conv8_1_relu
I0630 12:57:33.965508 23788 net.cpp:100] Creating Layer conv8_1_relu
I0630 12:57:33.965508 23788 net.cpp:434] conv8_1_relu <- conv8_1
I0630 12:57:33.965508 23788 net.cpp:395] conv8_1_relu -> conv8_1 (in-place)
I0630 12:57:33.966506 23788 net.cpp:150] Setting up conv8_1_relu
I0630 12:57:33.966506 23788 net.cpp:157] Top shape: 1 256 32 32 (262144)
I0630 12:57:33.966506 23788 net.cpp:165] Memory required for data: 680525824
I0630 12:57:33.966506 23788 layer_factory.hpp:77] Creating layer conv8_2
I0630 12:57:33.966506 23788 net.cpp:100] Creating Layer conv8_2
I0630 12:57:33.966506 23788 net.cpp:434] conv8_2 <- conv8_1
I0630 12:57:33.966506 23788 net.cpp:408] conv8_2 -> conv8_2
I0630 12:57:33.976480 23788 net.cpp:150] Setting up conv8_2
I0630 12:57:33.976480 23788 net.cpp:157] Top shape: 1 512 16 16 (131072)
I0630 12:57:33.976480 23788 net.cpp:165] Memory required for data: 681050112
I0630 12:57:33.976480 23788 layer_factory.hpp:77] Creating layer conv8_2_relu
I0630 12:57:33.976480 23788 net.cpp:100] Creating Layer conv8_2_relu
I0630 12:57:33.976480 23788 net.cpp:434] conv8_2_relu <- conv8_2
I0630 12:57:33.976480 23788 net.cpp:395] conv8_2_relu -> conv8_2 (in-place)
I0630 12:57:33.977476 23788 net.cpp:150] Setting up conv8_2_relu
I0630 12:57:33.977476 23788 net.cpp:157] Top shape: 1 512 16 16 (131072)
I0630 12:57:33.977476 23788 net.cpp:165] Memory required for data: 681574400
I0630 12:57:33.977476 23788 layer_factory.hpp:77] Creating layer conv8_2_conv8_2_relu_0_split
I0630 12:57:33.977476 23788 net.cpp:100] Creating Layer conv8_2_conv8_2_relu_0_split
I0630 12:57:33.977476 23788 net.cpp:434] conv8_2_conv8_2_relu_0_split <- conv8_2
I0630 12:57:33.977476 23788 net.cpp:408] conv8_2_conv8_2_relu_0_split -> conv8_2_conv8_2_relu_0_split_0
I0630 12:57:33.977476 23788 net.cpp:408] conv8_2_conv8_2_relu_0_split -> conv8_2_conv8_2_relu_0_split_1
I0630 12:57:33.977476 23788 net.cpp:408] conv8_2_conv8_2_relu_0_split -> conv8_2_conv8_2_relu_0_split_2
I0630 12:57:33.977476 23788 net.cpp:408] conv8_2_conv8_2_relu_0_split -> conv8_2_conv8_2_relu_0_split_3
I0630 12:57:33.977476 23788 net.cpp:150] Setting up conv8_2_conv8_2_relu_0_split
I0630 12:57:33.977476 23788 net.cpp:157] Top shape: 1 512 16 16 (131072)
I0630 12:57:33.977476 23788 net.cpp:157] Top shape: 1 512 16 16 (131072)
I0630 12:57:33.977476 23788 net.cpp:157] Top shape: 1 512 16 16 (131072)
I0630 12:57:33.977476 23788 net.cpp:157] Top shape: 1 512 16 16 (131072)
I0630 12:57:33.977476 23788 net.cpp:165] Memory required for data: 683671552
I0630 12:57:33.977476 23788 layer_factory.hpp:77] Creating layer conv9_1
I0630 12:57:33.977476 23788 net.cpp:100] Creating Layer conv9_1
I0630 12:57:33.977476 23788 net.cpp:434] conv9_1 <- conv8_2_conv8_2_relu_0_split_0
I0630 12:57:33.977476 23788 net.cpp:408] conv9_1 -> conv9_1
I0630 12:57:33.980468 23788 net.cpp:150] Setting up conv9_1
I0630 12:57:33.980468 23788 net.cpp:157] Top shape: 1 128 16 16 (32768)
I0630 12:57:33.980468 23788 net.cpp:165] Memory required for data: 683802624
I0630 12:57:33.980468 23788 layer_factory.hpp:77] Creating layer conv9_1_relu
I0630 12:57:33.980468 23788 net.cpp:100] Creating Layer conv9_1_relu
I0630 12:57:33.980468 23788 net.cpp:434] conv9_1_relu <- conv9_1
I0630 12:57:33.980468 23788 net.cpp:395] conv9_1_relu -> conv9_1 (in-place)
I0630 12:57:33.980468 23788 net.cpp:150] Setting up conv9_1_relu
I0630 12:57:33.980468 23788 net.cpp:157] Top shape: 1 128 16 16 (32768)
I0630 12:57:33.980468 23788 net.cpp:165] Memory required for data: 683933696
I0630 12:57:33.980468 23788 layer_factory.hpp:77] Creating layer conv9_2
I0630 12:57:33.980468 23788 net.cpp:100] Creating Layer conv9_2
I0630 12:57:33.980468 23788 net.cpp:434] conv9_2 <- conv9_1
I0630 12:57:33.980468 23788 net.cpp:408] conv9_2 -> conv9_2
I0630 12:57:33.985455 23788 net.cpp:150] Setting up conv9_2
I0630 12:57:33.985455 23788 net.cpp:157] Top shape: 1 256 8 8 (16384)
I0630 12:57:33.985455 23788 net.cpp:165] Memory required for data: 683999232
I0630 12:57:33.985455 23788 layer_factory.hpp:77] Creating layer conv9_2_relu
I0630 12:57:33.985455 23788 net.cpp:100] Creating Layer conv9_2_relu
I0630 12:57:33.985455 23788 net.cpp:434] conv9_2_relu <- conv9_2
I0630 12:57:33.985455 23788 net.cpp:395] conv9_2_relu -> conv9_2 (in-place)
I0630 12:57:33.986452 23788 net.cpp:150] Setting up conv9_2_relu
I0630 12:57:33.986452 23788 net.cpp:157] Top shape: 1 256 8 8 (16384)
I0630 12:57:33.986452 23788 net.cpp:165] Memory required for data: 684064768
I0630 12:57:33.986452 23788 layer_factory.hpp:77] Creating layer conv9_2_conv9_2_relu_0_split
I0630 12:57:33.986452 23788 net.cpp:100] Creating Layer conv9_2_conv9_2_relu_0_split
I0630 12:57:33.986452 23788 net.cpp:434] conv9_2_conv9_2_relu_0_split <- conv9_2
I0630 12:57:33.986452 23788 net.cpp:408] conv9_2_conv9_2_relu_0_split -> conv9_2_conv9_2_relu_0_split_0
I0630 12:57:33.986452 23788 net.cpp:408] conv9_2_conv9_2_relu_0_split -> conv9_2_conv9_2_relu_0_split_1
I0630 12:57:33.986452 23788 net.cpp:408] conv9_2_conv9_2_relu_0_split -> conv9_2_conv9_2_relu_0_split_2
I0630 12:57:33.986452 23788 net.cpp:408] conv9_2_conv9_2_relu_0_split -> conv9_2_conv9_2_relu_0_split_3
I0630 12:57:33.986452 23788 net.cpp:150] Setting up conv9_2_conv9_2_relu_0_split
I0630 12:57:33.986452 23788 net.cpp:157] Top shape: 1 256 8 8 (16384)
I0630 12:57:33.986452 23788 net.cpp:157] Top shape: 1 256 8 8 (16384)
I0630 12:57:33.986452 23788 net.cpp:157] Top shape: 1 256 8 8 (16384)
I0630 12:57:33.986452 23788 net.cpp:157] Top shape: 1 256 8 8 (16384)
I0630 12:57:33.986452 23788 net.cpp:165] Memory required for data: 684326912
I0630 12:57:33.986452 23788 layer_factory.hpp:77] Creating layer conv10_1
I0630 12:57:33.986452 23788 net.cpp:100] Creating Layer conv10_1
I0630 12:57:33.986452 23788 net.cpp:434] conv10_1 <- conv9_2_conv9_2_relu_0_split_0
I0630 12:57:33.986452 23788 net.cpp:408] conv10_1 -> conv10_1
I0630 12:57:33.988447 23788 net.cpp:150] Setting up conv10_1
I0630 12:57:33.988447 23788 net.cpp:157] Top shape: 1 128 8 8 (8192)
I0630 12:57:33.988447 23788 net.cpp:165] Memory required for data: 684359680
I0630 12:57:33.988447 23788 layer_factory.hpp:77] Creating layer conv10_1_relu
I0630 12:57:33.988447 23788 net.cpp:100] Creating Layer conv10_1_relu
I0630 12:57:33.988447 23788 net.cpp:434] conv10_1_relu <- conv10_1
I0630 12:57:33.988447 23788 net.cpp:395] conv10_1_relu -> conv10_1 (in-place)
I0630 12:57:33.989444 23788 net.cpp:150] Setting up conv10_1_relu
I0630 12:57:33.989444 23788 net.cpp:157] Top shape: 1 128 8 8 (8192)
I0630 12:57:33.989444 23788 net.cpp:165] Memory required for data: 684392448
I0630 12:57:33.989444 23788 layer_factory.hpp:77] Creating layer conv10_2
I0630 12:57:33.989444 23788 net.cpp:100] Creating Layer conv10_2
I0630 12:57:33.989444 23788 net.cpp:434] conv10_2 <- conv10_1
I0630 12:57:33.989444 23788 net.cpp:408] conv10_2 -> conv10_2
I0630 12:57:33.994431 23788 net.cpp:150] Setting up conv10_2
I0630 12:57:33.994431 23788 net.cpp:157] Top shape: 1 256 4 4 (4096)
I0630 12:57:33.994431 23788 net.cpp:165] Memory required for data: 684408832
I0630 12:57:33.994431 23788 layer_factory.hpp:77] Creating layer conv10_2_relu
I0630 12:57:33.994431 23788 net.cpp:100] Creating Layer conv10_2_relu
I0630 12:57:33.994431 23788 net.cpp:434] conv10_2_relu <- conv10_2
I0630 12:57:33.994431 23788 net.cpp:395] conv10_2_relu -> conv10_2 (in-place)
I0630 12:57:33.995429 23788 net.cpp:150] Setting up conv10_2_relu
I0630 12:57:33.995429 23788 net.cpp:157] Top shape: 1 256 4 4 (4096)
I0630 12:57:33.995429 23788 net.cpp:165] Memory required for data: 684425216
I0630 12:57:33.995429 23788 layer_factory.hpp:77] Creating layer conv10_2_conv10_2_relu_0_split
I0630 12:57:33.995429 23788 net.cpp:100] Creating Layer conv10_2_conv10_2_relu_0_split
I0630 12:57:33.995429 23788 net.cpp:434] conv10_2_conv10_2_relu_0_split <- conv10_2
I0630 12:57:33.995429 23788 net.cpp:408] conv10_2_conv10_2_relu_0_split -> conv10_2_conv10_2_relu_0_split_0
I0630 12:57:33.995429 23788 net.cpp:408] conv10_2_conv10_2_relu_0_split -> conv10_2_conv10_2_relu_0_split_1
I0630 12:57:33.995429 23788 net.cpp:408] conv10_2_conv10_2_relu_0_split -> conv10_2_conv10_2_relu_0_split_2
I0630 12:57:33.995429 23788 net.cpp:408] conv10_2_conv10_2_relu_0_split -> conv10_2_conv10_2_relu_0_split_3
I0630 12:57:33.995429 23788 net.cpp:150] Setting up conv10_2_conv10_2_relu_0_split
I0630 12:57:33.995429 23788 net.cpp:157] Top shape: 1 256 4 4 (4096)
I0630 12:57:33.995429 23788 net.cpp:157] Top shape: 1 256 4 4 (4096)
I0630 12:57:33.995429 23788 net.cpp:157] Top shape: 1 256 4 4 (4096)
I0630 12:57:33.995429 23788 net.cpp:157] Top shape: 1 256 4 4 (4096)
I0630 12:57:33.995429 23788 net.cpp:165] Memory required for data: 684490752
I0630 12:57:33.995429 23788 layer_factory.hpp:77] Creating layer conv11_1
I0630 12:57:33.995429 23788 net.cpp:100] Creating Layer conv11_1
I0630 12:57:33.995429 23788 net.cpp:434] conv11_1 <- conv10_2_conv10_2_relu_0_split_0
I0630 12:57:33.995429 23788 net.cpp:408] conv11_1 -> conv11_1
I0630 12:57:33.997423 23788 net.cpp:150] Setting up conv11_1
I0630 12:57:33.997423 23788 net.cpp:157] Top shape: 1 128 4 4 (2048)
I0630 12:57:33.997423 23788 net.cpp:165] Memory required for data: 684498944
I0630 12:57:33.997423 23788 layer_factory.hpp:77] Creating layer conv11_1_relu
I0630 12:57:33.997423 23788 net.cpp:100] Creating Layer conv11_1_relu
I0630 12:57:33.997423 23788 net.cpp:434] conv11_1_relu <- conv11_1
I0630 12:57:33.997423 23788 net.cpp:395] conv11_1_relu -> conv11_1 (in-place)
I0630 12:57:33.998420 23788 net.cpp:150] Setting up conv11_1_relu
I0630 12:57:33.998420 23788 net.cpp:157] Top shape: 1 128 4 4 (2048)
I0630 12:57:33.998420 23788 net.cpp:165] Memory required for data: 684507136
I0630 12:57:33.998420 23788 layer_factory.hpp:77] Creating layer conv11_2
I0630 12:57:33.998420 23788 net.cpp:100] Creating Layer conv11_2
I0630 12:57:33.998420 23788 net.cpp:434] conv11_2 <- conv11_1
I0630 12:57:33.998420 23788 net.cpp:408] conv11_2 -> conv11_2
I0630 12:57:34.002410 23788 net.cpp:150] Setting up conv11_2
I0630 12:57:34.003407 23788 net.cpp:157] Top shape: 1 256 2 2 (1024)
I0630 12:57:34.003407 23788 net.cpp:165] Memory required for data: 684511232
I0630 12:57:34.003407 23788 layer_factory.hpp:77] Creating layer conv11_2_relu
I0630 12:57:34.003407 23788 net.cpp:100] Creating Layer conv11_2_relu
I0630 12:57:34.003407 23788 net.cpp:434] conv11_2_relu <- conv11_2
I0630 12:57:34.003407 23788 net.cpp:395] conv11_2_relu -> conv11_2 (in-place)
I0630 12:57:34.003407 23788 net.cpp:150] Setting up conv11_2_relu
I0630 12:57:34.003407 23788 net.cpp:157] Top shape: 1 256 2 2 (1024)
I0630 12:57:34.003407 23788 net.cpp:165] Memory required for data: 684515328
I0630 12:57:34.003407 23788 layer_factory.hpp:77] Creating layer conv11_2_conv11_2_relu_0_split
I0630 12:57:34.003407 23788 net.cpp:100] Creating Layer conv11_2_conv11_2_relu_0_split
I0630 12:57:34.003407 23788 net.cpp:434] conv11_2_conv11_2_relu_0_split <- conv11_2
I0630 12:57:34.003407 23788 net.cpp:408] conv11_2_conv11_2_relu_0_split -> conv11_2_conv11_2_relu_0_split_0
I0630 12:57:34.003407 23788 net.cpp:408] conv11_2_conv11_2_relu_0_split -> conv11_2_conv11_2_relu_0_split_1
I0630 12:57:34.003407 23788 net.cpp:408] conv11_2_conv11_2_relu_0_split -> conv11_2_conv11_2_relu_0_split_2
I0630 12:57:34.003407 23788 net.cpp:408] conv11_2_conv11_2_relu_0_split -> conv11_2_conv11_2_relu_0_split_3
I0630 12:57:34.003407 23788 net.cpp:150] Setting up conv11_2_conv11_2_relu_0_split
I0630 12:57:34.003407 23788 net.cpp:157] Top shape: 1 256 2 2 (1024)
I0630 12:57:34.003407 23788 net.cpp:157] Top shape: 1 256 2 2 (1024)
I0630 12:57:34.003407 23788 net.cpp:157] Top shape: 1 256 2 2 (1024)
I0630 12:57:34.003407 23788 net.cpp:157] Top shape: 1 256 2 2 (1024)
I0630 12:57:34.003407 23788 net.cpp:165] Memory required for data: 684531712
I0630 12:57:34.003407 23788 layer_factory.hpp:77] Creating layer conv12_1
I0630 12:57:34.003407 23788 net.cpp:100] Creating Layer conv12_1
I0630 12:57:34.003407 23788 net.cpp:434] conv12_1 <- conv11_2_conv11_2_relu_0_split_0
I0630 12:57:34.004405 23788 net.cpp:408] conv12_1 -> conv12_1
I0630 12:57:34.006399 23788 net.cpp:150] Setting up conv12_1
I0630 12:57:34.006399 23788 net.cpp:157] Top shape: 1 128 2 2 (512)
I0630 12:57:34.006399 23788 net.cpp:165] Memory required for data: 684533760
I0630 12:57:34.006399 23788 layer_factory.hpp:77] Creating layer conv12_1_relu
I0630 12:57:34.006399 23788 net.cpp:100] Creating Layer conv12_1_relu
I0630 12:57:34.006399 23788 net.cpp:434] conv12_1_relu <- conv12_1
I0630 12:57:34.006399 23788 net.cpp:395] conv12_1_relu -> conv12_1 (in-place)
I0630 12:57:34.007396 23788 net.cpp:150] Setting up conv12_1_relu
I0630 12:57:34.007396 23788 net.cpp:157] Top shape: 1 128 2 2 (512)
I0630 12:57:34.007396 23788 net.cpp:165] Memory required for data: 684535808
I0630 12:57:34.007396 23788 layer_factory.hpp:77] Creating layer conv12_2
I0630 12:57:34.007396 23788 net.cpp:100] Creating Layer conv12_2
I0630 12:57:34.007396 23788 net.cpp:434] conv12_2 <- conv12_1
I0630 12:57:34.007396 23788 net.cpp:408] conv12_2 -> conv12_2
I0630 12:57:34.012383 23788 net.cpp:150] Setting up conv12_2
I0630 12:57:34.012383 23788 net.cpp:157] Top shape: 1 256 1 1 (256)
I0630 12:57:34.012383 23788 net.cpp:165] Memory required for data: 684536832
I0630 12:57:34.012383 23788 layer_factory.hpp:77] Creating layer conv12_2_relu
I0630 12:57:34.012383 23788 net.cpp:100] Creating Layer conv12_2_relu
I0630 12:57:34.012383 23788 net.cpp:434] conv12_2_relu <- conv12_2
I0630 12:57:34.012383 23788 net.cpp:395] conv12_2_relu -> conv12_2 (in-place)
I0630 12:57:34.013381 23788 net.cpp:150] Setting up conv12_2_relu
I0630 12:57:34.013381 23788 net.cpp:157] Top shape: 1 256 1 1 (256)
I0630 12:57:34.013381 23788 net.cpp:165] Memory required for data: 684537856
I0630 12:57:34.013381 23788 layer_factory.hpp:77] Creating layer conv12_2_conv12_2_relu_0_split
I0630 12:57:34.013381 23788 net.cpp:100] Creating Layer conv12_2_conv12_2_relu_0_split
I0630 12:57:34.013381 23788 net.cpp:434] conv12_2_conv12_2_relu_0_split <- conv12_2
I0630 12:57:34.013381 23788 net.cpp:408] conv12_2_conv12_2_relu_0_split -> conv12_2_conv12_2_relu_0_split_0
I0630 12:57:34.013381 23788 net.cpp:408] conv12_2_conv12_2_relu_0_split -> conv12_2_conv12_2_relu_0_split_1
I0630 12:57:34.013381 23788 net.cpp:408] conv12_2_conv12_2_relu_0_split -> conv12_2_conv12_2_relu_0_split_2
I0630 12:57:34.013381 23788 net.cpp:150] Setting up conv12_2_conv12_2_relu_0_split
I0630 12:57:34.013381 23788 net.cpp:157] Top shape: 1 256 1 1 (256)
I0630 12:57:34.013381 23788 net.cpp:157] Top shape: 1 256 1 1 (256)
I0630 12:57:34.013381 23788 net.cpp:157] Top shape: 1 256 1 1 (256)
I0630 12:57:34.013381 23788 net.cpp:165] Memory required for data: 684540928
I0630 12:57:34.013381 23788 layer_factory.hpp:77] Creating layer conv4_3_norm
I0630 12:57:34.013381 23788 net.cpp:100] Creating Layer conv4_3_norm
I0630 12:57:34.013381 23788 net.cpp:434] conv4_3_norm <- conv4_3_relu4_3_0_split_1
I0630 12:57:34.013381 23788 net.cpp:408] conv4_3_norm -> conv4_3_norm
I0630 12:57:34.013381 23788 net.cpp:150] Setting up conv4_3_norm
I0630 12:57:34.013381 23788 net.cpp:157] Top shape: 1 512 64 64 (2097152)
I0630 12:57:34.013381 23788 net.cpp:165] Memory required for data: 692929536
I0630 12:57:34.013381 23788 layer_factory.hpp:77] Creating layer conv4_3_norm_conv4_3_norm_0_split
I0630 12:57:34.013381 23788 net.cpp:100] Creating Layer conv4_3_norm_conv4_3_norm_0_split
I0630 12:57:34.013381 23788 net.cpp:434] conv4_3_norm_conv4_3_norm_0_split <- conv4_3_norm
I0630 12:57:34.013381 23788 net.cpp:408] conv4_3_norm_conv4_3_norm_0_split -> conv4_3_norm_conv4_3_norm_0_split_0
I0630 12:57:34.013381 23788 net.cpp:408] conv4_3_norm_conv4_3_norm_0_split -> conv4_3_norm_conv4_3_norm_0_split_1
I0630 12:57:34.013381 23788 net.cpp:408] conv4_3_norm_conv4_3_norm_0_split -> conv4_3_norm_conv4_3_norm_0_split_2
I0630 12:57:34.013381 23788 net.cpp:150] Setting up conv4_3_norm_conv4_3_norm_0_split
I0630 12:57:34.013381 23788 net.cpp:157] Top shape: 1 512 64 64 (2097152)
I0630 12:57:34.013381 23788 net.cpp:157] Top shape: 1 512 64 64 (2097152)
I0630 12:57:34.013381 23788 net.cpp:157] Top shape: 1 512 64 64 (2097152)
I0630 12:57:34.013381 23788 net.cpp:165] Memory required for data: 718095360
I0630 12:57:34.013381 23788 layer_factory.hpp:77] Creating layer conv4_3_norm_mbox_loc
I0630 12:57:34.013381 23788 net.cpp:100] Creating Layer conv4_3_norm_mbox_loc
I0630 12:57:34.013381 23788 net.cpp:434] conv4_3_norm_mbox_loc <- conv4_3_norm_conv4_3_norm_0_split_0
I0630 12:57:34.013381 23788 net.cpp:408] conv4_3_norm_mbox_loc -> conv4_3_norm_mbox_loc
I0630 12:57:34.016372 23788 net.cpp:150] Setting up conv4_3_norm_mbox_loc
I0630 12:57:34.016372 23788 net.cpp:157] Top shape: 1 16 64 64 (65536)
I0630 12:57:34.016372 23788 net.cpp:165] Memory required for data: 718357504
I0630 12:57:34.016372 23788 layer_factory.hpp:77] Creating layer conv4_3_norm_mbox_loc_perm
I0630 12:57:34.016372 23788 net.cpp:100] Creating Layer conv4_3_norm_mbox_loc_perm
I0630 12:57:34.016372 23788 net.cpp:434] conv4_3_norm_mbox_loc_perm <- conv4_3_norm_mbox_loc
I0630 12:57:34.016372 23788 net.cpp:408] conv4_3_norm_mbox_loc_perm -> conv4_3_norm_mbox_loc_perm
I0630 12:57:34.017369 23788 net.cpp:150] Setting up conv4_3_norm_mbox_loc_perm
I0630 12:57:34.017369 23788 net.cpp:157] Top shape: 1 64 64 16 (65536)
I0630 12:57:34.017369 23788 net.cpp:165] Memory required for data: 718619648
I0630 12:57:34.017369 23788 layer_factory.hpp:77] Creating layer conv4_3_norm_mbox_loc_flat
I0630 12:57:34.017369 23788 net.cpp:100] Creating Layer conv4_3_norm_mbox_loc_flat
I0630 12:57:34.017369 23788 net.cpp:434] conv4_3_norm_mbox_loc_flat <- conv4_3_norm_mbox_loc_perm
I0630 12:57:34.017369 23788 net.cpp:408] conv4_3_norm_mbox_loc_flat -> conv4_3_norm_mbox_loc_flat
I0630 12:57:34.017369 23788 net.cpp:150] Setting up conv4_3_norm_mbox_loc_flat
I0630 12:57:34.017369 23788 net.cpp:157] Top shape: 1 65536 (65536)
I0630 12:57:34.017369 23788 net.cpp:165] Memory required for data: 718881792
I0630 12:57:34.017369 23788 layer_factory.hpp:77] Creating layer conv4_3_norm_mbox_conf
I0630 12:57:34.017369 23788 net.cpp:100] Creating Layer conv4_3_norm_mbox_conf
I0630 12:57:34.017369 23788 net.cpp:434] conv4_3_norm_mbox_conf <- conv4_3_norm_conv4_3_norm_0_split_1
I0630 12:57:34.017369 23788 net.cpp:408] conv4_3_norm_mbox_conf -> conv4_3_norm_mbox_conf
I0630 12:57:34.020362 23788 net.cpp:150] Setting up conv4_3_norm_mbox_conf
I0630 12:57:34.020362 23788 net.cpp:157] Top shape: 1 12 64 64 (49152)
I0630 12:57:34.020362 23788 net.cpp:165] Memory required for data: 719078400
I0630 12:57:34.020362 23788 layer_factory.hpp:77] Creating layer conv4_3_norm_mbox_conf_perm
I0630 12:57:34.020362 23788 net.cpp:100] Creating Layer conv4_3_norm_mbox_conf_perm
I0630 12:57:34.020362 23788 net.cpp:434] conv4_3_norm_mbox_conf_perm <- conv4_3_norm_mbox_conf
I0630 12:57:34.020362 23788 net.cpp:408] conv4_3_norm_mbox_conf_perm -> conv4_3_norm_mbox_conf_perm
I0630 12:57:34.020362 23788 net.cpp:150] Setting up conv4_3_norm_mbox_conf_perm
I0630 12:57:34.020362 23788 net.cpp:157] Top shape: 1 64 64 12 (49152)
I0630 12:57:34.020362 23788 net.cpp:165] Memory required for data: 719275008
I0630 12:57:34.020362 23788 layer_factory.hpp:77] Creating layer conv4_3_norm_mbox_conf_flat
I0630 12:57:34.020362 23788 net.cpp:100] Creating Layer conv4_3_norm_mbox_conf_flat
I0630 12:57:34.020362 23788 net.cpp:434] conv4_3_norm_mbox_conf_flat <- conv4_3_norm_mbox_conf_perm
I0630 12:57:34.020362 23788 net.cpp:408] conv4_3_norm_mbox_conf_flat -> conv4_3_norm_mbox_conf_flat
I0630 12:57:34.020362 23788 net.cpp:150] Setting up conv4_3_norm_mbox_conf_flat
I0630 12:57:34.020362 23788 net.cpp:157] Top shape: 1 49152 (49152)
I0630 12:57:34.020362 23788 net.cpp:165] Memory required for data: 719471616
I0630 12:57:34.020362 23788 layer_factory.hpp:77] Creating layer conv4_3_norm_mbox_priorbox
I0630 12:57:34.020362 23788 net.cpp:100] Creating Layer conv4_3_norm_mbox_priorbox
I0630 12:57:34.020362 23788 net.cpp:434] conv4_3_norm_mbox_priorbox <- conv4_3_norm_conv4_3_norm_0_split_2
I0630 12:57:34.020362 23788 net.cpp:434] conv4_3_norm_mbox_priorbox <- data_input_0_split_1
I0630 12:57:34.020362 23788 net.cpp:408] conv4_3_norm_mbox_priorbox -> conv4_3_norm_mbox_priorbox
I0630 12:57:34.020362 23788 net.cpp:150] Setting up conv4_3_norm_mbox_priorbox
I0630 12:57:34.020362 23788 net.cpp:157] Top shape: 1 2 65536 (131072)
I0630 12:57:34.020362 23788 net.cpp:165] Memory required for data: 719995904
I0630 12:57:34.020362 23788 layer_factory.hpp:77] Creating layer fc7_mbox_loc
I0630 12:57:34.020362 23788 net.cpp:100] Creating Layer fc7_mbox_loc
I0630 12:57:34.020362 23788 net.cpp:434] fc7_mbox_loc <- fc7_relu7_0_split_1
I0630 12:57:34.020362 23788 net.cpp:408] fc7_mbox_loc -> fc7_mbox_loc
I0630 12:57:34.024351 23788 net.cpp:150] Setting up fc7_mbox_loc
I0630 12:57:34.024351 23788 net.cpp:157] Top shape: 1 24 32 32 (24576)
I0630 12:57:34.024351 23788 net.cpp:165] Memory required for data: 720094208
I0630 12:57:34.024351 23788 layer_factory.hpp:77] Creating layer fc7_mbox_loc_perm
I0630 12:57:34.024351 23788 net.cpp:100] Creating Layer fc7_mbox_loc_perm
I0630 12:57:34.024351 23788 net.cpp:434] fc7_mbox_loc_perm <- fc7_mbox_loc
I0630 12:57:34.024351 23788 net.cpp:408] fc7_mbox_loc_perm -> fc7_mbox_loc_perm
I0630 12:57:34.024351 23788 net.cpp:150] Setting up fc7_mbox_loc_perm
I0630 12:57:34.024351 23788 net.cpp:157] Top shape: 1 32 32 24 (24576)
I0630 12:57:34.024351 23788 net.cpp:165] Memory required for data: 720192512
I0630 12:57:34.024351 23788 layer_factory.hpp:77] Creating layer fc7_mbox_loc_flat
I0630 12:57:34.024351 23788 net.cpp:100] Creating Layer fc7_mbox_loc_flat
I0630 12:57:34.024351 23788 net.cpp:434] fc7_mbox_loc_flat <- fc7_mbox_loc_perm
I0630 12:57:34.024351 23788 net.cpp:408] fc7_mbox_loc_flat -> fc7_mbox_loc_flat
I0630 12:57:34.024351 23788 net.cpp:150] Setting up fc7_mbox_loc_flat
I0630 12:57:34.024351 23788 net.cpp:157] Top shape: 1 24576 (24576)
I0630 12:57:34.024351 23788 net.cpp:165] Memory required for data: 720290816
I0630 12:57:34.024351 23788 layer_factory.hpp:77] Creating layer fc7_mbox_conf
I0630 12:57:34.024351 23788 net.cpp:100] Creating Layer fc7_mbox_conf
I0630 12:57:34.024351 23788 net.cpp:434] fc7_mbox_conf <- fc7_relu7_0_split_2
I0630 12:57:34.024351 23788 net.cpp:408] fc7_mbox_conf -> fc7_mbox_conf
I0630 12:57:34.027343 23788 net.cpp:150] Setting up fc7_mbox_conf
I0630 12:57:34.027343 23788 net.cpp:157] Top shape: 1 18 32 32 (18432)
I0630 12:57:34.027343 23788 net.cpp:165] Memory required for data: 720364544
I0630 12:57:34.027343 23788 layer_factory.hpp:77] Creating layer fc7_mbox_conf_perm
I0630 12:57:34.027343 23788 net.cpp:100] Creating Layer fc7_mbox_conf_perm
I0630 12:57:34.027343 23788 net.cpp:434] fc7_mbox_conf_perm <- fc7_mbox_conf
I0630 12:57:34.027343 23788 net.cpp:408] fc7_mbox_conf_perm -> fc7_mbox_conf_perm
I0630 12:57:34.027343 23788 net.cpp:150] Setting up fc7_mbox_conf_perm
I0630 12:57:34.027343 23788 net.cpp:157] Top shape: 1 32 32 18 (18432)
I0630 12:57:34.027343 23788 net.cpp:165] Memory required for data: 720438272
I0630 12:57:34.027343 23788 layer_factory.hpp:77] Creating layer fc7_mbox_conf_flat
I0630 12:57:34.027343 23788 net.cpp:100] Creating Layer fc7_mbox_conf_flat
I0630 12:57:34.027343 23788 net.cpp:434] fc7_mbox_conf_flat <- fc7_mbox_conf_perm
I0630 12:57:34.027343 23788 net.cpp:408] fc7_mbox_conf_flat -> fc7_mbox_conf_flat
I0630 12:57:34.027343 23788 net.cpp:150] Setting up fc7_mbox_conf_flat
I0630 12:57:34.027343 23788 net.cpp:157] Top shape: 1 18432 (18432)
I0630 12:57:34.027343 23788 net.cpp:165] Memory required for data: 720512000
I0630 12:57:34.027343 23788 layer_factory.hpp:77] Creating layer fc7_mbox_priorbox
I0630 12:57:34.027343 23788 net.cpp:100] Creating Layer fc7_mbox_priorbox
I0630 12:57:34.027343 23788 net.cpp:434] fc7_mbox_priorbox <- fc7_relu7_0_split_3
I0630 12:57:34.027343 23788 net.cpp:434] fc7_mbox_priorbox <- data_input_0_split_2
I0630 12:57:34.027343 23788 net.cpp:408] fc7_mbox_priorbox -> fc7_mbox_priorbox
I0630 12:57:34.027343 23788 net.cpp:150] Setting up fc7_mbox_priorbox
I0630 12:57:34.027343 23788 net.cpp:157] Top shape: 1 2 24576 (49152)
I0630 12:57:34.027343 23788 net.cpp:165] Memory required for data: 720708608
I0630 12:57:34.027343 23788 layer_factory.hpp:77] Creating layer conv8_2_mbox_loc
I0630 12:57:34.027343 23788 net.cpp:100] Creating Layer conv8_2_mbox_loc
I0630 12:57:34.027343 23788 net.cpp:434] conv8_2_mbox_loc <- conv8_2_conv8_2_relu_0_split_1
I0630 12:57:34.027343 23788 net.cpp:408] conv8_2_mbox_loc -> conv8_2_mbox_loc
I0630 12:57:34.031332 23788 net.cpp:150] Setting up conv8_2_mbox_loc
I0630 12:57:34.031332 23788 net.cpp:157] Top shape: 1 24 16 16 (6144)
I0630 12:57:34.031332 23788 net.cpp:165] Memory required for data: 720733184
I0630 12:57:34.031332 23788 layer_factory.hpp:77] Creating layer conv8_2_mbox_loc_perm
I0630 12:57:34.031332 23788 net.cpp:100] Creating Layer conv8_2_mbox_loc_perm
I0630 12:57:34.031332 23788 net.cpp:434] conv8_2_mbox_loc_perm <- conv8_2_mbox_loc
I0630 12:57:34.031332 23788 net.cpp:408] conv8_2_mbox_loc_perm -> conv8_2_mbox_loc_perm
I0630 12:57:34.031332 23788 net.cpp:150] Setting up conv8_2_mbox_loc_perm
I0630 12:57:34.031332 23788 net.cpp:157] Top shape: 1 16 16 24 (6144)
I0630 12:57:34.031332 23788 net.cpp:165] Memory required for data: 720757760
I0630 12:57:34.031332 23788 layer_factory.hpp:77] Creating layer conv8_2_mbox_loc_flat
I0630 12:57:34.031332 23788 net.cpp:100] Creating Layer conv8_2_mbox_loc_flat
I0630 12:57:34.031332 23788 net.cpp:434] conv8_2_mbox_loc_flat <- conv8_2_mbox_loc_perm
I0630 12:57:34.031332 23788 net.cpp:408] conv8_2_mbox_loc_flat -> conv8_2_mbox_loc_flat
I0630 12:57:34.031332 23788 net.cpp:150] Setting up conv8_2_mbox_loc_flat
I0630 12:57:34.031332 23788 net.cpp:157] Top shape: 1 6144 (6144)
I0630 12:57:34.031332 23788 net.cpp:165] Memory required for data: 720782336
I0630 12:57:34.031332 23788 layer_factory.hpp:77] Creating layer conv8_2_mbox_conf
I0630 12:57:34.031332 23788 net.cpp:100] Creating Layer conv8_2_mbox_conf
I0630 12:57:34.031332 23788 net.cpp:434] conv8_2_mbox_conf <- conv8_2_conv8_2_relu_0_split_2
I0630 12:57:34.031332 23788 net.cpp:408] conv8_2_mbox_conf -> conv8_2_mbox_conf
I0630 12:57:34.034324 23788 net.cpp:150] Setting up conv8_2_mbox_conf
I0630 12:57:34.034324 23788 net.cpp:157] Top shape: 1 18 16 16 (4608)
I0630 12:57:34.034324 23788 net.cpp:165] Memory required for data: 720800768
I0630 12:57:34.034324 23788 layer_factory.hpp:77] Creating layer conv8_2_mbox_conf_perm
I0630 12:57:34.034324 23788 net.cpp:100] Creating Layer conv8_2_mbox_conf_perm
I0630 12:57:34.034324 23788 net.cpp:434] conv8_2_mbox_conf_perm <- conv8_2_mbox_conf
I0630 12:57:34.034324 23788 net.cpp:408] conv8_2_mbox_conf_perm -> conv8_2_mbox_conf_perm
I0630 12:57:34.034324 23788 net.cpp:150] Setting up conv8_2_mbox_conf_perm
I0630 12:57:34.034324 23788 net.cpp:157] Top shape: 1 16 16 18 (4608)
I0630 12:57:34.035322 23788 net.cpp:165] Memory required for data: 720819200
I0630 12:57:34.035322 23788 layer_factory.hpp:77] Creating layer conv8_2_mbox_conf_flat
I0630 12:57:34.035322 23788 net.cpp:100] Creating Layer conv8_2_mbox_conf_flat
I0630 12:57:34.035322 23788 net.cpp:434] conv8_2_mbox_conf_flat <- conv8_2_mbox_conf_perm
I0630 12:57:34.035322 23788 net.cpp:408] conv8_2_mbox_conf_flat -> conv8_2_mbox_conf_flat
I0630 12:57:34.035322 23788 net.cpp:150] Setting up conv8_2_mbox_conf_flat
I0630 12:57:34.035322 23788 net.cpp:157] Top shape: 1 4608 (4608)
I0630 12:57:34.035322 23788 net.cpp:165] Memory required for data: 720837632
I0630 12:57:34.035322 23788 layer_factory.hpp:77] Creating layer conv8_2_mbox_priorbox
I0630 12:57:34.035322 23788 net.cpp:100] Creating Layer conv8_2_mbox_priorbox
I0630 12:57:34.035322 23788 net.cpp:434] conv8_2_mbox_priorbox <- conv8_2_conv8_2_relu_0_split_3
I0630 12:57:34.035322 23788 net.cpp:434] conv8_2_mbox_priorbox <- data_input_0_split_3
I0630 12:57:34.035322 23788 net.cpp:408] conv8_2_mbox_priorbox -> conv8_2_mbox_priorbox
I0630 12:57:34.035322 23788 net.cpp:150] Setting up conv8_2_mbox_priorbox
I0630 12:57:34.035322 23788 net.cpp:157] Top shape: 1 2 6144 (12288)
I0630 12:57:34.035322 23788 net.cpp:165] Memory required for data: 720886784
I0630 12:57:34.035322 23788 layer_factory.hpp:77] Creating layer conv9_2_mbox_loc
I0630 12:57:34.035322 23788 net.cpp:100] Creating Layer conv9_2_mbox_loc
I0630 12:57:34.035322 23788 net.cpp:434] conv9_2_mbox_loc <- conv9_2_conv9_2_relu_0_split_1
I0630 12:57:34.035322 23788 net.cpp:408] conv9_2_mbox_loc -> conv9_2_mbox_loc
I0630 12:57:34.037317 23788 net.cpp:150] Setting up conv9_2_mbox_loc
I0630 12:57:34.037317 23788 net.cpp:157] Top shape: 1 24 8 8 (1536)
I0630 12:57:34.037317 23788 net.cpp:165] Memory required for data: 720892928
I0630 12:57:34.037317 23788 layer_factory.hpp:77] Creating layer conv9_2_mbox_loc_perm
I0630 12:57:34.037317 23788 net.cpp:100] Creating Layer conv9_2_mbox_loc_perm
I0630 12:57:34.037317 23788 net.cpp:434] conv9_2_mbox_loc_perm <- conv9_2_mbox_loc
I0630 12:57:34.037317 23788 net.cpp:408] conv9_2_mbox_loc_perm -> conv9_2_mbox_loc_perm
I0630 12:57:34.037317 23788 net.cpp:150] Setting up conv9_2_mbox_loc_perm
I0630 12:57:34.037317 23788 net.cpp:157] Top shape: 1 8 8 24 (1536)
I0630 12:57:34.037317 23788 net.cpp:165] Memory required for data: 720899072
I0630 12:57:34.037317 23788 layer_factory.hpp:77] Creating layer conv9_2_mbox_loc_flat
I0630 12:57:34.037317 23788 net.cpp:100] Creating Layer conv9_2_mbox_loc_flat
I0630 12:57:34.037317 23788 net.cpp:434] conv9_2_mbox_loc_flat <- conv9_2_mbox_loc_perm
I0630 12:57:34.037317 23788 net.cpp:408] conv9_2_mbox_loc_flat -> conv9_2_mbox_loc_flat
I0630 12:57:34.037317 23788 net.cpp:150] Setting up conv9_2_mbox_loc_flat
I0630 12:57:34.037317 23788 net.cpp:157] Top shape: 1 1536 (1536)
I0630 12:57:34.038313 23788 net.cpp:165] Memory required for data: 720905216
I0630 12:57:34.038313 23788 layer_factory.hpp:77] Creating layer conv9_2_mbox_conf
I0630 12:57:34.038313 23788 net.cpp:100] Creating Layer conv9_2_mbox_conf
I0630 12:57:34.038313 23788 net.cpp:434] conv9_2_mbox_conf <- conv9_2_conv9_2_relu_0_split_2
I0630 12:57:34.038313 23788 net.cpp:408] conv9_2_mbox_conf -> conv9_2_mbox_conf
I0630 12:57:34.040308 23788 net.cpp:150] Setting up conv9_2_mbox_conf
I0630 12:57:34.040308 23788 net.cpp:157] Top shape: 1 18 8 8 (1152)
I0630 12:57:34.040308 23788 net.cpp:165] Memory required for data: 720909824
I0630 12:57:34.040308 23788 layer_factory.hpp:77] Creating layer conv9_2_mbox_conf_perm
I0630 12:57:34.040308 23788 net.cpp:100] Creating Layer conv9_2_mbox_conf_perm
I0630 12:57:34.040308 23788 net.cpp:434] conv9_2_mbox_conf_perm <- conv9_2_mbox_conf
I0630 12:57:34.040308 23788 net.cpp:408] conv9_2_mbox_conf_perm -> conv9_2_mbox_conf_perm
I0630 12:57:34.040308 23788 net.cpp:150] Setting up conv9_2_mbox_conf_perm
I0630 12:57:34.040308 23788 net.cpp:157] Top shape: 1 8 8 18 (1152)
I0630 12:57:34.040308 23788 net.cpp:165] Memory required for data: 720914432
I0630 12:57:34.040308 23788 layer_factory.hpp:77] Creating layer conv9_2_mbox_conf_flat
I0630 12:57:34.040308 23788 net.cpp:100] Creating Layer conv9_2_mbox_conf_flat
I0630 12:57:34.040308 23788 net.cpp:434] conv9_2_mbox_conf_flat <- conv9_2_mbox_conf_perm
I0630 12:57:34.041306 23788 net.cpp:408] conv9_2_mbox_conf_flat -> conv9_2_mbox_conf_flat
I0630 12:57:34.041306 23788 net.cpp:150] Setting up conv9_2_mbox_conf_flat
I0630 12:57:34.041306 23788 net.cpp:157] Top shape: 1 1152 (1152)
I0630 12:57:34.041306 23788 net.cpp:165] Memory required for data: 720919040
I0630 12:57:34.041306 23788 layer_factory.hpp:77] Creating layer conv9_2_mbox_priorbox
I0630 12:57:34.041306 23788 net.cpp:100] Creating Layer conv9_2_mbox_priorbox
I0630 12:57:34.041306 23788 net.cpp:434] conv9_2_mbox_priorbox <- conv9_2_conv9_2_relu_0_split_3
I0630 12:57:34.041306 23788 net.cpp:434] conv9_2_mbox_priorbox <- data_input_0_split_4
I0630 12:57:34.041306 23788 net.cpp:408] conv9_2_mbox_priorbox -> conv9_2_mbox_priorbox
I0630 12:57:34.041306 23788 net.cpp:150] Setting up conv9_2_mbox_priorbox
I0630 12:57:34.041306 23788 net.cpp:157] Top shape: 1 2 1536 (3072)
I0630 12:57:34.041306 23788 net.cpp:165] Memory required for data: 720931328
I0630 12:57:34.041306 23788 layer_factory.hpp:77] Creating layer conv10_2_mbox_loc
I0630 12:57:34.041306 23788 net.cpp:100] Creating Layer conv10_2_mbox_loc
I0630 12:57:34.041306 23788 net.cpp:434] conv10_2_mbox_loc <- conv10_2_conv10_2_relu_0_split_1
I0630 12:57:34.041306 23788 net.cpp:408] conv10_2_mbox_loc -> conv10_2_mbox_loc
I0630 12:57:34.043300 23788 net.cpp:150] Setting up conv10_2_mbox_loc
I0630 12:57:34.043300 23788 net.cpp:157] Top shape: 1 24 4 4 (384)
I0630 12:57:34.043300 23788 net.cpp:165] Memory required for data: 720932864
I0630 12:57:34.043300 23788 layer_factory.hpp:77] Creating layer conv10_2_mbox_loc_perm
I0630 12:57:34.043300 23788 net.cpp:100] Creating Layer conv10_2_mbox_loc_perm
I0630 12:57:34.043300 23788 net.cpp:434] conv10_2_mbox_loc_perm <- conv10_2_mbox_loc
I0630 12:57:34.043300 23788 net.cpp:408] conv10_2_mbox_loc_perm -> conv10_2_mbox_loc_perm
I0630 12:57:34.043300 23788 net.cpp:150] Setting up conv10_2_mbox_loc_perm
I0630 12:57:34.043300 23788 net.cpp:157] Top shape: 1 4 4 24 (384)
I0630 12:57:34.043300 23788 net.cpp:165] Memory required for data: 720934400
I0630 12:57:34.043300 23788 layer_factory.hpp:77] Creating layer conv10_2_mbox_loc_flat
I0630 12:57:34.043300 23788 net.cpp:100] Creating Layer conv10_2_mbox_loc_flat
I0630 12:57:34.043300 23788 net.cpp:434] conv10_2_mbox_loc_flat <- conv10_2_mbox_loc_perm
I0630 12:57:34.043300 23788 net.cpp:408] conv10_2_mbox_loc_flat -> conv10_2_mbox_loc_flat
I0630 12:57:34.043300 23788 net.cpp:150] Setting up conv10_2_mbox_loc_flat
I0630 12:57:34.043300 23788 net.cpp:157] Top shape: 1 384 (384)
I0630 12:57:34.043300 23788 net.cpp:165] Memory required for data: 720935936
I0630 12:57:34.043300 23788 layer_factory.hpp:77] Creating layer conv10_2_mbox_conf
I0630 12:57:34.043300 23788 net.cpp:100] Creating Layer conv10_2_mbox_conf
I0630 12:57:34.043300 23788 net.cpp:434] conv10_2_mbox_conf <- conv10_2_conv10_2_relu_0_split_2
I0630 12:57:34.043300 23788 net.cpp:408] conv10_2_mbox_conf -> conv10_2_mbox_conf
I0630 12:57:34.046293 23788 net.cpp:150] Setting up conv10_2_mbox_conf
I0630 12:57:34.046293 23788 net.cpp:157] Top shape: 1 18 4 4 (288)
I0630 12:57:34.046293 23788 net.cpp:165] Memory required for data: 720937088
I0630 12:57:34.046293 23788 layer_factory.hpp:77] Creating layer conv10_2_mbox_conf_perm
I0630 12:57:34.046293 23788 net.cpp:100] Creating Layer conv10_2_mbox_conf_perm
I0630 12:57:34.046293 23788 net.cpp:434] conv10_2_mbox_conf_perm <- conv10_2_mbox_conf
I0630 12:57:34.046293 23788 net.cpp:408] conv10_2_mbox_conf_perm -> conv10_2_mbox_conf_perm
I0630 12:57:34.046293 23788 net.cpp:150] Setting up conv10_2_mbox_conf_perm
I0630 12:57:34.046293 23788 net.cpp:157] Top shape: 1 4 4 18 (288)
I0630 12:57:34.046293 23788 net.cpp:165] Memory required for data: 720938240
I0630 12:57:34.046293 23788 layer_factory.hpp:77] Creating layer conv10_2_mbox_conf_flat
I0630 12:57:34.046293 23788 net.cpp:100] Creating Layer conv10_2_mbox_conf_flat
I0630 12:57:34.046293 23788 net.cpp:434] conv10_2_mbox_conf_flat <- conv10_2_mbox_conf_perm
I0630 12:57:34.046293 23788 net.cpp:408] conv10_2_mbox_conf_flat -> conv10_2_mbox_conf_flat
I0630 12:57:34.046293 23788 net.cpp:150] Setting up conv10_2_mbox_conf_flat
I0630 12:57:34.046293 23788 net.cpp:157] Top shape: 1 288 (288)
I0630 12:57:34.046293 23788 net.cpp:165] Memory required for data: 720939392
I0630 12:57:34.046293 23788 layer_factory.hpp:77] Creating layer conv10_2_mbox_priorbox
I0630 12:57:34.046293 23788 net.cpp:100] Creating Layer conv10_2_mbox_priorbox
I0630 12:57:34.046293 23788 net.cpp:434] conv10_2_mbox_priorbox <- conv10_2_conv10_2_relu_0_split_3
I0630 12:57:34.046293 23788 net.cpp:434] conv10_2_mbox_priorbox <- data_input_0_split_5
I0630 12:57:34.046293 23788 net.cpp:408] conv10_2_mbox_priorbox -> conv10_2_mbox_priorbox
I0630 12:57:34.046293 23788 net.cpp:150] Setting up conv10_2_mbox_priorbox
I0630 12:57:34.047289 23788 net.cpp:157] Top shape: 1 2 384 (768)
I0630 12:57:34.047289 23788 net.cpp:165] Memory required for data: 720942464
I0630 12:57:34.047289 23788 layer_factory.hpp:77] Creating layer conv11_2_mbox_loc
I0630 12:57:34.047289 23788 net.cpp:100] Creating Layer conv11_2_mbox_loc
I0630 12:57:34.047289 23788 net.cpp:434] conv11_2_mbox_loc <- conv11_2_conv11_2_relu_0_split_1
I0630 12:57:34.047289 23788 net.cpp:408] conv11_2_mbox_loc -> conv11_2_mbox_loc
I0630 12:57:34.051280 23788 net.cpp:150] Setting up conv11_2_mbox_loc
I0630 12:57:34.051280 23788 net.cpp:157] Top shape: 1 16 2 2 (64)
I0630 12:57:34.051280 23788 net.cpp:165] Memory required for data: 720942720
I0630 12:57:34.051280 23788 layer_factory.hpp:77] Creating layer conv11_2_mbox_loc_perm
I0630 12:57:34.051280 23788 net.cpp:100] Creating Layer conv11_2_mbox_loc_perm
I0630 12:57:34.051280 23788 net.cpp:434] conv11_2_mbox_loc_perm <- conv11_2_mbox_loc
I0630 12:57:34.051280 23788 net.cpp:408] conv11_2_mbox_loc_perm -> conv11_2_mbox_loc_perm
I0630 12:57:34.051280 23788 net.cpp:150] Setting up conv11_2_mbox_loc_perm
I0630 12:57:34.051280 23788 net.cpp:157] Top shape: 1 2 2 16 (64)
I0630 12:57:34.051280 23788 net.cpp:165] Memory required for data: 720942976
I0630 12:57:34.051280 23788 layer_factory.hpp:77] Creating layer conv11_2_mbox_loc_flat
I0630 12:57:34.051280 23788 net.cpp:100] Creating Layer conv11_2_mbox_loc_flat
I0630 12:57:34.051280 23788 net.cpp:434] conv11_2_mbox_loc_flat <- conv11_2_mbox_loc_perm
I0630 12:57:34.051280 23788 net.cpp:408] conv11_2_mbox_loc_flat -> conv11_2_mbox_loc_flat
I0630 12:57:34.051280 23788 net.cpp:150] Setting up conv11_2_mbox_loc_flat
I0630 12:57:34.051280 23788 net.cpp:157] Top shape: 1 64 (64)
I0630 12:57:34.051280 23788 net.cpp:165] Memory required for data: 720943232
I0630 12:57:34.051280 23788 layer_factory.hpp:77] Creating layer conv11_2_mbox_conf
I0630 12:57:34.051280 23788 net.cpp:100] Creating Layer conv11_2_mbox_conf
I0630 12:57:34.051280 23788 net.cpp:434] conv11_2_mbox_conf <- conv11_2_conv11_2_relu_0_split_2
I0630 12:57:34.051280 23788 net.cpp:408] conv11_2_mbox_conf -> conv11_2_mbox_conf
I0630 12:57:34.053273 23788 net.cpp:150] Setting up conv11_2_mbox_conf
I0630 12:57:34.053273 23788 net.cpp:157] Top shape: 1 12 2 2 (48)
I0630 12:57:34.053273 23788 net.cpp:165] Memory required for data: 720943424
I0630 12:57:34.053273 23788 layer_factory.hpp:77] Creating layer conv11_2_mbox_conf_perm
I0630 12:57:34.053273 23788 net.cpp:100] Creating Layer conv11_2_mbox_conf_perm
I0630 12:57:34.053273 23788 net.cpp:434] conv11_2_mbox_conf_perm <- conv11_2_mbox_conf
I0630 12:57:34.053273 23788 net.cpp:408] conv11_2_mbox_conf_perm -> conv11_2_mbox_conf_perm
I0630 12:57:34.054271 23788 net.cpp:150] Setting up conv11_2_mbox_conf_perm
I0630 12:57:34.054271 23788 net.cpp:157] Top shape: 1 2 2 12 (48)
I0630 12:57:34.054271 23788 net.cpp:165] Memory required for data: 720943616
I0630 12:57:34.054271 23788 layer_factory.hpp:77] Creating layer conv11_2_mbox_conf_flat
I0630 12:57:34.054271 23788 net.cpp:100] Creating Layer conv11_2_mbox_conf_flat
I0630 12:57:34.054271 23788 net.cpp:434] conv11_2_mbox_conf_flat <- conv11_2_mbox_conf_perm
I0630 12:57:34.054271 23788 net.cpp:408] conv11_2_mbox_conf_flat -> conv11_2_mbox_conf_flat
I0630 12:57:34.054271 23788 net.cpp:150] Setting up conv11_2_mbox_conf_flat
I0630 12:57:34.054271 23788 net.cpp:157] Top shape: 1 48 (48)
I0630 12:57:34.054271 23788 net.cpp:165] Memory required for data: 720943808
I0630 12:57:34.054271 23788 layer_factory.hpp:77] Creating layer conv11_2_mbox_priorbox
I0630 12:57:34.054271 23788 net.cpp:100] Creating Layer conv11_2_mbox_priorbox
I0630 12:57:34.054271 23788 net.cpp:434] conv11_2_mbox_priorbox <- conv11_2_conv11_2_relu_0_split_3
I0630 12:57:34.054271 23788 net.cpp:434] conv11_2_mbox_priorbox <- data_input_0_split_6
I0630 12:57:34.054271 23788 net.cpp:408] conv11_2_mbox_priorbox -> conv11_2_mbox_priorbox
I0630 12:57:34.054271 23788 net.cpp:150] Setting up conv11_2_mbox_priorbox
I0630 12:57:34.054271 23788 net.cpp:157] Top shape: 1 2 64 (128)
I0630 12:57:34.054271 23788 net.cpp:165] Memory required for data: 720944320
I0630 12:57:34.054271 23788 layer_factory.hpp:77] Creating layer conv12_2_mbox_loc
I0630 12:57:34.054271 23788 net.cpp:100] Creating Layer conv12_2_mbox_loc
I0630 12:57:34.054271 23788 net.cpp:434] conv12_2_mbox_loc <- conv12_2_conv12_2_relu_0_split_0
I0630 12:57:34.054271 23788 net.cpp:408] conv12_2_mbox_loc -> conv12_2_mbox_loc
I0630 12:57:34.056265 23788 net.cpp:150] Setting up conv12_2_mbox_loc
I0630 12:57:34.056265 23788 net.cpp:157] Top shape: 1 16 1 1 (16)
I0630 12:57:34.056265 23788 net.cpp:165] Memory required for data: 720944384
I0630 12:57:34.056265 23788 layer_factory.hpp:77] Creating layer conv12_2_mbox_loc_perm
I0630 12:57:34.056265 23788 net.cpp:100] Creating Layer conv12_2_mbox_loc_perm
I0630 12:57:34.056265 23788 net.cpp:434] conv12_2_mbox_loc_perm <- conv12_2_mbox_loc
I0630 12:57:34.056265 23788 net.cpp:408] conv12_2_mbox_loc_perm -> conv12_2_mbox_loc_perm
I0630 12:57:34.056265 23788 net.cpp:150] Setting up conv12_2_mbox_loc_perm
I0630 12:57:34.056265 23788 net.cpp:157] Top shape: 1 1 1 16 (16)
I0630 12:57:34.056265 23788 net.cpp:165] Memory required for data: 720944448
I0630 12:57:34.056265 23788 layer_factory.hpp:77] Creating layer conv12_2_mbox_loc_flat
I0630 12:57:34.056265 23788 net.cpp:100] Creating Layer conv12_2_mbox_loc_flat
I0630 12:57:34.056265 23788 net.cpp:434] conv12_2_mbox_loc_flat <- conv12_2_mbox_loc_perm
I0630 12:57:34.056265 23788 net.cpp:408] conv12_2_mbox_loc_flat -> conv12_2_mbox_loc_flat
I0630 12:57:34.056265 23788 net.cpp:150] Setting up conv12_2_mbox_loc_flat
I0630 12:57:34.056265 23788 net.cpp:157] Top shape: 1 16 (16)
I0630 12:57:34.056265 23788 net.cpp:165] Memory required for data: 720944512
I0630 12:57:34.056265 23788 layer_factory.hpp:77] Creating layer conv12_2_mbox_conf
I0630 12:57:34.056265 23788 net.cpp:100] Creating Layer conv12_2_mbox_conf
I0630 12:57:34.056265 23788 net.cpp:434] conv12_2_mbox_conf <- conv12_2_conv12_2_relu_0_split_1
I0630 12:57:34.056265 23788 net.cpp:408] conv12_2_mbox_conf -> conv12_2_mbox_conf
I0630 12:57:34.059257 23788 net.cpp:150] Setting up conv12_2_mbox_conf
I0630 12:57:34.059257 23788 net.cpp:157] Top shape: 1 12 1 1 (12)
I0630 12:57:34.059257 23788 net.cpp:165] Memory required for data: 720944560
I0630 12:57:34.059257 23788 layer_factory.hpp:77] Creating layer conv12_2_mbox_conf_perm
I0630 12:57:34.059257 23788 net.cpp:100] Creating Layer conv12_2_mbox_conf_perm
I0630 12:57:34.059257 23788 net.cpp:434] conv12_2_mbox_conf_perm <- conv12_2_mbox_conf
I0630 12:57:34.059257 23788 net.cpp:408] conv12_2_mbox_conf_perm -> conv12_2_mbox_conf_perm
I0630 12:57:34.059257 23788 net.cpp:150] Setting up conv12_2_mbox_conf_perm
I0630 12:57:34.059257 23788 net.cpp:157] Top shape: 1 1 1 12 (12)
I0630 12:57:34.059257 23788 net.cpp:165] Memory required for data: 720944608
I0630 12:57:34.059257 23788 layer_factory.hpp:77] Creating layer conv12_2_mbox_conf_flat
I0630 12:57:34.059257 23788 net.cpp:100] Creating Layer conv12_2_mbox_conf_flat
I0630 12:57:34.059257 23788 net.cpp:434] conv12_2_mbox_conf_flat <- conv12_2_mbox_conf_perm
I0630 12:57:34.059257 23788 net.cpp:408] conv12_2_mbox_conf_flat -> conv12_2_mbox_conf_flat
I0630 12:57:34.059257 23788 net.cpp:150] Setting up conv12_2_mbox_conf_flat
I0630 12:57:34.059257 23788 net.cpp:157] Top shape: 1 12 (12)
I0630 12:57:34.059257 23788 net.cpp:165] Memory required for data: 720944656
I0630 12:57:34.059257 23788 layer_factory.hpp:77] Creating layer conv12_2_mbox_priorbox
I0630 12:57:34.059257 23788 net.cpp:100] Creating Layer conv12_2_mbox_priorbox
I0630 12:57:34.059257 23788 net.cpp:434] conv12_2_mbox_priorbox <- conv12_2_conv12_2_relu_0_split_2
I0630 12:57:34.059257 23788 net.cpp:434] conv12_2_mbox_priorbox <- data_input_0_split_7
I0630 12:57:34.059257 23788 net.cpp:408] conv12_2_mbox_priorbox -> conv12_2_mbox_priorbox
I0630 12:57:34.059257 23788 net.cpp:150] Setting up conv12_2_mbox_priorbox
I0630 12:57:34.059257 23788 net.cpp:157] Top shape: 1 2 16 (32)
I0630 12:57:34.059257 23788 net.cpp:165] Memory required for data: 720944784
I0630 12:57:34.059257 23788 layer_factory.hpp:77] Creating layer mbox_loc
I0630 12:57:34.059257 23788 net.cpp:100] Creating Layer mbox_loc
I0630 12:57:34.059257 23788 net.cpp:434] mbox_loc <- conv4_3_norm_mbox_loc_flat
I0630 12:57:34.059257 23788 net.cpp:434] mbox_loc <- fc7_mbox_loc_flat
I0630 12:57:34.059257 23788 net.cpp:434] mbox_loc <- conv8_2_mbox_loc_flat
I0630 12:57:34.059257 23788 net.cpp:434] mbox_loc <- conv9_2_mbox_loc_flat
I0630 12:57:34.059257 23788 net.cpp:434] mbox_loc <- conv10_2_mbox_loc_flat
I0630 12:57:34.059257 23788 net.cpp:434] mbox_loc <- conv11_2_mbox_loc_flat
I0630 12:57:34.059257 23788 net.cpp:434] mbox_loc <- conv12_2_mbox_loc_flat
I0630 12:57:34.059257 23788 net.cpp:408] mbox_loc -> mbox_loc
I0630 12:57:34.059257 23788 net.cpp:150] Setting up mbox_loc
I0630 12:57:34.059257 23788 net.cpp:157] Top shape: 1 98256 (98256)
I0630 12:57:34.059257 23788 net.cpp:165] Memory required for data: 721337808
I0630 12:57:34.059257 23788 layer_factory.hpp:77] Creating layer mbox_conf
I0630 12:57:34.059257 23788 net.cpp:100] Creating Layer mbox_conf
I0630 12:57:34.059257 23788 net.cpp:434] mbox_conf <- conv4_3_norm_mbox_conf_flat
I0630 12:57:34.059257 23788 net.cpp:434] mbox_conf <- fc7_mbox_conf_flat
I0630 12:57:34.059257 23788 net.cpp:434] mbox_conf <- conv8_2_mbox_conf_flat
I0630 12:57:34.059257 23788 net.cpp:434] mbox_conf <- conv9_2_mbox_conf_flat
I0630 12:57:34.059257 23788 net.cpp:434] mbox_conf <- conv10_2_mbox_conf_flat
I0630 12:57:34.059257 23788 net.cpp:434] mbox_conf <- conv11_2_mbox_conf_flat
I0630 12:57:34.059257 23788 net.cpp:434] mbox_conf <- conv12_2_mbox_conf_flat
I0630 12:57:34.059257 23788 net.cpp:408] mbox_conf -> mbox_conf
I0630 12:57:34.059257 23788 net.cpp:150] Setting up mbox_conf
I0630 12:57:34.059257 23788 net.cpp:157] Top shape: 1 73692 (73692)
I0630 12:57:34.059257 23788 net.cpp:165] Memory required for data: 721632576
I0630 12:57:34.059257 23788 layer_factory.hpp:77] Creating layer mbox_priorbox
I0630 12:57:34.059257 23788 net.cpp:100] Creating Layer mbox_priorbox
I0630 12:57:34.059257 23788 net.cpp:434] mbox_priorbox <- conv4_3_norm_mbox_priorbox
I0630 12:57:34.059257 23788 net.cpp:434] mbox_priorbox <- fc7_mbox_priorbox
I0630 12:57:34.059257 23788 net.cpp:434] mbox_priorbox <- conv8_2_mbox_priorbox
I0630 12:57:34.059257 23788 net.cpp:434] mbox_priorbox <- conv9_2_mbox_priorbox
I0630 12:57:34.059257 23788 net.cpp:434] mbox_priorbox <- conv10_2_mbox_priorbox
I0630 12:57:34.059257 23788 net.cpp:434] mbox_priorbox <- conv11_2_mbox_priorbox
I0630 12:57:34.059257 23788 net.cpp:434] mbox_priorbox <- conv12_2_mbox_priorbox
I0630 12:57:34.059257 23788 net.cpp:408] mbox_priorbox -> mbox_priorbox
I0630 12:57:34.059257 23788 net.cpp:150] Setting up mbox_priorbox
I0630 12:57:34.059257 23788 net.cpp:157] Top shape: 1 2 98256 (196512)
I0630 12:57:34.059257 23788 net.cpp:165] Memory required for data: 722418624
I0630 12:57:34.059257 23788 layer_factory.hpp:77] Creating layer mbox_conf_reshape
I0630 12:57:34.059257 23788 net.cpp:100] Creating Layer mbox_conf_reshape
I0630 12:57:34.059257 23788 net.cpp:434] mbox_conf_reshape <- mbox_conf
I0630 12:57:34.059257 23788 net.cpp:408] mbox_conf_reshape -> mbox_conf_reshape
I0630 12:57:34.059257 23788 net.cpp:150] Setting up mbox_conf_reshape
I0630 12:57:34.059257 23788 net.cpp:157] Top shape: 1 24564 3 (73692)
I0630 12:57:34.059257 23788 net.cpp:165] Memory required for data: 722713392
I0630 12:57:34.060256 23788 layer_factory.hpp:77] Creating layer mbox_conf_softmax
I0630 12:57:34.060256 23788 net.cpp:100] Creating Layer mbox_conf_softmax
I0630 12:57:34.060256 23788 net.cpp:434] mbox_conf_softmax <- mbox_conf_reshape
I0630 12:57:34.060256 23788 net.cpp:408] mbox_conf_softmax -> mbox_conf_softmax
I0630 12:57:34.061252 23788 net.cpp:150] Setting up mbox_conf_softmax
I0630 12:57:34.061252 23788 net.cpp:157] Top shape: 1 24564 3 (73692)
I0630 12:57:34.061252 23788 net.cpp:165] Memory required for data: 723008160
I0630 12:57:34.061252 23788 layer_factory.hpp:77] Creating layer mbox_conf_flatten
I0630 12:57:34.061252 23788 net.cpp:100] Creating Layer mbox_conf_flatten
I0630 12:57:34.061252 23788 net.cpp:434] mbox_conf_flatten <- mbox_conf_softmax
I0630 12:57:34.061252 23788 net.cpp:408] mbox_conf_flatten -> mbox_conf_flatten
I0630 12:57:34.061252 23788 net.cpp:150] Setting up mbox_conf_flatten
I0630 12:57:34.061252 23788 net.cpp:157] Top shape: 1 73692 (73692)
I0630 12:57:34.061252 23788 net.cpp:165] Memory required for data: 723302928
I0630 12:57:34.061252 23788 net.cpp:228] mbox_conf_flatten does not need backward computation.
I0630 12:57:34.061252 23788 net.cpp:228] mbox_conf_softmax does not need backward computation.
I0630 12:57:34.061252 23788 net.cpp:228] mbox_conf_reshape does not need backward computation.
I0630 12:57:34.061252 23788 net.cpp:228] mbox_priorbox does not need backward computation.
…
