…
      sampler {
        min_scale: 0.3
        max_scale: 1
        min_aspect_ratio: 0.5
        max_aspect_ratio: 2
      }
      sample_constraint {
        min_jaccard_overlap: 0.9
      }
      max_sample: 1
      max_trials: 50
    }
    batch_sampler {
      sampler {
        min_scale: 0.3
        max_scale: 1
        min_aspect_ratio: 0.5
        max_aspect_ratio: 2
      }
      sample_constraint {
        max_jaccard_overlap: 1
      }
      max_sample: 1
      max_trials: 50
    }
    label_map_file: "data\\wastedata\\labelmap_waste.prototxt"
  }
}
layer {
  name: "conv1_1"
  type: "Convolution"
  bottom: "data"
  top: "conv1_1"
  param {
    lr_mult: 1
    decay_mult: 1
  }
  param {
    lr_mult: 1
    decay_mult: 0
  }
  convolution_param {
    num_output: 64
    pad: 1
    kernel_size: 3
    weight_filler {
      type: "xavier"
    }
    bias_filler {
      type: "constant"
      value: 0
    }
  }
}
layer {
  name: "relu1_1"
  type: "ReLU"
  bottom: "conv1_1"
  top: "conv1_1"
}
layer {
  name: "conv1_2"
  type: "Convolution"
  bottom: "conv1_1"
  top: "conv1_2"
  param {
    lr_mult: 1
    decay_mult: 1
  }
  param {
    lr_mult: 1
    decay_mult: 0
  }
  convolution_param {
    num_output: 64
    pad: 1
    kernel_size: 3
    weight_filler {
      type: "xavier"
    }
    bias_filler {
      type: "constant"
      value: 0
    }
  }
}
layer {
  name: "relu1_2"
  type: "ReLU"
  bottom: "conv1_2"
  top: "conv1_2"
}
layer {
  name: "pool1"
  type: "Pooling"
  bottom: "conv1_2"
  top: "pool1"
  pooling_param {
    pool: MAX
    kernel_size: 2
    stride: 2
  }
}
layer {
  name: "conv2_1"
  type: "Convolution"
  bottom: "pool1"
  top: "conv2_1"
  param {
    lr_mult: 1
    decay_mult: 1
  }
  param {
    lr_mult: 1
    decay_mult: 0
  }
  convolution_param {
    num_output: 128
    pad: 1
    kernel_size: 3
    weight_filler {
      type: "xavier"
    }
    bias_filler {
      type: "constant"
      value: 0
    }
  }
}
layer {
  name: "relu2_1"
  type: "ReLU"
  bottom: "conv2_1"
  top: "conv2_1"
}
layer {
  name: "conv2_2"
  type: "Convolution"
  bottom: "conv2_1"
  top: "conv2_2"
  param {
    lr_mult: 1
    decay_mult: 1
  }
  param {
    lr_mult: 1
    decay_mult: 0
  }
  convolution_param {
    num_output: 128
    pad: 1
    kernel_size: 3
    weight_filler {
      type: "xavier"
    }
    bias_filler {
      type: "constant"
      value: 0
    }
  }
}
layer {
  name: "relu2_2"
  type: "ReLU"
  bottom: "conv2_2"
  top: "conv2_2"
}
layer {
  name: "pool2"
  type: "Pooling"
  bottom: "conv2_2"
  top: "pool2"
  pooling_param {
    pool: MAX
    kernel_size: 2
    stride: 2
  }
}
layer {
  name: "conv3_1"
  type: "Convolution"
  bottom: "pool2"
  top: "conv3_1"
  param {
    lr_mult: 1
    decay_mult: 1
  }
  param {
    lr_mult: 1
    decay_mult: 0
  }
  convolution_param {
    num_output: 256
    pad: 1
    kernel_size: 3
    weight_filler {
      type: "xavier"
    }
    bias_filler {
      type: "constant"
      value: 0
    }
  }
}
layer {
  name: "relu3_1"
  type: "ReLU"
  bottom: "conv3_1"
  top: "conv3_1"
}
layer {
  name: "conv3_2"
  type: "Convolution"
  bottom: "conv3_1"
  top: "conv3_2"
  param {
    lr_mult: 1
    decay_mult: 1
  }
  param {
    lr_mult: 1
    decay_mult: 0
  }
  convolution_param {
    num_output: 256
    pad: 1
    kernel_size: 3
    weight_filler {
      type: "xavier"
    }
    bias_filler {
      type: "constant"
      value: 0
    }
  }
}
layer {
  name: "relu3_2"
  type: "ReLU"
  bottom: "conv3_2"
  top: "conv3_2"
}
layer {
  name: "conv3_3"
  type: "Convolution"
  bottom: "conv3_2"
  top: "conv3_3"
  param {
    lr_mult: 1
    decay_mult: 1
  }
  param {
    lr_mult: 1
    decay_mult: 0
  }
  convolution_param {
    num_output: 256
    pad: 1
    kernel_size: 3
    weight_filler {
      type: "xavier"
    }
    bias_filler {
      type: "constant"
      value: 0
    }
  }
}
layer {
  name: "relu3_3"
  type: "ReLU"
  bottom: "conv3_3"
  top: "conv3_3"
}
layer {
  name: "pool3"
  type: "Pooling"
  bottom: "conv3_3"
  top: "pool3"
  pooling_param {
    pool: MAX
    kernel_size: 2
    stride: 2
  }
}
layer {
  name: "conv4_1"
  type: "Convolution"
  bottom: "pool3"
  top: "conv4_1"
  param {
    lr_mult: 1
    decay_mult: 1
  }
  param {
    lr_mult: 1
    decay_mult: 0
  }
  convolution_param {
    num_output: 512
    pad: 1
    kernel_size: 3
    weight_filler {
      type: "xavier"
    }
    bias_filler {
      type: "constant"
      value: 0
    }
  }
}
layer {
  name: "relu4_1"
  type: "ReLU"
  bottom: "conv4_1"
  top: "conv4_1"
}
layer {
  name: "conv4_2"
  type: "Convolution"
  bottom: "conv4_1"
  top: "conv4_2"
  param {
    lr_mult: 1
    decay_mult: 1
  }
  param {
    lr_mult: 1
    decay_mult: 0
  }
  convolution_param {
    num_output: 512
    pad: 1
    kernel_size: 3
    weight_filler {
      type: "xavier"
    }
    bias_filler {
      type: "constant"
      value: 0
    }
  }
}
layer {
  name: "relu4_2"
  type: "ReLU"
  bottom: "conv4_2"
  top: "conv4_2"
}
layer {
  name: "conv4_3"
  type: "Convolution"
  bottom: "conv4_2"
  top: "conv4_3"
  param {
    lr_mult: 1
    decay_mult: 1
  }
  param {
    lr_mult: 1
    decay_mult: 0
  }
  convolution_param {
    num_output: 512
    pad: 1
    kernel_size: 3
    weight_filler {
      type: "xavier"
    }
    bias_filler {
      type: "constant"
      value: 0
    }
  }
}
layer {
  name: "relu4_3"
  type: "ReLU"
  bottom: "conv4_3"
  top: "conv4_3"
}
layer {
  name: "pool4"
  type: "Pooling"
  bottom: "conv4_3"
  top: "pool4"
  pooling_param {
    pool: MAX
    kernel_size: 2
    stride: 2
  }
}
layer {
  name: "conv5_1"
  type: "Convolution"
  bottom: "pool4"
  top: "conv5_1"
  param {
    lr_mult: 1
    decay_mult: 1
  }
  param {
    lr_mult: 1
    decay_mult: 0
  }
  convolution_param {
    num_output: 512
    pad: 1
    kernel_size: 3
    weight_filler {
      type: "xavier"
    }
    bias_filler {
      type: "constant"
      value: 0
    }
    dilation: 1
  }
}
layer {
  name: "relu5_1"
  type: "ReLU"
  bottom: "conv5_1"
  top: "conv5_1"
}
layer {
  name: "conv5_2"
  type: "Convolution"
  bottom: "conv5_1"
  top: "conv5_2"
  param {
    lr_mult: 1
    decay_mult: 1
  }
  param {
    lr_mult: 1
    decay_mult: 0
  }
  convolution_param {
    num_output: 512
    pad: 1
    kernel_size: 3
    weight_filler {
      type: "xavier"
    }
    bias_filler {
      type: "constant"
      value: 0
    }
    dilation: 1
  }
}
layer {
  name: "relu5_2"
  type: "ReLU"
  bottom: "conv5_2"
  top: "conv5_2"
}
layer {
  name: "conv5_3"
  type: "Convolution"
  bottom: "conv5_2"
  top: "conv5_3"
  param {
    lr_mult: 1
    decay_mult: 1
  }
  param {
    lr_mult: 1
    decay_mult: 0
  }
  convolution_param {
    num_output: 512
    pad: 1
    kernel_size: 3
    weight_filler {
      type: "xavier"
    }
    bias_filler {
      type: "constant"
      value: 0
    }
    dilation: 1
  }
}
layer {
  name: "relu5_3"
  type: "ReLU"
  bottom: "conv5_3"
  top: "conv5_3"
}
layer {
  name: "pool5"
  type: "Pooling"
  bottom: "conv5_3"
  top: "pool5"
  pooling_param {
    pool: MAX
    kernel_size: 3
    stride: 1
    pad: 1
  }
}
layer {
  name: "fc6"
  type: "Convolution"
  bottom: "pool5"
  top: "fc6"
  param {
    lr_mult: 1
    decay_mult: 1
  }
  param {
    lr_mult: 1
    decay_mult: 0
  }
  convolution_param {
    num_output: 1024
    pad: 6
    kernel_size: 3
    weight_filler {
      type: "xavier"
    }
    bias_filler {
      type: "constant"
      value: 0
    }
    dilation: 6
  }
}
layer {
  name: "relu6"
  type: "ReLU"
  bottom: "fc6"
  top: "fc6"
}
layer {
  name: "fc7"
  type: "Convolution"
  bottom: "fc6"
  top: "fc7"
  param {
    lr_mult: 1
    decay_mult: 1
  }
  param {
    lr_mult: 1
    decay_mult: 0
  }
  convolution_param {
    num_output: 1024
    kernel_size: 1
    weight_filler {
      type: "xavier"
    }
    bias_filler {
      type: "constant"
      value: 0
    }
  }
}
layer {
  name: "relu7"
  type: "ReLU"
  bottom: "fc7"
  top: "fc7"
}
layer {
  name: "conv8_1"
  type: "Convolution"
  bottom: "fc7"
  top: "conv8_1"
  param {
    lr_mult: 1
    decay_mult: 1
  }
  param {
    lr_mult: 2
    decay_mult: 0
  }
  convolution_param {
    num_output: 256
    pad: 0
    kernel_size: 1
    stride: 1
    weight_filler {
      type: "xavier"
    }
    bias_filler {
      type: "constant"
      value: 0
    }
  }
}
layer {
  name: "conv8_1_relu"
  type: "ReLU"
  bottom: "conv8_1"
  top: "conv8_1"
}
layer {
  name: "conv8_2"
  type: "Convolution"
  bottom: "conv8_1"
  top: "conv8_2"
  param {
    lr_mult: 1
    decay_mult: 1
  }
  param {
    lr_mult: 2
    decay_mult: 0
  }
  convolution_param {
    num_output: 512
    pad: 1
    kernel_size: 3
    stride: 2
    weight_filler {
      type: "xavier"
    }
    bias_filler {
      type: "constant"
      value: 0
    }
  }
}
layer {
  name: "conv8_2_relu"
  type: "ReLU"
  bottom: "conv8_2"
  top: "conv8_2"
}
layer {
  name: "conv9_1"
  type: "Convolution"
  bottom: "conv8_2"
  top: "conv9_1"
  param {
    lr_mult: 1
    decay_mult: 1
  }
  param {
    lr_mult: 2
    decay_mult: 0
  }
  convolution_param {
    num_output: 128
    pad: 0
    kernel_size: 1
    stride: 1
    weight_filler {
      type: "xavier"
    }
    bias_filler {
      type: "constant"
      value: 0
    }
  }
}
layer {
  name: "conv9_1_relu"
  type: "ReLU"
  bottom: "conv9_1"
  top: "conv9_1"
}
layer {
  name: "conv9_2"
  type: "Convolution"
  bottom: "conv9_1"
  top: "conv9_2"
  param {
    lr_mult: 1
    decay_mult: 1
  }
  param {
    lr_mult: 2
    decay_mult: 0
  }
  convolution_param {
    num_output: 256
    pad: 1
    kernel_size: 3
    stride: 2
    weight_filler {
      type: "xavier"
    }
    bias_filler {
      type: "constant"
      value: 0
    }
  }
}
layer {
  name: "conv9_2_relu"
  type: "ReLU"
  bottom: "conv9_2"
  top: "conv9_2"
}
layer {
  name: "conv10_1"
  type: "Convolution"
  bottom: "conv9_2"
  top: "conv10_1"
  param {
    lr_mult: 1
    decay_mult: 1
  }
  param {
    lr_mult: 2
    decay_mult: 0
  }
  convolution_param {
    num_output: 128
    pad: 0
    kernel_size: 1
    stride: 1
    weight_filler {
      type: "xavier"
    }
    bias_filler {
      type: "constant"
      value: 0
    }
  }
}
layer {
  name: "conv10_1_relu"
  type: "ReLU"
  bottom: "conv10_1"
  top: "conv10_1"
}
layer {
  name: "conv10_2"
  type: "Convolution"
  bottom: "conv10_1"
  top: "conv10_2"
  param {
    lr_mult: 1
    decay_mult: 1
  }
  param {
    lr_mult: 2
    decay_mult: 0
  }
  convolution_param {
    num_output: 256
    pad: 1
    kernel_size: 3
    stride: 2
    weight_filler {
      type: "xavier"
    }
    bias_filler {
      type: "constant"
      value: 0
    }
  }
}
layer {
  name: "conv10_2_relu"
  type: "ReLU"
  bottom: "conv10_2"
  top: "conv10_2"
}
layer {
  name: "conv11_1"
  type: "Convolution"
  bottom: "conv10_2"
  top: "conv11_1"
  param {
    lr_mult: 1
    decay_mult: 1
  }
  param {
    lr_mult: 2
    decay_mult: 0
  }
  convolution_param {
    num_output: 128
    pad: 0
    kernel_size: 1
    stride: 1
    weight_filler {
      type: "xavier"
    }
    bias_filler {
      type: "constant"
      value: 0
    }
  }
}
layer {
  name: "conv11_1_relu"
  type: "ReLU"
  bottom: "conv11_1"
  top: "conv11_1"
}
layer {
  name: "conv11_2"
  type: "Convolution"
  bottom: "conv11_1"
  top: "conv11_2"
  param {
    lr_mult: 1
    decay_mult: 1
  }
  param {
    lr_mult: 2
    decay_mult: 0
  }
  convolution_param {
    num_output: 256
    pad: 1
    kernel_size: 3
    stride: 2
    weight_filler {
      type: "xavier"
    }
    bias_filler {
      type: "constant"
      value: 0
    }
  }
}
layer {
  name: "conv11_2_relu"
  type: "ReLU"
  bottom: "conv11_2"
  top: "conv11_2"
}
layer {
  name: "conv12_1"
  type: "Convolution"
  bottom: "conv11_2"
  top: "conv12_1"
  param {
    lr_mult: 1
    decay_mult: 1
  }
  param {
    lr_mult: 2
    decay_mult: 0
  }
  convolution_param {
    num_output: 128
    pad: 0
    kernel_size: 1
    stride: 1
    weight_filler {
      type: "xavier"
    }
    bias_filler {
      type: "constant"
      value: 0
    }
  }
}
layer {
  name: "conv12_1_relu"
  type: "ReLU"
  bottom: "conv12_1"
  top: "conv12_1"
}
layer {
  name: "conv12_2"
  type: "Convolution"
  bottom: "conv12_1"
  top: "conv12_2"
  param {
    lr_mult: 1
    decay_mult: 1
  }
  param {
    lr_mult: 2
    decay_mult: 0
  }
  convolution_param {
    num_output: 256
    pad: 1
    kernel_size: 4
    stride: 1
    weight_filler {
      type: "xavier"
    }
    bias_filler {
      type: "constant"
      value: 0
    }
  }
}
layer {
  name: "conv12_2_relu"
  type: "ReLU"
  bottom: "conv12_2"
  top: "conv12_2"
}
layer {
  name: "conv4_3_norm"
  type: "Normalize"
  bottom: "conv4_3"
  top: "conv4_3_norm"
  norm_param {
    across_spatial: false
    scale_filler {
      type: "constant"
      value: 20
    }
    channel_shared: false
  }
}
layer {
  name: "conv4_3_norm_mbox_loc"
  type: "Convolution"
  bottom: "conv4_3_norm"
  top: "conv4_3_norm_mbox_loc"
  param {
    lr_mult: 1
    decay_mult: 1
  }
  param {
    lr_mult: 2
    decay_mult: 0
  }
  convolution_param {
    num_output: 16
    pad: 1
    kernel_size: 3
    stride: 1
    weight_filler {
      type: "xavier"
    }
    bias_filler {
      type: "constant"
      value: 0
    }
  }
}
layer {
  name: "conv4_3_norm_mbox_loc_perm"
  type: "Permute"
  bottom: "conv4_3_norm_mbox_loc"
  top: "conv4_3_norm_mbox_loc_perm"
  permute_param {
    order: 0
    order: 2
    order: 3
    order: 1
  }
}
layer {
  name: "conv4_3_norm_mbox_loc_flat"
  type: "Flatten"
  bottom: "conv4_3_norm_mbox_loc_perm"
  top: "conv4_3_norm_mbox_loc_flat"
  flatten_param {
    axis: 1
  }
}
layer {
  name: "conv4_3_norm_mbox_conf"
  type: "Convolution"
  bottom: "conv4_3_norm"
  top: "conv4_3_norm_mbox_conf"
  param {
    lr_mult: 1
    decay_mult: 1
  }
  param {
    lr_mult: 2
    decay_mult: 0
  }
  convolution_param {
    num_output: 12
    pad: 1
    kernel_size: 3
    stride: 1
    weight_filler {
      type: "xavier"
    }
    bias_filler {
      type: "constant"
      value: 0
    }
  }
}
layer {
  name: "conv4_3_norm_mbox_conf_perm"
  type: "Permute"
  bottom: "conv4_3_norm_mbox_conf"
  top: "conv4_3_norm_mbox_conf_perm"
  permute_param {
    order: 0
    order: 2
    order: 3
    order: 1
  }
}
layer {
  name: "conv4_3_norm_mbox_conf_flat"
  type: "Flatten"
  bottom: "conv4_3_norm_mbox_conf_perm"
  top: "conv4_3_norm_mbox_conf_flat"
  flatten_param {
    axis: 1
  }
}
layer {
  name: "conv4_3_norm_mbox_priorbox"
  type: "PriorBox"
  bottom: "conv4_3_norm"
  bottom: "data"
  top: "conv4_3_norm_mbox_priorbox"
  prior_box_param {
    min_size: 35.84
    max_size: 76.8
    aspect_ratio: 2
    flip: true
    clip: false
    variance: 0.1
    variance: 0.1
    variance: 0.2
    variance: 0.2
    step: 8
    offset: 0.5
  }
}
layer {
  name: "fc7_mbox_loc"
  type: "Convolution"
  bottom: "fc7"
  top: "fc7_mbox_loc"
  param {
    lr_mult: 1
    decay_mult: 1
  }
  param {
    lr_mult: 2
    decay_mult: 0
  }
  convolution_param {
    num_output: 24
    pad: 1
    kernel_size: 3
    stride: 1
    weight_filler {
      type: "xavier"
    }
    bias_filler {
      type: "constant"
      value: 0
    }
  }
}
layer {
  name: "fc7_mbox_loc_perm"
  type: "Permute"
  bottom: "fc7_mbox_loc"
  top: "fc7_mbox_loc_perm"
  permute_param {
    order: 0
    order: 2
    order: 3
    order: 1
  }
}
layer {
  name: "fc7_mbox_loc_flat"
  type: "Flatten"
  bottom: "fc7_mbox_loc_perm"
  top: "fc7_mbox_loc_flat"
  flatten_param {
    axis: 1
  }
}
layer {
  name: "fc7_mbox_conf"
  type: "Convolution"
  bottom: "fc7"
  top: "fc7_mbox_conf"
  param {
    lr_mult: 1
    decay_mult: 1
  }
  param {
    lr_mult: 2
    decay_mult: 0
  }
  convolution_param {
    num_output: 18
    pad: 1
    kernel_size: 3
    stride: 1
    weight_filler {
      type: "xavier"
    }
    bias_filler {
      type: "constant"
      value: 0
    }
  }
}
layer {
  name: "fc7_mbox_conf_perm"
  type: "Permute"
  bottom: "fc7_mbox_conf"
  top: "fc7_mbox_conf_perm"
  permute_param {
    order: 0
    order: 2
    order: 3
    order: 1
  }
}
layer {
  name: "fc7_mbox_conf_flat"
  type: "Flatten"
  bottom: "fc7_mbox_conf_perm"
  top: "fc7_mbox_conf_flat"
  flatten_param {
    axis: 1
  }
}
layer {
  name: "fc7_mbox_priorbox"
  type: "PriorBox"
  bottom: "fc7"
  bottom: "data"
  top: "fc7_mbox_priorbox"
  prior_box_param {
    min_size: 76.8
    max_size: 153.6
    aspect_ratio: 2
    aspect_ratio: 3
    flip: true
    clip: false
    variance: 0.1
    variance: 0.1
    variance: 0.2
    variance: 0.2
    step: 16
    offset: 0.5
  }
}
layer {
  name: "conv8_2_mbox_loc"
  type: "Convolution"
  bottom: "conv8_2"
  top: "conv8_2_mbox_loc"
  param {
    lr_mult: 1
    decay_mult: 1
  }
  param {
    lr_mult: 2
    decay_mult: 0
  }
  convolution_param {
    num_output: 24
    pad: 1
    kernel_size: 3
    stride: 1
    weight_filler {
      type: "xavier"
    }
    bias_filler {
      type: "constant"
      value: 0
    }
  }
}
layer {
  name: "conv8_2_mbox_loc_perm"
  type: "Permute"
  bottom: "conv8_2_mbox_loc"
  top: "conv8_2_mbox_loc_perm"
  permute_param {
    order: 0
    order: 2
    order: 3
    order: 1
  }
}
layer {
  name: "conv8_2_mbox_loc_flat"
  type: "Flatten"
  bottom: "conv8_2_mbox_loc_perm"
  top: "conv8_2_mbox_loc_flat"
  flatten_param {
    axis: 1
  }
}
layer {
  name: "conv8_2_mbox_conf"
  type: "Convolution"
  bottom: "conv8_2"
  top: "conv8_2_mbox_conf"
  param {
    lr_mult: 1
    decay_mult: 1
  }
  param {
    lr_mult: 2
    decay_mult: 0
  }
  convolution_param {
    num_output: 18
    pad: 1
    kernel_size: 3
    stride: 1
    weight_filler {
      type: "xavier"
    }
    bias_filler {
      type: "constant"
      value: 0
    }
  }
}
layer {
  name: "conv8_2_mbox_conf_perm"
  type: "Permute"
  bottom: "conv8_2_mbox_conf"
  top: "conv8_2_mbox_conf_perm"
  permute_param {
    order: 0
    order: 2
    order: 3
    order: 1
  }
}
layer {
  name: "conv8_2_mbox_conf_flat"
  type: "Flatten"
  bottom: "conv8_2_mbox_conf_perm"
  top: "conv8_2_mbox_conf_flat"
  flatten_param {
    axis: 1
  }
}
layer {
  name: "conv8_2_mbox_priorbox"
  type: "PriorBox"
  bottom: "conv8_2"
  bottom: "data"
  top: "conv8_2_mbox_priorbox"
  prior_box_param {
    min_size: 153.6
    max_size: 230.4
    aspect_ratio: 2
    aspect_ratio: 3
    flip: true
    clip: false
    variance: 0.1
    variance: 0.1
    variance: 0.2
    variance: 0.2
    step: 32
    offset: 0.5
  }
}
layer {
  name: "conv9_2_mbox_loc"
  type: "Convolution"
  bottom: "conv9_2"
  top: "conv9_2_mbox_loc"
  param {
    lr_mult: 1
    decay_mult: 1
  }
  param {
    lr_mult: 2
    decay_mult: 0
  }
  convolution_param {
    num_output: 24
    pad: 1
    kernel_size: 3
    stride: 1
    weight_filler {
      type: "xavier"
    }
    bias_filler {
      type: "constant"
      value: 0
    }
  }
}
layer {
  name: "conv9_2_mbox_loc_perm"
  type: "Permute"
  bottom: "conv9_2_mbox_loc"
  top: "conv9_2_mbox_loc_perm"
  permute_param {
    order: 0
    order: 2
    order: 3
    order: 1
  }
}
layer {
  name: "conv9_2_mbox_loc_flat"
  type: "Flatten"
  bottom: "conv9_2_mbox_loc_perm"
  top: "conv9_2_mbox_loc_flat"
  flatten_param {
    axis: 1
  }
}
layer {
  name: "conv9_2_mbox_conf"
  type: "Convolution"
  bottom: "conv9_2"
  top: "conv9_2_mbox_conf"
  param {
    lr_mult: 1
    decay_mult: 1
  }
  param {
    lr_mult: 2
    decay_mult: 0
  }
  convolution_param {
    num_output: 18
    pad: 1
    kernel_size: 3
    stride: 1
    weight_filler {
      type: "xavier"
    }
    bias_filler {
      type: "constant"
      value: 0
    }
  }
}
layer {
  name: "conv9_2_mbox_conf_perm"
  type: "Permute"
  bottom: "conv9_2_mbox_conf"
  top: "conv9_2_mbox_conf_perm"
  permute_param {
    order: 0
    order: 2
    order: 3
    order: 1
  }
}
layer {
  name: "conv9_2_mbox_conf_flat"
  type: "Flatten"
  bottom: "conv9_2_mbox_conf_perm"
  top: "conv9_2_mbox_conf_flat"
  flatten_param {
    axis: 1
  }
}
layer {
  name: "conv9_2_mbox_priorbox"
  type: "PriorBox"
  bottom: "conv9_2"
  bottom: "data"
  top: "conv9_2_mbox_priorbox"
  prior_box_param {
    min_size: 230.4
    max_size: 307.2
    aspect_ratio: 2
    aspect_ratio: 3
    flip: true
    clip: false
    variance: 0.1
    variance: 0.1
    variance: 0.2
    variance: 0.2
    step: 64
    offset: 0.5
  }
}
layer {
  name: "conv10_2_mbox_loc"
  type: "Convolution"
  bottom: "conv10_2"
  top: "conv10_2_mbox_loc"
  param {
    lr_mult: 1
    decay_mult: 1
  }
  param {
    lr_mult: 2
    decay_mult: 0
  }
  convolution_param {
    num_output: 24
    pad: 1
    kernel_size: 3
    stride: 1
    weight_filler {
      type: "xavier"
    }
    bias_filler {
      type: "constant"
      value: 0
    }
  }
}
layer {
  name: "conv10_2_mbox_loc_perm"
  type: "Permute"
  bottom: "conv10_2_mbox_loc"
  top: "conv10_2_mbox_loc_perm"
  permute_param {
    order: 0
    order: 2
    order: 3
    order: 1
  }
}
layer {
  name: "conv10_2_mbox_loc_flat"
  type: "Flatten"
  bottom: "conv10_2_mbox_loc_perm"
  top: "conv10_2_mbox_loc_flat"
  flatten_param {
    axis: 1
  }
}
layer {
  name: "conv10_2_mbox_conf"
  type: "Convolution"
  bottom: "conv10_2"
  top: "conv10_2_mbox_conf"
  param {
    lr_mult: 1
    decay_mult: 1
  }
  param {
    lr_mult: 2
    decay_mult: 0
  }
  convolution_param {
    num_output: 18
    pad: 1
    kernel_size: 3
    stride: 1
    weight_filler {
      type: "xavier"
    }
    bias_filler {
      type: "constant"
      value: 0
    }
  }
}
layer {
  name: "conv10_2_mbox_conf_perm"
  type: "Permute"
  bottom: "conv10_2_mbox_conf"
  top: "conv10_2_mbox_conf_perm"
  permute_param {
    order: 0
    order: 2
    order: 3
    order: 1
  }
}
layer {
  name: "conv10_2_mbox_conf_flat"
  type: "Flatten"
  bottom: "conv10_2_mbox_conf_perm"
  top: "conv10_2_mbox_conf_flat"
  flatten_param {
    axis: 1
  }
}
layer {
  name: "conv10_2_mbox_priorbox"
  type: "PriorBox"
  bottom: "conv10_2"
  bottom: "data"
  top: "conv10_2_mbox_priorbox"
  prior_box_param {
    min_size: 307.2
    max_size: 384
    aspect_ratio: 2
    aspect_ratio: 3
    flip: true
    clip: false
    variance: 0.1
    variance: 0.1
    variance: 0.2
    variance: 0.2
    step: 128
    offset: 0.5
  }
}
layer {
  name: "conv11_2_mbox_loc"
  type: "Convolution"
  bottom: "conv11_2"
  top: "conv11_2_mbox_loc"
  param {
    lr_mult: 1
    decay_mult: 1
  }
  param {
    lr_mult: 2
    decay_mult: 0
  }
  convolution_param {
    num_output: 16
    pad: 1
    kernel_size: 3
    stride: 1
    weight_filler {
      type: "xavier"
    }
    bias_filler {
      type: "constant"
      value: 0
    }
  }
}
layer {
  name: "conv11_2_mbox_loc_perm"
  type: "Permute"
  bottom: "conv11_2_mbox_loc"
  top: "conv11_2_mbox_loc_perm"
  permute_param {
    order: 0
    order: 2
    order: 3
    order: 1
  }
}
layer {
  name: "conv11_2_mbox_loc_flat"
  type: "Flatten"
  bottom: "conv11_2_mbox_loc_perm"
  top: "conv11_2_mbox_loc_flat"
  flatten_param {
    axis: 1
  }
}
layer {
  name: "conv11_2_mbox_conf"
  type: "Convolution"
  bottom: "conv11_2"
  top: "conv11_2_mbox_conf"
  param {
    lr_mult: 1
    decay_mult: 1
  }
  param {
    lr_mult: 2
    decay_mult: 0
  }
  convolution_param {
    num_output: 12
    pad: 1
    kernel_size: 3
    stride: 1
    weight_filler {
      type: "xavier"
    }
    bias_filler {
      type: "constant"
      value: 0
    }
  }
}
layer {
  name: "conv11_2_mbox_conf_perm"
  type: "Permute"
  bottom: "conv11_2_mbox_conf"
  top: "conv11_2_mbox_conf_perm"
  permute_param {
    order: 0
    order: 2
    order: 3
    order: 1
  }
}
layer {
  name: "conv11_2_mbox_conf_flat"
  type: "Flatten"
  bottom: "conv11_2_mbox_conf_perm"
  top: "conv11_2_mbox_conf_flat"
  flatten_param {
    axis: 1
  }
}
layer {
  name: "conv11_2_mbox_priorbox"
  type: "PriorBox"
  bottom: "conv11_2"
  bottom: "data"
  top: "conv11_2_mbox_priorbox"
  prior_box_param {
    min_size: 384
    max_size: 460.8
    aspect_ratio: 2
    flip: true
    clip: false
    variance: 0.1
    variance: 0.1
    variance: 0.2
    variance: 0.2
    step: 256
    offset: 0.5
  }
}
layer {
  name: "conv12_2_mbox_loc"
  type: "Convolution"
  bottom: "conv12_2"
  top: "conv12_2_mbox_loc"
  param {
    lr_mult: 1
    decay_mult: 1
  }
  param {
    lr_mult: 2
    decay_mult: 0
  }
  convolution_param {
    num_output: 16
    pad: 1
    kernel_size: 3
    stride: 1
    weight_filler {
      type: "xavier"
    }
    bias_filler {
      type: "constant"
      value: 0
    }
  }
}
layer {
  name: "conv12_2_mbox_loc_perm"
  type: "Permute"
  bottom: "conv12_2_mbox_loc"
  top: "conv12_2_mbox_loc_perm"
  permute_param {
    order: 0
    order: 2
    order: 3
    order: 1
  }
}
layer {
  name: "conv12_2_mbox_loc_flat"
  type: "Flatten"
  bottom: "conv12_2_mbox_loc_perm"
  top: "conv12_2_mbox_loc_flat"
  flatten_param {
    axis: 1
  }
}
layer {
  name: "conv12_2_mbox_conf"
  type: "Convolution"
  bottom: "conv12_2"
  top: "conv12_2_mbox_conf"
  param {
    lr_mult: 1
    decay_mult: 1
  }
  param {
    lr_mult: 2
    decay_mult: 0
  }
  convolution_param {
    num_output: 12
    pad: 1
    kernel_size: 3
    stride: 1
    weight_filler {
      type: "xavier"
    }
    bias_filler {
      type: "constant"
      value: 0
    }
  }
}
layer {
  name: "conv12_2_mbox_conf_perm"
  type: "Permute"
  bottom: "conv12_2_mbox_conf"
  top: "conv12_2_mbox_conf_perm"
  permute_param {
    order: 0
    order: 2
    order: 3
    order: 1
  }
}
layer {
  name: "conv12_2_mbox_conf_flat"
  type: "Flatten"
  bottom: "conv12_2_mbox_conf_perm"
  top: "conv12_2_mbox_conf_flat"
  flatten_param {
    axis: 1
  }
}
layer {
  name: "conv12_2_mbox_priorbox"
  type: "PriorBox"
  bottom: "conv12_2"
  bottom: "data"
  top: "conv12_2_mbox_priorbox"
  prior_box_param {
    min_size: 460.8
    max_size: 537.6
    aspect_ratio: 2
    flip: true
    clip: false
    variance: 0.1
    variance: 0.1
    variance: 0.2
    variance: 0.2
    step: 512
    offset: 0.5
  }
}
layer {
  name: "mbox_loc"
  type: "Concat"
  bottom: "conv4_3_norm_mbox_loc_flat"
  bottom: "fc7_mbox_loc_flat"
  bottom: "conv8_2_mbox_loc_flat"
  bottom: "conv9_2_mbox_loc_flat"
  bottom: "conv10_2_mbox_loc_flat"
  bottom: "conv11_2_mbox_loc_flat"
  bottom: "conv12_2_mbox_loc_flat"
  top: "mbox_loc"
  concat_param {
    axis: 1
  }
}
layer {
  name: "mbox_conf"
  type: "Concat"
  bottom: "conv4_3_norm_mbox_conf_flat"
  bottom: "fc7_mbox_conf_flat"
  bottom: "conv8_2_mbox_conf_flat"
  bottom: "conv9_2_mbox_conf_flat"
  bottom: "conv10_2_mbox_conf_flat"
  bottom: "conv11_2_mbox_conf_flat"
  bottom: "conv12_2_mbox_conf_flat"
  top: "mbox_conf"
  concat_param {
    axis: 1
  }
}
layer {
  name: "mbox_priorbox"
  type: "Concat"
  bottom: "conv4_3_norm_mbox_priorbox"
  bottom: "fc7_mbox_priorbox"
  bottom: "conv8_2_mbox_priorbox"
  bottom: "conv9_2_mbox_priorbox"
  bottom: "conv10_2_mbox_priorbox"
  bottom: "conv11_2_mbox_priorbox"
  bottom: "conv12_2_mbox_priorbox"
  top: "mbox_priorbox"
  concat_param {
    axis: 2
  }
}
layer {
  name: "mbox_loss"
  type: "MultiBoxLoss"
  bottom: "mbox_loc"
  bottom: "mbox_conf"
  bottom: "mbox_priorbox"
  bottom: "label"
  top: "mbox_loss"
  include {
    phase: TRAIN
  }
  propagate_down: true
  propagate_down: true
  propagate_down: false
  propagate_down: false
  loss_param {
    normalization: VALID
  }
  multibox_loss_param {
    loc_loss_type: SMOOTH_L1
    conf_loss_type: SOFTMAX
    loc_weight: 1
    num_classes: 3
    share_location: true
    match_type: PER_PREDICTION
    overlap_threshold: 0.5
    use_prior_for_matching: true
    background_label_id: 0
    use_d
I0704 11:35:22.544193 16904 layer_factory.hpp:77] Creating layer data
I0704 11:35:22.544193 16904 common.cpp:36] System entropy source not available, using fallback algorithm to generate seed instead.
I0704 11:35:22.544193 16904 net.cpp:100] Creating Layer data
I0704 11:35:22.544193 16904 net.cpp:408] data -> data
I0704 11:35:22.544193 16904 net.cpp:408] data -> label
I0704 11:35:22.548182 16688 common.cpp:36] System entropy source not available, using fallback algorithm to generate seed instead.
I0704 11:35:22.549178 16688 db_lmdb.cpp:40] Opened lmdb examples\wastedata\wastedata_trainval_lmdb
I0704 11:35:22.579097 16904 annotated_data_layer.cpp:62] output data size: 4,3,512,512
I0704 11:35:22.616006 16904 net.cpp:150] Setting up data
I0704 11:35:22.616006 16904 net.cpp:157] Top shape: 4 3 512 512 (3145728)
I0704 11:35:22.616006 16904 net.cpp:157] Top shape: 1 1 1 8 (8)
I0704 11:35:22.616006 16904 net.cpp:165] Memory required for data: 12582944
I0704 11:35:22.616006 16904 layer_factory.hpp:77] Creating layer data_data_0_split
I0704 11:35:22.617004 16904 net.cpp:100] Creating Layer data_data_0_split
I0704 11:35:22.617004 16904 net.cpp:434] data_data_0_split <- data
I0704 11:35:22.617004 16904 net.cpp:408] data_data_0_split -> data_data_0_split_0
I0704 11:35:22.617004 16904 net.cpp:408] data_data_0_split -> data_data_0_split_1
I0704 11:35:22.617004 16904 net.cpp:408] data_data_0_split -> data_data_0_split_2
I0704 11:35:22.617004 16904 net.cpp:408] data_data_0_split -> data_data_0_split_3
I0704 11:35:22.617004 16904 net.cpp:408] data_data_0_split -> data_data_0_split_4
I0704 11:35:22.617004 16904 net.cpp:408] data_data_0_split -> data_data_0_split_5
I0704 11:35:22.617004 16904 net.cpp:408] data_data_0_split -> data_data_0_split_6
I0704 11:35:22.617004 16904 net.cpp:408] data_data_0_split -> data_data_0_split_7
I0704 11:35:22.617004 16904 net.cpp:150] Setting up data_data_0_split
I0704 11:35:22.617004 16904 net.cpp:157] Top shape: 4 3 512 512 (3145728)
I0704 11:35:22.617004 16904 net.cpp:157] Top shape: 4 3 512 512 (3145728)
I0704 11:35:22.617997 16904 net.cpp:157] Top shape: 4 3 512 512 (3145728)
I0704 11:35:22.617997 16904 net.cpp:157] Top shape: 4 3 512 512 (3145728)
I0704 11:35:22.617997 16904 net.cpp:157] Top shape: 4 3 512 512 (3145728)
I0704 11:35:22.617997 16904 net.cpp:157] Top shape: 4 3 512 512 (3145728)
I0704 11:35:22.617997 16904 net.cpp:157] Top shape: 4 3 512 512 (3145728)
I0704 11:35:22.617997 16904 net.cpp:157] Top shape: 4 3 512 512 (3145728)
I0704 11:35:22.617997 16904 net.cpp:165] Memory required for data: 113246240
I0704 11:35:22.617997 16904 layer_factory.hpp:77] Creating layer conv1_1
I0704 11:35:22.617997 16904 net.cpp:100] Creating Layer conv1_1
I0704 11:35:22.617997 16904 net.cpp:434] conv1_1 <- data_data_0_split_0
I0704 11:35:22.617997 16904 net.cpp:408] conv1_1 -> conv1_1
I0704 11:35:22.694788  1672 common.cpp:36] System entropy source not available, using fallback algorithm to generate seed instead.
I0704 11:35:25.095373 16904 net.cpp:150] Setting up conv1_1
I0704 11:35:25.095373 16904 net.cpp:157] Top shape: 4 64 512 512 (67108864)
I0704 11:35:25.095373 16904 net.cpp:165] Memory required for data: 381681696
I0704 11:35:25.095373 16904 layer_factory.hpp:77] Creating layer relu1_1
I0704 11:35:25.095373 16904 net.cpp:100] Creating Layer relu1_1
I0704 11:35:25.095373 16904 net.cpp:434] relu1_1 <- conv1_1
I0704 11:35:25.096370 16904 net.cpp:395] relu1_1 -> conv1_1 (in-place)
I0704 11:35:25.096370 16904 net.cpp:150] Setting up relu1_1
I0704 11:35:25.096370 16904 net.cpp:157] Top shape: 4 64 512 512 (67108864)
I0704 11:35:25.096370 16904 net.cpp:165] Memory required for data: 650117152
I0704 11:35:25.096370 16904 layer_factory.hpp:77] Creating layer conv1_2
I0704 11:35:25.096370 16904 net.cpp:100] Creating Layer conv1_2
I0704 11:35:25.096370 16904 net.cpp:434] conv1_2 <- conv1_1
I0704 11:35:25.096370 16904 net.cpp:408] conv1_2 -> conv1_2
I0704 11:35:25.101357 16904 net.cpp:150] Setting up conv1_2
I0704 11:35:25.101357 16904 net.cpp:157] Top shape: 4 64 512 512 (67108864)
I0704 11:35:25.101357 16904 net.cpp:165] Memory required for data: 918552608
I0704 11:35:25.101357 16904 layer_factory.hpp:77] Creating layer relu1_2
I0704 11:35:25.101357 16904 net.cpp:100] Creating Layer relu1_2
I0704 11:35:25.101357 16904 net.cpp:434] relu1_2 <- conv1_2
I0704 11:35:25.101357 16904 net.cpp:395] relu1_2 -> conv1_2 (in-place)
I0704 11:35:25.102355 16904 net.cpp:150] Setting up relu1_2
I0704 11:35:25.102355 16904 net.cpp:157] Top shape: 4 64 512 512 (67108864)
I0704 11:35:25.102355 16904 net.cpp:165] Memory required for data: 1186988064
I0704 11:35:25.102355 16904 layer_factory.hpp:77] Creating layer pool1
I0704 11:35:25.102355 16904 net.cpp:100] Creating Layer pool1
I0704 11:35:25.102355 16904 net.cpp:434] pool1 <- conv1_2
I0704 11:35:25.102355 16904 net.cpp:408] pool1 -> pool1
I0704 11:35:25.102355 16904 net.cpp:150] Setting up pool1
I0704 11:35:25.102355 16904 net.cpp:157] Top shape: 4 64 256 256 (16777216)
I0704 11:35:25.102355 16904 net.cpp:165] Memory required for data: 1254096928
I0704 11:35:25.102355 16904 layer_factory.hpp:77] Creating layer conv2_1
I0704 11:35:25.102355 16904 net.cpp:100] Creating Layer conv2_1
I0704 11:35:25.102355 16904 net.cpp:434] conv2_1 <- pool1
I0704 11:35:25.102355 16904 net.cpp:408] conv2_1 -> conv2_1
I0704 11:35:25.107342 16904 net.cpp:150] Setting up conv2_1
I0704 11:35:25.108338 16904 net.cpp:157] Top shape: 4 128 256 256 (33554432)
I0704 11:35:25.108338 16904 net.cpp:165] Memory required for data: 1388314656
I0704 11:35:25.108338 16904 layer_factory.hpp:77] Creating layer relu2_1
I0704 11:35:25.108338 16904 net.cpp:100] Creating Layer relu2_1
I0704 11:35:25.108338 16904 net.cpp:434] relu2_1 <- conv2_1
I0704 11:35:25.108338 16904 net.cpp:395] relu2_1 -> conv2_1 (in-place)
I0704 11:35:25.109336 16904 net.cpp:150] Setting up relu2_1
I0704 11:35:25.109336 16904 net.cpp:157] Top shape: 4 128 256 256 (33554432)
I0704 11:35:25.109336 16904 net.cpp:165] Memory required for data: 1522532384
I0704 11:35:25.109336 16904 layer_factory.hpp:77] Creating layer conv2_2
I0704 11:35:25.109336 16904 net.cpp:100] Creating Layer conv2_2
I0704 11:35:25.109336 16904 net.cpp:434] conv2_2 <- conv2_1
I0704 11:35:25.109336 16904 net.cpp:408] conv2_2 -> conv2_2
I0704 11:35:25.112327 16904 net.cpp:150] Setting up conv2_2
I0704 11:35:25.112327 16904 net.cpp:157] Top shape: 4 128 256 256 (33554432)
I0704 11:35:25.112327 16904 net.cpp:165] Memory required for data: 1656750112
I0704 11:35:25.112327 16904 layer_factory.hpp:77] Creating layer relu2_2
I0704 11:35:25.112327 16904 net.cpp:100] Creating Layer relu2_2
I0704 11:35:25.112327 16904 net.cpp:434] relu2_2 <- conv2_2
I0704 11:35:25.112327 16904 net.cpp:395] relu2_2 -> conv2_2 (in-place)
I0704 11:35:25.113325 16904 net.cpp:150] Setting up relu2_2
I0704 11:35:25.113325 16904 net.cpp:157] Top shape: 4 128 256 256 (33554432)
I0704 11:35:25.113325 16904 net.cpp:165] Memory required for data: 1790967840
I0704 11:35:25.113325 16904 layer_factory.hpp:77] Creating layer pool2
I0704 11:35:25.113325 16904 net.cpp:100] Creating Layer pool2
I0704 11:35:25.113325 16904 net.cpp:434] pool2 <- conv2_2
I0704 11:35:25.113325 16904 net.cpp:408] pool2 -> pool2
I0704 11:35:25.113325 16904 net.cpp:150] Setting up pool2
I0704 11:35:25.113325 16904 net.cpp:157] Top shape: 4 128 128 128 (8388608)
I0704 11:35:25.113325 16904 net.cpp:165] Memory required for data: 1824522272
I0704 11:35:25.113325 16904 layer_factory.hpp:77] Creating layer conv3_1
I0704 11:35:25.113325 16904 net.cpp:100] Creating Layer conv3_1
I0704 11:35:25.113325 16904 net.cpp:434] conv3_1 <- pool2
I0704 11:35:25.113325 16904 net.cpp:408] conv3_1 -> conv3_1
I0704 11:35:25.117314 16904 net.cpp:150] Setting up conv3_1
I0704 11:35:25.117314 16904 net.cpp:157] Top shape: 4 256 128 128 (16777216)
I0704 11:35:25.117314 16904 net.cpp:165] Memory required for data: 1891631136
I0704 11:35:25.118312 16904 layer_factory.hpp:77] Creating layer relu3_1
I0704 11:35:25.118312 16904 net.cpp:100] Creating Layer relu3_1
I0704 11:35:25.118312 16904 net.cpp:434] relu3_1 <- conv3_1
I0704 11:35:25.118312 16904 net.cpp:395] relu3_1 -> conv3_1 (in-place)
I0704 11:35:25.120306 16904 net.cpp:150] Setting up relu3_1
I0704 11:35:25.120306 16904 net.cpp:157] Top shape: 4 256 128 128 (16777216)
I0704 11:35:25.120306 16904 net.cpp:165] Memory required for data: 1958740000
I0704 11:35:25.120306 16904 layer_factory.hpp:77] Creating layer conv3_2
I0704 11:35:25.120306 16904 net.cpp:100] Creating Layer conv3_2
I0704 11:35:25.120306 16904 net.cpp:434] conv3_2 <- conv3_1
I0704 11:35:25.120306 16904 net.cpp:408] conv3_2 -> conv3_2
I0704 11:35:25.127287 16904 net.cpp:150] Setting up conv3_2
I0704 11:35:25.127287 16904 net.cpp:157] Top shape: 4 256 128 128 (16777216)
I0704 11:35:25.127287 16904 net.cpp:165] Memory required for data: 2025848864
I0704 11:35:25.127287 16904 layer_factory.hpp:77] Creating layer relu3_2
I0704 11:35:25.127287 16904 net.cpp:100] Creating Layer relu3_2
I0704 11:35:25.127287 16904 net.cpp:434] relu3_2 <- conv3_2
I0704 11:35:25.127287 16904 net.cpp:395] relu3_2 -> conv3_2 (in-place)
I0704 11:35:25.127287 16904 net.cpp:150] Setting up relu3_2
I0704 11:35:25.127287 16904 net.cpp:157] Top shape: 4 256 128 128 (16777216)
I0704 11:35:25.127287 16904 net.cpp:165] Memory required for data: 2092957728
I0704 11:35:25.127287 16904 layer_factory.hpp:77] Creating layer conv3_3
I0704 11:35:25.127287 16904 net.cpp:100] Creating Layer conv3_3
I0704 11:35:25.127287 16904 net.cpp:434] conv3_3 <- conv3_2
I0704 11:35:25.127287 16904 net.cpp:408] conv3_3 -> conv3_3
I0704 11:35:25.135268 16904 net.cpp:150] Setting up conv3_3
I0704 11:35:25.135268 16904 net.cpp:157] Top shape: 4 256 128 128 (16777216)
I0704 11:35:25.135268 16904 net.cpp:165] Memory required for data: 2160066592
I0704 11:35:25.135268 16904 layer_factory.hpp:77] Creating layer relu3_3
I0704 11:35:25.135268 16904 net.cpp:100] Creating Layer relu3_3
I0704 11:35:25.135268 16904 net.cpp:434] relu3_3 <- conv3_3
I0704 11:35:25.135268 16904 net.cpp:395] relu3_3 -> conv3_3 (in-place)
I0704 11:35:25.137261 16904 net.cpp:150] Setting up relu3_3
I0704 11:35:25.137261 16904 net.cpp:157] Top shape: 4 256 128 128 (16777216)
I0704 11:35:25.137261 16904 net.cpp:165] Memory required for data: 2227175456
I0704 11:35:25.137261 16904 layer_factory.hpp:77] Creating layer pool3
I0704 11:35:25.137261 16904 net.cpp:100] Creating Layer pool3
I0704 11:35:25.137261 16904 net.cpp:434] pool3 <- conv3_3
I0704 11:35:25.137261 16904 net.cpp:408] pool3 -> pool3
I0704 11:35:25.137261 16904 net.cpp:150] Setting up pool3
I0704 11:35:25.137261 16904 net.cpp:157] Top shape: 4 256 64 64 (4194304)
I0704 11:35:25.137261 16904 net.cpp:165] Memory required for data: 2243952672
I0704 11:35:25.137261 16904 layer_factory.hpp:77] Creating layer conv4_1
I0704 11:35:25.137261 16904 net.cpp:100] Creating Layer conv4_1
I0704 11:35:25.137261 16904 net.cpp:434] conv4_1 <- pool3
I0704 11:35:25.137261 16904 net.cpp:408] conv4_1 -> conv4_1
I0704 11:35:25.161199 16904 net.cpp:150] Setting up conv4_1
I0704 11:35:25.162194 16904 net.cpp:157] Top shape: 4 512 64 64 (8388608)
I0704 11:35:25.162194 16904 net.cpp:165] Memory required for data: 2277507104
I0704 11:35:25.162194 16904 layer_factory.hpp:77] Creating layer relu4_1
I0704 11:35:25.162194 16904 net.cpp:100] Creating Layer relu4_1
I0704 11:35:25.162194 16904 net.cpp:434] relu4_1 <- conv4_1
I0704 11:35:25.162194 16904 net.cpp:395] relu4_1 -> conv4_1 (in-place)
I0704 11:35:25.164189 16904 net.cpp:150] Setting up relu4_1
I0704 11:35:25.165187 16904 net.cpp:157] Top shape: 4 512 64 64 (8388608)
I0704 11:35:25.165187 16904 net.cpp:165] Memory required for data: 2311061536
I0704 11:35:25.165187 16904 layer_factory.hpp:77] Creating layer conv4_2
I0704 11:35:25.165187 16904 net.cpp:100] Creating Layer conv4_2
I0704 11:35:25.165187 16904 net.cpp:434] conv4_2 <- conv4_1
I0704 11:35:25.165187 16904 net.cpp:408] conv4_2 -> conv4_2
I0704 11:35:25.194110 16904 net.cpp:150] Setting up conv4_2
I0704 11:35:25.194110 16904 net.cpp:157] Top shape: 4 512 64 64 (8388608)
I0704 11:35:25.194110 16904 net.cpp:165] Memory required for data: 2344615968
I0704 11:35:25.194110 16904 layer_factory.hpp:77] Creating layer relu4_2
I0704 11:35:25.195107 16904 net.cpp:100] Creating Layer relu4_2
I0704 11:35:25.195107 16904 net.cpp:434] relu4_2 <- conv4_2
I0704 11:35:25.195107 16904 net.cpp:395] relu4_2 -> conv4_2 (in-place)
I0704 11:35:25.195107 16904 net.cpp:150] Setting up relu4_2
I0704 11:35:25.195107 16904 net.cpp:157] Top shape: 4 512 64 64 (8388608)
I0704 11:35:25.195107 16904 net.cpp:165] Memory required for data: 2378170400
I0704 11:35:25.195107 16904 layer_factory.hpp:77] Creating layer conv4_3
I0704 11:35:25.195107 16904 net.cpp:100] Creating Layer conv4_3
I0704 11:35:25.195107 16904 net.cpp:434] conv4_3 <- conv4_2
I0704 11:35:25.195107 16904 net.cpp:408] conv4_3 -> conv4_3
I0704 11:35:25.224030 16904 net.cpp:150] Setting up conv4_3
I0704 11:35:25.224030 16904 net.cpp:157] Top shape: 4 512 64 64 (8388608)
I0704 11:35:25.224030 16904 net.cpp:165] Memory required for data: 2411724832
I0704 11:35:25.224030 16904 layer_factory.hpp:77] Creating layer relu4_3
I0704 11:35:25.224030 16904 net.cpp:100] Creating Layer relu4_3
I0704 11:35:25.224030 16904 net.cpp:434] relu4_3 <- conv4_3
I0704 11:35:25.224030 16904 net.cpp:395] relu4_3 -> conv4_3 (in-place)
I0704 11:35:25.226024 16904 net.cpp:150] Setting up relu4_3
I0704 11:35:25.226024 16904 net.cpp:157] Top shape: 4 512 64 64 (8388608)
I0704 11:35:25.226024 16904 net.cpp:165] Memory required for data: 2445279264
I0704 11:35:25.226024 16904 layer_factory.hpp:77] Creating layer conv4_3_relu4_3_0_split
I0704 11:35:25.226024 16904 net.cpp:100] Creating Layer conv4_3_relu4_3_0_split
I0704 11:35:25.226024 16904 net.cpp:434] conv4_3_relu4_3_0_split <- conv4_3
I0704 11:35:25.226024 16904 net.cpp:408] conv4_3_relu4_3_0_split -> conv4_3_relu4_3_0_split_0
I0704 11:35:25.226024 16904 net.cpp:408] conv4_3_relu4_3_0_split -> conv4_3_relu4_3_0_split_1
I0704 11:35:25.226024 16904 net.cpp:150] Setting up conv4_3_relu4_3_0_split
I0704 11:35:25.226024 16904 net.cpp:157] Top shape: 4 512 64 64 (8388608)
I0704 11:35:25.226024 16904 net.cpp:157] Top shape: 4 512 64 64 (8388608)
I0704 11:35:25.226024 16904 net.cpp:165] Memory required for data: 2512388128
I0704 11:35:25.226024 16904 layer_factory.hpp:77] Creating layer pool4
I0704 11:35:25.226024 16904 net.cpp:100] Creating Layer pool4
I0704 11:35:25.226024 16904 net.cpp:434] pool4 <- conv4_3_relu4_3_0_split_0
I0704 11:35:25.226024 16904 net.cpp:408] pool4 -> pool4
I0704 11:35:25.226024 16904 net.cpp:150] Setting up pool4
I0704 11:35:25.226024 16904 net.cpp:157] Top shape: 4 512 32 32 (2097152)
I0704 11:35:25.226024 16904 net.cpp:165] Memory required for data: 2520776736
I0704 11:35:25.226024 16904 layer_factory.hpp:77] Creating layer conv5_1
I0704 11:35:25.226024 16904 net.cpp:100] Creating Layer conv5_1
I0704 11:35:25.226024 16904 net.cpp:434] conv5_1 <- pool4
I0704 11:35:25.226024 16904 net.cpp:408] conv5_1 -> conv5_1
I0704 11:35:25.249960 16904 net.cpp:150] Setting up conv5_1
I0704 11:35:25.249960 16904 net.cpp:157] Top shape: 4 512 32 32 (2097152)
I0704 11:35:25.249960 16904 net.cpp:165] Memory required for data: 2529165344
I0704 11:35:25.249960 16904 layer_factory.hpp:77] Creating layer relu5_1
I0704 11:35:25.249960 16904 net.cpp:100] Creating Layer relu5_1
I0704 11:35:25.249960 16904 net.cpp:434] relu5_1 <- conv5_1
I0704 11:35:25.249960 16904 net.cpp:395] relu5_1 -> conv5_1 (in-place)
I0704 11:35:25.249960 16904 net.cpp:150] Setting up relu5_1
I0704 11:35:25.250957 16904 net.cpp:157] Top shape: 4 512 32 32 (2097152)
I0704 11:35:25.250957 16904 net.cpp:165] Memory required for data: 2537553952
I0704 11:35:25.250957 16904 layer_factory.hpp:77] Creating layer conv5_2
I0704 11:35:25.250957 16904 net.cpp:100] Creating Layer conv5_2
I0704 11:35:25.250957 16904 net.cpp:434] conv5_2 <- conv5_1
I0704 11:35:25.250957 16904 net.cpp:408] conv5_2 -> conv5_2
I0704 11:35:25.282872 16904 net.cpp:150] Setting up conv5_2
I0704 11:35:25.283869 16904 net.cpp:157] Top shape: 4 512 32 32 (2097152)
I0704 11:35:25.283869 16904 net.cpp:165] Memory required for data: 2545942560
I0704 11:35:25.283869 16904 layer_factory.hpp:77] Creating layer relu5_2
I0704 11:35:25.283869 16904 net.cpp:100] Creating Layer relu5_2
I0704 11:35:25.283869 16904 net.cpp:434] relu5_2 <- conv5_2
I0704 11:35:25.283869 16904 net.cpp:395] relu5_2 -> conv5_2 (in-place)
I0704 11:35:25.285866 16904 net.cpp:150] Setting up relu5_2
I0704 11:35:25.285866 16904 net.cpp:157] Top shape: 4 512 32 32 (2097152)
I0704 11:35:25.285866 16904 net.cpp:165] Memory required for data: 2554331168
I0704 11:35:25.285866 16904 layer_factory.hpp:77] Creating layer conv5_3
I0704 11:35:25.285866 16904 net.cpp:100] Creating Layer conv5_3
I0704 11:35:25.285866 16904 net.cpp:434] conv5_3 <- conv5_2
I0704 11:35:25.285866 16904 net.cpp:408] conv5_3 -> conv5_3
I0704 11:35:25.320772 16904 net.cpp:150] Setting up conv5_3
I0704 11:35:25.320772 16904 net.cpp:157] Top shape: 4 512 32 32 (2097152)
I0704 11:35:25.320772 16904 net.cpp:165] Memory required for data: 2562719776
I0704 11:35:25.320772 16904 layer_factory.hpp:77] Creating layer relu5_3
I0704 11:35:25.320772 16904 net.cpp:100] Creating Layer relu5_3
I0704 11:35:25.320772 16904 net.cpp:434] relu5_3 <- conv5_3
I0704 11:35:25.320772 16904 net.cpp:395] relu5_3 -> conv5_3 (in-place)
I0704 11:35:25.322768 16904 net.cpp:150] Setting up relu5_3
I0704 11:35:25.322768 16904 net.cpp:157] Top shape: 4 512 32 32 (2097152)
I0704 11:35:25.322768 16904 net.cpp:165] Memory required for data: 2571108384
I0704 11:35:25.322768 16904 layer_factory.hpp:77] Creating layer pool5
I0704 11:35:25.322768 16904 net.cpp:100] Creating Layer pool5
I0704 11:35:25.322768 16904 net.cpp:434] pool5 <- conv5_3
I0704 11:35:25.322768 16904 net.cpp:408] pool5 -> pool5
I0704 11:35:25.322768 16904 net.cpp:150] Setting up pool5
I0704 11:35:25.322768 16904 net.cpp:157] Top shape: 4 512 32 32 (2097152)
I0704 11:35:25.322768 16904 net.cpp:165] Memory required for data: 2579496992
I0704 11:35:25.322768 16904 layer_factory.hpp:77] Creating layer fc6
I0704 11:35:25.322768 16904 net.cpp:100] Creating Layer fc6
I0704 11:35:25.322768 16904 net.cpp:434] fc6 <- pool5
I0704 11:35:25.322768 16904 net.cpp:408] fc6 -> fc6
I0704 11:35:25.382606 16904 net.cpp:150] Setting up fc6
I0704 11:35:25.382606 16904 net.cpp:157] Top shape: 4 1024 32 32 (4194304)
I0704 11:35:25.382606 16904 net.cpp:165] Memory required for data: 2596274208
I0704 11:35:25.382606 16904 layer_factory.hpp:77] Creating layer relu6
I0704 11:35:25.382606 16904 net.cpp:100] Creating Layer relu6
I0704 11:35:25.382606 16904 net.cpp:434] relu6 <- fc6
I0704 11:35:25.382606 16904 net.cpp:395] relu6 -> fc6 (in-place)
I0704 11:35:25.395571 16904 net.cpp:150] Setting up relu6
I0704 11:35:25.395571 16904 net.cpp:157] Top shape: 4 1024 32 32 (4194304)
I0704 11:35:25.395571 16904 net.cpp:165] Memory required for data: 2613051424
I0704 11:35:25.395571 16904 layer_factory.hpp:77] Creating layer fc7
I0704 11:35:25.395571 16904 net.cpp:100] Creating Layer fc7
I0704 11:35:25.395571 16904 net.cpp:434] fc7 <- fc6
I0704 11:35:25.395571 16904 net.cpp:408] fc7 -> fc7
I0704 11:35:25.426488 16904 net.cpp:150] Setting up fc7
I0704 11:35:25.426488 16904 net.cpp:157] Top shape: 4 1024 32 32 (4194304)
I0704 11:35:25.426488 16904 net.cpp:165] Memory required for data: 2629828640
I0704 11:35:25.426488 16904 layer_factory.hpp:77] Creating layer relu7
I0704 11:35:25.426488 16904 net.cpp:100] Creating Layer relu7
I0704 11:35:25.426488 16904 net.cpp:434] relu7 <- fc7
I0704 11:35:25.426488 16904 net.cpp:395] relu7 -> fc7 (in-place)
I0704 11:35:25.427486 16904 net.cpp:150] Setting up relu7
I0704 11:35:25.427486 16904 net.cpp:157] Top shape: 4 1024 32 32 (4194304)
I0704 11:35:25.427486 16904 net.cpp:165] Memory required for data: 2646605856
I0704 11:35:25.427486 16904 layer_factory.hpp:77] Creating layer fc7_relu7_0_split
I0704 11:35:25.427486 16904 net.cpp:100] Creating Layer fc7_relu7_0_split
I0704 11:35:25.427486 16904 net.cpp:434] fc7_relu7_0_split <- fc7
I0704 11:35:25.427486 16904 net.cpp:408] fc7_relu7_0_split -> fc7_relu7_0_split_0
I0704 11:35:25.427486 16904 net.cpp:408] fc7_relu7_0_split -> fc7_relu7_0_split_1
I0704 11:35:25.427486 16904 net.cpp:408] fc7_relu7_0_split -> fc7_relu7_0_split_2
I0704 11:35:25.427486 16904 net.cpp:408] fc7_relu7_0_split -> fc7_relu7_0_split_3
I0704 11:35:25.427486 16904 net.cpp:150] Setting up fc7_relu7_0_split
I0704 11:35:25.427486 16904 net.cpp:157] Top shape: 4 1024 32 32 (4194304)
I0704 11:35:25.427486 16904 net.cpp:157] Top shape: 4 1024 32 32 (4194304)
I0704 11:35:25.427486 16904 net.cpp:157] Top shape: 4 1024 32 32 (4194304)
I0704 11:35:25.427486 16904 net.cpp:157] Top shape: 4 1024 32 32 (4194304)
I0704 11:35:25.427486 16904 net.cpp:165] Memory required for data: 2713714720
I0704 11:35:25.427486 16904 layer_factory.hpp:77] Creating layer conv8_1
I0704 11:35:25.427486 16904 net.cpp:100] Creating Layer conv8_1
I0704 11:35:25.427486 16904 net.cpp:434] conv8_1 <- fc7_relu7_0_split_0
I0704 11:35:25.427486 16904 net.cpp:408] conv8_1 -> conv8_1
I0704 11:35:25.440452 16904 net.cpp:150] Setting up conv8_1
I0704 11:35:25.440452 16904 net.cpp:157] Top shape: 4 256 32 32 (1048576)
I0704 11:35:25.440452 16904 net.cpp:165] Memory required for data: 2717909024
I0704 11:35:25.440452 16904 layer_factory.hpp:77] Creating layer conv8_1_relu
I0704 11:35:25.440452 16904 net.cpp:100] Creating Layer conv8_1_relu
I0704 11:35:25.440452 16904 net.cpp:434] conv8_1_relu <- conv8_1
I0704 11:35:25.441448 16904 net.cpp:395] conv8_1_relu -> conv8_1 (in-place)
I0704 11:35:25.441448 16904 net.cpp:150] Setting up conv8_1_relu
I0704 11:35:25.441448 16904 net.cpp:157] Top shape: 4 256 32 32 (1048576)
I0704 11:35:25.441448 16904 net.cpp:165] Memory required for data: 2722103328
I0704 11:35:25.441448 16904 layer_factory.hpp:77] Creating layer conv8_2
I0704 11:35:25.441448 16904 net.cpp:100] Creating Layer conv8_2
I0704 11:35:25.441448 16904 net.cpp:434] conv8_2 <- conv8_1
I0704 11:35:25.441448 16904 net.cpp:408] conv8_2 -> conv8_2
I0704 11:35:25.461395 16904 net.cpp:150] Setting up conv8_2
I0704 11:35:25.461395 16904 net.cpp:157] Top shape: 4 512 16 16 (524288)
I0704 11:35:25.461395 16904 net.cpp:165] Memory required for data: 2724200480
I0704 11:35:25.461395 16904 layer_factory.hpp:77] Creating layer conv8_2_relu
I0704 11:35:25.461395 16904 net.cpp:100] Creating Layer conv8_2_relu
I0704 11:35:25.461395 16904 net.cpp:434] conv8_2_relu <- conv8_2
I0704 11:35:25.461395 16904 net.cpp:395] conv8_2_relu -> conv8_2 (in-place)
I0704 11:35:25.462393 16904 net.cpp:150] Setting up conv8_2_relu
I0704 11:35:25.462393 16904 net.cpp:157] Top shape: 4 512 16 16 (524288)
I0704 11:35:25.462393 16904 net.cpp:165] Memory required for data: 2726297632
I0704 11:35:25.462393 16904 layer_factory.hpp:77] Creating layer conv8_2_conv8_2_relu_0_split
I0704 11:35:25.462393 16904 net.cpp:100] Creating Layer conv8_2_conv8_2_relu_0_split
I0704 11:35:25.462393 16904 net.cpp:434] conv8_2_conv8_2_relu_0_split <- conv8_2
I0704 11:35:25.462393 16904 net.cpp:408] conv8_2_conv8_2_relu_0_split -> conv8_2_conv8_2_relu_0_split_0
I0704 11:35:25.462393 16904 net.cpp:408] conv8_2_conv8_2_relu_0_split -> conv8_2_conv8_2_relu_0_split_1
I0704 11:35:25.463389 16904 net.cpp:408] conv8_2_conv8_2_relu_0_split -> conv8_2_conv8_2_relu_0_split_2
I0704 11:35:25.463389 16904 net.cpp:408] conv8_2_conv8_2_relu_0_split -> conv8_2_conv8_2_relu_0_split_3
I0704 11:35:25.463389 16904 net.cpp:150] Setting up conv8_2_conv8_2_relu_0_split
I0704 11:35:25.463389 16904 net.cpp:157] Top shape: 4 512 16 16 (524288)
I0704 11:35:25.463389 16904 net.cpp:157] Top shape: 4 512 16 16 (524288)
I0704 11:35:25.463389 16904 net.cpp:157] Top shape: 4 512 16 16 (524288)
I0704 11:35:25.463389 16904 net.cpp:157] Top shape: 4 512 16 16 (524288)
I0704 11:35:25.463389 16904 net.cpp:165] Memory required for data: 2734686240
I0704 11:35:25.463389 16904 layer_factory.hpp:77] Creating layer conv9_1
I0704 11:35:25.463389 16904 net.cpp:100] Creating Layer conv9_1
I0704 11:35:25.463389 16904 net.cpp:434] conv9_1 <- conv8_2_conv8_2_relu_0_split_0
I0704 11:35:25.463389 16904 net.cpp:408] conv9_1 -> conv9_1
I0704 11:35:25.466382 16904 net.cpp:150] Setting up conv9_1
I0704 11:35:25.466382 16904 net.cpp:157] Top shape: 4 128 16 16 (131072)
I0704 11:35:25.466382 16904 net.cpp:165] Memory required for data: 2735210528
I0704 11:35:25.466382 16904 layer_factory.hpp:77] Creating layer conv9_1_relu
I0704 11:35:25.466382 16904 net.cpp:100] Creating Layer conv9_1_relu
I0704 11:35:25.466382 16904 net.cpp:434] conv9_1_relu <- conv9_1
I0704 11:35:25.466382 16904 net.cpp:395] conv9_1_relu -> conv9_1 (in-place)
I0704 11:35:25.467381 16904 net.cpp:150] Setting up conv9_1_relu
I0704 11:35:25.467381 16904 net.cpp:157] Top shape: 4 128 16 16 (131072)
I0704 11:35:25.467381 16904 net.cpp:165] Memory required for data: 2735734816
I0704 11:35:25.467381 16904 layer_factory.hpp:77] Creating layer conv9_2
I0704 11:35:25.467381 16904 net.cpp:100] Creating Layer conv9_2
I0704 11:35:25.467381 16904 net.cpp:434] conv9_2 <- conv9_1
I0704 11:35:25.467381 16904 net.cpp:408] conv9_2 -> conv9_2
I0704 11:35:25.475358 16904 net.cpp:150] Setting up conv9_2
I0704 11:35:25.475358 16904 net.cpp:157] Top shape: 4 256 8 8 (65536)
I0704 11:35:25.475358 16904 net.cpp:165] Memory required for data: 2735996960
I0704 11:35:25.475358 16904 layer_factory.hpp:77] Creating layer conv9_2_relu
I0704 11:35:25.475358 16904 net.cpp:100] Creating Layer conv9_2_relu
I0704 11:35:25.475358 16904 net.cpp:434] conv9_2_relu <- conv9_2
I0704 11:35:25.475358 16904 net.cpp:395] conv9_2_relu -> conv9_2 (in-place)
I0704 11:35:25.476356 16904 net.cpp:150] Setting up conv9_2_relu
I0704 11:35:25.476356 16904 net.cpp:157] Top shape: 4 256 8 8 (65536)
I0704 11:35:25.476356 16904 net.cpp:165] Memory required for data: 2736259104
I0704 11:35:25.476356 16904 layer_factory.hpp:77] Creating layer conv9_2_conv9_2_relu_0_split
I0704 11:35:25.476356 16904 net.cpp:100] Creating Layer conv9_2_conv9_2_relu_0_split
I0704 11:35:25.476356 16904 net.cpp:434] conv9_2_conv9_2_relu_0_split <- conv9_2
I0704 11:35:25.476356 16904 net.cpp:408] conv9_2_conv9_2_relu_0_split -> conv9_2_conv9_2_relu_0_split_0
I0704 11:35:25.476356 16904 net.cpp:408] conv9_2_conv9_2_relu_0_split -> conv9_2_conv9_2_relu_0_split_1
I0704 11:35:25.476356 16904 net.cpp:408] conv9_2_conv9_2_relu_0_split -> conv9_2_conv9_2_relu_0_split_2
I0704 11:35:25.476356 16904 net.cpp:408] conv9_2_conv9_2_relu_0_split -> conv9_2_conv9_2_relu_0_split_3
I0704 11:35:25.476356 16904 net.cpp:150] Setting up conv9_2_conv9_2_relu_0_split
I0704 11:35:25.476356 16904 net.cpp:157] Top shape: 4 256 8 8 (65536)
I0704 11:35:25.476356 16904 net.cpp:157] Top shape: 4 256 8 8 (65536)
I0704 11:35:25.476356 16904 net.cpp:157] Top shape: 4 256 8 8 (65536)
I0704 11:35:25.476356 16904 net.cpp:157] Top shape: 4 256 8 8 (65536)
I0704 11:35:25.476356 16904 net.cpp:165] Memory required for data: 2737307680
I0704 11:35:25.476356 16904 layer_factory.hpp:77] Creating layer conv10_1
I0704 11:35:25.476356 16904 net.cpp:100] Creating Layer conv10_1
I0704 11:35:25.476356 16904 net.cpp:434] conv10_1 <- conv9_2_conv9_2_relu_0_split_0
I0704 11:35:25.476356 16904 net.cpp:408] conv10_1 -> conv10_1
I0704 11:35:25.479347 16904 net.cpp:150] Setting up conv10_1
I0704 11:35:25.479347 16904 net.cpp:157] Top shape: 4 128 8 8 (32768)
I0704 11:35:25.479347 16904 net.cpp:165] Memory required for data: 2737438752
I0704 11:35:25.479347 16904 layer_factory.hpp:77] Creating layer conv10_1_relu
I0704 11:35:25.479347 16904 net.cpp:100] Creating Layer conv10_1_relu
I0704 11:35:25.479347 16904 net.cpp:434] conv10_1_relu <- conv10_1
I0704 11:35:25.479347 16904 net.cpp:395] conv10_1_relu -> conv10_1 (in-place)
I0704 11:35:25.479347 16904 net.cpp:150] Setting up conv10_1_relu
I0704 11:35:25.479347 16904 net.cpp:157] Top shape: 4 128 8 8 (32768)
I0704 11:35:25.479347 16904 net.cpp:165] Memory required for data: 2737569824
I0704 11:35:25.479347 16904 layer_factory.hpp:77] Creating layer conv10_2
I0704 11:35:25.480343 16904 net.cpp:100] Creating Layer conv10_2
I0704 11:35:25.480343 16904 net.cpp:434] conv10_2 <- conv10_1
I0704 11:35:25.480343 16904 net.cpp:408] conv10_2 -> conv10_2
I0704 11:35:25.486330 16904 net.cpp:150] Setting up conv10_2
I0704 11:35:25.487326 16904 net.cpp:157] Top shape: 4 256 4 4 (16384)
I0704 11:35:25.487326 16904 net.cpp:165] Memory required for data: 2737635360
I0704 11:35:25.487326 16904 layer_factory.hpp:77] Creating layer conv10_2_relu
I0704 11:35:25.487326 16904 net.cpp:100] Creating Layer conv10_2_relu
I0704 11:35:25.487326 16904 net.cpp:434] conv10_2_relu <- conv10_2
I0704 11:35:25.487326 16904 net.cpp:395] conv10_2_relu -> conv10_2 (in-place)
I0704 11:35:25.488323 16904 net.cpp:150] Setting up conv10_2_relu
I0704 11:35:25.488323 16904 net.cpp:157] Top shape: 4 256 4 4 (16384)
I0704 11:35:25.488323 16904 net.cpp:165] Memory required for data: 2737700896
I0704 11:35:25.488323 16904 layer_factory.hpp:77] Creating layer conv10_2_conv10_2_relu_0_split
I0704 11:35:25.488323 16904 net.cpp:100] Creating Layer conv10_2_conv10_2_relu_0_split
I0704 11:35:25.488323 16904 net.cpp:434] conv10_2_conv10_2_relu_0_split <- conv10_2
I0704 11:35:25.488323 16904 net.cpp:408] conv10_2_conv10_2_relu_0_split -> conv10_2_conv10_2_relu_0_split_0
I0704 11:35:25.488323 16904 net.cpp:408] conv10_2_conv10_2_relu_0_split -> conv10_2_conv10_2_relu_0_split_1
I0704 11:35:25.488323 16904 net.cpp:408] conv10_2_conv10_2_relu_0_split -> conv10_2_conv10_2_relu_0_split_2
I0704 11:35:25.488323 16904 net.cpp:408] conv10_2_conv10_2_relu_0_split -> conv10_2_conv10_2_relu_0_split_3
I0704 11:35:25.488323 16904 net.cpp:150] Setting up conv10_2_conv10_2_relu_0_split
I0704 11:35:25.488323 16904 net.cpp:157] Top shape: 4 256 4 4 (16384)
I0704 11:35:25.488323 16904 net.cpp:157] Top shape: 4 256 4 4 (16384)
I0704 11:35:25.488323 16904 net.cpp:157] Top shape: 4 256 4 4 (16384)
I0704 11:35:25.488323 16904 net.cpp:157] Top shape: 4 256 4 4 (16384)
I0704 11:35:25.488323 16904 net.cpp:165] Memory required for data: 2737963040
I0704 11:35:25.488323 16904 layer_factory.hpp:77] Creating layer conv11_1
I0704 11:35:25.488323 16904 net.cpp:100] Creating Layer conv11_1
I0704 11:35:25.488323 16904 net.cpp:434] conv11_1 <- conv10_2_conv10_2_relu_0_split_0
I0704 11:35:25.488323 16904 net.cpp:408] conv11_1 -> conv11_1
I0704 11:35:25.491317 16904 net.cpp:150] Setting up conv11_1
I0704 11:35:25.491317 16904 net.cpp:157] Top shape: 4 128 4 4 (8192)
I0704 11:35:25.491317 16904 net.cpp:165] Memory required for data: 2737995808
I0704 11:35:25.491317 16904 layer_factory.hpp:77] Creating layer conv11_1_relu
I0704 11:35:25.491317 16904 net.cpp:100] Creating Layer conv11_1_relu
I0704 11:35:25.491317 16904 net.cpp:434] conv11_1_relu <- conv11_1
I0704 11:35:25.491317 16904 net.cpp:395] conv11_1_relu -> conv11_1 (in-place)
I0704 11:35:25.492314 16904 net.cpp:150] Setting up conv11_1_relu
I0704 11:35:25.492314 16904 net.cpp:157] Top shape: 4 128 4 4 (8192)
I0704 11:35:25.492314 16904 net.cpp:165] Memory required for data: 2738028576
I0704 11:35:25.492314 16904 layer_factory.hpp:77] Creating layer conv11_2
I0704 11:35:25.492314 16904 net.cpp:100] Creating Layer conv11_2
I0704 11:35:25.492314 16904 net.cpp:434] conv11_2 <- conv11_1
I0704 11:35:25.492314 16904 net.cpp:408] conv11_2 -> conv11_2
I0704 11:35:25.503283 16904 net.cpp:150] Setting up conv11_2
I0704 11:35:25.503283 16904 net.cpp:157] Top shape: 4 256 2 2 (4096)
I0704 11:35:25.503283 16904 net.cpp:165] Memory required for data: 2738044960
I0704 11:35:25.503283 16904 layer_factory.hpp:77] Creating layer conv11_2_relu
I0704 11:35:25.503283 16904 net.cpp:100] Creating Layer conv11_2_relu
I0704 11:35:25.503283 16904 net.cpp:434] conv11_2_relu <- conv11_2
I0704 11:35:25.503283 16904 net.cpp:395] conv11_2_relu -> conv11_2 (in-place)
I0704 11:35:25.505280 16904 net.cpp:150] Setting up conv11_2_relu
I0704 11:35:25.505280 16904 net.cpp:157] Top shape: 4 256 2 2 (4096)
I0704 11:35:25.505280 16904 net.cpp:165] Memory required for data: 2738061344
I0704 11:35:25.505280 16904 layer_factory.hpp:77] Creating layer conv11_2_conv11_2_relu_0_split
I0704 11:35:25.505280 16904 net.cpp:100] Creating Layer conv11_2_conv11_2_relu_0_split
I0704 11:35:25.505280 16904 net.cpp:434] conv11_2_conv11_2_relu_0_split <- conv11_2
I0704 11:35:25.505280 16904 net.cpp:408] conv11_2_conv11_2_relu_0_split -> conv11_2_conv11_2_relu_0_split_0
I0704 11:35:25.505280 16904 net.cpp:408] conv11_2_conv11_2_relu_0_split -> conv11_2_conv11_2_relu_0_split_1
I0704 11:35:25.505280 16904 net.cpp:408] conv11_2_conv11_2_relu_0_split -> conv11_2_conv11_2_relu_0_split_2
I0704 11:35:25.505280 16904 net.cpp:408] conv11_2_conv11_2_relu_0_split -> conv11_2_conv11_2_relu_0_split_3
I0704 11:35:25.505280 16904 net.cpp:150] Setting up conv11_2_conv11_2_relu_0_split
I0704 11:35:25.505280 16904 net.cpp:157] Top shape: 4 256 2 2 (4096)
I0704 11:35:25.505280 16904 net.cpp:157] Top shape: 4 256 2 2 (4096)
I0704 11:35:25.505280 16904 net.cpp:157] Top shape: 4 256 2 2 (4096)
I0704 11:35:25.505280 16904 net.cpp:157] Top shape: 4 256 2 2 (4096)
I0704 11:35:25.505280 16904 net.cpp:165] Memory required for data: 2738126880
I0704 11:35:25.505280 16904 layer_factory.hpp:77] Creating layer conv12_1
I0704 11:35:25.505280 16904 net.cpp:100] Creating Layer conv12_1
I0704 11:35:25.505280 16904 net.cpp:434] conv12_1 <- conv11_2_conv11_2_relu_0_split_0
I0704 11:35:25.505280 16904 net.cpp:408] conv12_1 -> conv12_1
I0704 11:35:25.508270 16904 net.cpp:150] Setting up conv12_1
I0704 11:35:25.508270 16904 net.cpp:157] Top shape: 4 128 2 2 (2048)
I0704 11:35:25.508270 16904 net.cpp:165] Memory required for data: 2738135072
I0704 11:35:25.508270 16904 layer_factory.hpp:77] Creating layer conv12_1_relu
I0704 11:35:25.508270 16904 net.cpp:100] Creating Layer conv12_1_relu
I0704 11:35:25.508270 16904 net.cpp:434] conv12_1_relu <- conv12_1
I0704 11:35:25.508270 16904 net.cpp:395] conv12_1_relu -> conv12_1 (in-place)
I0704 11:35:25.509266 16904 net.cpp:150] Setting up conv12_1_relu
I0704 11:35:25.509266 16904 net.cpp:157] Top shape: 4 128 2 2 (2048)
I0704 11:35:25.509266 16904 net.cpp:165] Memory required for data: 2738143264
I0704 11:35:25.509266 16904 layer_factory.hpp:77] Creating layer conv12_2
I0704 11:35:25.509266 16904 net.cpp:100] Creating Layer conv12_2
I0704 11:35:25.509266 16904 net.cpp:434] conv12_2 <- conv12_1
I0704 11:35:25.509266 16904 net.cpp:408] conv12_2 -> conv12_2
I0704 11:35:25.515251 16904 net.cpp:150] Setting up conv12_2
I0704 11:35:25.515251 16904 net.cpp:157] Top shape: 4 256 1 1 (1024)
I0704 11:35:25.515251 16904 net.cpp:165] Memory required for data: 2738147360
I0704 11:35:25.515251 16904 layer_factory.hpp:77] Creating layer conv12_2_relu
I0704 11:35:25.515251 16904 net.cpp:100] Creating Layer conv12_2_relu
I0704 11:35:25.515251 16904 net.cpp:434] conv12_2_relu <- conv12_2
I0704 11:35:25.515251 16904 net.cpp:395] conv12_2_relu -> conv12_2 (in-place)
I0704 11:35:25.516249 16904 net.cpp:150] Setting up conv12_2_relu
I0704 11:35:25.516249 16904 net.cpp:157] Top shape: 4 256 1 1 (1024)
I0704 11:35:25.516249 16904 net.cpp:165] Memory required for data: 2738151456
I0704 11:35:25.516249 16904 layer_factory.hpp:77] Creating layer conv12_2_conv12_2_relu_0_split
I0704 11:35:25.516249 16904 net.cpp:100] Creating Layer conv12_2_conv12_2_relu_0_split
I0704 11:35:25.516249 16904 net.cpp:434] conv12_2_conv12_2_relu_0_split <- conv12_2
I0704 11:35:25.516249 16904 net.cpp:408] conv12_2_conv12_2_relu_0_split -> conv12_2_conv12_2_relu_0_split_0
I0704 11:35:25.516249 16904 net.cpp:408] conv12_2_conv12_2_relu_0_split -> conv12_2_conv12_2_relu_0_split_1
I0704 11:35:25.516249 16904 net.cpp:408] conv12_2_conv12_2_relu_0_split -> conv12_2_conv12_2_relu_0_split_2
I0704 11:35:25.517246 16904 net.cpp:150] Setting up conv12_2_conv12_2_relu_0_split
I0704 11:35:25.517246 16904 net.cpp:157] Top shape: 4 256 1 1 (1024)
I0704 11:35:25.517246 16904 net.cpp:157] Top shape: 4 256 1 1 (1024)
I0704 11:35:25.517246 16904 net.cpp:157] Top shape: 4 256 1 1 (1024)
I0704 11:35:25.517246 16904 net.cpp:165] Memory required for data: 2738163744
I0704 11:35:25.517246 16904 layer_factory.hpp:77] Creating layer conv4_3_norm
I0704 11:35:25.517246 16904 net.cpp:100] Creating Layer conv4_3_norm
I0704 11:35:25.517246 16904 net.cpp:434] conv4_3_norm <- conv4_3_relu4_3_0_split_1
I0704 11:35:25.517246 16904 net.cpp:408] conv4_3_norm -> conv4_3_norm
I0704 11:35:25.517246 16904 net.cpp:150] Setting up conv4_3_norm
I0704 11:35:25.518244 16904 net.cpp:157] Top shape: 4 512 64 64 (8388608)
I0704 11:35:25.518244 16904 net.cpp:165] Memory required for data: 2771718176
I0704 11:35:25.518244 16904 layer_factory.hpp:77] Creating layer conv4_3_norm_conv4_3_norm_0_split
I0704 11:35:25.518244 16904 net.cpp:100] Creating Layer conv4_3_norm_conv4_3_norm_0_split
I0704 11:35:25.518244 16904 net.cpp:434] conv4_3_norm_conv4_3_norm_0_split <- conv4_3_norm
I0704 11:35:25.518244 16904 net.cpp:408] conv4_3_norm_conv4_3_norm_0_split -> conv4_3_norm_conv4_3_norm_0_split_0
I0704 11:35:25.518244 16904 net.cpp:408] conv4_3_norm_conv4_3_norm_0_split -> conv4_3_norm_conv4_3_norm_0_split_1
I0704 11:35:25.518244 16904 net.cpp:408] conv4_3_norm_conv4_3_norm_0_split -> conv4_3_norm_conv4_3_norm_0_split_2
I0704 11:35:25.518244 16904 net.cpp:150] Setting up conv4_3_norm_conv4_3_norm_0_split
I0704 11:35:25.518244 16904 net.cpp:157] Top shape: 4 512 64 64 (8388608)
I0704 11:35:25.518244 16904 net.cpp:157] Top shape: 4 512 64 64 (8388608)
I0704 11:35:25.518244 16904 net.cpp:157] Top shape: 4 512 64 64 (8388608)
I0704 11:35:25.518244 16904 net.cpp:165] Memory required for data: 2872381472
I0704 11:35:25.518244 16904 layer_factory.hpp:77] Creating layer conv4_3_norm_mbox_loc
I0704 11:35:25.518244 16904 net.cpp:100] Creating Layer conv4_3_norm_mbox_loc
I0704 11:35:25.518244 16904 net.cpp:434] conv4_3_norm_mbox_loc <- conv4_3_norm_conv4_3_norm_0_split_0
I0704 11:35:25.518244 16904 net.cpp:408] conv4_3_norm_mbox_loc -> conv4_3_norm_mbox_loc
I0704 11:35:25.550158 16904 net.cpp:150] Setting up conv4_3_norm_mbox_loc
I0704 11:35:25.550158 16904 net.cpp:157] Top shape: 4 16 64 64 (262144)
I0704 11:35:25.550158 16904 net.cpp:165] Memory required for data: 2873430048
I0704 11:35:25.550158 16904 layer_factory.hpp:77] Creating layer conv4_3_norm_mbox_loc_perm
I0704 11:35:25.550158 16904 net.cpp:100] Creating Layer conv4_3_norm_mbox_loc_perm
I0704 11:35:25.550158 16904 net.cpp:434] conv4_3_norm_mbox_loc_perm <- conv4_3_norm_mbox_loc
I0704 11:35:25.551156 16904 net.cpp:408] conv4_3_norm_mbox_loc_perm -> conv4_3_norm_mbox_loc_perm
I0704 11:35:25.551156 16904 net.cpp:150] Setting up conv4_3_norm_mbox_loc_perm
I0704 11:35:25.551156 16904 net.cpp:157] Top shape: 4 64 64 16 (262144)
I0704 11:35:25.551156 16904 net.cpp:165] Memory required for data: 2874478624
I0704 11:35:25.551156 16904 layer_factory.hpp:77] Creating layer conv4_3_norm_mbox_loc_flat
I0704 11:35:25.551156 16904 net.cpp:100] Creating Layer conv4_3_norm_mbox_loc_flat
I0704 11:35:25.551156 16904 net.cpp:434] conv4_3_norm_mbox_loc_flat <- conv4_3_norm_mbox_loc_perm
I0704 11:35:25.551156 16904 net.cpp:408] conv4_3_norm_mbox_loc_flat -> conv4_3_norm_mbox_loc_flat
I0704 11:35:25.551156 16904 net.cpp:150] Setting up conv4_3_norm_mbox_loc_flat
I0704 11:35:25.553150 16904 net.cpp:157] Top shape: 4 65536 (262144)
I0704 11:35:25.553150 16904 net.cpp:165] Memory required for data: 2875527200
I0704 11:35:25.553150 16904 layer_factory.hpp:77] Creating layer conv4_3_norm_mbox_conf
I0704 11:35:25.553150 16904 net.cpp:100] Creating Layer conv4_3_norm_mbox_conf
I0704 11:35:25.553150 16904 net.cpp:434] conv4_3_norm_mbox_conf <- conv4_3_norm_conv4_3_norm_0_split_1
I0704 11:35:25.553150 16904 net.cpp:408] conv4_3_norm_mbox_conf -> conv4_3_norm_mbox_conf
I0704 11:35:25.563125 16904 net.cpp:150] Setting up conv4_3_norm_mbox_conf
I0704 11:35:25.563125 16904 net.cpp:157] Top shape: 4 12 64 64 (196608)
I0704 11:35:25.563125 16904 net.cpp:165] Memory required for data: 2876313632
I0704 11:35:25.563125 16904 layer_factory.hpp:77] Creating layer conv4_3_norm_mbox_conf_perm
I0704 11:35:25.563125 16904 net.cpp:100] Creating Layer conv4_3_norm_mbox_conf_perm
I0704 11:35:25.563125 16904 net.cpp:434] conv4_3_norm_mbox_conf_perm <- conv4_3_norm_mbox_conf
I0704 11:35:25.563125 16904 net.cpp:408] conv4_3_norm_mbox_conf_perm -> conv4_3_norm_mbox_conf_perm
I0704 11:35:25.563125 16904 net.cpp:150] Setting up conv4_3_norm_mbox_conf_perm
I0704 11:35:25.564123 16904 net.cpp:157] Top shape: 4 64 64 12 (196608)
I0704 11:35:25.564123 16904 net.cpp:165] Memory required for data: 2877100064
I0704 11:35:25.564123 16904 layer_factory.hpp:77] Creating layer conv4_3_norm_mbox_conf_flat
I0704 11:35:25.564123 16904 net.cpp:100] Creating Layer conv4_3_norm_mbox_conf_flat
I0704 11:35:25.564123 16904 net.cpp:434] conv4_3_norm_mbox_conf_flat <- conv4_3_norm_mbox_conf_perm
I0704 11:35:25.564123 16904 net.cpp:408] conv4_3_norm_mbox_conf_flat -> conv4_3_norm_mbox_conf_flat
I0704 11:35:25.564123 16904 net.cpp:150] Setting up conv4_3_norm_mbox_conf_flat
I0704 11:35:25.564123 16904 net.cpp:157] Top shape: 4 49152 (196608)
I0704 11:35:25.564123 16904 net.cpp:165] Memory required for data: 2877886496
I0704 11:35:25.564123 16904 layer_factory.hpp:77] Creating layer conv4_3_norm_mbox_priorbox
I0704 11:35:25.564123 16904 net.cpp:100] Creating Layer conv4_3_norm_mbox_priorbox
I0704 11:35:25.564123 16904 net.cpp:434] conv4_3_norm_mbox_priorbox <- conv4_3_norm_conv4_3_norm_0_split_2
I0704 11:35:25.564123 16904 net.cpp:434] conv4_3_norm_mbox_priorbox <- data_data_0_split_1
I0704 11:35:25.564123 16904 net.cpp:408] conv4_3_norm_mbox_priorbox -> conv4_3_norm_mbox_priorbox
I0704 11:35:25.564123 16904 net.cpp:150] Setting up conv4_3_norm_mbox_priorbox
I0704 11:35:25.564123 16904 net.cpp:157] Top shape: 1 2 65536 (131072)
I0704 11:35:25.564123 16904 net.cpp:165] Memory required for data: 2878410784
I0704 11:35:25.564123 16904 layer_factory.hpp:77] Creating layer fc7_mbox_loc
I0704 11:35:25.564123 16904 net.cpp:100] Creating Layer fc7_mbox_loc
I0704 11:35:25.564123 16904 net.cpp:434] fc7_mbox_loc <- fc7_relu7_0_split_1
I0704 11:35:25.564123 16904 net.cpp:408] fc7_mbox_loc -> fc7_mbox_loc
I0704 11:35:25.576090 16904 net.cpp:150] Setting up fc7_mbox_loc
I0704 11:35:25.576090 16904 net.cpp:157] Top shape: 4 24 32 32 (98304)
I0704 11:35:25.576090 16904 net.cpp:165] Memory required for data: 2878804000
I0704 11:35:25.576090 16904 layer_factory.hpp:77] Creating layer fc7_mbox_loc_perm
I0704 11:35:25.576090 16904 net.cpp:100] Creating Layer fc7_mbox_loc_perm
I0704 11:35:25.576090 16904 net.cpp:434] fc7_mbox_loc_perm <- fc7_mbox_loc
I0704 11:35:25.576090 16904 net.cpp:408] fc7_mbox_loc_perm -> fc7_mbox_loc_perm
I0704 11:35:25.576090 16904 net.cpp:150] Setting up fc7_mbox_loc_perm
I0704 11:35:25.576090 16904 net.cpp:157] Top shape: 4 32 32 24 (98304)
I0704 11:35:25.576090 16904 net.cpp:165] Memory required for data: 2879197216
I0704 11:35:25.576090 16904 layer_factory.hpp:77] Creating layer fc7_mbox_loc_flat
I0704 11:35:25.576090 16904 net.cpp:100] Creating Layer fc7_mbox_loc_flat
I0704 11:35:25.576090 16904 net.cpp:434] fc7_mbox_loc_flat <- fc7_mbox_loc_perm
I0704 11:35:25.576090 16904 net.cpp:408] fc7_mbox_loc_flat -> fc7_mbox_loc_flat
I0704 11:35:25.576090 16904 net.cpp:150] Setting up fc7_mbox_loc_flat
I0704 11:35:25.576090 16904 net.cpp:157] Top shape: 4 24576 (98304)
I0704 11:35:25.576090 16904 net.cpp:165] Memory required for data: 2879590432
I0704 11:35:25.576090 16904 layer_factory.hpp:77] Creating layer fc7_mbox_conf
I0704 11:35:25.576090 16904 net.cpp:100] Creating Layer fc7_mbox_conf
I0704 11:35:25.576090 16904 net.cpp:434] fc7_mbox_conf <- fc7_relu7_0_split_2
I0704 11:35:25.576090 16904 net.cpp:408] fc7_mbox_conf -> fc7_mbox_conf
I0704 11:35:25.582073 16904 net.cpp:150] Setting up fc7_mbox_conf
I0704 11:35:25.582073 16904 net.cpp:157] Top shape: 4 18 32 32 (73728)
I0704 11:35:25.582073 16904 net.cpp:165] Memory required for data: 2879885344
I0704 11:35:25.582073 16904 layer_factory.hpp:77] Creating layer fc7_mbox_conf_perm
I0704 11:35:25.582073 16904 net.cpp:100] Creating Layer fc7_mbox_conf_perm
I0704 11:35:25.582073 16904 net.cpp:434] fc7_mbox_conf_perm <- fc7_mbox_conf
I0704 11:35:25.582073 16904 net.cpp:408] fc7_mbox_conf_perm -> fc7_mbox_conf_perm
I0704 11:35:25.582073 16904 net.cpp:150] Setting up fc7_mbox_conf_perm
I0704 11:35:25.582073 16904 net.cpp:157] Top shape: 4 32 32 18 (73728)
I0704 11:35:25.582073 16904 net.cpp:165] Memory required for data: 2880180256
I0704 11:35:25.582073 16904 layer_factory.hpp:77] Creating layer fc7_mbox_conf_flat
I0704 11:35:25.582073 16904 net.cpp:100] Creating Layer fc7_mbox_conf_flat
I0704 11:35:25.582073 16904 net.cpp:434] fc7_mbox_conf_flat <- fc7_mbox_conf_perm
I0704 11:35:25.583070 16904 net.cpp:408] fc7_mbox_conf_flat -> fc7_mbox_conf_flat
I0704 11:35:25.583070 16904 net.cpp:150] Setting up fc7_mbox_conf_flat
I0704 11:35:25.583070 16904 net.cpp:157] Top shape: 4 18432 (73728)
I0704 11:35:25.583070 16904 net.cpp:165] Memory required for data: 2880475168
I0704 11:35:25.583070 16904 layer_factory.hpp:77] Creating layer fc7_mbox_priorbox
I0704 11:35:25.583070 16904 net.cpp:100] Creating Layer fc7_mbox_priorbox
I0704 11:35:25.583070 16904 net.cpp:434] fc7_mbox_priorbox <- fc7_relu7_0_split_3
I0704 11:35:25.583070 16904 net.cpp:434] fc7_mbox_priorbox <- data_data_0_split_2
I0704 11:35:25.583070 16904 net.cpp:408] fc7_mbox_priorbox -> fc7_mbox_priorbox
I0704 11:35:25.583070 16904 net.cpp:150] Setting up fc7_mbox_priorbox
I0704 11:35:25.584066 16904 net.cpp:157] Top shape: 1 2 24576 (49152)
I0704 11:35:25.584066 16904 net.cpp:165] Memory required for data: 2880671776
I0704 11:35:25.584066 16904 layer_factory.hpp:77] Creating layer conv8_2_mbox_loc
I0704 11:35:25.584066 16904 net.cpp:100] Creating Layer conv8_2_mbox_loc
I0704 11:35:25.584066 16904 net.cpp:434] conv8_2_mbox_loc <- conv8_2_conv8_2_relu_0_split_1
I0704 11:35:25.584066 16904 net.cpp:408] conv8_2_mbox_loc -> conv8_2_mbox_loc
I0704 11:35:25.595038 16904 net.cpp:150] Setting up conv8_2_mbox_loc
I0704 11:35:25.595038 16904 net.cpp:157] Top shape: 4 24 16 16 (24576)
I0704 11:35:25.595038 16904 net.cpp:165] Memory required for data: 2880770080
I0704 11:35:25.595038 16904 layer_factory.hpp:77] Creating layer conv8_2_mbox_loc_perm
I0704 11:35:25.595038 16904 net.cpp:100] Creating Layer conv8_2_mbox_loc_perm
I0704 11:35:25.595038 16904 net.cpp:434] conv8_2_mbox_loc_perm <- conv8_2_mbox_loc
I0704 11:35:25.595038 16904 net.cpp:408] conv8_2_mbox_loc_perm -> conv8_2_mbox_loc_perm
I0704 11:35:25.595038 16904 net.cpp:150] Setting up conv8_2_mbox_loc_perm
I0704 11:35:25.595038 16904 net.cpp:157] Top shape: 4 16 16 24 (24576)
I0704 11:35:25.595038 16904 net.cpp:165] Memory required for data: 2880868384
I0704 11:35:25.595038 16904 layer_factory.hpp:77] Creating layer conv8_2_mbox_loc_flat
I0704 11:35:25.595038 16904 net.cpp:100] Creating Layer conv8_2_mbox_loc_flat
I0704 11:35:25.595038 16904 net.cpp:434] conv8_2_mbox_loc_flat <- conv8_2_mbox_loc_perm
I0704 11:35:25.595038 16904 net.cpp:408] conv8_2_mbox_loc_flat -> conv8_2_mbox_loc_flat
I0704 11:35:25.595038 16904 net.cpp:150] Setting up conv8_2_mbox_loc_flat
I0704 11:35:25.595038 16904 net.cpp:157] Top shape: 4 6144 (24576)
I0704 11:35:25.595038 16904 net.cpp:165] Memory required for data: 2880966688
I0704 11:35:25.595038 16904 layer_factory.hpp:77] Creating layer conv8_2_mbox_conf
I0704 11:35:25.595038 16904 net.cpp:100] Creating Layer conv8_2_mbox_conf
I0704 11:35:25.595038 16904 net.cpp:434] conv8_2_mbox_conf <- conv8_2_conv8_2_relu_0_split_2
I0704 11:35:25.595038 16904 net.cpp:408] conv8_2_mbox_conf -> conv8_2_mbox_conf
I0704 11:35:25.600024 16904 net.cpp:150] Setting up conv8_2_mbox_conf
I0704 11:35:25.600024 16904 net.cpp:157] Top shape: 4 18 16 16 (18432)
I0704 11:35:25.600024 16904 net.cpp:165] Memory required for data: 2881040416
I0704 11:35:25.600024 16904 layer_factory.hpp:77] Creating layer conv8_2_mbox_conf_perm
I0704 11:35:25.600024 16904 net.cpp:100] Creating Layer conv8_2_mbox_conf_perm
I0704 11:35:25.600024 16904 net.cpp:434] conv8_2_mbox_conf_perm <- conv8_2_mbox_conf
I0704 11:35:25.600024 16904 net.cpp:408] conv8_2_mbox_conf_perm -> conv8_2_mbox_conf_perm
I0704 11:35:25.600024 16904 net.cpp:150] Setting up conv8_2_mbox_conf_perm
I0704 11:35:25.600024 16904 net.cpp:157] Top shape: 4 16 16 18 (18432)
I0704 11:35:25.600024 16904 net.cpp:165] Memory required for data: 2881114144
I0704 11:35:25.600024 16904 layer_factory.hpp:77] Creating layer conv8_2_mbox_conf_flat
I0704 11:35:25.600024 16904 net.cpp:100] Creating Layer conv8_2_mbox_conf_flat
I0704 11:35:25.600024 16904 net.cpp:434] conv8_2_mbox_conf_flat <- conv8_2_mbox_conf_perm
I0704 11:35:25.600024 16904 net.cpp:408] conv8_2_mbox_conf_flat -> conv8_2_mbox_conf_flat
I0704 11:35:25.600024 16904 net.cpp:150] Setting up conv8_2_mbox_conf_flat
I0704 11:35:25.600024 16904 net.cpp:157] Top shape: 4 4608 (18432)
I0704 11:35:25.600024 16904 net.cpp:165] Memory required for data: 2881187872
I0704 11:35:25.600024 16904 layer_factory.hpp:77] Creating layer conv8_2_mbox_priorbox
I0704 11:35:25.600024 16904 net.cpp:100] Creating Layer conv8_2_mbox_priorbox
I0704 11:35:25.600024 16904 net.cpp:434] conv8_2_mbox_priorbox <- conv8_2_conv8_2_relu_0_split_3
I0704 11:35:25.600024 16904 net.cpp:434] conv8_2_mbox_priorbox <- data_data_0_split_3
I0704 11:35:25.600024 16904 net.cpp:408] conv8_2_mbox_priorbox -> conv8_2_mbox_priorbox
I0704 11:35:25.600024 16904 net.cpp:150] Setting up conv8_2_mbox_priorbox
I0704 11:35:25.600024 16904 net.cpp:157] Top shape: 1 2 6144 (12288)
I0704 11:35:25.600024 16904 net.cpp:165] Memory required for data: 2881237024
I0704 11:35:25.600024 16904 layer_factory.hpp:77] Creating layer conv9_2_mbox_loc
I0704 11:35:25.600024 16904 net.cpp:100] Creating Layer conv9_2_mbox_loc
I0704 11:35:25.600024 16904 net.cpp:434] conv9_2_mbox_loc <- conv9_2_conv9_2_relu_0_split_1
I0704 11:35:25.600024 16904 net.cpp:408] conv9_2_mbox_loc -> conv9_2_mbox_loc
I0704 11:35:25.608003 16904 net.cpp:150] Setting up conv9_2_mbox_loc
I0704 11:35:25.608003 16904 net.cpp:157] Top shape: 4 24 8 8 (6144)
I0704 11:35:25.608003 16904 net.cpp:165] Memory required for data: 2881261600
I0704 11:35:25.608003 16904 layer_factory.hpp:77] Creating layer conv9_2_mbox_loc_perm
I0704 11:35:25.608003 16904 net.cpp:100] Creating Layer conv9_2_mbox_loc_perm
I0704 11:35:25.608003 16904 net.cpp:434] conv9_2_mbox_loc_perm <- conv9_2_mbox_loc
I0704 11:35:25.608003 16904 net.cpp:408] conv9_2_mbox_loc_perm -> conv9_2_mbox_loc_perm
I0704 11:35:25.608003 16904 net.cpp:150] Setting up conv9_2_mbox_loc_perm
I0704 11:35:25.608003 16904 net.cpp:157] Top shape: 4 8 8 24 (6144)
I0704 11:35:25.608003 16904 net.cpp:165] Memory required for data: 2881286176
I0704 11:35:25.608003 16904 layer_factory.hpp:77] Creating layer conv9_2_mbox_loc_flat
I0704 11:35:25.608003 16904 net.cpp:100] Creating Layer conv9_2_mbox_loc_flat
I0704 11:35:25.608003 16904 net.cpp:434] conv9_2_mbox_loc_flat <- conv9_2_mbox_loc_perm
I0704 11:35:25.608003 16904 net.cpp:408] conv9_2_mbox_loc_flat -> conv9_2_mbox_loc_flat
I0704 11:35:25.608003 16904 net.cpp:150] Setting up conv9_2_mbox_loc_flat
I0704 11:35:25.608003 16904 net.cpp:157] Top shape: 4 1536 (6144)
I0704 11:35:25.608003 16904 net.cpp:165] Memory required for data: 2881310752
I0704 11:35:25.608003 16904 layer_factory.hpp:77] Creating layer conv9_2_mbox_conf
I0704 11:35:25.608003 16904 net.cpp:100] Creating Layer conv9_2_mbox_conf
I0704 11:35:25.608003 16904 net.cpp:434] conv9_2_mbox_conf <- conv9_2_conv9_2_relu_0_split_2
I0704 11:35:25.608003 16904 net.cpp:408] conv9_2_mbox_conf -> conv9_2_mbox_conf
I0704 11:35:25.611994 16904 net.cpp:150] Setting up conv9_2_mbox_conf
I0704 11:35:25.611994 16904 net.cpp:157] Top shape: 4 18 8 8 (4608)
I0704 11:35:25.612990 16904 net.cpp:165] Memory required for data: 2881329184
I0704 11:35:25.612990 16904 layer_factory.hpp:77] Creating layer conv9_2_mbox_conf_perm
I0704 11:35:25.612990 16904 net.cpp:100] Creating Layer conv9_2_mbox_conf_perm
I0704 11:35:25.612990 16904 net.cpp:434] conv9_2_mbox_conf_perm <- conv9_2_mbox_conf
I0704 11:35:25.612990 16904 net.cpp:408] conv9_2_mbox_conf_perm -> conv9_2_mbox_conf_perm
I0704 11:35:25.612990 16904 net.cpp:150] Setting up conv9_2_mbox_conf_perm
I0704 11:35:25.612990 16904 net.cpp:157] Top shape: 4 8 8 18 (4608)
I0704 11:35:25.612990 16904 net.cpp:165] Memory required for data: 2881347616
I0704 11:35:25.612990 16904 layer_factory.hpp:77] Creating layer conv9_2_mbox_conf_flat
I0704 11:35:25.612990 16904 net.cpp:100] Creating Layer conv9_2_mbox_conf_flat
I0704 11:35:25.612990 16904 net.cpp:434] conv9_2_mbox_conf_flat <- conv9_2_mbox_conf_perm
I0704 11:35:25.612990 16904 net.cpp:408] conv9_2_mbox_conf_flat -> conv9_2_mbox_conf_flat
I0704 11:35:25.612990 16904 net.cpp:150] Setting up conv9_2_mbox_conf_flat
I0704 11:35:25.612990 16904 net.cpp:157] Top shape: 4 1152 (4608)
I0704 11:35:25.612990 16904 net.cpp:165] Memory required for data: 2881366048
I0704 11:35:25.612990 16904 layer_factory.hpp:77] Creating layer conv9_2_mbox_priorbox
I0704 11:35:25.612990 16904 net.cpp:100] Creating Layer conv9_2_mbox_priorbox
I0704 11:35:25.612990 16904 net.cpp:434] conv9_2_mbox_priorbox <- conv9_2_conv9_2_relu_0_split_3
I0704 11:35:25.612990 16904 net.cpp:434] conv9_2_mbox_priorbox <- data_data_0_split_4
I0704 11:35:25.612990 16904 net.cpp:408] conv9_2_mbox_priorbox -> conv9_2_mbox_priorbox
I0704 11:35:25.612990 16904 net.cpp:150] Setting up conv9_2_mbox_priorbox
I0704 11:35:25.612990 16904 net.cpp:157] Top shape: 1 2 1536 (3072)
I0704 11:35:25.612990 16904 net.cpp:165] Memory required for data: 2881378336
I0704 11:35:25.612990 16904 layer_factory.hpp:77] Creating layer conv10_2_mbox_loc
I0704 11:35:25.612990 16904 net.cpp:100] Creating Layer conv10_2_mbox_loc
I0704 11:35:25.612990 16904 net.cpp:434] conv10_2_mbox_loc <- conv10_2_conv10_2_relu_0_split_1
I0704 11:35:25.612990 16904 net.cpp:408] conv10_2_mbox_loc -> conv10_2_mbox_loc
I0704 11:35:25.620970 16904 net.cpp:150] Setting up conv10_2_mbox_loc
I0704 11:35:25.620970 16904 net.cpp:157] Top shape: 4 24 4 4 (1536)
I0704 11:35:25.620970 16904 net.cpp:165] Memory required for data: 2881384480
I0704 11:35:25.620970 16904 layer_factory.hpp:77] Creating layer conv10_2_mbox_loc_perm
I0704 11:35:25.620970 16904 net.cpp:100] Creating Layer conv10_2_mbox_loc_perm
I0704 11:35:25.620970 16904 net.cpp:434] conv10_2_mbox_loc_perm <- conv10_2_mbox_loc
I0704 11:35:25.620970 16904 net.cpp:408] conv10_2_mbox_loc_perm -> conv10_2_mbox_loc_perm
I0704 11:35:25.620970 16904 net.cpp:150] Setting up conv10_2_mbox_loc_perm
I0704 11:35:25.620970 16904 net.cpp:157] Top shape: 4 4 4 24 (1536)
I0704 11:35:25.620970 16904 net.cpp:165] Memory required for data: 2881390624
I0704 11:35:25.620970 16904 layer_factory.hpp:77] Creating layer conv10_2_mbox_loc_flat
I0704 11:35:25.620970 16904 net.cpp:100] Creating Layer conv10_2_mbox_loc_flat
I0704 11:35:25.620970 16904 net.cpp:434] conv10_2_mbox_loc_flat <- conv10_2_mbox_loc_perm
I0704 11:35:25.620970 16904 net.cpp:408] conv10_2_mbox_loc_flat -> conv10_2_mbox_loc_flat
I0704 11:35:25.620970 16904 net.cpp:150] Setting up conv10_2_mbox_loc_flat
I0704 11:35:25.620970 16904 net.cpp:157] Top shape: 4 384 (1536)
I0704 11:35:25.620970 16904 net.cpp:165] Memory required for data: 2881396768
I0704 11:35:25.620970 16904 layer_factory.hpp:77] Creating layer conv10_2_mbox_conf
I0704 11:35:25.620970 16904 net.cpp:100] Creating Layer conv10_2_mbox_conf
I0704 11:35:25.620970 16904 net.cpp:434] conv10_2_mbox_conf <- conv10_2_conv10_2_relu_0_split_2
I0704 11:35:25.620970 16904 net.cpp:408] conv10_2_mbox_conf -> conv10_2_mbox_conf
I0704 11:35:25.624958 16904 net.cpp:150] Setting up conv10_2_mbox_conf
I0704 11:35:25.624958 16904 net.cpp:157] Top shape: 4 18 4 4 (1152)
I0704 11:35:25.624958 16904 net.cpp:165] Memory required for data: 2881401376
I0704 11:35:25.624958 16904 layer_factory.hpp:77] Creating layer conv10_2_mbox_conf_perm
I0704 11:35:25.624958 16904 net.cpp:100] Creating Layer conv10_2_mbox_conf_perm
I0704 11:35:25.624958 16904 net.cpp:434] conv10_2_mbox_conf_perm <- conv10_2_mbox_conf
I0704 11:35:25.624958 16904 net.cpp:408] conv10_2_mbox_conf_perm -> conv10_2_mbox_conf_perm
I0704 11:35:25.624958 16904 net.cpp:150] Setting up conv10_2_mbox_conf_perm
I0704 11:35:25.624958 16904 net.cpp:157] Top shape: 4 4 4 18 (1152)
I0704 11:35:25.624958 16904 net.cpp:165] Memory required for data: 2881405984
I0704 11:35:25.624958 16904 layer_factory.hpp:77] Creating layer conv10_2_mbox_conf_flat
I0704 11:35:25.624958 16904 net.cpp:100] Creating Layer conv10_2_mbox_conf_flat
I0704 11:35:25.624958 16904 net.cpp:434] conv10_2_mbox_conf_flat <- conv10_2_mbox_conf_perm
I0704 11:35:25.624958 16904 net.cpp:408] conv10_2_mbox_conf_flat -> conv10_2_mbox_conf_flat
I0704 11:35:25.624958 16904 net.cpp:150] Setting up conv10_2_mbox_conf_flat
I0704 11:35:25.624958 16904 net.cpp:157] Top shape: 4 288 (1152)
I0704 11:35:25.624958 16904 net.cpp:165] Memory required for data: 2881410592
I0704 11:35:25.624958 16904 layer_factory.hpp:77] Creating layer conv10_2_mbox_priorbox
I0704 11:35:25.624958 16904 net.cpp:100] Creating Layer conv10_2_mbox_priorbox
I0704 11:35:25.624958 16904 net.cpp:434] conv10_2_mbox_priorbox <- conv10_2_conv10_2_relu_0_split_3
I0704 11:35:25.624958 16904 net.cpp:434] conv10_2_mbox_priorbox <- data_data_0_split_5
I0704 11:35:25.624958 16904 net.cpp:408] conv10_2_mbox_priorbox -> conv10_2_mbox_priorbox
I0704 11:35:25.624958 16904 net.cpp:150] Setting up conv10_2_mbox_priorbox
I0704 11:35:25.624958 16904 net.cpp:157] Top shape: 1 2 384 (768)
I0704 11:35:25.624958 16904 net.cpp:165] Memory required for data: 2881413664
I0704 11:35:25.624958 16904 layer_factory.hpp:77] Creating layer conv11_2_mbox_loc
I0704 11:35:25.624958 16904 net.cpp:100] Creating Layer conv11_2_mbox_loc
I0704 11:35:25.624958 16904 net.cpp:434] conv11_2_mbox_loc <- conv11_2_conv11_2_relu_0_split_1
I0704 11:35:25.624958 16904 net.cpp:408] conv11_2_mbox_loc -> conv11_2_mbox_loc
I0704 11:35:25.628947 16904 net.cpp:150] Setting up conv11_2_mbox_loc
I0704 11:35:25.629945 16904 net.cpp:157] Top shape: 4 16 2 2 (256)
I0704 11:35:25.629945 16904 net.cpp:165] Memory required for data: 2881414688
I0704 11:35:25.629945 16904 layer_factory.hpp:77] Creating layer conv11_2_mbox_loc_perm
I0704 11:35:25.629945 16904 net.cpp:100] Creating Layer conv11_2_mbox_loc_perm
I0704 11:35:25.629945 16904 net.cpp:434] conv11_2_mbox_loc_perm <- conv11_2_mbox_loc
I0704 11:35:25.629945 16904 net.cpp:408] conv11_2_mbox_loc_perm -> conv11_2_mbox_loc_perm
I0704 11:35:25.629945 16904 net.cpp:150] Setting up conv11_2_mbox_loc_perm
I0704 11:35:25.629945 16904 net.cpp:157] Top shape: 4 2 2 16 (256)
I0704 11:35:25.629945 16904 net.cpp:165] Memory required for data: 2881415712
I0704 11:35:25.629945 16904 layer_factory.hpp:77] Creating layer conv11_2_mbox_loc_flat
I0704 11:35:25.629945 16904 net.cpp:100] Creating Layer conv11_2_mbox_loc_flat
I0704 11:35:25.629945 16904 net.cpp:434] conv11_2_mbox_loc_flat <- conv11_2_mbox_loc_perm
I0704 11:35:25.629945 16904 net.cpp:408] conv11_2_mbox_loc_flat -> conv11_2_mbox_loc_flat
I0704 11:35:25.629945 16904 net.cpp:150] Setting up conv11_2_mbox_loc_flat
I0704 11:35:25.629945 16904 net.cpp:157] Top shape: 4 64 (256)
I0704 11:35:25.629945 16904 net.cpp:165] Memory required for data: 2881416736
I0704 11:35:25.629945 16904 layer_factory.hpp:77] Creating layer conv11_2_mbox_conf
I0704 11:35:25.629945 16904 net.cpp:100] Creating Layer conv11_2_mbox_conf
I0704 11:35:25.629945 16904 net.cpp:434] conv11_2_mbox_conf <- conv11_2_conv11_2_relu_0_split_2
I0704 11:35:25.629945 16904 net.cpp:408] conv11_2_mbox_conf -> conv11_2_mbox_conf
I0704 11:35:25.631939 16904 net.cpp:150] Setting up conv11_2_mbox_conf
I0704 11:35:25.631939 16904 net.cpp:157] Top shape: 4 12 2 2 (192)
I0704 11:35:25.631939 16904 net.cpp:165] Memory required for data: 2881417504
I0704 11:35:25.631939 16904 layer_factory.hpp:77] Creating layer conv11_2_mbox_conf_perm
I0704 11:35:25.631939 16904 net.cpp:100] Creating Layer conv11_2_mbox_conf_perm
I0704 11:35:25.631939 16904 net.cpp:434] conv11_2_mbox_conf_perm <- conv11_2_mbox_conf
I0704 11:35:25.631939 16904 net.cpp:408] conv11_2_mbox_conf_perm -> conv11_2_mbox_conf_perm
I0704 11:35:25.631939 16904 net.cpp:150] Setting up conv11_2_mbox_conf_perm
I0704 11:35:25.631939 16904 net.cpp:157] Top shape: 4 2 2 12 (192)
I0704 11:35:25.631939 16904 net.cpp:165] Memory required for data: 2881418272
I0704 11:35:25.631939 16904 layer_factory.hpp:77] Creating layer conv11_2_mbox_conf_flat
I0704 11:35:25.631939 16904 net.cpp:100] Creating Layer conv11_2_mbox_conf_flat
I0704 11:35:25.631939 16904 net.cpp:434] conv11_2_mbox_conf_flat <- conv11_2_mbox_conf_perm
I0704 11:35:25.631939 16904 net.cpp:408] conv11_2_mbox_conf_flat -> conv11_2_mbox_conf_flat
I0704 11:35:25.631939 16904 net.cpp:150] Setting up conv11_2_mbox_conf_flat
I0704 11:35:25.631939 16904 net.cpp:157] Top shape: 4 48 (192)
I0704 11:35:25.631939 16904 net.cpp:165] Memory required for data: 2881419040
I0704 11:35:25.631939 16904 layer_factory.hpp:77] Creating layer conv11_2_mbox_priorbox
I0704 11:35:25.631939 16904 net.cpp:100] Creating Layer conv11_2_mbox_priorbox
I0704 11:35:25.631939 16904 net.cpp:434] conv11_2_mbox_priorbox <- conv11_2_conv11_2_relu_0_split_3
I0704 11:35:25.631939 16904 net.cpp:434] conv11_2_mbox_priorbox <- data_data_0_split_6
I0704 11:35:25.631939 16904 net.cpp:408] conv11_2_mbox_priorbox -> conv11_2_mbox_priorbox
I0704 11:35:25.631939 16904 net.cpp:150] Setting up conv11_2_mbox_priorbox
I0704 11:35:25.631939 16904 net.cpp:157] Top shape: 1 2 64 (128)
I0704 11:35:25.631939 16904 net.cpp:165] Memory required for data: 2881419552
I0704 11:35:25.631939 16904 layer_factory.hpp:77] Creating layer conv12_2_mbox_loc
I0704 11:35:25.631939 16904 net.cpp:100] Creating Layer conv12_2_mbox_loc
I0704 11:35:25.631939 16904 net.cpp:434] conv12_2_mbox_loc <- conv12_2_conv12_2_relu_0_split_0
I0704 11:35:25.631939 16904 net.cpp:408] conv12_2_mbox_loc -> conv12_2_mbox_loc
I0704 11:35:25.657871 16904 net.cpp:150] Setting up conv12_2_mbox_loc
I0704 11:35:25.657871 16904 net.cpp:157] Top shape: 4 16 1 1 (64)
I0704 11:35:25.657871 16904 net.cpp:165] Memory required for data: 2881419808
I0704 11:35:25.657871 16904 layer_factory.hpp:77] Creating layer conv12_2_mbox_loc_perm
I0704 11:35:25.657871 16904 net.cpp:100] Creating Layer conv12_2_mbox_loc_perm
I0704 11:35:25.657871 16904 net.cpp:434] conv12_2_mbox_loc_perm <- conv12_2_mbox_loc
I0704 11:35:25.657871 16904 net.cpp:408] conv12_2_mbox_loc_perm -> conv12_2_mbox_loc_perm
I0704 11:35:25.658870 16904 net.cpp:150] Setting up conv12_2_mbox_loc_perm
I0704 11:35:25.658870 16904 net.cpp:157] Top shape: 4 1 1 16 (64)
I0704 11:35:25.658870 16904 net.cpp:165] Memory required for data: 2881420064
I0704 11:35:25.658870 16904 layer_factory.hpp:77] Creating layer conv12_2_mbox_loc_flat
I0704 11:35:25.658870 16904 net.cpp:100] Creating Layer conv12_2_mbox_loc_flat
I0704 11:35:25.658870 16904 net.cpp:434] conv12_2_mbox_loc_flat <- conv12_2_mbox_loc_perm
I0704 11:35:25.658870 16904 net.cpp:408] conv12_2_mbox_loc_flat -> conv12_2_mbox_loc_flat
I0704 11:35:25.658870 16904 net.cpp:150] Setting up conv12_2_mbox_loc_flat
I0704 11:35:25.658870 16904 net.cpp:157] Top shape: 4 16 (64)
I0704 11:35:25.658870 16904 net.cpp:165] Memory required for data: 2881420320
I0704 11:35:25.658870 16904 layer_factory.hpp:77] Creating layer conv12_2_mbox_conf
I0704 11:35:25.658870 16904 net.cpp:100] Creating Layer conv12_2_mbox_conf
I0704 11:35:25.658870 16904 net.cpp:434] conv12_2_mbox_conf <- conv12_2_conv12_2_relu_0_split_1
I0704 11:35:25.658870 16904 net.cpp:408] conv12_2_mbox_conf -> conv12_2_mbox_conf
I0704 11:35:25.676821 16904 net.cpp:150] Setting up conv12_2_mbox_conf
I0704 11:35:25.677819 16904 net.cpp:157] Top shape: 4 12 1 1 (48)
I0704 11:35:25.677819 16904 net.cpp:165] Memory required for data: 2881420512
I0704 11:35:25.677819 16904 layer_factory.hpp:77] Creating layer conv12_2_mbox_conf_perm
I0704 11:35:25.677819 16904 net.cpp:100] Creating Layer conv12_2_mbox_conf_perm
I0704 11:35:25.677819 16904 net.cpp:434] conv12_2_mbox_conf_perm <- conv12_2_mbox_conf
I0704 11:35:25.677819 16904 net.cpp:408] conv12_2_mbox_conf_perm -> conv12_2_mbox_conf_perm
I0704 11:35:25.677819 16904 net.cpp:150] Setting up conv12_2_mbox_conf_perm
I0704 11:35:25.677819 16904 net.cpp:157] Top shape: 4 1 1 12 (48)
I0704 11:35:25.677819 16904 net.cpp:165] Memory required for data: 2881420704
I0704 11:35:25.677819 16904 layer_factory.hpp:77] Creating layer conv12_2_mbox_conf_flat
I0704 11:35:25.677819 16904 net.cpp:100] Creating Layer conv12_2_mbox_conf_flat
I0704 11:35:25.677819 16904 net.cpp:434] conv12_2_mbox_conf_flat <- conv12_2_mbox_conf_perm
I0704 11:35:25.677819 16904 net.cpp:408] conv12_2_mbox_conf_flat -> conv12_2_mbox_conf_flat
I0704 11:35:25.677819 16904 net.cpp:150] Setting up conv12_2_mbox_conf_flat
I0704 11:35:25.677819 16904 net.cpp:157] Top shape: 4 12 (48)
I0704 11:35:25.677819 16904 net.cpp:165] Memory required for data: 2881420896
I0704 11:35:25.677819 16904 layer_factory.hpp:77] Creating layer conv12_2_mbox_priorbox
I0704 11:35:25.677819 16904 net.cpp:100] Creating Layer conv12_2_mbox_priorbox
I0704 11:35:25.677819 16904 net.cpp:434] conv12_2_mbox_priorbox <- conv12_2_conv12_2_relu_0_split_2
I0704 11:35:25.677819 16904 net.cpp:434] conv12_2_mbox_priorbox <- data_data_0_split_7
I0704 11:35:25.677819 16904 net.cpp:408] conv12_2_mbox_priorbox -> conv12_2_mbox_priorbox
I0704 11:35:25.677819 16904 net.cpp:150] Setting up conv12_2_mbox_priorbox
I0704 11:35:25.677819 16904 net.cpp:157] Top shape: 1 2 16 (32)
I0704 11:35:25.677819 16904 net.cpp:165] Memory required for data: 2881421024
I0704 11:35:25.677819 16904 layer_factory.hpp:77] Creating layer mbox_loc
I0704 11:35:25.677819 16904 net.cpp:100] Creating Layer mbox_loc
I0704 11:35:25.677819 16904 net.cpp:434] mbox_loc <- conv4_3_norm_mbox_loc_flat
I0704 11:35:25.677819 16904 net.cpp:434] mbox_loc <- fc7_mbox_loc_flat
I0704 11:35:25.677819 16904 net.cpp:434] mbox_loc <- conv8_2_mbox_loc_flat
I0704 11:35:25.677819 16904 net.cpp:434] mbox_loc <- conv9_2_mbox_loc_flat
I0704 11:35:25.678817 16904 net.cpp:434] mbox_loc <- conv10_2_mbox_loc_flat
I0704 11:35:25.678817 16904 net.cpp:434] mbox_loc <- conv11_2_mbox_loc_flat
I0704 11:35:25.678817 16904 net.cpp:434] mbox_loc <- conv12_2_mbox_loc_flat
I0704 11:35:25.678817 16904 net.cpp:408] mbox_loc -> mbox_loc
I0704 11:35:25.678817 16904 net.cpp:150] Setting up mbox_loc
I0704 11:35:25.678817 16904 net.cpp:157] Top shape: 4 98256 (393024)
I0704 11:35:25.678817 16904 net.cpp:165] Memory required for data: 2882993120
I0704 11:35:25.678817 16904 layer_factory.hpp:77] Creating layer mbox_conf
I0704 11:35:25.678817 16904 net.cpp:100] Creating Layer mbox_conf
I0704 11:35:25.678817 16904 net.cpp:434] mbox_conf <- conv4_3_norm_mbox_conf_flat
I0704 11:35:25.678817 16904 net.cpp:434] mbox_conf <- fc7_mbox_conf_flat
I0704 11:35:25.678817 16904 net.cpp:434] mbox_conf <- conv8_2_mbox_conf_flat
I0704 11:35:25.678817 16904 net.cpp:434] mbox_conf <- conv9_2_mbox_conf_flat
I0704 11:35:25.678817 16904 net.cpp:434] mbox_conf <- conv10_2_mbox_conf_flat
I0704 11:35:25.678817 16904 net.cpp:434] mbox_conf <- conv11_2_mbox_conf_flat
I0704 11:35:25.678817 16904 net.cpp:434] mbox_conf <- conv12_2_mbox_conf_flat
I0704 11:35:25.678817 16904 net.cpp:408] mbox_conf -> mbox_conf
I0704 11:35:25.679811 16904 net.cpp:150] Setting up mbox_conf
I0704 11:35:25.679811 16904 net.cpp:157] Top shape: 4 73692 (294768)
I0704 11:35:25.679811 16904 net.cpp:165] Memory required for data: 2884172192
I0704 11:35:25.679811 16904 layer_factory.hpp:77] Creating layer mbox_priorbox
I0704 11:35:25.679811 16904 net.cpp:100] Creating Layer mbox_priorbox
I0704 11:35:25.679811 16904 net.cpp:434] mbox_priorbox <- conv4_3_norm_mbox_priorbox
I0704 11:35:25.679811 16904 net.cpp:434] mbox_priorbox <- fc7_mbox_priorbox
I0704 11:35:25.679811 16904 net.cpp:434] mbox_priorbox <- conv8_2_mbox_priorbox
I0704 11:35:25.679811 16904 net.cpp:434] mbox_priorbox <- conv9_2_mbox_priorbox
I0704 11:35:25.679811 16904 net.cpp:434] mbox_priorbox <- conv10_2_mbox_priorbox
I0704 11:35:25.679811 16904 net.cpp:434] mbox_priorbox <- conv11_2_mbox_priorbox
I0704 11:35:25.679811 16904 net.cpp:434] mbox_priorbox <- conv12_2_mbox_priorbox
I0704 11:35:25.679811 16904 net.cpp:408] mbox_priorbox -> mbox_priorbox
I0704 11:35:25.679811 16904 net.cpp:150] Setting up mbox_priorbox
I0704 11:35:25.679811 16904 net.cpp:157] Top shape: 1 2 98256 (196512)
I0704 11:35:25.679811 16904 net.cpp:165] Memory required for data: 2884958240
I0704 11:35:25.679811 16904 layer_factory.hpp:77] Creating layer mbox_loss
I0704 11:35:25.679811 16904 net.cpp:100] Creating Layer mbox_loss
I0704 11:35:25.679811 16904 net.cpp:434] mbox_loss <- mbox_loc
I0704 11:35:25.679811 16904 net.cpp:434] mbox_loss <- mbox_conf
I0704 11:35:25.680809 16904 net.cpp:434] mbox_loss <- mbox_priorbox
…
  name: "data"
  type: "AnnotatedData"
  top: "data"
  top: "label"
  include {
    phase: TEST
  }
  transform_param {
    mean_value: 104
    mean_value: 117
    mean_value: 123
    force_color: true
    resize_param {
      prob: 1
      resize_mode: WARP
      height: 512
      width: 512
      interp_mode: LINEAR
    }
  }
  data_param {
    source: "examples\\wastedata\\wastedata_test_lmdb"
    batch_size: 2
    backend: LMDB
  }
  annotated_data_param {
    batch_sampler {
    }
    label_map_file: "data\\wastedata\\labelmap_waste.prototxt"
  }
}
layer {
  name: "conv1_1"
  type: "Convolution"
  bottom: "data"
  top: "conv1_1"
  param {
    lr_mult: 1
    decay_mult: 1
  }
  param {
    lr_mult: 1
    decay_mult: 0
  }
  convolution_param {
    num_output: 64
    pad: 1
    kernel_size: 3
    weight_filler {
      type: "xavier"
    }
    bias_filler {
      type: "constant"
      value: 0
    }
  }
}
layer {
  name: "relu1_1"
  type: "ReLU"
  bottom: "conv1_1"
  top: "conv1_1"
}
layer {
  name: "conv1_2"
  type: "Convolution"
  bottom: "conv1_1"
  top: "conv1_2"
  param {
    lr_mult: 1
    decay_mult: 1
  }
  param {
    lr_mult: 1
    decay_mult: 0
  }
  convolution_param {
    num_output: 64
    pad: 1
    kernel_size: 3
    weight_filler {
      type: "xavier"
    }
    bias_filler {
      type: "constant"
      value: 0
    }
  }
}
layer {
  name: "relu1_2"
  type: "ReLU"
  bottom: "conv1_2"
  top: "conv1_2"
}
layer {
  name: "pool1"
  type: "Pooling"
  bottom: "conv1_2"
  top: "pool1"
  pooling_param {
    pool: MAX
    kernel_size: 2
    stride: 2
  }
}
layer {
  name: "conv2_1"
  type: "Convolution"
  bottom: "pool1"
  top: "conv2_1"
  param {
    lr_mult: 1
    decay_mult: 1
  }
  param {
    lr_mult: 1
    decay_mult: 0
  }
  convolution_param {
    num_output: 128
    pad: 1
    kernel_size: 3
    weight_filler {
      type: "xavier"
    }
    bias_filler {
      type: "constant"
      value: 0
    }
  }
}
layer {
  name: "relu2_1"
  type: "ReLU"
  bottom: "conv2_1"
  top: "conv2_1"
}
layer {
  name: "conv2_2"
  type: "Convolution"
  bottom: "conv2_1"
  top: "conv2_2"
  param {
    lr_mult: 1
    decay_mult: 1
  }
  param {
    lr_mult: 1
    decay_mult: 0
  }
  convolution_param {
    num_output: 128
    pad: 1
    kernel_size: 3
    weight_filler {
      type: "xavier"
    }
    bias_filler {
      type: "constant"
      value: 0
    }
  }
}
layer {
  name: "relu2_2"
  type: "ReLU"
  bottom: "conv2_2"
  top: "conv2_2"
}
layer {
  name: "pool2"
  type: "Pooling"
  bottom: "conv2_2"
  top: "pool2"
  pooling_param {
    pool: MAX
    kernel_size: 2
    stride: 2
  }
}
layer {
  name: "conv3_1"
  type: "Convolution"
  bottom: "pool2"
  top: "conv3_1"
  param {
    lr_mult: 1
    decay_mult: 1
  }
  param {
    lr_mult: 1
    decay_mult: 0
  }
  convolution_param {
    num_output: 256
    pad: 1
    kernel_size: 3
    weight_filler {
      type: "xavier"
    }
    bias_filler {
      type: "constant"
      value: 0
    }
  }
}
layer {
  name: "relu3_1"
  type: "ReLU"
  bottom: "conv3_1"
  top: "conv3_1"
}
layer {
  name: "conv3_2"
  type: "Convolution"
  bottom: "conv3_1"
  top: "conv3_2"
  param {
    lr_mult: 1
    decay_mult: 1
  }
  param {
    lr_mult: 1
    decay_mult: 0
  }
  convolution_param {
    num_output: 256
    pad: 1
    kernel_size: 3
    weight_filler {
      type: "xavier"
    }
    bias_filler {
      type: "constant"
      value: 0
    }
  }
}
layer {
  name: "relu3_2"
  type: "ReLU"
  bottom: "conv3_2"
  top: "conv3_2"
}
layer {
  name: "conv3_3"
  type: "Convolution"
  bottom: "conv3_2"
  top: "conv3_3"
  param {
    lr_mult: 1
    decay_mult: 1
  }
  param {
    lr_mult: 1
    decay_mult: 0
  }
  convolution_param {
    num_output: 256
    pad: 1
    kernel_size: 3
    weight_filler {
      type: "xavier"
    }
    bias_filler {
      type: "constant"
      value: 0
    }
  }
}
layer {
  name: "relu3_3"
  type: "ReLU"
  bottom: "conv3_3"
  top: "conv3_3"
}
layer {
  name: "pool3"
  type: "Pooling"
  bottom: "conv3_3"
  top: "pool3"
  pooling_param {
    pool: MAX
    kernel_size: 2
    stride: 2
  }
}
layer {
  name: "conv4_1"
  type: "Convolution"
  bottom: "pool3"
  top: "conv4_1"
  param {
    lr_mult: 1
    decay_mult: 1
  }
  param {
    lr_mult: 1
    decay_mult: 0
  }
  convolution_param {
    num_output: 512
    pad: 1
    kernel_size: 3
    weight_filler {
      type: "xavier"
    }
    bias_filler {
      type: "constant"
      value: 0
    }
  }
}
layer {
  name: "relu4_1"
  type: "ReLU"
  bottom: "conv4_1"
  top: "conv4_1"
}
layer {
  name: "conv4_2"
  type: "Convolution"
  bottom: "conv4_1"
  top: "conv4_2"
  param {
    lr_mult: 1
    decay_mult: 1
  }
  param {
    lr_mult: 1
    decay_mult: 0
  }
  convolution_param {
    num_output: 512
    pad: 1
    kernel_size: 3
    weight_filler {
      type: "xavier"
    }
    bias_filler {
      type: "constant"
      value: 0
    }
  }
}
layer {
  name: "relu4_2"
  type: "ReLU"
  bottom: "conv4_2"
  top: "conv4_2"
}
layer {
  name: "conv4_3"
  type: "Convolution"
  bottom: "conv4_2"
  top: "conv4_3"
  param {
    lr_mult: 1
    decay_mult: 1
  }
  param {
    lr_mult: 1
    decay_mult: 0
  }
  convolution_param {
    num_output: 512
    pad: 1
    kernel_size: 3
    weight_filler {
      type: "xavier"
    }
    bias_filler {
      type: "constant"
      value: 0
    }
  }
}
layer {
  name: "relu4_3"
  type: "ReLU"
  bottom: "conv4_3"
  top: "conv4_3"
}
layer {
  name: "pool4"
  type: "Pooling"
  bottom: "conv4_3"
  top: "pool4"
  pooling_param {
    pool: MAX
    kernel_size: 2
    stride: 2
  }
}
layer {
  name: "conv5_1"
  type: "Convolution"
  bottom: "pool4"
  top: "conv5_1"
  param {
    lr_mult: 1
    decay_mult: 1
  }
  param {
    lr_mult: 1
    decay_mult: 0
  }
  convolution_param {
    num_output: 512
    pad: 1
    kernel_size: 3
    weight_filler {
      type: "xavier"
    }
    bias_filler {
      type: "constant"
      value: 0
    }
    dilation: 1
  }
}
layer {
  name: "relu5_1"
  type: "ReLU"
  bottom: "conv5_1"
  top: "conv5_1"
}
layer {
  name: "conv5_2"
  type: "Convolution"
  bottom: "conv5_1"
  top: "conv5_2"
  param {
    lr_mult: 1
    decay_mult: 1
  }
  param {
    lr_mult: 1
    decay_mult: 0
  }
  convolution_param {
    num_output: 512
    pad: 1
    kernel_size: 3
    weight_filler {
      type: "xavier"
    }
    bias_filler {
      type: "constant"
      value: 0
    }
    dilation: 1
  }
}
layer {
  name: "relu5_2"
  type: "ReLU"
  bottom: "conv5_2"
  top: "conv5_2"
}
layer {
  name: "conv5_3"
  type: "Convolution"
  bottom: "conv5_2"
  top: "conv5_3"
  param {
    lr_mult: 1
    decay_mult: 1
  }
  param {
    lr_mult: 1
    decay_mult: 0
  }
  convolution_param {
    num_output: 512
    pad: 1
    kernel_size: 3
    weight_filler {
      type: "xavier"
    }
    bias_filler {
      type: "constant"
      value: 0
    }
    dilation: 1
  }
}
layer {
  name: "relu5_3"
  type: "ReLU"
  bottom: "conv5_3"
  top: "conv5_3"
}
layer {
  name: "pool5"
  type: "Pooling"
  bottom: "conv5_3"
  top: "pool5"
  pooling_param {
    pool: MAX
    kernel_size: 3
    stride: 1
    pad: 1
  }
}
layer {
  name: "fc6"
  type: "Convolution"
  bottom: "pool5"
  top: "fc6"
  param {
    lr_mult: 1
    decay_mult: 1
  }
  param {
    lr_mult: 1
    decay_mult: 0
  }
  convolution_param {
    num_output: 1024
    pad: 6
    kernel_size: 3
    weight_filler {
      type: "xavier"
    }
    bias_filler {
      type: "constant"
      value: 0
    }
    dilation: 6
  }
}
layer {
  name: "relu6"
  type: "ReLU"
  bottom: "fc6"
  top: "fc6"
}
layer {
  name: "fc7"
  type: "Convolution"
  bottom: "fc6"
  top: "fc7"
  param {
    lr_mult: 1
    decay_mult: 1
  }
  param {
    lr_mult: 1
    decay_mult: 0
  }
  convolution_param {
    num_output: 1024
    kernel_size: 1
    weight_filler {
      type: "xavier"
    }
    bias_filler {
      type: "constant"
      value: 0
    }
  }
}
layer {
  name: "relu7"
  type: "ReLU"
  bottom: "fc7"
  top: "fc7"
}
layer {
  name: "conv8_1"
  type: "Convolution"
  bottom: "fc7"
  top: "conv8_1"
  param {
    lr_mult: 1
    decay_mult: 1
  }
  param {
    lr_mult: 2
    decay_mult: 0
  }
  convolution_param {
    num_output: 256
    pad: 0
    kernel_size: 1
    stride: 1
    weight_filler {
      type: "xavier"
    }
    bias_filler {
      type: "constant"
      value: 0
    }
  }
}
layer {
  name: "conv8_1_relu"
  type: "ReLU"
  bottom: "conv8_1"
  top: "conv8_1"
}
layer {
  name: "conv8_2"
  type: "Convolution"
  bottom: "conv8_1"
  top: "conv8_2"
  param {
    lr_mult: 1
    decay_mult: 1
  }
  param {
    lr_mult: 2
    decay_mult: 0
  }
  convolution_param {
    num_output: 512
    pad: 1
    kernel_size: 3
    stride: 2
    weight_filler {
      type: "xavier"
    }
    bias_filler {
      type: "constant"
      value: 0
    }
  }
}
layer {
  name: "conv8_2_relu"
  type: "ReLU"
  bottom: "conv8_2"
  top: "conv8_2"
}
layer {
  name: "conv9_1"
  type: "Convolution"
  bottom: "conv8_2"
  top: "conv9_1"
  param {
    lr_mult: 1
    decay_mult: 1
  }
  param {
    lr_mult: 2
    decay_mult: 0
  }
  convolution_param {
    num_output: 128
    pad: 0
    kernel_size: 1
    stride: 1
    weight_filler {
      type: "xavier"
    }
    bias_filler {
      type: "constant"
      value: 0
    }
  }
}
layer {
  name: "conv9_1_relu"
  type: "ReLU"
  bottom: "conv9_1"
  top: "conv9_1"
}
layer {
  name: "conv9_2"
  type: "Convolution"
  bottom: "conv9_1"
  top: "conv9_2"
  param {
    lr_mult: 1
    decay_mult: 1
  }
  param {
    lr_mult: 2
    decay_mult: 0
  }
  convolution_param {
    num_output: 256
    pad: 1
    kernel_size: 3
    stride: 2
    weight_filler {
      type: "xavier"
    }
    bias_filler {
      type: "constant"
      value: 0
    }
  }
}
layer {
  name: "conv9_2_relu"
  type: "ReLU"
  bottom: "conv9_2"
  top: "conv9_2"
}
layer {
  name: "conv10_1"
  type: "Convolution"
  bottom: "conv9_2"
  top: "conv10_1"
  param {
    lr_mult: 1
    decay_mult: 1
  }
  param {
    lr_mult: 2
    decay_mult: 0
  }
  convolution_param {
    num_output: 128
    pad: 0
    kernel_size: 1
    stride: 1
    weight_filler {
      type: "xavier"
    }
    bias_filler {
      type: "constant"
      value: 0
    }
  }
}
layer {
  name: "conv10_1_relu"
  type: "ReLU"
  bottom: "conv10_1"
  top: "conv10_1"
}
layer {
  name: "conv10_2"
  type: "Convolution"
  bottom: "conv10_1"
  top: "conv10_2"
  param {
    lr_mult: 1
    decay_mult: 1
  }
  param {
    lr_mult: 2
    decay_mult: 0
  }
  convolution_param {
    num_output: 256
    pad: 1
    kernel_size: 3
    stride: 2
    weight_filler {
      type: "xavier"
    }
    bias_filler {
      type: "constant"
      value: 0
    }
  }
}
layer {
  name: "conv10_2_relu"
  type: "ReLU"
  bottom: "conv10_2"
  top: "conv10_2"
}
layer {
  name: "conv11_1"
  type: "Convolution"
  bottom: "conv10_2"
  top: "conv11_1"
  param {
    lr_mult: 1
    decay_mult: 1
  }
  param {
    lr_mult: 2
    decay_mult: 0
  }
  convolution_param {
    num_output: 128
    pad: 0
    kernel_size: 1
    stride: 1
    weight_filler {
      type: "xavier"
    }
    bias_filler {
      type: "constant"
      value: 0
    }
  }
}
layer {
  name: "conv11_1_relu"
  type: "ReLU"
  bottom: "conv11_1"
  top: "conv11_1"
}
layer {
  name: "conv11_2"
  type: "Convolution"
  bottom: "conv11_1"
  top: "conv11_2"
  param {
    lr_mult: 1
    decay_mult: 1
  }
  param {
    lr_mult: 2
    decay_mult: 0
  }
  convolution_param {
    num_output: 256
    pad: 1
    kernel_size: 3
    stride: 2
    weight_filler {
      type: "xavier"
    }
    bias_filler {
      type: "constant"
      value: 0
    }
  }
}
layer {
  name: "conv11_2_relu"
  type: "ReLU"
  bottom: "conv11_2"
  top: "conv11_2"
}
layer {
  name: "conv12_1"
  type: "Convolution"
  bottom: "conv11_2"
  top: "conv12_1"
  param {
    lr_mult: 1
    decay_mult: 1
  }
  param {
    lr_mult: 2
    decay_mult: 0
  }
  convolution_param {
    num_output: 128
    pad: 0
    kernel_size: 1
    stride: 1
    weight_filler {
      type: "xavier"
    }
    bias_filler {
      type: "constant"
      value: 0
    }
  }
}
layer {
  name: "conv12_1_relu"
  type: "ReLU"
  bottom: "conv12_1"
  top: "conv12_1"
}
layer {
  name: "conv12_2"
  type: "Convolution"
  bottom: "conv12_1"
  top: "conv12_2"
  param {
    lr_mult: 1
    decay_mult: 1
  }
  param {
    lr_mult: 2
    decay_mult: 0
  }
  convolution_param {
    num_output: 256
    pad: 1
    kernel_size: 4
    stride: 1
    weight_filler {
      type: "xavier"
    }
    bias_filler {
      type: "constant"
      value: 0
    }
  }
}
layer {
  name: "conv12_2_relu"
  type: "ReLU"
  bottom: "conv12_2"
  top: "conv12_2"
}
layer {
  name: "conv4_3_norm"
  type: "Normalize"
  bottom: "conv4_3"
  top: "conv4_3_norm"
  norm_param {
    across_spatial: false
    scale_filler {
      type: "constant"
      value: 20
    }
    channel_shared: false
  }
}
layer {
  name: "conv4_3_norm_mbox_loc"
  type: "Convolution"
  bottom: "conv4_3_norm"
  top: "conv4_3_norm_mbox_loc"
  param {
    lr_mult: 1
    decay_mult: 1
  }
  param {
    lr_mult: 2
    decay_mult: 0
  }
  convolution_param {
    num_output: 16
    pad: 1
    kernel_size: 3
    stride: 1
    weight_filler {
      type: "xavier"
    }
    bias_filler {
      type: "constant"
      value: 0
    }
  }
}
layer {
  name: "conv4_3_norm_mbox_loc_perm"
  type: "Permute"
  bottom: "conv4_3_norm_mbox_loc"
  top: "conv4_3_norm_mbox_loc_perm"
  permute_param {
    order: 0
    order: 2
    order: 3
    order: 1
  }
}
layer {
  name: "conv4_3_norm_mbox_loc_flat"
  type: "Flatten"
  bottom: "conv4_3_norm_mbox_loc_perm"
  top: "conv4_3_norm_mbox_loc_flat"
  flatten_param {
    axis: 1
  }
}
layer {
  name: "conv4_3_norm_mbox_conf"
  type: "Convolution"
  bottom: "conv4_3_norm"
  top: "conv4_3_norm_mbox_conf"
  param {
    lr_mult: 1
    decay_mult: 1
  }
  param {
    lr_mult: 2
    decay_mult: 0
  }
  convolution_param {
    num_output: 12
    pad: 1
    kernel_size: 3
    stride: 1
    weight_filler {
      type: "xavier"
    }
    bias_filler {
      type: "constant"
      value: 0
    }
  }
}
layer {
  name: "conv4_3_norm_mbox_conf_perm"
  type: "Permute"
  bottom: "conv4_3_norm_mbox_conf"
  top: "conv4_3_norm_mbox_conf_perm"
  permute_param {
    order: 0
    order: 2
    order: 3
    order: 1
  }
}
layer {
  name: "conv4_3_norm_mbox_conf_flat"
  type: "Flatten"
  bottom: "conv4_3_norm_mbox_conf_perm"
  top: "conv4_3_norm_mbox_conf_flat"
  flatten_param {
    axis: 1
  }
}
layer {
  name: "conv4_3_norm_mbox_priorbox"
  type: "PriorBox"
  bottom: "conv4_3_norm"
  bottom: "data"
  top: "conv4_3_norm_mbox_priorbox"
  prior_box_param {
    min_size: 35.84
    max_size: 76.8
    aspect_ratio: 2
    flip: true
    clip: false
    variance: 0.1
    variance: 0.1
    variance: 0.2
    variance: 0.2
    step: 8
    offset: 0.5
  }
}
layer {
  name: "fc7_mbox_loc"
  type: "Convolution"
  bottom: "fc7"
  top: "fc7_mbox_loc"
  param {
    lr_mult: 1
    decay_mult: 1
  }
  param {
    lr_mult: 2
    decay_mult: 0
  }
  convolution_param {
    num_output: 24
    pad: 1
    kernel_size: 3
    stride: 1
    weight_filler {
      type: "xavier"
    }
    bias_filler {
      type: "constant"
      value: 0
    }
  }
}
layer {
  name: "fc7_mbox_loc_perm"
  type: "Permute"
  bottom: "fc7_mbox_loc"
  top: "fc7_mbox_loc_perm"
  permute_param {
    order: 0
    order: 2
    order: 3
    order: 1
  }
}
layer {
  name: "fc7_mbox_loc_flat"
  type: "Flatten"
  bottom: "fc7_mbox_loc_perm"
  top: "fc7_mbox_loc_flat"
  flatten_param {
    axis: 1
  }
}
layer {
  name: "fc7_mbox_conf"
  type: "Convolution"
  bottom: "fc7"
  top: "fc7_mbox_conf"
  param {
    lr_mult: 1
    decay_mult: 1
  }
  param {
    lr_mult: 2
    decay_mult: 0
  }
  convolution_param {
    num_output: 18
    pad: 1
    kernel_size: 3
    stride: 1
    weight_filler {
      type: "xavier"
    }
    bias_filler {
      type: "constant"
      value: 0
    }
  }
}
layer {
  name: "fc7_mbox_conf_perm"
  type: "Permute"
  bottom: "fc7_mbox_conf"
  top: "fc7_mbox_conf_perm"
  permute_param {
    order: 0
    order: 2
    order: 3
    order: 1
  }
}
layer {
  name: "fc7_mbox_conf_flat"
  type: "Flatten"
  bottom: "fc7_mbox_conf_perm"
  top: "fc7_mbox_conf_flat"
  flatten_param {
    axis: 1
  }
}
layer {
  name: "fc7_mbox_priorbox"
  type: "PriorBox"
  bottom: "fc7"
  bottom: "data"
  top: "fc7_mbox_priorbox"
  prior_box_param {
    min_size: 76.8
    max_size: 153.6
    aspect_ratio: 2
    aspect_ratio: 3
    flip: true
    clip: false
    variance: 0.1
    variance: 0.1
    variance: 0.2
    variance: 0.2
    step: 16
    offset: 0.5
  }
}
layer {
  name: "conv8_2_mbox_loc"
  type: "Convolution"
  bottom: "conv8_2"
  top: "conv8_2_mbox_loc"
  param {
    lr_mult: 1
    decay_mult: 1
  }
  param {
    lr_mult: 2
    decay_mult: 0
  }
  convolution_param {
    num_output: 24
    pad: 1
    kernel_size: 3
    stride: 1
    weight_filler {
      type: "xavier"
    }
    bias_filler {
      type: "constant"
      value: 0
    }
  }
}
layer {
  name: "conv8_2_mbox_loc_perm"
  type: "Permute"
  bottom: "conv8_2_mbox_loc"
  top: "conv8_2_mbox_loc_perm"
  permute_param {
    order: 0
    order: 2
    order: 3
    order: 1
  }
}
layer {
  name: "conv8_2_mbox_loc_flat"
  type: "Flatten"
  bottom: "conv8_2_mbox_loc_perm"
  top: "conv8_2_mbox_loc_flat"
  flatten_param {
    axis: 1
  }
}
layer {
  name: "conv8_2_mbox_conf"
  type: "Convolution"
  bottom: "conv8_2"
  top: "conv8_2_mbox_conf"
  param {
    lr_mult: 1
    decay_mult: 1
  }
  param {
    lr_mult: 2
    decay_mult: 0
  }
  convolution_param {
    num_output: 18
    pad: 1
    kernel_size: 3
    stride: 1
    weight_filler {
      type: "xavier"
    }
    bias_filler {
      type: "constant"
      value: 0
    }
  }
}
layer {
  name: "conv8_2_mbox_conf_perm"
  type: "Permute"
  bottom: "conv8_2_mbox_conf"
  top: "conv8_2_mbox_conf_perm"
  permute_param {
    order: 0
    order: 2
    order: 3
    order: 1
  }
}
layer {
  name: "conv8_2_mbox_conf_flat"
  type: "Flatten"
  bottom: "conv8_2_mbox_conf_perm"
  top: "conv8_2_mbox_conf_flat"
  flatten_param {
    axis: 1
  }
}
layer {
  name: "conv8_2_mbox_priorbox"
  type: "PriorBox"
  bottom: "conv8_2"
  bottom: "data"
  top: "conv8_2_mbox_priorbox"
  prior_box_param {
    min_size: 153.6
    max_size: 230.4
    aspect_ratio: 2
    aspect_ratio: 3
    flip: true
    clip: false
    variance: 0.1
    variance: 0.1
    variance: 0.2
    variance: 0.2
    step: 32
    offset: 0.5
  }
}
layer {
  name: "conv9_2_mbox_loc"
  type: "Convolution"
  bottom: "conv9_2"
  top: "conv9_2_mbox_loc"
  param {
    lr_mult: 1
    decay_mult: 1
  }
  param {
    lr_mult: 2
    decay_mult: 0
  }
  convolution_param {
    num_output: 24
    pad: 1
    kernel_size: 3
    stride: 1
    weight_filler {
      type: "xavier"
    }
    bias_filler {
      type: "constant"
      value: 0
    }
  }
}
layer {
  name: "conv9_2_mbox_loc_perm"
  type: "Permute"
  bottom: "conv9_2_mbox_loc"
  top: "conv9_2_mbox_loc_perm"
  permute_param {
    order: 0
    order: 2
    order: 3
    order: 1
  }
}
layer {
  name: "conv9_2_mbox_loc_flat"
  type: "Flatten"
  bottom: "conv9_2_mbox_loc_perm"
  top: "conv9_2_mbox_loc_flat"
  flatten_param {
    axis: 1
  }
}
layer {
  name: "conv9_2_mbox_conf"
  type: "Convolution"
  bottom: "conv9_2"
  top: "conv9_2_mbox_conf"
  param {
    lr_mult: 1
    decay_mult: 1
  }
  param {
    lr_mult: 2
    decay_mult: 0
  }
  convolution_param {
    num_output: 18
    pad: 1
    kernel_size: 3
    stride: 1
    weight_filler {
      type: "xavier"
    }
    bias_filler {
      type: "constant"
      value: 0
    }
  }
}
layer {
  name: "conv9_2_mbox_conf_perm"
  type: "Permute"
  bottom: "conv9_2_mbox_conf"
  top: "conv9_2_mbox_conf_perm"
  permute_param {
    order: 0
    order: 2
    order: 3
    order: 1
  }
}
layer {
  name: "conv9_2_mbox_conf_flat"
  type: "Flatten"
  bottom: "conv9_2_mbox_conf_perm"
  top: "conv9_2_mbox_conf_flat"
  flatten_param {
    axis: 1
  }
}
layer {
  name: "conv9_2_mbox_priorbox"
  type: "PriorBox"
  bottom: "conv9_2"
  bottom: "data"
  top: "conv9_2_mbox_priorbox"
  prior_box_param {
    min_size: 230.4
    max_size: 307.2
    aspect_ratio: 2
    aspect_ratio: 3
    flip: true
    clip: false
    variance: 0.1
    variance: 0.1
    variance: 0.2
    variance: 0.2
    step: 64
    offset: 0.5
  }
}
layer {
  name: "conv10_2_mbox_loc"
  type: "Convolution"
  bottom: "conv10_2"
  top: "conv10_2_mbox_loc"
  param {
    lr_mult: 1
    decay_mult: 1
  }
  param {
    lr_mult: 2
    decay_mult: 0
  }
  convolution_param {
    num_output: 24
    pad: 1
    kernel_size: 3
    stride: 1
    weight_filler {
      type: "xavier"
    }
    bias_filler {
      type: "constant"
      value: 0
    }
  }
}
layer {
  name: "conv10_2_mbox_loc_perm"
  type: "Permute"
  bottom: "conv10_2_mbox_loc"
  top: "conv10_2_mbox_loc_perm"
  permute_param {
    order: 0
    order: 2
    order: 3
    order: 1
  }
}
layer {
  name: "conv10_2_mbox_loc_flat"
  type: "Flatten"
  bottom: "conv10_2_mbox_loc_perm"
  top: "conv10_2_mbox_loc_flat"
  flatten_param {
    axis: 1
  }
}
layer {
  name: "conv10_2_mbox_conf"
  type: "Convolution"
  bottom: "conv10_2"
  top: "conv10_2_mbox_conf"
  param {
    lr_mult: 1
    decay_mult: 1
  }
  param {
    lr_mult: 2
    decay_mult: 0
  }
  convolution_param {
    num_output: 18
    pad: 1
    kernel_size: 3
    stride: 1
    weight_filler {
      type: "xavier"
    }
    bias_filler {
      type: "constant"
      value: 0
    }
  }
}
layer {
  name: "conv10_2_mbox_conf_perm"
  type: "Permute"
  bottom: "conv10_2_mbox_conf"
  top: "conv10_2_mbox_conf_perm"
  permute_param {
    order: 0
    order: 2
    order: 3
    order: 1
  }
}
layer {
  name: "conv10_2_mbox_conf_flat"
  type: "Flatten"
  bottom: "conv10_2_mbox_conf_perm"
  top: "conv10_2_mbox_conf_flat"
  flatten_param {
    axis: 1
  }
}
layer {
  name: "conv10_2_mbox_priorbox"
  type: "PriorBox"
  bottom: "conv10_2"
  bottom: "data"
  top: "conv10_2_mbox_priorbox"
  prior_box_param {
    min_size: 307.2
    max_size: 384
    aspect_ratio: 2
    aspect_ratio: 3
    flip: true
    clip: false
    variance: 0.1
    variance: 0.1
    variance: 0.2
    variance: 0.2
    step: 128
    offset: 0.5
  }
}
layer {
  name: "conv11_2_mbox_loc"
  type: "Convolution"
  bottom: "conv11_2"
  top: "conv11_2_mbox_loc"
  param {
    lr_mult: 1
    decay_mult: 1
  }
  param {
    lr_mult: 2
    decay_mult: 0
  }
  convolution_param {
    num_output: 16
    pad: 1
    kernel_size: 3
    stride: 1
    weight_filler {
      type: "xavier"
    }
    bias_filler {
      type: "constant"
      value: 0
    }
  }
}
layer {
  name: "conv11_2_mbox_loc_perm"
  type: "Permute"
  bottom: "conv11_2_mbox_loc"
  top: "conv11_2_mbox_loc_perm"
  permute_param {
    order: 0
    order: 2
    order: 3
    order: 1
  }
}
layer {
  name: "conv11_2_mbox_loc_flat"
  type: "Flatten"
  bottom: "conv11_2_mbox_loc_perm"
  top: "conv11_2_mbox_loc_flat"
  flatten_param {
    axis: 1
  }
}
layer {
  name: "conv11_2_mbox_conf"
  type: "Convolution"
  bottom: "conv11_2"
  top: "conv11_2_mbox_conf"
  param {
    lr_mult: 1
    decay_mult: 1
  }
  param {
    lr_mult: 2
    decay_mult: 0
  }
  convolution_param {
    num_output: 12
    pad: 1
    kernel_size: 3
    stride: 1
    weight_filler {
      type: "xavier"
    }
    bias_filler {
      type: "constant"
      value: 0
    }
  }
}
layer {
  name: "conv11_2_mbox_conf_perm"
  type: "Permute"
  bottom: "conv11_2_mbox_conf"
  top: "conv11_2_mbox_conf_perm"
  permute_param {
    order: 0
    order: 2
    order: 3
    order: 1
  }
}
layer {
  name: "conv11_2_mbox_conf_flat"
  type: "Flatten"
  bottom: "conv11_2_mbox_conf_perm"
  top: "conv11_2_mbox_conf_flat"
  flatten_param {
    axis: 1
  }
}
layer {
  name: "conv11_2_mbox_priorbox"
  type: "PriorBox"
  bottom: "conv11_2"
  bottom: "data"
  top: "conv11_2_mbox_priorbox"
  prior_box_param {
    min_size: 384
    max_size: 460.8
    aspect_ratio: 2
    flip: true
    clip: false
    variance: 0.1
    variance: 0.1
    variance: 0.2
    variance: 0.2
    step: 256
    offset: 0.5
  }
}
layer {
  name: "conv12_2_mbox_loc"
  type: "Convolution"
  bottom: "conv12_2"
  top: "conv12_2_mbox_loc"
  param {
    lr_mult: 1
    decay_mult: 1
  }
  param {
    lr_mult: 2
    decay_mult: 0
  }
  convolution_param {
    num_output: 16
    pad: 1
    kernel_size: 3
    stride: 1
    weight_filler {
      type: "xavier"
    }
    bias_filler {
      type: "constant"
      value: 0
    }
  }
}
layer {
  name: "conv12_2_mbox_loc_perm"
  type: "Permute"
  bottom: "conv12_2_mbox_loc"
  top: "conv12_2_mbox_loc_perm"
  permute_param {
    order: 0
    order: 2
    order: 3
    order: 1
  }
}
layer {
  name: "conv12_2_mbox_loc_flat"
  type: "Flatten"
  bottom: "conv12_2_mbox_loc_perm"
  top: "conv12_2_mbox_loc_flat"
  flatten_param {
    axis: 1
  }
}
layer {
  name: "conv12_2_mbox_conf"
  type: "Convolution"
  bottom: "conv12_2"
  top: "conv12_2_mbox_conf"
  param {
    lr_mult: 1
    decay_mult: 1
  }
  param {
    lr_mult: 2
    decay_mult: 0
  }
  convolution_param {
    num_output: 12
    pad: 1
    kernel_size: 3
    stride: 1
    weight_filler {
      type: "xavier"
    }
    bias_filler {
      type: "constant"
      value: 0
    }
  }
}
layer {
  name: "conv12_2_mbox_conf_perm"
  type: "Permute"
  bottom: "conv12_2_mbox_conf"
  top: "conv12_2_mbox_conf_perm"
  permute_param {
    order: 0
    order: 2
    order: 3
    order: 1
  }
}
layer {
  name: "conv12_2_mbox_conf_flat"
  type: "Flatten"
  bottom: "conv12_2_mbox_conf_perm"
  top: "conv12_2_mbox_conf_flat"
  flatten_param {
    axis: 1
  }
}
layer {
  name: "conv12_2_mbox_priorbox"
  type: "PriorBox"
  bottom: "conv12_2"
  bottom: "data"
  top: "conv12_2_mbox_priorbox"
  prior_box_param {
    min_size: 460.8
    max_size: 537.6
    aspect_ratio: 2
    flip: true
    clip: false
    variance: 0.1
    variance: 0.1
    variance: 0.2
    variance: 0.2
    step: 512
    offset: 0.5
  }
}
layer {
  name: "mbox_loc"
  type: "Concat"
  bottom: "conv4_3_norm_mbox_loc_flat"
  bottom: "fc7_mbox_loc_flat"
  bottom: "conv8_2_mbox_loc_flat"
  bottom: "conv9_2_mbox_loc_flat"
  bottom: "conv10_2_mbox_loc_flat"
  bottom: "conv11_2_mbox_loc_flat"
  bottom: "conv12_2_mbox_loc_flat"
  top: "mbox_loc"
  concat_param {
    axis: 1
  }
}
layer {
  name: "mbox_conf"
  type: "Concat"
  bottom: "conv4_3_norm_mbox_conf_flat"
  bottom: "fc7_mbox_conf_flat"
  bottom: "conv8_2_mbox_conf_flat"
  bottom: "conv9_2_mbox_conf_flat"
  bottom: "conv10_2_mbox_conf_flat"
  bottom: "conv11_2_mbox_conf_flat"
  bottom: "conv12_2_mbox_conf_flat"
  top: "mbox_conf"
  concat_param {
    axis: 1
  }
}
layer {
  name: "mbox_priorbox"
  type: "Concat"
  bottom: "conv4_3_norm_mbox_priorbox"
  bottom: "fc7_mbox_priorbox"
  bottom: "conv8_2_mbox_priorbox"
  bottom: "conv9_2_mbox_priorbox"
  bottom: "conv10_2_mbox_priorbox"
  bottom: "conv11_2_mbox_priorbox"
  bottom: "conv12_2_mbox_priorbox"
  top: "mbox_priorbox"
  concat_param {
    axis: 2
  }
}
layer {
  name: "mbox_conf_reshape"
  type: "Reshape"
  bottom: "mbox_conf"
  top: "mbox_conf_reshape"
  reshape_param {
    shape {
      dim: 0
      dim: -1
      dim: 3
    }
  }
}
layer {
  name: "mbox_conf_softmax"
  type: "Softmax"
  bottom: "mbox_conf_reshape"
  top: "mbox_conf_softmax"
  softmax_param {
    axis: 2
  }
}
layer {
  name: "mbox_conf_flatten"
  type: "Flatten"
  bottom: "mbox_conf_softmax"
  top: "mbox_conf_flatten"
  flatten_param {
    axis: 1
  }
}
layer {
  name: "detection_out"
  type: "DetectionOutput"
  bottom: "mbox_loc"
  bottom: "mbox_conf_flatten"
  bottom: "mbox_priorbox"
  top: "detection_out"
  include {
    phase: TEST
  }
  detection_output_param {
    num_classes: 3
    share_location: true
    background_label_id: 0
    nms_param {
      nms_threshold: 0.45
      top_k: 400
    }
    save_output_param {
      output_directory: "data\\wastedata\\results\\SSD_512x512\\Main"
      output_name_prefix: "comp4_det_test_"
      output_format: "VOC"
      label_map_file: "data\\wastedata\\labelmap_waste.prototxt"
      name_size_file: "data\\wastedata\\test_name_size.txt"
      num_test_image: 1000
    }
    code_type: CENTER_SIZE
    keep_top_k: 200
    confidence_threshold: 0.01
  }
}
layer {
  name: "detection_eval"
  type: "DetectionEvaluate"
  bottom: "detection_out"
  bottom: "label"
  top: "detection_eval"
  include {
    phase: TEST
  }
  detection_evaluate_param {
    num_classes: 3
    background_label_id: 0
    overlap_threshold: 0.5
    evaluate_difficult_gt: false
    name_size_file: "data\\wastedata\\test_name_size.txt"
  }
}
I0704 11:35:25.733667 16904 layer_factory.hpp:77] Creating layer data
I0704 11:35:25.733667 16904 net.cpp:100] Creating Layer data
I0704 11:35:25.733667 16904 net.cpp:408] data -> data
I0704 11:35:25.733667 16904 net.cpp:408] data -> label
I0704 11:35:25.739651 13584 common.cpp:36] System entropy source not available, using fallback algorithm to generate seed instead.
I0704 11:35:25.740648 13584 db_lmdb.cpp:40] Opened lmdb examples\wastedata\wastedata_test_lmdb
I0704 11:35:25.759598 16904 annotated_data_layer.cpp:62] output data size: 2,3,512,512
I0704 11:35:25.773561 16904 net.cpp:150] Setting up data
I0704 11:35:25.773561 16904 net.cpp:157] Top shape: 2 3 512 512 (1572864)
I0704 11:35:25.773561 16904 net.cpp:157] Top shape: 1 1 3 8 (24)
I0704 11:35:25.773561 16904 net.cpp:165] Memory required for data: 6291552
I0704 11:35:25.773561 16904 layer_factory.hpp:77] Creating layer data_data_0_split
I0704 11:35:25.773561 16904 net.cpp:100] Creating Layer data_data_0_split
I0704 11:35:25.773561 16904 net.cpp:434] data_data_0_split <- data
I0704 11:35:25.773561 16904 net.cpp:408] data_data_0_split -> data_data_0_split_0
I0704 11:35:25.773561 16904 net.cpp:408] data_data_0_split -> data_data_0_split_1
I0704 11:35:25.773561 16904 net.cpp:408] data_data_0_split -> data_data_0_split_2
I0704 11:35:25.773561 16904 net.cpp:408] data_data_0_split -> data_data_0_split_3
I0704 11:35:25.773561 16904 net.cpp:408] data_data_0_split -> data_data_0_split_4
I0704 11:35:25.773561 16904 net.cpp:408] data_data_0_split -> data_data_0_split_5
I0704 11:35:25.773561 16904 net.cpp:408] data_data_0_split -> data_data_0_split_6
I0704 11:35:25.773561 16904 net.cpp:408] data_data_0_split -> data_data_0_split_7
I0704 11:35:25.773561 16904 net.cpp:150] Setting up data_data_0_split
I0704 11:35:25.773561 16904 net.cpp:157] Top shape: 2 3 512 512 (1572864)
I0704 11:35:25.773561 16904 net.cpp:157] Top shape: 2 3 512 512 (1572864)
I0704 11:35:25.773561 16904 net.cpp:157] Top shape: 2 3 512 512 (1572864)
I0704 11:35:25.773561 16904 net.cpp:157] Top shape: 2 3 512 512 (1572864)
I0704 11:35:25.773561 16904 net.cpp:157] Top shape: 2 3 512 512 (1572864)
I0704 11:35:25.773561 16904 net.cpp:157] Top shape: 2 3 512 512 (1572864)
I0704 11:35:25.773561 16904 net.cpp:157] Top shape: 2 3 512 512 (1572864)
I0704 11:35:25.773561 16904 net.cpp:157] Top shape: 2 3 512 512 (1572864)
I0704 11:35:25.773561 16904 net.cpp:165] Memory required for data: 56623200
I0704 11:35:25.773561 16904 layer_factory.hpp:77] Creating layer conv1_1
I0704 11:35:25.774559 16904 net.cpp:100] Creating Layer conv1_1
I0704 11:35:25.774559 16904 net.cpp:434] conv1_1 <- data_data_0_split_0
I0704 11:35:25.774559 16904 net.cpp:408] conv1_1 -> conv1_1
I0704 11:35:25.776553 16764 common.cpp:36] System entropy source not available, using fallback algorithm to generate seed instead.
I0704 11:35:25.777550 16904 net.cpp:150] Setting up conv1_1
I0704 11:35:25.777550 16904 net.cpp:157] Top shape: 2 64 512 512 (33554432)
I0704 11:35:25.777550 16904 net.cpp:165] Memory required for data: 190840928
I0704 11:35:25.777550 16904 layer_factory.hpp:77] Creating layer relu1_1
I0704 11:35:25.777550 16904 net.cpp:100] Creating Layer relu1_1
I0704 11:35:25.778548 16904 net.cpp:434] relu1_1 <- conv1_1
I0704 11:35:25.778548 16904 net.cpp:395] relu1_1 -> conv1_1 (in-place)
I0704 11:35:25.778548 16904 net.cpp:150] Setting up relu1_1
I0704 11:35:25.778548 16904 net.cpp:157] Top shape: 2 64 512 512 (33554432)
I0704 11:35:25.778548 16904 net.cpp:165] Memory required for data: 325058656
I0704 11:35:25.778548 16904 layer_factory.hpp:77] Creating layer conv1_2
I0704 11:35:25.778548 16904 net.cpp:100] Creating Layer conv1_2
I0704 11:35:25.778548 16904 net.cpp:434] conv1_2 <- conv1_1
I0704 11:35:25.778548 16904 net.cpp:408] conv1_2 -> conv1_2
I0704 11:35:25.783535 16904 net.cpp:150] Setting up conv1_2
I0704 11:35:25.783535 16904 net.cpp:157] Top shape: 2 64 512 512 (33554432)
I0704 11:35:25.783535 16904 net.cpp:165] Memory required for data: 459276384
I0704 11:35:25.783535 16904 layer_factory.hpp:77] Creating layer relu1_2
I0704 11:35:25.783535 16904 net.cpp:100] Creating Layer relu1_2
I0704 11:35:25.783535 16904 net.cpp:434] relu1_2 <- conv1_2
I0704 11:35:25.783535 16904 net.cpp:395] relu1_2 -> conv1_2 (in-place)
I0704 11:35:25.784531 16904 net.cpp:150] Setting up relu1_2
I0704 11:35:25.784531 16904 net.cpp:157] Top shape: 2 64 512 512 (33554432)
I0704 11:35:25.784531 16904 net.cpp:165] Memory required for data: 593494112
I0704 11:35:25.784531 16904 layer_factory.hpp:77] Creating layer pool1
I0704 11:35:25.784531 16904 net.cpp:100] Creating Layer pool1
I0704 11:35:25.784531 16904 net.cpp:434] pool1 <- conv1_2
I0704 11:35:25.784531 16904 net.cpp:408] pool1 -> pool1
I0704 11:35:25.784531 16904 net.cpp:150] Setting up pool1
I0704 11:35:25.784531 16904 net.cpp:157] Top shape: 2 64 256 256 (8388608)
I0704 11:35:25.784531 16904 net.cpp:165] Memory required for data: 627048544
I0704 11:35:25.784531 16904 layer_factory.hpp:77] Creating layer conv2_1
I0704 11:35:25.784531 16904 net.cpp:100] Creating Layer conv2_1
I0704 11:35:25.784531 16904 net.cpp:434] conv2_1 <- pool1
I0704 11:35:25.784531 16904 net.cpp:408] conv2_1 -> conv2_1
I0704 11:35:25.790515 16904 net.cpp:150] Setting up conv2_1
I0704 11:35:25.790515 16904 net.cpp:157] Top shape: 2 128 256 256 (16777216)
I0704 11:35:25.790515 16904 net.cpp:165] Memory required for data: 694157408
I0704 11:35:25.790515 16904 layer_factory.hpp:77] Creating layer relu2_1
I0704 11:35:25.790515 16904 net.cpp:100] Creating Layer relu2_1
I0704 11:35:25.790515 16904 net.cpp:434] relu2_1 <- conv2_1
I0704 11:35:25.790515 16904 net.cpp:395] relu2_1 -> conv2_1 (in-place)
I0704 11:35:25.791512 16904 net.cpp:150] Setting up relu2_1
I0704 11:35:25.791512 16904 net.cpp:157] Top shape: 2 128 256 256 (16777216)
I0704 11:35:25.791512 16904 net.cpp:165] Memory required for data: 761266272
I0704 11:35:25.791512 16904 layer_factory.hpp:77] Creating layer conv2_2
I0704 11:35:25.791512 16904 net.cpp:100] Creating Layer conv2_2
I0704 11:35:25.791512 16904 net.cpp:434] conv2_2 <- conv2_1
I0704 11:35:25.791512 16904 net.cpp:408] conv2_2 -> conv2_2
I0704 11:35:25.798494 16904 net.cpp:150] Setting up conv2_2
I0704 11:35:25.798494 16904 net.cpp:157] Top shape: 2 128 256 256 (16777216)
I0704 11:35:25.798494 16904 net.cpp:165] Memory required for data: 828375136
I0704 11:35:25.798494 16904 layer_factory.hpp:77] Creating layer relu2_2
I0704 11:35:25.798494 16904 net.cpp:100] Creating Layer relu2_2
I0704 11:35:25.798494 16904 net.cpp:434] relu2_2 <- conv2_2
I0704 11:35:25.798494 16904 net.cpp:395] relu2_2 -> conv2_2 (in-place)
I0704 11:35:25.799492 16904 net.cpp:150] Setting up relu2_2
I0704 11:35:25.799492 16904 net.cpp:157] Top shape: 2 128 256 256 (16777216)
I0704 11:35:25.799492 16904 net.cpp:165] Memory required for data: 895484000
I0704 11:35:25.799492 16904 layer_factory.hpp:77] Creating layer pool2
I0704 11:35:25.799492 16904 net.cpp:100] Creating Layer pool2
I0704 11:35:25.799492 16904 net.cpp:434] pool2 <- conv2_2
I0704 11:35:25.799492 16904 net.cpp:408] pool2 -> pool2
I0704 11:35:25.799492 16904 net.cpp:150] Setting up pool2
I0704 11:35:25.799492 16904 net.cpp:157] Top shape: 2 128 128 128 (4194304)
I0704 11:35:25.799492 16904 net.cpp:165] Memory required for data: 912261216
I0704 11:35:25.799492 16904 layer_factory.hpp:77] Creating layer conv3_1
I0704 11:35:25.799492 16904 net.cpp:100] Creating Layer conv3_1
I0704 11:35:25.800489 16904 net.cpp:434] conv3_1 <- pool2
I0704 11:35:25.800489 16904 net.cpp:408] conv3_1 -> conv3_1
I0704 11:35:25.806473 16904 net.cpp:150] Setting up conv3_1
I0704 11:35:25.806473 16904 net.cpp:157] Top shape: 2 256 128 128 (8388608)
I0704 11:35:25.806473 16904 net.cpp:165] Memory required for data: 945815648
I0704 11:35:25.806473 16904 layer_factory.hpp:77] Creating layer relu3_1
I0704 11:35:25.806473 16904 net.cpp:100] Creating Layer relu3_1
I0704 11:35:25.806473 16904 net.cpp:434] relu3_1 <- conv3_1
I0704 11:35:25.806473 16904 net.cpp:395] relu3_1 -> conv3_1 (in-place)
I0704 11:35:25.808468 16904 net.cpp:150] Setting up relu3_1
I0704 11:35:25.808468 16904 net.cpp:157] Top shape: 2 256 128 128 (8388608)
I0704 11:35:25.808468 16904 net.cpp:165] Memory required for data: 979370080
I0704 11:35:25.808468 16904 layer_factory.hpp:77] Creating layer conv3_2
I0704 11:35:25.808468 16904 net.cpp:100] Creating Layer conv3_2
I0704 11:35:25.808468 16904 net.cpp:434] conv3_2 <- conv3_1
I0704 11:35:25.808468 16904 net.cpp:408] conv3_2 -> conv3_2
I0704 11:35:25.820436 16904 net.cpp:150] Setting up conv3_2
I0704 11:35:25.820436 16904 net.cpp:157] Top shape: 2 256 128 128 (8388608)
I0704 11:35:25.820436 16904 net.cpp:165] Memory required for data: 1012924512
I0704 11:35:25.820436 16904 layer_factory.hpp:77] Creating layer relu3_2
I0704 11:35:25.820436 16904 net.cpp:100] Creating Layer relu3_2
I0704 11:35:25.820436 16904 net.cpp:434] relu3_2 <- conv3_2
I0704 11:35:25.820436 16904 net.cpp:395] relu3_2 -> conv3_2 (in-place)
I0704 11:35:25.821434 16904 net.cpp:150] Setting up relu3_2
I0704 11:35:25.821434 16904 net.cpp:157] Top shape: 2 256 128 128 (8388608)
I0704 11:35:25.821434 16904 net.cpp:165] Memory required for data: 1046478944
I0704 11:35:25.821434 16904 layer_factory.hpp:77] Creating layer conv3_3
I0704 11:35:25.821434 16904 net.cpp:100] Creating Layer conv3_3
I0704 11:35:25.821434 16904 net.cpp:434] conv3_3 <- conv3_2
I0704 11:35:25.821434 16904 net.cpp:408] conv3_3 -> conv3_3
I0704 11:35:25.832403 16904 net.cpp:150] Setting up conv3_3
I0704 11:35:25.832403 16904 net.cpp:157] Top shape: 2 256 128 128 (8388608)
I0704 11:35:25.832403 16904 net.cpp:165] Memory required for data: 1080033376
I0704 11:35:25.832403 16904 layer_factory.hpp:77] Creating layer relu3_3
I0704 11:35:25.832403 16904 net.cpp:100] Creating Layer relu3_3
I0704 11:35:25.832403 16904 net.cpp:434] relu3_3 <- conv3_3
I0704 11:35:25.832403 16904 net.cpp:395] relu3_3 -> conv3_3 (in-place)
I0704 11:35:25.833401 16904 net.cpp:150] Setting up relu3_3
I0704 11:35:25.833401 16904 net.cpp:157] Top shape: 2 256 128 128 (8388608)
I0704 11:35:25.833401 16904 net.cpp:165] Memory required for data: 1113587808
I0704 11:35:25.833401 16904 layer_factory.hpp:77] Creating layer pool3
I0704 11:35:25.833401 16904 net.cpp:100] Creating Layer pool3
I0704 11:35:25.833401 16904 net.cpp:434] pool3 <- conv3_3
I0704 11:35:25.833401 16904 net.cpp:408] pool3 -> pool3
I0704 11:35:25.833401 16904 net.cpp:150] Setting up pool3
I0704 11:35:25.833401 16904 net.cpp:157] Top shape: 2 256 64 64 (2097152)
I0704 11:35:25.833401 16904 net.cpp:165] Memory required for data: 1121976416
I0704 11:35:25.833401 16904 layer_factory.hpp:77] Creating layer conv4_1
I0704 11:35:25.833401 16904 net.cpp:100] Creating Layer conv4_1
I0704 11:35:25.833401 16904 net.cpp:434] conv4_1 <- pool3
I0704 11:35:25.833401 16904 net.cpp:408] conv4_1 -> conv4_1
I0704 11:35:25.850356 16904 net.cpp:150] Setting up conv4_1
I0704 11:35:25.850356 16904 net.cpp:157] Top shape: 2 512 64 64 (4194304)
I0704 11:35:25.850356 16904 net.cpp:165] Memory required for data: 1138753632
I0704 11:35:25.850356 16904 layer_factory.hpp:77] Creating layer relu4_1
I0704 11:35:25.850356 16904 net.cpp:100] Creating Layer relu4_1
I0704 11:35:25.850356 16904 net.cpp:434] relu4_1 <- conv4_1
I0704 11:35:25.850356 16904 net.cpp:395] relu4_1 -> conv4_1 (in-place)
I0704 11:35:25.851352 16904 net.cpp:150] Setting up relu4_1
I0704 11:35:25.851352 16904 net.cpp:157] Top shape: 2 512 64 64 (4194304)
I0704 11:35:25.851352 16904 net.cpp:165] Memory required for data: 1155530848
I0704 11:35:25.851352 16904 layer_factory.hpp:77] Creating layer conv4_2
I0704 11:35:25.851352 16904 net.cpp:100] Creating Layer conv4_2
I0704 11:35:25.851352 16904 net.cpp:434] conv4_2 <- conv4_1
I0704 11:35:25.851352 16904 net.cpp:408] conv4_2 -> conv4_2
I0704 11:35:25.878281 16904 net.cpp:150] Setting up conv4_2
I0704 11:35:25.878281 16904 net.cpp:157] Top shape: 2 512 64 64 (4194304)
I0704 11:35:25.878281 16904 net.cpp:165] Memory required for data: 1172308064
I0704 11:35:25.878281 16904 layer_factory.hpp:77] Creating layer relu4_2
I0704 11:35:25.878281 16904 net.cpp:100] Creating Layer relu4_2
I0704 11:35:25.878281 16904 net.cpp:434] relu4_2 <- conv4_2
I0704 11:35:25.878281 16904 net.cpp:395] relu4_2 -> conv4_2 (in-place)
I0704 11:35:25.879279 16904 net.cpp:150] Setting up relu4_2
I0704 11:35:25.879279 16904 net.cpp:157] Top shape: 2 512 64 64 (4194304)
I0704 11:35:25.879279 16904 net.cpp:165] Memory required for data: 1189085280
I0704 11:35:25.879279 16904 layer_factory.hpp:77] Creating layer conv4_3
I0704 11:35:25.879279 16904 net.cpp:100] Creating Layer conv4_3
I0704 11:35:25.879279 16904 net.cpp:434] conv4_3 <- conv4_2
I0704 11:35:25.879279 16904 net.cpp:408] conv4_3 -> conv4_3
I0704 11:35:25.903214 16904 net.cpp:150] Setting up conv4_3
I0704 11:35:25.903214 16904 net.cpp:157] Top shape: 2 512 64 64 (4194304)
I0704 11:35:25.903214 16904 net.cpp:165] Memory required for data: 1205862496
I0704 11:35:25.903214 16904 layer_factory.hpp:77] Creating layer relu4_3
I0704 11:35:25.903214 16904 net.cpp:100] Creating Layer relu4_3
I0704 11:35:25.903214 16904 net.cpp:434] relu4_3 <- conv4_3
I0704 11:35:25.903214 16904 net.cpp:395] relu4_3 -> conv4_3 (in-place)
I0704 11:35:25.905210 16904 net.cpp:150] Setting up relu4_3
I0704 11:35:25.905210 16904 net.cpp:157] Top shape: 2 512 64 64 (4194304)
I0704 11:35:25.905210 16904 net.cpp:165] Memory required for data: 1222639712
I0704 11:35:25.905210 16904 layer_factory.hpp:77] Creating layer conv4_3_relu4_3_0_split
I0704 11:35:25.905210 16904 net.cpp:100] Creating Layer conv4_3_relu4_3_0_split
I0704 11:35:25.905210 16904 net.cpp:434] conv4_3_relu4_3_0_split <- conv4_3
I0704 11:35:25.905210 16904 net.cpp:408] conv4_3_relu4_3_0_split -> conv4_3_relu4_3_0_split_0
I0704 11:35:25.905210 16904 net.cpp:408] conv4_3_relu4_3_0_split -> conv4_3_relu4_3_0_split_1
I0704 11:35:25.906206 16904 net.cpp:150] Setting up conv4_3_relu4_3_0_split
I0704 11:35:25.906206 16904 net.cpp:157] Top shape: 2 512 64 64 (4194304)
I0704 11:35:25.906206 16904 net.cpp:157] Top shape: 2 512 64 64 (4194304)
I0704 11:35:25.906206 16904 net.cpp:165] Memory required for data: 1256194144
I0704 11:35:25.906206 16904 layer_factory.hpp:77] Creating layer pool4
I0704 11:35:25.906206 16904 net.cpp:100] Creating Layer pool4
I0704 11:35:25.906206 16904 net.cpp:434] pool4 <- conv4_3_relu4_3_0_split_0
I0704 11:35:25.906206 16904 net.cpp:408] pool4 -> pool4
I0704 11:35:25.906206 16904 net.cpp:150] Setting up pool4
I0704 11:35:25.906206 16904 net.cpp:157] Top shape: 2 512 32 32 (1048576)
I0704 11:35:25.906206 16904 net.cpp:165] Memory required for data: 1260388448
I0704 11:35:25.906206 16904 layer_factory.hpp:77] Creating layer conv5_1
I0704 11:35:25.906206 16904 net.cpp:100] Creating Layer conv5_1
I0704 11:35:25.906206 16904 net.cpp:434] conv5_1 <- pool4
I0704 11:35:25.906206 16904 net.cpp:408] conv5_1 -> conv5_1
I0704 11:35:25.924158 16904 net.cpp:150] Setting up conv5_1
I0704 11:35:25.924158 16904 net.cpp:157] Top shape: 2 512 32 32 (1048576)
I0704 11:35:25.924158 16904 net.cpp:165] Memory required for data: 1264582752
I0704 11:35:25.924158 16904 layer_factory.hpp:77] Creating layer relu5_1
I0704 11:35:25.924158 16904 net.cpp:100] Creating Layer relu5_1
I0704 11:35:25.924158 16904 net.cpp:434] relu5_1 <- conv5_1
I0704 11:35:25.924158 16904 net.cpp:395] relu5_1 -> conv5_1 (in-place)
I0704 11:35:25.924158 16904 net.cpp:150] Setting up relu5_1
I0704 11:35:25.924158 16904 net.cpp:157] Top shape: 2 512 32 32 (1048576)
I0704 11:35:25.925155 16904 net.cpp:165] Memory required for data: 1268777056
I0704 11:35:25.925155 16904 layer_factory.hpp:77] Creating layer conv5_2
I0704 11:35:25.925155 16904 net.cpp:100] Creating Layer conv5_2
I0704 11:35:25.925155 16904 net.cpp:434] conv5_2 <- conv5_1
I0704 11:35:25.925155 16904 net.cpp:408] conv5_2 -> conv5_2
I0704 11:35:25.969039 16904 net.cpp:150] Setting up conv5_2
I0704 11:35:25.970036 16904 net.cpp:157] Top shape: 2 512 32 32 (1048576)
I0704 11:35:25.970036 16904 net.cpp:165] Memory required for data: 1272971360
I0704 11:35:25.970036 16904 layer_factory.hpp:77] Creating layer relu5_2
I0704 11:35:25.970036 16904 net.cpp:100] Creating Layer relu5_2
I0704 11:35:25.970036 16904 net.cpp:434] relu5_2 <- conv5_2
I0704 11:35:25.970036 16904 net.cpp:395] relu5_2 -> conv5_2 (in-place)
I0704 11:35:25.972030 16904 net.cpp:150] Setting up relu5_2
I0704 11:35:25.972030 16904 net.cpp:157] Top shape: 2 512 32 32 (1048576)
I0704 11:35:25.972030 16904 net.cpp:165] Memory required for data: 1277165664
I0704 11:35:25.972030 16904 layer_factory.hpp:77] Creating layer conv5_3
I0704 11:35:25.972030 16904 net.cpp:100] Creating Layer conv5_3
I0704 11:35:25.972030 16904 net.cpp:434] conv5_3 <- conv5_2
I0704 11:35:25.972030 16904 net.cpp:408] conv5_3 -> conv5_3
I0704 11:35:26.020900 16904 net.cpp:150] Setting up conv5_3
I0704 11:35:26.020900 16904 net.cpp:157] Top shape: 2 512 32 32 (1048576)
I0704 11:35:26.020900 16904 net.cpp:165] Memory required for data: 1281359968
I0704 11:35:26.020900 16904 layer_factory.hpp:77] Creating layer relu5_3
I0704 11:35:26.020900 16904 net.cpp:100] Creating Layer relu5_3
I0704 11:35:26.020900 16904 net.cpp:434] relu5_3 <- conv5_3
I0704 11:35:26.020900 16904 net.cpp:395] relu5_3 -> conv5_3 (in-place)
I0704 11:35:26.021896 16904 net.cpp:150] Setting up relu5_3
I0704 11:35:26.021896 16904 net.cpp:157] Top shape: 2 512 32 32 (1048576)
I0704 11:35:26.021896 16904 net.cpp:165] Memory required for data: 1285554272
I0704 11:35:26.021896 16904 layer_factory.hpp:77] Creating layer pool5
I0704 11:35:26.021896 16904 net.cpp:100] Creating Layer pool5
I0704 11:35:26.021896 16904 net.cpp:434] pool5 <- conv5_3
I0704 11:35:26.021896 16904 net.cpp:408] pool5 -> pool5
I0704 11:35:26.021896 16904 net.cpp:150] Setting up pool5
I0704 11:35:26.021896 16904 net.cpp:157] Top shape: 2 512 32 32 (1048576)
I0704 11:35:26.021896 16904 net.cpp:165] Memory required for data: 1289748576
I0704 11:35:26.021896 16904 layer_factory.hpp:77] Creating layer fc6
I0704 11:35:26.021896 16904 net.cpp:100] Creating Layer fc6
I0704 11:35:26.021896 16904 net.cpp:434] fc6 <- pool5
I0704 11:35:26.021896 16904 net.cpp:408] fc6 -> fc6
I0704 11:35:26.079742 16904 net.cpp:150] Setting up fc6
I0704 11:35:26.079742 16904 net.cpp:157] Top shape: 2 1024 32 32 (2097152)
I0704 11:35:26.079742 16904 net.cpp:165] Memory required for data: 1298137184
I0704 11:35:26.079742 16904 layer_factory.hpp:77] Creating layer relu6
I0704 11:35:26.079742 16904 net.cpp:100] Creating Layer relu6
I0704 11:35:26.079742 16904 net.cpp:434] relu6 <- fc6
I0704 11:35:26.079742 16904 net.cpp:395] relu6 -> fc6 (in-place)
I0704 11:35:26.080740 16904 net.cpp:150] Setting up relu6
I0704 11:35:26.080740 16904 net.cpp:157] Top shape: 2 1024 32 32 (2097152)
I0704 11:35:26.080740 16904 net.cpp:165] Memory required for data: 1306525792
I0704 11:35:26.080740 16904 layer_factory.hpp:77] Creating layer fc7
I0704 11:35:26.080740 16904 net.cpp:100] Creating Layer fc7
I0704 11:35:26.080740 16904 net.cpp:434] fc7 <- fc6
I0704 11:35:26.080740 16904 net.cpp:408] fc7 -> fc7
I0704 11:35:26.117642 16904 net.cpp:150] Setting up fc7
I0704 11:35:26.117642 16904 net.cpp:157] Top shape: 2 1024 32 32 (2097152)
I0704 11:35:26.117642 16904 net.cpp:165] Memory required for data: 1314914400
I0704 11:35:26.117642 16904 layer_factory.hpp:77] Creating layer relu7
I0704 11:35:26.117642 16904 net.cpp:100] Creating Layer relu7
I0704 11:35:26.117642 16904 net.cpp:434] relu7 <- fc7
I0704 11:35:26.117642 16904 net.cpp:395] relu7 -> fc7 (in-place)
I0704 11:35:26.120635 16904 net.cpp:150] Setting up relu7
I0704 11:35:26.120635 16904 net.cpp:157] Top shape: 2 1024 32 32 (2097152)
I0704 11:35:26.120635 16904 net.cpp:165] Memory required for data: 1323303008
I0704 11:35:26.120635 16904 layer_factory.hpp:77] Creating layer fc7_relu7_0_split
I0704 11:35:26.120635 16904 net.cpp:100] Creating Layer fc7_relu7_0_split
I0704 11:35:26.120635 16904 net.cpp:434] fc7_relu7_0_split <- fc7
I0704 11:35:26.121632 16904 net.cpp:408] fc7_relu7_0_split -> fc7_relu7_0_split_0
I0704 11:35:26.121632 16904 net.cpp:408] fc7_relu7_0_split -> fc7_relu7_0_split_1
I0704 11:35:26.121632 16904 net.cpp:408] fc7_relu7_0_split -> fc7_relu7_0_split_2
I0704 11:35:26.121632 16904 net.cpp:408] fc7_relu7_0_split -> fc7_relu7_0_split_3
I0704 11:35:26.121632 16904 net.cpp:150] Setting up fc7_relu7_0_split
I0704 11:35:26.121632 16904 net.cpp:157] Top shape: 2 1024 32 32 (2097152)
I0704 11:35:26.121632 16904 net.cpp:157] Top shape: 2 1024 32 32 (2097152)
I0704 11:35:26.121632 16904 net.cpp:157] Top shape: 2 1024 32 32 (2097152)
I0704 11:35:26.121632 16904 net.cpp:157] Top shape: 2 1024 32 32 (2097152)
I0704 11:35:26.121632 16904 net.cpp:165] Memory required for data: 1356857440
I0704 11:35:26.121632 16904 layer_factory.hpp:77] Creating layer conv8_1
I0704 11:35:26.121632 16904 net.cpp:100] Creating Layer conv8_1
I0704 11:35:26.121632 16904 net.cpp:434] conv8_1 <- fc7_relu7_0_split_0
I0704 11:35:26.121632 16904 net.cpp:408] conv8_1 -> conv8_1
I0704 11:35:26.132601 16904 net.cpp:150] Setting up conv8_1
I0704 11:35:26.133599 16904 net.cpp:157] Top shape: 2 256 32 32 (524288)
I0704 11:35:26.133599 16904 net.cpp:165] Memory required for data: 1358954592
I0704 11:35:26.133599 16904 layer_factory.hpp:77] Creating layer conv8_1_relu
I0704 11:35:26.133599 16904 net.cpp:100] Creating Layer conv8_1_relu
I0704 11:35:26.133599 16904 net.cpp:434] conv8_1_relu <- conv8_1
I0704 11:35:26.133599 16904 net.cpp:395] conv8_1_relu -> conv8_1 (in-place)
I0704 11:35:26.135593 16904 net.cpp:150] Setting up conv8_1_relu
I0704 11:35:26.135593 16904 net.cpp:157] Top shape: 2 256 32 32 (524288)
I0704 11:35:26.135593 16904 net.cpp:165] Memory required for data: 1361051744
I0704 11:35:26.135593 16904 layer_factory.hpp:77] Creating layer conv8_2
I0704 11:35:26.135593 16904 net.cpp:100] Creating Layer conv8_2
I0704 11:35:26.135593 16904 net.cpp:434] conv8_2 <- conv8_1
I0704 11:35:26.135593 16904 net.cpp:408] conv8_2 -> conv8_2
I0704 11:35:26.156539 16904 net.cpp:150] Setting up conv8_2
I0704 11:35:26.156539 16904 net.cpp:157] Top shape: 2 512 16 16 (262144)
I0704 11:35:26.156539 16904 net.cpp:165] Memory required for data: 1362100320
I0704 11:35:26.156539 16904 layer_factory.hpp:77] Creating layer conv8_2_relu
I0704 11:35:26.156539 16904 net.cpp:100] Creating Layer conv8_2_relu
I0704 11:35:26.156539 16904 net.cpp:434] conv8_2_relu <- conv8_2
I0704 11:35:26.156539 16904 net.cpp:395] conv8_2_relu -> conv8_2 (in-place)
I0704 11:35:26.160531 16904 net.cpp:150] Setting up conv8_2_relu
I0704 11:35:26.160531 16904 net.cpp:157] Top shape: 2 512 16 16 (262144)
I0704 11:35:26.160531 16904 net.cpp:165] Memory required for data: 1363148896
I0704 11:35:26.160531 16904 layer_factory.hpp:77] Creating layer conv8_2_conv8_2_relu_0_split
I0704 11:35:26.160531 16904 net.cpp:100] Creating Layer conv8_2_conv8_2_relu_0_split
I0704 11:35:26.160531 16904 net.cpp:434] conv8_2_conv8_2_relu_0_split <- conv8_2
I0704 11:35:26.160531 16904 net.cpp:408] conv8_2_conv8_2_relu_0_split -> conv8_2_conv8_2_relu_0_split_0
I0704 11:35:26.160531 16904 net.cpp:408] conv8_2_conv8_2_relu_0_split -> conv8_2_conv8_2_relu_0_split_1
I0704 11:35:26.160531 16904 net.cpp:408] conv8_2_conv8_2_relu_0_split -> conv8_2_conv8_2_relu_0_split_2
I0704 11:35:26.160531 16904 net.cpp:408] conv8_2_conv8_2_relu_0_split -> conv8_2_conv8_2_relu_0_split_3
I0704 11:35:26.160531 16904 net.cpp:150] Setting up conv8_2_conv8_2_relu_0_split
I0704 11:35:26.160531 16904 net.cpp:157] Top shape: 2 512 16 16 (262144)
I0704 11:35:26.160531 16904 net.cpp:157] Top shape: 2 512 16 16 (262144)
I0704 11:35:26.160531 16904 net.cpp:157] Top shape: 2 512 16 16 (262144)
I0704 11:35:26.160531 16904 net.cpp:157] Top shape: 2 512 16 16 (262144)
I0704 11:35:26.161526 16904 net.cpp:165] Memory required for data: 1367343200
I0704 11:35:26.161526 16904 layer_factory.hpp:77] Creating layer conv9_1
I0704 11:35:26.161526 16904 net.cpp:100] Creating Layer conv9_1
I0704 11:35:26.161526 16904 net.cpp:434] conv9_1 <- conv8_2_conv8_2_relu_0_split_0
I0704 11:35:26.161526 16904 net.cpp:408] conv9_1 -> conv9_1
I0704 11:35:26.180474 16904 net.cpp:150] Setting up conv9_1
I0704 11:35:26.181471 16904 net.cpp:157] Top shape: 2 128 16 16 (65536)
I0704 11:35:26.181471 16904 net.cpp:165] Memory required for data: 1367605344
I0704 11:35:26.181471 16904 layer_factory.hpp:77] Creating layer conv9_1_relu
I0704 11:35:26.181471 16904 net.cpp:100] Creating Layer conv9_1_relu
I0704 11:35:26.181471 16904 net.cpp:434] conv9_1_relu <- conv9_1
I0704 11:35:26.181471 16904 net.cpp:395] conv9_1_relu -> conv9_1 (in-place)
I0704 11:35:26.181471 16904 net.cpp:150] Setting up conv9_1_relu
I0704 11:35:26.181471 16904 net.cpp:157] Top shape: 2 128 16 16 (65536)
I0704 11:35:26.182468 16904 net.cpp:165] Memory required for data: 1367867488
I0704 11:35:26.182468 16904 layer_factory.hpp:77] Creating layer conv9_2
I0704 11:35:26.182468 16904 net.cpp:100] Creating Layer conv9_2
I0704 11:35:26.182468 16904 net.cpp:434] conv9_2 <- conv9_1
I0704 11:35:26.182468 16904 net.cpp:408] conv9_2 -> conv9_2
I0704 11:35:26.191447 16904 net.cpp:150] Setting up conv9_2
I0704 11:35:26.191447 16904 net.cpp:157] Top shape: 2 256 8 8 (32768)
I0704 11:35:26.191447 16904 net.cpp:165] Memory required for data: 1367998560
I0704 11:35:26.191447 16904 layer_factory.hpp:77] Creating layer conv9_2_relu
I0704 11:35:26.191447 16904 net.cpp:100] Creating Layer conv9_2_relu
I0704 11:35:26.191447 16904 net.cpp:434] conv9_2_relu <- conv9_2
I0704 11:35:26.191447 16904 net.cpp:395] conv9_2_relu -> conv9_2 (in-place)
I0704 11:35:26.192443 16904 net.cpp:150] Setting up conv9_2_relu
I0704 11:35:26.192443 16904 net.cpp:157] Top shape: 2 256 8 8 (32768)
I0704 11:35:26.192443 16904 net.cpp:165] Memory required for data: 1368129632
I0704 11:35:26.192443 16904 layer_factory.hpp:77] Creating layer conv9_2_conv9_2_relu_0_split
I0704 11:35:26.192443 16904 net.cpp:100] Creating Layer conv9_2_conv9_2_relu_0_split
I0704 11:35:26.192443 16904 net.cpp:434] conv9_2_conv9_2_relu_0_split <- conv9_2
I0704 11:35:26.192443 16904 net.cpp:408] conv9_2_conv9_2_relu_0_split -> conv9_2_conv9_2_relu_0_split_0
I0704 11:35:26.192443 16904 net.cpp:408] conv9_2_conv9_2_relu_0_split -> conv9_2_conv9_2_relu_0_split_1
I0704 11:35:26.192443 16904 net.cpp:408] conv9_2_conv9_2_relu_0_split -> conv9_2_conv9_2_relu_0_split_2
I0704 11:35:26.192443 16904 net.cpp:408] conv9_2_conv9_2_relu_0_split -> conv9_2_conv9_2_relu_0_split_3
I0704 11:35:26.192443 16904 net.cpp:150] Setting up conv9_2_conv9_2_relu_0_split
I0704 11:35:26.192443 16904 net.cpp:157] Top shape: 2 256 8 8 (32768)
I0704 11:35:26.192443 16904 net.cpp:157] Top shape: 2 256 8 8 (32768)
I0704 11:35:26.192443 16904 net.cpp:157] Top shape: 2 256 8 8 (32768)
I0704 11:35:26.192443 16904 net.cpp:157] Top shape: 2 256 8 8 (32768)
I0704 11:35:26.192443 16904 net.cpp:165] Memory required for data: 1368653920
I0704 11:35:26.192443 16904 layer_factory.hpp:77] Creating layer conv10_1
I0704 11:35:26.192443 16904 net.cpp:100] Creating Layer conv10_1
I0704 11:35:26.192443 16904 net.cpp:434] conv10_1 <- conv9_2_conv9_2_relu_0_split_0
I0704 11:35:26.192443 16904 net.cpp:408] conv10_1 -> conv10_1
I0704 11:35:26.195433 16904 net.cpp:150] Setting up conv10_1
I0704 11:35:26.195433 16904 net.cpp:157] Top shape: 2 128 8 8 (16384)
I0704 11:35:26.195433 16904 net.cpp:165] Memory required for data: 1368719456
I0704 11:35:26.195433 16904 layer_factory.hpp:77] Creating layer conv10_1_relu
I0704 11:35:26.195433 16904 net.cpp:100] Creating Layer conv10_1_relu
I0704 11:35:26.195433 16904 net.cpp:434] conv10_1_relu <- conv10_1
I0704 11:35:26.195433 16904 net.cpp:395] conv10_1_relu -> conv10_1 (in-place)
I0704 11:35:26.196431 16904 net.cpp:150] Setting up conv10_1_relu
I0704 11:35:26.196431 16904 net.cpp:157] Top shape: 2 128 8 8 (16384)
I0704 11:35:26.196431 16904 net.cpp:165] Memory required for data: 1368784992
I0704 11:35:26.196431 16904 layer_factory.hpp:77] Creating layer conv10_2
I0704 11:35:26.196431 16904 net.cpp:100] Creating Layer conv10_2
I0704 11:35:26.196431 16904 net.cpp:434] conv10_2 <- conv10_1
I0704 11:35:26.196431 16904 net.cpp:408] conv10_2 -> conv10_2
I0704 11:35:26.206404 16904 net.cpp:150] Setting up conv10_2
I0704 11:35:26.207402 16904 net.cpp:157] Top shape: 2 256 4 4 (8192)
I0704 11:35:26.207402 16904 net.cpp:165] Memory required for data: 1368817760
I0704 11:35:26.207402 16904 layer_factory.hpp:77] Creating layer conv10_2_relu
I0704 11:35:26.207402 16904 net.cpp:100] Creating Layer conv10_2_relu
I0704 11:35:26.207402 16904 net.cpp:434] conv10_2_relu <- conv10_2
I0704 11:35:26.207402 16904 net.cpp:395] conv10_2_relu -> conv10_2 (in-place)
I0704 11:35:26.208405 16904 net.cpp:150] Setting up conv10_2_relu
I0704 11:35:26.208405 16904 net.cpp:157] Top shape: 2 256 4 4 (8192)
I0704 11:35:26.208405 16904 net.cpp:165] Memory required for data: 1368850528
I0704 11:35:26.208405 16904 layer_factory.hpp:77] Creating layer conv10_2_conv10_2_relu_0_split
I0704 11:35:26.208405 16904 net.cpp:100] Creating Layer conv10_2_conv10_2_relu_0_split
I0704 11:35:26.209399 16904 net.cpp:434] conv10_2_conv10_2_relu_0_split <- conv10_2
I0704 11:35:26.209399 16904 net.cpp:408] conv10_2_conv10_2_relu_0_split -> conv10_2_conv10_2_relu_0_split_0
I0704 11:35:26.209399 16904 net.cpp:408] conv10_2_conv10_2_relu_0_split -> conv10_2_conv10_2_relu_0_split_1
I0704 11:35:26.209399 16904 net.cpp:408] conv10_2_conv10_2_relu_0_split -> conv10_2_conv10_2_relu_0_split_2
I0704 11:35:26.209399 16904 net.cpp:408] conv10_2_conv10_2_relu_0_split -> conv10_2_conv10_2_relu_0_split_3
I0704 11:35:26.209399 16904 net.cpp:150] Setting up conv10_2_conv10_2_relu_0_split
I0704 11:35:26.209399 16904 net.cpp:157] Top shape: 2 256 4 4 (8192)
I0704 11:35:26.209399 16904 net.cpp:157] Top shape: 2 256 4 4 (8192)
I0704 11:35:26.209399 16904 net.cpp:157] Top shape: 2 256 4 4 (8192)
I0704 11:35:26.209399 16904 net.cpp:157] Top shape: 2 256 4 4 (8192)
I0704 11:35:26.209399 16904 net.cpp:165] Memory required for data: 1368981600
I0704 11:35:26.209399 16904 layer_factory.hpp:77] Creating layer conv11_1
I0704 11:35:26.209399 16904 net.cpp:100] Creating Layer conv11_1
I0704 11:35:26.209399 16904 net.cpp:434] conv11_1 <- conv10_2_conv10_2_relu_0_split_0
I0704 11:35:26.209399 16904 net.cpp:408] conv11_1 -> conv11_1
I0704 11:35:26.216379 16904 net.cpp:150] Setting up conv11_1
I0704 11:35:26.216379 16904 net.cpp:157] Top shape: 2 128 4 4 (4096)
I0704 11:35:26.216379 16904 net.cpp:165] Memory required for data: 1368997984
I0704 11:35:26.216379 16904 layer_factory.hpp:77] Creating layer conv11_1_relu
I0704 11:35:26.216379 16904 net.cpp:100] Creating Layer conv11_1_relu
I0704 11:35:26.216379 16904 net.cpp:434] conv11_1_relu <- conv11_1
I0704 11:35:26.216379 16904 net.cpp:395] conv11_1_relu -> conv11_1 (in-place)
I0704 11:35:26.218372 16904 net.cpp:150] Setting up conv11_1_relu
I0704 11:35:26.218372 16904 net.cpp:157] Top shape: 2 128 4 4 (4096)
I0704 11:35:26.218372 16904 net.cpp:165] Memory required for data: 1369014368
I0704 11:35:26.218372 16904 layer_factory.hpp:77] Creating layer conv11_2
I0704 11:35:26.218372 16904 net.cpp:100] Creating Layer conv11_2
I0704 11:35:26.218372 16904 net.cpp:434] conv11_2 <- conv11_1
I0704 11:35:26.218372 16904 net.cpp:408] conv11_2 -> conv11_2
I0704 11:35:26.227349 16904 net.cpp:150] Setting up conv11_2
I0704 11:35:26.228345 16904 net.cpp:157] Top shape: 2 256 2 2 (2048)
I0704 11:35:26.228345 16904 net.cpp:165] Memory required for data: 1369022560
I0704 11:35:26.228345 16904 layer_factory.hpp:77] Creating layer conv11_2_relu
I0704 11:35:26.228345 16904 net.cpp:100] Creating Layer conv11_2_relu
I0704 11:35:26.228345 16904 net.cpp:434] conv11_2_relu <- conv11_2
I0704 11:35:26.228345 16904 net.cpp:395] conv11_2_relu -> conv11_2 (in-place)
I0704 11:35:26.229351 16904 net.cpp:150] Setting up conv11_2_relu
I0704 11:35:26.229351 16904 net.cpp:157] Top shape: 2 256 2 2 (2048)
I0704 11:35:26.229351 16904 net.cpp:165] Memory required for data: 1369030752
I0704 11:35:26.229351 16904 layer_factory.hpp:77] Creating layer conv11_2_conv11_2_relu_0_split
I0704 11:35:26.229351 16904 net.cpp:100] Creating Layer conv11_2_conv11_2_relu_0_split
I0704 11:35:26.229351 16904 net.cpp:434] conv11_2_conv11_2_relu_0_split <- conv11_2
I0704 11:35:26.229351 16904 net.cpp:408] conv11_2_conv11_2_relu_0_split -> conv11_2_conv11_2_relu_0_split_0
I0704 11:35:26.229351 16904 net.cpp:408] conv11_2_conv11_2_relu_0_split -> conv11_2_conv11_2_relu_0_split_1
I0704 11:35:26.229351 16904 net.cpp:408] conv11_2_conv11_2_relu_0_split -> conv11_2_conv11_2_relu_0_split_2
I0704 11:35:26.229351 16904 net.cpp:408] conv11_2_conv11_2_relu_0_split -> conv11_2_conv11_2_relu_0_split_3
I0704 11:35:26.229351 16904 net.cpp:150] Setting up conv11_2_conv11_2_relu_0_split
I0704 11:35:26.229351 16904 net.cpp:157] Top shape: 2 256 2 2 (2048)
I0704 11:35:26.230340 16904 net.cpp:157] Top shape: 2 256 2 2 (2048)
I0704 11:35:26.230340 16904 net.cpp:157] Top shape: 2 256 2 2 (2048)
I0704 11:35:26.230340 16904 net.cpp:157] Top shape: 2 256 2 2 (2048)
I0704 11:35:26.230340 16904 net.cpp:165] Memory required for data: 1369063520
I0704 11:35:26.230340 16904 layer_factory.hpp:77] Creating layer conv12_1
I0704 11:35:26.230340 16904 net.cpp:100] Creating Layer conv12_1
I0704 11:35:26.230340 16904 net.cpp:434] conv12_1 <- conv11_2_conv11_2_relu_0_split_0
I0704 11:35:26.230340 16904 net.cpp:408] conv12_1 -> conv12_1
I0704 11:35:26.238322 16904 net.cpp:150] Setting up conv12_1
I0704 11:35:26.238322 16904 net.cpp:157] Top shape: 2 128 2 2 (1024)
I0704 11:35:26.238322 16904 net.cpp:165] Memory required for data: 1369067616
I0704 11:35:26.238322 16904 layer_factory.hpp:77] Creating layer conv12_1_relu
I0704 11:35:26.238322 16904 net.cpp:100] Creating Layer conv12_1_relu
I0704 11:35:26.238322 16904 net.cpp:434] conv12_1_relu <- conv12_1
I0704 11:35:26.238322 16904 net.cpp:395] conv12_1_relu -> conv12_1 (in-place)
I0704 11:35:26.239318 16904 net.cpp:150] Setting up conv12_1_relu
I0704 11:35:26.239318 16904 net.cpp:157] Top shape: 2 128 2 2 (1024)
I0704 11:35:26.239318 16904 net.cpp:165] Memory required for data: 1369071712
I0704 11:35:26.239318 16904 layer_factory.hpp:77] Creating layer conv12_2
I0704 11:35:26.239318 16904 net.cpp:100] Creating Layer conv12_2
I0704 11:35:26.239318 16904 net.cpp:434] conv12_2 <- conv12_1
I0704 11:35:26.239318 16904 net.cpp:408] conv12_2 -> conv12_2
I0704 11:35:26.252281 16904 net.cpp:150] Setting up conv12_2
I0704 11:35:26.252281 16904 net.cpp:157] Top shape: 2 256 1 1 (512)
I0704 11:35:26.252281 16904 net.cpp:165] Memory required for data: 1369073760
I0704 11:35:26.252281 16904 layer_factory.hpp:77] Creating layer conv12_2_relu
I0704 11:35:26.252281 16904 net.cpp:100] Creating Layer conv12_2_relu
I0704 11:35:26.252281 16904 net.cpp:434] conv12_2_relu <- conv12_2
I0704 11:35:26.252281 16904 net.cpp:395] conv12_2_relu -> conv12_2 (in-place)
I0704 11:35:26.253279 16904 net.cpp:150] Setting up conv12_2_relu
I0704 11:35:26.253279 16904 net.cpp:157] Top shape: 2 256 1 1 (512)
I0704 11:35:26.253279 16904 net.cpp:165] Memory required for data: 1369075808
I0704 11:35:26.253279 16904 layer_factory.hpp:77] Creating layer conv12_2_conv12_2_relu_0_split
I0704 11:35:26.253279 16904 net.cpp:100] Creating Layer conv12_2_conv12_2_relu_0_split
I0704 11:35:26.253279 16904 net.cpp:434] conv12_2_conv12_2_relu_0_split <- conv12_2
I0704 11:35:26.253279 16904 net.cpp:408] conv12_2_conv12_2_relu_0_split -> conv12_2_conv12_2_relu_0_split_0
I0704 11:35:26.253279 16904 net.cpp:408] conv12_2_conv12_2_relu_0_split -> conv12_2_conv12_2_relu_0_split_1
I0704 11:35:26.253279 16904 net.cpp:408] conv12_2_conv12_2_relu_0_split -> conv12_2_conv12_2_relu_0_split_2
I0704 11:35:26.253279 16904 net.cpp:150] Setting up conv12_2_conv12_2_relu_0_split
I0704 11:35:26.253279 16904 net.cpp:157] Top shape: 2 256 1 1 (512)
I0704 11:35:26.253279 16904 net.cpp:157] Top shape: 2 256 1 1 (512)
I0704 11:35:26.253279 16904 net.cpp:157] Top shape: 2 256 1 1 (512)
I0704 11:35:26.253279 16904 net.cpp:165] Memory required for data: 1369081952
I0704 11:35:26.253279 16904 layer_factory.hpp:77] Creating layer conv4_3_norm
I0704 11:35:26.253279 16904 net.cpp:100] Creating Layer conv4_3_norm
I0704 11:35:26.253279 16904 net.cpp:434] conv4_3_norm <- conv4_3_relu4_3_0_split_1
I0704 11:35:26.253279 16904 net.cpp:408] conv4_3_norm -> conv4_3_norm
I0704 11:35:26.254276 16904 net.cpp:150] Setting up conv4_3_norm
I0704 11:35:26.254276 16904 net.cpp:157] Top shape: 2 512 64 64 (4194304)
I0704 11:35:26.254276 16904 net.cpp:165] Memory required for data: 1385859168
I0704 11:35:26.254276 16904 layer_factory.hpp:77] Creating layer conv4_3_norm_conv4_3_norm_0_split
I0704 11:35:26.254276 16904 net.cpp:100] Creating Layer conv4_3_norm_conv4_3_norm_0_split
I0704 11:35:26.254276 16904 net.cpp:434] conv4_3_norm_conv4_3_norm_0_split <- conv4_3_norm
I0704 11:35:26.254276 16904 net.cpp:408] conv4_3_norm_conv4_3_norm_0_split -> conv4_3_norm_conv4_3_norm_0_split_0
I0704 11:35:26.254276 16904 net.cpp:408] conv4_3_norm_conv4_3_norm_0_split -> conv4_3_norm_conv4_3_norm_0_split_1
I0704 11:35:26.254276 16904 net.cpp:408] conv4_3_norm_conv4_3_norm_0_split -> conv4_3_norm_conv4_3_norm_0_split_2
I0704 11:35:26.254276 16904 net.cpp:150] Setting up conv4_3_norm_conv4_3_norm_0_split
I0704 11:35:26.254276 16904 net.cpp:157] Top shape: 2 512 64 64 (4194304)
I0704 11:35:26.254276 16904 net.cpp:157] Top shape: 2 512 64 64 (4194304)
I0704 11:35:26.254276 16904 net.cpp:157] Top shape: 2 512 64 64 (4194304)
I0704 11:35:26.254276 16904 net.cpp:165] Memory required for data: 1436190816
I0704 11:35:26.254276 16904 layer_factory.hpp:77] Creating layer conv4_3_norm_mbox_loc
I0704 11:35:26.254276 16904 net.cpp:100] Creating Layer conv4_3_norm_mbox_loc
I0704 11:35:26.254276 16904 net.cpp:434] conv4_3_norm_mbox_loc <- conv4_3_norm_conv4_3_norm_0_split_0
I0704 11:35:26.254276 16904 net.cpp:408] conv4_3_norm_mbox_loc -> conv4_3_norm_mbox_loc
I0704 11:35:26.260260 16904 net.cpp:150] Setting up conv4_3_norm_mbox_loc
I0704 11:35:26.260260 16904 net.cpp:157] Top shape: 2 16 64 64 (131072)
I0704 11:35:26.260260 16904 net.cpp:165] Memory required for data: 1436715104
I0704 11:35:26.260260 16904 layer_factory.hpp:77] Creating layer conv4_3_norm_mbox_loc_perm
I0704 11:35:26.260260 16904 net.cpp:100] Creating Layer conv4_3_norm_mbox_loc_perm
I0704 11:35:26.260260 16904 net.cpp:434] conv4_3_norm_mbox_loc_perm <- conv4_3_norm_mbox_loc
I0704 11:35:26.260260 16904 net.cpp:408] conv4_3_norm_mbox_loc_perm -> conv4_3_norm_mbox_loc_perm
I0704 11:35:26.260260 16904 net.cpp:150] Setting up conv4_3_norm_mbox_loc_perm
I0704 11:35:26.260260 16904 net.cpp:157] Top shape: 2 64 64 16 (131072)
I0704 11:35:26.260260 16904 net.cpp:165] Memory required for data: 1437239392
I0704 11:35:26.260260 16904 layer_factory.hpp:77] Creating layer conv4_3_norm_mbox_loc_flat
I0704 11:35:26.260260 16904 net.cpp:100] Creating Layer conv4_3_norm_mbox_loc_flat
I0704 11:35:26.260260 16904 net.cpp:434] conv4_3_norm_mbox_loc_flat <- conv4_3_norm_mbox_loc_perm
I0704 11:35:26.260260 16904 net.cpp:408] conv4_3_norm_mbox_loc_flat -> conv4_3_norm_mbox_loc_flat
I0704 11:35:26.260260 16904 net.cpp:150] Setting up conv4_3_norm_mbox_loc_flat
I0704 11:35:26.260260 16904 net.cpp:157] Top shape: 2 65536 (131072)
I0704 11:35:26.260260 16904 net.cpp:165] Memory required for data: 1437763680
I0704 11:35:26.260260 16904 layer_factory.hpp:77] Creating layer conv4_3_norm_mbox_conf
I0704 11:35:26.260260 16904 net.cpp:100] Creating Layer conv4_3_norm_mbox_conf
I0704 11:35:26.260260 16904 net.cpp:434] conv4_3_norm_mbox_conf <- conv4_3_norm_conv4_3_norm_0_split_1
I0704 11:35:26.260260 16904 net.cpp:408] conv4_3_norm_mbox_conf -> conv4_3_norm_mbox_conf
I0704 11:35:26.264250 16904 net.cpp:150] Setting up conv4_3_norm_mbox_conf
I0704 11:35:26.264250 16904 net.cpp:157] Top shape: 2 12 64 64 (98304)
I0704 11:35:26.264250 16904 net.cpp:165] Memory required for data: 1438156896
I0704 11:35:26.264250 16904 layer_factory.hpp:77] Creating layer conv4_3_norm_mbox_conf_perm
I0704 11:35:26.264250 16904 net.cpp:100] Creating Layer conv4_3_norm_mbox_conf_perm
I0704 11:35:26.264250 16904 net.cpp:434] conv4_3_norm_mbox_conf_perm <- conv4_3_norm_mbox_conf
I0704 11:35:26.264250 16904 net.cpp:408] conv4_3_norm_mbox_conf_perm -> conv4_3_norm_mbox_conf_perm
I0704 11:35:26.264250 16904 net.cpp:150] Setting up conv4_3_norm_mbox_conf_perm
I0704 11:35:26.264250 16904 net.cpp:157] Top shape: 2 64 64 12 (98304)
I0704 11:35:26.264250 16904 net.cpp:165] Memory required for data: 1438550112
I0704 11:35:26.265247 16904 layer_factory.hpp:77] Creating layer conv4_3_norm_mbox_conf_flat
I0704 11:35:26.265247 16904 net.cpp:100] Creating Layer conv4_3_norm_mbox_conf_flat
I0704 11:35:26.265247 16904 net.cpp:434] conv4_3_norm_mbox_conf_flat <- conv4_3_norm_mbox_conf_perm
I0704 11:35:26.265247 16904 net.cpp:408] conv4_3_norm_mbox_conf_flat -> conv4_3_norm_mbox_conf_flat
I0704 11:35:26.265247 16904 net.cpp:150] Setting up conv4_3_norm_mbox_conf_flat
I0704 11:35:26.265247 16904 net.cpp:157] Top shape: 2 49152 (98304)
I0704 11:35:26.265247 16904 net.cpp:165] Memory required for data: 1438943328
I0704 11:35:26.265247 16904 layer_factory.hpp:77] Creating layer conv4_3_norm_mbox_priorbox
I0704 11:35:26.265247 16904 net.cpp:100] Creating Layer conv4_3_norm_mbox_priorbox
I0704 11:35:26.265247 16904 net.cpp:434] conv4_3_norm_mbox_priorbox <- conv4_3_norm_conv4_3_norm_0_split_2
I0704 11:35:26.265247 16904 net.cpp:434] conv4_3_norm_mbox_priorbox <- data_data_0_split_1
I0704 11:35:26.265247 16904 net.cpp:408] conv4_3_norm_mbox_priorbox -> conv4_3_norm_mbox_priorbox
I0704 11:35:26.265247 16904 net.cpp:150] Setting up conv4_3_norm_mbox_priorbox
I0704 11:35:26.265247 16904 net.cpp:157] Top shape: 1 2 65536 (131072)
I0704 11:35:26.265247 16904 net.cpp:165] Memory required for data: 1439467616
I0704 11:35:26.265247 16904 layer_factory.hpp:77] Creating layer fc7_mbox_loc
I0704 11:35:26.265247 16904 net.cpp:100] Creating Layer fc7_mbox_loc
I0704 11:35:26.265247 16904 net.cpp:434] fc7_mbox_loc <- fc7_relu7_0_split_1
I0704 11:35:26.265247 16904 net.cpp:408] fc7_mbox_loc -> fc7_mbox_loc
I0704 11:35:26.272228 16904 net.cpp:150] Setting up fc7_mbox_loc
I0704 11:35:26.272228 16904 net.cpp:157] Top shape: 2 24 32 32 (49152)
I0704 11:35:26.272228 16904 net.cpp:165] Memory required for data: 1439664224
I0704 11:35:26.272228 16904 layer_factory.hpp:77] Creating layer fc7_mbox_loc_perm
I0704 11:35:26.272228 16904 net.cpp:100] Creating Layer fc7_mbox_loc_perm
I0704 11:35:26.272228 16904 net.cpp:434] fc7_mbox_loc_perm <- fc7_mbox_loc
I0704 11:35:26.272228 16904 net.cpp:408] fc7_mbox_loc_perm -> fc7_mbox_loc_perm
I0704 11:35:26.272228 16904 net.cpp:150] Setting up fc7_mbox_loc_perm
I0704 11:35:26.272228 16904 net.cpp:157] Top shape: 2 32 32 24 (49152)
I0704 11:35:26.272228 16904 net.cpp:165] Memory required for data: 1439860832
I0704 11:35:26.272228 16904 layer_factory.hpp:77] Creating layer fc7_mbox_loc_flat
I0704 11:35:26.272228 16904 net.cpp:100] Creating Layer fc7_mbox_loc_flat
I0704 11:35:26.272228 16904 net.cpp:434] fc7_mbox_loc_flat <- fc7_mbox_loc_perm
I0704 11:35:26.272228 16904 net.cpp:408] fc7_mbox_loc_flat -> fc7_mbox_loc_flat
I0704 11:35:26.272228 16904 net.cpp:150] Setting up fc7_mbox_loc_flat
I0704 11:35:26.272228 16904 net.cpp:157] Top shape: 2 24576 (49152)
I0704 11:35:26.272228 16904 net.cpp:165] Memory required for data: 1440057440
I0704 11:35:26.273226 16904 layer_factory.hpp:77] Creating layer fc7_mbox_conf
I0704 11:35:26.273226 16904 net.cpp:100] Creating Layer fc7_mbox_conf
I0704 11:35:26.273226 16904 net.cpp:434] fc7_mbox_conf <- fc7_relu7_0_split_2
I0704 11:35:26.273226 16904 net.cpp:408] fc7_mbox_conf -> fc7_mbox_conf
I0704 11:35:26.277216 16904 net.cpp:150] Setting up fc7_mbox_conf
I0704 11:35:26.277216 16904 net.cpp:157] Top shape: 2 18 32 32 (36864)
I0704 11:35:26.277216 16904 net.cpp:165] Memory required for data: 1440204896
I0704 11:35:26.277216 16904 layer_factory.hpp:77] Creating layer fc7_mbox_conf_perm
I0704 11:35:26.277216 16904 net.cpp:100] Creating Layer fc7_mbox_conf_perm
I0704 11:35:26.277216 16904 net.cpp:434] fc7_mbox_conf_perm <- fc7_mbox_conf
I0704 11:35:26.277216 16904 net.cpp:408] fc7_mbox_conf_perm -> fc7_mbox_conf_perm
I0704 11:35:26.277216 16904 net.cpp:150] Setting up fc7_mbox_conf_perm
I0704 11:35:26.277216 16904 net.cpp:157] Top shape: 2 32 32 18 (36864)
I0704 11:35:26.278213 16904 net.cpp:165] Memory required for data: 1440352352
I0704 11:35:26.278213 16904 layer_factory.hpp:77] Creating layer fc7_mbox_conf_flat
I0704 11:35:26.278213 16904 net.cpp:100] Creating Layer fc7_mbox_conf_flat
I0704 11:35:26.278213 16904 net.cpp:434] fc7_mbox_conf_flat <- fc7_mbox_conf_perm
I0704 11:35:26.278213 16904 net.cpp:408] fc7_mbox_conf_flat -> fc7_mbox_conf_flat
I0704 11:35:26.278213 16904 net.cpp:150] Setting up fc7_mbox_conf_flat
I0704 11:35:26.278213 16904 net.cpp:157] Top shape: 2 18432 (36864)
I0704 11:35:26.278213 16904 net.cpp:165] Memory required for data: 1440499808
I0704 11:35:26.278213 16904 layer_factory.hpp:77] Creating layer fc7_mbox_priorbox
I0704 11:35:26.278213 16904 net.cpp:100] Creating Layer fc7_mbox_priorbox
I0704 11:35:26.278213 16904 net.cpp:434] fc7_mbox_priorbox <- fc7_relu7_0_split_3
I0704 11:35:26.278213 16904 net.cpp:434] fc7_mbox_priorbox <- data_data_0_split_2
I0704 11:35:26.278213 16904 net.cpp:408] fc7_mbox_priorbox -> fc7_mbox_priorbox
I0704 11:35:26.278213 16904 net.cpp:150] Setting up fc7_mbox_priorbox
I0704 11:35:26.278213 16904 net.cpp:157] Top shape: 1 2 24576 (49152)
I0704 11:35:26.278213 16904 net.cpp:165] Memory required for data: 1440696416
I0704 11:35:26.278213 16904 layer_factory.hpp:77] Creating layer conv8_2_mbox_loc
I0704 11:35:26.278213 16904 net.cpp:100] Creating Layer conv8_2_mbox_loc
I0704 11:35:26.278213 16904 net.cpp:434] conv8_2_mbox_loc <- conv8_2_conv8_2_relu_0_split_1
I0704 11:35:26.278213 16904 net.cpp:408] conv8_2_mbox_loc -> conv8_2_mbox_loc
I0704 11:35:26.283198 16904 net.cpp:150] Setting up conv8_2_mbox_loc
I0704 11:35:26.283198 16904 net.cpp:157] Top shape: 2 24 16 16 (12288)
I0704 11:35:26.283198 16904 net.cpp:165] Memory required for data: 1440745568
I0704 11:35:26.283198 16904 layer_factory.hpp:77] Creating layer conv8_2_mbox_loc_perm
I0704 11:35:26.283198 16904 net.cpp:100] Creating Layer conv8_2_mbox_loc_perm
I0704 11:35:26.283198 16904 net.cpp:434] conv8_2_mbox_loc_perm <- conv8_2_mbox_loc
I0704 11:35:26.283198 16904 net.cpp:408] conv8_2_mbox_loc_perm -> conv8_2_mbox_loc_perm
I0704 11:35:26.287194 16904 net.cpp:150] Setting up conv8_2_mbox_loc_perm
I0704 11:35:26.287194 16904 net.cpp:157] Top shape: 2 16 16 24 (12288)
I0704 11:35:26.287194 16904 net.cpp:165] Memory required for data: 1440794720
I0704 11:35:26.287194 16904 layer_factory.hpp:77] Creating layer conv8_2_mbox_loc_flat
I0704 11:35:26.287194 16904 net.cpp:100] Creating Layer conv8_2_mbox_loc_flat
I0704 11:35:26.287194 16904 net.cpp:434] conv8_2_mbox_loc_flat <- conv8_2_mbox_loc_perm
I0704 11:35:26.287194 16904 net.cpp:408] conv8_2_mbox_loc_flat -> conv8_2_mbox_loc_flat
I0704 11:35:26.287194 16904 net.cpp:150] Setting up conv8_2_mbox_loc_flat
I0704 11:35:26.287194 16904 net.cpp:157] Top shape: 2 6144 (12288)
I0704 11:35:26.287194 16904 net.cpp:165] Memory required for data: 1440843872
I0704 11:35:26.287194 16904 layer_factory.hpp:77] Creating layer conv8_2_mbox_conf
I0704 11:35:26.287194 16904 net.cpp:100] Creating Layer conv8_2_mbox_conf
I0704 11:35:26.287194 16904 net.cpp:434] conv8_2_mbox_conf <- conv8_2_conv8_2_relu_0_split_2
I0704 11:35:26.287194 16904 net.cpp:408] conv8_2_mbox_conf -> conv8_2_mbox_conf
I0704 11:35:26.295168 16904 net.cpp:150] Setting up conv8_2_mbox_conf
I0704 11:35:26.296166 16904 net.cpp:157] Top shape: 2 18 16 16 (9216)
I0704 11:35:26.296166 16904 net.cpp:165] Memory required for data: 1440880736
I0704 11:35:26.296166 16904 layer_factory.hpp:77] Creating layer conv8_2_mbox_conf_perm
I0704 11:35:26.296166 16904 net.cpp:100] Creating Layer conv8_2_mbox_conf_perm
I0704 11:35:26.296166 16904 net.cpp:434] conv8_2_mbox_conf_perm <- conv8_2_mbox_conf
I0704 11:35:26.296166 16904 net.cpp:408] conv8_2_mbox_conf_perm -> conv8_2_mbox_conf_perm
I0704 11:35:26.296166 16904 net.cpp:150] Setting up conv8_2_mbox_conf_perm
I0704 11:35:26.296166 16904 net.cpp:157] Top shape: 2 16 16 18 (9216)
I0704 11:35:26.296166 16904 net.cpp:165] Memory required for data: 1440917600
I0704 11:35:26.296166 16904 layer_factory.hpp:77] Creating layer conv8_2_mbox_conf_flat
I0704 11:35:26.296166 16904 net.cpp:100] Creating Layer conv8_2_mbox_conf_flat
I0704 11:35:26.296166 16904 net.cpp:434] conv8_2_mbox_conf_flat <- conv8_2_mbox_conf_perm
I0704 11:35:26.296166 16904 net.cpp:408] conv8_2_mbox_conf_flat -> conv8_2_mbox_conf_flat
I0704 11:35:26.296166 16904 net.cpp:150] Setting up conv8_2_mbox_conf_flat
I0704 11:35:26.296166 16904 net.cpp:157] Top shape: 2 4608 (9216)
I0704 11:35:26.296166 16904 net.cpp:165] Memory required for data: 1440954464
I0704 11:35:26.296166 16904 layer_factory.hpp:77] Creating layer conv8_2_mbox_priorbox
I0704 11:35:26.296166 16904 net.cpp:100] Creating Layer conv8_2_mbox_priorbox
I0704 11:35:26.296166 16904 net.cpp:434] conv8_2_mbox_priorbox <- conv8_2_conv8_2_relu_0_split_3
I0704 11:35:26.296166 16904 net.cpp:434] conv8_2_mbox_priorbox <- data_data_0_split_3
I0704 11:35:26.296166 16904 net.cpp:408] conv8_2_mbox_priorbox -> conv8_2_mbox_priorbox
I0704 11:35:26.296166 16904 net.cpp:150] Setting up conv8_2_mbox_priorbox
I0704 11:35:26.296166 16904 net.cpp:157] Top shape: 1 2 6144 (12288)
I0704 11:35:26.296166 16904 net.cpp:165] Memory required for data: 1441003616
I0704 11:35:26.296166 16904 layer_factory.hpp:77] Creating layer conv9_2_mbox_loc
I0704 11:35:26.296166 16904 net.cpp:100] Creating Layer conv9_2_mbox_loc
I0704 11:35:26.296166 16904 net.cpp:434] conv9_2_mbox_loc <- conv9_2_conv9_2_relu_0_split_1
I0704 11:35:26.296166 16904 net.cpp:408] conv9_2_mbox_loc -> conv9_2_mbox_loc
I0704 11:35:26.304143 16904 net.cpp:150] Setting up conv9_2_mbox_loc
I0704 11:35:26.304143 16904 net.cpp:157] Top shape: 2 24 8 8 (3072)
I0704 11:35:26.304143 16904 net.cpp:165] Memory required for data: 1441015904
I0704 11:35:26.304143 16904 layer_factory.hpp:77] Creating layer conv9_2_mbox_loc_perm
I0704 11:35:26.304143 16904 net.cpp:100] Creating Layer conv9_2_mbox_loc_perm
I0704 11:35:26.304143 16904 net.cpp:434] conv9_2_mbox_loc_perm <- conv9_2_mbox_loc
I0704 11:35:26.304143 16904 net.cpp:408] conv9_2_mbox_loc_perm -> conv9_2_mbox_loc_perm
I0704 11:35:26.304143 16904 net.cpp:150] Setting up conv9_2_mbox_loc_perm
I0704 11:35:26.304143 16904 net.cpp:157] Top shape: 2 8 8 24 (3072)
I0704 11:35:26.304143 16904 net.cpp:165] Memory required for data: 1441028192
I0704 11:35:26.304143 16904 layer_factory.hpp:77] Creating layer conv9_2_mbox_loc_flat
I0704 11:35:26.304143 16904 net.cpp:100] Creating Layer conv9_2_mbox_loc_flat
I0704 11:35:26.304143 16904 net.cpp:434] conv9_2_mbox_loc_flat <- conv9_2_mbox_loc_perm
I0704 11:35:26.304143 16904 net.cpp:408] conv9_2_mbox_loc_flat -> conv9_2_mbox_loc_flat
I0704 11:35:26.305140 16904 net.cpp:150] Setting up conv9_2_mbox_loc_flat
I0704 11:35:26.305140 16904 net.cpp:157] Top shape: 2 1536 (3072)
I0704 11:35:26.305140 16904 net.cpp:165] Memory required for data: 1441040480
I0704 11:35:26.305140 16904 layer_factory.hpp:77] Creating layer conv9_2_mbox_conf
I0704 11:35:26.305140 16904 net.cpp:100] Creating Layer conv9_2_mbox_conf
I0704 11:35:26.305140 16904 net.cpp:434] conv9_2_mbox_conf <- conv9_2_conv9_2_relu_0_split_2
I0704 11:35:26.305140 16904 net.cpp:408] conv9_2_mbox_conf -> conv9_2_mbox_conf
I0704 11:35:26.311125 16904 net.cpp:150] Setting up conv9_2_mbox_conf
I0704 11:35:26.311125 16904 net.cpp:157] Top shape: 2 18 8 8 (2304)
I0704 11:35:26.311125 16904 net.cpp:165] Memory required for data: 1441049696
I0704 11:35:26.311125 16904 layer_factory.hpp:77] Creating layer conv9_2_mbox_conf_perm
I0704 11:35:26.311125 16904 net.cpp:100] Creating Layer conv9_2_mbox_conf_perm
I0704 11:35:26.311125 16904 net.cpp:434] conv9_2_mbox_conf_perm <- conv9_2_mbox_conf
I0704 11:35:26.311125 16904 net.cpp:408] conv9_2_mbox_conf_perm -> conv9_2_mbox_conf_perm
I0704 11:35:26.311125 16904 net.cpp:150] Setting up conv9_2_mbox_conf_perm
I0704 11:35:26.311125 16904 net.cpp:157] Top shape: 2 8 8 18 (2304)
I0704 11:35:26.311125 16904 net.cpp:165] Memory required for data: 1441058912
I0704 11:35:26.312122 16904 layer_factory.hpp:77] Creating layer conv9_2_mbox_conf_flat
I0704 11:35:26.312122 16904 net.cpp:100] Creating Layer conv9_2_mbox_conf_flat
I0704 11:35:26.312122 16904 net.cpp:434] conv9_2_mbox_conf_flat <- conv9_2_mbox_conf_perm
I0704 11:35:26.312122 16904 net.cpp:408] conv9_2_mbox_conf_flat -> conv9_2_mbox_conf_flat
I0704 11:35:26.312122 16904 net.cpp:150] Setting up conv9_2_mbox_conf_flat
I0704 11:35:26.312122 16904 net.cpp:157] Top shape: 2 1152 (2304)
I0704 11:35:26.312122 16904 net.cpp:165] Memory required for data: 1441068128
I0704 11:35:26.312122 16904 layer_factory.hpp:77] Creating layer conv9_2_mbox_priorbox
I0704 11:35:26.312122 16904 net.cpp:100] Creating Layer conv9_2_mbox_priorbox
I0704 11:35:26.312122 16904 net.cpp:434] conv9_2_mbox_priorbox <- conv9_2_conv9_2_relu_0_split_3
I0704 11:35:26.312122 16904 net.cpp:434] conv9_2_mbox_priorbox <- data_data_0_split_4
I0704 11:35:26.312122 16904 net.cpp:408] conv9_2_mbox_priorbox -> conv9_2_mbox_priorbox
I0704 11:35:26.312122 16904 net.cpp:150] Setting up conv9_2_mbox_priorbox
I0704 11:35:26.312122 16904 net.cpp:157] Top shape: 1 2 1536 (3072)
I0704 11:35:26.312122 16904 net.cpp:165] Memory required for data: 1441080416
I0704 11:35:26.312122 16904 layer_factory.hpp:77] Creating layer conv10_2_mbox_loc
I0704 11:35:26.312122 16904 net.cpp:100] Creating Layer conv10_2_mbox_loc
I0704 11:35:26.312122 16904 net.cpp:434] conv10_2_mbox_loc <- conv10_2_conv10_2_relu_0_split_1
I0704 11:35:26.312122 16904 net.cpp:408] conv10_2_mbox_loc -> conv10_2_mbox_loc
I0704 11:35:26.324092 16904 net.cpp:150] Setting up conv10_2_mbox_loc
I0704 11:35:26.324092 16904 net.cpp:157] Top shape: 2 24 4 4 (768)
I0704 11:35:26.324092 16904 net.cpp:165] Memory required for data: 1441083488
I0704 11:35:26.324092 16904 layer_factory.hpp:77] Creating layer conv10_2_mbox_loc_perm
I0704 11:35:26.324092 16904 net.cpp:100] Creating Layer conv10_2_mbox_loc_perm
I0704 11:35:26.324092 16904 net.cpp:434] conv10_2_mbox_loc_perm <- conv10_2_mbox_loc
I0704 11:35:26.324092 16904 net.cpp:408] conv10_2_mbox_loc_perm -> conv10_2_mbox_loc_perm
I0704 11:35:26.324092 16904 net.cpp:150] Setting up conv10_2_mbox_loc_perm
I0704 11:35:26.324092 16904 net.cpp:157] Top shape: 2 4 4 24 (768)
I0704 11:35:26.324092 16904 net.cpp:165] Memory required for data: 1441086560
I0704 11:35:26.324092 16904 layer_factory.hpp:77] Creating layer conv10_2_mbox_loc_flat
I0704 11:35:26.324092 16904 net.cpp:100] Creating Layer conv10_2_mbox_loc_flat
I0704 11:35:26.324092 16904 net.cpp:434] conv10_2_mbox_loc_flat <- conv10_2_mbox_loc_perm
I0704 11:35:26.324092 16904 net.cpp:408] conv10_2_mbox_loc_flat -> conv10_2_mbox_loc_flat
I0704 11:35:26.324092 16904 net.cpp:150] Setting up conv10_2_mbox_loc_flat
I0704 11:35:26.324092 16904 net.cpp:157] Top shape: 2 384 (768)
I0704 11:35:26.324092 16904 net.cpp:165] Memory required for data: 1441089632
I0704 11:35:26.324092 16904 layer_factory.hpp:77] Creating layer conv10_2_mbox_conf
I0704 11:35:26.324092 16904 net.cpp:100] Creating Layer conv10_2_mbox_conf
I0704 11:35:26.324092 16904 net.cpp:434] conv10_2_mbox_conf <- conv10_2_conv10_2_relu_0_split_2
I0704 11:35:26.324092 16904 net.cpp:408] conv10_2_mbox_conf -> conv10_2_mbox_conf
I0704 11:35:26.331071 16904 net.cpp:150] Setting up conv10_2_mbox_conf
I0704 11:35:26.331071 16904 net.cpp:157] Top shape: 2 18 4 4 (576)
I0704 11:35:26.331071 16904 net.cpp:165] Memory required for data: 1441091936
I0704 11:35:26.331071 16904 layer_factory.hpp:77] Creating layer conv10_2_mbox_conf_perm
I0704 11:35:26.331071 16904 net.cpp:100] Creating Layer conv10_2_mbox_conf_perm
I0704 11:35:26.331071 16904 net.cpp:434] conv10_2_mbox_conf_perm <- conv10_2_mbox_conf
I0704 11:35:26.331071 16904 net.cpp:408] conv10_2_mbox_conf_perm -> conv10_2_mbox_conf_perm
I0704 11:35:26.331071 16904 net.cpp:150] Setting up conv10_2_mbox_conf_perm
I0704 11:35:26.331071 16904 net.cpp:157] Top shape: 2 4 4 18 (576)
I0704 11:35:26.331071 16904 net.cpp:165] Memory required for data: 1441094240
I0704 11:35:26.331071 16904 layer_factory.hpp:77] Creating layer conv10_2_mbox_conf_flat
I0704 11:35:26.331071 16904 net.cpp:100] Creating Layer conv10_2_mbox_conf_flat
I0704 11:35:26.331071 16904 net.cpp:434] conv10_2_mbox_conf_flat <- conv10_2_mbox_conf_perm
I0704 11:35:26.331071 16904 net.cpp:408] conv10_2_mbox_conf_flat -> conv10_2_mbox_conf_flat
I0704 11:35:26.331071 16904 net.cpp:150] Setting up conv10_2_mbox_conf_flat
I0704 11:35:26.331071 16904 net.cpp:157] Top shape: 2 288 (576)
I0704 11:35:26.331071 16904 net.cpp:165] Memory required for data: 1441096544
I0704 11:35:26.331071 16904 layer_factory.hpp:77] Creating layer conv10_2_mbox_priorbox
I0704 11:35:26.331071 16904 net.cpp:100] Creating Layer conv10_2_mbox_priorbox
I0704 11:35:26.331071 16904 net.cpp:434] conv10_2_mbox_priorbox <- conv10_2_conv10_2_relu_0_split_3
I0704 11:35:26.331071 16904 net.cpp:434] conv10_2_mbox_priorbox <- data_data_0_split_5
I0704 11:35:26.332068 16904 net.cpp:408] conv10_2_mbox_priorbox -> conv10_2_mbox_priorbox
I0704 11:35:26.332068 16904 net.cpp:150] Setting up conv10_2_mbox_priorbox
I0704 11:35:26.332068 16904 net.cpp:157] Top shape: 1 2 384 (768)
I0704 11:35:26.332068 16904 net.cpp:165] Memory required for data: 1441099616
I0704 11:35:26.332068 16904 layer_factory.hpp:77] Creating layer conv11_2_mbox_loc
I0704 11:35:26.332068 16904 net.cpp:100] Creating Layer conv11_2_mbox_loc
I0704 11:35:26.332068 16904 net.cpp:434] conv11_2_mbox_loc <- conv11_2_conv11_2_relu_0_split_1
I0704 11:35:26.332068 16904 net.cpp:408] conv11_2_mbox_loc -> conv11_2_mbox_loc
I0704 11:35:26.340047 16904 net.cpp:150] Setting up conv11_2_mbox_loc
I0704 11:35:26.340047 16904 net.cpp:157] Top shape: 2 16 2 2 (128)
I0704 11:35:26.340047 16904 net.cpp:165] Memory required for data: 1441100128
I0704 11:35:26.340047 16904 layer_factory.hpp:77] Creating layer conv11_2_mbox_loc_perm
I0704 11:35:26.340047 16904 net.cpp:100] Creating Layer conv11_2_mbox_loc_perm
I0704 11:35:26.340047 16904 net.cpp:434] conv11_2_mbox_loc_perm <- conv11_2_mbox_loc
I0704 11:35:26.340047 16904 net.cpp:408] conv11_2_mbox_loc_perm -> conv11_2_mbox_loc_perm
I0704 11:35:26.340047 16904 net.cpp:150] Setting up conv11_2_mbox_loc_perm
I0704 11:35:26.340047 16904 net.cpp:157] Top shape: 2 2 2 16 (128)
I0704 11:35:26.340047 16904 net.cpp:165] Memory required for data: 1441100640
I0704 11:35:26.340047 16904 layer_factory.hpp:77] Creating layer conv11_2_mbox_loc_flat
I0704 11:35:26.340047 16904 net.cpp:100] Creating Layer conv11_2_mbox_loc_flat
I0704 11:35:26.340047 16904 net.cpp:434] conv11_2_mbox_loc_flat <- conv11_2_mbox_loc_perm
I0704 11:35:26.340047 16904 net.cpp:408] conv11_2_mbox_loc_flat -> conv11_2_mbox_loc_flat
I0704 11:35:26.340047 16904 net.cpp:150] Setting up conv11_2_mbox_loc_flat
I0704 11:35:26.340047 16904 net.cpp:157] Top shape: 2 64 (128)
I0704 11:35:26.340047 16904 net.cpp:165] Memory required for data: 1441101152
I0704 11:35:26.340047 16904 layer_factory.hpp:77] Creating layer conv11_2_mbox_conf
I0704 11:35:26.341044 16904 net.cpp:100] Creating Layer conv11_2_mbox_conf
I0704 11:35:26.341044 16904 net.cpp:434] conv11_2_mbox_conf <- conv11_2_conv11_2_relu_0_split_2
I0704 11:35:26.341044 16904 net.cpp:408] conv11_2_mbox_conf -> conv11_2_mbox_conf
I0704 11:35:26.344036 16904 net.cpp:150] Setting up conv11_2_mbox_conf
I0704 11:35:26.344036 16904 net.cpp:157] Top shape: 2 12 2 2 (96)
I0704 11:35:26.344036 16904 net.cpp:165] Memory required for data: 1441101536
I0704 11:35:26.345033 16904 layer_factory.hpp:77] Creating layer conv11_2_mbox_conf_perm
I0704 11:35:26.345033 16904 net.cpp:100] Creating Layer conv11_2_mbox_conf_perm
I0704 11:35:26.345033 16904 net.cpp:434] conv11_2_mbox_conf_perm <- conv11_2_mbox_conf
I0704 11:35:26.345033 16904 net.cpp:408] conv11_2_mbox_conf_perm -> conv11_2_mbox_conf_perm
I0704 11:35:26.345033 16904 net.cpp:150] Setting up conv11_2_mbox_conf_perm
I0704 11:35:26.345033 16904 net.cpp:157] Top shape: 2 2 2 12 (96)
I0704 11:35:26.345033 16904 net.cpp:165] Memory required for data: 1441101920
I0704 11:35:26.345033 16904 layer_factory.hpp:77] Creating layer conv11_2_mbox_conf_flat
I0704 11:35:26.345033 16904 net.cpp:100] Creating Layer conv11_2_mbox_conf_flat
I0704 11:35:26.345033 16904 net.cpp:434] conv11_2_mbox_conf_flat <- conv11_2_mbox_conf_perm
I0704 11:35:26.345033 16904 net.cpp:408] conv11_2_mbox_conf_flat -> conv11_2_mbox_conf_flat
I0704 11:35:26.345033 16904 net.cpp:150] Setting up conv11_2_mbox_conf_flat
I0704 11:35:26.345033 16904 net.cpp:157] Top shape: 2 48 (96)
I0704 11:35:26.345033 16904 net.cpp:165] Memory required for data: 1441102304
I0704 11:35:26.345033 16904 layer_factory.hpp:77] Creating layer conv11_2_mbox_priorbox
I0704 11:35:26.345033 16904 net.cpp:100] Creating Layer conv11_2_mbox_priorbox
I0704 11:35:26.345033 16904 net.cpp:434] conv11_2_mbox_priorbox <- conv11_2_conv11_2_relu_0_split_3
I0704 11:35:26.345033 16904 net.cpp:434] conv11_2_mbox_priorbox <- data_data_0_split_6
I0704 11:35:26.345033 16904 net.cpp:408] conv11_2_mbox_priorbox -> conv11_2_mbox_priorbox
I0704 11:35:26.345033 16904 net.cpp:150] Setting up conv11_2_mbox_priorbox
I0704 11:35:26.345033 16904 net.cpp:157] Top shape: 1 2 64 (128)
I0704 11:35:26.345033 16904 net.cpp:165] Memory required for data: 1441102816
I0704 11:35:26.345033 16904 layer_factory.hpp:77] Creating layer conv12_2_mbox_loc
I0704 11:35:26.345033 16904 net.cpp:100] Creating Layer conv12_2_mbox_loc
I0704 11:35:26.345033 16904 net.cpp:434] conv12_2_mbox_loc <- conv12_2_conv12_2_relu_0_split_0
I0704 11:35:26.345033 16904 net.cpp:408] conv12_2_mbox_loc -> conv12_2_mbox_loc
I0704 11:35:26.350020 16904 net.cpp:150] Setting up conv12_2_mbox_loc
I0704 11:35:26.350020 16904 net.cpp:157] Top shape: 2 16 1 1 (32)
I0704 11:35:26.350020 16904 net.cpp:165] Memory required for data: 1441102944
I0704 11:35:26.350020 16904 layer_factory.hpp:77] Creating layer conv12_2_mbox_loc_perm
I0704 11:35:26.350020 16904 net.cpp:100] Creating Layer conv12_2_mbox_loc_perm
I0704 11:35:26.350020 16904 net.cpp:434] conv12_2_mbox_loc_perm <- conv12_2_mbox_loc
I0704 11:35:26.350020 16904 net.cpp:408] conv12_2_mbox_loc_perm -> conv12_2_mbox_loc_perm
I0704 11:35:26.350020 16904 net.cpp:150] Setting up conv12_2_mbox_loc_perm
I0704 11:35:26.350020 16904 net.cpp:157] Top shape: 2 1 1 16 (32)
I0704 11:35:26.350020 16904 net.cpp:165] Memory required for data: 1441103072
I0704 11:35:26.350020 16904 layer_factory.hpp:77] Creating layer conv12_2_mbox_loc_flat
I0704 11:35:26.350020 16904 net.cpp:100] Creating Layer conv12_2_mbox_loc_flat
I0704 11:35:26.350020 16904 net.cpp:434] conv12_2_mbox_loc_flat <- conv12_2_mbox_loc_perm
I0704 11:35:26.350020 16904 net.cpp:408] conv12_2_mbox_loc_flat -> conv12_2_mbox_loc_flat
I0704 11:35:26.350020 16904 net.cpp:150] Setting up conv12_2_mbox_loc_flat
I0704 11:35:26.350020 16904 net.cpp:157] Top shape: 2 16 (32)
I0704 11:35:26.350020 16904 net.cpp:165] Memory required for data: 1441103200
I0704 11:35:26.350020 16904 layer_factory.hpp:77] Creating layer conv12_2_mbox_conf
I0704 11:35:26.350020 16904 net.cpp:100] Creating Layer conv12_2_mbox_conf
I0704 11:35:26.350020 16904 net.cpp:434] conv12_2_mbox_conf <- conv12_2_conv12_2_relu_0_split_1
I0704 11:35:26.350020 16904 net.cpp:408] conv12_2_mbox_conf -> conv12_2_mbox_conf
I0704 11:35:26.358000 16904 net.cpp:150] Setting up conv12_2_mbox_conf
I0704 11:35:26.358000 16904 net.cpp:157] Top shape: 2 12 1 1 (24)
I0704 11:35:26.358000 16904 net.cpp:165] Memory required for data: 1441103296
I0704 11:35:26.358000 16904 layer_factory.hpp:77] Creating layer conv12_2_mbox_conf_perm
I0704 11:35:26.358000 16904 net.cpp:100] Creating Layer conv12_2_mbox_conf_perm
I0704 11:35:26.358000 16904 net.cpp:434] conv12_2_mbox_conf_perm <- conv12_2_mbox_conf
I0704 11:35:26.358000 16904 net.cpp:408] conv12_2_mbox_conf_perm -> conv12_2_mbox_conf_perm
I0704 11:35:26.358000 16904 net.cpp:150] Setting up conv12_2_mbox_conf_perm
I0704 11:35:26.358000 16904 net.cpp:157] Top shape: 2 1 1 12 (24)
I0704 11:35:26.358000 16904 net.cpp:165] Memory required for data: 1441103392
I0704 11:35:26.358000 16904 layer_factory.hpp:77] Creating layer conv12_2_mbox_conf_flat
I0704 11:35:26.358000 16904 net.cpp:100] Creating Layer conv12_2_mbox_conf_flat
I0704 11:35:26.358997 16904 net.cpp:434] conv12_2_mbox_conf_flat <- conv12_2_mbox_conf_perm
I0704 11:35:26.358997 16904 net.cpp:408] conv12_2_mbox_conf_flat -> conv12_2_mbox_conf_flat
I0704 11:35:26.358997 16904 net.cpp:150] Setting up conv12_2_mbox_conf_flat
I0704 11:35:26.358997 16904 net.cpp:157] Top shape: 2 12 (24)
I0704 11:35:26.358997 16904 net.cpp:165] Memory required for data: 1441103488
I0704 11:35:26.358997 16904 layer_factory.hpp:77] Creating layer conv12_2_mbox_priorbox
I0704 11:35:26.358997 16904 net.cpp:100] Creating Layer conv12_2_mbox_priorbox
I0704 11:35:26.358997 16904 net.cpp:434] conv12_2_mbox_priorbox <- conv12_2_conv12_2_relu_0_split_2
I0704 11:35:26.358997 16904 net.cpp:434] conv12_2_mbox_priorbox <- data_data_0_split_7
I0704 11:35:26.358997 16904 net.cpp:408] conv12_2_mbox_priorbox -> conv12_2_mbox_priorbox
I0704 11:35:26.358997 16904 net.cpp:150] Setting up conv12_2_mbox_priorbox
I0704 11:35:26.358997 16904 net.cpp:157] Top shape: 1 2 16 (32)
I0704 11:35:26.358997 16904 net.cpp:165] Memory required for data: 1441103616
I0704 11:35:26.358997 16904 layer_factory.hpp:77] Creating layer mbox_loc
I0704 11:35:26.358997 16904 net.cpp:100] Creating Layer mbox_loc
I0704 11:35:26.358997 16904 net.cpp:434] mbox_loc <- conv4_3_norm_mbox_loc_flat
I0704 11:35:26.358997 16904 net.cpp:434] mbox_loc <- fc7_mbox_loc_flat
I0704 11:35:26.358997 16904 net.cpp:434] mbox_loc <- conv8_2_mbox_loc_flat
I0704 11:35:26.358997 16904 net.cpp:434] mbox_loc <- conv9_2_mbox_loc_flat
I0704 11:35:26.358997 16904 net.cpp:434] mbox_loc <- conv10_2_mbox_loc_flat
I0704 11:35:26.358997 16904 net.cpp:434] mbox_loc <- conv11_2_mbox_loc_flat
I0704 11:35:26.358997 16904 net.cpp:434] mbox_loc <- conv12_2_mbox_loc_flat
I0704 11:35:26.358997 16904 net.cpp:408] mbox_loc -> mbox_loc
I0704 11:35:26.358997 16904 net.cpp:150] Setting up mbox_loc
I0704 11:35:26.358997 16904 net.cpp:157] Top shape: 2 98256 (196512)
I0704 11:35:26.358997 16904 net.cpp:165] Memory required for data: 1441889664
I0704 11:35:26.358997 16904 layer_factory.hpp:77] Creating layer mbox_conf
I0704 11:35:26.358997 16904 net.cpp:100] Creating Layer mbox_conf
I0704 11:35:26.358997 16904 net.cpp:434] mbox_conf <- conv4_3_norm_mbox_conf_flat
I0704 11:35:26.358997 16904 net.cpp:434] mbox_conf <- fc7_mbox_conf_flat
I0704 11:35:26.358997 16904 net.cpp:434] mbox_conf <- conv8_2_mbox_conf_flat
I0704 11:35:26.358997 16904 net.cpp:434] mbox_conf <- conv9_2_mbox_conf_flat
I0704 11:35:26.358997 16904 net.cpp:434] mbox_conf <- conv10_2_mbox_conf_flat
I0704 11:35:26.358997 16904 net.cpp:434] mbox_conf <- conv11_2_mbox_conf_flat
I0704 11:35:26.358997 16904 net.cpp:434] mbox_conf <- conv12_2_mbox_conf_flat
I0704 11:35:26.358997 16904 net.cpp:408] mbox_conf -> mbox_conf
I0704 11:35:26.358997 16904 net.cpp:150] Setting up mbox_conf
I0704 11:35:26.358997 16904 net.cpp:157] Top shape: 2 73692 (147384)
I0704 11:35:26.358997 16904 net.cpp:165] Memory required for data: 1442479200
I0704 11:35:26.358997 16904 layer_factory.hpp:77] Creating layer mbox_priorbox
I0704 11:35:26.358997 16904 net.cpp:100] Creating Layer mbox_priorbox
I0704 11:35:26.358997 16904 net.cpp:434] mbox_priorbox <- conv4_3_norm_mbox_priorbox
I0704 11:35:26.358997 16904 net.cpp:434] mbox_priorbox <- fc7_mbox_priorbox
I0704 11:35:26.358997 16904 net.cpp:434] mbox_priorbox <- conv8_2_mbox_priorbox
I0704 11:35:26.358997 16904 net.cpp:434] mbox_priorbox <- conv9_2_mbox_priorbox
I0704 11:35:26.358997 16904 net.cpp:434] mbox_priorbox <- conv10_2_mbox_priorbox
I0704 11:35:26.358997 16904 net.cpp:434] mbox_priorbox <- conv11_2_mbox_priorbox
I0704 11:35:26.358997 16904 net.cpp:434] mbox_priorbox <- conv12_2_mbox_priorbox
I0704 11:35:26.359995 16904 net.cpp:408] mbox_priorbox -> mbox_priorbox
I0704 11:35:26.359995 16904 net.cpp:150] Setting up mbox_priorbox
I0704 11:35:26.359995 16904 net.cpp:157] Top shape: 1 2 98256 (196512)
I0704 11:35:26.359995 16904 net.cpp:165] Memory required for data: 1443265248
I0704 11:35:26.359995 16904 layer_factory.hpp:77] Creating layer mbox_conf_reshape
I0704 11:35:26.359995 16904 net.cpp:100] Creating Layer mbox_conf_reshape
I0704 11:35:26.359995 16904 net.cpp:434] mbox_conf_reshape <- mbox_conf
I0704 11:35:26.359995 16904 net.cpp:408] mbox_conf_reshape -> mbox_conf_reshape
I0704 11:35:26.359995 16904 net.cpp:150] Setting up mbox_conf_reshape
I0704 11:35:26.359995 16904 net.cpp:157] Top shape: 2 24564 3 (147384)
I0704 11:35:26.359995 16904 net.cpp:165] Memory required for data: 1443854784
I0704 11:35:26.359995 16904 layer_factory.hpp:77] Creating layer mbox_conf_softmax
I0704 11:35:26.359995 16904 net.cpp:100] Creating Layer mbox_conf_softmax
I0704 11:35:26.359995 16904 net.cpp:434] mbox_conf_softmax <- mbox_conf_reshape
I0704 11:35:26.359995 16904 net.cpp:408] mbox_conf_softmax -> mbox_conf_softmax
I0704 11:35:26.360991 16904 net.cpp:150] Setting up mbox_conf_softmax
I0704 11:35:26.360991 16904 net.cpp:157] Top shape: 2 24564 3 (147384)
I0704 11:35:26.360991 16904 net.cpp:165] Memory required for data: 1444444320
I0704 11:35:26.360991 16904 layer_factory.hpp:77] Creating layer mbox_conf_flatten
I0704 11:35:26.360991 16904 net.cpp:100] Creating Layer mbox_conf_flatten
I0704 11:35:26.360991 16904 net.cpp:434] mbox_conf_flatten <- mbox_conf_softmax
I0704 11:35:26.360991 16904 net.cpp:408] mbox_conf_flatten -> mbox_conf_flatten
I0704 11:35:26.360991 16904 net.cpp:150] Setting up mbox_conf_flatten
I0704 11:35:26.360991 16904 net.cpp:157] Top shape: 2 73692 (147384)
I0704 11:35:26.360991 16904 net.cpp:165] Memory required for data: 1445033856
I0704 11:35:26.360991 16904 layer_factory.hpp:77] Creating layer detection_out
I0704 11:35:26.360991 16904 net.cpp:100] Creating Layer detection_out
I0704 11:35:26.360991 16904 net.cpp:434] detection_out <- mbox_loc
I0704 11:35:26.360991 16904 net.cpp:434] detection_out <- mbox_conf_flatten
I0704 11:35:26.360991 16904 net.cpp:434] detection_out <- mbox_priorbox
I0704 11:35:26.360991 16904 net.cpp:408] detection_out -> detection_out
W0704 11:35:26.360991 16904 detection_output_layer.cpp:49] Failed to create directory: data\wastedata\results\SSD_512x512\Main
I0704 11:35:26.363983 16904 net.cpp:150] Setting up detection_out
I0704 11:35:26.363983 16904 net.cpp:157] Top shape: 1 1 1 7 (7)
I0704 11:35:26.363983 16904 net.cpp:165] Memory required for data: 1445033884
I0704 11:35:26.363983 16904 layer_factory.hpp:77] Creating layer detection_eval
I0704 11:35:26.363983 16904 net.cpp:100] Creating Layer detection_eval
I0704 11:35:26.363983 16904 net.cpp:434] detection_eval <- detection_out
I0704 11:35:26.363983 16904 net.cpp:434] detection_eval <- label
I0704 11:35:26.363983 16904 net.cpp:408] detection_eval -> detection_eval
I0704 11:35:26.365978 16904 net.cpp:150] Setting up detection_eval
I0704 11:35:26.365978 16904 net.cpp:157] Top shape: 1 1 3 5 (15)
I0704 11:35:26.365978 16904 net.cpp:165] Memory required for data: 1445033944
I0704 11:35:26.365978 16904 net.cpp:228] detection_eval does not need backward computation.
I0704 11:35:26.365978 16904 net.cpp:228] detection_out does not need backward computation.
I0704 11:35:26.365978 16904 net.cpp:228] mbox_conf_flatten does not need backward computation.
I0704 11:35:26.365978 16904 net.cpp:228] mbox_conf_softmax does not need backward computation.
…
