…
      sampler {
        min_scale: 0.3
        max_scale: 1
        min_aspect_ratio: 0.5
        max_aspect_ratio: 2
      }
      sample_constraint {
        min_jaccard_overlap: 0.9
      }
      max_sample: 1
      max_trials: 50
    }
    batch_sampler {
      sampler {
        min_scale: 0.3
        max_scale: 1
        min_aspect_ratio: 0.5
        max_aspect_ratio: 2
      }
      sample_constraint {
        max_jaccard_overlap: 1
      }
      max_sample: 1
      max_trials: 50
    }
    label_map_file: "data\\wastedata\\labelmap_waste.prototxt"
  }
}
layer {
  name: "conv1_1"
  type: "Convolution"
  bottom: "data"
  top: "conv1_1"
  param {
    lr_mult: 1
    decay_mult: 1
  }
  param {
    lr_mult: 2
    decay_mult: 0
  }
  convolution_param {
    num_output: 64
    pad: 1
    kernel_size: 3
    weight_filler {
      type: "xavier"
    }
    bias_filler {
      type: "constant"
      value: 0
    }
  }
}
layer {
  name: "relu1_1"
  type: "ReLU"
  bottom: "conv1_1"
  top: "conv1_1"
}
layer {
  name: "conv1_2"
  type: "Convolution"
  bottom: "conv1_1"
  top: "conv1_2"
  param {
    lr_mult: 1
    decay_mult: 1
  }
  param {
    lr_mult: 2
    decay_mult: 0
  }
  convolution_param {
    num_output: 64
    pad: 1
    kernel_size: 3
    weight_filler {
      type: "xavier"
    }
    bias_filler {
      type: "constant"
      value: 0
    }
  }
}
layer {
  name: "relu1_2"
  type: "ReLU"
  bottom: "conv1_2"
  top: "conv1_2"
}
layer {
  name: "pool1"
  type: "Pooling"
  bottom: "conv1_2"
  top: "pool1"
  pooling_param {
    pool: MAX
    kernel_size: 2
    stride: 2
  }
}
layer {
  name: "conv2_1"
  type: "Convolution"
  bottom: "pool1"
  top: "conv2_1"
  param {
    lr_mult: 1
    decay_mult: 1
  }
  param {
    lr_mult: 2
    decay_mult: 0
  }
  convolution_param {
    num_output: 128
    pad: 1
    kernel_size: 3
    weight_filler {
      type: "xavier"
    }
    bias_filler {
      type: "constant"
      value: 0
    }
  }
}
layer {
  name: "relu2_1"
  type: "ReLU"
  bottom: "conv2_1"
  top: "conv2_1"
}
layer {
  name: "conv2_2"
  type: "Convolution"
  bottom: "conv2_1"
  top: "conv2_2"
  param {
    lr_mult: 1
    decay_mult: 1
  }
  param {
    lr_mult: 2
    decay_mult: 0
  }
  convolution_param {
    num_output: 128
    pad: 1
    kernel_size: 3
    weight_filler {
      type: "xavier"
    }
    bias_filler {
      type: "constant"
      value: 0
    }
  }
}
layer {
  name: "relu2_2"
  type: "ReLU"
  bottom: "conv2_2"
  top: "conv2_2"
}
layer {
  name: "pool2"
  type: "Pooling"
  bottom: "conv2_2"
  top: "pool2"
  pooling_param {
    pool: MAX
    kernel_size: 2
    stride: 2
  }
}
layer {
  name: "conv3_1"
  type: "Convolution"
  bottom: "pool2"
  top: "conv3_1"
  param {
    lr_mult: 1
    decay_mult: 1
  }
  param {
    lr_mult: 2
    decay_mult: 0
  }
  convolution_param {
    num_output: 256
    pad: 1
    kernel_size: 3
    weight_filler {
      type: "xavier"
    }
    bias_filler {
      type: "constant"
      value: 0
    }
  }
}
layer {
  name: "relu3_1"
  type: "ReLU"
  bottom: "conv3_1"
  top: "conv3_1"
}
layer {
  name: "conv3_2"
  type: "Convolution"
  bottom: "conv3_1"
  top: "conv3_2"
  param {
    lr_mult: 1
    decay_mult: 1
  }
  param {
    lr_mult: 2
    decay_mult: 0
  }
  convolution_param {
    num_output: 256
    pad: 1
    kernel_size: 3
    weight_filler {
      type: "xavier"
    }
    bias_filler {
      type: "constant"
      value: 0
    }
  }
}
layer {
  name: "relu3_2"
  type: "ReLU"
  bottom: "conv3_2"
  top: "conv3_2"
}
layer {
  name: "conv3_3"
  type: "Convolution"
  bottom: "conv3_2"
  top: "conv3_3"
  param {
    lr_mult: 1
    decay_mult: 1
  }
  param {
    lr_mult: 2
    decay_mult: 0
  }
  convolution_param {
    num_output: 256
    pad: 1
    kernel_size: 3
    weight_filler {
      type: "xavier"
    }
    bias_filler {
      type: "constant"
      value: 0
    }
  }
}
layer {
  name: "relu3_3"
  type: "ReLU"
  bottom: "conv3_3"
  top: "conv3_3"
}
layer {
  name: "pool3"
  type: "Pooling"
  bottom: "conv3_3"
  top: "pool3"
  pooling_param {
    pool: MAX
    kernel_size: 2
    stride: 2
  }
}
layer {
  name: "conv4_1"
  type: "Convolution"
  bottom: "pool3"
  top: "conv4_1"
  param {
    lr_mult: 1
    decay_mult: 1
  }
  param {
    lr_mult: 2
    decay_mult: 0
  }
  convolution_param {
    num_output: 512
    pad: 1
    kernel_size: 3
    weight_filler {
      type: "xavier"
    }
    bias_filler {
      type: "constant"
      value: 0
    }
  }
}
layer {
  name: "relu4_1"
  type: "ReLU"
  bottom: "conv4_1"
  top: "conv4_1"
}
layer {
  name: "conv4_2"
  type: "Convolution"
  bottom: "conv4_1"
  top: "conv4_2"
  param {
    lr_mult: 1
    decay_mult: 1
  }
  param {
    lr_mult: 2
    decay_mult: 0
  }
  convolution_param {
    num_output: 512
    pad: 1
    kernel_size: 3
    weight_filler {
      type: "xavier"
    }
    bias_filler {
      type: "constant"
      value: 0
    }
  }
}
layer {
  name: "relu4_2"
  type: "ReLU"
  bottom: "conv4_2"
  top: "conv4_2"
}
layer {
  name: "conv4_3"
  type: "Convolution"
  bottom: "conv4_2"
  top: "conv4_3"
  param {
    lr_mult: 1
    decay_mult: 1
  }
  param {
    lr_mult: 2
    decay_mult: 0
  }
  convolution_param {
    num_output: 512
    pad: 1
    kernel_size: 3
    weight_filler {
      type: "xavier"
    }
    bias_filler {
      type: "constant"
      value: 0
    }
  }
}
layer {
  name: "relu4_3"
  type: "ReLU"
  bottom: "conv4_3"
  top: "conv4_3"
}
layer {
  name: "pool4"
  type: "Pooling"
  bottom: "conv4_3"
  top: "pool4"
  pooling_param {
    pool: MAX
    kernel_size: 2
    stride: 2
  }
}
layer {
  name: "conv5_1"
  type: "Convolution"
  bottom: "pool4"
  top: "conv5_1"
  param {
    lr_mult: 1
    decay_mult: 1
  }
  param {
    lr_mult: 2
    decay_mult: 0
  }
  convolution_param {
    num_output: 512
    pad: 1
    kernel_size: 3
    weight_filler {
      type: "xavier"
    }
    bias_filler {
      type: "constant"
      value: 0
    }
    dilation: 1
  }
}
layer {
  name: "relu5_1"
  type: "ReLU"
  bottom: "conv5_1"
  top: "conv5_1"
}
layer {
  name: "conv5_2"
  type: "Convolution"
  bottom: "conv5_1"
  top: "conv5_2"
  param {
    lr_mult: 1
    decay_mult: 1
  }
  param {
    lr_mult: 2
    decay_mult: 0
  }
  convolution_param {
    num_output: 512
    pad: 1
    kernel_size: 3
    weight_filler {
      type: "xavier"
    }
    bias_filler {
      type: "constant"
      value: 0
    }
    dilation: 1
  }
}
layer {
  name: "relu5_2"
  type: "ReLU"
  bottom: "conv5_2"
  top: "conv5_2"
}
layer {
  name: "conv5_3"
  type: "Convolution"
  bottom: "conv5_2"
  top: "conv5_3"
  param {
    lr_mult: 1
    decay_mult: 1
  }
  param {
    lr_mult: 2
    decay_mult: 0
  }
  convolution_param {
    num_output: 512
    pad: 1
    kernel_size: 3
    weight_filler {
      type: "xavier"
    }
    bias_filler {
      type: "constant"
      value: 0
    }
    dilation: 1
  }
}
layer {
  name: "relu5_3"
  type: "ReLU"
  bottom: "conv5_3"
  top: "conv5_3"
}
layer {
  name: "pool5"
  type: "Pooling"
  bottom: "conv5_3"
  top: "pool5"
  pooling_param {
    pool: MAX
    kernel_size: 3
    stride: 1
    pad: 1
  }
}
layer {
  name: "fc6"
  type: "Convolution"
  bottom: "pool5"
  top: "fc6"
  param {
    lr_mult: 1
    decay_mult: 1
  }
  param {
    lr_mult: 2
    decay_mult: 0
  }
  convolution_param {
    num_output: 1024
    pad: 6
    kernel_size: 3
    weight_filler {
      type: "xavier"
    }
    bias_filler {
      type: "constant"
      value: 0
    }
    dilation: 6
  }
}
layer {
  name: "relu6"
  type: "ReLU"
  bottom: "fc6"
  top: "fc6"
}
layer {
  name: "fc7"
  type: "Convolution"
  bottom: "fc6"
  top: "fc7"
  param {
    lr_mult: 1
    decay_mult: 1
  }
  param {
    lr_mult: 2
    decay_mult: 0
  }
  convolution_param {
    num_output: 1024
    kernel_size: 1
    weight_filler {
      type: "xavier"
    }
    bias_filler {
      type: "constant"
      value: 0
    }
  }
}
layer {
  name: "relu7"
  type: "ReLU"
  bottom: "fc7"
  top: "fc7"
}
layer {
  name: "conv8_1"
  type: "Convolution"
  bottom: "fc7"
  top: "conv8_1"
  param {
    lr_mult: 1
    decay_mult: 1
  }
  param {
    lr_mult: 2
    decay_mult: 0
  }
  convolution_param {
    num_output: 256
    pad: 0
    kernel_size: 1
    stride: 1
    weight_filler {
      type: "xavier"
    }
    bias_filler {
      type: "constant"
      value: 0
    }
  }
}
layer {
  name: "conv8_1_relu"
  type: "ReLU"
  bottom: "conv8_1"
  top: "conv8_1"
}
layer {
  name: "conv8_2"
  type: "Convolution"
  bottom: "conv8_1"
  top: "conv8_2"
  param {
    lr_mult: 1
    decay_mult: 1
  }
  param {
    lr_mult: 2
    decay_mult: 0
  }
  convolution_param {
    num_output: 512
    pad: 1
    kernel_size: 3
    stride: 2
    weight_filler {
      type: "xavier"
    }
    bias_filler {
      type: "constant"
      value: 0
    }
  }
}
layer {
  name: "conv8_2_relu"
  type: "ReLU"
  bottom: "conv8_2"
  top: "conv8_2"
}
layer {
  name: "conv9_1"
  type: "Convolution"
  bottom: "conv8_2"
  top: "conv9_1"
  param {
    lr_mult: 1
    decay_mult: 1
  }
  param {
    lr_mult: 2
    decay_mult: 0
  }
  convolution_param {
    num_output: 128
    pad: 0
    kernel_size: 1
    stride: 1
    weight_filler {
      type: "xavier"
    }
    bias_filler {
      type: "constant"
      value: 0
    }
  }
}
layer {
  name: "conv9_1_relu"
  type: "ReLU"
  bottom: "conv9_1"
  top: "conv9_1"
}
layer {
  name: "conv9_2"
  type: "Convolution"
  bottom: "conv9_1"
  top: "conv9_2"
  param {
    lr_mult: 1
    decay_mult: 1
  }
  param {
    lr_mult: 2
    decay_mult: 0
  }
  convolution_param {
    num_output: 256
    pad: 1
    kernel_size: 3
    stride: 2
    weight_filler {
      type: "xavier"
    }
    bias_filler {
      type: "constant"
      value: 0
    }
  }
}
layer {
  name: "conv9_2_relu"
  type: "ReLU"
  bottom: "conv9_2"
  top: "conv9_2"
}
layer {
  name: "conv10_1"
  type: "Convolution"
  bottom: "conv9_2"
  top: "conv10_1"
  param {
    lr_mult: 1
    decay_mult: 1
  }
  param {
    lr_mult: 2
    decay_mult: 0
  }
  convolution_param {
    num_output: 128
    pad: 0
    kernel_size: 1
    stride: 1
    weight_filler {
      type: "xavier"
    }
    bias_filler {
      type: "constant"
      value: 0
    }
  }
}
layer {
  name: "conv10_1_relu"
  type: "ReLU"
  bottom: "conv10_1"
  top: "conv10_1"
}
layer {
  name: "conv10_2"
  type: "Convolution"
  bottom: "conv10_1"
  top: "conv10_2"
  param {
    lr_mult: 1
    decay_mult: 1
  }
  param {
    lr_mult: 2
    decay_mult: 0
  }
  convolution_param {
    num_output: 256
    pad: 0
    kernel_size: 3
    stride: 1
    weight_filler {
      type: "xavier"
    }
    bias_filler {
      type: "constant"
      value: 0
    }
  }
}
layer {
  name: "conv10_2_relu"
  type: "ReLU"
  bottom: "conv10_2"
  top: "conv10_2"
}
layer {
  name: "conv11_1"
  type: "Convolution"
  bottom: "conv10_2"
  top: "conv11_1"
  param {
    lr_mult: 1
    decay_mult: 1
  }
  param {
    lr_mult: 2
    decay_mult: 0
  }
  convolution_param {
    num_output: 128
    pad: 0
    kernel_size: 1
    stride: 1
    weight_filler {
      type: "xavier"
    }
    bias_filler {
      type: "constant"
      value: 0
    }
  }
}
layer {
  name: "conv11_1_relu"
  type: "ReLU"
  bottom: "conv11_1"
  top: "conv11_1"
}
layer {
  name: "conv11_2"
  type: "Convolution"
  bottom: "conv11_1"
  top: "conv11_2"
  param {
    lr_mult: 1
    decay_mult: 1
  }
  param {
    lr_mult: 2
    decay_mult: 0
  }
  convolution_param {
    num_output: 256
    pad: 0
    kernel_size: 3
    stride: 1
    weight_filler {
      type: "xavier"
    }
    bias_filler {
      type: "constant"
      value: 0
    }
  }
}
layer {
  name: "conv11_2_relu"
  type: "ReLU"
  bottom: "conv11_2"
  top: "conv11_2"
}
layer {
  name: "conv4_3_norm"
  type: "Normalize"
  bottom: "conv4_3"
  top: "conv4_3_norm"
  norm_param {
    across_spatial: false
    scale_filler {
      type: "constant"
      value: 20
    }
    channel_shared: false
  }
}
layer {
  name: "conv4_3_norm_mbox_loc"
  type: "Convolution"
  bottom: "conv4_3_norm"
  top: "conv4_3_norm_mbox_loc"
  param {
    lr_mult: 1
    decay_mult: 1
  }
  param {
    lr_mult: 2
    decay_mult: 0
  }
  convolution_param {
    num_output: 16
    pad: 1
    kernel_size: 3
    stride: 1
    weight_filler {
      type: "xavier"
    }
    bias_filler {
      type: "constant"
      value: 0
    }
  }
}
layer {
  name: "conv4_3_norm_mbox_loc_perm"
  type: "Permute"
  bottom: "conv4_3_norm_mbox_loc"
  top: "conv4_3_norm_mbox_loc_perm"
  permute_param {
    order: 0
    order: 2
    order: 3
    order: 1
  }
}
layer {
  name: "conv4_3_norm_mbox_loc_flat"
  type: "Flatten"
  bottom: "conv4_3_norm_mbox_loc_perm"
  top: "conv4_3_norm_mbox_loc_flat"
  flatten_param {
    axis: 1
  }
}
layer {
  name: "conv4_3_norm_mbox_conf"
  type: "Convolution"
  bottom: "conv4_3_norm"
  top: "conv4_3_norm_mbox_conf"
  param {
    lr_mult: 1
    decay_mult: 1
  }
  param {
    lr_mult: 2
    decay_mult: 0
  }
  convolution_param {
    num_output: 12
    pad: 1
    kernel_size: 3
    stride: 1
    weight_filler {
      type: "xavier"
    }
    bias_filler {
      type: "constant"
      value: 0
    }
  }
}
layer {
  name: "conv4_3_norm_mbox_conf_perm"
  type: "Permute"
  bottom: "conv4_3_norm_mbox_conf"
  top: "conv4_3_norm_mbox_conf_perm"
  permute_param {
    order: 0
    order: 2
    order: 3
    order: 1
  }
}
layer {
  name: "conv4_3_norm_mbox_conf_flat"
  type: "Flatten"
  bottom: "conv4_3_norm_mbox_conf_perm"
  top: "conv4_3_norm_mbox_conf_flat"
  flatten_param {
    axis: 1
  }
}
layer {
  name: "conv4_3_norm_mbox_priorbox"
  type: "PriorBox"
  bottom: "conv4_3_norm"
  bottom: "data"
  top: "conv4_3_norm_mbox_priorbox"
  prior_box_param {
    min_size: 30
    max_size: 60
    aspect_ratio: 2
    flip: true
    clip: false
    variance: 0.1
    variance: 0.1
    variance: 0.2
    variance: 0.2
    step: 8
    offset: 0.5
  }
}
layer {
  name: "fc7_mbox_loc"
  type: "Convolution"
  bottom: "fc7"
  top: "fc7_mbox_loc"
  param {
    lr_mult: 1
    decay_mult: 1
  }
  param {
    lr_mult: 2
    decay_mult: 0
  }
  convolution_param {
    num_output: 24
    pad: 1
    kernel_size: 3
    stride: 1
    weight_filler {
      type: "xavier"
    }
    bias_filler {
      type: "constant"
      value: 0
    }
  }
}
layer {
  name: "fc7_mbox_loc_perm"
  type: "Permute"
  bottom: "fc7_mbox_loc"
  top: "fc7_mbox_loc_perm"
  permute_param {
    order: 0
    order: 2
    order: 3
    order: 1
  }
}
layer {
  name: "fc7_mbox_loc_flat"
  type: "Flatten"
  bottom: "fc7_mbox_loc_perm"
  top: "fc7_mbox_loc_flat"
  flatten_param {
    axis: 1
  }
}
layer {
  name: "fc7_mbox_conf"
  type: "Convolution"
  bottom: "fc7"
  top: "fc7_mbox_conf"
  param {
    lr_mult: 1
    decay_mult: 1
  }
  param {
    lr_mult: 2
    decay_mult: 0
  }
  convolution_param {
    num_output: 18
    pad: 1
    kernel_size: 3
    stride: 1
    weight_filler {
      type: "xavier"
    }
    bias_filler {
      type: "constant"
      value: 0
    }
  }
}
layer {
  name: "fc7_mbox_conf_perm"
  type: "Permute"
  bottom: "fc7_mbox_conf"
  top: "fc7_mbox_conf_perm"
  permute_param {
    order: 0
    order: 2
    order: 3
    order: 1
  }
}
layer {
  name: "fc7_mbox_conf_flat"
  type: "Flatten"
  bottom: "fc7_mbox_conf_perm"
  top: "fc7_mbox_conf_flat"
  flatten_param {
    axis: 1
  }
}
layer {
  name: "fc7_mbox_priorbox"
  type: "PriorBox"
  bottom: "fc7"
  bottom: "data"
  top: "fc7_mbox_priorbox"
  prior_box_param {
    min_size: 60
    max_size: 111
    aspect_ratio: 2
    aspect_ratio: 3
    flip: true
    clip: false
    variance: 0.1
    variance: 0.1
    variance: 0.2
    variance: 0.2
    step: 16
    offset: 0.5
  }
}
layer {
  name: "conv8_2_mbox_loc"
  type: "Convolution"
  bottom: "conv8_2"
  top: "conv8_2_mbox_loc"
  param {
    lr_mult: 1
    decay_mult: 1
  }
  param {
    lr_mult: 2
    decay_mult: 0
  }
  convolution_param {
    num_output: 24
    pad: 1
    kernel_size: 3
    stride: 1
    weight_filler {
      type: "xavier"
    }
    bias_filler {
      type: "constant"
      value: 0
    }
  }
}
layer {
  name: "conv8_2_mbox_loc_perm"
  type: "Permute"
  bottom: "conv8_2_mbox_loc"
  top: "conv8_2_mbox_loc_perm"
  permute_param {
    order: 0
    order: 2
    order: 3
    order: 1
  }
}
layer {
  name: "conv8_2_mbox_loc_flat"
  type: "Flatten"
  bottom: "conv8_2_mbox_loc_perm"
  top: "conv8_2_mbox_loc_flat"
  flatten_param {
    axis: 1
  }
}
layer {
  name: "conv8_2_mbox_conf"
  type: "Convolution"
  bottom: "conv8_2"
  top: "conv8_2_mbox_conf"
  param {
    lr_mult: 1
    decay_mult: 1
  }
  param {
    lr_mult: 2
    decay_mult: 0
  }
  convolution_param {
    num_output: 18
    pad: 1
    kernel_size: 3
    stride: 1
    weight_filler {
      type: "xavier"
    }
    bias_filler {
      type: "constant"
      value: 0
    }
  }
}
layer {
  name: "conv8_2_mbox_conf_perm"
  type: "Permute"
  bottom: "conv8_2_mbox_conf"
  top: "conv8_2_mbox_conf_perm"
  permute_param {
    order: 0
    order: 2
    order: 3
    order: 1
  }
}
layer {
  name: "conv8_2_mbox_conf_flat"
  type: "Flatten"
  bottom: "conv8_2_mbox_conf_perm"
  top: "conv8_2_mbox_conf_flat"
  flatten_param {
    axis: 1
  }
}
layer {
  name: "conv8_2_mbox_priorbox"
  type: "PriorBox"
  bottom: "conv8_2"
  bottom: "data"
  top: "conv8_2_mbox_priorbox"
  prior_box_param {
    min_size: 111
    max_size: 162
    aspect_ratio: 2
    aspect_ratio: 3
    flip: true
    clip: false
    variance: 0.1
    variance: 0.1
    variance: 0.2
    variance: 0.2
    step: 32
    offset: 0.5
  }
}
layer {
  name: "conv9_2_mbox_loc"
  type: "Convolution"
  bottom: "conv9_2"
  top: "conv9_2_mbox_loc"
  param {
    lr_mult: 1
    decay_mult: 1
  }
  param {
    lr_mult: 2
    decay_mult: 0
  }
  convolution_param {
    num_output: 24
    pad: 1
    kernel_size: 3
    stride: 1
    weight_filler {
      type: "xavier"
    }
    bias_filler {
      type: "constant"
      value: 0
    }
  }
}
layer {
  name: "conv9_2_mbox_loc_perm"
  type: "Permute"
  bottom: "conv9_2_mbox_loc"
  top: "conv9_2_mbox_loc_perm"
  permute_param {
    order: 0
    order: 2
    order: 3
    order: 1
  }
}
layer {
  name: "conv9_2_mbox_loc_flat"
  type: "Flatten"
  bottom: "conv9_2_mbox_loc_perm"
  top: "conv9_2_mbox_loc_flat"
  flatten_param {
    axis: 1
  }
}
layer {
  name: "conv9_2_mbox_conf"
  type: "Convolution"
  bottom: "conv9_2"
  top: "conv9_2_mbox_conf"
  param {
    lr_mult: 1
    decay_mult: 1
  }
  param {
    lr_mult: 2
    decay_mult: 0
  }
  convolution_param {
    num_output: 18
    pad: 1
    kernel_size: 3
    stride: 1
    weight_filler {
      type: "xavier"
    }
    bias_filler {
      type: "constant"
      value: 0
    }
  }
}
layer {
  name: "conv9_2_mbox_conf_perm"
  type: "Permute"
  bottom: "conv9_2_mbox_conf"
  top: "conv9_2_mbox_conf_perm"
  permute_param {
    order: 0
    order: 2
    order: 3
    order: 1
  }
}
layer {
  name: "conv9_2_mbox_conf_flat"
  type: "Flatten"
  bottom: "conv9_2_mbox_conf_perm"
  top: "conv9_2_mbox_conf_flat"
  flatten_param {
    axis: 1
  }
}
layer {
  name: "conv9_2_mbox_priorbox"
  type: "PriorBox"
  bottom: "conv9_2"
  bottom: "data"
  top: "conv9_2_mbox_priorbox"
  prior_box_param {
    min_size: 162
    max_size: 213
    aspect_ratio: 2
    aspect_ratio: 3
    flip: true
    clip: false
    variance: 0.1
    variance: 0.1
    variance: 0.2
    variance: 0.2
    step: 64
    offset: 0.5
  }
}
layer {
  name: "conv10_2_mbox_loc"
  type: "Convolution"
  bottom: "conv10_2"
  top: "conv10_2_mbox_loc"
  param {
    lr_mult: 1
    decay_mult: 1
  }
  param {
    lr_mult: 2
    decay_mult: 0
  }
  convolution_param {
    num_output: 16
    pad: 1
    kernel_size: 3
    stride: 1
    weight_filler {
      type: "xavier"
    }
    bias_filler {
      type: "constant"
      value: 0
    }
  }
}
layer {
  name: "conv10_2_mbox_loc_perm"
  type: "Permute"
  bottom: "conv10_2_mbox_loc"
  top: "conv10_2_mbox_loc_perm"
  permute_param {
    order: 0
    order: 2
    order: 3
    order: 1
  }
}
layer {
  name: "conv10_2_mbox_loc_flat"
  type: "Flatten"
  bottom: "conv10_2_mbox_loc_perm"
  top: "conv10_2_mbox_loc_flat"
  flatten_param {
    axis: 1
  }
}
layer {
  name: "conv10_2_mbox_conf"
  type: "Convolution"
  bottom: "conv10_2"
  top: "conv10_2_mbox_conf"
  param {
    lr_mult: 1
    decay_mult: 1
  }
  param {
    lr_mult: 2
    decay_mult: 0
  }
  convolution_param {
    num_output: 12
    pad: 1
    kernel_size: 3
    stride: 1
    weight_filler {
      type: "xavier"
    }
    bias_filler {
      type: "constant"
      value: 0
    }
  }
}
layer {
  name: "conv10_2_mbox_conf_perm"
  type: "Permute"
  bottom: "conv10_2_mbox_conf"
  top: "conv10_2_mbox_conf_perm"
  permute_param {
    order: 0
    order: 2
    order: 3
    order: 1
  }
}
layer {
  name: "conv10_2_mbox_conf_flat"
  type: "Flatten"
  bottom: "conv10_2_mbox_conf_perm"
  top: "conv10_2_mbox_conf_flat"
  flatten_param {
    axis: 1
  }
}
layer {
  name: "conv10_2_mbox_priorbox"
  type: "PriorBox"
  bottom: "conv10_2"
  bottom: "data"
  top: "conv10_2_mbox_priorbox"
  prior_box_param {
    min_size: 213
    max_size: 264
    aspect_ratio: 2
    flip: true
    clip: false
    variance: 0.1
    variance: 0.1
    variance: 0.2
    variance: 0.2
    step: 100
    offset: 0.5
  }
}
layer {
  name: "conv11_2_mbox_loc"
  type: "Convolution"
  bottom: "conv11_2"
  top: "conv11_2_mbox_loc"
  param {
    lr_mult: 1
    decay_mult: 1
  }
  param {
    lr_mult: 2
    decay_mult: 0
  }
  convolution_param {
    num_output: 16
    pad: 1
    kernel_size: 3
    stride: 1
    weight_filler {
      type: "xavier"
    }
    bias_filler {
      type: "constant"
      value: 0
    }
  }
}
layer {
  name: "conv11_2_mbox_loc_perm"
  type: "Permute"
  bottom: "conv11_2_mbox_loc"
  top: "conv11_2_mbox_loc_perm"
  permute_param {
    order: 0
    order: 2
    order: 3
    order: 1
  }
}
layer {
  name: "conv11_2_mbox_loc_flat"
  type: "Flatten"
  bottom: "conv11_2_mbox_loc_perm"
  top: "conv11_2_mbox_loc_flat"
  flatten_param {
    axis: 1
  }
}
layer {
  name: "conv11_2_mbox_conf"
  type: "Convolution"
  bottom: "conv11_2"
  top: "conv11_2_mbox_conf"
  param {
    lr_mult: 1
    decay_mult: 1
  }
  param {
    lr_mult: 2
    decay_mult: 0
  }
  convolution_param {
    num_output: 12
    pad: 1
    kernel_size: 3
    stride: 1
    weight_filler {
      type: "xavier"
    }
    bias_filler {
      type: "constant"
      value: 0
    }
  }
}
layer {
  name: "conv11_2_mbox_conf_perm"
  type: "Permute"
  bottom: "conv11_2_mbox_conf"
  top: "conv11_2_mbox_conf_perm"
  permute_param {
    order: 0
    order: 2
    order: 3
    order: 1
  }
}
layer {
  name: "conv11_2_mbox_conf_flat"
  type: "Flatten"
  bottom: "conv11_2_mbox_conf_perm"
  top: "conv11_2_mbox_conf_flat"
  flatten_param {
    axis: 1
  }
}
layer {
  name: "conv11_2_mbox_priorbox"
  type: "PriorBox"
  bottom: "conv11_2"
  bottom: "data"
  top: "conv11_2_mbox_priorbox"
  prior_box_param {
    min_size: 264
    max_size: 315
    aspect_ratio: 2
    flip: true
    clip: false
    variance: 0.1
    variance: 0.1
    variance: 0.2
    variance: 0.2
    step: 300
    offset: 0.5
  }
}
layer {
  name: "mbox_loc"
  type: "Concat"
  bottom: "conv4_3_norm_mbox_loc_flat"
  bottom: "fc7_mbox_loc_flat"
  bottom: "conv8_2_mbox_loc_flat"
  bottom: "conv9_2_mbox_loc_flat"
  bottom: "conv10_2_mbox_loc_flat"
  bottom: "conv11_2_mbox_loc_flat"
  top: "mbox_loc"
  concat_param {
    axis: 1
  }
}
layer {
  name: "mbox_conf"
  type: "Concat"
  bottom: "conv4_3_norm_mbox_conf_flat"
  bottom: "fc7_mbox_conf_flat"
  bottom: "conv8_2_mbox_conf_flat"
  bottom: "conv9_2_mbox_conf_flat"
  bottom: "conv10_2_mbox_conf_flat"
  bottom: "conv11_2_mbox_conf_flat"
  top: "mbox_conf"
  concat_param {
    axis: 1
  }
}
layer {
  name: "mbox_priorbox"
  type: "Concat"
  bottom: "conv4_3_norm_mbox_priorbox"
  bottom: "fc7_mbox_priorbox"
  bottom: "conv8_2_mbox_priorbox"
  bottom: "conv9_2_mbox_priorbox"
  bottom: "conv10_2_mbox_priorbox"
  bottom: "conv11_2_mbox_priorbox"
  top: "mbox_priorbox"
  concat_param {
    axis: 2
  }
}
layer {
  name: "mbox_loss"
  type: "MultiBoxLoss"
  bottom: "mbox_loc"
  bottom: "mbox_conf"
  bottom: "mbox_priorbox"
  bottom: "label"
  top: "mbox_loss"
  include {
    phase: TRAIN
  }
  propagate_down: true
  propagate_down: true
  propagate_down: false
  propagate_down: false
  loss_param {
    normalization: VALID
  }
  multibox_loss_param {
    loc_loss_type: SMOOTH_L1
    conf_loss_type: SOFTMAX
    loc_weight: 1
    num_classes: 3
    share_location: true
    match_type: PER_PREDICTION
    overlap_threshold: 0.5
    use_prior_for_matching: true
    background_label_id: 0
    use_difficult_gt: true
    neg_pos_ratio: 3
    neg_overlap: 0.5
    code_type: CENTER_SIZE
    ignore_cross_boundary_bbox: false
    mining_type: MAX_NEGATIVE
  }
}
I0622 04:06:52.825404 13672 layer_factory.hpp:77] Creating layer data
I0622 04:06:52.825404 13672 common.cpp:36] System entropy source not available, using fallback algorithm to generate seed instead.
I0622 04:06:52.825404 13672 net.cpp:100] Creating Layer data
I0622 04:06:52.825404 13672 net.cpp:408] data -> data
I0622 04:06:52.825404 13672 net.cpp:408] data -> label
I0622 04:06:52.828363  6080 common.cpp:36] System entropy source not available, using fallback algorithm to generate seed instead.
I0622 04:06:52.871114  6080 db_lmdb.cpp:40] Opened lmdb examples\wastedata\wastedata_trainval_lmdb
I0622 04:06:52.886713 13672 annotated_data_layer.cpp:62] output data size: 2,3,300,300
I0622 04:06:52.904903 13672 net.cpp:150] Setting up data
I0622 04:06:52.904903 13672 net.cpp:157] Top shape: 2 3 300 300 (540000)
I0622 04:06:52.904903 13672 net.cpp:157] Top shape: 1 1 1 8 (8)
I0622 04:06:52.904903 13672 net.cpp:165] Memory required for data: 2160032
I0622 04:06:52.904903 13672 layer_factory.hpp:77] Creating layer data_data_0_split
I0622 04:06:52.904903 13672 net.cpp:100] Creating Layer data_data_0_split
I0622 04:06:52.904903 13672 net.cpp:434] data_data_0_split <- data
I0622 04:06:52.904903 13672 net.cpp:408] data_data_0_split -> data_data_0_split_0
I0622 04:06:52.904903 13672 net.cpp:408] data_data_0_split -> data_data_0_split_1
I0622 04:06:52.904903 13672 net.cpp:408] data_data_0_split -> data_data_0_split_2
I0622 04:06:52.904903 13672 net.cpp:408] data_data_0_split -> data_data_0_split_3
I0622 04:06:52.904903 13672 net.cpp:408] data_data_0_split -> data_data_0_split_4
I0622 04:06:52.904903 13672 net.cpp:408] data_data_0_split -> data_data_0_split_5
I0622 04:06:52.904903 13672 net.cpp:408] data_data_0_split -> data_data_0_split_6
I0622 04:06:52.905901 13672 net.cpp:150] Setting up data_data_0_split
I0622 04:06:52.905901 13672 net.cpp:157] Top shape: 2 3 300 300 (540000)
I0622 04:06:52.906939 13720 common.cpp:36] System entropy source not available, using fallback algorithm to generate seed instead.
I0622 04:06:52.914268 13672 net.cpp:157] Top shape: 2 3 300 300 (540000)
I0622 04:06:52.914616 13672 net.cpp:157] Top shape: 2 3 300 300 (540000)
I0622 04:06:52.914616 13672 net.cpp:157] Top shape: 2 3 300 300 (540000)
I0622 04:06:52.914616 13672 net.cpp:157] Top shape: 2 3 300 300 (540000)
I0622 04:06:52.914616 13672 net.cpp:157] Top shape: 2 3 300 300 (540000)
I0622 04:06:52.914616 13672 net.cpp:157] Top shape: 2 3 300 300 (540000)
I0622 04:06:52.914616 13672 net.cpp:165] Memory required for data: 17280032
I0622 04:06:52.914616 13672 layer_factory.hpp:77] Creating layer conv1_1
I0622 04:06:52.914616 13672 net.cpp:100] Creating Layer conv1_1
I0622 04:06:52.914616 13672 net.cpp:434] conv1_1 <- data_data_0_split_0
I0622 04:06:52.914616 13672 net.cpp:408] conv1_1 -> conv1_1
I0622 04:06:53.778146 13672 net.cpp:150] Setting up conv1_1
I0622 04:06:53.778146 13672 net.cpp:157] Top shape: 2 64 300 300 (11520000)
I0622 04:06:53.778146 13672 net.cpp:165] Memory required for data: 63360032
I0622 04:06:53.778146 13672 layer_factory.hpp:77] Creating layer relu1_1
I0622 04:06:53.778146 13672 net.cpp:100] Creating Layer relu1_1
I0622 04:06:53.778146 13672 net.cpp:434] relu1_1 <- conv1_1
I0622 04:06:53.778146 13672 net.cpp:395] relu1_1 -> conv1_1 (in-place)
I0622 04:06:53.780138 13672 net.cpp:150] Setting up relu1_1
I0622 04:06:53.780138 13672 net.cpp:157] Top shape: 2 64 300 300 (11520000)
I0622 04:06:53.780138 13672 net.cpp:165] Memory required for data: 109440032
I0622 04:06:53.780138 13672 layer_factory.hpp:77] Creating layer conv1_2
I0622 04:06:53.780138 13672 net.cpp:100] Creating Layer conv1_2
I0622 04:06:53.780138 13672 net.cpp:434] conv1_2 <- conv1_1
I0622 04:06:53.780138 13672 net.cpp:408] conv1_2 -> conv1_2
I0622 04:06:53.788141 13672 net.cpp:150] Setting up conv1_2
I0622 04:06:53.788141 13672 net.cpp:157] Top shape: 2 64 300 300 (11520000)
I0622 04:06:53.788141 13672 net.cpp:165] Memory required for data: 155520032
I0622 04:06:53.788141 13672 layer_factory.hpp:77] Creating layer relu1_2
I0622 04:06:53.788141 13672 net.cpp:100] Creating Layer relu1_2
I0622 04:06:53.788141 13672 net.cpp:434] relu1_2 <- conv1_2
I0622 04:06:53.788141 13672 net.cpp:395] relu1_2 -> conv1_2 (in-place)
I0622 04:06:53.789139 13672 net.cpp:150] Setting up relu1_2
I0622 04:06:53.790169 13672 net.cpp:157] Top shape: 2 64 300 300 (11520000)
I0622 04:06:53.790169 13672 net.cpp:165] Memory required for data: 201600032
I0622 04:06:53.790169 13672 layer_factory.hpp:77] Creating layer pool1
I0622 04:06:53.790169 13672 net.cpp:100] Creating Layer pool1
I0622 04:06:53.790169 13672 net.cpp:434] pool1 <- conv1_2
I0622 04:06:53.790169 13672 net.cpp:408] pool1 -> pool1
I0622 04:06:53.790169 13672 net.cpp:150] Setting up pool1
I0622 04:06:53.790169 13672 net.cpp:157] Top shape: 2 64 150 150 (2880000)
I0622 04:06:53.790169 13672 net.cpp:165] Memory required for data: 213120032
I0622 04:06:53.790169 13672 layer_factory.hpp:77] Creating layer conv2_1
I0622 04:06:53.790169 13672 net.cpp:100] Creating Layer conv2_1
I0622 04:06:53.790169 13672 net.cpp:434] conv2_1 <- pool1
I0622 04:06:53.790169 13672 net.cpp:408] conv2_1 -> conv2_1
I0622 04:06:53.798477 13672 net.cpp:150] Setting up conv2_1
I0622 04:06:53.798477 13672 net.cpp:157] Top shape: 2 128 150 150 (5760000)
I0622 04:06:53.798477 13672 net.cpp:165] Memory required for data: 236160032
I0622 04:06:53.798477 13672 layer_factory.hpp:77] Creating layer relu2_1
I0622 04:06:53.798477 13672 net.cpp:100] Creating Layer relu2_1
I0622 04:06:53.798477 13672 net.cpp:434] relu2_1 <- conv2_1
I0622 04:06:53.798477 13672 net.cpp:395] relu2_1 -> conv2_1 (in-place)
I0622 04:06:53.800472 13672 net.cpp:150] Setting up relu2_1
I0622 04:06:53.800472 13672 net.cpp:157] Top shape: 2 128 150 150 (5760000)
I0622 04:06:53.800472 13672 net.cpp:165] Memory required for data: 259200032
I0622 04:06:53.800472 13672 layer_factory.hpp:77] Creating layer conv2_2
I0622 04:06:53.800472 13672 net.cpp:100] Creating Layer conv2_2
I0622 04:06:53.800472 13672 net.cpp:434] conv2_2 <- conv2_1
I0622 04:06:53.800472 13672 net.cpp:408] conv2_2 -> conv2_2
I0622 04:06:53.809854 13672 net.cpp:150] Setting up conv2_2
I0622 04:06:53.809854 13672 net.cpp:157] Top shape: 2 128 150 150 (5760000)
I0622 04:06:53.809854 13672 net.cpp:165] Memory required for data: 282240032
I0622 04:06:53.809854 13672 layer_factory.hpp:77] Creating layer relu2_2
I0622 04:06:53.809854 13672 net.cpp:100] Creating Layer relu2_2
I0622 04:06:53.809854 13672 net.cpp:434] relu2_2 <- conv2_2
I0622 04:06:53.809854 13672 net.cpp:395] relu2_2 -> conv2_2 (in-place)
I0622 04:06:53.812847 13672 net.cpp:150] Setting up relu2_2
I0622 04:06:53.812847 13672 net.cpp:157] Top shape: 2 128 150 150 (5760000)
I0622 04:06:53.812847 13672 net.cpp:165] Memory required for data: 305280032
I0622 04:06:53.812847 13672 layer_factory.hpp:77] Creating layer pool2
I0622 04:06:53.812847 13672 net.cpp:100] Creating Layer pool2
I0622 04:06:53.812847 13672 net.cpp:434] pool2 <- conv2_2
I0622 04:06:53.812847 13672 net.cpp:408] pool2 -> pool2
I0622 04:06:53.812847 13672 net.cpp:150] Setting up pool2
I0622 04:06:53.812847 13672 net.cpp:157] Top shape: 2 128 75 75 (1440000)
I0622 04:06:53.812847 13672 net.cpp:165] Memory required for data: 311040032
I0622 04:06:53.812847 13672 layer_factory.hpp:77] Creating layer conv3_1
I0622 04:06:53.812847 13672 net.cpp:100] Creating Layer conv3_1
I0622 04:06:53.812847 13672 net.cpp:434] conv3_1 <- pool2
I0622 04:06:53.812847 13672 net.cpp:408] conv3_1 -> conv3_1
I0622 04:06:53.866835 13672 net.cpp:150] Setting up conv3_1
I0622 04:06:53.866835 13672 net.cpp:157] Top shape: 2 256 75 75 (2880000)
I0622 04:06:53.866835 13672 net.cpp:165] Memory required for data: 322560032
I0622 04:06:53.867835 13672 layer_factory.hpp:77] Creating layer relu3_1
I0622 04:06:53.867835 13672 net.cpp:100] Creating Layer relu3_1
I0622 04:06:53.867835 13672 net.cpp:434] relu3_1 <- conv3_1
I0622 04:06:53.867835 13672 net.cpp:395] relu3_1 -> conv3_1 (in-place)
I0622 04:06:53.868832 13672 net.cpp:150] Setting up relu3_1
I0622 04:06:53.868832 13672 net.cpp:157] Top shape: 2 256 75 75 (2880000)
I0622 04:06:53.868832 13672 net.cpp:165] Memory required for data: 334080032
I0622 04:06:53.868832 13672 layer_factory.hpp:77] Creating layer conv3_2
I0622 04:06:53.868832 13672 net.cpp:100] Creating Layer conv3_2
I0622 04:06:53.868832 13672 net.cpp:434] conv3_2 <- conv3_1
I0622 04:06:53.868832 13672 net.cpp:408] conv3_2 -> conv3_2
I0622 04:06:53.885260 13672 net.cpp:150] Setting up conv3_2
I0622 04:06:53.885260 13672 net.cpp:157] Top shape: 2 256 75 75 (2880000)
I0622 04:06:53.885260 13672 net.cpp:165] Memory required for data: 345600032
I0622 04:06:53.885260 13672 layer_factory.hpp:77] Creating layer relu3_2
I0622 04:06:53.885260 13672 net.cpp:100] Creating Layer relu3_2
I0622 04:06:53.885260 13672 net.cpp:434] relu3_2 <- conv3_2
I0622 04:06:53.885260 13672 net.cpp:395] relu3_2 -> conv3_2 (in-place)
I0622 04:06:53.886258 13672 net.cpp:150] Setting up relu3_2
I0622 04:06:53.886258 13672 net.cpp:157] Top shape: 2 256 75 75 (2880000)
I0622 04:06:53.886258 13672 net.cpp:165] Memory required for data: 357120032
I0622 04:06:53.886258 13672 layer_factory.hpp:77] Creating layer conv3_3
I0622 04:06:53.886258 13672 net.cpp:100] Creating Layer conv3_3
I0622 04:06:53.886258 13672 net.cpp:434] conv3_3 <- conv3_2
I0622 04:06:53.886258 13672 net.cpp:408] conv3_3 -> conv3_3
I0622 04:06:53.907361 13672 net.cpp:150] Setting up conv3_3
I0622 04:06:53.907361 13672 net.cpp:157] Top shape: 2 256 75 75 (2880000)
I0622 04:06:53.907361 13672 net.cpp:165] Memory required for data: 368640032
I0622 04:06:53.907361 13672 layer_factory.hpp:77] Creating layer relu3_3
I0622 04:06:53.907361 13672 net.cpp:100] Creating Layer relu3_3
I0622 04:06:53.907361 13672 net.cpp:434] relu3_3 <- conv3_3
I0622 04:06:53.907361 13672 net.cpp:395] relu3_3 -> conv3_3 (in-place)
I0622 04:06:53.908594 13672 net.cpp:150] Setting up relu3_3
I0622 04:06:53.908594 13672 net.cpp:157] Top shape: 2 256 75 75 (2880000)
I0622 04:06:53.908594 13672 net.cpp:165] Memory required for data: 380160032
I0622 04:06:53.908594 13672 layer_factory.hpp:77] Creating layer pool3
I0622 04:06:53.908594 13672 net.cpp:100] Creating Layer pool3
I0622 04:06:53.908594 13672 net.cpp:434] pool3 <- conv3_3
I0622 04:06:53.908594 13672 net.cpp:408] pool3 -> pool3
I0622 04:06:53.908594 13672 net.cpp:150] Setting up pool3
I0622 04:06:53.908594 13672 net.cpp:157] Top shape: 2 256 38 38 (739328)
I0622 04:06:53.908594 13672 net.cpp:165] Memory required for data: 383117344
I0622 04:06:53.908594 13672 layer_factory.hpp:77] Creating layer conv4_1
I0622 04:06:53.908594 13672 net.cpp:100] Creating Layer conv4_1
I0622 04:06:53.908594 13672 net.cpp:434] conv4_1 <- pool3
I0622 04:06:53.909591 13672 net.cpp:408] conv4_1 -> conv4_1
I0622 04:06:53.936916 13672 net.cpp:150] Setting up conv4_1
I0622 04:06:53.936916 13672 net.cpp:157] Top shape: 2 512 38 38 (1478656)
I0622 04:06:53.936916 13672 net.cpp:165] Memory required for data: 389031968
I0622 04:06:53.936916 13672 layer_factory.hpp:77] Creating layer relu4_1
I0622 04:06:53.936916 13672 net.cpp:100] Creating Layer relu4_1
I0622 04:06:53.936916 13672 net.cpp:434] relu4_1 <- conv4_1
I0622 04:06:53.936916 13672 net.cpp:395] relu4_1 -> conv4_1 (in-place)
I0622 04:06:53.939203 13672 net.cpp:150] Setting up relu4_1
I0622 04:06:53.939203 13672 net.cpp:157] Top shape: 2 512 38 38 (1478656)
I0622 04:06:53.939203 13672 net.cpp:165] Memory required for data: 394946592
I0622 04:06:53.939203 13672 layer_factory.hpp:77] Creating layer conv4_2
I0622 04:06:53.939203 13672 net.cpp:100] Creating Layer conv4_2
I0622 04:06:53.939203 13672 net.cpp:434] conv4_2 <- conv4_1
I0622 04:06:53.939203 13672 net.cpp:408] conv4_2 -> conv4_2
I0622 04:06:53.967306 13672 net.cpp:150] Setting up conv4_2
I0622 04:06:53.967306 13672 net.cpp:157] Top shape: 2 512 38 38 (1478656)
I0622 04:06:53.967306 13672 net.cpp:165] Memory required for data: 400861216
I0622 04:06:53.967306 13672 layer_factory.hpp:77] Creating layer relu4_2
I0622 04:06:53.967512 13672 net.cpp:100] Creating Layer relu4_2
I0622 04:06:53.967512 13672 net.cpp:434] relu4_2 <- conv4_2
I0622 04:06:53.967512 13672 net.cpp:395] relu4_2 -> conv4_2 (in-place)
I0622 04:06:53.968513 13672 net.cpp:150] Setting up relu4_2
I0622 04:06:53.968513 13672 net.cpp:157] Top shape: 2 512 38 38 (1478656)
I0622 04:06:53.968513 13672 net.cpp:165] Memory required for data: 406775840
I0622 04:06:53.968513 13672 layer_factory.hpp:77] Creating layer conv4_3
I0622 04:06:53.968513 13672 net.cpp:100] Creating Layer conv4_3
I0622 04:06:53.968513 13672 net.cpp:434] conv4_3 <- conv4_2
I0622 04:06:53.968513 13672 net.cpp:408] conv4_3 -> conv4_3
I0622 04:06:53.996459 13672 net.cpp:150] Setting up conv4_3
I0622 04:06:53.997458 13672 net.cpp:157] Top shape: 2 512 38 38 (1478656)
I0622 04:06:53.997458 13672 net.cpp:165] Memory required for data: 412690464
I0622 04:06:53.997458 13672 layer_factory.hpp:77] Creating layer relu4_3
I0622 04:06:53.997458 13672 net.cpp:100] Creating Layer relu4_3
I0622 04:06:53.997458 13672 net.cpp:434] relu4_3 <- conv4_3
I0622 04:06:53.997567 13672 net.cpp:395] relu4_3 -> conv4_3 (in-place)
I0622 04:06:53.998565 13672 net.cpp:150] Setting up relu4_3
I0622 04:06:53.998565 13672 net.cpp:157] Top shape: 2 512 38 38 (1478656)
I0622 04:06:53.998565 13672 net.cpp:165] Memory required for data: 418605088
I0622 04:06:53.998565 13672 layer_factory.hpp:77] Creating layer conv4_3_relu4_3_0_split
I0622 04:06:53.998565 13672 net.cpp:100] Creating Layer conv4_3_relu4_3_0_split
I0622 04:06:53.998565 13672 net.cpp:434] conv4_3_relu4_3_0_split <- conv4_3
I0622 04:06:53.998565 13672 net.cpp:408] conv4_3_relu4_3_0_split -> conv4_3_relu4_3_0_split_0
I0622 04:06:53.998565 13672 net.cpp:408] conv4_3_relu4_3_0_split -> conv4_3_relu4_3_0_split_1
I0622 04:06:53.998565 13672 net.cpp:150] Setting up conv4_3_relu4_3_0_split
I0622 04:06:53.998565 13672 net.cpp:157] Top shape: 2 512 38 38 (1478656)
I0622 04:06:53.998565 13672 net.cpp:157] Top shape: 2 512 38 38 (1478656)
I0622 04:06:53.998565 13672 net.cpp:165] Memory required for data: 430434336
I0622 04:06:53.998565 13672 layer_factory.hpp:77] Creating layer pool4
I0622 04:06:53.998565 13672 net.cpp:100] Creating Layer pool4
I0622 04:06:53.998565 13672 net.cpp:434] pool4 <- conv4_3_relu4_3_0_split_0
I0622 04:06:53.999562 13672 net.cpp:408] pool4 -> pool4
I0622 04:06:53.999562 13672 net.cpp:150] Setting up pool4
I0622 04:06:53.999562 13672 net.cpp:157] Top shape: 2 512 19 19 (369664)
I0622 04:06:53.999562 13672 net.cpp:165] Memory required for data: 431912992
I0622 04:06:53.999562 13672 layer_factory.hpp:77] Creating layer conv5_1
I0622 04:06:53.999562 13672 net.cpp:100] Creating Layer conv5_1
I0622 04:06:53.999562 13672 net.cpp:434] conv5_1 <- pool4
I0622 04:06:53.999562 13672 net.cpp:408] conv5_1 -> conv5_1
I0622 04:06:54.047281 13672 net.cpp:150] Setting up conv5_1
I0622 04:06:54.047281 13672 net.cpp:157] Top shape: 2 512 19 19 (369664)
I0622 04:06:54.047281 13672 net.cpp:165] Memory required for data: 433391648
I0622 04:06:54.047281 13672 layer_factory.hpp:77] Creating layer relu5_1
I0622 04:06:54.047281 13672 net.cpp:100] Creating Layer relu5_1
I0622 04:06:54.047281 13672 net.cpp:434] relu5_1 <- conv5_1
I0622 04:06:54.047281 13672 net.cpp:395] relu5_1 -> conv5_1 (in-place)
I0622 04:06:54.048278 13672 net.cpp:150] Setting up relu5_1
I0622 04:06:54.048278 13672 net.cpp:157] Top shape: 2 512 19 19 (369664)
I0622 04:06:54.048278 13672 net.cpp:165] Memory required for data: 434870304
I0622 04:06:54.048278 13672 layer_factory.hpp:77] Creating layer conv5_2
I0622 04:06:54.048278 13672 net.cpp:100] Creating Layer conv5_2
I0622 04:06:54.048278 13672 net.cpp:434] conv5_2 <- conv5_1
I0622 04:06:54.048278 13672 net.cpp:408] conv5_2 -> conv5_2
I0622 04:06:54.070497 13672 net.cpp:150] Setting up conv5_2
I0622 04:06:54.070497 13672 net.cpp:157] Top shape: 2 512 19 19 (369664)
I0622 04:06:54.070497 13672 net.cpp:165] Memory required for data: 436348960
I0622 04:06:54.070497 13672 layer_factory.hpp:77] Creating layer relu5_2
I0622 04:06:54.070497 13672 net.cpp:100] Creating Layer relu5_2
I0622 04:06:54.070497 13672 net.cpp:434] relu5_2 <- conv5_2
I0622 04:06:54.070497 13672 net.cpp:395] relu5_2 -> conv5_2 (in-place)
I0622 04:06:54.072556 13672 net.cpp:150] Setting up relu5_2
I0622 04:06:54.072556 13672 net.cpp:157] Top shape: 2 512 19 19 (369664)
I0622 04:06:54.072556 13672 net.cpp:165] Memory required for data: 437827616
I0622 04:06:54.072556 13672 layer_factory.hpp:77] Creating layer conv5_3
I0622 04:06:54.072556 13672 net.cpp:100] Creating Layer conv5_3
I0622 04:06:54.072556 13672 net.cpp:434] conv5_3 <- conv5_2
I0622 04:06:54.072556 13672 net.cpp:408] conv5_3 -> conv5_3
I0622 04:06:54.109989 13672 net.cpp:150] Setting up conv5_3
I0622 04:06:54.109989 13672 net.cpp:157] Top shape: 2 512 19 19 (369664)
I0622 04:06:54.109989 13672 net.cpp:165] Memory required for data: 439306272
I0622 04:06:54.109989 13672 layer_factory.hpp:77] Creating layer relu5_3
I0622 04:06:54.109989 13672 net.cpp:100] Creating Layer relu5_3
I0622 04:06:54.109989 13672 net.cpp:434] relu5_3 <- conv5_3
I0622 04:06:54.109989 13672 net.cpp:395] relu5_3 -> conv5_3 (in-place)
I0622 04:06:54.111984 13672 net.cpp:150] Setting up relu5_3
I0622 04:06:54.111984 13672 net.cpp:157] Top shape: 2 512 19 19 (369664)
I0622 04:06:54.111984 13672 net.cpp:165] Memory required for data: 440784928
I0622 04:06:54.111984 13672 layer_factory.hpp:77] Creating layer pool5
I0622 04:06:54.111984 13672 net.cpp:100] Creating Layer pool5
I0622 04:06:54.111984 13672 net.cpp:434] pool5 <- conv5_3
I0622 04:06:54.111984 13672 net.cpp:408] pool5 -> pool5
I0622 04:06:54.111984 13672 net.cpp:150] Setting up pool5
I0622 04:06:54.111984 13672 net.cpp:157] Top shape: 2 512 19 19 (369664)
I0622 04:06:54.111984 13672 net.cpp:165] Memory required for data: 442263584
I0622 04:06:54.111984 13672 layer_factory.hpp:77] Creating layer fc6
I0622 04:06:54.111984 13672 net.cpp:100] Creating Layer fc6
I0622 04:06:54.111984 13672 net.cpp:434] fc6 <- pool5
I0622 04:06:54.111984 13672 net.cpp:408] fc6 -> fc6
I0622 04:06:54.146121 13672 net.cpp:150] Setting up fc6
I0622 04:06:54.146121 13672 net.cpp:157] Top shape: 2 1024 19 19 (739328)
I0622 04:06:54.146121 13672 net.cpp:165] Memory required for data: 445220896
I0622 04:06:54.146121 13672 layer_factory.hpp:77] Creating layer relu6
I0622 04:06:54.146121 13672 net.cpp:100] Creating Layer relu6
I0622 04:06:54.146121 13672 net.cpp:434] relu6 <- fc6
I0622 04:06:54.146121 13672 net.cpp:395] relu6 -> fc6 (in-place)
I0622 04:06:54.150512 13672 net.cpp:150] Setting up relu6
I0622 04:06:54.150512 13672 net.cpp:157] Top shape: 2 1024 19 19 (739328)
I0622 04:06:54.150512 13672 net.cpp:165] Memory required for data: 448178208
I0622 04:06:54.150512 13672 layer_factory.hpp:77] Creating layer fc7
I0622 04:06:54.150512 13672 net.cpp:100] Creating Layer fc7
I0622 04:06:54.150512 13672 net.cpp:434] fc7 <- fc6
I0622 04:06:54.150512 13672 net.cpp:408] fc7 -> fc7
I0622 04:06:54.163798 13672 net.cpp:150] Setting up fc7
I0622 04:06:54.163798 13672 net.cpp:157] Top shape: 2 1024 19 19 (739328)
I0622 04:06:54.163798 13672 net.cpp:165] Memory required for data: 451135520
I0622 04:06:54.163798 13672 layer_factory.hpp:77] Creating layer relu7
I0622 04:06:54.163798 13672 net.cpp:100] Creating Layer relu7
I0622 04:06:54.163798 13672 net.cpp:434] relu7 <- fc7
I0622 04:06:54.163798 13672 net.cpp:395] relu7 -> fc7 (in-place)
I0622 04:06:54.164795 13672 net.cpp:150] Setting up relu7
I0622 04:06:54.164795 13672 net.cpp:157] Top shape: 2 1024 19 19 (739328)
I0622 04:06:54.164795 13672 net.cpp:165] Memory required for data: 454092832
I0622 04:06:54.164795 13672 layer_factory.hpp:77] Creating layer fc7_relu7_0_split
I0622 04:06:54.164795 13672 net.cpp:100] Creating Layer fc7_relu7_0_split
I0622 04:06:54.164795 13672 net.cpp:434] fc7_relu7_0_split <- fc7
I0622 04:06:54.164795 13672 net.cpp:408] fc7_relu7_0_split -> fc7_relu7_0_split_0
I0622 04:06:54.164795 13672 net.cpp:408] fc7_relu7_0_split -> fc7_relu7_0_split_1
I0622 04:06:54.164795 13672 net.cpp:408] fc7_relu7_0_split -> fc7_relu7_0_split_2
I0622 04:06:54.164795 13672 net.cpp:408] fc7_relu7_0_split -> fc7_relu7_0_split_3
I0622 04:06:54.164795 13672 net.cpp:150] Setting up fc7_relu7_0_split
I0622 04:06:54.164795 13672 net.cpp:157] Top shape: 2 1024 19 19 (739328)
I0622 04:06:54.165792 13672 net.cpp:157] Top shape: 2 1024 19 19 (739328)
I0622 04:06:54.165792 13672 net.cpp:157] Top shape: 2 1024 19 19 (739328)
I0622 04:06:54.165792 13672 net.cpp:157] Top shape: 2 1024 19 19 (739328)
I0622 04:06:54.165792 13672 net.cpp:165] Memory required for data: 465922080
I0622 04:06:54.165792 13672 layer_factory.hpp:77] Creating layer conv8_1
I0622 04:06:54.165792 13672 net.cpp:100] Creating Layer conv8_1
I0622 04:06:54.165792 13672 net.cpp:434] conv8_1 <- fc7_relu7_0_split_0
I0622 04:06:54.165792 13672 net.cpp:408] conv8_1 -> conv8_1
I0622 04:06:54.183400 13672 net.cpp:150] Setting up conv8_1
I0622 04:06:54.183400 13672 net.cpp:157] Top shape: 2 256 19 19 (184832)
I0622 04:06:54.183400 13672 net.cpp:165] Memory required for data: 466661408
I0622 04:06:54.183400 13672 layer_factory.hpp:77] Creating layer conv8_1_relu
I0622 04:06:54.183400 13672 net.cpp:100] Creating Layer conv8_1_relu
I0622 04:06:54.183400 13672 net.cpp:434] conv8_1_relu <- conv8_1
I0622 04:06:54.183400 13672 net.cpp:395] conv8_1_relu -> conv8_1 (in-place)
I0622 04:06:54.184397 13672 net.cpp:150] Setting up conv8_1_relu
I0622 04:06:54.184397 13672 net.cpp:157] Top shape: 2 256 19 19 (184832)
I0622 04:06:54.184397 13672 net.cpp:165] Memory required for data: 467400736
I0622 04:06:54.184397 13672 layer_factory.hpp:77] Creating layer conv8_2
I0622 04:06:54.185395 13672 net.cpp:100] Creating Layer conv8_2
I0622 04:06:54.185395 13672 net.cpp:434] conv8_2 <- conv8_1
I0622 04:06:54.185395 13672 net.cpp:408] conv8_2 -> conv8_2
I0622 04:06:54.228369 13672 net.cpp:150] Setting up conv8_2
I0622 04:06:54.228369 13672 net.cpp:157] Top shape: 2 512 10 10 (102400)
I0622 04:06:54.228369 13672 net.cpp:165] Memory required for data: 467810336
I0622 04:06:54.228369 13672 layer_factory.hpp:77] Creating layer conv8_2_relu
I0622 04:06:54.228369 13672 net.cpp:100] Creating Layer conv8_2_relu
I0622 04:06:54.228369 13672 net.cpp:434] conv8_2_relu <- conv8_2
I0622 04:06:54.228369 13672 net.cpp:395] conv8_2_relu -> conv8_2 (in-place)
I0622 04:06:54.247295 13672 net.cpp:150] Setting up conv8_2_relu
I0622 04:06:54.247295 13672 net.cpp:157] Top shape: 2 512 10 10 (102400)
I0622 04:06:54.247295 13672 net.cpp:165] Memory required for data: 468219936
I0622 04:06:54.247295 13672 layer_factory.hpp:77] Creating layer conv8_2_conv8_2_relu_0_split
I0622 04:06:54.247295 13672 net.cpp:100] Creating Layer conv8_2_conv8_2_relu_0_split
I0622 04:06:54.248294 13672 net.cpp:434] conv8_2_conv8_2_relu_0_split <- conv8_2
I0622 04:06:54.248294 13672 net.cpp:408] conv8_2_conv8_2_relu_0_split -> conv8_2_conv8_2_relu_0_split_0
I0622 04:06:54.248294 13672 net.cpp:408] conv8_2_conv8_2_relu_0_split -> conv8_2_conv8_2_relu_0_split_1
I0622 04:06:54.248294 13672 net.cpp:408] conv8_2_conv8_2_relu_0_split -> conv8_2_conv8_2_relu_0_split_2
I0622 04:06:54.248294 13672 net.cpp:408] conv8_2_conv8_2_relu_0_split -> conv8_2_conv8_2_relu_0_split_3
I0622 04:06:54.248294 13672 net.cpp:150] Setting up conv8_2_conv8_2_relu_0_split
I0622 04:06:54.248294 13672 net.cpp:157] Top shape: 2 512 10 10 (102400)
I0622 04:06:54.248294 13672 net.cpp:157] Top shape: 2 512 10 10 (102400)
I0622 04:06:54.248294 13672 net.cpp:157] Top shape: 2 512 10 10 (102400)
I0622 04:06:54.248294 13672 net.cpp:157] Top shape: 2 512 10 10 (102400)
I0622 04:06:54.248294 13672 net.cpp:165] Memory required for data: 469858336
I0622 04:06:54.248294 13672 layer_factory.hpp:77] Creating layer conv9_1
I0622 04:06:54.248294 13672 net.cpp:100] Creating Layer conv9_1
I0622 04:06:54.248294 13672 net.cpp:434] conv9_1 <- conv8_2_conv8_2_relu_0_split_0
I0622 04:06:54.248294 13672 net.cpp:408] conv9_1 -> conv9_1
I0622 04:06:54.252281 13672 net.cpp:150] Setting up conv9_1
I0622 04:06:54.252281 13672 net.cpp:157] Top shape: 2 128 10 10 (25600)
I0622 04:06:54.252281 13672 net.cpp:165] Memory required for data: 469960736
I0622 04:06:54.252281 13672 layer_factory.hpp:77] Creating layer conv9_1_relu
I0622 04:06:54.252281 13672 net.cpp:100] Creating Layer conv9_1_relu
I0622 04:06:54.252281 13672 net.cpp:434] conv9_1_relu <- conv9_1
I0622 04:06:54.252281 13672 net.cpp:395] conv9_1_relu -> conv9_1 (in-place)
I0622 04:06:54.253279 13672 net.cpp:150] Setting up conv9_1_relu
I0622 04:06:54.253279 13672 net.cpp:157] Top shape: 2 128 10 10 (25600)
I0622 04:06:54.253279 13672 net.cpp:165] Memory required for data: 470063136
I0622 04:06:54.253279 13672 layer_factory.hpp:77] Creating layer conv9_2
I0622 04:06:54.254276 13672 net.cpp:100] Creating Layer conv9_2
I0622 04:06:54.254276 13672 net.cpp:434] conv9_2 <- conv9_1
I0622 04:06:54.254276 13672 net.cpp:408] conv9_2 -> conv9_2
I0622 04:06:54.266928 13672 net.cpp:150] Setting up conv9_2
I0622 04:06:54.266928 13672 net.cpp:157] Top shape: 2 256 5 5 (12800)
I0622 04:06:54.266928 13672 net.cpp:165] Memory required for data: 470114336
I0622 04:06:54.266928 13672 layer_factory.hpp:77] Creating layer conv9_2_relu
I0622 04:06:54.266928 13672 net.cpp:100] Creating Layer conv9_2_relu
I0622 04:06:54.266928 13672 net.cpp:434] conv9_2_relu <- conv9_2
I0622 04:06:54.266928 13672 net.cpp:395] conv9_2_relu -> conv9_2 (in-place)
I0622 04:06:54.267928 13672 net.cpp:150] Setting up conv9_2_relu
I0622 04:06:54.267928 13672 net.cpp:157] Top shape: 2 256 5 5 (12800)
I0622 04:06:54.267928 13672 net.cpp:165] Memory required for data: 470165536
I0622 04:06:54.267928 13672 layer_factory.hpp:77] Creating layer conv9_2_conv9_2_relu_0_split
I0622 04:06:54.267928 13672 net.cpp:100] Creating Layer conv9_2_conv9_2_relu_0_split
I0622 04:06:54.267928 13672 net.cpp:434] conv9_2_conv9_2_relu_0_split <- conv9_2
I0622 04:06:54.267928 13672 net.cpp:408] conv9_2_conv9_2_relu_0_split -> conv9_2_conv9_2_relu_0_split_0
I0622 04:06:54.267928 13672 net.cpp:408] conv9_2_conv9_2_relu_0_split -> conv9_2_conv9_2_relu_0_split_1
I0622 04:06:54.267928 13672 net.cpp:408] conv9_2_conv9_2_relu_0_split -> conv9_2_conv9_2_relu_0_split_2
I0622 04:06:54.267928 13672 net.cpp:408] conv9_2_conv9_2_relu_0_split -> conv9_2_conv9_2_relu_0_split_3
I0622 04:06:54.267928 13672 net.cpp:150] Setting up conv9_2_conv9_2_relu_0_split
I0622 04:06:54.267928 13672 net.cpp:157] Top shape: 2 256 5 5 (12800)
I0622 04:06:54.267928 13672 net.cpp:157] Top shape: 2 256 5 5 (12800)
I0622 04:06:54.267928 13672 net.cpp:157] Top shape: 2 256 5 5 (12800)
I0622 04:06:54.267928 13672 net.cpp:157] Top shape: 2 256 5 5 (12800)
I0622 04:06:54.267928 13672 net.cpp:165] Memory required for data: 470370336
I0622 04:06:54.267928 13672 layer_factory.hpp:77] Creating layer conv10_1
I0622 04:06:54.267928 13672 net.cpp:100] Creating Layer conv10_1
I0622 04:06:54.268923 13672 net.cpp:434] conv10_1 <- conv9_2_conv9_2_relu_0_split_0
I0622 04:06:54.268923 13672 net.cpp:408] conv10_1 -> conv10_1
I0622 04:06:54.271915 13672 net.cpp:150] Setting up conv10_1
I0622 04:06:54.272912 13672 net.cpp:157] Top shape: 2 128 5 5 (6400)
I0622 04:06:54.272912 13672 net.cpp:165] Memory required for data: 470395936
I0622 04:06:54.272912 13672 layer_factory.hpp:77] Creating layer conv10_1_relu
I0622 04:06:54.272912 13672 net.cpp:100] Creating Layer conv10_1_relu
I0622 04:06:54.272912 13672 net.cpp:434] conv10_1_relu <- conv10_1
I0622 04:06:54.272912 13672 net.cpp:395] conv10_1_relu -> conv10_1 (in-place)
I0622 04:06:54.272912 13672 net.cpp:150] Setting up conv10_1_relu
I0622 04:06:54.272912 13672 net.cpp:157] Top shape: 2 128 5 5 (6400)
I0622 04:06:54.272912 13672 net.cpp:165] Memory required for data: 470421536
I0622 04:06:54.272912 13672 layer_factory.hpp:77] Creating layer conv10_2
I0622 04:06:54.272912 13672 net.cpp:100] Creating Layer conv10_2
I0622 04:06:54.272912 13672 net.cpp:434] conv10_2 <- conv10_1
I0622 04:06:54.272912 13672 net.cpp:408] conv10_2 -> conv10_2
I0622 04:06:54.282385 13672 net.cpp:150] Setting up conv10_2
I0622 04:06:54.282385 13672 net.cpp:157] Top shape: 2 256 3 3 (4608)
I0622 04:06:54.282385 13672 net.cpp:165] Memory required for data: 470439968
I0622 04:06:54.282385 13672 layer_factory.hpp:77] Creating layer conv10_2_relu
I0622 04:06:54.282385 13672 net.cpp:100] Creating Layer conv10_2_relu
I0622 04:06:54.282385 13672 net.cpp:434] conv10_2_relu <- conv10_2
I0622 04:06:54.282385 13672 net.cpp:395] conv10_2_relu -> conv10_2 (in-place)
I0622 04:06:54.283382 13672 net.cpp:150] Setting up conv10_2_relu
I0622 04:06:54.283382 13672 net.cpp:157] Top shape: 2 256 3 3 (4608)
I0622 04:06:54.283382 13672 net.cpp:165] Memory required for data: 470458400
I0622 04:06:54.283382 13672 layer_factory.hpp:77] Creating layer conv10_2_conv10_2_relu_0_split
I0622 04:06:54.283382 13672 net.cpp:100] Creating Layer conv10_2_conv10_2_relu_0_split
I0622 04:06:54.283382 13672 net.cpp:434] conv10_2_conv10_2_relu_0_split <- conv10_2
I0622 04:06:54.283382 13672 net.cpp:408] conv10_2_conv10_2_relu_0_split -> conv10_2_conv10_2_relu_0_split_0
I0622 04:06:54.283382 13672 net.cpp:408] conv10_2_conv10_2_relu_0_split -> conv10_2_conv10_2_relu_0_split_1
I0622 04:06:54.283382 13672 net.cpp:408] conv10_2_conv10_2_relu_0_split -> conv10_2_conv10_2_relu_0_split_2
I0622 04:06:54.283382 13672 net.cpp:408] conv10_2_conv10_2_relu_0_split -> conv10_2_conv10_2_relu_0_split_3
I0622 04:06:54.283382 13672 net.cpp:150] Setting up conv10_2_conv10_2_relu_0_split
I0622 04:06:54.283382 13672 net.cpp:157] Top shape: 2 256 3 3 (4608)
I0622 04:06:54.283382 13672 net.cpp:157] Top shape: 2 256 3 3 (4608)
I0622 04:06:54.283382 13672 net.cpp:157] Top shape: 2 256 3 3 (4608)
I0622 04:06:54.283382 13672 net.cpp:157] Top shape: 2 256 3 3 (4608)
I0622 04:06:54.285383 13672 net.cpp:165] Memory required for data: 470532128
I0622 04:06:54.285383 13672 layer_factory.hpp:77] Creating layer conv11_1
I0622 04:06:54.285383 13672 net.cpp:100] Creating Layer conv11_1
I0622 04:06:54.285383 13672 net.cpp:434] conv11_1 <- conv10_2_conv10_2_relu_0_split_0
I0622 04:06:54.285383 13672 net.cpp:408] conv11_1 -> conv11_1
I0622 04:06:54.296649 13672 net.cpp:150] Setting up conv11_1
I0622 04:06:54.296649 13672 net.cpp:157] Top shape: 2 128 3 3 (2304)
I0622 04:06:54.296649 13672 net.cpp:165] Memory required for data: 470541344
I0622 04:06:54.296649 13672 layer_factory.hpp:77] Creating layer conv11_1_relu
I0622 04:06:54.296649 13672 net.cpp:100] Creating Layer conv11_1_relu
I0622 04:06:54.296649 13672 net.cpp:434] conv11_1_relu <- conv11_1
I0622 04:06:54.296649 13672 net.cpp:395] conv11_1_relu -> conv11_1 (in-place)
I0622 04:06:54.297647 13672 net.cpp:150] Setting up conv11_1_relu
I0622 04:06:54.297647 13672 net.cpp:157] Top shape: 2 128 3 3 (2304)
I0622 04:06:54.297647 13672 net.cpp:165] Memory required for data: 470550560
I0622 04:06:54.297647 13672 layer_factory.hpp:77] Creating layer conv11_2
I0622 04:06:54.297647 13672 net.cpp:100] Creating Layer conv11_2
I0622 04:06:54.297647 13672 net.cpp:434] conv11_2 <- conv11_1
I0622 04:06:54.297647 13672 net.cpp:408] conv11_2 -> conv11_2
I0622 04:06:54.305711 13672 net.cpp:150] Setting up conv11_2
I0622 04:06:54.305711 13672 net.cpp:157] Top shape: 2 256 1 1 (512)
I0622 04:06:54.305711 13672 net.cpp:165] Memory required for data: 470552608
I0622 04:06:54.305711 13672 layer_factory.hpp:77] Creating layer conv11_2_relu
I0622 04:06:54.305711 13672 net.cpp:100] Creating Layer conv11_2_relu
I0622 04:06:54.305711 13672 net.cpp:434] conv11_2_relu <- conv11_2
I0622 04:06:54.305711 13672 net.cpp:395] conv11_2_relu -> conv11_2 (in-place)
I0622 04:06:54.306654 13672 net.cpp:150] Setting up conv11_2_relu
I0622 04:06:54.306654 13672 net.cpp:157] Top shape: 2 256 1 1 (512)
I0622 04:06:54.306654 13672 net.cpp:165] Memory required for data: 470554656
I0622 04:06:54.306654 13672 layer_factory.hpp:77] Creating layer conv11_2_conv11_2_relu_0_split
I0622 04:06:54.306654 13672 net.cpp:100] Creating Layer conv11_2_conv11_2_relu_0_split
I0622 04:06:54.306654 13672 net.cpp:434] conv11_2_conv11_2_relu_0_split <- conv11_2
I0622 04:06:54.306654 13672 net.cpp:408] conv11_2_conv11_2_relu_0_split -> conv11_2_conv11_2_relu_0_split_0
I0622 04:06:54.306654 13672 net.cpp:408] conv11_2_conv11_2_relu_0_split -> conv11_2_conv11_2_relu_0_split_1
I0622 04:06:54.306654 13672 net.cpp:408] conv11_2_conv11_2_relu_0_split -> conv11_2_conv11_2_relu_0_split_2
I0622 04:06:54.306654 13672 net.cpp:150] Setting up conv11_2_conv11_2_relu_0_split
I0622 04:06:54.306654 13672 net.cpp:157] Top shape: 2 256 1 1 (512)
I0622 04:06:54.306654 13672 net.cpp:157] Top shape: 2 256 1 1 (512)
I0622 04:06:54.306654 13672 net.cpp:157] Top shape: 2 256 1 1 (512)
I0622 04:06:54.306654 13672 net.cpp:165] Memory required for data: 470560800
I0622 04:06:54.306654 13672 layer_factory.hpp:77] Creating layer conv4_3_norm
I0622 04:06:54.306654 13672 net.cpp:100] Creating Layer conv4_3_norm
I0622 04:06:54.306654 13672 net.cpp:434] conv4_3_norm <- conv4_3_relu4_3_0_split_1
I0622 04:06:54.306654 13672 net.cpp:408] conv4_3_norm -> conv4_3_norm
I0622 04:06:54.307652 13672 net.cpp:150] Setting up conv4_3_norm
I0622 04:06:54.307652 13672 net.cpp:157] Top shape: 2 512 38 38 (1478656)
I0622 04:06:54.307652 13672 net.cpp:165] Memory required for data: 476475424
I0622 04:06:54.307652 13672 layer_factory.hpp:77] Creating layer conv4_3_norm_conv4_3_norm_0_split
I0622 04:06:54.307652 13672 net.cpp:100] Creating Layer conv4_3_norm_conv4_3_norm_0_split
I0622 04:06:54.307652 13672 net.cpp:434] conv4_3_norm_conv4_3_norm_0_split <- conv4_3_norm
I0622 04:06:54.307652 13672 net.cpp:408] conv4_3_norm_conv4_3_norm_0_split -> conv4_3_norm_conv4_3_norm_0_split_0
I0622 04:06:54.307652 13672 net.cpp:408] conv4_3_norm_conv4_3_norm_0_split -> conv4_3_norm_conv4_3_norm_0_split_1
I0622 04:06:54.307652 13672 net.cpp:408] conv4_3_norm_conv4_3_norm_0_split -> conv4_3_norm_conv4_3_norm_0_split_2
I0622 04:06:54.307652 13672 net.cpp:150] Setting up conv4_3_norm_conv4_3_norm_0_split
I0622 04:06:54.307652 13672 net.cpp:157] Top shape: 2 512 38 38 (1478656)
I0622 04:06:54.307652 13672 net.cpp:157] Top shape: 2 512 38 38 (1478656)
I0622 04:06:54.307652 13672 net.cpp:157] Top shape: 2 512 38 38 (1478656)
I0622 04:06:54.307652 13672 net.cpp:165] Memory required for data: 494219296
I0622 04:06:54.307652 13672 layer_factory.hpp:77] Creating layer conv4_3_norm_mbox_loc
I0622 04:06:54.307652 13672 net.cpp:100] Creating Layer conv4_3_norm_mbox_loc
I0622 04:06:54.307652 13672 net.cpp:434] conv4_3_norm_mbox_loc <- conv4_3_norm_conv4_3_norm_0_split_0
I0622 04:06:54.307652 13672 net.cpp:408] conv4_3_norm_mbox_loc -> conv4_3_norm_mbox_loc
I0622 04:06:54.315109 13672 net.cpp:150] Setting up conv4_3_norm_mbox_loc
I0622 04:06:54.315109 13672 net.cpp:157] Top shape: 2 16 38 38 (46208)
I0622 04:06:54.315109 13672 net.cpp:165] Memory required for data: 494404128
I0622 04:06:54.315109 13672 layer_factory.hpp:77] Creating layer conv4_3_norm_mbox_loc_perm
I0622 04:06:54.315109 13672 net.cpp:100] Creating Layer conv4_3_norm_mbox_loc_perm
I0622 04:06:54.315109 13672 net.cpp:434] conv4_3_norm_mbox_loc_perm <- conv4_3_norm_mbox_loc
I0622 04:06:54.315109 13672 net.cpp:408] conv4_3_norm_mbox_loc_perm -> conv4_3_norm_mbox_loc_perm
I0622 04:06:54.315109 13672 net.cpp:150] Setting up conv4_3_norm_mbox_loc_perm
I0622 04:06:54.315109 13672 net.cpp:157] Top shape: 2 38 38 16 (46208)
I0622 04:06:54.315109 13672 net.cpp:165] Memory required for data: 494588960
I0622 04:06:54.315109 13672 layer_factory.hpp:77] Creating layer conv4_3_norm_mbox_loc_flat
I0622 04:06:54.315109 13672 net.cpp:100] Creating Layer conv4_3_norm_mbox_loc_flat
I0622 04:06:54.315109 13672 net.cpp:434] conv4_3_norm_mbox_loc_flat <- conv4_3_norm_mbox_loc_perm
I0622 04:06:54.315109 13672 net.cpp:408] conv4_3_norm_mbox_loc_flat -> conv4_3_norm_mbox_loc_flat
I0622 04:06:54.315109 13672 net.cpp:150] Setting up conv4_3_norm_mbox_loc_flat
I0622 04:06:54.315109 13672 net.cpp:157] Top shape: 2 23104 (46208)
I0622 04:06:54.315109 13672 net.cpp:165] Memory required for data: 494773792
I0622 04:06:54.315109 13672 layer_factory.hpp:77] Creating layer conv4_3_norm_mbox_conf
I0622 04:06:54.315109 13672 net.cpp:100] Creating Layer conv4_3_norm_mbox_conf
I0622 04:06:54.315109 13672 net.cpp:434] conv4_3_norm_mbox_conf <- conv4_3_norm_conv4_3_norm_0_split_1
I0622 04:06:54.315109 13672 net.cpp:408] conv4_3_norm_mbox_conf -> conv4_3_norm_mbox_conf
I0622 04:06:54.329349 13672 net.cpp:150] Setting up conv4_3_norm_mbox_conf
I0622 04:06:54.329349 13672 net.cpp:157] Top shape: 2 12 38 38 (34656)
I0622 04:06:54.329349 13672 net.cpp:165] Memory required for data: 494912416
I0622 04:06:54.329349 13672 layer_factory.hpp:77] Creating layer conv4_3_norm_mbox_conf_perm
I0622 04:06:54.329349 13672 net.cpp:100] Creating Layer conv4_3_norm_mbox_conf_perm
I0622 04:06:54.329349 13672 net.cpp:434] conv4_3_norm_mbox_conf_perm <- conv4_3_norm_mbox_conf
I0622 04:06:54.329349 13672 net.cpp:408] conv4_3_norm_mbox_conf_perm -> conv4_3_norm_mbox_conf_perm
I0622 04:06:54.329349 13672 net.cpp:150] Setting up conv4_3_norm_mbox_conf_perm
I0622 04:06:54.329349 13672 net.cpp:157] Top shape: 2 38 38 12 (34656)
I0622 04:06:54.329349 13672 net.cpp:165] Memory required for data: 495051040
I0622 04:06:54.329349 13672 layer_factory.hpp:77] Creating layer conv4_3_norm_mbox_conf_flat
I0622 04:06:54.329349 13672 net.cpp:100] Creating Layer conv4_3_norm_mbox_conf_flat
I0622 04:06:54.329349 13672 net.cpp:434] conv4_3_norm_mbox_conf_flat <- conv4_3_norm_mbox_conf_perm
I0622 04:06:54.329349 13672 net.cpp:408] conv4_3_norm_mbox_conf_flat -> conv4_3_norm_mbox_conf_flat
I0622 04:06:54.329349 13672 net.cpp:150] Setting up conv4_3_norm_mbox_conf_flat
I0622 04:06:54.329349 13672 net.cpp:157] Top shape: 2 17328 (34656)
I0622 04:06:54.329349 13672 net.cpp:165] Memory required for data: 495189664
I0622 04:06:54.329349 13672 layer_factory.hpp:77] Creating layer conv4_3_norm_mbox_priorbox
I0622 04:06:54.329349 13672 net.cpp:100] Creating Layer conv4_3_norm_mbox_priorbox
I0622 04:06:54.329349 13672 net.cpp:434] conv4_3_norm_mbox_priorbox <- conv4_3_norm_conv4_3_norm_0_split_2
I0622 04:06:54.329349 13672 net.cpp:434] conv4_3_norm_mbox_priorbox <- data_data_0_split_1
I0622 04:06:54.329349 13672 net.cpp:408] conv4_3_norm_mbox_priorbox -> conv4_3_norm_mbox_priorbox
I0622 04:06:54.329349 13672 net.cpp:150] Setting up conv4_3_norm_mbox_priorbox
I0622 04:06:54.329349 13672 net.cpp:157] Top shape: 1 2 23104 (46208)
I0622 04:06:54.329349 13672 net.cpp:165] Memory required for data: 495374496
I0622 04:06:54.329349 13672 layer_factory.hpp:77] Creating layer fc7_mbox_loc
I0622 04:06:54.329349 13672 net.cpp:100] Creating Layer fc7_mbox_loc
I0622 04:06:54.329349 13672 net.cpp:434] fc7_mbox_loc <- fc7_relu7_0_split_1
I0622 04:06:54.329349 13672 net.cpp:408] fc7_mbox_loc -> fc7_mbox_loc
I0622 04:06:54.351929 13672 net.cpp:150] Setting up fc7_mbox_loc
I0622 04:06:54.351929 13672 net.cpp:157] Top shape: 2 24 19 19 (17328)
I0622 04:06:54.351929 13672 net.cpp:165] Memory required for data: 495443808
I0622 04:06:54.351929 13672 layer_factory.hpp:77] Creating layer fc7_mbox_loc_perm
I0622 04:06:54.351929 13672 net.cpp:100] Creating Layer fc7_mbox_loc_perm
I0622 04:06:54.351929 13672 net.cpp:434] fc7_mbox_loc_perm <- fc7_mbox_loc
I0622 04:06:54.351929 13672 net.cpp:408] fc7_mbox_loc_perm -> fc7_mbox_loc_perm
I0622 04:06:54.351929 13672 net.cpp:150] Setting up fc7_mbox_loc_perm
I0622 04:06:54.351929 13672 net.cpp:157] Top shape: 2 19 19 24 (17328)
I0622 04:06:54.351929 13672 net.cpp:165] Memory required for data: 495513120
I0622 04:06:54.351929 13672 layer_factory.hpp:77] Creating layer fc7_mbox_loc_flat
I0622 04:06:54.351929 13672 net.cpp:100] Creating Layer fc7_mbox_loc_flat
I0622 04:06:54.351929 13672 net.cpp:434] fc7_mbox_loc_flat <- fc7_mbox_loc_perm
I0622 04:06:54.351929 13672 net.cpp:408] fc7_mbox_loc_flat -> fc7_mbox_loc_flat
I0622 04:06:54.351929 13672 net.cpp:150] Setting up fc7_mbox_loc_flat
I0622 04:06:54.351929 13672 net.cpp:157] Top shape: 2 8664 (17328)
I0622 04:06:54.351929 13672 net.cpp:165] Memory required for data: 495582432
I0622 04:06:54.351929 13672 layer_factory.hpp:77] Creating layer fc7_mbox_conf
I0622 04:06:54.351929 13672 net.cpp:100] Creating Layer fc7_mbox_conf
I0622 04:06:54.351929 13672 net.cpp:434] fc7_mbox_conf <- fc7_relu7_0_split_2
I0622 04:06:54.351929 13672 net.cpp:408] fc7_mbox_conf -> fc7_mbox_conf
I0622 04:06:54.359127 13672 net.cpp:150] Setting up fc7_mbox_conf
I0622 04:06:54.359127 13672 net.cpp:157] Top shape: 2 18 19 19 (12996)
I0622 04:06:54.359127 13672 net.cpp:165] Memory required for data: 495634416
I0622 04:06:54.359127 13672 layer_factory.hpp:77] Creating layer fc7_mbox_conf_perm
I0622 04:06:54.359127 13672 net.cpp:100] Creating Layer fc7_mbox_conf_perm
I0622 04:06:54.359127 13672 net.cpp:434] fc7_mbox_conf_perm <- fc7_mbox_conf
I0622 04:06:54.359127 13672 net.cpp:408] fc7_mbox_conf_perm -> fc7_mbox_conf_perm
I0622 04:06:54.359127 13672 net.cpp:150] Setting up fc7_mbox_conf_perm
I0622 04:06:54.359127 13672 net.cpp:157] Top shape: 2 19 19 18 (12996)
I0622 04:06:54.359127 13672 net.cpp:165] Memory required for data: 495686400
I0622 04:06:54.359127 13672 layer_factory.hpp:77] Creating layer fc7_mbox_conf_flat
I0622 04:06:54.359127 13672 net.cpp:100] Creating Layer fc7_mbox_conf_flat
I0622 04:06:54.359127 13672 net.cpp:434] fc7_mbox_conf_flat <- fc7_mbox_conf_perm
I0622 04:06:54.359127 13672 net.cpp:408] fc7_mbox_conf_flat -> fc7_mbox_conf_flat
I0622 04:06:54.359127 13672 net.cpp:150] Setting up fc7_mbox_conf_flat
I0622 04:06:54.359127 13672 net.cpp:157] Top shape: 2 6498 (12996)
I0622 04:06:54.359127 13672 net.cpp:165] Memory required for data: 495738384
I0622 04:06:54.359127 13672 layer_factory.hpp:77] Creating layer fc7_mbox_priorbox
I0622 04:06:54.359127 13672 net.cpp:100] Creating Layer fc7_mbox_priorbox
I0622 04:06:54.359127 13672 net.cpp:434] fc7_mbox_priorbox <- fc7_relu7_0_split_3
I0622 04:06:54.359127 13672 net.cpp:434] fc7_mbox_priorbox <- data_data_0_split_2
I0622 04:06:54.359127 13672 net.cpp:408] fc7_mbox_priorbox -> fc7_mbox_priorbox
I0622 04:06:54.359127 13672 net.cpp:150] Setting up fc7_mbox_priorbox
I0622 04:06:54.359127 13672 net.cpp:157] Top shape: 1 2 8664 (17328)
I0622 04:06:54.359127 13672 net.cpp:165] Memory required for data: 495807696
I0622 04:06:54.359127 13672 layer_factory.hpp:77] Creating layer conv8_2_mbox_loc
I0622 04:06:54.359127 13672 net.cpp:100] Creating Layer conv8_2_mbox_loc
I0622 04:06:54.359127 13672 net.cpp:434] conv8_2_mbox_loc <- conv8_2_conv8_2_relu_0_split_1
I0622 04:06:54.359127 13672 net.cpp:408] conv8_2_mbox_loc -> conv8_2_mbox_loc
I0622 04:06:54.366415 13672 net.cpp:150] Setting up conv8_2_mbox_loc
I0622 04:06:54.366415 13672 net.cpp:157] Top shape: 2 24 10 10 (4800)
I0622 04:06:54.366415 13672 net.cpp:165] Memory required for data: 495826896
I0622 04:06:54.366415 13672 layer_factory.hpp:77] Creating layer conv8_2_mbox_loc_perm
I0622 04:06:54.366415 13672 net.cpp:100] Creating Layer conv8_2_mbox_loc_perm
I0622 04:06:54.366415 13672 net.cpp:434] conv8_2_mbox_loc_perm <- conv8_2_mbox_loc
I0622 04:06:54.366415 13672 net.cpp:408] conv8_2_mbox_loc_perm -> conv8_2_mbox_loc_perm
I0622 04:06:54.366415 13672 net.cpp:150] Setting up conv8_2_mbox_loc_perm
I0622 04:06:54.366415 13672 net.cpp:157] Top shape: 2 10 10 24 (4800)
I0622 04:06:54.366415 13672 net.cpp:165] Memory required for data: 495846096
I0622 04:06:54.366415 13672 layer_factory.hpp:77] Creating layer conv8_2_mbox_loc_flat
I0622 04:06:54.366415 13672 net.cpp:100] Creating Layer conv8_2_mbox_loc_flat
I0622 04:06:54.366415 13672 net.cpp:434] conv8_2_mbox_loc_flat <- conv8_2_mbox_loc_perm
I0622 04:06:54.366415 13672 net.cpp:408] conv8_2_mbox_loc_flat -> conv8_2_mbox_loc_flat
I0622 04:06:54.366415 13672 net.cpp:150] Setting up conv8_2_mbox_loc_flat
I0622 04:06:54.366415 13672 net.cpp:157] Top shape: 2 2400 (4800)
I0622 04:06:54.366415 13672 net.cpp:165] Memory required for data: 495865296
I0622 04:06:54.366415 13672 layer_factory.hpp:77] Creating layer conv8_2_mbox_conf
I0622 04:06:54.366415 13672 net.cpp:100] Creating Layer conv8_2_mbox_conf
I0622 04:06:54.366415 13672 net.cpp:434] conv8_2_mbox_conf <- conv8_2_conv8_2_relu_0_split_2
I0622 04:06:54.366415 13672 net.cpp:408] conv8_2_mbox_conf -> conv8_2_mbox_conf
I0622 04:06:54.399403 13672 net.cpp:150] Setting up conv8_2_mbox_conf
I0622 04:06:54.399403 13672 net.cpp:157] Top shape: 2 18 10 10 (3600)
I0622 04:06:54.399403 13672 net.cpp:165] Memory required for data: 495879696
I0622 04:06:54.399403 13672 layer_factory.hpp:77] Creating layer conv8_2_mbox_conf_perm
I0622 04:06:54.399403 13672 net.cpp:100] Creating Layer conv8_2_mbox_conf_perm
I0622 04:06:54.399403 13672 net.cpp:434] conv8_2_mbox_conf_perm <- conv8_2_mbox_conf
I0622 04:06:54.399403 13672 net.cpp:408] conv8_2_mbox_conf_perm -> conv8_2_mbox_conf_perm
I0622 04:06:54.399403 13672 net.cpp:150] Setting up conv8_2_mbox_conf_perm
I0622 04:06:54.399403 13672 net.cpp:157] Top shape: 2 10 10 18 (3600)
I0622 04:06:54.399403 13672 net.cpp:165] Memory required for data: 495894096
I0622 04:06:54.399403 13672 layer_factory.hpp:77] Creating layer conv8_2_mbox_conf_flat
I0622 04:06:54.399403 13672 net.cpp:100] Creating Layer conv8_2_mbox_conf_flat
I0622 04:06:54.399403 13672 net.cpp:434] conv8_2_mbox_conf_flat <- conv8_2_mbox_conf_perm
I0622 04:06:54.399403 13672 net.cpp:408] conv8_2_mbox_conf_flat -> conv8_2_mbox_conf_flat
I0622 04:06:54.399403 13672 net.cpp:150] Setting up conv8_2_mbox_conf_flat
I0622 04:06:54.399403 13672 net.cpp:157] Top shape: 2 1800 (3600)
I0622 04:06:54.399403 13672 net.cpp:165] Memory required for data: 495908496
I0622 04:06:54.399403 13672 layer_factory.hpp:77] Creating layer conv8_2_mbox_priorbox
I0622 04:06:54.399403 13672 net.cpp:100] Creating Layer conv8_2_mbox_priorbox
I0622 04:06:54.399403 13672 net.cpp:434] conv8_2_mbox_priorbox <- conv8_2_conv8_2_relu_0_split_3
I0622 04:06:54.399403 13672 net.cpp:434] conv8_2_mbox_priorbox <- data_data_0_split_3
I0622 04:06:54.399403 13672 net.cpp:408] conv8_2_mbox_priorbox -> conv8_2_mbox_priorbox
I0622 04:06:54.400400 13672 net.cpp:150] Setting up conv8_2_mbox_priorbox
I0622 04:06:54.400413 13672 net.cpp:157] Top shape: 1 2 2400 (4800)
I0622 04:06:54.400413 13672 net.cpp:165] Memory required for data: 495927696
I0622 04:06:54.400413 13672 layer_factory.hpp:77] Creating layer conv9_2_mbox_loc
I0622 04:06:54.400413 13672 net.cpp:100] Creating Layer conv9_2_mbox_loc
I0622 04:06:54.400413 13672 net.cpp:434] conv9_2_mbox_loc <- conv9_2_conv9_2_relu_0_split_1
I0622 04:06:54.400413 13672 net.cpp:408] conv9_2_mbox_loc -> conv9_2_mbox_loc
I0622 04:06:54.404402 13672 net.cpp:150] Setting up conv9_2_mbox_loc
I0622 04:06:54.404402 13672 net.cpp:157] Top shape: 2 24 5 5 (1200)
I0622 04:06:54.404402 13672 net.cpp:165] Memory required for data: 495932496
I0622 04:06:54.404402 13672 layer_factory.hpp:77] Creating layer conv9_2_mbox_loc_perm
I0622 04:06:54.404402 13672 net.cpp:100] Creating Layer conv9_2_mbox_loc_perm
I0622 04:06:54.404402 13672 net.cpp:434] conv9_2_mbox_loc_perm <- conv9_2_mbox_loc
I0622 04:06:54.404402 13672 net.cpp:408] conv9_2_mbox_loc_perm -> conv9_2_mbox_loc_perm
I0622 04:06:54.404402 13672 net.cpp:150] Setting up conv9_2_mbox_loc_perm
I0622 04:06:54.404402 13672 net.cpp:157] Top shape: 2 5 5 24 (1200)
I0622 04:06:54.404402 13672 net.cpp:165] Memory required for data: 495937296
I0622 04:06:54.404402 13672 layer_factory.hpp:77] Creating layer conv9_2_mbox_loc_flat
I0622 04:06:54.404402 13672 net.cpp:100] Creating Layer conv9_2_mbox_loc_flat
I0622 04:06:54.404402 13672 net.cpp:434] conv9_2_mbox_loc_flat <- conv9_2_mbox_loc_perm
I0622 04:06:54.404402 13672 net.cpp:408] conv9_2_mbox_loc_flat -> conv9_2_mbox_loc_flat
I0622 04:06:54.405400 13672 net.cpp:150] Setting up conv9_2_mbox_loc_flat
I0622 04:06:54.405400 13672 net.cpp:157] Top shape: 2 600 (1200)
I0622 04:06:54.405400 13672 net.cpp:165] Memory required for data: 495942096
I0622 04:06:54.405400 13672 layer_factory.hpp:77] Creating layer conv9_2_mbox_conf
I0622 04:06:54.405400 13672 net.cpp:100] Creating Layer conv9_2_mbox_conf
I0622 04:06:54.405400 13672 net.cpp:434] conv9_2_mbox_conf <- conv9_2_conv9_2_relu_0_split_2
I0622 04:06:54.405400 13672 net.cpp:408] conv9_2_mbox_conf -> conv9_2_mbox_conf
I0622 04:06:54.410387 13672 net.cpp:150] Setting up conv9_2_mbox_conf
I0622 04:06:54.410387 13672 net.cpp:157] Top shape: 2 18 5 5 (900)
I0622 04:06:54.410387 13672 net.cpp:165] Memory required for data: 495945696
I0622 04:06:54.410387 13672 layer_factory.hpp:77] Creating layer conv9_2_mbox_conf_perm
I0622 04:06:54.410387 13672 net.cpp:100] Creating Layer conv9_2_mbox_conf_perm
I0622 04:06:54.410387 13672 net.cpp:434] conv9_2_mbox_conf_perm <- conv9_2_mbox_conf
I0622 04:06:54.410387 13672 net.cpp:408] conv9_2_mbox_conf_perm -> conv9_2_mbox_conf_perm
I0622 04:06:54.410387 13672 net.cpp:150] Setting up conv9_2_mbox_conf_perm
I0622 04:06:54.410387 13672 net.cpp:157] Top shape: 2 5 5 18 (900)
I0622 04:06:54.410387 13672 net.cpp:165] Memory required for data: 495949296
I0622 04:06:54.410387 13672 layer_factory.hpp:77] Creating layer conv9_2_mbox_conf_flat
I0622 04:06:54.410387 13672 net.cpp:100] Creating Layer conv9_2_mbox_conf_flat
I0622 04:06:54.410387 13672 net.cpp:434] conv9_2_mbox_conf_flat <- conv9_2_mbox_conf_perm
I0622 04:06:54.410387 13672 net.cpp:408] conv9_2_mbox_conf_flat -> conv9_2_mbox_conf_flat
I0622 04:06:54.410387 13672 net.cpp:150] Setting up conv9_2_mbox_conf_flat
I0622 04:06:54.410387 13672 net.cpp:157] Top shape: 2 450 (900)
I0622 04:06:54.410387 13672 net.cpp:165] Memory required for data: 495952896
I0622 04:06:54.410387 13672 layer_factory.hpp:77] Creating layer conv9_2_mbox_priorbox
I0622 04:06:54.410387 13672 net.cpp:100] Creating Layer conv9_2_mbox_priorbox
I0622 04:06:54.410387 13672 net.cpp:434] conv9_2_mbox_priorbox <- conv9_2_conv9_2_relu_0_split_3
I0622 04:06:54.410387 13672 net.cpp:434] conv9_2_mbox_priorbox <- data_data_0_split_4
I0622 04:06:54.410387 13672 net.cpp:408] conv9_2_mbox_priorbox -> conv9_2_mbox_priorbox
I0622 04:06:54.410387 13672 net.cpp:150] Setting up conv9_2_mbox_priorbox
I0622 04:06:54.410387 13672 net.cpp:157] Top shape: 1 2 600 (1200)
I0622 04:06:54.410387 13672 net.cpp:165] Memory required for data: 495957696
I0622 04:06:54.410387 13672 layer_factory.hpp:77] Creating layer conv10_2_mbox_loc
I0622 04:06:54.410387 13672 net.cpp:100] Creating Layer conv10_2_mbox_loc
I0622 04:06:54.410387 13672 net.cpp:434] conv10_2_mbox_loc <- conv10_2_conv10_2_relu_0_split_1
I0622 04:06:54.410387 13672 net.cpp:408] conv10_2_mbox_loc -> conv10_2_mbox_loc
I0622 04:06:54.457005 13672 net.cpp:150] Setting up conv10_2_mbox_loc
I0622 04:06:54.457005 13672 net.cpp:157] Top shape: 2 16 3 3 (288)
I0622 04:06:54.457005 13672 net.cpp:165] Memory required for data: 495958848
I0622 04:06:54.457005 13672 layer_factory.hpp:77] Creating layer conv10_2_mbox_loc_perm
I0622 04:06:54.457005 13672 net.cpp:100] Creating Layer conv10_2_mbox_loc_perm
I0622 04:06:54.457005 13672 net.cpp:434] conv10_2_mbox_loc_perm <- conv10_2_mbox_loc
I0622 04:06:54.457005 13672 net.cpp:408] conv10_2_mbox_loc_perm -> conv10_2_mbox_loc_perm
I0622 04:06:54.457631 13672 net.cpp:150] Setting up conv10_2_mbox_loc_perm
I0622 04:06:54.457631 13672 net.cpp:157] Top shape: 2 3 3 16 (288)
I0622 04:06:54.457631 13672 net.cpp:165] Memory required for data: 495960000
I0622 04:06:54.457631 13672 layer_factory.hpp:77] Creating layer conv10_2_mbox_loc_flat
I0622 04:06:54.457631 13672 net.cpp:100] Creating Layer conv10_2_mbox_loc_flat
I0622 04:06:54.457631 13672 net.cpp:434] conv10_2_mbox_loc_flat <- conv10_2_mbox_loc_perm
I0622 04:06:54.457631 13672 net.cpp:408] conv10_2_mbox_loc_flat -> conv10_2_mbox_loc_flat
I0622 04:06:54.457631 13672 net.cpp:150] Setting up conv10_2_mbox_loc_flat
I0622 04:06:54.457631 13672 net.cpp:157] Top shape: 2 144 (288)
I0622 04:06:54.457631 13672 net.cpp:165] Memory required for data: 495961152
I0622 04:06:54.457631 13672 layer_factory.hpp:77] Creating layer conv10_2_mbox_conf
I0622 04:06:54.457631 13672 net.cpp:100] Creating Layer conv10_2_mbox_conf
I0622 04:06:54.457631 13672 net.cpp:434] conv10_2_mbox_conf <- conv10_2_conv10_2_relu_0_split_2
I0622 04:06:54.457631 13672 net.cpp:408] conv10_2_mbox_conf -> conv10_2_mbox_conf
I0622 04:06:54.462823 13672 net.cpp:150] Setting up conv10_2_mbox_conf
I0622 04:06:54.462823 13672 net.cpp:157] Top shape: 2 12 3 3 (216)
I0622 04:06:54.462823 13672 net.cpp:165] Memory required for data: 495962016
I0622 04:06:54.462823 13672 layer_factory.hpp:77] Creating layer conv10_2_mbox_conf_perm
I0622 04:06:54.462823 13672 net.cpp:100] Creating Layer conv10_2_mbox_conf_perm
I0622 04:06:54.462823 13672 net.cpp:434] conv10_2_mbox_conf_perm <- conv10_2_mbox_conf
I0622 04:06:54.462823 13672 net.cpp:408] conv10_2_mbox_conf_perm -> conv10_2_mbox_conf_perm
I0622 04:06:54.462823 13672 net.cpp:150] Setting up conv10_2_mbox_conf_perm
I0622 04:06:54.462823 13672 net.cpp:157] Top shape: 2 3 3 12 (216)
I0622 04:06:54.462823 13672 net.cpp:165] Memory required for data: 495962880
I0622 04:06:54.462823 13672 layer_factory.hpp:77] Creating layer conv10_2_mbox_conf_flat
I0622 04:06:54.462823 13672 net.cpp:100] Creating Layer conv10_2_mbox_conf_flat
I0622 04:06:54.462823 13672 net.cpp:434] conv10_2_mbox_conf_flat <- conv10_2_mbox_conf_perm
I0622 04:06:54.462823 13672 net.cpp:408] conv10_2_mbox_conf_flat -> conv10_2_mbox_conf_flat
I0622 04:06:54.462823 13672 net.cpp:150] Setting up conv10_2_mbox_conf_flat
I0622 04:06:54.462823 13672 net.cpp:157] Top shape: 2 108 (216)
I0622 04:06:54.462823 13672 net.cpp:165] Memory required for data: 495963744
I0622 04:06:54.462823 13672 layer_factory.hpp:77] Creating layer conv10_2_mbox_priorbox
I0622 04:06:54.463820 13672 net.cpp:100] Creating Layer conv10_2_mbox_priorbox
I0622 04:06:54.463820 13672 net.cpp:434] conv10_2_mbox_priorbox <- conv10_2_conv10_2_relu_0_split_3
I0622 04:06:54.463820 13672 net.cpp:434] conv10_2_mbox_priorbox <- data_data_0_split_5
I0622 04:06:54.463820 13672 net.cpp:408] conv10_2_mbox_priorbox -> conv10_2_mbox_priorbox
I0622 04:06:54.463820 13672 net.cpp:150] Setting up conv10_2_mbox_priorbox
I0622 04:06:54.463820 13672 net.cpp:157] Top shape: 1 2 144 (288)
I0622 04:06:54.463820 13672 net.cpp:165] Memory required for data: 495964896
I0622 04:06:54.463820 13672 layer_factory.hpp:77] Creating layer conv11_2_mbox_loc
I0622 04:06:54.463820 13672 net.cpp:100] Creating Layer conv11_2_mbox_loc
I0622 04:06:54.463820 13672 net.cpp:434] conv11_2_mbox_loc <- conv11_2_conv11_2_relu_0_split_0
I0622 04:06:54.463820 13672 net.cpp:408] conv11_2_mbox_loc -> conv11_2_mbox_loc
I0622 04:06:54.467586 13672 net.cpp:150] Setting up conv11_2_mbox_loc
I0622 04:06:54.467586 13672 net.cpp:157] Top shape: 2 16 1 1 (32)
I0622 04:06:54.467586 13672 net.cpp:165] Memory required for data: 495965024
I0622 04:06:54.467586 13672 layer_factory.hpp:77] Creating layer conv11_2_mbox_loc_perm
I0622 04:06:54.467586 13672 net.cpp:100] Creating Layer conv11_2_mbox_loc_perm
I0622 04:06:54.467586 13672 net.cpp:434] conv11_2_mbox_loc_perm <- conv11_2_mbox_loc
I0622 04:06:54.467586 13672 net.cpp:408] conv11_2_mbox_loc_perm -> conv11_2_mbox_loc_perm
I0622 04:06:54.467586 13672 net.cpp:150] Setting up conv11_2_mbox_loc_perm
I0622 04:06:54.467586 13672 net.cpp:157] Top shape: 2 1 1 16 (32)
I0622 04:06:54.467586 13672 net.cpp:165] Memory required for data: 495965152
I0622 04:06:54.467586 13672 layer_factory.hpp:77] Creating layer conv11_2_mbox_loc_flat
I0622 04:06:54.467586 13672 net.cpp:100] Creating Layer conv11_2_mbox_loc_flat
I0622 04:06:54.467586 13672 net.cpp:434] conv11_2_mbox_loc_flat <- conv11_2_mbox_loc_perm
I0622 04:06:54.467586 13672 net.cpp:408] conv11_2_mbox_loc_flat -> conv11_2_mbox_loc_flat
I0622 04:06:54.467586 13672 net.cpp:150] Setting up conv11_2_mbox_loc_flat
I0622 04:06:54.467586 13672 net.cpp:157] Top shape: 2 16 (32)
I0622 04:06:54.467586 13672 net.cpp:165] Memory required for data: 495965280
I0622 04:06:54.467586 13672 layer_factory.hpp:77] Creating layer conv11_2_mbox_conf
I0622 04:06:54.467586 13672 net.cpp:100] Creating Layer conv11_2_mbox_conf
I0622 04:06:54.467586 13672 net.cpp:434] conv11_2_mbox_conf <- conv11_2_conv11_2_relu_0_split_1
I0622 04:06:54.467586 13672 net.cpp:408] conv11_2_mbox_conf -> conv11_2_mbox_conf
I0622 04:06:54.472450 13672 net.cpp:150] Setting up conv11_2_mbox_conf
I0622 04:06:54.472450 13672 net.cpp:157] Top shape: 2 12 1 1 (24)
I0622 04:06:54.472450 13672 net.cpp:165] Memory required for data: 495965376
I0622 04:06:54.472450 13672 layer_factory.hpp:77] Creating layer conv11_2_mbox_conf_perm
I0622 04:06:54.472450 13672 net.cpp:100] Creating Layer conv11_2_mbox_conf_perm
I0622 04:06:54.472450 13672 net.cpp:434] conv11_2_mbox_conf_perm <- conv11_2_mbox_conf
I0622 04:06:54.472450 13672 net.cpp:408] conv11_2_mbox_conf_perm -> conv11_2_mbox_conf_perm
I0622 04:06:54.472450 13672 net.cpp:150] Setting up conv11_2_mbox_conf_perm
I0622 04:06:54.472450 13672 net.cpp:157] Top shape: 2 1 1 12 (24)
I0622 04:06:54.472450 13672 net.cpp:165] Memory required for data: 495965472
I0622 04:06:54.472450 13672 layer_factory.hpp:77] Creating layer conv11_2_mbox_conf_flat
I0622 04:06:54.472450 13672 net.cpp:100] Creating Layer conv11_2_mbox_conf_flat
I0622 04:06:54.472450 13672 net.cpp:434] conv11_2_mbox_conf_flat <- conv11_2_mbox_conf_perm
I0622 04:06:54.472450 13672 net.cpp:408] conv11_2_mbox_conf_flat -> conv11_2_mbox_conf_flat
I0622 04:06:54.472450 13672 net.cpp:150] Setting up conv11_2_mbox_conf_flat
I0622 04:06:54.472450 13672 net.cpp:157] Top shape: 2 12 (24)
I0622 04:06:54.472450 13672 net.cpp:165] Memory required for data: 495965568
I0622 04:06:54.472450 13672 layer_factory.hpp:77] Creating layer conv11_2_mbox_priorbox
I0622 04:06:54.472450 13672 net.cpp:100] Creating Layer conv11_2_mbox_priorbox
I0622 04:06:54.472450 13672 net.cpp:434] conv11_2_mbox_priorbox <- conv11_2_conv11_2_relu_0_split_2
I0622 04:06:54.497822 13672 net.cpp:434] conv11_2_mbox_priorbox <- data_data_0_split_6
I0622 04:06:54.497822 13672 net.cpp:408] conv11_2_mbox_priorbox -> conv11_2_mbox_priorbox
I0622 04:06:54.498783 13672 net.cpp:150] Setting up conv11_2_mbox_priorbox
I0622 04:06:54.498783 13672 net.cpp:157] Top shape: 1 2 16 (32)
I0622 04:06:54.498783 13672 net.cpp:165] Memory required for data: 495965696
I0622 04:06:54.498783 13672 layer_factory.hpp:77] Creating layer mbox_loc
I0622 04:06:54.498783 13672 net.cpp:100] Creating Layer mbox_loc
I0622 04:06:54.498783 13672 net.cpp:434] mbox_loc <- conv4_3_norm_mbox_loc_flat
I0622 04:06:54.498783 13672 net.cpp:434] mbox_loc <- fc7_mbox_loc_flat
I0622 04:06:54.498783 13672 net.cpp:434] mbox_loc <- conv8_2_mbox_loc_flat
I0622 04:06:54.498783 13672 net.cpp:434] mbox_loc <- conv9_2_mbox_loc_flat
I0622 04:06:54.498783 13672 net.cpp:434] mbox_loc <- conv10_2_mbox_loc_flat
I0622 04:06:54.498783 13672 net.cpp:434] mbox_loc <- conv11_2_mbox_loc_flat
I0622 04:06:54.498783 13672 net.cpp:408] mbox_loc -> mbox_loc
I0622 04:06:54.499784 13672 net.cpp:150] Setting up mbox_loc
I0622 04:06:54.499784 13672 net.cpp:157] Top shape: 2 34928 (69856)
I0622 04:06:54.499784 13672 net.cpp:165] Memory required for data: 496245120
I0622 04:06:54.499784 13672 layer_factory.hpp:77] Creating layer mbox_conf
I0622 04:06:54.499784 13672 net.cpp:100] Creating Layer mbox_conf
I0622 04:06:54.499784 13672 net.cpp:434] mbox_conf <- conv4_3_norm_mbox_conf_flat
I0622 04:06:54.499784 13672 net.cpp:434] mbox_conf <- fc7_mbox_conf_flat
I0622 04:06:54.499784 13672 net.cpp:434] mbox_conf <- conv8_2_mbox_conf_flat
I0622 04:06:54.499784 13672 net.cpp:434] mbox_conf <- conv9_2_mbox_conf_flat
I0622 04:06:54.499784 13672 net.cpp:434] mbox_conf <- conv10_2_mbox_conf_flat
I0622 04:06:54.499784 13672 net.cpp:434] mbox_conf <- conv11_2_mbox_conf_flat
I0622 04:06:54.499784 13672 net.cpp:408] mbox_conf -> mbox_conf
I0622 04:06:54.499784 13672 net.cpp:150] Setting up mbox_conf
I0622 04:06:54.499784 13672 net.cpp:157] Top shape: 2 26196 (52392)
I0622 04:06:54.501812 13672 net.cpp:165] Memory required for data: 496454688
I0622 04:06:54.501812 13672 layer_factory.hpp:77] Creating layer mbox_priorbox
I0622 04:06:54.501812 13672 net.cpp:100] Creating Layer mbox_priorbox
I0622 04:06:54.501812 13672 net.cpp:434] mbox_priorbox <- conv4_3_norm_mbox_priorbox
I0622 04:06:54.501812 13672 net.cpp:434] mbox_priorbox <- fc7_mbox_priorbox
I0622 04:06:54.501812 13672 net.cpp:434] mbox_priorbox <- conv8_2_mbox_priorbox
I0622 04:06:54.501812 13672 net.cpp:434] mbox_priorbox <- conv9_2_mbox_priorbox
I0622 04:06:54.501812 13672 net.cpp:434] mbox_priorbox <- conv10_2_mbox_priorbox
I0622 04:06:54.501812 13672 net.cpp:434] mbox_priorbox <- conv11_2_mbox_priorbox
I0622 04:06:54.501812 13672 net.cpp:408] mbox_priorbox -> mbox_priorbox
I0622 04:06:54.501812 13672 net.cpp:150] Setting up mbox_priorbox
I0622 04:06:54.501812 13672 net.cpp:157] Top shape: 1 2 34928 (69856)
I0622 04:06:54.501812 13672 net.cpp:165] Memory required for data: 496734112
I0622 04:06:54.503806 13672 layer_factory.hpp:77] Creating layer mbox_loss
I0622 04:06:54.503806 13672 net.cpp:100] Creating Layer mbox_loss
I0622 04:06:54.503806 13672 net.cpp:434] mbox_loss <- mbox_loc
I0622 04:06:54.503806 13672 net.cpp:434] mbox_loss <- mbox_conf
I0622 04:06:54.503806 13672 net.cpp:434] mbox_loss <- mbox_priorbox
…
  name: "data"
  type: "AnnotatedData"
  top: "data"
  top: "label"
  include {
    phase: TEST
  }
  transform_param {
    mean_value: 104
    mean_value: 117
    mean_value: 123
    force_color: true
    resize_param {
      prob: 1
      resize_mode: WARP
      height: 300
      width: 300
      interp_mode: LINEAR
    }
  }
  data_param {
    source: "examples\\wastedata\\wastedata_test_lmdb"
    batch_size: 2
    backend: LMDB
  }
  annotated_data_param {
    batch_sampler {
    }
    label_map_file: "data\\wastedata\\labelmap_waste.prototxt"
  }
}
layer {
  name: "conv1_1"
  type: "Convolution"
  bottom: "data"
  top: "conv1_1"
  param {
    lr_mult: 1
    decay_mult: 1
  }
  param {
    lr_mult: 2
    decay_mult: 0
  }
  convolution_param {
    num_output: 64
    pad: 1
    kernel_size: 3
    weight_filler {
      type: "xavier"
    }
    bias_filler {
      type: "constant"
      value: 0
    }
  }
}
layer {
  name: "relu1_1"
  type: "ReLU"
  bottom: "conv1_1"
  top: "conv1_1"
}
layer {
  name: "conv1_2"
  type: "Convolution"
  bottom: "conv1_1"
  top: "conv1_2"
  param {
    lr_mult: 1
    decay_mult: 1
  }
  param {
    lr_mult: 2
    decay_mult: 0
  }
  convolution_param {
    num_output: 64
    pad: 1
    kernel_size: 3
    weight_filler {
      type: "xavier"
    }
    bias_filler {
      type: "constant"
      value: 0
    }
  }
}
layer {
  name: "relu1_2"
  type: "ReLU"
  bottom: "conv1_2"
  top: "conv1_2"
}
layer {
  name: "pool1"
  type: "Pooling"
  bottom: "conv1_2"
  top: "pool1"
  pooling_param {
    pool: MAX
    kernel_size: 2
    stride: 2
  }
}
layer {
  name: "conv2_1"
  type: "Convolution"
  bottom: "pool1"
  top: "conv2_1"
  param {
    lr_mult: 1
    decay_mult: 1
  }
  param {
    lr_mult: 2
    decay_mult: 0
  }
  convolution_param {
    num_output: 128
    pad: 1
    kernel_size: 3
    weight_filler {
      type: "xavier"
    }
    bias_filler {
      type: "constant"
      value: 0
    }
  }
}
layer {
  name: "relu2_1"
  type: "ReLU"
  bottom: "conv2_1"
  top: "conv2_1"
}
layer {
  name: "conv2_2"
  type: "Convolution"
  bottom: "conv2_1"
  top: "conv2_2"
  param {
    lr_mult: 1
    decay_mult: 1
  }
  param {
    lr_mult: 2
    decay_mult: 0
  }
  convolution_param {
    num_output: 128
    pad: 1
    kernel_size: 3
    weight_filler {
      type: "xavier"
    }
    bias_filler {
      type: "constant"
      value: 0
    }
  }
}
layer {
  name: "relu2_2"
  type: "ReLU"
  bottom: "conv2_2"
  top: "conv2_2"
}
layer {
  name: "pool2"
  type: "Pooling"
  bottom: "conv2_2"
  top: "pool2"
  pooling_param {
    pool: MAX
    kernel_size: 2
    stride: 2
  }
}
layer {
  name: "conv3_1"
  type: "Convolution"
  bottom: "pool2"
  top: "conv3_1"
  param {
    lr_mult: 1
    decay_mult: 1
  }
  param {
    lr_mult: 2
    decay_mult: 0
  }
  convolution_param {
    num_output: 256
    pad: 1
    kernel_size: 3
    weight_filler {
      type: "xavier"
    }
    bias_filler {
      type: "constant"
      value: 0
    }
  }
}
layer {
  name: "relu3_1"
  type: "ReLU"
  bottom: "conv3_1"
  top: "conv3_1"
}
layer {
  name: "conv3_2"
  type: "Convolution"
  bottom: "conv3_1"
  top: "conv3_2"
  param {
    lr_mult: 1
    decay_mult: 1
  }
  param {
    lr_mult: 2
    decay_mult: 0
  }
  convolution_param {
    num_output: 256
    pad: 1
    kernel_size: 3
    weight_filler {
      type: "xavier"
    }
    bias_filler {
      type: "constant"
      value: 0
    }
  }
}
layer {
  name: "relu3_2"
  type: "ReLU"
  bottom: "conv3_2"
  top: "conv3_2"
}
layer {
  name: "conv3_3"
  type: "Convolution"
  bottom: "conv3_2"
  top: "conv3_3"
  param {
    lr_mult: 1
    decay_mult: 1
  }
  param {
    lr_mult: 2
    decay_mult: 0
  }
  convolution_param {
    num_output: 256
    pad: 1
    kernel_size: 3
    weight_filler {
      type: "xavier"
    }
    bias_filler {
      type: "constant"
      value: 0
    }
  }
}
layer {
  name: "relu3_3"
  type: "ReLU"
  bottom: "conv3_3"
  top: "conv3_3"
}
layer {
  name: "pool3"
  type: "Pooling"
  bottom: "conv3_3"
  top: "pool3"
  pooling_param {
    pool: MAX
    kernel_size: 2
    stride: 2
  }
}
layer {
  name: "conv4_1"
  type: "Convolution"
  bottom: "pool3"
  top: "conv4_1"
  param {
    lr_mult: 1
    decay_mult: 1
  }
  param {
    lr_mult: 2
    decay_mult: 0
  }
  convolution_param {
    num_output: 512
    pad: 1
    kernel_size: 3
    weight_filler {
      type: "xavier"
    }
    bias_filler {
      type: "constant"
      value: 0
    }
  }
}
layer {
  name: "relu4_1"
  type: "ReLU"
  bottom: "conv4_1"
  top: "conv4_1"
}
layer {
  name: "conv4_2"
  type: "Convolution"
  bottom: "conv4_1"
  top: "conv4_2"
  param {
    lr_mult: 1
    decay_mult: 1
  }
  param {
    lr_mult: 2
    decay_mult: 0
  }
  convolution_param {
    num_output: 512
    pad: 1
    kernel_size: 3
    weight_filler {
      type: "xavier"
    }
    bias_filler {
      type: "constant"
      value: 0
    }
  }
}
layer {
  name: "relu4_2"
  type: "ReLU"
  bottom: "conv4_2"
  top: "conv4_2"
}
layer {
  name: "conv4_3"
  type: "Convolution"
  bottom: "conv4_2"
  top: "conv4_3"
  param {
    lr_mult: 1
    decay_mult: 1
  }
  param {
    lr_mult: 2
    decay_mult: 0
  }
  convolution_param {
    num_output: 512
    pad: 1
    kernel_size: 3
    weight_filler {
      type: "xavier"
    }
    bias_filler {
      type: "constant"
      value: 0
    }
  }
}
layer {
  name: "relu4_3"
  type: "ReLU"
  bottom: "conv4_3"
  top: "conv4_3"
}
layer {
  name: "pool4"
  type: "Pooling"
  bottom: "conv4_3"
  top: "pool4"
  pooling_param {
    pool: MAX
    kernel_size: 2
    stride: 2
  }
}
layer {
  name: "conv5_1"
  type: "Convolution"
  bottom: "pool4"
  top: "conv5_1"
  param {
    lr_mult: 1
    decay_mult: 1
  }
  param {
    lr_mult: 2
    decay_mult: 0
  }
  convolution_param {
    num_output: 512
    pad: 1
    kernel_size: 3
    weight_filler {
      type: "xavier"
    }
    bias_filler {
      type: "constant"
      value: 0
    }
    dilation: 1
  }
}
layer {
  name: "relu5_1"
  type: "ReLU"
  bottom: "conv5_1"
  top: "conv5_1"
}
layer {
  name: "conv5_2"
  type: "Convolution"
  bottom: "conv5_1"
  top: "conv5_2"
  param {
    lr_mult: 1
    decay_mult: 1
  }
  param {
    lr_mult: 2
    decay_mult: 0
  }
  convolution_param {
    num_output: 512
    pad: 1
    kernel_size: 3
    weight_filler {
      type: "xavier"
    }
    bias_filler {
      type: "constant"
      value: 0
    }
    dilation: 1
  }
}
layer {
  name: "relu5_2"
  type: "ReLU"
  bottom: "conv5_2"
  top: "conv5_2"
}
layer {
  name: "conv5_3"
  type: "Convolution"
  bottom: "conv5_2"
  top: "conv5_3"
  param {
    lr_mult: 1
    decay_mult: 1
  }
  param {
    lr_mult: 2
    decay_mult: 0
  }
  convolution_param {
    num_output: 512
    pad: 1
    kernel_size: 3
    weight_filler {
      type: "xavier"
    }
    bias_filler {
      type: "constant"
      value: 0
    }
    dilation: 1
  }
}
layer {
  name: "relu5_3"
  type: "ReLU"
  bottom: "conv5_3"
  top: "conv5_3"
}
layer {
  name: "pool5"
  type: "Pooling"
  bottom: "conv5_3"
  top: "pool5"
  pooling_param {
    pool: MAX
    kernel_size: 3
    stride: 1
    pad: 1
  }
}
layer {
  name: "fc6"
  type: "Convolution"
  bottom: "pool5"
  top: "fc6"
  param {
    lr_mult: 1
    decay_mult: 1
  }
  param {
    lr_mult: 2
    decay_mult: 0
  }
  convolution_param {
    num_output: 1024
    pad: 6
    kernel_size: 3
    weight_filler {
      type: "xavier"
    }
    bias_filler {
      type: "constant"
      value: 0
    }
    dilation: 6
  }
}
layer {
  name: "relu6"
  type: "ReLU"
  bottom: "fc6"
  top: "fc6"
}
layer {
  name: "fc7"
  type: "Convolution"
  bottom: "fc6"
  top: "fc7"
  param {
    lr_mult: 1
    decay_mult: 1
  }
  param {
    lr_mult: 2
    decay_mult: 0
  }
  convolution_param {
    num_output: 1024
    kernel_size: 1
    weight_filler {
      type: "xavier"
    }
    bias_filler {
      type: "constant"
      value: 0
    }
  }
}
layer {
  name: "relu7"
  type: "ReLU"
  bottom: "fc7"
  top: "fc7"
}
layer {
  name: "conv8_1"
  type: "Convolution"
  bottom: "fc7"
  top: "conv8_1"
  param {
    lr_mult: 1
    decay_mult: 1
  }
  param {
    lr_mult: 2
    decay_mult: 0
  }
  convolution_param {
    num_output: 256
    pad: 0
    kernel_size: 1
    stride: 1
    weight_filler {
      type: "xavier"
    }
    bias_filler {
      type: "constant"
      value: 0
    }
  }
}
layer {
  name: "conv8_1_relu"
  type: "ReLU"
  bottom: "conv8_1"
  top: "conv8_1"
}
layer {
  name: "conv8_2"
  type: "Convolution"
  bottom: "conv8_1"
  top: "conv8_2"
  param {
    lr_mult: 1
    decay_mult: 1
  }
  param {
    lr_mult: 2
    decay_mult: 0
  }
  convolution_param {
    num_output: 512
    pad: 1
    kernel_size: 3
    stride: 2
    weight_filler {
      type: "xavier"
    }
    bias_filler {
      type: "constant"
      value: 0
    }
  }
}
layer {
  name: "conv8_2_relu"
  type: "ReLU"
  bottom: "conv8_2"
  top: "conv8_2"
}
layer {
  name: "conv9_1"
  type: "Convolution"
  bottom: "conv8_2"
  top: "conv9_1"
  param {
    lr_mult: 1
    decay_mult: 1
  }
  param {
    lr_mult: 2
    decay_mult: 0
  }
  convolution_param {
    num_output: 128
    pad: 0
    kernel_size: 1
    stride: 1
    weight_filler {
      type: "xavier"
    }
    bias_filler {
      type: "constant"
      value: 0
    }
  }
}
layer {
  name: "conv9_1_relu"
  type: "ReLU"
  bottom: "conv9_1"
  top: "conv9_1"
}
layer {
  name: "conv9_2"
  type: "Convolution"
  bottom: "conv9_1"
  top: "conv9_2"
  param {
    lr_mult: 1
    decay_mult: 1
  }
  param {
    lr_mult: 2
    decay_mult: 0
  }
  convolution_param {
    num_output: 256
    pad: 1
    kernel_size: 3
    stride: 2
    weight_filler {
      type: "xavier"
    }
    bias_filler {
      type: "constant"
      value: 0
    }
  }
}
layer {
  name: "conv9_2_relu"
  type: "ReLU"
  bottom: "conv9_2"
  top: "conv9_2"
}
layer {
  name: "conv10_1"
  type: "Convolution"
  bottom: "conv9_2"
  top: "conv10_1"
  param {
    lr_mult: 1
    decay_mult: 1
  }
  param {
    lr_mult: 2
    decay_mult: 0
  }
  convolution_param {
    num_output: 128
    pad: 0
    kernel_size: 1
    stride: 1
    weight_filler {
      type: "xavier"
    }
    bias_filler {
      type: "constant"
      value: 0
    }
  }
}
layer {
  name: "conv10_1_relu"
  type: "ReLU"
  bottom: "conv10_1"
  top: "conv10_1"
}
layer {
  name: "conv10_2"
  type: "Convolution"
  bottom: "conv10_1"
  top: "conv10_2"
  param {
    lr_mult: 1
    decay_mult: 1
  }
  param {
    lr_mult: 2
    decay_mult: 0
  }
  convolution_param {
    num_output: 256
    pad: 0
    kernel_size: 3
    stride: 1
    weight_filler {
      type: "xavier"
    }
    bias_filler {
      type: "constant"
      value: 0
    }
  }
}
layer {
  name: "conv10_2_relu"
  type: "ReLU"
  bottom: "conv10_2"
  top: "conv10_2"
}
layer {
  name: "conv11_1"
  type: "Convolution"
  bottom: "conv10_2"
  top: "conv11_1"
  param {
    lr_mult: 1
    decay_mult: 1
  }
  param {
    lr_mult: 2
    decay_mult: 0
  }
  convolution_param {
    num_output: 128
    pad: 0
    kernel_size: 1
    stride: 1
    weight_filler {
      type: "xavier"
    }
    bias_filler {
      type: "constant"
      value: 0
    }
  }
}
layer {
  name: "conv11_1_relu"
  type: "ReLU"
  bottom: "conv11_1"
  top: "conv11_1"
}
layer {
  name: "conv11_2"
  type: "Convolution"
  bottom: "conv11_1"
  top: "conv11_2"
  param {
    lr_mult: 1
    decay_mult: 1
  }
  param {
    lr_mult: 2
    decay_mult: 0
  }
  convolution_param {
    num_output: 256
    pad: 0
    kernel_size: 3
    stride: 1
    weight_filler {
      type: "xavier"
    }
    bias_filler {
      type: "constant"
      value: 0
    }
  }
}
layer {
  name: "conv11_2_relu"
  type: "ReLU"
  bottom: "conv11_2"
  top: "conv11_2"
}
layer {
  name: "conv4_3_norm"
  type: "Normalize"
  bottom: "conv4_3"
  top: "conv4_3_norm"
  norm_param {
    across_spatial: false
    scale_filler {
      type: "constant"
      value: 20
    }
    channel_shared: false
  }
}
layer {
  name: "conv4_3_norm_mbox_loc"
  type: "Convolution"
  bottom: "conv4_3_norm"
  top: "conv4_3_norm_mbox_loc"
  param {
    lr_mult: 1
    decay_mult: 1
  }
  param {
    lr_mult: 2
    decay_mult: 0
  }
  convolution_param {
    num_output: 16
    pad: 1
    kernel_size: 3
    stride: 1
    weight_filler {
      type: "xavier"
    }
    bias_filler {
      type: "constant"
      value: 0
    }
  }
}
layer {
  name: "conv4_3_norm_mbox_loc_perm"
  type: "Permute"
  bottom: "conv4_3_norm_mbox_loc"
  top: "conv4_3_norm_mbox_loc_perm"
  permute_param {
    order: 0
    order: 2
    order: 3
    order: 1
  }
}
layer {
  name: "conv4_3_norm_mbox_loc_flat"
  type: "Flatten"
  bottom: "conv4_3_norm_mbox_loc_perm"
  top: "conv4_3_norm_mbox_loc_flat"
  flatten_param {
    axis: 1
  }
}
layer {
  name: "conv4_3_norm_mbox_conf"
  type: "Convolution"
  bottom: "conv4_3_norm"
  top: "conv4_3_norm_mbox_conf"
  param {
    lr_mult: 1
    decay_mult: 1
  }
  param {
    lr_mult: 2
    decay_mult: 0
  }
  convolution_param {
    num_output: 12
    pad: 1
    kernel_size: 3
    stride: 1
    weight_filler {
      type: "xavier"
    }
    bias_filler {
      type: "constant"
      value: 0
    }
  }
}
layer {
  name: "conv4_3_norm_mbox_conf_perm"
  type: "Permute"
  bottom: "conv4_3_norm_mbox_conf"
  top: "conv4_3_norm_mbox_conf_perm"
  permute_param {
    order: 0
    order: 2
    order: 3
    order: 1
  }
}
layer {
  name: "conv4_3_norm_mbox_conf_flat"
  type: "Flatten"
  bottom: "conv4_3_norm_mbox_conf_perm"
  top: "conv4_3_norm_mbox_conf_flat"
  flatten_param {
    axis: 1
  }
}
layer {
  name: "conv4_3_norm_mbox_priorbox"
  type: "PriorBox"
  bottom: "conv4_3_norm"
  bottom: "data"
  top: "conv4_3_norm_mbox_priorbox"
  prior_box_param {
    min_size: 30
    max_size: 60
    aspect_ratio: 2
    flip: true
    clip: false
    variance: 0.1
    variance: 0.1
    variance: 0.2
    variance: 0.2
    step: 8
    offset: 0.5
  }
}
layer {
  name: "fc7_mbox_loc"
  type: "Convolution"
  bottom: "fc7"
  top: "fc7_mbox_loc"
  param {
    lr_mult: 1
    decay_mult: 1
  }
  param {
    lr_mult: 2
    decay_mult: 0
  }
  convolution_param {
    num_output: 24
    pad: 1
    kernel_size: 3
    stride: 1
    weight_filler {
      type: "xavier"
    }
    bias_filler {
      type: "constant"
      value: 0
    }
  }
}
layer {
  name: "fc7_mbox_loc_perm"
  type: "Permute"
  bottom: "fc7_mbox_loc"
  top: "fc7_mbox_loc_perm"
  permute_param {
    order: 0
    order: 2
    order: 3
    order: 1
  }
}
layer {
  name: "fc7_mbox_loc_flat"
  type: "Flatten"
  bottom: "fc7_mbox_loc_perm"
  top: "fc7_mbox_loc_flat"
  flatten_param {
    axis: 1
  }
}
layer {
  name: "fc7_mbox_conf"
  type: "Convolution"
  bottom: "fc7"
  top: "fc7_mbox_conf"
  param {
    lr_mult: 1
    decay_mult: 1
  }
  param {
    lr_mult: 2
    decay_mult: 0
  }
  convolution_param {
    num_output: 18
    pad: 1
    kernel_size: 3
    stride: 1
    weight_filler {
      type: "xavier"
    }
    bias_filler {
      type: "constant"
      value: 0
    }
  }
}
layer {
  name: "fc7_mbox_conf_perm"
  type: "Permute"
  bottom: "fc7_mbox_conf"
  top: "fc7_mbox_conf_perm"
  permute_param {
    order: 0
    order: 2
    order: 3
    order: 1
  }
}
layer {
  name: "fc7_mbox_conf_flat"
  type: "Flatten"
  bottom: "fc7_mbox_conf_perm"
  top: "fc7_mbox_conf_flat"
  flatten_param {
    axis: 1
  }
}
layer {
  name: "fc7_mbox_priorbox"
  type: "PriorBox"
  bottom: "fc7"
  bottom: "data"
  top: "fc7_mbox_priorbox"
  prior_box_param {
    min_size: 60
    max_size: 111
    aspect_ratio: 2
    aspect_ratio: 3
    flip: true
    clip: false
    variance: 0.1
    variance: 0.1
    variance: 0.2
    variance: 0.2
    step: 16
    offset: 0.5
  }
}
layer {
  name: "conv8_2_mbox_loc"
  type: "Convolution"
  bottom: "conv8_2"
  top: "conv8_2_mbox_loc"
  param {
    lr_mult: 1
    decay_mult: 1
  }
  param {
    lr_mult: 2
    decay_mult: 0
  }
  convolution_param {
    num_output: 24
    pad: 1
    kernel_size: 3
    stride: 1
    weight_filler {
      type: "xavier"
    }
    bias_filler {
      type: "constant"
      value: 0
    }
  }
}
layer {
  name: "conv8_2_mbox_loc_perm"
  type: "Permute"
  bottom: "conv8_2_mbox_loc"
  top: "conv8_2_mbox_loc_perm"
  permute_param {
    order: 0
    order: 2
    order: 3
    order: 1
  }
}
layer {
  name: "conv8_2_mbox_loc_flat"
  type: "Flatten"
  bottom: "conv8_2_mbox_loc_perm"
  top: "conv8_2_mbox_loc_flat"
  flatten_param {
    axis: 1
  }
}
layer {
  name: "conv8_2_mbox_conf"
  type: "Convolution"
  bottom: "conv8_2"
  top: "conv8_2_mbox_conf"
  param {
    lr_mult: 1
    decay_mult: 1
  }
  param {
    lr_mult: 2
    decay_mult: 0
  }
  convolution_param {
    num_output: 18
    pad: 1
    kernel_size: 3
    stride: 1
    weight_filler {
      type: "xavier"
    }
    bias_filler {
      type: "constant"
      value: 0
    }
  }
}
layer {
  name: "conv8_2_mbox_conf_perm"
  type: "Permute"
  bottom: "conv8_2_mbox_conf"
  top: "conv8_2_mbox_conf_perm"
  permute_param {
    order: 0
    order: 2
    order: 3
    order: 1
  }
}
layer {
  name: "conv8_2_mbox_conf_flat"
  type: "Flatten"
  bottom: "conv8_2_mbox_conf_perm"
  top: "conv8_2_mbox_conf_flat"
  flatten_param {
    axis: 1
  }
}
layer {
  name: "conv8_2_mbox_priorbox"
  type: "PriorBox"
  bottom: "conv8_2"
  bottom: "data"
  top: "conv8_2_mbox_priorbox"
  prior_box_param {
    min_size: 111
    max_size: 162
    aspect_ratio: 2
    aspect_ratio: 3
    flip: true
    clip: false
    variance: 0.1
    variance: 0.1
    variance: 0.2
    variance: 0.2
    step: 32
    offset: 0.5
  }
}
layer {
  name: "conv9_2_mbox_loc"
  type: "Convolution"
  bottom: "conv9_2"
  top: "conv9_2_mbox_loc"
  param {
    lr_mult: 1
    decay_mult: 1
  }
  param {
    lr_mult: 2
    decay_mult: 0
  }
  convolution_param {
    num_output: 24
    pad: 1
    kernel_size: 3
    stride: 1
    weight_filler {
      type: "xavier"
    }
    bias_filler {
      type: "constant"
      value: 0
    }
  }
}
layer {
  name: "conv9_2_mbox_loc_perm"
  type: "Permute"
  bottom: "conv9_2_mbox_loc"
  top: "conv9_2_mbox_loc_perm"
  permute_param {
    order: 0
    order: 2
    order: 3
    order: 1
  }
}
layer {
  name: "conv9_2_mbox_loc_flat"
  type: "Flatten"
  bottom: "conv9_2_mbox_loc_perm"
  top: "conv9_2_mbox_loc_flat"
  flatten_param {
    axis: 1
  }
}
layer {
  name: "conv9_2_mbox_conf"
  type: "Convolution"
  bottom: "conv9_2"
  top: "conv9_2_mbox_conf"
  param {
    lr_mult: 1
    decay_mult: 1
  }
  param {
    lr_mult: 2
    decay_mult: 0
  }
  convolution_param {
    num_output: 18
    pad: 1
    kernel_size: 3
    stride: 1
    weight_filler {
      type: "xavier"
    }
    bias_filler {
      type: "constant"
      value: 0
    }
  }
}
layer {
  name: "conv9_2_mbox_conf_perm"
  type: "Permute"
  bottom: "conv9_2_mbox_conf"
  top: "conv9_2_mbox_conf_perm"
  permute_param {
    order: 0
    order: 2
    order: 3
    order: 1
  }
}
layer {
  name: "conv9_2_mbox_conf_flat"
  type: "Flatten"
  bottom: "conv9_2_mbox_conf_perm"
  top: "conv9_2_mbox_conf_flat"
  flatten_param {
    axis: 1
  }
}
layer {
  name: "conv9_2_mbox_priorbox"
  type: "PriorBox"
  bottom: "conv9_2"
  bottom: "data"
  top: "conv9_2_mbox_priorbox"
  prior_box_param {
    min_size: 162
    max_size: 213
    aspect_ratio: 2
    aspect_ratio: 3
    flip: true
    clip: false
    variance: 0.1
    variance: 0.1
    variance: 0.2
    variance: 0.2
    step: 64
    offset: 0.5
  }
}
layer {
  name: "conv10_2_mbox_loc"
  type: "Convolution"
  bottom: "conv10_2"
  top: "conv10_2_mbox_loc"
  param {
    lr_mult: 1
    decay_mult: 1
  }
  param {
    lr_mult: 2
    decay_mult: 0
  }
  convolution_param {
    num_output: 16
    pad: 1
    kernel_size: 3
    stride: 1
    weight_filler {
      type: "xavier"
    }
    bias_filler {
      type: "constant"
      value: 0
    }
  }
}
layer {
  name: "conv10_2_mbox_loc_perm"
  type: "Permute"
  bottom: "conv10_2_mbox_loc"
  top: "conv10_2_mbox_loc_perm"
  permute_param {
    order: 0
    order: 2
    order: 3
    order: 1
  }
}
layer {
  name: "conv10_2_mbox_loc_flat"
  type: "Flatten"
  bottom: "conv10_2_mbox_loc_perm"
  top: "conv10_2_mbox_loc_flat"
  flatten_param {
    axis: 1
  }
}
layer {
  name: "conv10_2_mbox_conf"
  type: "Convolution"
  bottom: "conv10_2"
  top: "conv10_2_mbox_conf"
  param {
    lr_mult: 1
    decay_mult: 1
  }
  param {
    lr_mult: 2
    decay_mult: 0
  }
  convolution_param {
    num_output: 12
    pad: 1
    kernel_size: 3
    stride: 1
    weight_filler {
      type: "xavier"
    }
    bias_filler {
      type: "constant"
      value: 0
    }
  }
}
layer {
  name: "conv10_2_mbox_conf_perm"
  type: "Permute"
  bottom: "conv10_2_mbox_conf"
  top: "conv10_2_mbox_conf_perm"
  permute_param {
    order: 0
    order: 2
    order: 3
    order: 1
  }
}
layer {
  name: "conv10_2_mbox_conf_flat"
  type: "Flatten"
  bottom: "conv10_2_mbox_conf_perm"
  top: "conv10_2_mbox_conf_flat"
  flatten_param {
    axis: 1
  }
}
layer {
  name: "conv10_2_mbox_priorbox"
  type: "PriorBox"
  bottom: "conv10_2"
  bottom: "data"
  top: "conv10_2_mbox_priorbox"
  prior_box_param {
    min_size: 213
    max_size: 264
    aspect_ratio: 2
    flip: true
    clip: false
    variance: 0.1
    variance: 0.1
    variance: 0.2
    variance: 0.2
    step: 100
    offset: 0.5
  }
}
layer {
  name: "conv11_2_mbox_loc"
  type: "Convolution"
  bottom: "conv11_2"
  top: "conv11_2_mbox_loc"
  param {
    lr_mult: 1
    decay_mult: 1
  }
  param {
    lr_mult: 2
    decay_mult: 0
  }
  convolution_param {
    num_output: 16
    pad: 1
    kernel_size: 3
    stride: 1
    weight_filler {
      type: "xavier"
    }
    bias_filler {
      type: "constant"
      value: 0
    }
  }
}
layer {
  name: "conv11_2_mbox_loc_perm"
  type: "Permute"
  bottom: "conv11_2_mbox_loc"
  top: "conv11_2_mbox_loc_perm"
  permute_param {
    order: 0
    order: 2
    order: 3
    order: 1
  }
}
layer {
  name: "conv11_2_mbox_loc_flat"
  type: "Flatten"
  bottom: "conv11_2_mbox_loc_perm"
  top: "conv11_2_mbox_loc_flat"
  flatten_param {
    axis: 1
  }
}
layer {
  name: "conv11_2_mbox_conf"
  type: "Convolution"
  bottom: "conv11_2"
  top: "conv11_2_mbox_conf"
  param {
    lr_mult: 1
    decay_mult: 1
  }
  param {
    lr_mult: 2
    decay_mult: 0
  }
  convolution_param {
    num_output: 12
    pad: 1
    kernel_size: 3
    stride: 1
    weight_filler {
      type: "xavier"
    }
    bias_filler {
      type: "constant"
      value: 0
    }
  }
}
layer {
  name: "conv11_2_mbox_conf_perm"
  type: "Permute"
  bottom: "conv11_2_mbox_conf"
  top: "conv11_2_mbox_conf_perm"
  permute_param {
    order: 0
    order: 2
    order: 3
    order: 1
  }
}
layer {
  name: "conv11_2_mbox_conf_flat"
  type: "Flatten"
  bottom: "conv11_2_mbox_conf_perm"
  top: "conv11_2_mbox_conf_flat"
  flatten_param {
    axis: 1
  }
}
layer {
  name: "conv11_2_mbox_priorbox"
  type: "PriorBox"
  bottom: "conv11_2"
  bottom: "data"
  top: "conv11_2_mbox_priorbox"
  prior_box_param {
    min_size: 264
    max_size: 315
    aspect_ratio: 2
    flip: true
    clip: false
    variance: 0.1
    variance: 0.1
    variance: 0.2
    variance: 0.2
    step: 300
    offset: 0.5
  }
}
layer {
  name: "mbox_loc"
  type: "Concat"
  bottom: "conv4_3_norm_mbox_loc_flat"
  bottom: "fc7_mbox_loc_flat"
  bottom: "conv8_2_mbox_loc_flat"
  bottom: "conv9_2_mbox_loc_flat"
  bottom: "conv10_2_mbox_loc_flat"
  bottom: "conv11_2_mbox_loc_flat"
  top: "mbox_loc"
  concat_param {
    axis: 1
  }
}
layer {
  name: "mbox_conf"
  type: "Concat"
  bottom: "conv4_3_norm_mbox_conf_flat"
  bottom: "fc7_mbox_conf_flat"
  bottom: "conv8_2_mbox_conf_flat"
  bottom: "conv9_2_mbox_conf_flat"
  bottom: "conv10_2_mbox_conf_flat"
  bottom: "conv11_2_mbox_conf_flat"
  top: "mbox_conf"
  concat_param {
    axis: 1
  }
}
layer {
  name: "mbox_priorbox"
  type: "Concat"
  bottom: "conv4_3_norm_mbox_priorbox"
  bottom: "fc7_mbox_priorbox"
  bottom: "conv8_2_mbox_priorbox"
  bottom: "conv9_2_mbox_priorbox"
  bottom: "conv10_2_mbox_priorbox"
  bottom: "conv11_2_mbox_priorbox"
  top: "mbox_priorbox"
  concat_param {
    axis: 2
  }
}
layer {
  name: "mbox_conf_reshape"
  type: "Reshape"
  bottom: "mbox_conf"
  top: "mbox_conf_reshape"
  reshape_param {
    shape {
      dim: 0
      dim: -1
      dim: 3
    }
  }
}
layer {
  name: "mbox_conf_softmax"
  type: "Softmax"
  bottom: "mbox_conf_reshape"
  top: "mbox_conf_softmax"
  softmax_param {
    axis: 2
  }
}
layer {
  name: "mbox_conf_flatten"
  type: "Flatten"
  bottom: "mbox_conf_softmax"
  top: "mbox_conf_flatten"
  flatten_param {
    axis: 1
  }
}
layer {
  name: "detection_out"
  type: "DetectionOutput"
  bottom: "mbox_loc"
  bottom: "mbox_conf_flatten"
  bottom: "mbox_priorbox"
  top: "detection_out"
  include {
    phase: TEST
  }
  detection_output_param {
    num_classes: 3
    share_location: true
    background_label_id: 0
    nms_param {
      nms_threshold: 0.45
      top_k: 400
    }
    save_output_param {
      output_directory: "data\\wastedata\\results\\SSD_300x300\\Main"
      output_name_prefix: "comp4_det_test_"
      output_format: "VOC"
      label_map_file: "data\\wastedata\\labelmap_waste.prototxt"
      name_size_file: "data\\wastedata\\test_name_size.txt"
      num_test_image: 1000
    }
    code_type: CENTER_SIZE
    keep_top_k: 200
    confidence_threshold: 0.01
  }
}
layer {
  name: "detection_eval"
  type: "DetectionEvaluate"
  bottom: "detection_out"
  bottom: "label"
  top: "detection_eval"
  include {
    phase: TEST
  }
  detection_evaluate_param {
    num_classes: 3
    background_label_id: 0
    overlap_threshold: 0.5
    evaluate_difficult_gt: false
    name_size_file: "data\\wastedata\\test_name_size.txt"
  }
}
I0622 04:06:54.796533 13672 layer_factory.hpp:77] Creating layer data
I0622 04:06:54.796533 13672 net.cpp:100] Creating Layer data
I0622 04:06:54.796533 13672 net.cpp:408] data -> data
I0622 04:06:54.796533 13672 net.cpp:408] data -> label
I0622 04:06:54.800523 13268 common.cpp:36] System entropy source not available, using fallback algorithm to generate seed instead.
I0622 04:06:54.878458 13268 db_lmdb.cpp:40] Opened lmdb examples\wastedata\wastedata_test_lmdb
I0622 04:06:54.896049 13672 annotated_data_layer.cpp:62] output data size: 2,3,300,300
I0622 04:06:54.911412 13672 net.cpp:150] Setting up data
I0622 04:06:54.911412 13672 net.cpp:157] Top shape: 2 3 300 300 (540000)
I0622 04:06:54.911412 13672 net.cpp:157] Top shape: 1 1 3 8 (24)
I0622 04:06:54.911412 13672 net.cpp:165] Memory required for data: 2160096
I0622 04:06:54.911412 13672 layer_factory.hpp:77] Creating layer data_data_0_split
I0622 04:06:54.911412 13672 net.cpp:100] Creating Layer data_data_0_split
I0622 04:06:54.911412 13672 net.cpp:434] data_data_0_split <- data
I0622 04:06:54.911412 13672 net.cpp:408] data_data_0_split -> data_data_0_split_0
I0622 04:06:54.911412 13672 net.cpp:408] data_data_0_split -> data_data_0_split_1
I0622 04:06:54.911412 13672 net.cpp:408] data_data_0_split -> data_data_0_split_2
I0622 04:06:54.911412 13672 net.cpp:408] data_data_0_split -> data_data_0_split_3
I0622 04:06:54.911412 13672 net.cpp:408] data_data_0_split -> data_data_0_split_4
I0622 04:06:54.911412 13672 net.cpp:408] data_data_0_split -> data_data_0_split_5
I0622 04:06:54.911412 13672 net.cpp:408] data_data_0_split -> data_data_0_split_6
I0622 04:06:54.912408 13672 net.cpp:150] Setting up data_data_0_split
I0622 04:06:54.912408 13672 net.cpp:157] Top shape: 2 3 300 300 (540000)
I0622 04:06:54.912408 13672 net.cpp:157] Top shape: 2 3 300 300 (540000)
I0622 04:06:54.912408 13672 net.cpp:157] Top shape: 2 3 300 300 (540000)
I0622 04:06:54.912408 13672 net.cpp:157] Top shape: 2 3 300 300 (540000)
I0622 04:06:54.912408 13672 net.cpp:157] Top shape: 2 3 300 300 (540000)
I0622 04:06:54.912408 13672 net.cpp:157] Top shape: 2 3 300 300 (540000)
I0622 04:06:54.912408 13672 net.cpp:157] Top shape: 2 3 300 300 (540000)
I0622 04:06:54.912408 13672 net.cpp:165] Memory required for data: 17280096
I0622 04:06:54.912408 13672 layer_factory.hpp:77] Creating layer conv1_1
I0622 04:06:54.912408 13672 net.cpp:100] Creating Layer conv1_1
I0622 04:06:54.912408 13672 net.cpp:434] conv1_1 <- data_data_0_split_0
I0622 04:06:54.912408 13672 net.cpp:408] conv1_1 -> conv1_1
I0622 04:06:54.915400 12540 common.cpp:36] System entropy source not available, using fallback algorithm to generate seed instead.
I0622 04:06:54.918392 13672 net.cpp:150] Setting up conv1_1
I0622 04:06:54.918392 13672 net.cpp:157] Top shape: 2 64 300 300 (11520000)
I0622 04:06:54.918392 13672 net.cpp:165] Memory required for data: 63360096
I0622 04:06:54.918392 13672 layer_factory.hpp:77] Creating layer relu1_1
I0622 04:06:54.918392 13672 net.cpp:100] Creating Layer relu1_1
I0622 04:06:54.918392 13672 net.cpp:434] relu1_1 <- conv1_1
I0622 04:06:54.918392 13672 net.cpp:395] relu1_1 -> conv1_1 (in-place)
I0622 04:06:54.919389 13672 net.cpp:150] Setting up relu1_1
I0622 04:06:54.919389 13672 net.cpp:157] Top shape: 2 64 300 300 (11520000)
I0622 04:06:54.919389 13672 net.cpp:165] Memory required for data: 109440096
I0622 04:06:54.919389 13672 layer_factory.hpp:77] Creating layer conv1_2
I0622 04:06:54.919389 13672 net.cpp:100] Creating Layer conv1_2
I0622 04:06:54.919389 13672 net.cpp:434] conv1_2 <- conv1_1
I0622 04:06:54.919389 13672 net.cpp:408] conv1_2 -> conv1_2
I0622 04:06:54.926970 13672 net.cpp:150] Setting up conv1_2
I0622 04:06:54.926970 13672 net.cpp:157] Top shape: 2 64 300 300 (11520000)
I0622 04:06:54.926970 13672 net.cpp:165] Memory required for data: 155520096
I0622 04:06:54.926970 13672 layer_factory.hpp:77] Creating layer relu1_2
I0622 04:06:54.926970 13672 net.cpp:100] Creating Layer relu1_2
I0622 04:06:54.926970 13672 net.cpp:434] relu1_2 <- conv1_2
I0622 04:06:54.926970 13672 net.cpp:395] relu1_2 -> conv1_2 (in-place)
I0622 04:06:54.929150 13672 net.cpp:150] Setting up relu1_2
I0622 04:06:54.929150 13672 net.cpp:157] Top shape: 2 64 300 300 (11520000)
I0622 04:06:54.929150 13672 net.cpp:165] Memory required for data: 201600096
I0622 04:06:54.929150 13672 layer_factory.hpp:77] Creating layer pool1
I0622 04:06:54.929150 13672 net.cpp:100] Creating Layer pool1
I0622 04:06:54.929150 13672 net.cpp:434] pool1 <- conv1_2
I0622 04:06:54.929150 13672 net.cpp:408] pool1 -> pool1
I0622 04:06:54.929150 13672 net.cpp:150] Setting up pool1
I0622 04:06:54.929150 13672 net.cpp:157] Top shape: 2 64 150 150 (2880000)
I0622 04:06:54.929150 13672 net.cpp:165] Memory required for data: 213120096
I0622 04:06:54.929150 13672 layer_factory.hpp:77] Creating layer conv2_1
I0622 04:06:54.929150 13672 net.cpp:100] Creating Layer conv2_1
I0622 04:06:54.929150 13672 net.cpp:434] conv2_1 <- pool1
I0622 04:06:54.929150 13672 net.cpp:408] conv2_1 -> conv2_1
I0622 04:06:54.964851 13672 net.cpp:150] Setting up conv2_1
I0622 04:06:54.964851 13672 net.cpp:157] Top shape: 2 128 150 150 (5760000)
I0622 04:06:54.964851 13672 net.cpp:165] Memory required for data: 236160096
I0622 04:06:54.964851 13672 layer_factory.hpp:77] Creating layer relu2_1
I0622 04:06:54.964851 13672 net.cpp:100] Creating Layer relu2_1
I0622 04:06:54.964851 13672 net.cpp:434] relu2_1 <- conv2_1
I0622 04:06:54.964851 13672 net.cpp:395] relu2_1 -> conv2_1 (in-place)
I0622 04:06:54.966845 13672 net.cpp:150] Setting up relu2_1
I0622 04:06:54.966845 13672 net.cpp:157] Top shape: 2 128 150 150 (5760000)
I0622 04:06:54.966845 13672 net.cpp:165] Memory required for data: 259200096
I0622 04:06:54.966845 13672 layer_factory.hpp:77] Creating layer conv2_2
I0622 04:06:54.966845 13672 net.cpp:100] Creating Layer conv2_2
I0622 04:06:54.966845 13672 net.cpp:434] conv2_2 <- conv2_1
I0622 04:06:54.966845 13672 net.cpp:408] conv2_2 -> conv2_2
I0622 04:06:54.985975 13672 net.cpp:150] Setting up conv2_2
I0622 04:06:54.985975 13672 net.cpp:157] Top shape: 2 128 150 150 (5760000)
I0622 04:06:54.985975 13672 net.cpp:165] Memory required for data: 282240096
I0622 04:06:54.985975 13672 layer_factory.hpp:77] Creating layer relu2_2
I0622 04:06:54.985975 13672 net.cpp:100] Creating Layer relu2_2
I0622 04:06:54.985975 13672 net.cpp:434] relu2_2 <- conv2_2
I0622 04:06:54.985975 13672 net.cpp:395] relu2_2 -> conv2_2 (in-place)
I0622 04:06:54.987993 13672 net.cpp:150] Setting up relu2_2
I0622 04:06:54.987993 13672 net.cpp:157] Top shape: 2 128 150 150 (5760000)
I0622 04:06:54.987993 13672 net.cpp:165] Memory required for data: 305280096
I0622 04:06:54.987993 13672 layer_factory.hpp:77] Creating layer pool2
I0622 04:06:54.987993 13672 net.cpp:100] Creating Layer pool2
I0622 04:06:54.987993 13672 net.cpp:434] pool2 <- conv2_2
I0622 04:06:54.987993 13672 net.cpp:408] pool2 -> pool2
I0622 04:06:54.987993 13672 net.cpp:150] Setting up pool2
I0622 04:06:54.987993 13672 net.cpp:157] Top shape: 2 128 75 75 (1440000)
I0622 04:06:54.987993 13672 net.cpp:165] Memory required for data: 311040096
I0622 04:06:54.987993 13672 layer_factory.hpp:77] Creating layer conv3_1
I0622 04:06:54.987993 13672 net.cpp:100] Creating Layer conv3_1
I0622 04:06:54.987993 13672 net.cpp:434] conv3_1 <- pool2
I0622 04:06:54.987993 13672 net.cpp:408] conv3_1 -> conv3_1
I0622 04:06:55.011713 13672 net.cpp:150] Setting up conv3_1
I0622 04:06:55.011713 13672 net.cpp:157] Top shape: 2 256 75 75 (2880000)
I0622 04:06:55.011713 13672 net.cpp:165] Memory required for data: 322560096
I0622 04:06:55.011713 13672 layer_factory.hpp:77] Creating layer relu3_1
I0622 04:06:55.011713 13672 net.cpp:100] Creating Layer relu3_1
I0622 04:06:55.011713 13672 net.cpp:434] relu3_1 <- conv3_1
I0622 04:06:55.011713 13672 net.cpp:395] relu3_1 -> conv3_1 (in-place)
I0622 04:06:55.012706 13672 net.cpp:150] Setting up relu3_1
I0622 04:06:55.012706 13672 net.cpp:157] Top shape: 2 256 75 75 (2880000)
I0622 04:06:55.012706 13672 net.cpp:165] Memory required for data: 334080096
I0622 04:06:55.012706 13672 layer_factory.hpp:77] Creating layer conv3_2
I0622 04:06:55.012706 13672 net.cpp:100] Creating Layer conv3_2
I0622 04:06:55.012706 13672 net.cpp:434] conv3_2 <- conv3_1
I0622 04:06:55.012706 13672 net.cpp:408] conv3_2 -> conv3_2
I0622 04:06:55.039075 13672 net.cpp:150] Setting up conv3_2
I0622 04:06:55.039075 13672 net.cpp:157] Top shape: 2 256 75 75 (2880000)
I0622 04:06:55.039075 13672 net.cpp:165] Memory required for data: 345600096
I0622 04:06:55.039075 13672 layer_factory.hpp:77] Creating layer relu3_2
I0622 04:06:55.039075 13672 net.cpp:100] Creating Layer relu3_2
I0622 04:06:55.039075 13672 net.cpp:434] relu3_2 <- conv3_2
I0622 04:06:55.039075 13672 net.cpp:395] relu3_2 -> conv3_2 (in-place)
I0622 04:06:55.040041 13672 net.cpp:150] Setting up relu3_2
I0622 04:06:55.040041 13672 net.cpp:157] Top shape: 2 256 75 75 (2880000)
I0622 04:06:55.041038 13672 net.cpp:165] Memory required for data: 357120096
I0622 04:06:55.041038 13672 layer_factory.hpp:77] Creating layer conv3_3
I0622 04:06:55.041038 13672 net.cpp:100] Creating Layer conv3_3
I0622 04:06:55.041038 13672 net.cpp:434] conv3_3 <- conv3_2
I0622 04:06:55.041038 13672 net.cpp:408] conv3_3 -> conv3_3
I0622 04:06:55.053828 13672 net.cpp:150] Setting up conv3_3
I0622 04:06:55.053828 13672 net.cpp:157] Top shape: 2 256 75 75 (2880000)
I0622 04:06:55.053828 13672 net.cpp:165] Memory required for data: 368640096
I0622 04:06:55.053828 13672 layer_factory.hpp:77] Creating layer relu3_3
I0622 04:06:55.053828 13672 net.cpp:100] Creating Layer relu3_3
I0622 04:06:55.053828 13672 net.cpp:434] relu3_3 <- conv3_3
I0622 04:06:55.053828 13672 net.cpp:395] relu3_3 -> conv3_3 (in-place)
I0622 04:06:55.054826 13672 net.cpp:150] Setting up relu3_3
I0622 04:06:55.054826 13672 net.cpp:157] Top shape: 2 256 75 75 (2880000)
I0622 04:06:55.054826 13672 net.cpp:165] Memory required for data: 380160096
I0622 04:06:55.054826 13672 layer_factory.hpp:77] Creating layer pool3
I0622 04:06:55.054826 13672 net.cpp:100] Creating Layer pool3
I0622 04:06:55.054826 13672 net.cpp:434] pool3 <- conv3_3
I0622 04:06:55.054826 13672 net.cpp:408] pool3 -> pool3
I0622 04:06:55.054826 13672 net.cpp:150] Setting up pool3
I0622 04:06:55.054826 13672 net.cpp:157] Top shape: 2 256 38 38 (739328)
I0622 04:06:55.054826 13672 net.cpp:165] Memory required for data: 383117408
I0622 04:06:55.054826 13672 layer_factory.hpp:77] Creating layer conv4_1
I0622 04:06:55.055824 13672 net.cpp:100] Creating Layer conv4_1
I0622 04:06:55.055824 13672 net.cpp:434] conv4_1 <- pool3
I0622 04:06:55.055824 13672 net.cpp:408] conv4_1 -> conv4_1
I0622 04:06:55.092379 13672 net.cpp:150] Setting up conv4_1
I0622 04:06:55.092379 13672 net.cpp:157] Top shape: 2 512 38 38 (1478656)
I0622 04:06:55.092379 13672 net.cpp:165] Memory required for data: 389032032
I0622 04:06:55.092379 13672 layer_factory.hpp:77] Creating layer relu4_1
I0622 04:06:55.092379 13672 net.cpp:100] Creating Layer relu4_1
I0622 04:06:55.092379 13672 net.cpp:434] relu4_1 <- conv4_1
I0622 04:06:55.092379 13672 net.cpp:395] relu4_1 -> conv4_1 (in-place)
I0622 04:06:55.094379 13672 net.cpp:150] Setting up relu4_1
I0622 04:06:55.094379 13672 net.cpp:157] Top shape: 2 512 38 38 (1478656)
I0622 04:06:55.094379 13672 net.cpp:165] Memory required for data: 394946656
I0622 04:06:55.094379 13672 layer_factory.hpp:77] Creating layer conv4_2
I0622 04:06:55.094379 13672 net.cpp:100] Creating Layer conv4_2
I0622 04:06:55.094379 13672 net.cpp:434] conv4_2 <- conv4_1
I0622 04:06:55.094379 13672 net.cpp:408] conv4_2 -> conv4_2
I0622 04:06:55.121476 13672 net.cpp:150] Setting up conv4_2
I0622 04:06:55.121476 13672 net.cpp:157] Top shape: 2 512 38 38 (1478656)
I0622 04:06:55.121476 13672 net.cpp:165] Memory required for data: 400861280
I0622 04:06:55.121476 13672 layer_factory.hpp:77] Creating layer relu4_2
I0622 04:06:55.121476 13672 net.cpp:100] Creating Layer relu4_2
I0622 04:06:55.121476 13672 net.cpp:434] relu4_2 <- conv4_2
I0622 04:06:55.121476 13672 net.cpp:395] relu4_2 -> conv4_2 (in-place)
I0622 04:06:55.123471 13672 net.cpp:150] Setting up relu4_2
I0622 04:06:55.123471 13672 net.cpp:157] Top shape: 2 512 38 38 (1478656)
I0622 04:06:55.123471 13672 net.cpp:165] Memory required for data: 406775904
I0622 04:06:55.123471 13672 layer_factory.hpp:77] Creating layer conv4_3
I0622 04:06:55.123471 13672 net.cpp:100] Creating Layer conv4_3
I0622 04:06:55.123471 13672 net.cpp:434] conv4_3 <- conv4_2
I0622 04:06:55.123471 13672 net.cpp:408] conv4_3 -> conv4_3
I0622 04:06:55.152423 13672 net.cpp:150] Setting up conv4_3
I0622 04:06:55.152423 13672 net.cpp:157] Top shape: 2 512 38 38 (1478656)
I0622 04:06:55.152423 13672 net.cpp:165] Memory required for data: 412690528
I0622 04:06:55.152884 13672 layer_factory.hpp:77] Creating layer relu4_3
I0622 04:06:55.152884 13672 net.cpp:100] Creating Layer relu4_3
I0622 04:06:55.152884 13672 net.cpp:434] relu4_3 <- conv4_3
I0622 04:06:55.152884 13672 net.cpp:395] relu4_3 -> conv4_3 (in-place)
I0622 04:06:55.153883 13672 net.cpp:150] Setting up relu4_3
I0622 04:06:55.153883 13672 net.cpp:157] Top shape: 2 512 38 38 (1478656)
I0622 04:06:55.153883 13672 net.cpp:165] Memory required for data: 418605152
I0622 04:06:55.153883 13672 layer_factory.hpp:77] Creating layer conv4_3_relu4_3_0_split
I0622 04:06:55.153883 13672 net.cpp:100] Creating Layer conv4_3_relu4_3_0_split
I0622 04:06:55.153883 13672 net.cpp:434] conv4_3_relu4_3_0_split <- conv4_3
I0622 04:06:55.153883 13672 net.cpp:408] conv4_3_relu4_3_0_split -> conv4_3_relu4_3_0_split_0
I0622 04:06:55.153883 13672 net.cpp:408] conv4_3_relu4_3_0_split -> conv4_3_relu4_3_0_split_1
I0622 04:06:55.153883 13672 net.cpp:150] Setting up conv4_3_relu4_3_0_split
I0622 04:06:55.154882 13672 net.cpp:157] Top shape: 2 512 38 38 (1478656)
I0622 04:06:55.154882 13672 net.cpp:157] Top shape: 2 512 38 38 (1478656)
I0622 04:06:55.154882 13672 net.cpp:165] Memory required for data: 430434400
I0622 04:06:55.154882 13672 layer_factory.hpp:77] Creating layer pool4
I0622 04:06:55.154882 13672 net.cpp:100] Creating Layer pool4
I0622 04:06:55.154882 13672 net.cpp:434] pool4 <- conv4_3_relu4_3_0_split_0
I0622 04:06:55.154882 13672 net.cpp:408] pool4 -> pool4
I0622 04:06:55.154882 13672 net.cpp:150] Setting up pool4
I0622 04:06:55.154882 13672 net.cpp:157] Top shape: 2 512 19 19 (369664)
I0622 04:06:55.154882 13672 net.cpp:165] Memory required for data: 431913056
I0622 04:06:55.154882 13672 layer_factory.hpp:77] Creating layer conv5_1
I0622 04:06:55.154882 13672 net.cpp:100] Creating Layer conv5_1
I0622 04:06:55.154882 13672 net.cpp:434] conv5_1 <- pool4
I0622 04:06:55.154882 13672 net.cpp:408] conv5_1 -> conv5_1
I0622 04:06:55.197444 13672 net.cpp:150] Setting up conv5_1
I0622 04:06:55.197444 13672 net.cpp:157] Top shape: 2 512 19 19 (369664)
I0622 04:06:55.197444 13672 net.cpp:165] Memory required for data: 433391712
I0622 04:06:55.197444 13672 layer_factory.hpp:77] Creating layer relu5_1
I0622 04:06:55.197444 13672 net.cpp:100] Creating Layer relu5_1
I0622 04:06:55.197444 13672 net.cpp:434] relu5_1 <- conv5_1
I0622 04:06:55.197444 13672 net.cpp:395] relu5_1 -> conv5_1 (in-place)
I0622 04:06:55.199038 13672 net.cpp:150] Setting up relu5_1
I0622 04:06:55.199038 13672 net.cpp:157] Top shape: 2 512 19 19 (369664)
I0622 04:06:55.199038 13672 net.cpp:165] Memory required for data: 434870368
I0622 04:06:55.199038 13672 layer_factory.hpp:77] Creating layer conv5_2
I0622 04:06:55.199038 13672 net.cpp:100] Creating Layer conv5_2
I0622 04:06:55.199038 13672 net.cpp:434] conv5_2 <- conv5_1
I0622 04:06:55.199038 13672 net.cpp:408] conv5_2 -> conv5_2
I0622 04:06:55.235792 13672 net.cpp:150] Setting up conv5_2
I0622 04:06:55.235792 13672 net.cpp:157] Top shape: 2 512 19 19 (369664)
I0622 04:06:55.235792 13672 net.cpp:165] Memory required for data: 436349024
I0622 04:06:55.235792 13672 layer_factory.hpp:77] Creating layer relu5_2
I0622 04:06:55.235916 13672 net.cpp:100] Creating Layer relu5_2
I0622 04:06:55.235916 13672 net.cpp:434] relu5_2 <- conv5_2
I0622 04:06:55.235916 13672 net.cpp:395] relu5_2 -> conv5_2 (in-place)
I0622 04:06:55.235916 13672 net.cpp:150] Setting up relu5_2
I0622 04:06:55.236913 13672 net.cpp:157] Top shape: 2 512 19 19 (369664)
I0622 04:06:55.236913 13672 net.cpp:165] Memory required for data: 437827680
I0622 04:06:55.236913 13672 layer_factory.hpp:77] Creating layer conv5_3
I0622 04:06:55.236913 13672 net.cpp:100] Creating Layer conv5_3
I0622 04:06:55.236913 13672 net.cpp:434] conv5_3 <- conv5_2
I0622 04:06:55.236913 13672 net.cpp:408] conv5_3 -> conv5_3
I0622 04:06:55.263370 13672 net.cpp:150] Setting up conv5_3
I0622 04:06:55.263370 13672 net.cpp:157] Top shape: 2 512 19 19 (369664)
I0622 04:06:55.264328 13672 net.cpp:165] Memory required for data: 439306336
I0622 04:06:55.264328 13672 layer_factory.hpp:77] Creating layer relu5_3
I0622 04:06:55.264328 13672 net.cpp:100] Creating Layer relu5_3
I0622 04:06:55.264328 13672 net.cpp:434] relu5_3 <- conv5_3
I0622 04:06:55.264328 13672 net.cpp:395] relu5_3 -> conv5_3 (in-place)
I0622 04:06:55.265450 13672 net.cpp:150] Setting up relu5_3
I0622 04:06:55.265450 13672 net.cpp:157] Top shape: 2 512 19 19 (369664)
I0622 04:06:55.265450 13672 net.cpp:165] Memory required for data: 440784992
I0622 04:06:55.265450 13672 layer_factory.hpp:77] Creating layer pool5
I0622 04:06:55.265450 13672 net.cpp:100] Creating Layer pool5
I0622 04:06:55.265450 13672 net.cpp:434] pool5 <- conv5_3
I0622 04:06:55.265450 13672 net.cpp:408] pool5 -> pool5
I0622 04:06:55.265450 13672 net.cpp:150] Setting up pool5
I0622 04:06:55.265450 13672 net.cpp:157] Top shape: 2 512 19 19 (369664)
I0622 04:06:55.265450 13672 net.cpp:165] Memory required for data: 442263648
I0622 04:06:55.265450 13672 layer_factory.hpp:77] Creating layer fc6
I0622 04:06:55.265450 13672 net.cpp:100] Creating Layer fc6
I0622 04:06:55.265450 13672 net.cpp:434] fc6 <- pool5
I0622 04:06:55.265450 13672 net.cpp:408] fc6 -> fc6
I0622 04:06:55.311735 13672 net.cpp:150] Setting up fc6
I0622 04:06:55.311735 13672 net.cpp:157] Top shape: 2 1024 19 19 (739328)
I0622 04:06:55.311735 13672 net.cpp:165] Memory required for data: 445220960
I0622 04:06:55.311735 13672 layer_factory.hpp:77] Creating layer relu6
I0622 04:06:55.311735 13672 net.cpp:100] Creating Layer relu6
I0622 04:06:55.311735 13672 net.cpp:434] relu6 <- fc6
I0622 04:06:55.311735 13672 net.cpp:395] relu6 -> fc6 (in-place)
I0622 04:06:55.313302 13672 net.cpp:150] Setting up relu6
I0622 04:06:55.313302 13672 net.cpp:157] Top shape: 2 1024 19 19 (739328)
I0622 04:06:55.313302 13672 net.cpp:165] Memory required for data: 448178272
I0622 04:06:55.313302 13672 layer_factory.hpp:77] Creating layer fc7
I0622 04:06:55.313302 13672 net.cpp:100] Creating Layer fc7
I0622 04:06:55.313302 13672 net.cpp:434] fc7 <- fc6
I0622 04:06:55.313302 13672 net.cpp:408] fc7 -> fc7
I0622 04:06:55.334348 13672 net.cpp:150] Setting up fc7
I0622 04:06:55.334348 13672 net.cpp:157] Top shape: 2 1024 19 19 (739328)
I0622 04:06:55.334348 13672 net.cpp:165] Memory required for data: 451135584
I0622 04:06:55.334348 13672 layer_factory.hpp:77] Creating layer relu7
I0622 04:06:55.334348 13672 net.cpp:100] Creating Layer relu7
I0622 04:06:55.334348 13672 net.cpp:434] relu7 <- fc7
I0622 04:06:55.334348 13672 net.cpp:395] relu7 -> fc7 (in-place)
I0622 04:06:55.336359 13672 net.cpp:150] Setting up relu7
I0622 04:06:55.336359 13672 net.cpp:157] Top shape: 2 1024 19 19 (739328)
I0622 04:06:55.336359 13672 net.cpp:165] Memory required for data: 454092896
I0622 04:06:55.336359 13672 layer_factory.hpp:77] Creating layer fc7_relu7_0_split
I0622 04:06:55.336359 13672 net.cpp:100] Creating Layer fc7_relu7_0_split
I0622 04:06:55.336359 13672 net.cpp:434] fc7_relu7_0_split <- fc7
I0622 04:06:55.336359 13672 net.cpp:408] fc7_relu7_0_split -> fc7_relu7_0_split_0
I0622 04:06:55.336359 13672 net.cpp:408] fc7_relu7_0_split -> fc7_relu7_0_split_1
I0622 04:06:55.336359 13672 net.cpp:408] fc7_relu7_0_split -> fc7_relu7_0_split_2
I0622 04:06:55.336359 13672 net.cpp:408] fc7_relu7_0_split -> fc7_relu7_0_split_3
I0622 04:06:55.336359 13672 net.cpp:150] Setting up fc7_relu7_0_split
I0622 04:06:55.336359 13672 net.cpp:157] Top shape: 2 1024 19 19 (739328)
I0622 04:06:55.336359 13672 net.cpp:157] Top shape: 2 1024 19 19 (739328)
I0622 04:06:55.336359 13672 net.cpp:157] Top shape: 2 1024 19 19 (739328)
I0622 04:06:55.336359 13672 net.cpp:157] Top shape: 2 1024 19 19 (739328)
I0622 04:06:55.336359 13672 net.cpp:165] Memory required for data: 465922144
I0622 04:06:55.336359 13672 layer_factory.hpp:77] Creating layer conv8_1
I0622 04:06:55.336359 13672 net.cpp:100] Creating Layer conv8_1
I0622 04:06:55.337353 13672 net.cpp:434] conv8_1 <- fc7_relu7_0_split_0
I0622 04:06:55.337353 13672 net.cpp:408] conv8_1 -> conv8_1
I0622 04:06:55.350944 13672 net.cpp:150] Setting up conv8_1
I0622 04:06:55.350944 13672 net.cpp:157] Top shape: 2 256 19 19 (184832)
I0622 04:06:55.350944 13672 net.cpp:165] Memory required for data: 466661472
I0622 04:06:55.350944 13672 layer_factory.hpp:77] Creating layer conv8_1_relu
I0622 04:06:55.350944 13672 net.cpp:100] Creating Layer conv8_1_relu
I0622 04:06:55.350944 13672 net.cpp:434] conv8_1_relu <- conv8_1
I0622 04:06:55.350944 13672 net.cpp:395] conv8_1_relu -> conv8_1 (in-place)
I0622 04:06:55.351905 13672 net.cpp:150] Setting up conv8_1_relu
I0622 04:06:55.351905 13672 net.cpp:157] Top shape: 2 256 19 19 (184832)
I0622 04:06:55.351905 13672 net.cpp:165] Memory required for data: 467400800
I0622 04:06:55.351905 13672 layer_factory.hpp:77] Creating layer conv8_2
I0622 04:06:55.351905 13672 net.cpp:100] Creating Layer conv8_2
I0622 04:06:55.351905 13672 net.cpp:434] conv8_2 <- conv8_1
I0622 04:06:55.351905 13672 net.cpp:408] conv8_2 -> conv8_2
I0622 04:06:55.368938 13672 net.cpp:150] Setting up conv8_2
I0622 04:06:55.368938 13672 net.cpp:157] Top shape: 2 512 10 10 (102400)
I0622 04:06:55.368938 13672 net.cpp:165] Memory required for data: 467810400
I0622 04:06:55.368938 13672 layer_factory.hpp:77] Creating layer conv8_2_relu
I0622 04:06:55.368938 13672 net.cpp:100] Creating Layer conv8_2_relu
I0622 04:06:55.368938 13672 net.cpp:434] conv8_2_relu <- conv8_2
I0622 04:06:55.368938 13672 net.cpp:395] conv8_2_relu -> conv8_2 (in-place)
I0622 04:06:55.370932 13672 net.cpp:150] Setting up conv8_2_relu
I0622 04:06:55.370932 13672 net.cpp:157] Top shape: 2 512 10 10 (102400)
I0622 04:06:55.370932 13672 net.cpp:165] Memory required for data: 468220000
I0622 04:06:55.370932 13672 layer_factory.hpp:77] Creating layer conv8_2_conv8_2_relu_0_split
I0622 04:06:55.370932 13672 net.cpp:100] Creating Layer conv8_2_conv8_2_relu_0_split
I0622 04:06:55.370932 13672 net.cpp:434] conv8_2_conv8_2_relu_0_split <- conv8_2
I0622 04:06:55.370932 13672 net.cpp:408] conv8_2_conv8_2_relu_0_split -> conv8_2_conv8_2_relu_0_split_0
I0622 04:06:55.370932 13672 net.cpp:408] conv8_2_conv8_2_relu_0_split -> conv8_2_conv8_2_relu_0_split_1
I0622 04:06:55.370932 13672 net.cpp:408] conv8_2_conv8_2_relu_0_split -> conv8_2_conv8_2_relu_0_split_2
I0622 04:06:55.370932 13672 net.cpp:408] conv8_2_conv8_2_relu_0_split -> conv8_2_conv8_2_relu_0_split_3
I0622 04:06:55.370932 13672 net.cpp:150] Setting up conv8_2_conv8_2_relu_0_split
I0622 04:06:55.370932 13672 net.cpp:157] Top shape: 2 512 10 10 (102400)
I0622 04:06:55.370932 13672 net.cpp:157] Top shape: 2 512 10 10 (102400)
I0622 04:06:55.370932 13672 net.cpp:157] Top shape: 2 512 10 10 (102400)
I0622 04:06:55.370932 13672 net.cpp:157] Top shape: 2 512 10 10 (102400)
I0622 04:06:55.370932 13672 net.cpp:165] Memory required for data: 469858400
I0622 04:06:55.370932 13672 layer_factory.hpp:77] Creating layer conv9_1
I0622 04:06:55.370932 13672 net.cpp:100] Creating Layer conv9_1
I0622 04:06:55.370932 13672 net.cpp:434] conv9_1 <- conv8_2_conv8_2_relu_0_split_0
I0622 04:06:55.370932 13672 net.cpp:408] conv9_1 -> conv9_1
I0622 04:06:55.378649 13672 net.cpp:150] Setting up conv9_1
I0622 04:06:55.378649 13672 net.cpp:157] Top shape: 2 128 10 10 (25600)
I0622 04:06:55.378649 13672 net.cpp:165] Memory required for data: 469960800
I0622 04:06:55.378649 13672 layer_factory.hpp:77] Creating layer conv9_1_relu
I0622 04:06:55.378649 13672 net.cpp:100] Creating Layer conv9_1_relu
I0622 04:06:55.378649 13672 net.cpp:434] conv9_1_relu <- conv9_1
I0622 04:06:55.378649 13672 net.cpp:395] conv9_1_relu -> conv9_1 (in-place)
I0622 04:06:55.379647 13672 net.cpp:150] Setting up conv9_1_relu
I0622 04:06:55.379647 13672 net.cpp:157] Top shape: 2 128 10 10 (25600)
I0622 04:06:55.380645 13672 net.cpp:165] Memory required for data: 470063200
I0622 04:06:55.380645 13672 layer_factory.hpp:77] Creating layer conv9_2
I0622 04:06:55.380645 13672 net.cpp:100] Creating Layer conv9_2
I0622 04:06:55.380645 13672 net.cpp:434] conv9_2 <- conv9_1
I0622 04:06:55.380645 13672 net.cpp:408] conv9_2 -> conv9_2
I0622 04:06:55.388041 13672 net.cpp:150] Setting up conv9_2
I0622 04:06:55.388041 13672 net.cpp:157] Top shape: 2 256 5 5 (12800)
I0622 04:06:55.388041 13672 net.cpp:165] Memory required for data: 470114400
I0622 04:06:55.389039 13672 layer_factory.hpp:77] Creating layer conv9_2_relu
I0622 04:06:55.389058 13672 net.cpp:100] Creating Layer conv9_2_relu
I0622 04:06:55.389058 13672 net.cpp:434] conv9_2_relu <- conv9_2
I0622 04:06:55.389058 13672 net.cpp:395] conv9_2_relu -> conv9_2 (in-place)
I0622 04:06:55.405014 13672 net.cpp:150] Setting up conv9_2_relu
I0622 04:06:55.406010 13672 net.cpp:157] Top shape: 2 256 5 5 (12800)
I0622 04:06:55.406010 13672 net.cpp:165] Memory required for data: 470165600
I0622 04:06:55.406010 13672 layer_factory.hpp:77] Creating layer conv9_2_conv9_2_relu_0_split
I0622 04:06:55.406010 13672 net.cpp:100] Creating Layer conv9_2_conv9_2_relu_0_split
I0622 04:06:55.406010 13672 net.cpp:434] conv9_2_conv9_2_relu_0_split <- conv9_2
I0622 04:06:55.406010 13672 net.cpp:408] conv9_2_conv9_2_relu_0_split -> conv9_2_conv9_2_relu_0_split_0
I0622 04:06:55.406010 13672 net.cpp:408] conv9_2_conv9_2_relu_0_split -> conv9_2_conv9_2_relu_0_split_1
I0622 04:06:55.406010 13672 net.cpp:408] conv9_2_conv9_2_relu_0_split -> conv9_2_conv9_2_relu_0_split_2
I0622 04:06:55.406010 13672 net.cpp:408] conv9_2_conv9_2_relu_0_split -> conv9_2_conv9_2_relu_0_split_3
I0622 04:06:55.406010 13672 net.cpp:150] Setting up conv9_2_conv9_2_relu_0_split
I0622 04:06:55.406010 13672 net.cpp:157] Top shape: 2 256 5 5 (12800)
I0622 04:06:55.406010 13672 net.cpp:157] Top shape: 2 256 5 5 (12800)
I0622 04:06:55.406010 13672 net.cpp:157] Top shape: 2 256 5 5 (12800)
I0622 04:06:55.406010 13672 net.cpp:157] Top shape: 2 256 5 5 (12800)
I0622 04:06:55.406010 13672 net.cpp:165] Memory required for data: 470370400
I0622 04:06:55.406010 13672 layer_factory.hpp:77] Creating layer conv10_1
I0622 04:06:55.406010 13672 net.cpp:100] Creating Layer conv10_1
I0622 04:06:55.406010 13672 net.cpp:434] conv10_1 <- conv9_2_conv9_2_relu_0_split_0
I0622 04:06:55.406010 13672 net.cpp:408] conv10_1 -> conv10_1
I0622 04:06:55.425500 13672 net.cpp:150] Setting up conv10_1
I0622 04:06:55.425500 13672 net.cpp:157] Top shape: 2 128 5 5 (6400)
I0622 04:06:55.425500 13672 net.cpp:165] Memory required for data: 470396000
I0622 04:06:55.425500 13672 layer_factory.hpp:77] Creating layer conv10_1_relu
I0622 04:06:55.425500 13672 net.cpp:100] Creating Layer conv10_1_relu
I0622 04:06:55.425500 13672 net.cpp:434] conv10_1_relu <- conv10_1
I0622 04:06:55.425500 13672 net.cpp:395] conv10_1_relu -> conv10_1 (in-place)
I0622 04:06:55.428499 13672 net.cpp:150] Setting up conv10_1_relu
I0622 04:06:55.428499 13672 net.cpp:157] Top shape: 2 128 5 5 (6400)
I0622 04:06:55.428499 13672 net.cpp:165] Memory required for data: 470421600
I0622 04:06:55.428499 13672 layer_factory.hpp:77] Creating layer conv10_2
I0622 04:06:55.428499 13672 net.cpp:100] Creating Layer conv10_2
I0622 04:06:55.428499 13672 net.cpp:434] conv10_2 <- conv10_1
I0622 04:06:55.428499 13672 net.cpp:408] conv10_2 -> conv10_2
I0622 04:06:55.438747 13672 net.cpp:150] Setting up conv10_2
I0622 04:06:55.438747 13672 net.cpp:157] Top shape: 2 256 3 3 (4608)
I0622 04:06:55.438747 13672 net.cpp:165] Memory required for data: 470440032
I0622 04:06:55.438747 13672 layer_factory.hpp:77] Creating layer conv10_2_relu
I0622 04:06:55.438747 13672 net.cpp:100] Creating Layer conv10_2_relu
I0622 04:06:55.438747 13672 net.cpp:434] conv10_2_relu <- conv10_2
I0622 04:06:55.438747 13672 net.cpp:395] conv10_2_relu -> conv10_2 (in-place)
I0622 04:06:55.439777 13672 net.cpp:150] Setting up conv10_2_relu
I0622 04:06:55.439777 13672 net.cpp:157] Top shape: 2 256 3 3 (4608)
I0622 04:06:55.439777 13672 net.cpp:165] Memory required for data: 470458464
I0622 04:06:55.440740 13672 layer_factory.hpp:77] Creating layer conv10_2_conv10_2_relu_0_split
I0622 04:06:55.440740 13672 net.cpp:100] Creating Layer conv10_2_conv10_2_relu_0_split
I0622 04:06:55.440780 13672 net.cpp:434] conv10_2_conv10_2_relu_0_split <- conv10_2
I0622 04:06:55.440780 13672 net.cpp:408] conv10_2_conv10_2_relu_0_split -> conv10_2_conv10_2_relu_0_split_0
I0622 04:06:55.440780 13672 net.cpp:408] conv10_2_conv10_2_relu_0_split -> conv10_2_conv10_2_relu_0_split_1
I0622 04:06:55.440780 13672 net.cpp:408] conv10_2_conv10_2_relu_0_split -> conv10_2_conv10_2_relu_0_split_2
I0622 04:06:55.440780 13672 net.cpp:408] conv10_2_conv10_2_relu_0_split -> conv10_2_conv10_2_relu_0_split_3
I0622 04:06:55.440780 13672 net.cpp:150] Setting up conv10_2_conv10_2_relu_0_split
I0622 04:06:55.440780 13672 net.cpp:157] Top shape: 2 256 3 3 (4608)
I0622 04:06:55.440780 13672 net.cpp:157] Top shape: 2 256 3 3 (4608)
I0622 04:06:55.440780 13672 net.cpp:157] Top shape: 2 256 3 3 (4608)
I0622 04:06:55.440780 13672 net.cpp:157] Top shape: 2 256 3 3 (4608)
I0622 04:06:55.440780 13672 net.cpp:165] Memory required for data: 470532192
I0622 04:06:55.440780 13672 layer_factory.hpp:77] Creating layer conv11_1
I0622 04:06:55.440780 13672 net.cpp:100] Creating Layer conv11_1
I0622 04:06:55.440780 13672 net.cpp:434] conv11_1 <- conv10_2_conv10_2_relu_0_split_0
I0622 04:06:55.440780 13672 net.cpp:408] conv11_1 -> conv11_1
I0622 04:06:55.448469 13672 net.cpp:150] Setting up conv11_1
I0622 04:06:55.448469 13672 net.cpp:157] Top shape: 2 128 3 3 (2304)
I0622 04:06:55.448469 13672 net.cpp:165] Memory required for data: 470541408
I0622 04:06:55.449466 13672 layer_factory.hpp:77] Creating layer conv11_1_relu
I0622 04:06:55.449466 13672 net.cpp:100] Creating Layer conv11_1_relu
I0622 04:06:55.449466 13672 net.cpp:434] conv11_1_relu <- conv11_1
I0622 04:06:55.449466 13672 net.cpp:395] conv11_1_relu -> conv11_1 (in-place)
I0622 04:06:55.450477 13672 net.cpp:150] Setting up conv11_1_relu
I0622 04:06:55.450477 13672 net.cpp:157] Top shape: 2 128 3 3 (2304)
I0622 04:06:55.450477 13672 net.cpp:165] Memory required for data: 470550624
I0622 04:06:55.450477 13672 layer_factory.hpp:77] Creating layer conv11_2
I0622 04:06:55.450477 13672 net.cpp:100] Creating Layer conv11_2
I0622 04:06:55.450477 13672 net.cpp:434] conv11_2 <- conv11_1
I0622 04:06:55.450477 13672 net.cpp:408] conv11_2 -> conv11_2
I0622 04:06:55.459936 13672 net.cpp:150] Setting up conv11_2
I0622 04:06:55.459936 13672 net.cpp:157] Top shape: 2 256 1 1 (512)
I0622 04:06:55.459936 13672 net.cpp:165] Memory required for data: 470552672
I0622 04:06:55.459936 13672 layer_factory.hpp:77] Creating layer conv11_2_relu
I0622 04:06:55.459936 13672 net.cpp:100] Creating Layer conv11_2_relu
I0622 04:06:55.459936 13672 net.cpp:434] conv11_2_relu <- conv11_2
I0622 04:06:55.459936 13672 net.cpp:395] conv11_2_relu -> conv11_2 (in-place)
I0622 04:06:55.461932 13672 net.cpp:150] Setting up conv11_2_relu
I0622 04:06:55.461932 13672 net.cpp:157] Top shape: 2 256 1 1 (512)
I0622 04:06:55.461932 13672 net.cpp:165] Memory required for data: 470554720
I0622 04:06:55.461932 13672 layer_factory.hpp:77] Creating layer conv11_2_conv11_2_relu_0_split
I0622 04:06:55.461932 13672 net.cpp:100] Creating Layer conv11_2_conv11_2_relu_0_split
I0622 04:06:55.461932 13672 net.cpp:434] conv11_2_conv11_2_relu_0_split <- conv11_2
I0622 04:06:55.461932 13672 net.cpp:408] conv11_2_conv11_2_relu_0_split -> conv11_2_conv11_2_relu_0_split_0
I0622 04:06:55.461932 13672 net.cpp:408] conv11_2_conv11_2_relu_0_split -> conv11_2_conv11_2_relu_0_split_1
I0622 04:06:55.461932 13672 net.cpp:408] conv11_2_conv11_2_relu_0_split -> conv11_2_conv11_2_relu_0_split_2
I0622 04:06:55.461932 13672 net.cpp:150] Setting up conv11_2_conv11_2_relu_0_split
I0622 04:06:55.461932 13672 net.cpp:157] Top shape: 2 256 1 1 (512)
I0622 04:06:55.461932 13672 net.cpp:157] Top shape: 2 256 1 1 (512)
I0622 04:06:55.461932 13672 net.cpp:157] Top shape: 2 256 1 1 (512)
I0622 04:06:55.461932 13672 net.cpp:165] Memory required for data: 470560864
I0622 04:06:55.461932 13672 layer_factory.hpp:77] Creating layer conv4_3_norm
I0622 04:06:55.461932 13672 net.cpp:100] Creating Layer conv4_3_norm
I0622 04:06:55.461932 13672 net.cpp:434] conv4_3_norm <- conv4_3_relu4_3_0_split_1
I0622 04:06:55.461932 13672 net.cpp:408] conv4_3_norm -> conv4_3_norm
I0622 04:06:55.462927 13672 net.cpp:150] Setting up conv4_3_norm
I0622 04:06:55.462927 13672 net.cpp:157] Top shape: 2 512 38 38 (1478656)
I0622 04:06:55.462927 13672 net.cpp:165] Memory required for data: 476475488
I0622 04:06:55.462927 13672 layer_factory.hpp:77] Creating layer conv4_3_norm_conv4_3_norm_0_split
I0622 04:06:55.462927 13672 net.cpp:100] Creating Layer conv4_3_norm_conv4_3_norm_0_split
I0622 04:06:55.462927 13672 net.cpp:434] conv4_3_norm_conv4_3_norm_0_split <- conv4_3_norm
I0622 04:06:55.462927 13672 net.cpp:408] conv4_3_norm_conv4_3_norm_0_split -> conv4_3_norm_conv4_3_norm_0_split_0
I0622 04:06:55.462927 13672 net.cpp:408] conv4_3_norm_conv4_3_norm_0_split -> conv4_3_norm_conv4_3_norm_0_split_1
I0622 04:06:55.462927 13672 net.cpp:408] conv4_3_norm_conv4_3_norm_0_split -> conv4_3_norm_conv4_3_norm_0_split_2
I0622 04:06:55.462927 13672 net.cpp:150] Setting up conv4_3_norm_conv4_3_norm_0_split
I0622 04:06:55.462927 13672 net.cpp:157] Top shape: 2 512 38 38 (1478656)
I0622 04:06:55.462927 13672 net.cpp:157] Top shape: 2 512 38 38 (1478656)
I0622 04:06:55.462927 13672 net.cpp:157] Top shape: 2 512 38 38 (1478656)
I0622 04:06:55.462927 13672 net.cpp:165] Memory required for data: 494219360
I0622 04:06:55.462927 13672 layer_factory.hpp:77] Creating layer conv4_3_norm_mbox_loc
I0622 04:06:55.462927 13672 net.cpp:100] Creating Layer conv4_3_norm_mbox_loc
I0622 04:06:55.462927 13672 net.cpp:434] conv4_3_norm_mbox_loc <- conv4_3_norm_conv4_3_norm_0_split_0
I0622 04:06:55.462927 13672 net.cpp:408] conv4_3_norm_mbox_loc -> conv4_3_norm_mbox_loc
I0622 04:06:55.470350 13672 net.cpp:150] Setting up conv4_3_norm_mbox_loc
I0622 04:06:55.470350 13672 net.cpp:157] Top shape: 2 16 38 38 (46208)
I0622 04:06:55.470350 13672 net.cpp:165] Memory required for data: 494404192
I0622 04:06:55.470350 13672 layer_factory.hpp:77] Creating layer conv4_3_norm_mbox_loc_perm
I0622 04:06:55.470350 13672 net.cpp:100] Creating Layer conv4_3_norm_mbox_loc_perm
I0622 04:06:55.470350 13672 net.cpp:434] conv4_3_norm_mbox_loc_perm <- conv4_3_norm_mbox_loc
I0622 04:06:55.470350 13672 net.cpp:408] conv4_3_norm_mbox_loc_perm -> conv4_3_norm_mbox_loc_perm
I0622 04:06:55.470350 13672 net.cpp:150] Setting up conv4_3_norm_mbox_loc_perm
I0622 04:06:55.470350 13672 net.cpp:157] Top shape: 2 38 38 16 (46208)
I0622 04:06:55.470350 13672 net.cpp:165] Memory required for data: 494589024
I0622 04:06:55.470350 13672 layer_factory.hpp:77] Creating layer conv4_3_norm_mbox_loc_flat
I0622 04:06:55.470350 13672 net.cpp:100] Creating Layer conv4_3_norm_mbox_loc_flat
I0622 04:06:55.470350 13672 net.cpp:434] conv4_3_norm_mbox_loc_flat <- conv4_3_norm_mbox_loc_perm
I0622 04:06:55.470350 13672 net.cpp:408] conv4_3_norm_mbox_loc_flat -> conv4_3_norm_mbox_loc_flat
I0622 04:06:55.470350 13672 net.cpp:150] Setting up conv4_3_norm_mbox_loc_flat
I0622 04:06:55.470350 13672 net.cpp:157] Top shape: 2 23104 (46208)
I0622 04:06:55.470350 13672 net.cpp:165] Memory required for data: 494773856
I0622 04:06:55.470350 13672 layer_factory.hpp:77] Creating layer conv4_3_norm_mbox_conf
I0622 04:06:55.470350 13672 net.cpp:100] Creating Layer conv4_3_norm_mbox_conf
I0622 04:06:55.470350 13672 net.cpp:434] conv4_3_norm_mbox_conf <- conv4_3_norm_conv4_3_norm_0_split_1
I0622 04:06:55.470350 13672 net.cpp:408] conv4_3_norm_mbox_conf -> conv4_3_norm_mbox_conf
I0622 04:06:55.479230 13672 net.cpp:150] Setting up conv4_3_norm_mbox_conf
I0622 04:06:55.479230 13672 net.cpp:157] Top shape: 2 12 38 38 (34656)
I0622 04:06:55.479230 13672 net.cpp:165] Memory required for data: 494912480
I0622 04:06:55.479230 13672 layer_factory.hpp:77] Creating layer conv4_3_norm_mbox_conf_perm
I0622 04:06:55.479230 13672 net.cpp:100] Creating Layer conv4_3_norm_mbox_conf_perm
I0622 04:06:55.479230 13672 net.cpp:434] conv4_3_norm_mbox_conf_perm <- conv4_3_norm_mbox_conf
I0622 04:06:55.479230 13672 net.cpp:408] conv4_3_norm_mbox_conf_perm -> conv4_3_norm_mbox_conf_perm
I0622 04:06:55.479230 13672 net.cpp:150] Setting up conv4_3_norm_mbox_conf_perm
I0622 04:06:55.479230 13672 net.cpp:157] Top shape: 2 38 38 12 (34656)
I0622 04:06:55.479230 13672 net.cpp:165] Memory required for data: 495051104
I0622 04:06:55.479230 13672 layer_factory.hpp:77] Creating layer conv4_3_norm_mbox_conf_flat
I0622 04:06:55.479230 13672 net.cpp:100] Creating Layer conv4_3_norm_mbox_conf_flat
I0622 04:06:55.479230 13672 net.cpp:434] conv4_3_norm_mbox_conf_flat <- conv4_3_norm_mbox_conf_perm
I0622 04:06:55.479230 13672 net.cpp:408] conv4_3_norm_mbox_conf_flat -> conv4_3_norm_mbox_conf_flat
I0622 04:06:55.479230 13672 net.cpp:150] Setting up conv4_3_norm_mbox_conf_flat
I0622 04:06:55.479230 13672 net.cpp:157] Top shape: 2 17328 (34656)
I0622 04:06:55.479230 13672 net.cpp:165] Memory required for data: 495189728
I0622 04:06:55.479230 13672 layer_factory.hpp:77] Creating layer conv4_3_norm_mbox_priorbox
I0622 04:06:55.479230 13672 net.cpp:100] Creating Layer conv4_3_norm_mbox_priorbox
I0622 04:06:55.479230 13672 net.cpp:434] conv4_3_norm_mbox_priorbox <- conv4_3_norm_conv4_3_norm_0_split_2
I0622 04:06:55.479230 13672 net.cpp:434] conv4_3_norm_mbox_priorbox <- data_data_0_split_1
I0622 04:06:55.479230 13672 net.cpp:408] conv4_3_norm_mbox_priorbox -> conv4_3_norm_mbox_priorbox
I0622 04:06:55.480242 13672 net.cpp:150] Setting up conv4_3_norm_mbox_priorbox
I0622 04:06:55.480242 13672 net.cpp:157] Top shape: 1 2 23104 (46208)
I0622 04:06:55.480242 13672 net.cpp:165] Memory required for data: 495374560
I0622 04:06:55.480242 13672 layer_factory.hpp:77] Creating layer fc7_mbox_loc
I0622 04:06:55.480242 13672 net.cpp:100] Creating Layer fc7_mbox_loc
I0622 04:06:55.480242 13672 net.cpp:434] fc7_mbox_loc <- fc7_relu7_0_split_1
I0622 04:06:55.480242 13672 net.cpp:408] fc7_mbox_loc -> fc7_mbox_loc
I0622 04:06:55.490006 13672 net.cpp:150] Setting up fc7_mbox_loc
I0622 04:06:55.490006 13672 net.cpp:157] Top shape: 2 24 19 19 (17328)
I0622 04:06:55.490006 13672 net.cpp:165] Memory required for data: 495443872
I0622 04:06:55.490006 13672 layer_factory.hpp:77] Creating layer fc7_mbox_loc_perm
I0622 04:06:55.490006 13672 net.cpp:100] Creating Layer fc7_mbox_loc_perm
I0622 04:06:55.490006 13672 net.cpp:434] fc7_mbox_loc_perm <- fc7_mbox_loc
I0622 04:06:55.490006 13672 net.cpp:408] fc7_mbox_loc_perm -> fc7_mbox_loc_perm
I0622 04:06:55.491003 13672 net.cpp:150] Setting up fc7_mbox_loc_perm
I0622 04:06:55.491003 13672 net.cpp:157] Top shape: 2 19 19 24 (17328)
I0622 04:06:55.491003 13672 net.cpp:165] Memory required for data: 495513184
I0622 04:06:55.491003 13672 layer_factory.hpp:77] Creating layer fc7_mbox_loc_flat
I0622 04:06:55.491003 13672 net.cpp:100] Creating Layer fc7_mbox_loc_flat
I0622 04:06:55.491003 13672 net.cpp:434] fc7_mbox_loc_flat <- fc7_mbox_loc_perm
I0622 04:06:55.491003 13672 net.cpp:408] fc7_mbox_loc_flat -> fc7_mbox_loc_flat
I0622 04:06:55.491003 13672 net.cpp:150] Setting up fc7_mbox_loc_flat
I0622 04:06:55.491003 13672 net.cpp:157] Top shape: 2 8664 (17328)
I0622 04:06:55.491003 13672 net.cpp:165] Memory required for data: 495582496
I0622 04:06:55.491003 13672 layer_factory.hpp:77] Creating layer fc7_mbox_conf
I0622 04:06:55.491003 13672 net.cpp:100] Creating Layer fc7_mbox_conf
I0622 04:06:55.491003 13672 net.cpp:434] fc7_mbox_conf <- fc7_relu7_0_split_2
I0622 04:06:55.491003 13672 net.cpp:408] fc7_mbox_conf -> fc7_mbox_conf
I0622 04:06:55.499419 13672 net.cpp:150] Setting up fc7_mbox_conf
I0622 04:06:55.499419 13672 net.cpp:157] Top shape: 2 18 19 19 (12996)
I0622 04:06:55.499419 13672 net.cpp:165] Memory required for data: 495634480
I0622 04:06:55.499419 13672 layer_factory.hpp:77] Creating layer fc7_mbox_conf_perm
I0622 04:06:55.499419 13672 net.cpp:100] Creating Layer fc7_mbox_conf_perm
I0622 04:06:55.499419 13672 net.cpp:434] fc7_mbox_conf_perm <- fc7_mbox_conf
I0622 04:06:55.499419 13672 net.cpp:408] fc7_mbox_conf_perm -> fc7_mbox_conf_perm
I0622 04:06:55.500416 13672 net.cpp:150] Setting up fc7_mbox_conf_perm
I0622 04:06:55.500416 13672 net.cpp:157] Top shape: 2 19 19 18 (12996)
I0622 04:06:55.500416 13672 net.cpp:165] Memory required for data: 495686464
I0622 04:06:55.500416 13672 layer_factory.hpp:77] Creating layer fc7_mbox_conf_flat
I0622 04:06:55.500416 13672 net.cpp:100] Creating Layer fc7_mbox_conf_flat
I0622 04:06:55.500416 13672 net.cpp:434] fc7_mbox_conf_flat <- fc7_mbox_conf_perm
I0622 04:06:55.500416 13672 net.cpp:408] fc7_mbox_conf_flat -> fc7_mbox_conf_flat
I0622 04:06:55.500416 13672 net.cpp:150] Setting up fc7_mbox_conf_flat
I0622 04:06:55.500416 13672 net.cpp:157] Top shape: 2 6498 (12996)
I0622 04:06:55.500416 13672 net.cpp:165] Memory required for data: 495738448
I0622 04:06:55.500416 13672 layer_factory.hpp:77] Creating layer fc7_mbox_priorbox
I0622 04:06:55.500416 13672 net.cpp:100] Creating Layer fc7_mbox_priorbox
I0622 04:06:55.500416 13672 net.cpp:434] fc7_mbox_priorbox <- fc7_relu7_0_split_3
I0622 04:06:55.500416 13672 net.cpp:434] fc7_mbox_priorbox <- data_data_0_split_2
I0622 04:06:55.500416 13672 net.cpp:408] fc7_mbox_priorbox -> fc7_mbox_priorbox
I0622 04:06:55.500416 13672 net.cpp:150] Setting up fc7_mbox_priorbox
I0622 04:06:55.500416 13672 net.cpp:157] Top shape: 1 2 8664 (17328)
I0622 04:06:55.500416 13672 net.cpp:165] Memory required for data: 495807760
I0622 04:06:55.500416 13672 layer_factory.hpp:77] Creating layer conv8_2_mbox_loc
I0622 04:06:55.500416 13672 net.cpp:100] Creating Layer conv8_2_mbox_loc
I0622 04:06:55.500416 13672 net.cpp:434] conv8_2_mbox_loc <- conv8_2_conv8_2_relu_0_split_1
I0622 04:06:55.500416 13672 net.cpp:408] conv8_2_mbox_loc -> conv8_2_mbox_loc
I0622 04:06:55.508426 13672 net.cpp:150] Setting up conv8_2_mbox_loc
I0622 04:06:55.508426 13672 net.cpp:157] Top shape: 2 24 10 10 (4800)
I0622 04:06:55.508426 13672 net.cpp:165] Memory required for data: 495826960
I0622 04:06:55.508426 13672 layer_factory.hpp:77] Creating layer conv8_2_mbox_loc_perm
I0622 04:06:55.508426 13672 net.cpp:100] Creating Layer conv8_2_mbox_loc_perm
I0622 04:06:55.508426 13672 net.cpp:434] conv8_2_mbox_loc_perm <- conv8_2_mbox_loc
I0622 04:06:55.508426 13672 net.cpp:408] conv8_2_mbox_loc_perm -> conv8_2_mbox_loc_perm
I0622 04:06:55.508426 13672 net.cpp:150] Setting up conv8_2_mbox_loc_perm
I0622 04:06:55.508426 13672 net.cpp:157] Top shape: 2 10 10 24 (4800)
I0622 04:06:55.508426 13672 net.cpp:165] Memory required for data: 495846160
I0622 04:06:55.508426 13672 layer_factory.hpp:77] Creating layer conv8_2_mbox_loc_flat
I0622 04:06:55.508426 13672 net.cpp:100] Creating Layer conv8_2_mbox_loc_flat
I0622 04:06:55.508426 13672 net.cpp:434] conv8_2_mbox_loc_flat <- conv8_2_mbox_loc_perm
I0622 04:06:55.508426 13672 net.cpp:408] conv8_2_mbox_loc_flat -> conv8_2_mbox_loc_flat
I0622 04:06:55.509423 13672 net.cpp:150] Setting up conv8_2_mbox_loc_flat
I0622 04:06:55.509423 13672 net.cpp:157] Top shape: 2 2400 (4800)
I0622 04:06:55.509423 13672 net.cpp:165] Memory required for data: 495865360
I0622 04:06:55.509423 13672 layer_factory.hpp:77] Creating layer conv8_2_mbox_conf
I0622 04:06:55.509423 13672 net.cpp:100] Creating Layer conv8_2_mbox_conf
I0622 04:06:55.509423 13672 net.cpp:434] conv8_2_mbox_conf <- conv8_2_conv8_2_relu_0_split_2
I0622 04:06:55.509423 13672 net.cpp:408] conv8_2_mbox_conf -> conv8_2_mbox_conf
I0622 04:06:55.540020 13672 net.cpp:150] Setting up conv8_2_mbox_conf
I0622 04:06:55.540020 13672 net.cpp:157] Top shape: 2 18 10 10 (3600)
I0622 04:06:55.540020 13672 net.cpp:165] Memory required for data: 495879760
I0622 04:06:55.540020 13672 layer_factory.hpp:77] Creating layer conv8_2_mbox_conf_perm
I0622 04:06:55.540020 13672 net.cpp:100] Creating Layer conv8_2_mbox_conf_perm
I0622 04:06:55.540020 13672 net.cpp:434] conv8_2_mbox_conf_perm <- conv8_2_mbox_conf
I0622 04:06:55.540020 13672 net.cpp:408] conv8_2_mbox_conf_perm -> conv8_2_mbox_conf_perm
I0622 04:06:55.540020 13672 net.cpp:150] Setting up conv8_2_mbox_conf_perm
I0622 04:06:55.540020 13672 net.cpp:157] Top shape: 2 10 10 18 (3600)
I0622 04:06:55.540020 13672 net.cpp:165] Memory required for data: 495894160
I0622 04:06:55.540020 13672 layer_factory.hpp:77] Creating layer conv8_2_mbox_conf_flat
I0622 04:06:55.540020 13672 net.cpp:100] Creating Layer conv8_2_mbox_conf_flat
I0622 04:06:55.540020 13672 net.cpp:434] conv8_2_mbox_conf_flat <- conv8_2_mbox_conf_perm
I0622 04:06:55.540020 13672 net.cpp:408] conv8_2_mbox_conf_flat -> conv8_2_mbox_conf_flat
I0622 04:06:55.540020 13672 net.cpp:150] Setting up conv8_2_mbox_conf_flat
I0622 04:06:55.540020 13672 net.cpp:157] Top shape: 2 1800 (3600)
I0622 04:06:55.540020 13672 net.cpp:165] Memory required for data: 495908560
I0622 04:06:55.540020 13672 layer_factory.hpp:77] Creating layer conv8_2_mbox_priorbox
I0622 04:06:55.540020 13672 net.cpp:100] Creating Layer conv8_2_mbox_priorbox
I0622 04:06:55.540020 13672 net.cpp:434] conv8_2_mbox_priorbox <- conv8_2_conv8_2_relu_0_split_3
I0622 04:06:55.540020 13672 net.cpp:434] conv8_2_mbox_priorbox <- data_data_0_split_3
I0622 04:06:55.540020 13672 net.cpp:408] conv8_2_mbox_priorbox -> conv8_2_mbox_priorbox
I0622 04:06:55.541018 13672 net.cpp:150] Setting up conv8_2_mbox_priorbox
I0622 04:06:55.541018 13672 net.cpp:157] Top shape: 1 2 2400 (4800)
I0622 04:06:55.541018 13672 net.cpp:165] Memory required for data: 495927760
I0622 04:06:55.541018 13672 layer_factory.hpp:77] Creating layer conv9_2_mbox_loc
I0622 04:06:55.541018 13672 net.cpp:100] Creating Layer conv9_2_mbox_loc
I0622 04:06:55.541018 13672 net.cpp:434] conv9_2_mbox_loc <- conv9_2_conv9_2_relu_0_split_1
I0622 04:06:55.541018 13672 net.cpp:408] conv9_2_mbox_loc -> conv9_2_mbox_loc
I0622 04:06:55.547592 13672 net.cpp:150] Setting up conv9_2_mbox_loc
I0622 04:06:55.547592 13672 net.cpp:157] Top shape: 2 24 5 5 (1200)
I0622 04:06:55.547592 13672 net.cpp:165] Memory required for data: 495932560
I0622 04:06:55.547592 13672 layer_factory.hpp:77] Creating layer conv9_2_mbox_loc_perm
I0622 04:06:55.547592 13672 net.cpp:100] Creating Layer conv9_2_mbox_loc_perm
I0622 04:06:55.547592 13672 net.cpp:434] conv9_2_mbox_loc_perm <- conv9_2_mbox_loc
I0622 04:06:55.547592 13672 net.cpp:408] conv9_2_mbox_loc_perm -> conv9_2_mbox_loc_perm
I0622 04:06:55.547592 13672 net.cpp:150] Setting up conv9_2_mbox_loc_perm
I0622 04:06:55.547592 13672 net.cpp:157] Top shape: 2 5 5 24 (1200)
I0622 04:06:55.547592 13672 net.cpp:165] Memory required for data: 495937360
I0622 04:06:55.547592 13672 layer_factory.hpp:77] Creating layer conv9_2_mbox_loc_flat
I0622 04:06:55.547592 13672 net.cpp:100] Creating Layer conv9_2_mbox_loc_flat
I0622 04:06:55.547592 13672 net.cpp:434] conv9_2_mbox_loc_flat <- conv9_2_mbox_loc_perm
I0622 04:06:55.547592 13672 net.cpp:408] conv9_2_mbox_loc_flat -> conv9_2_mbox_loc_flat
I0622 04:06:55.547592 13672 net.cpp:150] Setting up conv9_2_mbox_loc_flat
I0622 04:06:55.547592 13672 net.cpp:157] Top shape: 2 600 (1200)
I0622 04:06:55.547592 13672 net.cpp:165] Memory required for data: 495942160
I0622 04:06:55.547592 13672 layer_factory.hpp:77] Creating layer conv9_2_mbox_conf
I0622 04:06:55.547592 13672 net.cpp:100] Creating Layer conv9_2_mbox_conf
I0622 04:06:55.547592 13672 net.cpp:434] conv9_2_mbox_conf <- conv9_2_conv9_2_relu_0_split_2
I0622 04:06:55.547592 13672 net.cpp:408] conv9_2_mbox_conf -> conv9_2_mbox_conf
I0622 04:06:55.553578 13672 net.cpp:150] Setting up conv9_2_mbox_conf
I0622 04:06:55.553578 13672 net.cpp:157] Top shape: 2 18 5 5 (900)
I0622 04:06:55.553578 13672 net.cpp:165] Memory required for data: 495945760
I0622 04:06:55.553578 13672 layer_factory.hpp:77] Creating layer conv9_2_mbox_conf_perm
I0622 04:06:55.553578 13672 net.cpp:100] Creating Layer conv9_2_mbox_conf_perm
I0622 04:06:55.553578 13672 net.cpp:434] conv9_2_mbox_conf_perm <- conv9_2_mbox_conf
I0622 04:06:55.553578 13672 net.cpp:408] conv9_2_mbox_conf_perm -> conv9_2_mbox_conf_perm
I0622 04:06:55.553578 13672 net.cpp:150] Setting up conv9_2_mbox_conf_perm
I0622 04:06:55.553578 13672 net.cpp:157] Top shape: 2 5 5 18 (900)
I0622 04:06:55.553578 13672 net.cpp:165] Memory required for data: 495949360
I0622 04:06:55.553578 13672 layer_factory.hpp:77] Creating layer conv9_2_mbox_conf_flat
I0622 04:06:55.553578 13672 net.cpp:100] Creating Layer conv9_2_mbox_conf_flat
I0622 04:06:55.553578 13672 net.cpp:434] conv9_2_mbox_conf_flat <- conv9_2_mbox_conf_perm
I0622 04:06:55.553578 13672 net.cpp:408] conv9_2_mbox_conf_flat -> conv9_2_mbox_conf_flat
I0622 04:06:55.553578 13672 net.cpp:150] Setting up conv9_2_mbox_conf_flat
I0622 04:06:55.553578 13672 net.cpp:157] Top shape: 2 450 (900)
I0622 04:06:55.553578 13672 net.cpp:165] Memory required for data: 495952960
I0622 04:06:55.553578 13672 layer_factory.hpp:77] Creating layer conv9_2_mbox_priorbox
I0622 04:06:55.553578 13672 net.cpp:100] Creating Layer conv9_2_mbox_priorbox
I0622 04:06:55.553578 13672 net.cpp:434] conv9_2_mbox_priorbox <- conv9_2_conv9_2_relu_0_split_3
I0622 04:06:55.553578 13672 net.cpp:434] conv9_2_mbox_priorbox <- data_data_0_split_4
I0622 04:06:55.553578 13672 net.cpp:408] conv9_2_mbox_priorbox -> conv9_2_mbox_priorbox
I0622 04:06:55.553578 13672 net.cpp:150] Setting up conv9_2_mbox_priorbox
I0622 04:06:55.553578 13672 net.cpp:157] Top shape: 1 2 600 (1200)
I0622 04:06:55.553578 13672 net.cpp:165] Memory required for data: 495957760
I0622 04:06:55.553578 13672 layer_factory.hpp:77] Creating layer conv10_2_mbox_loc
I0622 04:06:55.553578 13672 net.cpp:100] Creating Layer conv10_2_mbox_loc
I0622 04:06:55.553578 13672 net.cpp:434] conv10_2_mbox_loc <- conv10_2_conv10_2_relu_0_split_1
I0622 04:06:55.553578 13672 net.cpp:408] conv10_2_mbox_loc -> conv10_2_mbox_loc
I0622 04:06:55.560237 13672 net.cpp:150] Setting up conv10_2_mbox_loc
I0622 04:06:55.560237 13672 net.cpp:157] Top shape: 2 16 3 3 (288)
I0622 04:06:55.560237 13672 net.cpp:165] Memory required for data: 495958912
I0622 04:06:55.560237 13672 layer_factory.hpp:77] Creating layer conv10_2_mbox_loc_perm
I0622 04:06:55.560237 13672 net.cpp:100] Creating Layer conv10_2_mbox_loc_perm
I0622 04:06:55.560237 13672 net.cpp:434] conv10_2_mbox_loc_perm <- conv10_2_mbox_loc
I0622 04:06:55.560237 13672 net.cpp:408] conv10_2_mbox_loc_perm -> conv10_2_mbox_loc_perm
I0622 04:06:55.561240 13672 net.cpp:150] Setting up conv10_2_mbox_loc_perm
I0622 04:06:55.561240 13672 net.cpp:157] Top shape: 2 3 3 16 (288)
I0622 04:06:55.561240 13672 net.cpp:165] Memory required for data: 495960064
I0622 04:06:55.561240 13672 layer_factory.hpp:77] Creating layer conv10_2_mbox_loc_flat
I0622 04:06:55.561240 13672 net.cpp:100] Creating Layer conv10_2_mbox_loc_flat
I0622 04:06:55.561240 13672 net.cpp:434] conv10_2_mbox_loc_flat <- conv10_2_mbox_loc_perm
I0622 04:06:55.561240 13672 net.cpp:408] conv10_2_mbox_loc_flat -> conv10_2_mbox_loc_flat
I0622 04:06:55.561240 13672 net.cpp:150] Setting up conv10_2_mbox_loc_flat
I0622 04:06:55.561240 13672 net.cpp:157] Top shape: 2 144 (288)
I0622 04:06:55.561240 13672 net.cpp:165] Memory required for data: 495961216
I0622 04:06:55.561240 13672 layer_factory.hpp:77] Creating layer conv10_2_mbox_conf
I0622 04:06:55.561240 13672 net.cpp:100] Creating Layer conv10_2_mbox_conf
I0622 04:06:55.561240 13672 net.cpp:434] conv10_2_mbox_conf <- conv10_2_conv10_2_relu_0_split_2
I0622 04:06:55.561240 13672 net.cpp:408] conv10_2_mbox_conf -> conv10_2_mbox_conf
I0622 04:06:55.581526 13672 net.cpp:150] Setting up conv10_2_mbox_conf
I0622 04:06:55.581526 13672 net.cpp:157] Top shape: 2 12 3 3 (216)
I0622 04:06:55.581526 13672 net.cpp:165] Memory required for data: 495962080
I0622 04:06:55.581526 13672 layer_factory.hpp:77] Creating layer conv10_2_mbox_conf_perm
I0622 04:06:55.581526 13672 net.cpp:100] Creating Layer conv10_2_mbox_conf_perm
I0622 04:06:55.581526 13672 net.cpp:434] conv10_2_mbox_conf_perm <- conv10_2_mbox_conf
I0622 04:06:55.581526 13672 net.cpp:408] conv10_2_mbox_conf_perm -> conv10_2_mbox_conf_perm
I0622 04:06:55.581526 13672 net.cpp:150] Setting up conv10_2_mbox_conf_perm
I0622 04:06:55.581526 13672 net.cpp:157] Top shape: 2 3 3 12 (216)
I0622 04:06:55.581526 13672 net.cpp:165] Memory required for data: 495962944
I0622 04:06:55.581526 13672 layer_factory.hpp:77] Creating layer conv10_2_mbox_conf_flat
I0622 04:06:55.581526 13672 net.cpp:100] Creating Layer conv10_2_mbox_conf_flat
I0622 04:06:55.581526 13672 net.cpp:434] conv10_2_mbox_conf_flat <- conv10_2_mbox_conf_perm
I0622 04:06:55.581526 13672 net.cpp:408] conv10_2_mbox_conf_flat -> conv10_2_mbox_conf_flat
I0622 04:06:55.581526 13672 net.cpp:150] Setting up conv10_2_mbox_conf_flat
I0622 04:06:55.581526 13672 net.cpp:157] Top shape: 2 108 (216)
I0622 04:06:55.581526 13672 net.cpp:165] Memory required for data: 495963808
I0622 04:06:55.581526 13672 layer_factory.hpp:77] Creating layer conv10_2_mbox_priorbox
I0622 04:06:55.581526 13672 net.cpp:100] Creating Layer conv10_2_mbox_priorbox
I0622 04:06:55.581526 13672 net.cpp:434] conv10_2_mbox_priorbox <- conv10_2_conv10_2_relu_0_split_3
I0622 04:06:55.581526 13672 net.cpp:434] conv10_2_mbox_priorbox <- data_data_0_split_5
I0622 04:06:55.581526 13672 net.cpp:408] conv10_2_mbox_priorbox -> conv10_2_mbox_priorbox
I0622 04:06:55.582523 13672 net.cpp:150] Setting up conv10_2_mbox_priorbox
I0622 04:06:55.582523 13672 net.cpp:157] Top shape: 1 2 144 (288)
I0622 04:06:55.582523 13672 net.cpp:165] Memory required for data: 495964960
I0622 04:06:55.582523 13672 layer_factory.hpp:77] Creating layer conv11_2_mbox_loc
I0622 04:06:55.582523 13672 net.cpp:100] Creating Layer conv11_2_mbox_loc
I0622 04:06:55.582523 13672 net.cpp:434] conv11_2_mbox_loc <- conv11_2_conv11_2_relu_0_split_0
I0622 04:06:55.582523 13672 net.cpp:408] conv11_2_mbox_loc -> conv11_2_mbox_loc
I0622 04:06:55.591853 13672 net.cpp:150] Setting up conv11_2_mbox_loc
I0622 04:06:55.591853 13672 net.cpp:157] Top shape: 2 16 1 1 (32)
I0622 04:06:55.591853 13672 net.cpp:165] Memory required for data: 495965088
I0622 04:06:55.591853 13672 layer_factory.hpp:77] Creating layer conv11_2_mbox_loc_perm
I0622 04:06:55.591853 13672 net.cpp:100] Creating Layer conv11_2_mbox_loc_perm
I0622 04:06:55.591853 13672 net.cpp:434] conv11_2_mbox_loc_perm <- conv11_2_mbox_loc
I0622 04:06:55.591853 13672 net.cpp:408] conv11_2_mbox_loc_perm -> conv11_2_mbox_loc_perm
I0622 04:06:55.591853 13672 net.cpp:150] Setting up conv11_2_mbox_loc_perm
I0622 04:06:55.591853 13672 net.cpp:157] Top shape: 2 1 1 16 (32)
I0622 04:06:55.591853 13672 net.cpp:165] Memory required for data: 495965216
I0622 04:06:55.591853 13672 layer_factory.hpp:77] Creating layer conv11_2_mbox_loc_flat
I0622 04:06:55.591853 13672 net.cpp:100] Creating Layer conv11_2_mbox_loc_flat
I0622 04:06:55.591853 13672 net.cpp:434] conv11_2_mbox_loc_flat <- conv11_2_mbox_loc_perm
I0622 04:06:55.591853 13672 net.cpp:408] conv11_2_mbox_loc_flat -> conv11_2_mbox_loc_flat
I0622 04:06:55.591853 13672 net.cpp:150] Setting up conv11_2_mbox_loc_flat
I0622 04:06:55.591853 13672 net.cpp:157] Top shape: 2 16 (32)
I0622 04:06:55.591853 13672 net.cpp:165] Memory required for data: 495965344
I0622 04:06:55.591853 13672 layer_factory.hpp:77] Creating layer conv11_2_mbox_conf
I0622 04:06:55.591853 13672 net.cpp:100] Creating Layer conv11_2_mbox_conf
I0622 04:06:55.591853 13672 net.cpp:434] conv11_2_mbox_conf <- conv11_2_conv11_2_relu_0_split_1
I0622 04:06:55.591853 13672 net.cpp:408] conv11_2_mbox_conf -> conv11_2_mbox_conf
I0622 04:06:55.599207 13672 net.cpp:150] Setting up conv11_2_mbox_conf
I0622 04:06:55.599207 13672 net.cpp:157] Top shape: 2 12 1 1 (24)
I0622 04:06:55.599207 13672 net.cpp:165] Memory required for data: 495965440
I0622 04:06:55.599207 13672 layer_factory.hpp:77] Creating layer conv11_2_mbox_conf_perm
I0622 04:06:55.599207 13672 net.cpp:100] Creating Layer conv11_2_mbox_conf_perm
I0622 04:06:55.599207 13672 net.cpp:434] conv11_2_mbox_conf_perm <- conv11_2_mbox_conf
I0622 04:06:55.599207 13672 net.cpp:408] conv11_2_mbox_conf_perm -> conv11_2_mbox_conf_perm
I0622 04:06:55.599207 13672 net.cpp:150] Setting up conv11_2_mbox_conf_perm
I0622 04:06:55.599207 13672 net.cpp:157] Top shape: 2 1 1 12 (24)
I0622 04:06:55.599207 13672 net.cpp:165] Memory required for data: 495965536
I0622 04:06:55.599207 13672 layer_factory.hpp:77] Creating layer conv11_2_mbox_conf_flat
I0622 04:06:55.599207 13672 net.cpp:100] Creating Layer conv11_2_mbox_conf_flat
I0622 04:06:55.599207 13672 net.cpp:434] conv11_2_mbox_conf_flat <- conv11_2_mbox_conf_perm
I0622 04:06:55.599207 13672 net.cpp:408] conv11_2_mbox_conf_flat -> conv11_2_mbox_conf_flat
I0622 04:06:55.599207 13672 net.cpp:150] Setting up conv11_2_mbox_conf_flat
I0622 04:06:55.599207 13672 net.cpp:157] Top shape: 2 12 (24)
I0622 04:06:55.599207 13672 net.cpp:165] Memory required for data: 495965632
I0622 04:06:55.599207 13672 layer_factory.hpp:77] Creating layer conv11_2_mbox_priorbox
I0622 04:06:55.599207 13672 net.cpp:100] Creating Layer conv11_2_mbox_priorbox
I0622 04:06:55.599207 13672 net.cpp:434] conv11_2_mbox_priorbox <- conv11_2_conv11_2_relu_0_split_2
I0622 04:06:55.599207 13672 net.cpp:434] conv11_2_mbox_priorbox <- data_data_0_split_6
I0622 04:06:55.600204 13672 net.cpp:408] conv11_2_mbox_priorbox -> conv11_2_mbox_priorbox
I0622 04:06:55.600204 13672 net.cpp:150] Setting up conv11_2_mbox_priorbox
I0622 04:06:55.600204 13672 net.cpp:157] Top shape: 1 2 16 (32)
I0622 04:06:55.600204 13672 net.cpp:165] Memory required for data: 495965760
I0622 04:06:55.600204 13672 layer_factory.hpp:77] Creating layer mbox_loc
I0622 04:06:55.600204 13672 net.cpp:100] Creating Layer mbox_loc
I0622 04:06:55.600204 13672 net.cpp:434] mbox_loc <- conv4_3_norm_mbox_loc_flat
I0622 04:06:55.600204 13672 net.cpp:434] mbox_loc <- fc7_mbox_loc_flat
I0622 04:06:55.600204 13672 net.cpp:434] mbox_loc <- conv8_2_mbox_loc_flat
I0622 04:06:55.600204 13672 net.cpp:434] mbox_loc <- conv9_2_mbox_loc_flat
I0622 04:06:55.600204 13672 net.cpp:434] mbox_loc <- conv10_2_mbox_loc_flat
I0622 04:06:55.600204 13672 net.cpp:434] mbox_loc <- conv11_2_mbox_loc_flat
I0622 04:06:55.600204 13672 net.cpp:408] mbox_loc -> mbox_loc
I0622 04:06:55.600204 13672 net.cpp:150] Setting up mbox_loc
I0622 04:06:55.629701 13672 net.cpp:157] Top shape: 2 34928 (69856)
I0622 04:06:55.629701 13672 net.cpp:165] Memory required for data: 496245184
I0622 04:06:55.629701 13672 layer_factory.hpp:77] Creating layer mbox_conf
I0622 04:06:55.641310 13672 net.cpp:100] Creating Layer mbox_conf
I0622 04:06:55.641310 13672 net.cpp:434] mbox_conf <- conv4_3_norm_mbox_conf_flat
I0622 04:06:55.641310 13672 net.cpp:434] mbox_conf <- fc7_mbox_conf_flat
I0622 04:06:55.641310 13672 net.cpp:434] mbox_conf <- conv8_2_mbox_conf_flat
I0622 04:06:55.641310 13672 net.cpp:434] mbox_conf <- conv9_2_mbox_conf_flat
I0622 04:06:55.641310 13672 net.cpp:434] mbox_conf <- conv10_2_mbox_conf_flat
I0622 04:06:55.641310 13672 net.cpp:434] mbox_conf <- conv11_2_mbox_conf_flat
I0622 04:06:55.641310 13672 net.cpp:408] mbox_conf -> mbox_conf
I0622 04:06:55.641310 13672 net.cpp:150] Setting up mbox_conf
I0622 04:06:55.641310 13672 net.cpp:157] Top shape: 2 26196 (52392)
I0622 04:06:55.641310 13672 net.cpp:165] Memory required for data: 496454752
I0622 04:06:55.641310 13672 layer_factory.hpp:77] Creating layer mbox_priorbox
I0622 04:06:55.641310 13672 net.cpp:100] Creating Layer mbox_priorbox
I0622 04:06:55.641310 13672 net.cpp:434] mbox_priorbox <- conv4_3_norm_mbox_priorbox
I0622 04:06:55.641310 13672 net.cpp:434] mbox_priorbox <- fc7_mbox_priorbox
I0622 04:06:55.641310 13672 net.cpp:434] mbox_priorbox <- conv8_2_mbox_priorbox
I0622 04:06:55.641310 13672 net.cpp:434] mbox_priorbox <- conv9_2_mbox_priorbox
I0622 04:06:55.641310 13672 net.cpp:434] mbox_priorbox <- conv10_2_mbox_priorbox
I0622 04:06:55.641310 13672 net.cpp:434] mbox_priorbox <- conv11_2_mbox_priorbox
I0622 04:06:55.641310 13672 net.cpp:408] mbox_priorbox -> mbox_priorbox
I0622 04:06:55.641310 13672 net.cpp:150] Setting up mbox_priorbox
I0622 04:06:55.641310 13672 net.cpp:157] Top shape: 1 2 34928 (69856)
I0622 04:06:55.641310 13672 net.cpp:165] Memory required for data: 496734176
I0622 04:06:55.641310 13672 layer_factory.hpp:77] Creating layer mbox_conf_reshape
I0622 04:06:55.641310 13672 net.cpp:100] Creating Layer mbox_conf_reshape
I0622 04:06:55.641310 13672 net.cpp:434] mbox_conf_reshape <- mbox_conf
I0622 04:06:55.641310 13672 net.cpp:408] mbox_conf_reshape -> mbox_conf_reshape
I0622 04:06:55.641310 13672 net.cpp:150] Setting up mbox_conf_reshape
I0622 04:06:55.641310 13672 net.cpp:157] Top shape: 2 8732 3 (52392)
I0622 04:06:55.641310 13672 net.cpp:165] Memory required for data: 496943744
I0622 04:06:55.641310 13672 layer_factory.hpp:77] Creating layer mbox_conf_softmax
I0622 04:06:55.641310 13672 net.cpp:100] Creating Layer mbox_conf_softmax
I0622 04:06:55.641310 13672 net.cpp:434] mbox_conf_softmax <- mbox_conf_reshape
I0622 04:06:55.641310 13672 net.cpp:408] mbox_conf_softmax -> mbox_conf_softmax
I0622 04:06:55.644305 13672 net.cpp:150] Setting up mbox_conf_softmax
I0622 04:06:55.644305 13672 net.cpp:157] Top shape: 2 8732 3 (52392)
I0622 04:06:55.645299 13672 net.cpp:165] Memory required for data: 497153312
I0622 04:06:55.645299 13672 layer_factory.hpp:77] Creating layer mbox_conf_flatten
I0622 04:06:55.645299 13672 net.cpp:100] Creating Layer mbox_conf_flatten
I0622 04:06:55.645299 13672 net.cpp:434] mbox_conf_flatten <- mbox_conf_softmax
I0622 04:06:55.645299 13672 net.cpp:408] mbox_conf_flatten -> mbox_conf_flatten
I0622 04:06:55.645299 13672 net.cpp:150] Setting up mbox_conf_flatten
I0622 04:06:55.645299 13672 net.cpp:157] Top shape: 2 26196 (52392)
I0622 04:06:55.645299 13672 net.cpp:165] Memory required for data: 497362880
I0622 04:06:55.645299 13672 layer_factory.hpp:77] Creating layer detection_out
I0622 04:06:55.645299 13672 net.cpp:100] Creating Layer detection_out
I0622 04:06:55.645299 13672 net.cpp:434] detection_out <- mbox_loc
I0622 04:06:55.645299 13672 net.cpp:434] detection_out <- mbox_conf_flatten
I0622 04:06:55.645299 13672 net.cpp:434] detection_out <- mbox_priorbox
I0622 04:06:55.645299 13672 net.cpp:408] detection_out -> detection_out
W0622 04:06:55.647301 13672 detection_output_layer.cpp:49] Failed to create directory: data\wastedata\results\SSD_300x300\Main
I0622 04:06:55.713488 13672 net.cpp:150] Setting up detection_out
I0622 04:06:55.713488 13672 net.cpp:157] Top shape: 1 1 1 7 (7)
I0622 04:06:55.713488 13672 net.cpp:165] Memory required for data: 497362908
I0622 04:06:55.714165 13672 layer_factory.hpp:77] Creating layer detection_eval
I0622 04:06:55.714165 13672 net.cpp:100] Creating Layer detection_eval
I0622 04:06:55.714165 13672 net.cpp:434] detection_eval <- detection_out
I0622 04:06:55.714165 13672 net.cpp:434] detection_eval <- label
I0622 04:06:55.714165 13672 net.cpp:408] detection_eval -> detection_eval
I0622 04:06:55.716176 13672 net.cpp:150] Setting up detection_eval
I0622 04:06:55.716176 13672 net.cpp:157] Top shape: 1 1 3 5 (15)
I0622 04:06:55.716176 13672 net.cpp:165] Memory required for data: 497362968
I0622 04:06:55.716176 13672 net.cpp:228] detection_eval does not need backward computation.
I0622 04:06:55.716646 13672 net.cpp:228] detection_out does not need backward computation.
I0622 04:06:55.716646 13672 net.cpp:228] mbox_conf_flatten does not need backward computation.
I0622 04:06:55.716646 13672 net.cpp:228] mbox_conf_softmax does not need backward computation.
…
