…
      sampler {
        min_scale: 0.3
        max_scale: 1
        min_aspect_ratio: 0.5
        max_aspect_ratio: 2
      }
      sample_constraint {
        min_jaccard_overlap: 0.9
      }
      max_sample: 1
      max_trials: 50
    }
    batch_sampler {
      sampler {
        min_scale: 0.3
        max_scale: 1
        min_aspect_ratio: 0.5
        max_aspect_ratio: 2
      }
      sample_constraint {
        max_jaccard_overlap: 1
      }
      max_sample: 1
      max_trials: 50
    }
    label_map_file: "data\\wastedata\\labelmap_waste.prototxt"
  }
}
layer {
  name: "conv1_1"
  type: "Convolution"
  bottom: "data"
  top: "conv1_1"
  param {
    lr_mult: 1
    decay_mult: 1
  }
  param {
    lr_mult: 1
    decay_mult: 0
  }
  convolution_param {
    num_output: 64
    pad: 1
    kernel_size: 3
    weight_filler {
      type: "xavier"
    }
    bias_filler {
      type: "constant"
      value: 0
    }
  }
}
layer {
  name: "relu1_1"
  type: "ReLU"
  bottom: "conv1_1"
  top: "conv1_1"
}
layer {
  name: "conv1_2"
  type: "Convolution"
  bottom: "conv1_1"
  top: "conv1_2"
  param {
    lr_mult: 1
    decay_mult: 1
  }
  param {
    lr_mult: 1
    decay_mult: 0
  }
  convolution_param {
    num_output: 64
    pad: 1
    kernel_size: 3
    weight_filler {
      type: "xavier"
    }
    bias_filler {
      type: "constant"
      value: 0
    }
  }
}
layer {
  name: "relu1_2"
  type: "ReLU"
  bottom: "conv1_2"
  top: "conv1_2"
}
layer {
  name: "pool1"
  type: "Pooling"
  bottom: "conv1_2"
  top: "pool1"
  pooling_param {
    pool: MAX
    kernel_size: 2
    stride: 2
  }
}
layer {
  name: "conv2_1"
  type: "Convolution"
  bottom: "pool1"
  top: "conv2_1"
  param {
    lr_mult: 1
    decay_mult: 1
  }
  param {
    lr_mult: 1
    decay_mult: 0
  }
  convolution_param {
    num_output: 128
    pad: 1
    kernel_size: 3
    weight_filler {
      type: "xavier"
    }
    bias_filler {
      type: "constant"
      value: 0
    }
  }
}
layer {
  name: "relu2_1"
  type: "ReLU"
  bottom: "conv2_1"
  top: "conv2_1"
}
layer {
  name: "conv2_2"
  type: "Convolution"
  bottom: "conv2_1"
  top: "conv2_2"
  param {
    lr_mult: 1
    decay_mult: 1
  }
  param {
    lr_mult: 1
    decay_mult: 0
  }
  convolution_param {
    num_output: 128
    pad: 1
    kernel_size: 3
    weight_filler {
      type: "xavier"
    }
    bias_filler {
      type: "constant"
      value: 0
    }
  }
}
layer {
  name: "relu2_2"
  type: "ReLU"
  bottom: "conv2_2"
  top: "conv2_2"
}
layer {
  name: "pool2"
  type: "Pooling"
  bottom: "conv2_2"
  top: "pool2"
  pooling_param {
    pool: MAX
    kernel_size: 2
    stride: 2
  }
}
layer {
  name: "conv3_1"
  type: "Convolution"
  bottom: "pool2"
  top: "conv3_1"
  param {
    lr_mult: 1
    decay_mult: 1
  }
  param {
    lr_mult: 1
    decay_mult: 0
  }
  convolution_param {
    num_output: 256
    pad: 1
    kernel_size: 3
    weight_filler {
      type: "xavier"
    }
    bias_filler {
      type: "constant"
      value: 0
    }
  }
}
layer {
  name: "relu3_1"
  type: "ReLU"
  bottom: "conv3_1"
  top: "conv3_1"
}
layer {
  name: "conv3_2"
  type: "Convolution"
  bottom: "conv3_1"
  top: "conv3_2"
  param {
    lr_mult: 1
    decay_mult: 1
  }
  param {
    lr_mult: 1
    decay_mult: 0
  }
  convolution_param {
    num_output: 256
    pad: 1
    kernel_size: 3
    weight_filler {
      type: "xavier"
    }
    bias_filler {
      type: "constant"
      value: 0
    }
  }
}
layer {
  name: "relu3_2"
  type: "ReLU"
  bottom: "conv3_2"
  top: "conv3_2"
}
layer {
  name: "conv3_3"
  type: "Convolution"
  bottom: "conv3_2"
  top: "conv3_3"
  param {
    lr_mult: 1
    decay_mult: 1
  }
  param {
    lr_mult: 1
    decay_mult: 0
  }
  convolution_param {
    num_output: 256
    pad: 1
    kernel_size: 3
    weight_filler {
      type: "xavier"
    }
    bias_filler {
      type: "constant"
      value: 0
    }
  }
}
layer {
  name: "relu3_3"
  type: "ReLU"
  bottom: "conv3_3"
  top: "conv3_3"
}
layer {
  name: "pool3"
  type: "Pooling"
  bottom: "conv3_3"
  top: "pool3"
  pooling_param {
    pool: MAX
    kernel_size: 2
    stride: 2
  }
}
layer {
  name: "conv4_1"
  type: "Convolution"
  bottom: "pool3"
  top: "conv4_1"
  param {
    lr_mult: 1
    decay_mult: 1
  }
  param {
    lr_mult: 1
    decay_mult: 0
  }
  convolution_param {
    num_output: 512
    pad: 1
    kernel_size: 3
    weight_filler {
      type: "xavier"
    }
    bias_filler {
      type: "constant"
      value: 0
    }
  }
}
layer {
  name: "relu4_1"
  type: "ReLU"
  bottom: "conv4_1"
  top: "conv4_1"
}
layer {
  name: "conv4_2"
  type: "Convolution"
  bottom: "conv4_1"
  top: "conv4_2"
  param {
    lr_mult: 1
    decay_mult: 1
  }
  param {
    lr_mult: 1
    decay_mult: 0
  }
  convolution_param {
    num_output: 512
    pad: 1
    kernel_size: 3
    weight_filler {
      type: "xavier"
    }
    bias_filler {
      type: "constant"
      value: 0
    }
  }
}
layer {
  name: "relu4_2"
  type: "ReLU"
  bottom: "conv4_2"
  top: "conv4_2"
}
layer {
  name: "conv4_3"
  type: "Convolution"
  bottom: "conv4_2"
  top: "conv4_3"
  param {
    lr_mult: 1
    decay_mult: 1
  }
  param {
    lr_mult: 1
    decay_mult: 0
  }
  convolution_param {
    num_output: 512
    pad: 1
    kernel_size: 3
    weight_filler {
      type: "xavier"
    }
    bias_filler {
      type: "constant"
      value: 0
    }
  }
}
layer {
  name: "relu4_3"
  type: "ReLU"
  bottom: "conv4_3"
  top: "conv4_3"
}
layer {
  name: "pool4"
  type: "Pooling"
  bottom: "conv4_3"
  top: "pool4"
  pooling_param {
    pool: MAX
    kernel_size: 2
    stride: 2
  }
}
layer {
  name: "conv5_1"
  type: "Convolution"
  bottom: "pool4"
  top: "conv5_1"
  param {
    lr_mult: 1
    decay_mult: 1
  }
  param {
    lr_mult: 1
    decay_mult: 0
  }
  convolution_param {
    num_output: 512
    pad: 1
    kernel_size: 3
    weight_filler {
      type: "xavier"
    }
    bias_filler {
      type: "constant"
      value: 0
    }
    dilation: 1
  }
}
layer {
  name: "relu5_1"
  type: "ReLU"
  bottom: "conv5_1"
  top: "conv5_1"
}
layer {
  name: "conv5_2"
  type: "Convolution"
  bottom: "conv5_1"
  top: "conv5_2"
  param {
    lr_mult: 1
    decay_mult: 1
  }
  param {
    lr_mult: 1
    decay_mult: 0
  }
  convolution_param {
    num_output: 512
    pad: 1
    kernel_size: 3
    weight_filler {
      type: "xavier"
    }
    bias_filler {
      type: "constant"
      value: 0
    }
    dilation: 1
  }
}
layer {
  name: "relu5_2"
  type: "ReLU"
  bottom: "conv5_2"
  top: "conv5_2"
}
layer {
  name: "conv5_3"
  type: "Convolution"
  bottom: "conv5_2"
  top: "conv5_3"
  param {
    lr_mult: 1
    decay_mult: 1
  }
  param {
    lr_mult: 1
    decay_mult: 0
  }
  convolution_param {
    num_output: 512
    pad: 1
    kernel_size: 3
    weight_filler {
      type: "xavier"
    }
    bias_filler {
      type: "constant"
      value: 0
    }
    dilation: 1
  }
}
layer {
  name: "relu5_3"
  type: "ReLU"
  bottom: "conv5_3"
  top: "conv5_3"
}
layer {
  name: "pool5"
  type: "Pooling"
  bottom: "conv5_3"
  top: "pool5"
  pooling_param {
    pool: MAX
    kernel_size: 3
    stride: 1
    pad: 1
  }
}
layer {
  name: "fc6"
  type: "Convolution"
  bottom: "pool5"
  top: "fc6"
  param {
    lr_mult: 1
    decay_mult: 1
  }
  param {
    lr_mult: 1
    decay_mult: 0
  }
  convolution_param {
    num_output: 1024
    pad: 6
    kernel_size: 3
    weight_filler {
      type: "xavier"
    }
    bias_filler {
      type: "constant"
      value: 0
    }
    dilation: 6
  }
}
layer {
  name: "relu6"
  type: "ReLU"
  bottom: "fc6"
  top: "fc6"
}
layer {
  name: "fc7"
  type: "Convolution"
  bottom: "fc6"
  top: "fc7"
  param {
    lr_mult: 1
    decay_mult: 1
  }
  param {
    lr_mult: 1
    decay_mult: 0
  }
  convolution_param {
    num_output: 1024
    kernel_size: 1
    weight_filler {
      type: "xavier"
    }
    bias_filler {
      type: "constant"
      value: 0
    }
  }
}
layer {
  name: "relu7"
  type: "ReLU"
  bottom: "fc7"
  top: "fc7"
}
layer {
  name: "conv8_1"
  type: "Convolution"
  bottom: "fc7"
  top: "conv8_1"
  param {
    lr_mult: 1
    decay_mult: 1
  }
  param {
    lr_mult: 2
    decay_mult: 0
  }
  convolution_param {
    num_output: 256
    pad: 0
    kernel_size: 1
    stride: 1
    weight_filler {
      type: "xavier"
    }
    bias_filler {
      type: "constant"
      value: 0
    }
  }
}
layer {
  name: "conv8_1_relu"
  type: "ReLU"
  bottom: "conv8_1"
  top: "conv8_1"
}
layer {
  name: "conv8_2"
  type: "Convolution"
  bottom: "conv8_1"
  top: "conv8_2"
  param {
    lr_mult: 1
    decay_mult: 1
  }
  param {
    lr_mult: 2
    decay_mult: 0
  }
  convolution_param {
    num_output: 512
    pad: 1
    kernel_size: 3
    stride: 2
    weight_filler {
      type: "xavier"
    }
    bias_filler {
      type: "constant"
      value: 0
    }
  }
}
layer {
  name: "conv8_2_relu"
  type: "ReLU"
  bottom: "conv8_2"
  top: "conv8_2"
}
layer {
  name: "conv9_1"
  type: "Convolution"
  bottom: "conv8_2"
  top: "conv9_1"
  param {
    lr_mult: 1
    decay_mult: 1
  }
  param {
    lr_mult: 2
    decay_mult: 0
  }
  convolution_param {
    num_output: 128
    pad: 0
    kernel_size: 1
    stride: 1
    weight_filler {
      type: "xavier"
    }
    bias_filler {
      type: "constant"
      value: 0
    }
  }
}
layer {
  name: "conv9_1_relu"
  type: "ReLU"
  bottom: "conv9_1"
  top: "conv9_1"
}
layer {
  name: "conv9_2"
  type: "Convolution"
  bottom: "conv9_1"
  top: "conv9_2"
  param {
    lr_mult: 1
    decay_mult: 1
  }
  param {
    lr_mult: 2
    decay_mult: 0
  }
  convolution_param {
    num_output: 256
    pad: 1
    kernel_size: 3
    stride: 2
    weight_filler {
      type: "xavier"
    }
    bias_filler {
      type: "constant"
      value: 0
    }
  }
}
layer {
  name: "conv9_2_relu"
  type: "ReLU"
  bottom: "conv9_2"
  top: "conv9_2"
}
layer {
  name: "conv10_1"
  type: "Convolution"
  bottom: "conv9_2"
  top: "conv10_1"
  param {
    lr_mult: 1
    decay_mult: 1
  }
  param {
    lr_mult: 2
    decay_mult: 0
  }
  convolution_param {
    num_output: 128
    pad: 0
    kernel_size: 1
    stride: 1
    weight_filler {
      type: "xavier"
    }
    bias_filler {
      type: "constant"
      value: 0
    }
  }
}
layer {
  name: "conv10_1_relu"
  type: "ReLU"
  bottom: "conv10_1"
  top: "conv10_1"
}
layer {
  name: "conv10_2"
  type: "Convolution"
  bottom: "conv10_1"
  top: "conv10_2"
  param {
    lr_mult: 1
    decay_mult: 1
  }
  param {
    lr_mult: 2
    decay_mult: 0
  }
  convolution_param {
    num_output: 256
    pad: 0
    kernel_size: 3
    stride: 1
    weight_filler {
      type: "xavier"
    }
    bias_filler {
      type: "constant"
      value: 0
    }
  }
}
layer {
  name: "conv10_2_relu"
  type: "ReLU"
  bottom: "conv10_2"
  top: "conv10_2"
}
layer {
  name: "conv11_1"
  type: "Convolution"
  bottom: "conv10_2"
  top: "conv11_1"
  param {
    lr_mult: 1
    decay_mult: 1
  }
  param {
    lr_mult: 2
    decay_mult: 0
  }
  convolution_param {
    num_output: 128
    pad: 0
    kernel_size: 1
    stride: 1
    weight_filler {
      type: "xavier"
    }
    bias_filler {
      type: "constant"
      value: 0
    }
  }
}
layer {
  name: "conv11_1_relu"
  type: "ReLU"
  bottom: "conv11_1"
  top: "conv11_1"
}
layer {
  name: "conv11_2"
  type: "Convolution"
  bottom: "conv11_1"
  top: "conv11_2"
  param {
    lr_mult: 1
    decay_mult: 1
  }
  param {
    lr_mult: 2
    decay_mult: 0
  }
  convolution_param {
    num_output: 256
    pad: 0
    kernel_size: 3
    stride: 1
    weight_filler {
      type: "xavier"
    }
    bias_filler {
      type: "constant"
      value: 0
    }
  }
}
layer {
  name: "conv11_2_relu"
  type: "ReLU"
  bottom: "conv11_2"
  top: "conv11_2"
}
layer {
  name: "conv4_3_norm"
  type: "Normalize"
  bottom: "conv4_3"
  top: "conv4_3_norm"
  norm_param {
    across_spatial: false
    scale_filler {
      type: "constant"
      value: 20
    }
    channel_shared: false
  }
}
layer {
  name: "conv4_3_norm_mbox_loc"
  type: "Convolution"
  bottom: "conv4_3_norm"
  top: "conv4_3_norm_mbox_loc"
  param {
    lr_mult: 1
    decay_mult: 1
  }
  param {
    lr_mult: 2
    decay_mult: 0
  }
  convolution_param {
    num_output: 16
    pad: 1
    kernel_size: 3
    stride: 1
    weight_filler {
      type: "xavier"
    }
    bias_filler {
      type: "constant"
      value: 0
    }
  }
}
layer {
  name: "conv4_3_norm_mbox_loc_perm"
  type: "Permute"
  bottom: "conv4_3_norm_mbox_loc"
  top: "conv4_3_norm_mbox_loc_perm"
  permute_param {
    order: 0
    order: 2
    order: 3
    order: 1
  }
}
layer {
  name: "conv4_3_norm_mbox_loc_flat"
  type: "Flatten"
  bottom: "conv4_3_norm_mbox_loc_perm"
  top: "conv4_3_norm_mbox_loc_flat"
  flatten_param {
    axis: 1
  }
}
layer {
  name: "conv4_3_norm_mbox_conf"
  type: "Convolution"
  bottom: "conv4_3_norm"
  top: "conv4_3_norm_mbox_conf"
  param {
    lr_mult: 1
    decay_mult: 1
  }
  param {
    lr_mult: 2
    decay_mult: 0
  }
  convolution_param {
    num_output: 12
    pad: 1
    kernel_size: 3
    stride: 1
    weight_filler {
      type: "xavier"
    }
    bias_filler {
      type: "constant"
      value: 0
    }
  }
}
layer {
  name: "conv4_3_norm_mbox_conf_perm"
  type: "Permute"
  bottom: "conv4_3_norm_mbox_conf"
  top: "conv4_3_norm_mbox_conf_perm"
  permute_param {
    order: 0
    order: 2
    order: 3
    order: 1
  }
}
layer {
  name: "conv4_3_norm_mbox_conf_flat"
  type: "Flatten"
  bottom: "conv4_3_norm_mbox_conf_perm"
  top: "conv4_3_norm_mbox_conf_flat"
  flatten_param {
    axis: 1
  }
}
layer {
  name: "conv4_3_norm_mbox_priorbox"
  type: "PriorBox"
  bottom: "conv4_3_norm"
  bottom: "data"
  top: "conv4_3_norm_mbox_priorbox"
  prior_box_param {
    min_size: 30
    max_size: 60
    aspect_ratio: 2
    flip: true
    clip: false
    variance: 0.1
    variance: 0.1
    variance: 0.2
    variance: 0.2
    step: 8
    offset: 0.5
  }
}
layer {
  name: "fc7_mbox_loc"
  type: "Convolution"
  bottom: "fc7"
  top: "fc7_mbox_loc"
  param {
    lr_mult: 1
    decay_mult: 1
  }
  param {
    lr_mult: 2
    decay_mult: 0
  }
  convolution_param {
    num_output: 24
    pad: 1
    kernel_size: 3
    stride: 1
    weight_filler {
      type: "xavier"
    }
    bias_filler {
      type: "constant"
      value: 0
    }
  }
}
layer {
  name: "fc7_mbox_loc_perm"
  type: "Permute"
  bottom: "fc7_mbox_loc"
  top: "fc7_mbox_loc_perm"
  permute_param {
    order: 0
    order: 2
    order: 3
    order: 1
  }
}
layer {
  name: "fc7_mbox_loc_flat"
  type: "Flatten"
  bottom: "fc7_mbox_loc_perm"
  top: "fc7_mbox_loc_flat"
  flatten_param {
    axis: 1
  }
}
layer {
  name: "fc7_mbox_conf"
  type: "Convolution"
  bottom: "fc7"
  top: "fc7_mbox_conf"
  param {
    lr_mult: 1
    decay_mult: 1
  }
  param {
    lr_mult: 2
    decay_mult: 0
  }
  convolution_param {
    num_output: 18
    pad: 1
    kernel_size: 3
    stride: 1
    weight_filler {
      type: "xavier"
    }
    bias_filler {
      type: "constant"
      value: 0
    }
  }
}
layer {
  name: "fc7_mbox_conf_perm"
  type: "Permute"
  bottom: "fc7_mbox_conf"
  top: "fc7_mbox_conf_perm"
  permute_param {
    order: 0
    order: 2
    order: 3
    order: 1
  }
}
layer {
  name: "fc7_mbox_conf_flat"
  type: "Flatten"
  bottom: "fc7_mbox_conf_perm"
  top: "fc7_mbox_conf_flat"
  flatten_param {
    axis: 1
  }
}
layer {
  name: "fc7_mbox_priorbox"
  type: "PriorBox"
  bottom: "fc7"
  bottom: "data"
  top: "fc7_mbox_priorbox"
  prior_box_param {
    min_size: 60
    max_size: 111
    aspect_ratio: 2
    aspect_ratio: 3
    flip: true
    clip: false
    variance: 0.1
    variance: 0.1
    variance: 0.2
    variance: 0.2
    step: 16
    offset: 0.5
  }
}
layer {
  name: "conv8_2_mbox_loc"
  type: "Convolution"
  bottom: "conv8_2"
  top: "conv8_2_mbox_loc"
  param {
    lr_mult: 1
    decay_mult: 1
  }
  param {
    lr_mult: 2
    decay_mult: 0
  }
  convolution_param {
    num_output: 24
    pad: 1
    kernel_size: 3
    stride: 1
    weight_filler {
      type: "xavier"
    }
    bias_filler {
      type: "constant"
      value: 0
    }
  }
}
layer {
  name: "conv8_2_mbox_loc_perm"
  type: "Permute"
  bottom: "conv8_2_mbox_loc"
  top: "conv8_2_mbox_loc_perm"
  permute_param {
    order: 0
    order: 2
    order: 3
    order: 1
  }
}
layer {
  name: "conv8_2_mbox_loc_flat"
  type: "Flatten"
  bottom: "conv8_2_mbox_loc_perm"
  top: "conv8_2_mbox_loc_flat"
  flatten_param {
    axis: 1
  }
}
layer {
  name: "conv8_2_mbox_conf"
  type: "Convolution"
  bottom: "conv8_2"
  top: "conv8_2_mbox_conf"
  param {
    lr_mult: 1
    decay_mult: 1
  }
  param {
    lr_mult: 2
    decay_mult: 0
  }
  convolution_param {
    num_output: 18
    pad: 1
    kernel_size: 3
    stride: 1
    weight_filler {
      type: "xavier"
    }
    bias_filler {
      type: "constant"
      value: 0
    }
  }
}
layer {
  name: "conv8_2_mbox_conf_perm"
  type: "Permute"
  bottom: "conv8_2_mbox_conf"
  top: "conv8_2_mbox_conf_perm"
  permute_param {
    order: 0
    order: 2
    order: 3
    order: 1
  }
}
layer {
  name: "conv8_2_mbox_conf_flat"
  type: "Flatten"
  bottom: "conv8_2_mbox_conf_perm"
  top: "conv8_2_mbox_conf_flat"
  flatten_param {
    axis: 1
  }
}
layer {
  name: "conv8_2_mbox_priorbox"
  type: "PriorBox"
  bottom: "conv8_2"
  bottom: "data"
  top: "conv8_2_mbox_priorbox"
  prior_box_param {
    min_size: 111
    max_size: 162
    aspect_ratio: 2
    aspect_ratio: 3
    flip: true
    clip: false
    variance: 0.1
    variance: 0.1
    variance: 0.2
    variance: 0.2
    step: 32
    offset: 0.5
  }
}
layer {
  name: "conv9_2_mbox_loc"
  type: "Convolution"
  bottom: "conv9_2"
  top: "conv9_2_mbox_loc"
  param {
    lr_mult: 1
    decay_mult: 1
  }
  param {
    lr_mult: 2
    decay_mult: 0
  }
  convolution_param {
    num_output: 24
    pad: 1
    kernel_size: 3
    stride: 1
    weight_filler {
      type: "xavier"
    }
    bias_filler {
      type: "constant"
      value: 0
    }
  }
}
layer {
  name: "conv9_2_mbox_loc_perm"
  type: "Permute"
  bottom: "conv9_2_mbox_loc"
  top: "conv9_2_mbox_loc_perm"
  permute_param {
    order: 0
    order: 2
    order: 3
    order: 1
  }
}
layer {
  name: "conv9_2_mbox_loc_flat"
  type: "Flatten"
  bottom: "conv9_2_mbox_loc_perm"
  top: "conv9_2_mbox_loc_flat"
  flatten_param {
    axis: 1
  }
}
layer {
  name: "conv9_2_mbox_conf"
  type: "Convolution"
  bottom: "conv9_2"
  top: "conv9_2_mbox_conf"
  param {
    lr_mult: 1
    decay_mult: 1
  }
  param {
    lr_mult: 2
    decay_mult: 0
  }
  convolution_param {
    num_output: 18
    pad: 1
    kernel_size: 3
    stride: 1
    weight_filler {
      type: "xavier"
    }
    bias_filler {
      type: "constant"
      value: 0
    }
  }
}
layer {
  name: "conv9_2_mbox_conf_perm"
  type: "Permute"
  bottom: "conv9_2_mbox_conf"
  top: "conv9_2_mbox_conf_perm"
  permute_param {
    order: 0
    order: 2
    order: 3
    order: 1
  }
}
layer {
  name: "conv9_2_mbox_conf_flat"
  type: "Flatten"
  bottom: "conv9_2_mbox_conf_perm"
  top: "conv9_2_mbox_conf_flat"
  flatten_param {
    axis: 1
  }
}
layer {
  name: "conv9_2_mbox_priorbox"
  type: "PriorBox"
  bottom: "conv9_2"
  bottom: "data"
  top: "conv9_2_mbox_priorbox"
  prior_box_param {
    min_size: 162
    max_size: 213
    aspect_ratio: 2
    aspect_ratio: 3
    flip: true
    clip: false
    variance: 0.1
    variance: 0.1
    variance: 0.2
    variance: 0.2
    step: 64
    offset: 0.5
  }
}
layer {
  name: "conv10_2_mbox_loc"
  type: "Convolution"
  bottom: "conv10_2"
  top: "conv10_2_mbox_loc"
  param {
    lr_mult: 1
    decay_mult: 1
  }
  param {
    lr_mult: 2
    decay_mult: 0
  }
  convolution_param {
    num_output: 16
    pad: 1
    kernel_size: 3
    stride: 1
    weight_filler {
      type: "xavier"
    }
    bias_filler {
      type: "constant"
      value: 0
    }
  }
}
layer {
  name: "conv10_2_mbox_loc_perm"
  type: "Permute"
  bottom: "conv10_2_mbox_loc"
  top: "conv10_2_mbox_loc_perm"
  permute_param {
    order: 0
    order: 2
    order: 3
    order: 1
  }
}
layer {
  name: "conv10_2_mbox_loc_flat"
  type: "Flatten"
  bottom: "conv10_2_mbox_loc_perm"
  top: "conv10_2_mbox_loc_flat"
  flatten_param {
    axis: 1
  }
}
layer {
  name: "conv10_2_mbox_conf"
  type: "Convolution"
  bottom: "conv10_2"
  top: "conv10_2_mbox_conf"
  param {
    lr_mult: 1
    decay_mult: 1
  }
  param {
    lr_mult: 2
    decay_mult: 0
  }
  convolution_param {
    num_output: 12
    pad: 1
    kernel_size: 3
    stride: 1
    weight_filler {
      type: "xavier"
    }
    bias_filler {
      type: "constant"
      value: 0
    }
  }
}
layer {
  name: "conv10_2_mbox_conf_perm"
  type: "Permute"
  bottom: "conv10_2_mbox_conf"
  top: "conv10_2_mbox_conf_perm"
  permute_param {
    order: 0
    order: 2
    order: 3
    order: 1
  }
}
layer {
  name: "conv10_2_mbox_conf_flat"
  type: "Flatten"
  bottom: "conv10_2_mbox_conf_perm"
  top: "conv10_2_mbox_conf_flat"
  flatten_param {
    axis: 1
  }
}
layer {
  name: "conv10_2_mbox_priorbox"
  type: "PriorBox"
  bottom: "conv10_2"
  bottom: "data"
  top: "conv10_2_mbox_priorbox"
  prior_box_param {
    min_size: 213
    max_size: 264
    aspect_ratio: 2
    flip: true
    clip: false
    variance: 0.1
    variance: 0.1
    variance: 0.2
    variance: 0.2
    step: 100
    offset: 0.5
  }
}
layer {
  name: "conv11_2_mbox_loc"
  type: "Convolution"
  bottom: "conv11_2"
  top: "conv11_2_mbox_loc"
  param {
    lr_mult: 1
    decay_mult: 1
  }
  param {
    lr_mult: 2
    decay_mult: 0
  }
  convolution_param {
    num_output: 16
    pad: 1
    kernel_size: 3
    stride: 1
    weight_filler {
      type: "xavier"
    }
    bias_filler {
      type: "constant"
      value: 0
    }
  }
}
layer {
  name: "conv11_2_mbox_loc_perm"
  type: "Permute"
  bottom: "conv11_2_mbox_loc"
  top: "conv11_2_mbox_loc_perm"
  permute_param {
    order: 0
    order: 2
    order: 3
    order: 1
  }
}
layer {
  name: "conv11_2_mbox_loc_flat"
  type: "Flatten"
  bottom: "conv11_2_mbox_loc_perm"
  top: "conv11_2_mbox_loc_flat"
  flatten_param {
    axis: 1
  }
}
layer {
  name: "conv11_2_mbox_conf"
  type: "Convolution"
  bottom: "conv11_2"
  top: "conv11_2_mbox_conf"
  param {
    lr_mult: 1
    decay_mult: 1
  }
  param {
    lr_mult: 2
    decay_mult: 0
  }
  convolution_param {
    num_output: 12
    pad: 1
    kernel_size: 3
    stride: 1
    weight_filler {
      type: "xavier"
    }
    bias_filler {
      type: "constant"
      value: 0
    }
  }
}
layer {
  name: "conv11_2_mbox_conf_perm"
  type: "Permute"
  bottom: "conv11_2_mbox_conf"
  top: "conv11_2_mbox_conf_perm"
  permute_param {
    order: 0
    order: 2
    order: 3
    order: 1
  }
}
layer {
  name: "conv11_2_mbox_conf_flat"
  type: "Flatten"
  bottom: "conv11_2_mbox_conf_perm"
  top: "conv11_2_mbox_conf_flat"
  flatten_param {
    axis: 1
  }
}
layer {
  name: "conv11_2_mbox_priorbox"
  type: "PriorBox"
  bottom: "conv11_2"
  bottom: "data"
  top: "conv11_2_mbox_priorbox"
  prior_box_param {
    min_size: 264
    max_size: 315
    aspect_ratio: 2
    flip: true
    clip: false
    variance: 0.1
    variance: 0.1
    variance: 0.2
    variance: 0.2
    step: 300
    offset: 0.5
  }
}
layer {
  name: "mbox_loc"
  type: "Concat"
  bottom: "conv4_3_norm_mbox_loc_flat"
  bottom: "fc7_mbox_loc_flat"
  bottom: "conv8_2_mbox_loc_flat"
  bottom: "conv9_2_mbox_loc_flat"
  bottom: "conv10_2_mbox_loc_flat"
  bottom: "conv11_2_mbox_loc_flat"
  top: "mbox_loc"
  concat_param {
    axis: 1
  }
}
layer {
  name: "mbox_conf"
  type: "Concat"
  bottom: "conv4_3_norm_mbox_conf_flat"
  bottom: "fc7_mbox_conf_flat"
  bottom: "conv8_2_mbox_conf_flat"
  bottom: "conv9_2_mbox_conf_flat"
  bottom: "conv10_2_mbox_conf_flat"
  bottom: "conv11_2_mbox_conf_flat"
  top: "mbox_conf"
  concat_param {
    axis: 1
  }
}
layer {
  name: "mbox_priorbox"
  type: "Concat"
  bottom: "conv4_3_norm_mbox_priorbox"
  bottom: "fc7_mbox_priorbox"
  bottom: "conv8_2_mbox_priorbox"
  bottom: "conv9_2_mbox_priorbox"
  bottom: "conv10_2_mbox_priorbox"
  bottom: "conv11_2_mbox_priorbox"
  top: "mbox_priorbox"
  concat_param {
    axis: 2
  }
}
layer {
  name: "mbox_loss"
  type: "MultiBoxLoss"
  bottom: "mbox_loc"
  bottom: "mbox_conf"
  bottom: "mbox_priorbox"
  bottom: "label"
  top: "mbox_loss"
  include {
    phase: TRAIN
  }
  propagate_down: true
  propagate_down: true
  propagate_down: false
  propagate_down: false
  loss_param {
    normalization: VALID
  }
  multibox_loss_param {
    loc_loss_type: SMOOTH_L1
    conf_loss_type: SOFTMAX
    loc_weight: 1
    num_classes: 3
    share_location: true
    match_type: PER_PREDICTION
    overlap_threshold: 0.5
    use_prior_for_matching: true
    background_label_id: 0
    use_difficult_gt: true
    neg_pos_ratio: 3
    neg_overlap: 0.5
    code_type: CENTER_SIZE
    ignore_cross_boundary_bbox: false
    mining_type: MAX_NEGATIVE
  }
}
I0702 17:51:01.188145  7008 layer_factory.hpp:77] Creating layer data
I0702 17:51:01.188145  7008 common.cpp:36] System entropy source not available, using fallback algorithm to generate seed instead.
I0702 17:51:01.188145  7008 net.cpp:100] Creating Layer data
I0702 17:51:01.188145  7008 net.cpp:408] data -> data
I0702 17:51:01.188145  7008 net.cpp:408] data -> label
I0702 17:51:01.189143 13580 common.cpp:36] System entropy source not available, using fallback algorithm to generate seed instead.
I0702 17:51:01.189143 13580 db_lmdb.cpp:40] Opened lmdb examples\wastedata\wastedata_trainval_lmdb
I0702 17:51:01.201112  7008 annotated_data_layer.cpp:62] output data size: 8,3,300,300
I0702 17:51:01.216071  7008 net.cpp:150] Setting up data
I0702 17:51:01.216071  7008 net.cpp:157] Top shape: 8 3 300 300 (2160000)
I0702 17:51:01.216071  7008 net.cpp:157] Top shape: 1 1 1 8 (8)
I0702 17:51:01.216071  7008 net.cpp:165] Memory required for data: 8640032
I0702 17:51:01.216071  7008 layer_factory.hpp:77] Creating layer data_data_0_split
I0702 17:51:01.216071  7008 net.cpp:100] Creating Layer data_data_0_split
I0702 17:51:01.216071  7008 net.cpp:434] data_data_0_split <- data
I0702 17:51:01.216071  7008 net.cpp:408] data_data_0_split -> data_data_0_split_0
I0702 17:51:01.216071  7008 net.cpp:408] data_data_0_split -> data_data_0_split_1
I0702 17:51:01.216071  7008 net.cpp:408] data_data_0_split -> data_data_0_split_2
I0702 17:51:01.216071  7008 net.cpp:408] data_data_0_split -> data_data_0_split_3
I0702 17:51:01.216071  7008 net.cpp:408] data_data_0_split -> data_data_0_split_4
I0702 17:51:01.216071  7008 net.cpp:408] data_data_0_split -> data_data_0_split_5
I0702 17:51:01.216071  7008 net.cpp:408] data_data_0_split -> data_data_0_split_6
I0702 17:51:01.216071  7008 net.cpp:150] Setting up data_data_0_split
I0702 17:51:01.216071  7008 net.cpp:157] Top shape: 8 3 300 300 (2160000)
I0702 17:51:01.216071  7008 net.cpp:157] Top shape: 8 3 300 300 (2160000)
I0702 17:51:01.216071  7008 net.cpp:157] Top shape: 8 3 300 300 (2160000)
I0702 17:51:01.216071  7008 net.cpp:157] Top shape: 8 3 300 300 (2160000)
I0702 17:51:01.216071  7008 net.cpp:157] Top shape: 8 3 300 300 (2160000)
I0702 17:51:01.216071  7008 net.cpp:157] Top shape: 8 3 300 300 (2160000)
I0702 17:51:01.216071  7008 net.cpp:157] Top shape: 8 3 300 300 (2160000)
I0702 17:51:01.216071  7008 net.cpp:165] Memory required for data: 69120032
I0702 17:51:01.216071  7008 layer_factory.hpp:77] Creating layer conv1_1
I0702 17:51:01.216071  7008 net.cpp:100] Creating Layer conv1_1
I0702 17:51:01.216071  7008 net.cpp:434] conv1_1 <- data_data_0_split_0
I0702 17:51:01.216071  7008 net.cpp:408] conv1_1 -> conv1_1
I0702 17:51:01.217069  5356 common.cpp:36] System entropy source not available, using fallback algorithm to generate seed instead.
I0702 17:51:02.115191  7008 net.cpp:150] Setting up conv1_1
I0702 17:51:02.115191  7008 net.cpp:157] Top shape: 8 64 300 300 (46080000)
I0702 17:51:02.115191  7008 net.cpp:165] Memory required for data: 253440032
I0702 17:51:02.115191  7008 layer_factory.hpp:77] Creating layer relu1_1
I0702 17:51:02.115191  7008 net.cpp:100] Creating Layer relu1_1
I0702 17:51:02.115191  7008 net.cpp:434] relu1_1 <- conv1_1
I0702 17:51:02.115191  7008 net.cpp:395] relu1_1 -> conv1_1 (in-place)
I0702 17:51:02.116189  7008 net.cpp:150] Setting up relu1_1
I0702 17:51:02.116189  7008 net.cpp:157] Top shape: 8 64 300 300 (46080000)
I0702 17:51:02.116189  7008 net.cpp:165] Memory required for data: 437760032
I0702 17:51:02.116189  7008 layer_factory.hpp:77] Creating layer conv1_2
I0702 17:51:02.116189  7008 net.cpp:100] Creating Layer conv1_2
I0702 17:51:02.116189  7008 net.cpp:434] conv1_2 <- conv1_1
I0702 17:51:02.116189  7008 net.cpp:408] conv1_2 -> conv1_2
I0702 17:51:02.119180  7008 net.cpp:150] Setting up conv1_2
I0702 17:51:02.119180  7008 net.cpp:157] Top shape: 8 64 300 300 (46080000)
I0702 17:51:02.119180  7008 net.cpp:165] Memory required for data: 622080032
I0702 17:51:02.119180  7008 layer_factory.hpp:77] Creating layer relu1_2
I0702 17:51:02.119180  7008 net.cpp:100] Creating Layer relu1_2
I0702 17:51:02.119180  7008 net.cpp:434] relu1_2 <- conv1_2
I0702 17:51:02.119180  7008 net.cpp:395] relu1_2 -> conv1_2 (in-place)
I0702 17:51:02.119180  7008 net.cpp:150] Setting up relu1_2
I0702 17:51:02.119180  7008 net.cpp:157] Top shape: 8 64 300 300 (46080000)
I0702 17:51:02.119180  7008 net.cpp:165] Memory required for data: 806400032
I0702 17:51:02.119180  7008 layer_factory.hpp:77] Creating layer pool1
I0702 17:51:02.119180  7008 net.cpp:100] Creating Layer pool1
I0702 17:51:02.119180  7008 net.cpp:434] pool1 <- conv1_2
I0702 17:51:02.119180  7008 net.cpp:408] pool1 -> pool1
I0702 17:51:02.119180  7008 net.cpp:150] Setting up pool1
I0702 17:51:02.119180  7008 net.cpp:157] Top shape: 8 64 150 150 (11520000)
I0702 17:51:02.119180  7008 net.cpp:165] Memory required for data: 852480032
I0702 17:51:02.119180  7008 layer_factory.hpp:77] Creating layer conv2_1
I0702 17:51:02.119180  7008 net.cpp:100] Creating Layer conv2_1
I0702 17:51:02.119180  7008 net.cpp:434] conv2_1 <- pool1
I0702 17:51:02.119180  7008 net.cpp:408] conv2_1 -> conv2_1
I0702 17:51:02.122172  7008 net.cpp:150] Setting up conv2_1
I0702 17:51:02.122172  7008 net.cpp:157] Top shape: 8 128 150 150 (23040000)
I0702 17:51:02.122172  7008 net.cpp:165] Memory required for data: 944640032
I0702 17:51:02.122172  7008 layer_factory.hpp:77] Creating layer relu2_1
I0702 17:51:02.122172  7008 net.cpp:100] Creating Layer relu2_1
I0702 17:51:02.122172  7008 net.cpp:434] relu2_1 <- conv2_1
I0702 17:51:02.122172  7008 net.cpp:395] relu2_1 -> conv2_1 (in-place)
I0702 17:51:02.123169  7008 net.cpp:150] Setting up relu2_1
I0702 17:51:02.123169  7008 net.cpp:157] Top shape: 8 128 150 150 (23040000)
I0702 17:51:02.123169  7008 net.cpp:165] Memory required for data: 1036800032
I0702 17:51:02.123169  7008 layer_factory.hpp:77] Creating layer conv2_2
I0702 17:51:02.123169  7008 net.cpp:100] Creating Layer conv2_2
I0702 17:51:02.123169  7008 net.cpp:434] conv2_2 <- conv2_1
I0702 17:51:02.123169  7008 net.cpp:408] conv2_2 -> conv2_2
I0702 17:51:02.126163  7008 net.cpp:150] Setting up conv2_2
I0702 17:51:02.126163  7008 net.cpp:157] Top shape: 8 128 150 150 (23040000)
I0702 17:51:02.126163  7008 net.cpp:165] Memory required for data: 1128960032
I0702 17:51:02.126163  7008 layer_factory.hpp:77] Creating layer relu2_2
I0702 17:51:02.126163  7008 net.cpp:100] Creating Layer relu2_2
I0702 17:51:02.126163  7008 net.cpp:434] relu2_2 <- conv2_2
I0702 17:51:02.126163  7008 net.cpp:395] relu2_2 -> conv2_2 (in-place)
I0702 17:51:02.126163  7008 net.cpp:150] Setting up relu2_2
I0702 17:51:02.126163  7008 net.cpp:157] Top shape: 8 128 150 150 (23040000)
I0702 17:51:02.126163  7008 net.cpp:165] Memory required for data: 1221120032
I0702 17:51:02.126163  7008 layer_factory.hpp:77] Creating layer pool2
I0702 17:51:02.126163  7008 net.cpp:100] Creating Layer pool2
I0702 17:51:02.126163  7008 net.cpp:434] pool2 <- conv2_2
I0702 17:51:02.126163  7008 net.cpp:408] pool2 -> pool2
I0702 17:51:02.126163  7008 net.cpp:150] Setting up pool2
I0702 17:51:02.126163  7008 net.cpp:157] Top shape: 8 128 75 75 (5760000)
I0702 17:51:02.126163  7008 net.cpp:165] Memory required for data: 1244160032
I0702 17:51:02.126163  7008 layer_factory.hpp:77] Creating layer conv3_1
I0702 17:51:02.126163  7008 net.cpp:100] Creating Layer conv3_1
I0702 17:51:02.126163  7008 net.cpp:434] conv3_1 <- pool2
I0702 17:51:02.127161  7008 net.cpp:408] conv3_1 -> conv3_1
I0702 17:51:02.131148  7008 net.cpp:150] Setting up conv3_1
I0702 17:51:02.131148  7008 net.cpp:157] Top shape: 8 256 75 75 (11520000)
I0702 17:51:02.131148  7008 net.cpp:165] Memory required for data: 1290240032
I0702 17:51:02.131148  7008 layer_factory.hpp:77] Creating layer relu3_1
I0702 17:51:02.131148  7008 net.cpp:100] Creating Layer relu3_1
I0702 17:51:02.131148  7008 net.cpp:434] relu3_1 <- conv3_1
I0702 17:51:02.131148  7008 net.cpp:395] relu3_1 -> conv3_1 (in-place)
I0702 17:51:02.133143  7008 net.cpp:150] Setting up relu3_1
I0702 17:51:02.133143  7008 net.cpp:157] Top shape: 8 256 75 75 (11520000)
I0702 17:51:02.133143  7008 net.cpp:165] Memory required for data: 1336320032
I0702 17:51:02.133143  7008 layer_factory.hpp:77] Creating layer conv3_2
I0702 17:51:02.133143  7008 net.cpp:100] Creating Layer conv3_2
I0702 17:51:02.133143  7008 net.cpp:434] conv3_2 <- conv3_1
I0702 17:51:02.133143  7008 net.cpp:408] conv3_2 -> conv3_2
I0702 17:51:02.139127  7008 net.cpp:150] Setting up conv3_2
I0702 17:51:02.139127  7008 net.cpp:157] Top shape: 8 256 75 75 (11520000)
I0702 17:51:02.139127  7008 net.cpp:165] Memory required for data: 1382400032
I0702 17:51:02.139127  7008 layer_factory.hpp:77] Creating layer relu3_2
I0702 17:51:02.139127  7008 net.cpp:100] Creating Layer relu3_2
I0702 17:51:02.139127  7008 net.cpp:434] relu3_2 <- conv3_2
I0702 17:51:02.139127  7008 net.cpp:395] relu3_2 -> conv3_2 (in-place)
I0702 17:51:02.140126  7008 net.cpp:150] Setting up relu3_2
I0702 17:51:02.140126  7008 net.cpp:157] Top shape: 8 256 75 75 (11520000)
I0702 17:51:02.140126  7008 net.cpp:165] Memory required for data: 1428480032
I0702 17:51:02.140126  7008 layer_factory.hpp:77] Creating layer conv3_3
I0702 17:51:02.140126  7008 net.cpp:100] Creating Layer conv3_3
I0702 17:51:02.140126  7008 net.cpp:434] conv3_3 <- conv3_2
I0702 17:51:02.140126  7008 net.cpp:408] conv3_3 -> conv3_3
I0702 17:51:02.146109  7008 net.cpp:150] Setting up conv3_3
I0702 17:51:02.146109  7008 net.cpp:157] Top shape: 8 256 75 75 (11520000)
I0702 17:51:02.147105  7008 net.cpp:165] Memory required for data: 1474560032
I0702 17:51:02.147105  7008 layer_factory.hpp:77] Creating layer relu3_3
I0702 17:51:02.147105  7008 net.cpp:100] Creating Layer relu3_3
I0702 17:51:02.147105  7008 net.cpp:434] relu3_3 <- conv3_3
I0702 17:51:02.147105  7008 net.cpp:395] relu3_3 -> conv3_3 (in-place)
I0702 17:51:02.147105  7008 net.cpp:150] Setting up relu3_3
I0702 17:51:02.147105  7008 net.cpp:157] Top shape: 8 256 75 75 (11520000)
I0702 17:51:02.147105  7008 net.cpp:165] Memory required for data: 1520640032
I0702 17:51:02.147105  7008 layer_factory.hpp:77] Creating layer pool3
I0702 17:51:02.147105  7008 net.cpp:100] Creating Layer pool3
I0702 17:51:02.147105  7008 net.cpp:434] pool3 <- conv3_3
I0702 17:51:02.147105  7008 net.cpp:408] pool3 -> pool3
I0702 17:51:02.147105  7008 net.cpp:150] Setting up pool3
I0702 17:51:02.147105  7008 net.cpp:157] Top shape: 8 256 38 38 (2957312)
I0702 17:51:02.147105  7008 net.cpp:165] Memory required for data: 1532469280
I0702 17:51:02.147105  7008 layer_factory.hpp:77] Creating layer conv4_1
I0702 17:51:02.147105  7008 net.cpp:100] Creating Layer conv4_1
I0702 17:51:02.147105  7008 net.cpp:434] conv4_1 <- pool3
I0702 17:51:02.147105  7008 net.cpp:408] conv4_1 -> conv4_1
I0702 17:51:02.157080  7008 net.cpp:150] Setting up conv4_1
I0702 17:51:02.157080  7008 net.cpp:157] Top shape: 8 512 38 38 (5914624)
I0702 17:51:02.157080  7008 net.cpp:165] Memory required for data: 1556127776
I0702 17:51:02.157080  7008 layer_factory.hpp:77] Creating layer relu4_1
I0702 17:51:02.157080  7008 net.cpp:100] Creating Layer relu4_1
I0702 17:51:02.157080  7008 net.cpp:434] relu4_1 <- conv4_1
I0702 17:51:02.157080  7008 net.cpp:395] relu4_1 -> conv4_1 (in-place)
I0702 17:51:02.158077  7008 net.cpp:150] Setting up relu4_1
I0702 17:51:02.158077  7008 net.cpp:157] Top shape: 8 512 38 38 (5914624)
I0702 17:51:02.158077  7008 net.cpp:165] Memory required for data: 1579786272
I0702 17:51:02.158077  7008 layer_factory.hpp:77] Creating layer conv4_2
I0702 17:51:02.158077  7008 net.cpp:100] Creating Layer conv4_2
I0702 17:51:02.158077  7008 net.cpp:434] conv4_2 <- conv4_1
I0702 17:51:02.158077  7008 net.cpp:408] conv4_2 -> conv4_2
I0702 17:51:02.174034  7008 net.cpp:150] Setting up conv4_2
I0702 17:51:02.175031  7008 net.cpp:157] Top shape: 8 512 38 38 (5914624)
I0702 17:51:02.175031  7008 net.cpp:165] Memory required for data: 1603444768
I0702 17:51:02.175031  7008 layer_factory.hpp:77] Creating layer relu4_2
I0702 17:51:02.175031  7008 net.cpp:100] Creating Layer relu4_2
I0702 17:51:02.175031  7008 net.cpp:434] relu4_2 <- conv4_2
I0702 17:51:02.175031  7008 net.cpp:395] relu4_2 -> conv4_2 (in-place)
I0702 17:51:02.175031  7008 net.cpp:150] Setting up relu4_2
I0702 17:51:02.175031  7008 net.cpp:157] Top shape: 8 512 38 38 (5914624)
I0702 17:51:02.175031  7008 net.cpp:165] Memory required for data: 1627103264
I0702 17:51:02.175031  7008 layer_factory.hpp:77] Creating layer conv4_3
I0702 17:51:02.175031  7008 net.cpp:100] Creating Layer conv4_3
I0702 17:51:02.175031  7008 net.cpp:434] conv4_3 <- conv4_2
I0702 17:51:02.175031  7008 net.cpp:408] conv4_3 -> conv4_3
I0702 17:51:02.190989  7008 net.cpp:150] Setting up conv4_3
I0702 17:51:02.190989  7008 net.cpp:157] Top shape: 8 512 38 38 (5914624)
I0702 17:51:02.190989  7008 net.cpp:165] Memory required for data: 1650761760
I0702 17:51:02.190989  7008 layer_factory.hpp:77] Creating layer relu4_3
I0702 17:51:02.190989  7008 net.cpp:100] Creating Layer relu4_3
I0702 17:51:02.190989  7008 net.cpp:434] relu4_3 <- conv4_3
I0702 17:51:02.190989  7008 net.cpp:395] relu4_3 -> conv4_3 (in-place)
I0702 17:51:02.191987  7008 net.cpp:150] Setting up relu4_3
I0702 17:51:02.191987  7008 net.cpp:157] Top shape: 8 512 38 38 (5914624)
I0702 17:51:02.191987  7008 net.cpp:165] Memory required for data: 1674420256
I0702 17:51:02.191987  7008 layer_factory.hpp:77] Creating layer conv4_3_relu4_3_0_split
I0702 17:51:02.191987  7008 net.cpp:100] Creating Layer conv4_3_relu4_3_0_split
I0702 17:51:02.191987  7008 net.cpp:434] conv4_3_relu4_3_0_split <- conv4_3
I0702 17:51:02.192983  7008 net.cpp:408] conv4_3_relu4_3_0_split -> conv4_3_relu4_3_0_split_0
I0702 17:51:02.192983  7008 net.cpp:408] conv4_3_relu4_3_0_split -> conv4_3_relu4_3_0_split_1
I0702 17:51:02.192983  7008 net.cpp:150] Setting up conv4_3_relu4_3_0_split
I0702 17:51:02.192983  7008 net.cpp:157] Top shape: 8 512 38 38 (5914624)
I0702 17:51:02.192983  7008 net.cpp:157] Top shape: 8 512 38 38 (5914624)
I0702 17:51:02.192983  7008 net.cpp:165] Memory required for data: 1721737248
I0702 17:51:02.192983  7008 layer_factory.hpp:77] Creating layer pool4
I0702 17:51:02.192983  7008 net.cpp:100] Creating Layer pool4
I0702 17:51:02.192983  7008 net.cpp:434] pool4 <- conv4_3_relu4_3_0_split_0
I0702 17:51:02.192983  7008 net.cpp:408] pool4 -> pool4
I0702 17:51:02.192983  7008 net.cpp:150] Setting up pool4
I0702 17:51:02.192983  7008 net.cpp:157] Top shape: 8 512 19 19 (1478656)
I0702 17:51:02.192983  7008 net.cpp:165] Memory required for data: 1727651872
I0702 17:51:02.192983  7008 layer_factory.hpp:77] Creating layer conv5_1
I0702 17:51:02.192983  7008 net.cpp:100] Creating Layer conv5_1
I0702 17:51:02.192983  7008 net.cpp:434] conv5_1 <- pool4
I0702 17:51:02.192983  7008 net.cpp:408] conv5_1 -> conv5_1
I0702 17:51:02.208940  7008 net.cpp:150] Setting up conv5_1
I0702 17:51:02.208940  7008 net.cpp:157] Top shape: 8 512 19 19 (1478656)
I0702 17:51:02.208940  7008 net.cpp:165] Memory required for data: 1733566496
I0702 17:51:02.208940  7008 layer_factory.hpp:77] Creating layer relu5_1
I0702 17:51:02.208940  7008 net.cpp:100] Creating Layer relu5_1
I0702 17:51:02.208940  7008 net.cpp:434] relu5_1 <- conv5_1
I0702 17:51:02.208940  7008 net.cpp:395] relu5_1 -> conv5_1 (in-place)
I0702 17:51:02.208940  7008 net.cpp:150] Setting up relu5_1
I0702 17:51:02.208940  7008 net.cpp:157] Top shape: 8 512 19 19 (1478656)
I0702 17:51:02.208940  7008 net.cpp:165] Memory required for data: 1739481120
I0702 17:51:02.208940  7008 layer_factory.hpp:77] Creating layer conv5_2
I0702 17:51:02.208940  7008 net.cpp:100] Creating Layer conv5_2
I0702 17:51:02.208940  7008 net.cpp:434] conv5_2 <- conv5_1
I0702 17:51:02.208940  7008 net.cpp:408] conv5_2 -> conv5_2
I0702 17:51:02.225895  7008 net.cpp:150] Setting up conv5_2
I0702 17:51:02.225895  7008 net.cpp:157] Top shape: 8 512 19 19 (1478656)
I0702 17:51:02.225895  7008 net.cpp:165] Memory required for data: 1745395744
I0702 17:51:02.225895  7008 layer_factory.hpp:77] Creating layer relu5_2
I0702 17:51:02.225895  7008 net.cpp:100] Creating Layer relu5_2
I0702 17:51:02.225895  7008 net.cpp:434] relu5_2 <- conv5_2
I0702 17:51:02.225895  7008 net.cpp:395] relu5_2 -> conv5_2 (in-place)
I0702 17:51:02.225895  7008 net.cpp:150] Setting up relu5_2
I0702 17:51:02.225895  7008 net.cpp:157] Top shape: 8 512 19 19 (1478656)
I0702 17:51:02.225895  7008 net.cpp:165] Memory required for data: 1751310368
I0702 17:51:02.225895  7008 layer_factory.hpp:77] Creating layer conv5_3
I0702 17:51:02.225895  7008 net.cpp:100] Creating Layer conv5_3
I0702 17:51:02.225895  7008 net.cpp:434] conv5_3 <- conv5_2
I0702 17:51:02.225895  7008 net.cpp:408] conv5_3 -> conv5_3
I0702 17:51:02.242851  7008 net.cpp:150] Setting up conv5_3
I0702 17:51:02.242851  7008 net.cpp:157] Top shape: 8 512 19 19 (1478656)
I0702 17:51:02.242851  7008 net.cpp:165] Memory required for data: 1757224992
I0702 17:51:02.242851  7008 layer_factory.hpp:77] Creating layer relu5_3
I0702 17:51:02.242851  7008 net.cpp:100] Creating Layer relu5_3
I0702 17:51:02.242851  7008 net.cpp:434] relu5_3 <- conv5_3
I0702 17:51:02.242851  7008 net.cpp:395] relu5_3 -> conv5_3 (in-place)
I0702 17:51:02.242851  7008 net.cpp:150] Setting up relu5_3
I0702 17:51:02.242851  7008 net.cpp:157] Top shape: 8 512 19 19 (1478656)
I0702 17:51:02.242851  7008 net.cpp:165] Memory required for data: 1763139616
I0702 17:51:02.242851  7008 layer_factory.hpp:77] Creating layer pool5
I0702 17:51:02.242851  7008 net.cpp:100] Creating Layer pool5
I0702 17:51:02.242851  7008 net.cpp:434] pool5 <- conv5_3
I0702 17:51:02.242851  7008 net.cpp:408] pool5 -> pool5
I0702 17:51:02.242851  7008 net.cpp:150] Setting up pool5
I0702 17:51:02.242851  7008 net.cpp:157] Top shape: 8 512 19 19 (1478656)
I0702 17:51:02.242851  7008 net.cpp:165] Memory required for data: 1769054240
I0702 17:51:02.242851  7008 layer_factory.hpp:77] Creating layer fc6
I0702 17:51:02.242851  7008 net.cpp:100] Creating Layer fc6
I0702 17:51:02.242851  7008 net.cpp:434] fc6 <- pool5
I0702 17:51:02.242851  7008 net.cpp:408] fc6 -> fc6
I0702 17:51:02.270776  7008 net.cpp:150] Setting up fc6
I0702 17:51:02.270776  7008 net.cpp:157] Top shape: 8 1024 19 19 (2957312)
I0702 17:51:02.270776  7008 net.cpp:165] Memory required for data: 1780883488
I0702 17:51:02.270776  7008 layer_factory.hpp:77] Creating layer relu6
I0702 17:51:02.270776  7008 net.cpp:100] Creating Layer relu6
I0702 17:51:02.270776  7008 net.cpp:434] relu6 <- fc6
I0702 17:51:02.270776  7008 net.cpp:395] relu6 -> fc6 (in-place)
I0702 17:51:02.271773  7008 net.cpp:150] Setting up relu6
I0702 17:51:02.271773  7008 net.cpp:157] Top shape: 8 1024 19 19 (2957312)
I0702 17:51:02.271773  7008 net.cpp:165] Memory required for data: 1792712736
I0702 17:51:02.271773  7008 layer_factory.hpp:77] Creating layer fc7
I0702 17:51:02.271773  7008 net.cpp:100] Creating Layer fc7
I0702 17:51:02.271773  7008 net.cpp:434] fc7 <- fc6
I0702 17:51:02.271773  7008 net.cpp:408] fc7 -> fc7
I0702 17:51:02.279752  7008 net.cpp:150] Setting up fc7
I0702 17:51:02.279752  7008 net.cpp:157] Top shape: 8 1024 19 19 (2957312)
I0702 17:51:02.279752  7008 net.cpp:165] Memory required for data: 1804541984
I0702 17:51:02.279752  7008 layer_factory.hpp:77] Creating layer relu7
I0702 17:51:02.279752  7008 net.cpp:100] Creating Layer relu7
I0702 17:51:02.279752  7008 net.cpp:434] relu7 <- fc7
I0702 17:51:02.279752  7008 net.cpp:395] relu7 -> fc7 (in-place)
I0702 17:51:02.280750  7008 net.cpp:150] Setting up relu7
I0702 17:51:02.280750  7008 net.cpp:157] Top shape: 8 1024 19 19 (2957312)
I0702 17:51:02.280750  7008 net.cpp:165] Memory required for data: 1816371232
I0702 17:51:02.280750  7008 layer_factory.hpp:77] Creating layer fc7_relu7_0_split
I0702 17:51:02.280750  7008 net.cpp:100] Creating Layer fc7_relu7_0_split
I0702 17:51:02.280750  7008 net.cpp:434] fc7_relu7_0_split <- fc7
I0702 17:51:02.280750  7008 net.cpp:408] fc7_relu7_0_split -> fc7_relu7_0_split_0
I0702 17:51:02.280750  7008 net.cpp:408] fc7_relu7_0_split -> fc7_relu7_0_split_1
I0702 17:51:02.280750  7008 net.cpp:408] fc7_relu7_0_split -> fc7_relu7_0_split_2
I0702 17:51:02.280750  7008 net.cpp:408] fc7_relu7_0_split -> fc7_relu7_0_split_3
I0702 17:51:02.280750  7008 net.cpp:150] Setting up fc7_relu7_0_split
I0702 17:51:02.280750  7008 net.cpp:157] Top shape: 8 1024 19 19 (2957312)
I0702 17:51:02.280750  7008 net.cpp:157] Top shape: 8 1024 19 19 (2957312)
I0702 17:51:02.280750  7008 net.cpp:157] Top shape: 8 1024 19 19 (2957312)
I0702 17:51:02.280750  7008 net.cpp:157] Top shape: 8 1024 19 19 (2957312)
I0702 17:51:02.280750  7008 net.cpp:165] Memory required for data: 1863688224
I0702 17:51:02.280750  7008 layer_factory.hpp:77] Creating layer conv8_1
I0702 17:51:02.280750  7008 net.cpp:100] Creating Layer conv8_1
I0702 17:51:02.280750  7008 net.cpp:434] conv8_1 <- fc7_relu7_0_split_0
I0702 17:51:02.280750  7008 net.cpp:408] conv8_1 -> conv8_1
I0702 17:51:02.285737  7008 net.cpp:150] Setting up conv8_1
I0702 17:51:02.285737  7008 net.cpp:157] Top shape: 8 256 19 19 (739328)
I0702 17:51:02.285737  7008 net.cpp:165] Memory required for data: 1866645536
I0702 17:51:02.285737  7008 layer_factory.hpp:77] Creating layer conv8_1_relu
I0702 17:51:02.285737  7008 net.cpp:100] Creating Layer conv8_1_relu
I0702 17:51:02.285737  7008 net.cpp:434] conv8_1_relu <- conv8_1
I0702 17:51:02.285737  7008 net.cpp:395] conv8_1_relu -> conv8_1 (in-place)
I0702 17:51:02.285737  7008 net.cpp:150] Setting up conv8_1_relu
I0702 17:51:02.285737  7008 net.cpp:157] Top shape: 8 256 19 19 (739328)
I0702 17:51:02.285737  7008 net.cpp:165] Memory required for data: 1869602848
I0702 17:51:02.285737  7008 layer_factory.hpp:77] Creating layer conv8_2
I0702 17:51:02.285737  7008 net.cpp:100] Creating Layer conv8_2
I0702 17:51:02.285737  7008 net.cpp:434] conv8_2 <- conv8_1
I0702 17:51:02.285737  7008 net.cpp:408] conv8_2 -> conv8_2
I0702 17:51:02.294711  7008 net.cpp:150] Setting up conv8_2
I0702 17:51:02.294711  7008 net.cpp:157] Top shape: 8 512 10 10 (409600)
I0702 17:51:02.294711  7008 net.cpp:165] Memory required for data: 1871241248
I0702 17:51:02.294711  7008 layer_factory.hpp:77] Creating layer conv8_2_relu
I0702 17:51:02.294711  7008 net.cpp:100] Creating Layer conv8_2_relu
I0702 17:51:02.294711  7008 net.cpp:434] conv8_2_relu <- conv8_2
I0702 17:51:02.294711  7008 net.cpp:395] conv8_2_relu -> conv8_2 (in-place)
I0702 17:51:02.295709  7008 net.cpp:150] Setting up conv8_2_relu
I0702 17:51:02.295709  7008 net.cpp:157] Top shape: 8 512 10 10 (409600)
I0702 17:51:02.295709  7008 net.cpp:165] Memory required for data: 1872879648
I0702 17:51:02.295709  7008 layer_factory.hpp:77] Creating layer conv8_2_conv8_2_relu_0_split
I0702 17:51:02.295709  7008 net.cpp:100] Creating Layer conv8_2_conv8_2_relu_0_split
I0702 17:51:02.295709  7008 net.cpp:434] conv8_2_conv8_2_relu_0_split <- conv8_2
I0702 17:51:02.295709  7008 net.cpp:408] conv8_2_conv8_2_relu_0_split -> conv8_2_conv8_2_relu_0_split_0
I0702 17:51:02.295709  7008 net.cpp:408] conv8_2_conv8_2_relu_0_split -> conv8_2_conv8_2_relu_0_split_1
I0702 17:51:02.295709  7008 net.cpp:408] conv8_2_conv8_2_relu_0_split -> conv8_2_conv8_2_relu_0_split_2
I0702 17:51:02.295709  7008 net.cpp:408] conv8_2_conv8_2_relu_0_split -> conv8_2_conv8_2_relu_0_split_3
I0702 17:51:02.296706  7008 net.cpp:150] Setting up conv8_2_conv8_2_relu_0_split
I0702 17:51:02.296706  7008 net.cpp:157] Top shape: 8 512 10 10 (409600)
I0702 17:51:02.296706  7008 net.cpp:157] Top shape: 8 512 10 10 (409600)
I0702 17:51:02.296706  7008 net.cpp:157] Top shape: 8 512 10 10 (409600)
I0702 17:51:02.296706  7008 net.cpp:157] Top shape: 8 512 10 10 (409600)
I0702 17:51:02.296706  7008 net.cpp:165] Memory required for data: 1879433248
I0702 17:51:02.296706  7008 layer_factory.hpp:77] Creating layer conv9_1
I0702 17:51:02.296706  7008 net.cpp:100] Creating Layer conv9_1
I0702 17:51:02.296706  7008 net.cpp:434] conv9_1 <- conv8_2_conv8_2_relu_0_split_0
I0702 17:51:02.296706  7008 net.cpp:408] conv9_1 -> conv9_1
I0702 17:51:02.299698  7008 net.cpp:150] Setting up conv9_1
I0702 17:51:02.299698  7008 net.cpp:157] Top shape: 8 128 10 10 (102400)
I0702 17:51:02.299698  7008 net.cpp:165] Memory required for data: 1879842848
I0702 17:51:02.299698  7008 layer_factory.hpp:77] Creating layer conv9_1_relu
I0702 17:51:02.299698  7008 net.cpp:100] Creating Layer conv9_1_relu
I0702 17:51:02.299698  7008 net.cpp:434] conv9_1_relu <- conv9_1
I0702 17:51:02.299698  7008 net.cpp:395] conv9_1_relu -> conv9_1 (in-place)
I0702 17:51:02.299698  7008 net.cpp:150] Setting up conv9_1_relu
I0702 17:51:02.299698  7008 net.cpp:157] Top shape: 8 128 10 10 (102400)
I0702 17:51:02.299698  7008 net.cpp:165] Memory required for data: 1880252448
I0702 17:51:02.299698  7008 layer_factory.hpp:77] Creating layer conv9_2
I0702 17:51:02.299698  7008 net.cpp:100] Creating Layer conv9_2
I0702 17:51:02.299698  7008 net.cpp:434] conv9_2 <- conv9_1
I0702 17:51:02.299698  7008 net.cpp:408] conv9_2 -> conv9_2
I0702 17:51:02.305682  7008 net.cpp:150] Setting up conv9_2
I0702 17:51:02.305682  7008 net.cpp:157] Top shape: 8 256 5 5 (51200)
I0702 17:51:02.305682  7008 net.cpp:165] Memory required for data: 1880457248
I0702 17:51:02.305682  7008 layer_factory.hpp:77] Creating layer conv9_2_relu
I0702 17:51:02.305682  7008 net.cpp:100] Creating Layer conv9_2_relu
I0702 17:51:02.305682  7008 net.cpp:434] conv9_2_relu <- conv9_2
I0702 17:51:02.305682  7008 net.cpp:395] conv9_2_relu -> conv9_2 (in-place)
I0702 17:51:02.306679  7008 net.cpp:150] Setting up conv9_2_relu
I0702 17:51:02.306679  7008 net.cpp:157] Top shape: 8 256 5 5 (51200)
I0702 17:51:02.306679  7008 net.cpp:165] Memory required for data: 1880662048
I0702 17:51:02.306679  7008 layer_factory.hpp:77] Creating layer conv9_2_conv9_2_relu_0_split
I0702 17:51:02.306679  7008 net.cpp:100] Creating Layer conv9_2_conv9_2_relu_0_split
I0702 17:51:02.306679  7008 net.cpp:434] conv9_2_conv9_2_relu_0_split <- conv9_2
I0702 17:51:02.306679  7008 net.cpp:408] conv9_2_conv9_2_relu_0_split -> conv9_2_conv9_2_relu_0_split_0
I0702 17:51:02.306679  7008 net.cpp:408] conv9_2_conv9_2_relu_0_split -> conv9_2_conv9_2_relu_0_split_1
I0702 17:51:02.306679  7008 net.cpp:408] conv9_2_conv9_2_relu_0_split -> conv9_2_conv9_2_relu_0_split_2
I0702 17:51:02.306679  7008 net.cpp:408] conv9_2_conv9_2_relu_0_split -> conv9_2_conv9_2_relu_0_split_3
I0702 17:51:02.306679  7008 net.cpp:150] Setting up conv9_2_conv9_2_relu_0_split
I0702 17:51:02.306679  7008 net.cpp:157] Top shape: 8 256 5 5 (51200)
I0702 17:51:02.306679  7008 net.cpp:157] Top shape: 8 256 5 5 (51200)
I0702 17:51:02.306679  7008 net.cpp:157] Top shape: 8 256 5 5 (51200)
I0702 17:51:02.306679  7008 net.cpp:157] Top shape: 8 256 5 5 (51200)
I0702 17:51:02.306679  7008 net.cpp:165] Memory required for data: 1881481248
I0702 17:51:02.306679  7008 layer_factory.hpp:77] Creating layer conv10_1
I0702 17:51:02.306679  7008 net.cpp:100] Creating Layer conv10_1
I0702 17:51:02.306679  7008 net.cpp:434] conv10_1 <- conv9_2_conv9_2_relu_0_split_0
I0702 17:51:02.306679  7008 net.cpp:408] conv10_1 -> conv10_1
I0702 17:51:02.308674  7008 net.cpp:150] Setting up conv10_1
I0702 17:51:02.308674  7008 net.cpp:157] Top shape: 8 128 5 5 (25600)
I0702 17:51:02.308674  7008 net.cpp:165] Memory required for data: 1881583648
I0702 17:51:02.308674  7008 layer_factory.hpp:77] Creating layer conv10_1_relu
I0702 17:51:02.308674  7008 net.cpp:100] Creating Layer conv10_1_relu
I0702 17:51:02.308674  7008 net.cpp:434] conv10_1_relu <- conv10_1
I0702 17:51:02.308674  7008 net.cpp:395] conv10_1_relu -> conv10_1 (in-place)
I0702 17:51:02.309671  7008 net.cpp:150] Setting up conv10_1_relu
I0702 17:51:02.309671  7008 net.cpp:157] Top shape: 8 128 5 5 (25600)
I0702 17:51:02.309671  7008 net.cpp:165] Memory required for data: 1881686048
I0702 17:51:02.309671  7008 layer_factory.hpp:77] Creating layer conv10_2
I0702 17:51:02.309671  7008 net.cpp:100] Creating Layer conv10_2
I0702 17:51:02.309671  7008 net.cpp:434] conv10_2 <- conv10_1
I0702 17:51:02.309671  7008 net.cpp:408] conv10_2 -> conv10_2
I0702 17:51:02.315656  7008 net.cpp:150] Setting up conv10_2
I0702 17:51:02.315656  7008 net.cpp:157] Top shape: 8 256 3 3 (18432)
I0702 17:51:02.315656  7008 net.cpp:165] Memory required for data: 1881759776
I0702 17:51:02.315656  7008 layer_factory.hpp:77] Creating layer conv10_2_relu
I0702 17:51:02.315656  7008 net.cpp:100] Creating Layer conv10_2_relu
I0702 17:51:02.315656  7008 net.cpp:434] conv10_2_relu <- conv10_2
I0702 17:51:02.315656  7008 net.cpp:395] conv10_2_relu -> conv10_2 (in-place)
I0702 17:51:02.315656  7008 net.cpp:150] Setting up conv10_2_relu
I0702 17:51:02.315656  7008 net.cpp:157] Top shape: 8 256 3 3 (18432)
I0702 17:51:02.315656  7008 net.cpp:165] Memory required for data: 1881833504
I0702 17:51:02.315656  7008 layer_factory.hpp:77] Creating layer conv10_2_conv10_2_relu_0_split
I0702 17:51:02.315656  7008 net.cpp:100] Creating Layer conv10_2_conv10_2_relu_0_split
I0702 17:51:02.315656  7008 net.cpp:434] conv10_2_conv10_2_relu_0_split <- conv10_2
I0702 17:51:02.315656  7008 net.cpp:408] conv10_2_conv10_2_relu_0_split -> conv10_2_conv10_2_relu_0_split_0
I0702 17:51:02.315656  7008 net.cpp:408] conv10_2_conv10_2_relu_0_split -> conv10_2_conv10_2_relu_0_split_1
I0702 17:51:02.315656  7008 net.cpp:408] conv10_2_conv10_2_relu_0_split -> conv10_2_conv10_2_relu_0_split_2
I0702 17:51:02.315656  7008 net.cpp:408] conv10_2_conv10_2_relu_0_split -> conv10_2_conv10_2_relu_0_split_3
I0702 17:51:02.315656  7008 net.cpp:150] Setting up conv10_2_conv10_2_relu_0_split
I0702 17:51:02.315656  7008 net.cpp:157] Top shape: 8 256 3 3 (18432)
I0702 17:51:02.315656  7008 net.cpp:157] Top shape: 8 256 3 3 (18432)
I0702 17:51:02.315656  7008 net.cpp:157] Top shape: 8 256 3 3 (18432)
I0702 17:51:02.315656  7008 net.cpp:157] Top shape: 8 256 3 3 (18432)
I0702 17:51:02.315656  7008 net.cpp:165] Memory required for data: 1882128416
I0702 17:51:02.315656  7008 layer_factory.hpp:77] Creating layer conv11_1
I0702 17:51:02.315656  7008 net.cpp:100] Creating Layer conv11_1
I0702 17:51:02.315656  7008 net.cpp:434] conv11_1 <- conv10_2_conv10_2_relu_0_split_0
I0702 17:51:02.315656  7008 net.cpp:408] conv11_1 -> conv11_1
I0702 17:51:02.317651  7008 net.cpp:150] Setting up conv11_1
I0702 17:51:02.317651  7008 net.cpp:157] Top shape: 8 128 3 3 (9216)
I0702 17:51:02.317651  7008 net.cpp:165] Memory required for data: 1882165280
I0702 17:51:02.318647  7008 layer_factory.hpp:77] Creating layer conv11_1_relu
I0702 17:51:02.318647  7008 net.cpp:100] Creating Layer conv11_1_relu
I0702 17:51:02.318647  7008 net.cpp:434] conv11_1_relu <- conv11_1
I0702 17:51:02.318647  7008 net.cpp:395] conv11_1_relu -> conv11_1 (in-place)
I0702 17:51:02.318647  7008 net.cpp:150] Setting up conv11_1_relu
I0702 17:51:02.318647  7008 net.cpp:157] Top shape: 8 128 3 3 (9216)
I0702 17:51:02.318647  7008 net.cpp:165] Memory required for data: 1882202144
I0702 17:51:02.318647  7008 layer_factory.hpp:77] Creating layer conv11_2
I0702 17:51:02.318647  7008 net.cpp:100] Creating Layer conv11_2
I0702 17:51:02.318647  7008 net.cpp:434] conv11_2 <- conv11_1
I0702 17:51:02.318647  7008 net.cpp:408] conv11_2 -> conv11_2
I0702 17:51:02.323634  7008 net.cpp:150] Setting up conv11_2
I0702 17:51:02.323634  7008 net.cpp:157] Top shape: 8 256 1 1 (2048)
I0702 17:51:02.323634  7008 net.cpp:165] Memory required for data: 1882210336
I0702 17:51:02.323634  7008 layer_factory.hpp:77] Creating layer conv11_2_relu
I0702 17:51:02.323634  7008 net.cpp:100] Creating Layer conv11_2_relu
I0702 17:51:02.323634  7008 net.cpp:434] conv11_2_relu <- conv11_2
I0702 17:51:02.323634  7008 net.cpp:395] conv11_2_relu -> conv11_2 (in-place)
I0702 17:51:02.323634  7008 net.cpp:150] Setting up conv11_2_relu
I0702 17:51:02.323634  7008 net.cpp:157] Top shape: 8 256 1 1 (2048)
I0702 17:51:02.323634  7008 net.cpp:165] Memory required for data: 1882218528
I0702 17:51:02.323634  7008 layer_factory.hpp:77] Creating layer conv11_2_conv11_2_relu_0_split
I0702 17:51:02.323634  7008 net.cpp:100] Creating Layer conv11_2_conv11_2_relu_0_split
I0702 17:51:02.323634  7008 net.cpp:434] conv11_2_conv11_2_relu_0_split <- conv11_2
I0702 17:51:02.323634  7008 net.cpp:408] conv11_2_conv11_2_relu_0_split -> conv11_2_conv11_2_relu_0_split_0
I0702 17:51:02.323634  7008 net.cpp:408] conv11_2_conv11_2_relu_0_split -> conv11_2_conv11_2_relu_0_split_1
I0702 17:51:02.323634  7008 net.cpp:408] conv11_2_conv11_2_relu_0_split -> conv11_2_conv11_2_relu_0_split_2
I0702 17:51:02.323634  7008 net.cpp:150] Setting up conv11_2_conv11_2_relu_0_split
I0702 17:51:02.323634  7008 net.cpp:157] Top shape: 8 256 1 1 (2048)
I0702 17:51:02.323634  7008 net.cpp:157] Top shape: 8 256 1 1 (2048)
I0702 17:51:02.323634  7008 net.cpp:157] Top shape: 8 256 1 1 (2048)
I0702 17:51:02.323634  7008 net.cpp:165] Memory required for data: 1882243104
I0702 17:51:02.323634  7008 layer_factory.hpp:77] Creating layer conv4_3_norm
I0702 17:51:02.323634  7008 net.cpp:100] Creating Layer conv4_3_norm
I0702 17:51:02.323634  7008 net.cpp:434] conv4_3_norm <- conv4_3_relu4_3_0_split_1
I0702 17:51:02.323634  7008 net.cpp:408] conv4_3_norm -> conv4_3_norm
I0702 17:51:02.323634  7008 net.cpp:150] Setting up conv4_3_norm
I0702 17:51:02.323634  7008 net.cpp:157] Top shape: 8 512 38 38 (5914624)
I0702 17:51:02.323634  7008 net.cpp:165] Memory required for data: 1905901600
I0702 17:51:02.323634  7008 layer_factory.hpp:77] Creating layer conv4_3_norm_conv4_3_norm_0_split
I0702 17:51:02.323634  7008 net.cpp:100] Creating Layer conv4_3_norm_conv4_3_norm_0_split
I0702 17:51:02.323634  7008 net.cpp:434] conv4_3_norm_conv4_3_norm_0_split <- conv4_3_norm
I0702 17:51:02.323634  7008 net.cpp:408] conv4_3_norm_conv4_3_norm_0_split -> conv4_3_norm_conv4_3_norm_0_split_0
I0702 17:51:02.323634  7008 net.cpp:408] conv4_3_norm_conv4_3_norm_0_split -> conv4_3_norm_conv4_3_norm_0_split_1
I0702 17:51:02.323634  7008 net.cpp:408] conv4_3_norm_conv4_3_norm_0_split -> conv4_3_norm_conv4_3_norm_0_split_2
I0702 17:51:02.323634  7008 net.cpp:150] Setting up conv4_3_norm_conv4_3_norm_0_split
I0702 17:51:02.324631  7008 net.cpp:157] Top shape: 8 512 38 38 (5914624)
I0702 17:51:02.324631  7008 net.cpp:157] Top shape: 8 512 38 38 (5914624)
I0702 17:51:02.324631  7008 net.cpp:157] Top shape: 8 512 38 38 (5914624)
I0702 17:51:02.324631  7008 net.cpp:165] Memory required for data: 1976877088
I0702 17:51:02.324631  7008 layer_factory.hpp:77] Creating layer conv4_3_norm_mbox_loc
I0702 17:51:02.324631  7008 net.cpp:100] Creating Layer conv4_3_norm_mbox_loc
I0702 17:51:02.324631  7008 net.cpp:434] conv4_3_norm_mbox_loc <- conv4_3_norm_conv4_3_norm_0_split_0
I0702 17:51:02.324631  7008 net.cpp:408] conv4_3_norm_mbox_loc -> conv4_3_norm_mbox_loc
I0702 17:51:02.327623  7008 net.cpp:150] Setting up conv4_3_norm_mbox_loc
I0702 17:51:02.327623  7008 net.cpp:157] Top shape: 8 16 38 38 (184832)
I0702 17:51:02.327623  7008 net.cpp:165] Memory required for data: 1977616416
I0702 17:51:02.327623  7008 layer_factory.hpp:77] Creating layer conv4_3_norm_mbox_loc_perm
I0702 17:51:02.327623  7008 net.cpp:100] Creating Layer conv4_3_norm_mbox_loc_perm
I0702 17:51:02.327623  7008 net.cpp:434] conv4_3_norm_mbox_loc_perm <- conv4_3_norm_mbox_loc
I0702 17:51:02.327623  7008 net.cpp:408] conv4_3_norm_mbox_loc_perm -> conv4_3_norm_mbox_loc_perm
I0702 17:51:02.327623  7008 net.cpp:150] Setting up conv4_3_norm_mbox_loc_perm
I0702 17:51:02.327623  7008 net.cpp:157] Top shape: 8 38 38 16 (184832)
I0702 17:51:02.327623  7008 net.cpp:165] Memory required for data: 1978355744
I0702 17:51:02.327623  7008 layer_factory.hpp:77] Creating layer conv4_3_norm_mbox_loc_flat
I0702 17:51:02.327623  7008 net.cpp:100] Creating Layer conv4_3_norm_mbox_loc_flat
I0702 17:51:02.327623  7008 net.cpp:434] conv4_3_norm_mbox_loc_flat <- conv4_3_norm_mbox_loc_perm
I0702 17:51:02.327623  7008 net.cpp:408] conv4_3_norm_mbox_loc_flat -> conv4_3_norm_mbox_loc_flat
I0702 17:51:02.327623  7008 net.cpp:150] Setting up conv4_3_norm_mbox_loc_flat
I0702 17:51:02.327623  7008 net.cpp:157] Top shape: 8 23104 (184832)
I0702 17:51:02.327623  7008 net.cpp:165] Memory required for data: 1979095072
I0702 17:51:02.327623  7008 layer_factory.hpp:77] Creating layer conv4_3_norm_mbox_conf
I0702 17:51:02.327623  7008 net.cpp:100] Creating Layer conv4_3_norm_mbox_conf
I0702 17:51:02.327623  7008 net.cpp:434] conv4_3_norm_mbox_conf <- conv4_3_norm_conv4_3_norm_0_split_1
I0702 17:51:02.327623  7008 net.cpp:408] conv4_3_norm_mbox_conf -> conv4_3_norm_mbox_conf
I0702 17:51:02.330615  7008 net.cpp:150] Setting up conv4_3_norm_mbox_conf
I0702 17:51:02.330615  7008 net.cpp:157] Top shape: 8 12 38 38 (138624)
I0702 17:51:02.330615  7008 net.cpp:165] Memory required for data: 1979649568
I0702 17:51:02.330615  7008 layer_factory.hpp:77] Creating layer conv4_3_norm_mbox_conf_perm
I0702 17:51:02.330615  7008 net.cpp:100] Creating Layer conv4_3_norm_mbox_conf_perm
I0702 17:51:02.330615  7008 net.cpp:434] conv4_3_norm_mbox_conf_perm <- conv4_3_norm_mbox_conf
I0702 17:51:02.330615  7008 net.cpp:408] conv4_3_norm_mbox_conf_perm -> conv4_3_norm_mbox_conf_perm
I0702 17:51:02.330615  7008 net.cpp:150] Setting up conv4_3_norm_mbox_conf_perm
I0702 17:51:02.330615  7008 net.cpp:157] Top shape: 8 38 38 12 (138624)
I0702 17:51:02.330615  7008 net.cpp:165] Memory required for data: 1980204064
I0702 17:51:02.330615  7008 layer_factory.hpp:77] Creating layer conv4_3_norm_mbox_conf_flat
I0702 17:51:02.330615  7008 net.cpp:100] Creating Layer conv4_3_norm_mbox_conf_flat
I0702 17:51:02.330615  7008 net.cpp:434] conv4_3_norm_mbox_conf_flat <- conv4_3_norm_mbox_conf_perm
I0702 17:51:02.330615  7008 net.cpp:408] conv4_3_norm_mbox_conf_flat -> conv4_3_norm_mbox_conf_flat
I0702 17:51:02.330615  7008 net.cpp:150] Setting up conv4_3_norm_mbox_conf_flat
I0702 17:51:02.330615  7008 net.cpp:157] Top shape: 8 17328 (138624)
I0702 17:51:02.330615  7008 net.cpp:165] Memory required for data: 1980758560
I0702 17:51:02.330615  7008 layer_factory.hpp:77] Creating layer conv4_3_norm_mbox_priorbox
I0702 17:51:02.330615  7008 net.cpp:100] Creating Layer conv4_3_norm_mbox_priorbox
I0702 17:51:02.330615  7008 net.cpp:434] conv4_3_norm_mbox_priorbox <- conv4_3_norm_conv4_3_norm_0_split_2
I0702 17:51:02.330615  7008 net.cpp:434] conv4_3_norm_mbox_priorbox <- data_data_0_split_1
I0702 17:51:02.330615  7008 net.cpp:408] conv4_3_norm_mbox_priorbox -> conv4_3_norm_mbox_priorbox
I0702 17:51:02.330615  7008 net.cpp:150] Setting up conv4_3_norm_mbox_priorbox
I0702 17:51:02.330615  7008 net.cpp:157] Top shape: 1 2 23104 (46208)
I0702 17:51:02.330615  7008 net.cpp:165] Memory required for data: 1980943392
I0702 17:51:02.330615  7008 layer_factory.hpp:77] Creating layer fc7_mbox_loc
I0702 17:51:02.330615  7008 net.cpp:100] Creating Layer fc7_mbox_loc
I0702 17:51:02.330615  7008 net.cpp:434] fc7_mbox_loc <- fc7_relu7_0_split_1
I0702 17:51:02.330615  7008 net.cpp:408] fc7_mbox_loc -> fc7_mbox_loc
I0702 17:51:02.334605  7008 net.cpp:150] Setting up fc7_mbox_loc
I0702 17:51:02.334605  7008 net.cpp:157] Top shape: 8 24 19 19 (69312)
I0702 17:51:02.334605  7008 net.cpp:165] Memory required for data: 1981220640
I0702 17:51:02.334605  7008 layer_factory.hpp:77] Creating layer fc7_mbox_loc_perm
I0702 17:51:02.334605  7008 net.cpp:100] Creating Layer fc7_mbox_loc_perm
I0702 17:51:02.334605  7008 net.cpp:434] fc7_mbox_loc_perm <- fc7_mbox_loc
I0702 17:51:02.334605  7008 net.cpp:408] fc7_mbox_loc_perm -> fc7_mbox_loc_perm
I0702 17:51:02.334605  7008 net.cpp:150] Setting up fc7_mbox_loc_perm
I0702 17:51:02.334605  7008 net.cpp:157] Top shape: 8 19 19 24 (69312)
I0702 17:51:02.334605  7008 net.cpp:165] Memory required for data: 1981497888
I0702 17:51:02.334605  7008 layer_factory.hpp:77] Creating layer fc7_mbox_loc_flat
I0702 17:51:02.334605  7008 net.cpp:100] Creating Layer fc7_mbox_loc_flat
I0702 17:51:02.334605  7008 net.cpp:434] fc7_mbox_loc_flat <- fc7_mbox_loc_perm
I0702 17:51:02.334605  7008 net.cpp:408] fc7_mbox_loc_flat -> fc7_mbox_loc_flat
I0702 17:51:02.334605  7008 net.cpp:150] Setting up fc7_mbox_loc_flat
I0702 17:51:02.334605  7008 net.cpp:157] Top shape: 8 8664 (69312)
I0702 17:51:02.334605  7008 net.cpp:165] Memory required for data: 1981775136
I0702 17:51:02.334605  7008 layer_factory.hpp:77] Creating layer fc7_mbox_conf
I0702 17:51:02.334605  7008 net.cpp:100] Creating Layer fc7_mbox_conf
I0702 17:51:02.334605  7008 net.cpp:434] fc7_mbox_conf <- fc7_relu7_0_split_2
I0702 17:51:02.334605  7008 net.cpp:408] fc7_mbox_conf -> fc7_mbox_conf
I0702 17:51:02.338596  7008 net.cpp:150] Setting up fc7_mbox_conf
I0702 17:51:02.338596  7008 net.cpp:157] Top shape: 8 18 19 19 (51984)
I0702 17:51:02.338596  7008 net.cpp:165] Memory required for data: 1981983072
I0702 17:51:02.338596  7008 layer_factory.hpp:77] Creating layer fc7_mbox_conf_perm
I0702 17:51:02.338596  7008 net.cpp:100] Creating Layer fc7_mbox_conf_perm
I0702 17:51:02.338596  7008 net.cpp:434] fc7_mbox_conf_perm <- fc7_mbox_conf
I0702 17:51:02.338596  7008 net.cpp:408] fc7_mbox_conf_perm -> fc7_mbox_conf_perm
I0702 17:51:02.338596  7008 net.cpp:150] Setting up fc7_mbox_conf_perm
I0702 17:51:02.338596  7008 net.cpp:157] Top shape: 8 19 19 18 (51984)
I0702 17:51:02.338596  7008 net.cpp:165] Memory required for data: 1982191008
I0702 17:51:02.338596  7008 layer_factory.hpp:77] Creating layer fc7_mbox_conf_flat
I0702 17:51:02.338596  7008 net.cpp:100] Creating Layer fc7_mbox_conf_flat
I0702 17:51:02.338596  7008 net.cpp:434] fc7_mbox_conf_flat <- fc7_mbox_conf_perm
I0702 17:51:02.338596  7008 net.cpp:408] fc7_mbox_conf_flat -> fc7_mbox_conf_flat
I0702 17:51:02.338596  7008 net.cpp:150] Setting up fc7_mbox_conf_flat
I0702 17:51:02.338596  7008 net.cpp:157] Top shape: 8 6498 (51984)
I0702 17:51:02.338596  7008 net.cpp:165] Memory required for data: 1982398944
I0702 17:51:02.338596  7008 layer_factory.hpp:77] Creating layer fc7_mbox_priorbox
I0702 17:51:02.338596  7008 net.cpp:100] Creating Layer fc7_mbox_priorbox
I0702 17:51:02.338596  7008 net.cpp:434] fc7_mbox_priorbox <- fc7_relu7_0_split_3
I0702 17:51:02.338596  7008 net.cpp:434] fc7_mbox_priorbox <- data_data_0_split_2
I0702 17:51:02.338596  7008 net.cpp:408] fc7_mbox_priorbox -> fc7_mbox_priorbox
I0702 17:51:02.338596  7008 net.cpp:150] Setting up fc7_mbox_priorbox
I0702 17:51:02.338596  7008 net.cpp:157] Top shape: 1 2 8664 (17328)
I0702 17:51:02.338596  7008 net.cpp:165] Memory required for data: 1982468256
I0702 17:51:02.338596  7008 layer_factory.hpp:77] Creating layer conv8_2_mbox_loc
I0702 17:51:02.338596  7008 net.cpp:100] Creating Layer conv8_2_mbox_loc
I0702 17:51:02.338596  7008 net.cpp:434] conv8_2_mbox_loc <- conv8_2_conv8_2_relu_0_split_1
I0702 17:51:02.338596  7008 net.cpp:408] conv8_2_mbox_loc -> conv8_2_mbox_loc
I0702 17:51:02.342583  7008 net.cpp:150] Setting up conv8_2_mbox_loc
I0702 17:51:02.342583  7008 net.cpp:157] Top shape: 8 24 10 10 (19200)
I0702 17:51:02.342583  7008 net.cpp:165] Memory required for data: 1982545056
I0702 17:51:02.342583  7008 layer_factory.hpp:77] Creating layer conv8_2_mbox_loc_perm
I0702 17:51:02.342583  7008 net.cpp:100] Creating Layer conv8_2_mbox_loc_perm
I0702 17:51:02.342583  7008 net.cpp:434] conv8_2_mbox_loc_perm <- conv8_2_mbox_loc
I0702 17:51:02.342583  7008 net.cpp:408] conv8_2_mbox_loc_perm -> conv8_2_mbox_loc_perm
I0702 17:51:02.342583  7008 net.cpp:150] Setting up conv8_2_mbox_loc_perm
I0702 17:51:02.342583  7008 net.cpp:157] Top shape: 8 10 10 24 (19200)
I0702 17:51:02.342583  7008 net.cpp:165] Memory required for data: 1982621856
I0702 17:51:02.342583  7008 layer_factory.hpp:77] Creating layer conv8_2_mbox_loc_flat
I0702 17:51:02.342583  7008 net.cpp:100] Creating Layer conv8_2_mbox_loc_flat
I0702 17:51:02.342583  7008 net.cpp:434] conv8_2_mbox_loc_flat <- conv8_2_mbox_loc_perm
I0702 17:51:02.342583  7008 net.cpp:408] conv8_2_mbox_loc_flat -> conv8_2_mbox_loc_flat
I0702 17:51:02.342583  7008 net.cpp:150] Setting up conv8_2_mbox_loc_flat
I0702 17:51:02.342583  7008 net.cpp:157] Top shape: 8 2400 (19200)
I0702 17:51:02.342583  7008 net.cpp:165] Memory required for data: 1982698656
I0702 17:51:02.342583  7008 layer_factory.hpp:77] Creating layer conv8_2_mbox_conf
I0702 17:51:02.342583  7008 net.cpp:100] Creating Layer conv8_2_mbox_conf
I0702 17:51:02.342583  7008 net.cpp:434] conv8_2_mbox_conf <- conv8_2_conv8_2_relu_0_split_2
I0702 17:51:02.342583  7008 net.cpp:408] conv8_2_mbox_conf -> conv8_2_mbox_conf
I0702 17:51:02.344578  7008 net.cpp:150] Setting up conv8_2_mbox_conf
I0702 17:51:02.345577  7008 net.cpp:157] Top shape: 8 18 10 10 (14400)
I0702 17:51:02.345577  7008 net.cpp:165] Memory required for data: 1982756256
I0702 17:51:02.345577  7008 layer_factory.hpp:77] Creating layer conv8_2_mbox_conf_perm
I0702 17:51:02.345577  7008 net.cpp:100] Creating Layer conv8_2_mbox_conf_perm
I0702 17:51:02.345577  7008 net.cpp:434] conv8_2_mbox_conf_perm <- conv8_2_mbox_conf
I0702 17:51:02.345577  7008 net.cpp:408] conv8_2_mbox_conf_perm -> conv8_2_mbox_conf_perm
I0702 17:51:02.345577  7008 net.cpp:150] Setting up conv8_2_mbox_conf_perm
I0702 17:51:02.345577  7008 net.cpp:157] Top shape: 8 10 10 18 (14400)
I0702 17:51:02.345577  7008 net.cpp:165] Memory required for data: 1982813856
I0702 17:51:02.345577  7008 layer_factory.hpp:77] Creating layer conv8_2_mbox_conf_flat
I0702 17:51:02.345577  7008 net.cpp:100] Creating Layer conv8_2_mbox_conf_flat
I0702 17:51:02.345577  7008 net.cpp:434] conv8_2_mbox_conf_flat <- conv8_2_mbox_conf_perm
I0702 17:51:02.345577  7008 net.cpp:408] conv8_2_mbox_conf_flat -> conv8_2_mbox_conf_flat
I0702 17:51:02.345577  7008 net.cpp:150] Setting up conv8_2_mbox_conf_flat
I0702 17:51:02.345577  7008 net.cpp:157] Top shape: 8 1800 (14400)
I0702 17:51:02.345577  7008 net.cpp:165] Memory required for data: 1982871456
I0702 17:51:02.345577  7008 layer_factory.hpp:77] Creating layer conv8_2_mbox_priorbox
I0702 17:51:02.345577  7008 net.cpp:100] Creating Layer conv8_2_mbox_priorbox
I0702 17:51:02.345577  7008 net.cpp:434] conv8_2_mbox_priorbox <- conv8_2_conv8_2_relu_0_split_3
I0702 17:51:02.345577  7008 net.cpp:434] conv8_2_mbox_priorbox <- data_data_0_split_3
I0702 17:51:02.345577  7008 net.cpp:408] conv8_2_mbox_priorbox -> conv8_2_mbox_priorbox
I0702 17:51:02.345577  7008 net.cpp:150] Setting up conv8_2_mbox_priorbox
I0702 17:51:02.345577  7008 net.cpp:157] Top shape: 1 2 2400 (4800)
I0702 17:51:02.345577  7008 net.cpp:165] Memory required for data: 1982890656
I0702 17:51:02.345577  7008 layer_factory.hpp:77] Creating layer conv9_2_mbox_loc
I0702 17:51:02.345577  7008 net.cpp:100] Creating Layer conv9_2_mbox_loc
I0702 17:51:02.345577  7008 net.cpp:434] conv9_2_mbox_loc <- conv9_2_conv9_2_relu_0_split_1
I0702 17:51:02.345577  7008 net.cpp:408] conv9_2_mbox_loc -> conv9_2_mbox_loc
I0702 17:51:02.348567  7008 net.cpp:150] Setting up conv9_2_mbox_loc
I0702 17:51:02.348567  7008 net.cpp:157] Top shape: 8 24 5 5 (4800)
I0702 17:51:02.348567  7008 net.cpp:165] Memory required for data: 1982909856
I0702 17:51:02.348567  7008 layer_factory.hpp:77] Creating layer conv9_2_mbox_loc_perm
I0702 17:51:02.348567  7008 net.cpp:100] Creating Layer conv9_2_mbox_loc_perm
I0702 17:51:02.348567  7008 net.cpp:434] conv9_2_mbox_loc_perm <- conv9_2_mbox_loc
I0702 17:51:02.348567  7008 net.cpp:408] conv9_2_mbox_loc_perm -> conv9_2_mbox_loc_perm
I0702 17:51:02.348567  7008 net.cpp:150] Setting up conv9_2_mbox_loc_perm
I0702 17:51:02.348567  7008 net.cpp:157] Top shape: 8 5 5 24 (4800)
I0702 17:51:02.348567  7008 net.cpp:165] Memory required for data: 1982929056
I0702 17:51:02.348567  7008 layer_factory.hpp:77] Creating layer conv9_2_mbox_loc_flat
I0702 17:51:02.348567  7008 net.cpp:100] Creating Layer conv9_2_mbox_loc_flat
I0702 17:51:02.348567  7008 net.cpp:434] conv9_2_mbox_loc_flat <- conv9_2_mbox_loc_perm
I0702 17:51:02.348567  7008 net.cpp:408] conv9_2_mbox_loc_flat -> conv9_2_mbox_loc_flat
I0702 17:51:02.348567  7008 net.cpp:150] Setting up conv9_2_mbox_loc_flat
I0702 17:51:02.348567  7008 net.cpp:157] Top shape: 8 600 (4800)
I0702 17:51:02.348567  7008 net.cpp:165] Memory required for data: 1982948256
I0702 17:51:02.348567  7008 layer_factory.hpp:77] Creating layer conv9_2_mbox_conf
I0702 17:51:02.348567  7008 net.cpp:100] Creating Layer conv9_2_mbox_conf
I0702 17:51:02.348567  7008 net.cpp:434] conv9_2_mbox_conf <- conv9_2_conv9_2_relu_0_split_2
I0702 17:51:02.348567  7008 net.cpp:408] conv9_2_mbox_conf -> conv9_2_mbox_conf
I0702 17:51:02.351559  7008 net.cpp:150] Setting up conv9_2_mbox_conf
I0702 17:51:02.351559  7008 net.cpp:157] Top shape: 8 18 5 5 (3600)
I0702 17:51:02.351559  7008 net.cpp:165] Memory required for data: 1982962656
I0702 17:51:02.351559  7008 layer_factory.hpp:77] Creating layer conv9_2_mbox_conf_perm
I0702 17:51:02.351559  7008 net.cpp:100] Creating Layer conv9_2_mbox_conf_perm
I0702 17:51:02.351559  7008 net.cpp:434] conv9_2_mbox_conf_perm <- conv9_2_mbox_conf
I0702 17:51:02.351559  7008 net.cpp:408] conv9_2_mbox_conf_perm -> conv9_2_mbox_conf_perm
I0702 17:51:02.351559  7008 net.cpp:150] Setting up conv9_2_mbox_conf_perm
I0702 17:51:02.351559  7008 net.cpp:157] Top shape: 8 5 5 18 (3600)
I0702 17:51:02.351559  7008 net.cpp:165] Memory required for data: 1982977056
I0702 17:51:02.351559  7008 layer_factory.hpp:77] Creating layer conv9_2_mbox_conf_flat
I0702 17:51:02.351559  7008 net.cpp:100] Creating Layer conv9_2_mbox_conf_flat
I0702 17:51:02.351559  7008 net.cpp:434] conv9_2_mbox_conf_flat <- conv9_2_mbox_conf_perm
I0702 17:51:02.351559  7008 net.cpp:408] conv9_2_mbox_conf_flat -> conv9_2_mbox_conf_flat
I0702 17:51:02.351559  7008 net.cpp:150] Setting up conv9_2_mbox_conf_flat
I0702 17:51:02.351559  7008 net.cpp:157] Top shape: 8 450 (3600)
I0702 17:51:02.351559  7008 net.cpp:165] Memory required for data: 1982991456
I0702 17:51:02.351559  7008 layer_factory.hpp:77] Creating layer conv9_2_mbox_priorbox
I0702 17:51:02.351559  7008 net.cpp:100] Creating Layer conv9_2_mbox_priorbox
I0702 17:51:02.351559  7008 net.cpp:434] conv9_2_mbox_priorbox <- conv9_2_conv9_2_relu_0_split_3
I0702 17:51:02.351559  7008 net.cpp:434] conv9_2_mbox_priorbox <- data_data_0_split_4
I0702 17:51:02.351559  7008 net.cpp:408] conv9_2_mbox_priorbox -> conv9_2_mbox_priorbox
I0702 17:51:02.351559  7008 net.cpp:150] Setting up conv9_2_mbox_priorbox
I0702 17:51:02.351559  7008 net.cpp:157] Top shape: 1 2 600 (1200)
I0702 17:51:02.351559  7008 net.cpp:165] Memory required for data: 1982996256
I0702 17:51:02.351559  7008 layer_factory.hpp:77] Creating layer conv10_2_mbox_loc
I0702 17:51:02.351559  7008 net.cpp:100] Creating Layer conv10_2_mbox_loc
I0702 17:51:02.351559  7008 net.cpp:434] conv10_2_mbox_loc <- conv10_2_conv10_2_relu_0_split_1
I0702 17:51:02.351559  7008 net.cpp:408] conv10_2_mbox_loc -> conv10_2_mbox_loc
I0702 17:51:02.354552  7008 net.cpp:150] Setting up conv10_2_mbox_loc
I0702 17:51:02.354552  7008 net.cpp:157] Top shape: 8 16 3 3 (1152)
I0702 17:51:02.354552  7008 net.cpp:165] Memory required for data: 1983000864
I0702 17:51:02.354552  7008 layer_factory.hpp:77] Creating layer conv10_2_mbox_loc_perm
I0702 17:51:02.354552  7008 net.cpp:100] Creating Layer conv10_2_mbox_loc_perm
I0702 17:51:02.354552  7008 net.cpp:434] conv10_2_mbox_loc_perm <- conv10_2_mbox_loc
I0702 17:51:02.354552  7008 net.cpp:408] conv10_2_mbox_loc_perm -> conv10_2_mbox_loc_perm
I0702 17:51:02.354552  7008 net.cpp:150] Setting up conv10_2_mbox_loc_perm
I0702 17:51:02.354552  7008 net.cpp:157] Top shape: 8 3 3 16 (1152)
I0702 17:51:02.354552  7008 net.cpp:165] Memory required for data: 1983005472
I0702 17:51:02.354552  7008 layer_factory.hpp:77] Creating layer conv10_2_mbox_loc_flat
I0702 17:51:02.354552  7008 net.cpp:100] Creating Layer conv10_2_mbox_loc_flat
I0702 17:51:02.354552  7008 net.cpp:434] conv10_2_mbox_loc_flat <- conv10_2_mbox_loc_perm
I0702 17:51:02.354552  7008 net.cpp:408] conv10_2_mbox_loc_flat -> conv10_2_mbox_loc_flat
I0702 17:51:02.354552  7008 net.cpp:150] Setting up conv10_2_mbox_loc_flat
I0702 17:51:02.354552  7008 net.cpp:157] Top shape: 8 144 (1152)
I0702 17:51:02.354552  7008 net.cpp:165] Memory required for data: 1983010080
I0702 17:51:02.354552  7008 layer_factory.hpp:77] Creating layer conv10_2_mbox_conf
I0702 17:51:02.354552  7008 net.cpp:100] Creating Layer conv10_2_mbox_conf
I0702 17:51:02.354552  7008 net.cpp:434] conv10_2_mbox_conf <- conv10_2_conv10_2_relu_0_split_2
I0702 17:51:02.354552  7008 net.cpp:408] conv10_2_mbox_conf -> conv10_2_mbox_conf
I0702 17:51:02.356546  7008 net.cpp:150] Setting up conv10_2_mbox_conf
I0702 17:51:02.356546  7008 net.cpp:157] Top shape: 8 12 3 3 (864)
I0702 17:51:02.356546  7008 net.cpp:165] Memory required for data: 1983013536
I0702 17:51:02.356546  7008 layer_factory.hpp:77] Creating layer conv10_2_mbox_conf_perm
I0702 17:51:02.356546  7008 net.cpp:100] Creating Layer conv10_2_mbox_conf_perm
I0702 17:51:02.356546  7008 net.cpp:434] conv10_2_mbox_conf_perm <- conv10_2_mbox_conf
I0702 17:51:02.356546  7008 net.cpp:408] conv10_2_mbox_conf_perm -> conv10_2_mbox_conf_perm
I0702 17:51:02.356546  7008 net.cpp:150] Setting up conv10_2_mbox_conf_perm
I0702 17:51:02.356546  7008 net.cpp:157] Top shape: 8 3 3 12 (864)
I0702 17:51:02.356546  7008 net.cpp:165] Memory required for data: 1983016992
I0702 17:51:02.356546  7008 layer_factory.hpp:77] Creating layer conv10_2_mbox_conf_flat
I0702 17:51:02.356546  7008 net.cpp:100] Creating Layer conv10_2_mbox_conf_flat
I0702 17:51:02.356546  7008 net.cpp:434] conv10_2_mbox_conf_flat <- conv10_2_mbox_conf_perm
I0702 17:51:02.356546  7008 net.cpp:408] conv10_2_mbox_conf_flat -> conv10_2_mbox_conf_flat
I0702 17:51:02.356546  7008 net.cpp:150] Setting up conv10_2_mbox_conf_flat
I0702 17:51:02.356546  7008 net.cpp:157] Top shape: 8 108 (864)
I0702 17:51:02.356546  7008 net.cpp:165] Memory required for data: 1983020448
I0702 17:51:02.356546  7008 layer_factory.hpp:77] Creating layer conv10_2_mbox_priorbox
I0702 17:51:02.356546  7008 net.cpp:100] Creating Layer conv10_2_mbox_priorbox
I0702 17:51:02.356546  7008 net.cpp:434] conv10_2_mbox_priorbox <- conv10_2_conv10_2_relu_0_split_3
I0702 17:51:02.357543  7008 net.cpp:434] conv10_2_mbox_priorbox <- data_data_0_split_5
I0702 17:51:02.357543  7008 net.cpp:408] conv10_2_mbox_priorbox -> conv10_2_mbox_priorbox
I0702 17:51:02.357543  7008 net.cpp:150] Setting up conv10_2_mbox_priorbox
I0702 17:51:02.357543  7008 net.cpp:157] Top shape: 1 2 144 (288)
I0702 17:51:02.357543  7008 net.cpp:165] Memory required for data: 1983021600
I0702 17:51:02.357543  7008 layer_factory.hpp:77] Creating layer conv11_2_mbox_loc
I0702 17:51:02.357543  7008 net.cpp:100] Creating Layer conv11_2_mbox_loc
I0702 17:51:02.357543  7008 net.cpp:434] conv11_2_mbox_loc <- conv11_2_conv11_2_relu_0_split_0
I0702 17:51:02.357543  7008 net.cpp:408] conv11_2_mbox_loc -> conv11_2_mbox_loc
I0702 17:51:02.359539  7008 net.cpp:150] Setting up conv11_2_mbox_loc
I0702 17:51:02.359539  7008 net.cpp:157] Top shape: 8 16 1 1 (128)
I0702 17:51:02.359539  7008 net.cpp:165] Memory required for data: 1983022112
I0702 17:51:02.359539  7008 layer_factory.hpp:77] Creating layer conv11_2_mbox_loc_perm
I0702 17:51:02.359539  7008 net.cpp:100] Creating Layer conv11_2_mbox_loc_perm
I0702 17:51:02.360535  7008 net.cpp:434] conv11_2_mbox_loc_perm <- conv11_2_mbox_loc
I0702 17:51:02.360535  7008 net.cpp:408] conv11_2_mbox_loc_perm -> conv11_2_mbox_loc_perm
I0702 17:51:02.360535  7008 net.cpp:150] Setting up conv11_2_mbox_loc_perm
I0702 17:51:02.360535  7008 net.cpp:157] Top shape: 8 1 1 16 (128)
I0702 17:51:02.360535  7008 net.cpp:165] Memory required for data: 1983022624
I0702 17:51:02.360535  7008 layer_factory.hpp:77] Creating layer conv11_2_mbox_loc_flat
I0702 17:51:02.360535  7008 net.cpp:100] Creating Layer conv11_2_mbox_loc_flat
I0702 17:51:02.360535  7008 net.cpp:434] conv11_2_mbox_loc_flat <- conv11_2_mbox_loc_perm
I0702 17:51:02.360535  7008 net.cpp:408] conv11_2_mbox_loc_flat -> conv11_2_mbox_loc_flat
I0702 17:51:02.360535  7008 net.cpp:150] Setting up conv11_2_mbox_loc_flat
I0702 17:51:02.360535  7008 net.cpp:157] Top shape: 8 16 (128)
I0702 17:51:02.360535  7008 net.cpp:165] Memory required for data: 1983023136
I0702 17:51:02.360535  7008 layer_factory.hpp:77] Creating layer conv11_2_mbox_conf
I0702 17:51:02.360535  7008 net.cpp:100] Creating Layer conv11_2_mbox_conf
I0702 17:51:02.360535  7008 net.cpp:434] conv11_2_mbox_conf <- conv11_2_conv11_2_relu_0_split_1
I0702 17:51:02.360535  7008 net.cpp:408] conv11_2_mbox_conf -> conv11_2_mbox_conf
I0702 17:51:02.363528  7008 net.cpp:150] Setting up conv11_2_mbox_conf
I0702 17:51:02.363528  7008 net.cpp:157] Top shape: 8 12 1 1 (96)
I0702 17:51:02.363528  7008 net.cpp:165] Memory required for data: 1983023520
I0702 17:51:02.363528  7008 layer_factory.hpp:77] Creating layer conv11_2_mbox_conf_perm
I0702 17:51:02.363528  7008 net.cpp:100] Creating Layer conv11_2_mbox_conf_perm
I0702 17:51:02.363528  7008 net.cpp:434] conv11_2_mbox_conf_perm <- conv11_2_mbox_conf
I0702 17:51:02.363528  7008 net.cpp:408] conv11_2_mbox_conf_perm -> conv11_2_mbox_conf_perm
I0702 17:51:02.363528  7008 net.cpp:150] Setting up conv11_2_mbox_conf_perm
I0702 17:51:02.363528  7008 net.cpp:157] Top shape: 8 1 1 12 (96)
I0702 17:51:02.363528  7008 net.cpp:165] Memory required for data: 1983023904
I0702 17:51:02.363528  7008 layer_factory.hpp:77] Creating layer conv11_2_mbox_conf_flat
I0702 17:51:02.363528  7008 net.cpp:100] Creating Layer conv11_2_mbox_conf_flat
I0702 17:51:02.363528  7008 net.cpp:434] conv11_2_mbox_conf_flat <- conv11_2_mbox_conf_perm
I0702 17:51:02.363528  7008 net.cpp:408] conv11_2_mbox_conf_flat -> conv11_2_mbox_conf_flat
I0702 17:51:02.363528  7008 net.cpp:150] Setting up conv11_2_mbox_conf_flat
I0702 17:51:02.363528  7008 net.cpp:157] Top shape: 8 12 (96)
I0702 17:51:02.363528  7008 net.cpp:165] Memory required for data: 1983024288
I0702 17:51:02.363528  7008 layer_factory.hpp:77] Creating layer conv11_2_mbox_priorbox
I0702 17:51:02.363528  7008 net.cpp:100] Creating Layer conv11_2_mbox_priorbox
I0702 17:51:02.363528  7008 net.cpp:434] conv11_2_mbox_priorbox <- conv11_2_conv11_2_relu_0_split_2
I0702 17:51:02.363528  7008 net.cpp:434] conv11_2_mbox_priorbox <- data_data_0_split_6
I0702 17:51:02.363528  7008 net.cpp:408] conv11_2_mbox_priorbox -> conv11_2_mbox_priorbox
I0702 17:51:02.363528  7008 net.cpp:150] Setting up conv11_2_mbox_priorbox
I0702 17:51:02.363528  7008 net.cpp:157] Top shape: 1 2 16 (32)
I0702 17:51:02.363528  7008 net.cpp:165] Memory required for data: 1983024416
I0702 17:51:02.363528  7008 layer_factory.hpp:77] Creating layer mbox_loc
I0702 17:51:02.363528  7008 net.cpp:100] Creating Layer mbox_loc
I0702 17:51:02.363528  7008 net.cpp:434] mbox_loc <- conv4_3_norm_mbox_loc_flat
I0702 17:51:02.363528  7008 net.cpp:434] mbox_loc <- fc7_mbox_loc_flat
I0702 17:51:02.363528  7008 net.cpp:434] mbox_loc <- conv8_2_mbox_loc_flat
I0702 17:51:02.363528  7008 net.cpp:434] mbox_loc <- conv9_2_mbox_loc_flat
I0702 17:51:02.363528  7008 net.cpp:434] mbox_loc <- conv10_2_mbox_loc_flat
I0702 17:51:02.363528  7008 net.cpp:434] mbox_loc <- conv11_2_mbox_loc_flat
I0702 17:51:02.363528  7008 net.cpp:408] mbox_loc -> mbox_loc
I0702 17:51:02.363528  7008 net.cpp:150] Setting up mbox_loc
I0702 17:51:02.363528  7008 net.cpp:157] Top shape: 8 34928 (279424)
I0702 17:51:02.363528  7008 net.cpp:165] Memory required for data: 1984142112
I0702 17:51:02.363528  7008 layer_factory.hpp:77] Creating layer mbox_conf
I0702 17:51:02.363528  7008 net.cpp:100] Creating Layer mbox_conf
I0702 17:51:02.363528  7008 net.cpp:434] mbox_conf <- conv4_3_norm_mbox_conf_flat
I0702 17:51:02.363528  7008 net.cpp:434] mbox_conf <- fc7_mbox_conf_flat
I0702 17:51:02.363528  7008 net.cpp:434] mbox_conf <- conv8_2_mbox_conf_flat
I0702 17:51:02.363528  7008 net.cpp:434] mbox_conf <- conv9_2_mbox_conf_flat
I0702 17:51:02.363528  7008 net.cpp:434] mbox_conf <- conv10_2_mbox_conf_flat
I0702 17:51:02.363528  7008 net.cpp:434] mbox_conf <- conv11_2_mbox_conf_flat
I0702 17:51:02.363528  7008 net.cpp:408] mbox_conf -> mbox_conf
I0702 17:51:02.363528  7008 net.cpp:150] Setting up mbox_conf
I0702 17:51:02.363528  7008 net.cpp:157] Top shape: 8 26196 (209568)
I0702 17:51:02.363528  7008 net.cpp:165] Memory required for data: 1984980384
I0702 17:51:02.363528  7008 layer_factory.hpp:77] Creating layer mbox_priorbox
I0702 17:51:02.363528  7008 net.cpp:100] Creating Layer mbox_priorbox
I0702 17:51:02.363528  7008 net.cpp:434] mbox_priorbox <- conv4_3_norm_mbox_priorbox
I0702 17:51:02.363528  7008 net.cpp:434] mbox_priorbox <- fc7_mbox_priorbox
I0702 17:51:02.363528  7008 net.cpp:434] mbox_priorbox <- conv8_2_mbox_priorbox
I0702 17:51:02.363528  7008 net.cpp:434] mbox_priorbox <- conv9_2_mbox_priorbox
I0702 17:51:02.363528  7008 net.cpp:434] mbox_priorbox <- conv10_2_mbox_priorbox
I0702 17:51:02.363528  7008 net.cpp:434] mbox_priorbox <- conv11_2_mbox_priorbox
I0702 17:51:02.363528  7008 net.cpp:408] mbox_priorbox -> mbox_priorbox
I0702 17:51:02.363528  7008 net.cpp:150] Setting up mbox_priorbox
I0702 17:51:02.363528  7008 net.cpp:157] Top shape: 1 2 34928 (69856)
I0702 17:51:02.363528  7008 net.cpp:165] Memory required for data: 1985259808
I0702 17:51:02.363528  7008 layer_factory.hpp:77] Creating layer mbox_loss
I0702 17:51:02.363528  7008 net.cpp:100] Creating Layer mbox_loss
I0702 17:51:02.363528  7008 net.cpp:434] mbox_loss <- mbox_loc
I0702 17:51:02.363528  7008 net.cpp:434] mbox_loss <- mbox_conf
I0702 17:51:02.363528  7008 net.cpp:434] mbox_loss <- mbox_priorbox
…
  name: "data"
  type: "AnnotatedData"
  top: "data"
  top: "label"
  include {
    phase: TEST
  }
  transform_param {
    mean_value: 104
    mean_value: 117
    mean_value: 123
    force_color: true
    resize_param {
      prob: 1
      resize_mode: WARP
      height: 300
      width: 300
      interp_mode: LINEAR
    }
  }
  data_param {
    source: "examples\\wastedata\\wastedata_test_lmdb"
    batch_size: 2
    backend: LMDB
  }
  annotated_data_param {
    batch_sampler {
    }
    label_map_file: "data\\wastedata\\labelmap_waste.prototxt"
  }
}
layer {
  name: "conv1_1"
  type: "Convolution"
  bottom: "data"
  top: "conv1_1"
  param {
    lr_mult: 1
    decay_mult: 1
  }
  param {
    lr_mult: 1
    decay_mult: 0
  }
  convolution_param {
    num_output: 64
    pad: 1
    kernel_size: 3
    weight_filler {
      type: "xavier"
    }
    bias_filler {
      type: "constant"
      value: 0
    }
  }
}
layer {
  name: "relu1_1"
  type: "ReLU"
  bottom: "conv1_1"
  top: "conv1_1"
}
layer {
  name: "conv1_2"
  type: "Convolution"
  bottom: "conv1_1"
  top: "conv1_2"
  param {
    lr_mult: 1
    decay_mult: 1
  }
  param {
    lr_mult: 1
    decay_mult: 0
  }
  convolution_param {
    num_output: 64
    pad: 1
    kernel_size: 3
    weight_filler {
      type: "xavier"
    }
    bias_filler {
      type: "constant"
      value: 0
    }
  }
}
layer {
  name: "relu1_2"
  type: "ReLU"
  bottom: "conv1_2"
  top: "conv1_2"
}
layer {
  name: "pool1"
  type: "Pooling"
  bottom: "conv1_2"
  top: "pool1"
  pooling_param {
    pool: MAX
    kernel_size: 2
    stride: 2
  }
}
layer {
  name: "conv2_1"
  type: "Convolution"
  bottom: "pool1"
  top: "conv2_1"
  param {
    lr_mult: 1
    decay_mult: 1
  }
  param {
    lr_mult: 1
    decay_mult: 0
  }
  convolution_param {
    num_output: 128
    pad: 1
    kernel_size: 3
    weight_filler {
      type: "xavier"
    }
    bias_filler {
      type: "constant"
      value: 0
    }
  }
}
layer {
  name: "relu2_1"
  type: "ReLU"
  bottom: "conv2_1"
  top: "conv2_1"
}
layer {
  name: "conv2_2"
  type: "Convolution"
  bottom: "conv2_1"
  top: "conv2_2"
  param {
    lr_mult: 1
    decay_mult: 1
  }
  param {
    lr_mult: 1
    decay_mult: 0
  }
  convolution_param {
    num_output: 128
    pad: 1
    kernel_size: 3
    weight_filler {
      type: "xavier"
    }
    bias_filler {
      type: "constant"
      value: 0
    }
  }
}
layer {
  name: "relu2_2"
  type: "ReLU"
  bottom: "conv2_2"
  top: "conv2_2"
}
layer {
  name: "pool2"
  type: "Pooling"
  bottom: "conv2_2"
  top: "pool2"
  pooling_param {
    pool: MAX
    kernel_size: 2
    stride: 2
  }
}
layer {
  name: "conv3_1"
  type: "Convolution"
  bottom: "pool2"
  top: "conv3_1"
  param {
    lr_mult: 1
    decay_mult: 1
  }
  param {
    lr_mult: 1
    decay_mult: 0
  }
  convolution_param {
    num_output: 256
    pad: 1
    kernel_size: 3
    weight_filler {
      type: "xavier"
    }
    bias_filler {
      type: "constant"
      value: 0
    }
  }
}
layer {
  name: "relu3_1"
  type: "ReLU"
  bottom: "conv3_1"
  top: "conv3_1"
}
layer {
  name: "conv3_2"
  type: "Convolution"
  bottom: "conv3_1"
  top: "conv3_2"
  param {
    lr_mult: 1
    decay_mult: 1
  }
  param {
    lr_mult: 1
    decay_mult: 0
  }
  convolution_param {
    num_output: 256
    pad: 1
    kernel_size: 3
    weight_filler {
      type: "xavier"
    }
    bias_filler {
      type: "constant"
      value: 0
    }
  }
}
layer {
  name: "relu3_2"
  type: "ReLU"
  bottom: "conv3_2"
  top: "conv3_2"
}
layer {
  name: "conv3_3"
  type: "Convolution"
  bottom: "conv3_2"
  top: "conv3_3"
  param {
    lr_mult: 1
    decay_mult: 1
  }
  param {
    lr_mult: 1
    decay_mult: 0
  }
  convolution_param {
    num_output: 256
    pad: 1
    kernel_size: 3
    weight_filler {
      type: "xavier"
    }
    bias_filler {
      type: "constant"
      value: 0
    }
  }
}
layer {
  name: "relu3_3"
  type: "ReLU"
  bottom: "conv3_3"
  top: "conv3_3"
}
layer {
  name: "pool3"
  type: "Pooling"
  bottom: "conv3_3"
  top: "pool3"
  pooling_param {
    pool: MAX
    kernel_size: 2
    stride: 2
  }
}
layer {
  name: "conv4_1"
  type: "Convolution"
  bottom: "pool3"
  top: "conv4_1"
  param {
    lr_mult: 1
    decay_mult: 1
  }
  param {
    lr_mult: 1
    decay_mult: 0
  }
  convolution_param {
    num_output: 512
    pad: 1
    kernel_size: 3
    weight_filler {
      type: "xavier"
    }
    bias_filler {
      type: "constant"
      value: 0
    }
  }
}
layer {
  name: "relu4_1"
  type: "ReLU"
  bottom: "conv4_1"
  top: "conv4_1"
}
layer {
  name: "conv4_2"
  type: "Convolution"
  bottom: "conv4_1"
  top: "conv4_2"
  param {
    lr_mult: 1
    decay_mult: 1
  }
  param {
    lr_mult: 1
    decay_mult: 0
  }
  convolution_param {
    num_output: 512
    pad: 1
    kernel_size: 3
    weight_filler {
      type: "xavier"
    }
    bias_filler {
      type: "constant"
      value: 0
    }
  }
}
layer {
  name: "relu4_2"
  type: "ReLU"
  bottom: "conv4_2"
  top: "conv4_2"
}
layer {
  name: "conv4_3"
  type: "Convolution"
  bottom: "conv4_2"
  top: "conv4_3"
  param {
    lr_mult: 1
    decay_mult: 1
  }
  param {
    lr_mult: 1
    decay_mult: 0
  }
  convolution_param {
    num_output: 512
    pad: 1
    kernel_size: 3
    weight_filler {
      type: "xavier"
    }
    bias_filler {
      type: "constant"
      value: 0
    }
  }
}
layer {
  name: "relu4_3"
  type: "ReLU"
  bottom: "conv4_3"
  top: "conv4_3"
}
layer {
  name: "pool4"
  type: "Pooling"
  bottom: "conv4_3"
  top: "pool4"
  pooling_param {
    pool: MAX
    kernel_size: 2
    stride: 2
  }
}
layer {
  name: "conv5_1"
  type: "Convolution"
  bottom: "pool4"
  top: "conv5_1"
  param {
    lr_mult: 1
    decay_mult: 1
  }
  param {
    lr_mult: 1
    decay_mult: 0
  }
  convolution_param {
    num_output: 512
    pad: 1
    kernel_size: 3
    weight_filler {
      type: "xavier"
    }
    bias_filler {
      type: "constant"
      value: 0
    }
    dilation: 1
  }
}
layer {
  name: "relu5_1"
  type: "ReLU"
  bottom: "conv5_1"
  top: "conv5_1"
}
layer {
  name: "conv5_2"
  type: "Convolution"
  bottom: "conv5_1"
  top: "conv5_2"
  param {
    lr_mult: 1
    decay_mult: 1
  }
  param {
    lr_mult: 1
    decay_mult: 0
  }
  convolution_param {
    num_output: 512
    pad: 1
    kernel_size: 3
    weight_filler {
      type: "xavier"
    }
    bias_filler {
      type: "constant"
      value: 0
    }
    dilation: 1
  }
}
layer {
  name: "relu5_2"
  type: "ReLU"
  bottom: "conv5_2"
  top: "conv5_2"
}
layer {
  name: "conv5_3"
  type: "Convolution"
  bottom: "conv5_2"
  top: "conv5_3"
  param {
    lr_mult: 1
    decay_mult: 1
  }
  param {
    lr_mult: 1
    decay_mult: 0
  }
  convolution_param {
    num_output: 512
    pad: 1
    kernel_size: 3
    weight_filler {
      type: "xavier"
    }
    bias_filler {
      type: "constant"
      value: 0
    }
    dilation: 1
  }
}
layer {
  name: "relu5_3"
  type: "ReLU"
  bottom: "conv5_3"
  top: "conv5_3"
}
layer {
  name: "pool5"
  type: "Pooling"
  bottom: "conv5_3"
  top: "pool5"
  pooling_param {
    pool: MAX
    kernel_size: 3
    stride: 1
    pad: 1
  }
}
layer {
  name: "fc6"
  type: "Convolution"
  bottom: "pool5"
  top: "fc6"
  param {
    lr_mult: 1
    decay_mult: 1
  }
  param {
    lr_mult: 1
    decay_mult: 0
  }
  convolution_param {
    num_output: 1024
    pad: 6
    kernel_size: 3
    weight_filler {
      type: "xavier"
    }
    bias_filler {
      type: "constant"
      value: 0
    }
    dilation: 6
  }
}
layer {
  name: "relu6"
  type: "ReLU"
  bottom: "fc6"
  top: "fc6"
}
layer {
  name: "fc7"
  type: "Convolution"
  bottom: "fc6"
  top: "fc7"
  param {
    lr_mult: 1
    decay_mult: 1
  }
  param {
    lr_mult: 1
    decay_mult: 0
  }
  convolution_param {
    num_output: 1024
    kernel_size: 1
    weight_filler {
      type: "xavier"
    }
    bias_filler {
      type: "constant"
      value: 0
    }
  }
}
layer {
  name: "relu7"
  type: "ReLU"
  bottom: "fc7"
  top: "fc7"
}
layer {
  name: "conv8_1"
  type: "Convolution"
  bottom: "fc7"
  top: "conv8_1"
  param {
    lr_mult: 1
    decay_mult: 1
  }
  param {
    lr_mult: 2
    decay_mult: 0
  }
  convolution_param {
    num_output: 256
    pad: 0
    kernel_size: 1
    stride: 1
    weight_filler {
      type: "xavier"
    }
    bias_filler {
      type: "constant"
      value: 0
    }
  }
}
layer {
  name: "conv8_1_relu"
  type: "ReLU"
  bottom: "conv8_1"
  top: "conv8_1"
}
layer {
  name: "conv8_2"
  type: "Convolution"
  bottom: "conv8_1"
  top: "conv8_2"
  param {
    lr_mult: 1
    decay_mult: 1
  }
  param {
    lr_mult: 2
    decay_mult: 0
  }
  convolution_param {
    num_output: 512
    pad: 1
    kernel_size: 3
    stride: 2
    weight_filler {
      type: "xavier"
    }
    bias_filler {
      type: "constant"
      value: 0
    }
  }
}
layer {
  name: "conv8_2_relu"
  type: "ReLU"
  bottom: "conv8_2"
  top: "conv8_2"
}
layer {
  name: "conv9_1"
  type: "Convolution"
  bottom: "conv8_2"
  top: "conv9_1"
  param {
    lr_mult: 1
    decay_mult: 1
  }
  param {
    lr_mult: 2
    decay_mult: 0
  }
  convolution_param {
    num_output: 128
    pad: 0
    kernel_size: 1
    stride: 1
    weight_filler {
      type: "xavier"
    }
    bias_filler {
      type: "constant"
      value: 0
    }
  }
}
layer {
  name: "conv9_1_relu"
  type: "ReLU"
  bottom: "conv9_1"
  top: "conv9_1"
}
layer {
  name: "conv9_2"
  type: "Convolution"
  bottom: "conv9_1"
  top: "conv9_2"
  param {
    lr_mult: 1
    decay_mult: 1
  }
  param {
    lr_mult: 2
    decay_mult: 0
  }
  convolution_param {
    num_output: 256
    pad: 1
    kernel_size: 3
    stride: 2
    weight_filler {
      type: "xavier"
    }
    bias_filler {
      type: "constant"
      value: 0
    }
  }
}
layer {
  name: "conv9_2_relu"
  type: "ReLU"
  bottom: "conv9_2"
  top: "conv9_2"
}
layer {
  name: "conv10_1"
  type: "Convolution"
  bottom: "conv9_2"
  top: "conv10_1"
  param {
    lr_mult: 1
    decay_mult: 1
  }
  param {
    lr_mult: 2
    decay_mult: 0
  }
  convolution_param {
    num_output: 128
    pad: 0
    kernel_size: 1
    stride: 1
    weight_filler {
      type: "xavier"
    }
    bias_filler {
      type: "constant"
      value: 0
    }
  }
}
layer {
  name: "conv10_1_relu"
  type: "ReLU"
  bottom: "conv10_1"
  top: "conv10_1"
}
layer {
  name: "conv10_2"
  type: "Convolution"
  bottom: "conv10_1"
  top: "conv10_2"
  param {
    lr_mult: 1
    decay_mult: 1
  }
  param {
    lr_mult: 2
    decay_mult: 0
  }
  convolution_param {
    num_output: 256
    pad: 0
    kernel_size: 3
    stride: 1
    weight_filler {
      type: "xavier"
    }
    bias_filler {
      type: "constant"
      value: 0
    }
  }
}
layer {
  name: "conv10_2_relu"
  type: "ReLU"
  bottom: "conv10_2"
  top: "conv10_2"
}
layer {
  name: "conv11_1"
  type: "Convolution"
  bottom: "conv10_2"
  top: "conv11_1"
  param {
    lr_mult: 1
    decay_mult: 1
  }
  param {
    lr_mult: 2
    decay_mult: 0
  }
  convolution_param {
    num_output: 128
    pad: 0
    kernel_size: 1
    stride: 1
    weight_filler {
      type: "xavier"
    }
    bias_filler {
      type: "constant"
      value: 0
    }
  }
}
layer {
  name: "conv11_1_relu"
  type: "ReLU"
  bottom: "conv11_1"
  top: "conv11_1"
}
layer {
  name: "conv11_2"
  type: "Convolution"
  bottom: "conv11_1"
  top: "conv11_2"
  param {
    lr_mult: 1
    decay_mult: 1
  }
  param {
    lr_mult: 2
    decay_mult: 0
  }
  convolution_param {
    num_output: 256
    pad: 0
    kernel_size: 3
    stride: 1
    weight_filler {
      type: "xavier"
    }
    bias_filler {
      type: "constant"
      value: 0
    }
  }
}
layer {
  name: "conv11_2_relu"
  type: "ReLU"
  bottom: "conv11_2"
  top: "conv11_2"
}
layer {
  name: "conv4_3_norm"
  type: "Normalize"
  bottom: "conv4_3"
  top: "conv4_3_norm"
  norm_param {
    across_spatial: false
    scale_filler {
      type: "constant"
      value: 20
    }
    channel_shared: false
  }
}
layer {
  name: "conv4_3_norm_mbox_loc"
  type: "Convolution"
  bottom: "conv4_3_norm"
  top: "conv4_3_norm_mbox_loc"
  param {
    lr_mult: 1
    decay_mult: 1
  }
  param {
    lr_mult: 2
    decay_mult: 0
  }
  convolution_param {
    num_output: 16
    pad: 1
    kernel_size: 3
    stride: 1
    weight_filler {
      type: "xavier"
    }
    bias_filler {
      type: "constant"
      value: 0
    }
  }
}
layer {
  name: "conv4_3_norm_mbox_loc_perm"
  type: "Permute"
  bottom: "conv4_3_norm_mbox_loc"
  top: "conv4_3_norm_mbox_loc_perm"
  permute_param {
    order: 0
    order: 2
    order: 3
    order: 1
  }
}
layer {
  name: "conv4_3_norm_mbox_loc_flat"
  type: "Flatten"
  bottom: "conv4_3_norm_mbox_loc_perm"
  top: "conv4_3_norm_mbox_loc_flat"
  flatten_param {
    axis: 1
  }
}
layer {
  name: "conv4_3_norm_mbox_conf"
  type: "Convolution"
  bottom: "conv4_3_norm"
  top: "conv4_3_norm_mbox_conf"
  param {
    lr_mult: 1
    decay_mult: 1
  }
  param {
    lr_mult: 2
    decay_mult: 0
  }
  convolution_param {
    num_output: 12
    pad: 1
    kernel_size: 3
    stride: 1
    weight_filler {
      type: "xavier"
    }
    bias_filler {
      type: "constant"
      value: 0
    }
  }
}
layer {
  name: "conv4_3_norm_mbox_conf_perm"
  type: "Permute"
  bottom: "conv4_3_norm_mbox_conf"
  top: "conv4_3_norm_mbox_conf_perm"
  permute_param {
    order: 0
    order: 2
    order: 3
    order: 1
  }
}
layer {
  name: "conv4_3_norm_mbox_conf_flat"
  type: "Flatten"
  bottom: "conv4_3_norm_mbox_conf_perm"
  top: "conv4_3_norm_mbox_conf_flat"
  flatten_param {
    axis: 1
  }
}
layer {
  name: "conv4_3_norm_mbox_priorbox"
  type: "PriorBox"
  bottom: "conv4_3_norm"
  bottom: "data"
  top: "conv4_3_norm_mbox_priorbox"
  prior_box_param {
    min_size: 30
    max_size: 60
    aspect_ratio: 2
    flip: true
    clip: false
    variance: 0.1
    variance: 0.1
    variance: 0.2
    variance: 0.2
    step: 8
    offset: 0.5
  }
}
layer {
  name: "fc7_mbox_loc"
  type: "Convolution"
  bottom: "fc7"
  top: "fc7_mbox_loc"
  param {
    lr_mult: 1
    decay_mult: 1
  }
  param {
    lr_mult: 2
    decay_mult: 0
  }
  convolution_param {
    num_output: 24
    pad: 1
    kernel_size: 3
    stride: 1
    weight_filler {
      type: "xavier"
    }
    bias_filler {
      type: "constant"
      value: 0
    }
  }
}
layer {
  name: "fc7_mbox_loc_perm"
  type: "Permute"
  bottom: "fc7_mbox_loc"
  top: "fc7_mbox_loc_perm"
  permute_param {
    order: 0
    order: 2
    order: 3
    order: 1
  }
}
layer {
  name: "fc7_mbox_loc_flat"
  type: "Flatten"
  bottom: "fc7_mbox_loc_perm"
  top: "fc7_mbox_loc_flat"
  flatten_param {
    axis: 1
  }
}
layer {
  name: "fc7_mbox_conf"
  type: "Convolution"
  bottom: "fc7"
  top: "fc7_mbox_conf"
  param {
    lr_mult: 1
    decay_mult: 1
  }
  param {
    lr_mult: 2
    decay_mult: 0
  }
  convolution_param {
    num_output: 18
    pad: 1
    kernel_size: 3
    stride: 1
    weight_filler {
      type: "xavier"
    }
    bias_filler {
      type: "constant"
      value: 0
    }
  }
}
layer {
  name: "fc7_mbox_conf_perm"
  type: "Permute"
  bottom: "fc7_mbox_conf"
  top: "fc7_mbox_conf_perm"
  permute_param {
    order: 0
    order: 2
    order: 3
    order: 1
  }
}
layer {
  name: "fc7_mbox_conf_flat"
  type: "Flatten"
  bottom: "fc7_mbox_conf_perm"
  top: "fc7_mbox_conf_flat"
  flatten_param {
    axis: 1
  }
}
layer {
  name: "fc7_mbox_priorbox"
  type: "PriorBox"
  bottom: "fc7"
  bottom: "data"
  top: "fc7_mbox_priorbox"
  prior_box_param {
    min_size: 60
    max_size: 111
    aspect_ratio: 2
    aspect_ratio: 3
    flip: true
    clip: false
    variance: 0.1
    variance: 0.1
    variance: 0.2
    variance: 0.2
    step: 16
    offset: 0.5
  }
}
layer {
  name: "conv8_2_mbox_loc"
  type: "Convolution"
  bottom: "conv8_2"
  top: "conv8_2_mbox_loc"
  param {
    lr_mult: 1
    decay_mult: 1
  }
  param {
    lr_mult: 2
    decay_mult: 0
  }
  convolution_param {
    num_output: 24
    pad: 1
    kernel_size: 3
    stride: 1
    weight_filler {
      type: "xavier"
    }
    bias_filler {
      type: "constant"
      value: 0
    }
  }
}
layer {
  name: "conv8_2_mbox_loc_perm"
  type: "Permute"
  bottom: "conv8_2_mbox_loc"
  top: "conv8_2_mbox_loc_perm"
  permute_param {
    order: 0
    order: 2
    order: 3
    order: 1
  }
}
layer {
  name: "conv8_2_mbox_loc_flat"
  type: "Flatten"
  bottom: "conv8_2_mbox_loc_perm"
  top: "conv8_2_mbox_loc_flat"
  flatten_param {
    axis: 1
  }
}
layer {
  name: "conv8_2_mbox_conf"
  type: "Convolution"
  bottom: "conv8_2"
  top: "conv8_2_mbox_conf"
  param {
    lr_mult: 1
    decay_mult: 1
  }
  param {
    lr_mult: 2
    decay_mult: 0
  }
  convolution_param {
    num_output: 18
    pad: 1
    kernel_size: 3
    stride: 1
    weight_filler {
      type: "xavier"
    }
    bias_filler {
      type: "constant"
      value: 0
    }
  }
}
layer {
  name: "conv8_2_mbox_conf_perm"
  type: "Permute"
  bottom: "conv8_2_mbox_conf"
  top: "conv8_2_mbox_conf_perm"
  permute_param {
    order: 0
    order: 2
    order: 3
    order: 1
  }
}
layer {
  name: "conv8_2_mbox_conf_flat"
  type: "Flatten"
  bottom: "conv8_2_mbox_conf_perm"
  top: "conv8_2_mbox_conf_flat"
  flatten_param {
    axis: 1
  }
}
layer {
  name: "conv8_2_mbox_priorbox"
  type: "PriorBox"
  bottom: "conv8_2"
  bottom: "data"
  top: "conv8_2_mbox_priorbox"
  prior_box_param {
    min_size: 111
    max_size: 162
    aspect_ratio: 2
    aspect_ratio: 3
    flip: true
    clip: false
    variance: 0.1
    variance: 0.1
    variance: 0.2
    variance: 0.2
    step: 32
    offset: 0.5
  }
}
layer {
  name: "conv9_2_mbox_loc"
  type: "Convolution"
  bottom: "conv9_2"
  top: "conv9_2_mbox_loc"
  param {
    lr_mult: 1
    decay_mult: 1
  }
  param {
    lr_mult: 2
    decay_mult: 0
  }
  convolution_param {
    num_output: 24
    pad: 1
    kernel_size: 3
    stride: 1
    weight_filler {
      type: "xavier"
    }
    bias_filler {
      type: "constant"
      value: 0
    }
  }
}
layer {
  name: "conv9_2_mbox_loc_perm"
  type: "Permute"
  bottom: "conv9_2_mbox_loc"
  top: "conv9_2_mbox_loc_perm"
  permute_param {
    order: 0
    order: 2
    order: 3
    order: 1
  }
}
layer {
  name: "conv9_2_mbox_loc_flat"
  type: "Flatten"
  bottom: "conv9_2_mbox_loc_perm"
  top: "conv9_2_mbox_loc_flat"
  flatten_param {
    axis: 1
  }
}
layer {
  name: "conv9_2_mbox_conf"
  type: "Convolution"
  bottom: "conv9_2"
  top: "conv9_2_mbox_conf"
  param {
    lr_mult: 1
    decay_mult: 1
  }
  param {
    lr_mult: 2
    decay_mult: 0
  }
  convolution_param {
    num_output: 18
    pad: 1
    kernel_size: 3
    stride: 1
    weight_filler {
      type: "xavier"
    }
    bias_filler {
      type: "constant"
      value: 0
    }
  }
}
layer {
  name: "conv9_2_mbox_conf_perm"
  type: "Permute"
  bottom: "conv9_2_mbox_conf"
  top: "conv9_2_mbox_conf_perm"
  permute_param {
    order: 0
    order: 2
    order: 3
    order: 1
  }
}
layer {
  name: "conv9_2_mbox_conf_flat"
  type: "Flatten"
  bottom: "conv9_2_mbox_conf_perm"
  top: "conv9_2_mbox_conf_flat"
  flatten_param {
    axis: 1
  }
}
layer {
  name: "conv9_2_mbox_priorbox"
  type: "PriorBox"
  bottom: "conv9_2"
  bottom: "data"
  top: "conv9_2_mbox_priorbox"
  prior_box_param {
    min_size: 162
    max_size: 213
    aspect_ratio: 2
    aspect_ratio: 3
    flip: true
    clip: false
    variance: 0.1
    variance: 0.1
    variance: 0.2
    variance: 0.2
    step: 64
    offset: 0.5
  }
}
layer {
  name: "conv10_2_mbox_loc"
  type: "Convolution"
  bottom: "conv10_2"
  top: "conv10_2_mbox_loc"
  param {
    lr_mult: 1
    decay_mult: 1
  }
  param {
    lr_mult: 2
    decay_mult: 0
  }
  convolution_param {
    num_output: 16
    pad: 1
    kernel_size: 3
    stride: 1
    weight_filler {
      type: "xavier"
    }
    bias_filler {
      type: "constant"
      value: 0
    }
  }
}
layer {
  name: "conv10_2_mbox_loc_perm"
  type: "Permute"
  bottom: "conv10_2_mbox_loc"
  top: "conv10_2_mbox_loc_perm"
  permute_param {
    order: 0
    order: 2
    order: 3
    order: 1
  }
}
layer {
  name: "conv10_2_mbox_loc_flat"
  type: "Flatten"
  bottom: "conv10_2_mbox_loc_perm"
  top: "conv10_2_mbox_loc_flat"
  flatten_param {
    axis: 1
  }
}
layer {
  name: "conv10_2_mbox_conf"
  type: "Convolution"
  bottom: "conv10_2"
  top: "conv10_2_mbox_conf"
  param {
    lr_mult: 1
    decay_mult: 1
  }
  param {
    lr_mult: 2
    decay_mult: 0
  }
  convolution_param {
    num_output: 12
    pad: 1
    kernel_size: 3
    stride: 1
    weight_filler {
      type: "xavier"
    }
    bias_filler {
      type: "constant"
      value: 0
    }
  }
}
layer {
  name: "conv10_2_mbox_conf_perm"
  type: "Permute"
  bottom: "conv10_2_mbox_conf"
  top: "conv10_2_mbox_conf_perm"
  permute_param {
    order: 0
    order: 2
    order: 3
    order: 1
  }
}
layer {
  name: "conv10_2_mbox_conf_flat"
  type: "Flatten"
  bottom: "conv10_2_mbox_conf_perm"
  top: "conv10_2_mbox_conf_flat"
  flatten_param {
    axis: 1
  }
}
layer {
  name: "conv10_2_mbox_priorbox"
  type: "PriorBox"
  bottom: "conv10_2"
  bottom: "data"
  top: "conv10_2_mbox_priorbox"
  prior_box_param {
    min_size: 213
    max_size: 264
    aspect_ratio: 2
    flip: true
    clip: false
    variance: 0.1
    variance: 0.1
    variance: 0.2
    variance: 0.2
    step: 100
    offset: 0.5
  }
}
layer {
  name: "conv11_2_mbox_loc"
  type: "Convolution"
  bottom: "conv11_2"
  top: "conv11_2_mbox_loc"
  param {
    lr_mult: 1
    decay_mult: 1
  }
  param {
    lr_mult: 2
    decay_mult: 0
  }
  convolution_param {
    num_output: 16
    pad: 1
    kernel_size: 3
    stride: 1
    weight_filler {
      type: "xavier"
    }
    bias_filler {
      type: "constant"
      value: 0
    }
  }
}
layer {
  name: "conv11_2_mbox_loc_perm"
  type: "Permute"
  bottom: "conv11_2_mbox_loc"
  top: "conv11_2_mbox_loc_perm"
  permute_param {
    order: 0
    order: 2
    order: 3
    order: 1
  }
}
layer {
  name: "conv11_2_mbox_loc_flat"
  type: "Flatten"
  bottom: "conv11_2_mbox_loc_perm"
  top: "conv11_2_mbox_loc_flat"
  flatten_param {
    axis: 1
  }
}
layer {
  name: "conv11_2_mbox_conf"
  type: "Convolution"
  bottom: "conv11_2"
  top: "conv11_2_mbox_conf"
  param {
    lr_mult: 1
    decay_mult: 1
  }
  param {
    lr_mult: 2
    decay_mult: 0
  }
  convolution_param {
    num_output: 12
    pad: 1
    kernel_size: 3
    stride: 1
    weight_filler {
      type: "xavier"
    }
    bias_filler {
      type: "constant"
      value: 0
    }
  }
}
layer {
  name: "conv11_2_mbox_conf_perm"
  type: "Permute"
  bottom: "conv11_2_mbox_conf"
  top: "conv11_2_mbox_conf_perm"
  permute_param {
    order: 0
    order: 2
    order: 3
    order: 1
  }
}
layer {
  name: "conv11_2_mbox_conf_flat"
  type: "Flatten"
  bottom: "conv11_2_mbox_conf_perm"
  top: "conv11_2_mbox_conf_flat"
  flatten_param {
    axis: 1
  }
}
layer {
  name: "conv11_2_mbox_priorbox"
  type: "PriorBox"
  bottom: "conv11_2"
  bottom: "data"
  top: "conv11_2_mbox_priorbox"
  prior_box_param {
    min_size: 264
    max_size: 315
    aspect_ratio: 2
    flip: true
    clip: false
    variance: 0.1
    variance: 0.1
    variance: 0.2
    variance: 0.2
    step: 300
    offset: 0.5
  }
}
layer {
  name: "mbox_loc"
  type: "Concat"
  bottom: "conv4_3_norm_mbox_loc_flat"
  bottom: "fc7_mbox_loc_flat"
  bottom: "conv8_2_mbox_loc_flat"
  bottom: "conv9_2_mbox_loc_flat"
  bottom: "conv10_2_mbox_loc_flat"
  bottom: "conv11_2_mbox_loc_flat"
  top: "mbox_loc"
  concat_param {
    axis: 1
  }
}
layer {
  name: "mbox_conf"
  type: "Concat"
  bottom: "conv4_3_norm_mbox_conf_flat"
  bottom: "fc7_mbox_conf_flat"
  bottom: "conv8_2_mbox_conf_flat"
  bottom: "conv9_2_mbox_conf_flat"
  bottom: "conv10_2_mbox_conf_flat"
  bottom: "conv11_2_mbox_conf_flat"
  top: "mbox_conf"
  concat_param {
    axis: 1
  }
}
layer {
  name: "mbox_priorbox"
  type: "Concat"
  bottom: "conv4_3_norm_mbox_priorbox"
  bottom: "fc7_mbox_priorbox"
  bottom: "conv8_2_mbox_priorbox"
  bottom: "conv9_2_mbox_priorbox"
  bottom: "conv10_2_mbox_priorbox"
  bottom: "conv11_2_mbox_priorbox"
  top: "mbox_priorbox"
  concat_param {
    axis: 2
  }
}
layer {
  name: "mbox_conf_reshape"
  type: "Reshape"
  bottom: "mbox_conf"
  top: "mbox_conf_reshape"
  reshape_param {
    shape {
      dim: 0
      dim: -1
      dim: 3
    }
  }
}
layer {
  name: "mbox_conf_softmax"
  type: "Softmax"
  bottom: "mbox_conf_reshape"
  top: "mbox_conf_softmax"
  softmax_param {
    axis: 2
  }
}
layer {
  name: "mbox_conf_flatten"
  type: "Flatten"
  bottom: "mbox_conf_softmax"
  top: "mbox_conf_flatten"
  flatten_param {
    axis: 1
  }
}
layer {
  name: "detection_out"
  type: "DetectionOutput"
  bottom: "mbox_loc"
  bottom: "mbox_conf_flatten"
  bottom: "mbox_priorbox"
  top: "detection_out"
  include {
    phase: TEST
  }
  detection_output_param {
    num_classes: 3
    share_location: true
    background_label_id: 0
    nms_param {
      nms_threshold: 0.45
      top_k: 400
    }
    save_output_param {
      output_directory: "data\\wastedata\\results\\SSD_300x300\\Main"
      output_name_prefix: "comp4_det_test_"
      output_format: "VOC"
      label_map_file: "data\\wastedata\\labelmap_waste.prototxt"
      name_size_file: "data\\wastedata\\test_name_size.txt"
      num_test_image: 1000
    }
    code_type: CENTER_SIZE
    keep_top_k: 200
    confidence_threshold: 0.01
  }
}
layer {
  name: "detection_eval"
  type: "DetectionEvaluate"
  bottom: "detection_out"
  bottom: "label"
  top: "detection_eval"
  include {
    phase: TEST
  }
  detection_evaluate_param {
    num_classes: 3
    background_label_id: 0
    overlap_threshold: 0.5
    evaluate_difficult_gt: false
    name_size_file: "data\\wastedata\\test_name_size.txt"
  }
}
I0702 17:51:02.378489  7008 layer_factory.hpp:77] Creating layer data
I0702 17:51:02.378489  7008 net.cpp:100] Creating Layer data
I0702 17:51:02.378489  7008 net.cpp:408] data -> data
I0702 17:51:02.378489  7008 net.cpp:408] data -> label
I0702 17:51:02.379485  2124 common.cpp:36] System entropy source not available, using fallback algorithm to generate seed instead.
I0702 17:51:02.379485  2124 db_lmdb.cpp:40] Opened lmdb examples\wastedata\wastedata_test_lmdb
I0702 17:51:02.393448  7008 annotated_data_layer.cpp:62] output data size: 2,3,300,300
I0702 17:51:02.399432  7008 net.cpp:150] Setting up data
I0702 17:51:02.399432  7008 net.cpp:157] Top shape: 2 3 300 300 (540000)
I0702 17:51:02.399432  7008 net.cpp:157] Top shape: 1 1 3 8 (24)
I0702 17:51:02.399432  7008 net.cpp:165] Memory required for data: 2160096
I0702 17:51:02.399432  7008 layer_factory.hpp:77] Creating layer data_data_0_split
I0702 17:51:02.399432  7008 net.cpp:100] Creating Layer data_data_0_split
I0702 17:51:02.399432  7008 net.cpp:434] data_data_0_split <- data
I0702 17:51:02.399432  7008 net.cpp:408] data_data_0_split -> data_data_0_split_0
I0702 17:51:02.399432  7008 net.cpp:408] data_data_0_split -> data_data_0_split_1
I0702 17:51:02.399432  7008 net.cpp:408] data_data_0_split -> data_data_0_split_2
I0702 17:51:02.399432  7008 net.cpp:408] data_data_0_split -> data_data_0_split_3
I0702 17:51:02.399432  7008 net.cpp:408] data_data_0_split -> data_data_0_split_4
I0702 17:51:02.399432  7008 net.cpp:408] data_data_0_split -> data_data_0_split_5
I0702 17:51:02.399432  7008 net.cpp:408] data_data_0_split -> data_data_0_split_6
I0702 17:51:02.399432  7008 net.cpp:150] Setting up data_data_0_split
I0702 17:51:02.399432  7008 net.cpp:157] Top shape: 2 3 300 300 (540000)
I0702 17:51:02.399432  7008 net.cpp:157] Top shape: 2 3 300 300 (540000)
I0702 17:51:02.399432  7008 net.cpp:157] Top shape: 2 3 300 300 (540000)
I0702 17:51:02.399432  7008 net.cpp:157] Top shape: 2 3 300 300 (540000)
I0702 17:51:02.399432  7008 net.cpp:157] Top shape: 2 3 300 300 (540000)
I0702 17:51:02.399432  7008 net.cpp:157] Top shape: 2 3 300 300 (540000)
I0702 17:51:02.399432  7008 net.cpp:157] Top shape: 2 3 300 300 (540000)
I0702 17:51:02.399432  7008 net.cpp:165] Memory required for data: 17280096
I0702 17:51:02.399432  7008 layer_factory.hpp:77] Creating layer conv1_1
I0702 17:51:02.399432  7008 net.cpp:100] Creating Layer conv1_1
I0702 17:51:02.399432  7008 net.cpp:434] conv1_1 <- data_data_0_split_0
I0702 17:51:02.399432  7008 net.cpp:408] conv1_1 -> conv1_1
I0702 17:51:02.400430 13932 common.cpp:36] System entropy source not available, using fallback algorithm to generate seed instead.
I0702 17:51:02.402424  7008 net.cpp:150] Setting up conv1_1
I0702 17:51:02.402424  7008 net.cpp:157] Top shape: 2 64 300 300 (11520000)
I0702 17:51:02.402424  7008 net.cpp:165] Memory required for data: 63360096
I0702 17:51:02.402424  7008 layer_factory.hpp:77] Creating layer relu1_1
I0702 17:51:02.402424  7008 net.cpp:100] Creating Layer relu1_1
I0702 17:51:02.402424  7008 net.cpp:434] relu1_1 <- conv1_1
I0702 17:51:02.402424  7008 net.cpp:395] relu1_1 -> conv1_1 (in-place)
I0702 17:51:02.403422  7008 net.cpp:150] Setting up relu1_1
I0702 17:51:02.403422  7008 net.cpp:157] Top shape: 2 64 300 300 (11520000)
I0702 17:51:02.403422  7008 net.cpp:165] Memory required for data: 109440096
I0702 17:51:02.403422  7008 layer_factory.hpp:77] Creating layer conv1_2
I0702 17:51:02.403422  7008 net.cpp:100] Creating Layer conv1_2
I0702 17:51:02.403422  7008 net.cpp:434] conv1_2 <- conv1_1
I0702 17:51:02.403422  7008 net.cpp:408] conv1_2 -> conv1_2
I0702 17:51:02.406414  7008 net.cpp:150] Setting up conv1_2
I0702 17:51:02.406414  7008 net.cpp:157] Top shape: 2 64 300 300 (11520000)
I0702 17:51:02.406414  7008 net.cpp:165] Memory required for data: 155520096
I0702 17:51:02.406414  7008 layer_factory.hpp:77] Creating layer relu1_2
I0702 17:51:02.406414  7008 net.cpp:100] Creating Layer relu1_2
I0702 17:51:02.406414  7008 net.cpp:434] relu1_2 <- conv1_2
I0702 17:51:02.406414  7008 net.cpp:395] relu1_2 -> conv1_2 (in-place)
I0702 17:51:02.406414  7008 net.cpp:150] Setting up relu1_2
I0702 17:51:02.406414  7008 net.cpp:157] Top shape: 2 64 300 300 (11520000)
I0702 17:51:02.406414  7008 net.cpp:165] Memory required for data: 201600096
I0702 17:51:02.406414  7008 layer_factory.hpp:77] Creating layer pool1
I0702 17:51:02.406414  7008 net.cpp:100] Creating Layer pool1
I0702 17:51:02.406414  7008 net.cpp:434] pool1 <- conv1_2
I0702 17:51:02.406414  7008 net.cpp:408] pool1 -> pool1
I0702 17:51:02.406414  7008 net.cpp:150] Setting up pool1
I0702 17:51:02.406414  7008 net.cpp:157] Top shape: 2 64 150 150 (2880000)
I0702 17:51:02.406414  7008 net.cpp:165] Memory required for data: 213120096
I0702 17:51:02.407411  7008 layer_factory.hpp:77] Creating layer conv2_1
I0702 17:51:02.407411  7008 net.cpp:100] Creating Layer conv2_1
I0702 17:51:02.407411  7008 net.cpp:434] conv2_1 <- pool1
I0702 17:51:02.407411  7008 net.cpp:408] conv2_1 -> conv2_1
I0702 17:51:02.409405  7008 net.cpp:150] Setting up conv2_1
I0702 17:51:02.409405  7008 net.cpp:157] Top shape: 2 128 150 150 (5760000)
I0702 17:51:02.409405  7008 net.cpp:165] Memory required for data: 236160096
I0702 17:51:02.409405  7008 layer_factory.hpp:77] Creating layer relu2_1
I0702 17:51:02.409405  7008 net.cpp:100] Creating Layer relu2_1
I0702 17:51:02.409405  7008 net.cpp:434] relu2_1 <- conv2_1
I0702 17:51:02.409405  7008 net.cpp:395] relu2_1 -> conv2_1 (in-place)
I0702 17:51:02.410403  7008 net.cpp:150] Setting up relu2_1
I0702 17:51:02.410403  7008 net.cpp:157] Top shape: 2 128 150 150 (5760000)
I0702 17:51:02.410403  7008 net.cpp:165] Memory required for data: 259200096
I0702 17:51:02.410403  7008 layer_factory.hpp:77] Creating layer conv2_2
I0702 17:51:02.410403  7008 net.cpp:100] Creating Layer conv2_2
I0702 17:51:02.410403  7008 net.cpp:434] conv2_2 <- conv2_1
I0702 17:51:02.410403  7008 net.cpp:408] conv2_2 -> conv2_2
I0702 17:51:02.413394  7008 net.cpp:150] Setting up conv2_2
I0702 17:51:02.413394  7008 net.cpp:157] Top shape: 2 128 150 150 (5760000)
I0702 17:51:02.413394  7008 net.cpp:165] Memory required for data: 282240096
I0702 17:51:02.413394  7008 layer_factory.hpp:77] Creating layer relu2_2
I0702 17:51:02.413394  7008 net.cpp:100] Creating Layer relu2_2
I0702 17:51:02.413394  7008 net.cpp:434] relu2_2 <- conv2_2
I0702 17:51:02.413394  7008 net.cpp:395] relu2_2 -> conv2_2 (in-place)
I0702 17:51:02.414391  7008 net.cpp:150] Setting up relu2_2
I0702 17:51:02.414391  7008 net.cpp:157] Top shape: 2 128 150 150 (5760000)
I0702 17:51:02.414391  7008 net.cpp:165] Memory required for data: 305280096
I0702 17:51:02.414391  7008 layer_factory.hpp:77] Creating layer pool2
I0702 17:51:02.414391  7008 net.cpp:100] Creating Layer pool2
I0702 17:51:02.414391  7008 net.cpp:434] pool2 <- conv2_2
I0702 17:51:02.414391  7008 net.cpp:408] pool2 -> pool2
I0702 17:51:02.415390  7008 net.cpp:150] Setting up pool2
I0702 17:51:02.415390  7008 net.cpp:157] Top shape: 2 128 75 75 (1440000)
I0702 17:51:02.415390  7008 net.cpp:165] Memory required for data: 311040096
I0702 17:51:02.415390  7008 layer_factory.hpp:77] Creating layer conv3_1
I0702 17:51:02.415390  7008 net.cpp:100] Creating Layer conv3_1
I0702 17:51:02.415390  7008 net.cpp:434] conv3_1 <- pool2
I0702 17:51:02.415390  7008 net.cpp:408] conv3_1 -> conv3_1
I0702 17:51:02.420377  7008 net.cpp:150] Setting up conv3_1
I0702 17:51:02.420377  7008 net.cpp:157] Top shape: 2 256 75 75 (2880000)
I0702 17:51:02.420377  7008 net.cpp:165] Memory required for data: 322560096
I0702 17:51:02.420377  7008 layer_factory.hpp:77] Creating layer relu3_1
I0702 17:51:02.420377  7008 net.cpp:100] Creating Layer relu3_1
I0702 17:51:02.420377  7008 net.cpp:434] relu3_1 <- conv3_1
I0702 17:51:02.420377  7008 net.cpp:395] relu3_1 -> conv3_1 (in-place)
I0702 17:51:02.420377  7008 net.cpp:150] Setting up relu3_1
I0702 17:51:02.420377  7008 net.cpp:157] Top shape: 2 256 75 75 (2880000)
I0702 17:51:02.420377  7008 net.cpp:165] Memory required for data: 334080096
I0702 17:51:02.420377  7008 layer_factory.hpp:77] Creating layer conv3_2
I0702 17:51:02.420377  7008 net.cpp:100] Creating Layer conv3_2
I0702 17:51:02.420377  7008 net.cpp:434] conv3_2 <- conv3_1
I0702 17:51:02.420377  7008 net.cpp:408] conv3_2 -> conv3_2
I0702 17:51:02.427358  7008 net.cpp:150] Setting up conv3_2
I0702 17:51:02.427358  7008 net.cpp:157] Top shape: 2 256 75 75 (2880000)
I0702 17:51:02.427358  7008 net.cpp:165] Memory required for data: 345600096
I0702 17:51:02.427358  7008 layer_factory.hpp:77] Creating layer relu3_2
I0702 17:51:02.427358  7008 net.cpp:100] Creating Layer relu3_2
I0702 17:51:02.427358  7008 net.cpp:434] relu3_2 <- conv3_2
I0702 17:51:02.427358  7008 net.cpp:395] relu3_2 -> conv3_2 (in-place)
I0702 17:51:02.429352  7008 net.cpp:150] Setting up relu3_2
I0702 17:51:02.429352  7008 net.cpp:157] Top shape: 2 256 75 75 (2880000)
I0702 17:51:02.429352  7008 net.cpp:165] Memory required for data: 357120096
I0702 17:51:02.429352  7008 layer_factory.hpp:77] Creating layer conv3_3
I0702 17:51:02.429352  7008 net.cpp:100] Creating Layer conv3_3
I0702 17:51:02.429352  7008 net.cpp:434] conv3_3 <- conv3_2
I0702 17:51:02.429352  7008 net.cpp:408] conv3_3 -> conv3_3
I0702 17:51:02.436334  7008 net.cpp:150] Setting up conv3_3
I0702 17:51:02.436334  7008 net.cpp:157] Top shape: 2 256 75 75 (2880000)
I0702 17:51:02.436334  7008 net.cpp:165] Memory required for data: 368640096
I0702 17:51:02.436334  7008 layer_factory.hpp:77] Creating layer relu3_3
I0702 17:51:02.436334  7008 net.cpp:100] Creating Layer relu3_3
I0702 17:51:02.436334  7008 net.cpp:434] relu3_3 <- conv3_3
I0702 17:51:02.436334  7008 net.cpp:395] relu3_3 -> conv3_3 (in-place)
I0702 17:51:02.436334  7008 net.cpp:150] Setting up relu3_3
I0702 17:51:02.436334  7008 net.cpp:157] Top shape: 2 256 75 75 (2880000)
I0702 17:51:02.436334  7008 net.cpp:165] Memory required for data: 380160096
I0702 17:51:02.436334  7008 layer_factory.hpp:77] Creating layer pool3
I0702 17:51:02.436334  7008 net.cpp:100] Creating Layer pool3
I0702 17:51:02.436334  7008 net.cpp:434] pool3 <- conv3_3
I0702 17:51:02.436334  7008 net.cpp:408] pool3 -> pool3
I0702 17:51:02.436334  7008 net.cpp:150] Setting up pool3
I0702 17:51:02.436334  7008 net.cpp:157] Top shape: 2 256 38 38 (739328)
I0702 17:51:02.436334  7008 net.cpp:165] Memory required for data: 383117408
I0702 17:51:02.436334  7008 layer_factory.hpp:77] Creating layer conv4_1
I0702 17:51:02.436334  7008 net.cpp:100] Creating Layer conv4_1
I0702 17:51:02.436334  7008 net.cpp:434] conv4_1 <- pool3
I0702 17:51:02.436334  7008 net.cpp:408] conv4_1 -> conv4_1
I0702 17:51:02.446307  7008 net.cpp:150] Setting up conv4_1
I0702 17:51:02.446307  7008 net.cpp:157] Top shape: 2 512 38 38 (1478656)
I0702 17:51:02.446307  7008 net.cpp:165] Memory required for data: 389032032
I0702 17:51:02.446307  7008 layer_factory.hpp:77] Creating layer relu4_1
I0702 17:51:02.446307  7008 net.cpp:100] Creating Layer relu4_1
I0702 17:51:02.446307  7008 net.cpp:434] relu4_1 <- conv4_1
I0702 17:51:02.446307  7008 net.cpp:395] relu4_1 -> conv4_1 (in-place)
I0702 17:51:02.446307  7008 net.cpp:150] Setting up relu4_1
I0702 17:51:02.446307  7008 net.cpp:157] Top shape: 2 512 38 38 (1478656)
I0702 17:51:02.446307  7008 net.cpp:165] Memory required for data: 394946656
I0702 17:51:02.446307  7008 layer_factory.hpp:77] Creating layer conv4_2
I0702 17:51:02.446307  7008 net.cpp:100] Creating Layer conv4_2
I0702 17:51:02.446307  7008 net.cpp:434] conv4_2 <- conv4_1
I0702 17:51:02.446307  7008 net.cpp:408] conv4_2 -> conv4_2
I0702 17:51:02.463261  7008 net.cpp:150] Setting up conv4_2
I0702 17:51:02.463261  7008 net.cpp:157] Top shape: 2 512 38 38 (1478656)
I0702 17:51:02.463261  7008 net.cpp:165] Memory required for data: 400861280
I0702 17:51:02.463261  7008 layer_factory.hpp:77] Creating layer relu4_2
I0702 17:51:02.463261  7008 net.cpp:100] Creating Layer relu4_2
I0702 17:51:02.463261  7008 net.cpp:434] relu4_2 <- conv4_2
I0702 17:51:02.463261  7008 net.cpp:395] relu4_2 -> conv4_2 (in-place)
I0702 17:51:02.465256  7008 net.cpp:150] Setting up relu4_2
I0702 17:51:02.465256  7008 net.cpp:157] Top shape: 2 512 38 38 (1478656)
I0702 17:51:02.465256  7008 net.cpp:165] Memory required for data: 406775904
I0702 17:51:02.465256  7008 layer_factory.hpp:77] Creating layer conv4_3
I0702 17:51:02.465256  7008 net.cpp:100] Creating Layer conv4_3
I0702 17:51:02.465256  7008 net.cpp:434] conv4_3 <- conv4_2
I0702 17:51:02.465256  7008 net.cpp:408] conv4_3 -> conv4_3
I0702 17:51:02.482210  7008 net.cpp:150] Setting up conv4_3
I0702 17:51:02.482210  7008 net.cpp:157] Top shape: 2 512 38 38 (1478656)
I0702 17:51:02.482210  7008 net.cpp:165] Memory required for data: 412690528
I0702 17:51:02.482210  7008 layer_factory.hpp:77] Creating layer relu4_3
I0702 17:51:02.482210  7008 net.cpp:100] Creating Layer relu4_3
I0702 17:51:02.482210  7008 net.cpp:434] relu4_3 <- conv4_3
I0702 17:51:02.482210  7008 net.cpp:395] relu4_3 -> conv4_3 (in-place)
I0702 17:51:02.482210  7008 net.cpp:150] Setting up relu4_3
I0702 17:51:02.482210  7008 net.cpp:157] Top shape: 2 512 38 38 (1478656)
I0702 17:51:02.482210  7008 net.cpp:165] Memory required for data: 418605152
I0702 17:51:02.482210  7008 layer_factory.hpp:77] Creating layer conv4_3_relu4_3_0_split
I0702 17:51:02.482210  7008 net.cpp:100] Creating Layer conv4_3_relu4_3_0_split
I0702 17:51:02.482210  7008 net.cpp:434] conv4_3_relu4_3_0_split <- conv4_3
I0702 17:51:02.482210  7008 net.cpp:408] conv4_3_relu4_3_0_split -> conv4_3_relu4_3_0_split_0
I0702 17:51:02.482210  7008 net.cpp:408] conv4_3_relu4_3_0_split -> conv4_3_relu4_3_0_split_1
I0702 17:51:02.482210  7008 net.cpp:150] Setting up conv4_3_relu4_3_0_split
I0702 17:51:02.482210  7008 net.cpp:157] Top shape: 2 512 38 38 (1478656)
I0702 17:51:02.482210  7008 net.cpp:157] Top shape: 2 512 38 38 (1478656)
I0702 17:51:02.482210  7008 net.cpp:165] Memory required for data: 430434400
I0702 17:51:02.482210  7008 layer_factory.hpp:77] Creating layer pool4
I0702 17:51:02.482210  7008 net.cpp:100] Creating Layer pool4
I0702 17:51:02.482210  7008 net.cpp:434] pool4 <- conv4_3_relu4_3_0_split_0
I0702 17:51:02.482210  7008 net.cpp:408] pool4 -> pool4
I0702 17:51:02.482210  7008 net.cpp:150] Setting up pool4
I0702 17:51:02.482210  7008 net.cpp:157] Top shape: 2 512 19 19 (369664)
I0702 17:51:02.482210  7008 net.cpp:165] Memory required for data: 431913056
I0702 17:51:02.482210  7008 layer_factory.hpp:77] Creating layer conv5_1
I0702 17:51:02.482210  7008 net.cpp:100] Creating Layer conv5_1
I0702 17:51:02.482210  7008 net.cpp:434] conv5_1 <- pool4
I0702 17:51:02.482210  7008 net.cpp:408] conv5_1 -> conv5_1
I0702 17:51:02.499166  7008 net.cpp:150] Setting up conv5_1
I0702 17:51:02.499166  7008 net.cpp:157] Top shape: 2 512 19 19 (369664)
I0702 17:51:02.499166  7008 net.cpp:165] Memory required for data: 433391712
I0702 17:51:02.499166  7008 layer_factory.hpp:77] Creating layer relu5_1
I0702 17:51:02.499166  7008 net.cpp:100] Creating Layer relu5_1
I0702 17:51:02.499166  7008 net.cpp:434] relu5_1 <- conv5_1
I0702 17:51:02.499166  7008 net.cpp:395] relu5_1 -> conv5_1 (in-place)
I0702 17:51:02.501159  7008 net.cpp:150] Setting up relu5_1
I0702 17:51:02.501159  7008 net.cpp:157] Top shape: 2 512 19 19 (369664)
I0702 17:51:02.501159  7008 net.cpp:165] Memory required for data: 434870368
I0702 17:51:02.501159  7008 layer_factory.hpp:77] Creating layer conv5_2
I0702 17:51:02.501159  7008 net.cpp:100] Creating Layer conv5_2
I0702 17:51:02.501159  7008 net.cpp:434] conv5_2 <- conv5_1
I0702 17:51:02.501159  7008 net.cpp:408] conv5_2 -> conv5_2
I0702 17:51:02.518115  7008 net.cpp:150] Setting up conv5_2
I0702 17:51:02.518115  7008 net.cpp:157] Top shape: 2 512 19 19 (369664)
I0702 17:51:02.518115  7008 net.cpp:165] Memory required for data: 436349024
I0702 17:51:02.518115  7008 layer_factory.hpp:77] Creating layer relu5_2
I0702 17:51:02.518115  7008 net.cpp:100] Creating Layer relu5_2
I0702 17:51:02.518115  7008 net.cpp:434] relu5_2 <- conv5_2
I0702 17:51:02.518115  7008 net.cpp:395] relu5_2 -> conv5_2 (in-place)
I0702 17:51:02.519111  7008 net.cpp:150] Setting up relu5_2
I0702 17:51:02.519111  7008 net.cpp:157] Top shape: 2 512 19 19 (369664)
I0702 17:51:02.519111  7008 net.cpp:165] Memory required for data: 437827680
I0702 17:51:02.519111  7008 layer_factory.hpp:77] Creating layer conv5_3
I0702 17:51:02.519111  7008 net.cpp:100] Creating Layer conv5_3
I0702 17:51:02.519111  7008 net.cpp:434] conv5_3 <- conv5_2
I0702 17:51:02.519111  7008 net.cpp:408] conv5_3 -> conv5_3
I0702 17:51:02.536067  7008 net.cpp:150] Setting up conv5_3
I0702 17:51:02.536067  7008 net.cpp:157] Top shape: 2 512 19 19 (369664)
I0702 17:51:02.536067  7008 net.cpp:165] Memory required for data: 439306336
I0702 17:51:02.536067  7008 layer_factory.hpp:77] Creating layer relu5_3
I0702 17:51:02.536067  7008 net.cpp:100] Creating Layer relu5_3
I0702 17:51:02.536067  7008 net.cpp:434] relu5_3 <- conv5_3
I0702 17:51:02.536067  7008 net.cpp:395] relu5_3 -> conv5_3 (in-place)
I0702 17:51:02.537063  7008 net.cpp:150] Setting up relu5_3
I0702 17:51:02.537063  7008 net.cpp:157] Top shape: 2 512 19 19 (369664)
I0702 17:51:02.537063  7008 net.cpp:165] Memory required for data: 440784992
I0702 17:51:02.537063  7008 layer_factory.hpp:77] Creating layer pool5
I0702 17:51:02.537063  7008 net.cpp:100] Creating Layer pool5
I0702 17:51:02.537063  7008 net.cpp:434] pool5 <- conv5_3
I0702 17:51:02.537063  7008 net.cpp:408] pool5 -> pool5
I0702 17:51:02.537063  7008 net.cpp:150] Setting up pool5
I0702 17:51:02.537063  7008 net.cpp:157] Top shape: 2 512 19 19 (369664)
I0702 17:51:02.537063  7008 net.cpp:165] Memory required for data: 442263648
I0702 17:51:02.537063  7008 layer_factory.hpp:77] Creating layer fc6
I0702 17:51:02.537063  7008 net.cpp:100] Creating Layer fc6
I0702 17:51:02.537063  7008 net.cpp:434] fc6 <- pool5
I0702 17:51:02.537063  7008 net.cpp:408] fc6 -> fc6
I0702 17:51:02.565986  7008 net.cpp:150] Setting up fc6
I0702 17:51:02.565986  7008 net.cpp:157] Top shape: 2 1024 19 19 (739328)
I0702 17:51:02.565986  7008 net.cpp:165] Memory required for data: 445220960
I0702 17:51:02.565986  7008 layer_factory.hpp:77] Creating layer relu6
I0702 17:51:02.565986  7008 net.cpp:100] Creating Layer relu6
I0702 17:51:02.565986  7008 net.cpp:434] relu6 <- fc6
I0702 17:51:02.565986  7008 net.cpp:395] relu6 -> fc6 (in-place)
I0702 17:51:02.565986  7008 net.cpp:150] Setting up relu6
I0702 17:51:02.565986  7008 net.cpp:157] Top shape: 2 1024 19 19 (739328)
I0702 17:51:02.565986  7008 net.cpp:165] Memory required for data: 448178272
I0702 17:51:02.565986  7008 layer_factory.hpp:77] Creating layer fc7
I0702 17:51:02.566984  7008 net.cpp:100] Creating Layer fc7
I0702 17:51:02.566984  7008 net.cpp:434] fc7 <- fc6
I0702 17:51:02.566984  7008 net.cpp:408] fc7 -> fc7
I0702 17:51:02.576957  7008 net.cpp:150] Setting up fc7
I0702 17:51:02.576957  7008 net.cpp:157] Top shape: 2 1024 19 19 (739328)
I0702 17:51:02.576957  7008 net.cpp:165] Memory required for data: 451135584
I0702 17:51:02.576957  7008 layer_factory.hpp:77] Creating layer relu7
I0702 17:51:02.576957  7008 net.cpp:100] Creating Layer relu7
I0702 17:51:02.576957  7008 net.cpp:434] relu7 <- fc7
I0702 17:51:02.576957  7008 net.cpp:395] relu7 -> fc7 (in-place)
I0702 17:51:02.576957  7008 net.cpp:150] Setting up relu7
I0702 17:51:02.576957  7008 net.cpp:157] Top shape: 2 1024 19 19 (739328)
I0702 17:51:02.576957  7008 net.cpp:165] Memory required for data: 454092896
I0702 17:51:02.576957  7008 layer_factory.hpp:77] Creating layer fc7_relu7_0_split
I0702 17:51:02.576957  7008 net.cpp:100] Creating Layer fc7_relu7_0_split
I0702 17:51:02.576957  7008 net.cpp:434] fc7_relu7_0_split <- fc7
I0702 17:51:02.576957  7008 net.cpp:408] fc7_relu7_0_split -> fc7_relu7_0_split_0
I0702 17:51:02.576957  7008 net.cpp:408] fc7_relu7_0_split -> fc7_relu7_0_split_1
I0702 17:51:02.576957  7008 net.cpp:408] fc7_relu7_0_split -> fc7_relu7_0_split_2
I0702 17:51:02.576957  7008 net.cpp:408] fc7_relu7_0_split -> fc7_relu7_0_split_3
I0702 17:51:02.576957  7008 net.cpp:150] Setting up fc7_relu7_0_split
I0702 17:51:02.576957  7008 net.cpp:157] Top shape: 2 1024 19 19 (739328)
I0702 17:51:02.576957  7008 net.cpp:157] Top shape: 2 1024 19 19 (739328)
I0702 17:51:02.576957  7008 net.cpp:157] Top shape: 2 1024 19 19 (739328)
I0702 17:51:02.576957  7008 net.cpp:157] Top shape: 2 1024 19 19 (739328)
I0702 17:51:02.576957  7008 net.cpp:165] Memory required for data: 465922144
I0702 17:51:02.576957  7008 layer_factory.hpp:77] Creating layer conv8_1
I0702 17:51:02.576957  7008 net.cpp:100] Creating Layer conv8_1
I0702 17:51:02.576957  7008 net.cpp:434] conv8_1 <- fc7_relu7_0_split_0
I0702 17:51:02.576957  7008 net.cpp:408] conv8_1 -> conv8_1
I0702 17:51:02.581944  7008 net.cpp:150] Setting up conv8_1
I0702 17:51:02.581944  7008 net.cpp:157] Top shape: 2 256 19 19 (184832)
I0702 17:51:02.581944  7008 net.cpp:165] Memory required for data: 466661472
I0702 17:51:02.581944  7008 layer_factory.hpp:77] Creating layer conv8_1_relu
I0702 17:51:02.581944  7008 net.cpp:100] Creating Layer conv8_1_relu
I0702 17:51:02.581944  7008 net.cpp:434] conv8_1_relu <- conv8_1
I0702 17:51:02.581944  7008 net.cpp:395] conv8_1_relu -> conv8_1 (in-place)
I0702 17:51:02.582942  7008 net.cpp:150] Setting up conv8_1_relu
I0702 17:51:02.582942  7008 net.cpp:157] Top shape: 2 256 19 19 (184832)
I0702 17:51:02.582942  7008 net.cpp:165] Memory required for data: 467400800
I0702 17:51:02.582942  7008 layer_factory.hpp:77] Creating layer conv8_2
I0702 17:51:02.582942  7008 net.cpp:100] Creating Layer conv8_2
I0702 17:51:02.582942  7008 net.cpp:434] conv8_2 <- conv8_1
I0702 17:51:02.582942  7008 net.cpp:408] conv8_2 -> conv8_2
I0702 17:51:02.592914  7008 net.cpp:150] Setting up conv8_2
I0702 17:51:02.592914  7008 net.cpp:157] Top shape: 2 512 10 10 (102400)
I0702 17:51:02.592914  7008 net.cpp:165] Memory required for data: 467810400
I0702 17:51:02.592914  7008 layer_factory.hpp:77] Creating layer conv8_2_relu
I0702 17:51:02.592914  7008 net.cpp:100] Creating Layer conv8_2_relu
I0702 17:51:02.592914  7008 net.cpp:434] conv8_2_relu <- conv8_2
I0702 17:51:02.592914  7008 net.cpp:395] conv8_2_relu -> conv8_2 (in-place)
I0702 17:51:02.593911  7008 net.cpp:150] Setting up conv8_2_relu
I0702 17:51:02.593911  7008 net.cpp:157] Top shape: 2 512 10 10 (102400)
I0702 17:51:02.593911  7008 net.cpp:165] Memory required for data: 468220000
I0702 17:51:02.593911  7008 layer_factory.hpp:77] Creating layer conv8_2_conv8_2_relu_0_split
I0702 17:51:02.593911  7008 net.cpp:100] Creating Layer conv8_2_conv8_2_relu_0_split
I0702 17:51:02.593911  7008 net.cpp:434] conv8_2_conv8_2_relu_0_split <- conv8_2
I0702 17:51:02.593911  7008 net.cpp:408] conv8_2_conv8_2_relu_0_split -> conv8_2_conv8_2_relu_0_split_0
I0702 17:51:02.593911  7008 net.cpp:408] conv8_2_conv8_2_relu_0_split -> conv8_2_conv8_2_relu_0_split_1
I0702 17:51:02.593911  7008 net.cpp:408] conv8_2_conv8_2_relu_0_split -> conv8_2_conv8_2_relu_0_split_2
I0702 17:51:02.593911  7008 net.cpp:408] conv8_2_conv8_2_relu_0_split -> conv8_2_conv8_2_relu_0_split_3
I0702 17:51:02.593911  7008 net.cpp:150] Setting up conv8_2_conv8_2_relu_0_split
I0702 17:51:02.593911  7008 net.cpp:157] Top shape: 2 512 10 10 (102400)
I0702 17:51:02.593911  7008 net.cpp:157] Top shape: 2 512 10 10 (102400)
I0702 17:51:02.593911  7008 net.cpp:157] Top shape: 2 512 10 10 (102400)
I0702 17:51:02.593911  7008 net.cpp:157] Top shape: 2 512 10 10 (102400)
I0702 17:51:02.593911  7008 net.cpp:165] Memory required for data: 469858400
I0702 17:51:02.593911  7008 layer_factory.hpp:77] Creating layer conv9_1
I0702 17:51:02.593911  7008 net.cpp:100] Creating Layer conv9_1
I0702 17:51:02.593911  7008 net.cpp:434] conv9_1 <- conv8_2_conv8_2_relu_0_split_0
I0702 17:51:02.593911  7008 net.cpp:408] conv9_1 -> conv9_1
I0702 17:51:02.595906  7008 net.cpp:150] Setting up conv9_1
I0702 17:51:02.595906  7008 net.cpp:157] Top shape: 2 128 10 10 (25600)
I0702 17:51:02.595906  7008 net.cpp:165] Memory required for data: 469960800
I0702 17:51:02.595906  7008 layer_factory.hpp:77] Creating layer conv9_1_relu
I0702 17:51:02.595906  7008 net.cpp:100] Creating Layer conv9_1_relu
I0702 17:51:02.595906  7008 net.cpp:434] conv9_1_relu <- conv9_1
I0702 17:51:02.595906  7008 net.cpp:395] conv9_1_relu -> conv9_1 (in-place)
I0702 17:51:02.596904  7008 net.cpp:150] Setting up conv9_1_relu
I0702 17:51:02.596904  7008 net.cpp:157] Top shape: 2 128 10 10 (25600)
I0702 17:51:02.596904  7008 net.cpp:165] Memory required for data: 470063200
I0702 17:51:02.596904  7008 layer_factory.hpp:77] Creating layer conv9_2
I0702 17:51:02.596904  7008 net.cpp:100] Creating Layer conv9_2
I0702 17:51:02.596904  7008 net.cpp:434] conv9_2 <- conv9_1
I0702 17:51:02.596904  7008 net.cpp:408] conv9_2 -> conv9_2
I0702 17:51:02.601891  7008 net.cpp:150] Setting up conv9_2
I0702 17:51:02.601891  7008 net.cpp:157] Top shape: 2 256 5 5 (12800)
I0702 17:51:02.601891  7008 net.cpp:165] Memory required for data: 470114400
I0702 17:51:02.601891  7008 layer_factory.hpp:77] Creating layer conv9_2_relu
I0702 17:51:02.601891  7008 net.cpp:100] Creating Layer conv9_2_relu
I0702 17:51:02.601891  7008 net.cpp:434] conv9_2_relu <- conv9_2
I0702 17:51:02.601891  7008 net.cpp:395] conv9_2_relu -> conv9_2 (in-place)
I0702 17:51:02.601891  7008 net.cpp:150] Setting up conv9_2_relu
I0702 17:51:02.601891  7008 net.cpp:157] Top shape: 2 256 5 5 (12800)
I0702 17:51:02.601891  7008 net.cpp:165] Memory required for data: 470165600
I0702 17:51:02.601891  7008 layer_factory.hpp:77] Creating layer conv9_2_conv9_2_relu_0_split
I0702 17:51:02.601891  7008 net.cpp:100] Creating Layer conv9_2_conv9_2_relu_0_split
I0702 17:51:02.601891  7008 net.cpp:434] conv9_2_conv9_2_relu_0_split <- conv9_2
I0702 17:51:02.601891  7008 net.cpp:408] conv9_2_conv9_2_relu_0_split -> conv9_2_conv9_2_relu_0_split_0
I0702 17:51:02.601891  7008 net.cpp:408] conv9_2_conv9_2_relu_0_split -> conv9_2_conv9_2_relu_0_split_1
I0702 17:51:02.601891  7008 net.cpp:408] conv9_2_conv9_2_relu_0_split -> conv9_2_conv9_2_relu_0_split_2
I0702 17:51:02.601891  7008 net.cpp:408] conv9_2_conv9_2_relu_0_split -> conv9_2_conv9_2_relu_0_split_3
I0702 17:51:02.601891  7008 net.cpp:150] Setting up conv9_2_conv9_2_relu_0_split
I0702 17:51:02.601891  7008 net.cpp:157] Top shape: 2 256 5 5 (12800)
I0702 17:51:02.602888  7008 net.cpp:157] Top shape: 2 256 5 5 (12800)
I0702 17:51:02.602888  7008 net.cpp:157] Top shape: 2 256 5 5 (12800)
I0702 17:51:02.602888  7008 net.cpp:157] Top shape: 2 256 5 5 (12800)
I0702 17:51:02.602888  7008 net.cpp:165] Memory required for data: 470370400
I0702 17:51:02.602888  7008 layer_factory.hpp:77] Creating layer conv10_1
I0702 17:51:02.602888  7008 net.cpp:100] Creating Layer conv10_1
I0702 17:51:02.602888  7008 net.cpp:434] conv10_1 <- conv9_2_conv9_2_relu_0_split_0
I0702 17:51:02.602888  7008 net.cpp:408] conv10_1 -> conv10_1
I0702 17:51:02.605881  7008 net.cpp:150] Setting up conv10_1
I0702 17:51:02.605881  7008 net.cpp:157] Top shape: 2 128 5 5 (6400)
I0702 17:51:02.605881  7008 net.cpp:165] Memory required for data: 470396000
I0702 17:51:02.605881  7008 layer_factory.hpp:77] Creating layer conv10_1_relu
I0702 17:51:02.605881  7008 net.cpp:100] Creating Layer conv10_1_relu
I0702 17:51:02.605881  7008 net.cpp:434] conv10_1_relu <- conv10_1
I0702 17:51:02.605881  7008 net.cpp:395] conv10_1_relu -> conv10_1 (in-place)
I0702 17:51:02.605881  7008 net.cpp:150] Setting up conv10_1_relu
I0702 17:51:02.605881  7008 net.cpp:157] Top shape: 2 128 5 5 (6400)
I0702 17:51:02.605881  7008 net.cpp:165] Memory required for data: 470421600
I0702 17:51:02.605881  7008 layer_factory.hpp:77] Creating layer conv10_2
I0702 17:51:02.605881  7008 net.cpp:100] Creating Layer conv10_2
I0702 17:51:02.605881  7008 net.cpp:434] conv10_2 <- conv10_1
I0702 17:51:02.605881  7008 net.cpp:408] conv10_2 -> conv10_2
I0702 17:51:02.611865  7008 net.cpp:150] Setting up conv10_2
I0702 17:51:02.611865  7008 net.cpp:157] Top shape: 2 256 3 3 (4608)
I0702 17:51:02.611865  7008 net.cpp:165] Memory required for data: 470440032
I0702 17:51:02.611865  7008 layer_factory.hpp:77] Creating layer conv10_2_relu
I0702 17:51:02.611865  7008 net.cpp:100] Creating Layer conv10_2_relu
I0702 17:51:02.611865  7008 net.cpp:434] conv10_2_relu <- conv10_2
I0702 17:51:02.611865  7008 net.cpp:395] conv10_2_relu -> conv10_2 (in-place)
I0702 17:51:02.611865  7008 net.cpp:150] Setting up conv10_2_relu
I0702 17:51:02.611865  7008 net.cpp:157] Top shape: 2 256 3 3 (4608)
I0702 17:51:02.611865  7008 net.cpp:165] Memory required for data: 470458464
I0702 17:51:02.611865  7008 layer_factory.hpp:77] Creating layer conv10_2_conv10_2_relu_0_split
I0702 17:51:02.611865  7008 net.cpp:100] Creating Layer conv10_2_conv10_2_relu_0_split
I0702 17:51:02.611865  7008 net.cpp:434] conv10_2_conv10_2_relu_0_split <- conv10_2
I0702 17:51:02.611865  7008 net.cpp:408] conv10_2_conv10_2_relu_0_split -> conv10_2_conv10_2_relu_0_split_0
I0702 17:51:02.611865  7008 net.cpp:408] conv10_2_conv10_2_relu_0_split -> conv10_2_conv10_2_relu_0_split_1
I0702 17:51:02.611865  7008 net.cpp:408] conv10_2_conv10_2_relu_0_split -> conv10_2_conv10_2_relu_0_split_2
I0702 17:51:02.611865  7008 net.cpp:408] conv10_2_conv10_2_relu_0_split -> conv10_2_conv10_2_relu_0_split_3
I0702 17:51:02.611865  7008 net.cpp:150] Setting up conv10_2_conv10_2_relu_0_split
I0702 17:51:02.611865  7008 net.cpp:157] Top shape: 2 256 3 3 (4608)
I0702 17:51:02.611865  7008 net.cpp:157] Top shape: 2 256 3 3 (4608)
I0702 17:51:02.611865  7008 net.cpp:157] Top shape: 2 256 3 3 (4608)
I0702 17:51:02.611865  7008 net.cpp:157] Top shape: 2 256 3 3 (4608)
I0702 17:51:02.611865  7008 net.cpp:165] Memory required for data: 470532192
I0702 17:51:02.611865  7008 layer_factory.hpp:77] Creating layer conv11_1
I0702 17:51:02.611865  7008 net.cpp:100] Creating Layer conv11_1
I0702 17:51:02.611865  7008 net.cpp:434] conv11_1 <- conv10_2_conv10_2_relu_0_split_0
I0702 17:51:02.611865  7008 net.cpp:408] conv11_1 -> conv11_1
I0702 17:51:02.615854  7008 net.cpp:150] Setting up conv11_1
I0702 17:51:02.615854  7008 net.cpp:157] Top shape: 2 128 3 3 (2304)
I0702 17:51:02.615854  7008 net.cpp:165] Memory required for data: 470541408
I0702 17:51:02.615854  7008 layer_factory.hpp:77] Creating layer conv11_1_relu
I0702 17:51:02.615854  7008 net.cpp:100] Creating Layer conv11_1_relu
I0702 17:51:02.615854  7008 net.cpp:434] conv11_1_relu <- conv11_1
I0702 17:51:02.615854  7008 net.cpp:395] conv11_1_relu -> conv11_1 (in-place)
I0702 17:51:02.615854  7008 net.cpp:150] Setting up conv11_1_relu
I0702 17:51:02.615854  7008 net.cpp:157] Top shape: 2 128 3 3 (2304)
I0702 17:51:02.615854  7008 net.cpp:165] Memory required for data: 470550624
I0702 17:51:02.615854  7008 layer_factory.hpp:77] Creating layer conv11_2
I0702 17:51:02.616852  7008 net.cpp:100] Creating Layer conv11_2
I0702 17:51:02.616852  7008 net.cpp:434] conv11_2 <- conv11_1
I0702 17:51:02.616852  7008 net.cpp:408] conv11_2 -> conv11_2
I0702 17:51:02.621837  7008 net.cpp:150] Setting up conv11_2
I0702 17:51:02.621837  7008 net.cpp:157] Top shape: 2 256 1 1 (512)
I0702 17:51:02.621837  7008 net.cpp:165] Memory required for data: 470552672
I0702 17:51:02.621837  7008 layer_factory.hpp:77] Creating layer conv11_2_relu
I0702 17:51:02.621837  7008 net.cpp:100] Creating Layer conv11_2_relu
I0702 17:51:02.621837  7008 net.cpp:434] conv11_2_relu <- conv11_2
I0702 17:51:02.621837  7008 net.cpp:395] conv11_2_relu -> conv11_2 (in-place)
I0702 17:51:02.622834  7008 net.cpp:150] Setting up conv11_2_relu
I0702 17:51:02.622834  7008 net.cpp:157] Top shape: 2 256 1 1 (512)
I0702 17:51:02.622834  7008 net.cpp:165] Memory required for data: 470554720
I0702 17:51:02.622834  7008 layer_factory.hpp:77] Creating layer conv11_2_conv11_2_relu_0_split
I0702 17:51:02.622834  7008 net.cpp:100] Creating Layer conv11_2_conv11_2_relu_0_split
I0702 17:51:02.622834  7008 net.cpp:434] conv11_2_conv11_2_relu_0_split <- conv11_2
I0702 17:51:02.622834  7008 net.cpp:408] conv11_2_conv11_2_relu_0_split -> conv11_2_conv11_2_relu_0_split_0
I0702 17:51:02.622834  7008 net.cpp:408] conv11_2_conv11_2_relu_0_split -> conv11_2_conv11_2_relu_0_split_1
I0702 17:51:02.622834  7008 net.cpp:408] conv11_2_conv11_2_relu_0_split -> conv11_2_conv11_2_relu_0_split_2
I0702 17:51:02.622834  7008 net.cpp:150] Setting up conv11_2_conv11_2_relu_0_split
I0702 17:51:02.622834  7008 net.cpp:157] Top shape: 2 256 1 1 (512)
I0702 17:51:02.622834  7008 net.cpp:157] Top shape: 2 256 1 1 (512)
I0702 17:51:02.622834  7008 net.cpp:157] Top shape: 2 256 1 1 (512)
I0702 17:51:02.622834  7008 net.cpp:165] Memory required for data: 470560864
I0702 17:51:02.622834  7008 layer_factory.hpp:77] Creating layer conv4_3_norm
I0702 17:51:02.622834  7008 net.cpp:100] Creating Layer conv4_3_norm
I0702 17:51:02.622834  7008 net.cpp:434] conv4_3_norm <- conv4_3_relu4_3_0_split_1
I0702 17:51:02.622834  7008 net.cpp:408] conv4_3_norm -> conv4_3_norm
I0702 17:51:02.622834  7008 net.cpp:150] Setting up conv4_3_norm
I0702 17:51:02.622834  7008 net.cpp:157] Top shape: 2 512 38 38 (1478656)
I0702 17:51:02.622834  7008 net.cpp:165] Memory required for data: 476475488
I0702 17:51:02.622834  7008 layer_factory.hpp:77] Creating layer conv4_3_norm_conv4_3_norm_0_split
I0702 17:51:02.622834  7008 net.cpp:100] Creating Layer conv4_3_norm_conv4_3_norm_0_split
I0702 17:51:02.622834  7008 net.cpp:434] conv4_3_norm_conv4_3_norm_0_split <- conv4_3_norm
I0702 17:51:02.622834  7008 net.cpp:408] conv4_3_norm_conv4_3_norm_0_split -> conv4_3_norm_conv4_3_norm_0_split_0
I0702 17:51:02.622834  7008 net.cpp:408] conv4_3_norm_conv4_3_norm_0_split -> conv4_3_norm_conv4_3_norm_0_split_1
I0702 17:51:02.623832  7008 net.cpp:408] conv4_3_norm_conv4_3_norm_0_split -> conv4_3_norm_conv4_3_norm_0_split_2
I0702 17:51:02.623832  7008 net.cpp:150] Setting up conv4_3_norm_conv4_3_norm_0_split
I0702 17:51:02.623832  7008 net.cpp:157] Top shape: 2 512 38 38 (1478656)
I0702 17:51:02.623832  7008 net.cpp:157] Top shape: 2 512 38 38 (1478656)
I0702 17:51:02.623832  7008 net.cpp:157] Top shape: 2 512 38 38 (1478656)
I0702 17:51:02.623832  7008 net.cpp:165] Memory required for data: 494219360
I0702 17:51:02.623832  7008 layer_factory.hpp:77] Creating layer conv4_3_norm_mbox_loc
I0702 17:51:02.623832  7008 net.cpp:100] Creating Layer conv4_3_norm_mbox_loc
I0702 17:51:02.623832  7008 net.cpp:434] conv4_3_norm_mbox_loc <- conv4_3_norm_conv4_3_norm_0_split_0
I0702 17:51:02.623832  7008 net.cpp:408] conv4_3_norm_mbox_loc -> conv4_3_norm_mbox_loc
I0702 17:51:02.625826  7008 net.cpp:150] Setting up conv4_3_norm_mbox_loc
I0702 17:51:02.625826  7008 net.cpp:157] Top shape: 2 16 38 38 (46208)
I0702 17:51:02.625826  7008 net.cpp:165] Memory required for data: 494404192
I0702 17:51:02.625826  7008 layer_factory.hpp:77] Creating layer conv4_3_norm_mbox_loc_perm
I0702 17:51:02.625826  7008 net.cpp:100] Creating Layer conv4_3_norm_mbox_loc_perm
I0702 17:51:02.625826  7008 net.cpp:434] conv4_3_norm_mbox_loc_perm <- conv4_3_norm_mbox_loc
I0702 17:51:02.625826  7008 net.cpp:408] conv4_3_norm_mbox_loc_perm -> conv4_3_norm_mbox_loc_perm
I0702 17:51:02.625826  7008 net.cpp:150] Setting up conv4_3_norm_mbox_loc_perm
I0702 17:51:02.625826  7008 net.cpp:157] Top shape: 2 38 38 16 (46208)
I0702 17:51:02.625826  7008 net.cpp:165] Memory required for data: 494589024
I0702 17:51:02.625826  7008 layer_factory.hpp:77] Creating layer conv4_3_norm_mbox_loc_flat
I0702 17:51:02.625826  7008 net.cpp:100] Creating Layer conv4_3_norm_mbox_loc_flat
I0702 17:51:02.625826  7008 net.cpp:434] conv4_3_norm_mbox_loc_flat <- conv4_3_norm_mbox_loc_perm
I0702 17:51:02.626823  7008 net.cpp:408] conv4_3_norm_mbox_loc_flat -> conv4_3_norm_mbox_loc_flat
I0702 17:51:02.626823  7008 net.cpp:150] Setting up conv4_3_norm_mbox_loc_flat
I0702 17:51:02.626823  7008 net.cpp:157] Top shape: 2 23104 (46208)
I0702 17:51:02.626823  7008 net.cpp:165] Memory required for data: 494773856
I0702 17:51:02.626823  7008 layer_factory.hpp:77] Creating layer conv4_3_norm_mbox_conf
I0702 17:51:02.626823  7008 net.cpp:100] Creating Layer conv4_3_norm_mbox_conf
I0702 17:51:02.626823  7008 net.cpp:434] conv4_3_norm_mbox_conf <- conv4_3_norm_conv4_3_norm_0_split_1
I0702 17:51:02.626823  7008 net.cpp:408] conv4_3_norm_mbox_conf -> conv4_3_norm_mbox_conf
I0702 17:51:02.629815  7008 net.cpp:150] Setting up conv4_3_norm_mbox_conf
I0702 17:51:02.629815  7008 net.cpp:157] Top shape: 2 12 38 38 (34656)
I0702 17:51:02.629815  7008 net.cpp:165] Memory required for data: 494912480
I0702 17:51:02.629815  7008 layer_factory.hpp:77] Creating layer conv4_3_norm_mbox_conf_perm
I0702 17:51:02.629815  7008 net.cpp:100] Creating Layer conv4_3_norm_mbox_conf_perm
I0702 17:51:02.629815  7008 net.cpp:434] conv4_3_norm_mbox_conf_perm <- conv4_3_norm_mbox_conf
I0702 17:51:02.629815  7008 net.cpp:408] conv4_3_norm_mbox_conf_perm -> conv4_3_norm_mbox_conf_perm
I0702 17:51:02.629815  7008 net.cpp:150] Setting up conv4_3_norm_mbox_conf_perm
I0702 17:51:02.629815  7008 net.cpp:157] Top shape: 2 38 38 12 (34656)
I0702 17:51:02.629815  7008 net.cpp:165] Memory required for data: 495051104
I0702 17:51:02.629815  7008 layer_factory.hpp:77] Creating layer conv4_3_norm_mbox_conf_flat
I0702 17:51:02.629815  7008 net.cpp:100] Creating Layer conv4_3_norm_mbox_conf_flat
I0702 17:51:02.629815  7008 net.cpp:434] conv4_3_norm_mbox_conf_flat <- conv4_3_norm_mbox_conf_perm
I0702 17:51:02.629815  7008 net.cpp:408] conv4_3_norm_mbox_conf_flat -> conv4_3_norm_mbox_conf_flat
I0702 17:51:02.629815  7008 net.cpp:150] Setting up conv4_3_norm_mbox_conf_flat
I0702 17:51:02.629815  7008 net.cpp:157] Top shape: 2 17328 (34656)
I0702 17:51:02.629815  7008 net.cpp:165] Memory required for data: 495189728
I0702 17:51:02.629815  7008 layer_factory.hpp:77] Creating layer conv4_3_norm_mbox_priorbox
I0702 17:51:02.629815  7008 net.cpp:100] Creating Layer conv4_3_norm_mbox_priorbox
I0702 17:51:02.629815  7008 net.cpp:434] conv4_3_norm_mbox_priorbox <- conv4_3_norm_conv4_3_norm_0_split_2
I0702 17:51:02.629815  7008 net.cpp:434] conv4_3_norm_mbox_priorbox <- data_data_0_split_1
I0702 17:51:02.629815  7008 net.cpp:408] conv4_3_norm_mbox_priorbox -> conv4_3_norm_mbox_priorbox
I0702 17:51:02.629815  7008 net.cpp:150] Setting up conv4_3_norm_mbox_priorbox
I0702 17:51:02.629815  7008 net.cpp:157] Top shape: 1 2 23104 (46208)
I0702 17:51:02.629815  7008 net.cpp:165] Memory required for data: 495374560
I0702 17:51:02.629815  7008 layer_factory.hpp:77] Creating layer fc7_mbox_loc
I0702 17:51:02.629815  7008 net.cpp:100] Creating Layer fc7_mbox_loc
I0702 17:51:02.629815  7008 net.cpp:434] fc7_mbox_loc <- fc7_relu7_0_split_1
I0702 17:51:02.629815  7008 net.cpp:408] fc7_mbox_loc -> fc7_mbox_loc
I0702 17:51:02.633805  7008 net.cpp:150] Setting up fc7_mbox_loc
I0702 17:51:02.633805  7008 net.cpp:157] Top shape: 2 24 19 19 (17328)
I0702 17:51:02.633805  7008 net.cpp:165] Memory required for data: 495443872
I0702 17:51:02.633805  7008 layer_factory.hpp:77] Creating layer fc7_mbox_loc_perm
I0702 17:51:02.634802  7008 net.cpp:100] Creating Layer fc7_mbox_loc_perm
I0702 17:51:02.634802  7008 net.cpp:434] fc7_mbox_loc_perm <- fc7_mbox_loc
I0702 17:51:02.634802  7008 net.cpp:408] fc7_mbox_loc_perm -> fc7_mbox_loc_perm
I0702 17:51:02.634802  7008 net.cpp:150] Setting up fc7_mbox_loc_perm
I0702 17:51:02.634802  7008 net.cpp:157] Top shape: 2 19 19 24 (17328)
I0702 17:51:02.634802  7008 net.cpp:165] Memory required for data: 495513184
I0702 17:51:02.634802  7008 layer_factory.hpp:77] Creating layer fc7_mbox_loc_flat
I0702 17:51:02.634802  7008 net.cpp:100] Creating Layer fc7_mbox_loc_flat
I0702 17:51:02.634802  7008 net.cpp:434] fc7_mbox_loc_flat <- fc7_mbox_loc_perm
I0702 17:51:02.634802  7008 net.cpp:408] fc7_mbox_loc_flat -> fc7_mbox_loc_flat
I0702 17:51:02.634802  7008 net.cpp:150] Setting up fc7_mbox_loc_flat
I0702 17:51:02.634802  7008 net.cpp:157] Top shape: 2 8664 (17328)
I0702 17:51:02.634802  7008 net.cpp:165] Memory required for data: 495582496
I0702 17:51:02.634802  7008 layer_factory.hpp:77] Creating layer fc7_mbox_conf
I0702 17:51:02.634802  7008 net.cpp:100] Creating Layer fc7_mbox_conf
I0702 17:51:02.634802  7008 net.cpp:434] fc7_mbox_conf <- fc7_relu7_0_split_2
I0702 17:51:02.634802  7008 net.cpp:408] fc7_mbox_conf -> fc7_mbox_conf
I0702 17:51:02.638792  7008 net.cpp:150] Setting up fc7_mbox_conf
I0702 17:51:02.638792  7008 net.cpp:157] Top shape: 2 18 19 19 (12996)
I0702 17:51:02.638792  7008 net.cpp:165] Memory required for data: 495634480
I0702 17:51:02.638792  7008 layer_factory.hpp:77] Creating layer fc7_mbox_conf_perm
I0702 17:51:02.638792  7008 net.cpp:100] Creating Layer fc7_mbox_conf_perm
I0702 17:51:02.638792  7008 net.cpp:434] fc7_mbox_conf_perm <- fc7_mbox_conf
I0702 17:51:02.638792  7008 net.cpp:408] fc7_mbox_conf_perm -> fc7_mbox_conf_perm
I0702 17:51:02.638792  7008 net.cpp:150] Setting up fc7_mbox_conf_perm
I0702 17:51:02.638792  7008 net.cpp:157] Top shape: 2 19 19 18 (12996)
I0702 17:51:02.638792  7008 net.cpp:165] Memory required for data: 495686464
I0702 17:51:02.638792  7008 layer_factory.hpp:77] Creating layer fc7_mbox_conf_flat
I0702 17:51:02.638792  7008 net.cpp:100] Creating Layer fc7_mbox_conf_flat
I0702 17:51:02.638792  7008 net.cpp:434] fc7_mbox_conf_flat <- fc7_mbox_conf_perm
I0702 17:51:02.638792  7008 net.cpp:408] fc7_mbox_conf_flat -> fc7_mbox_conf_flat
I0702 17:51:02.638792  7008 net.cpp:150] Setting up fc7_mbox_conf_flat
I0702 17:51:02.638792  7008 net.cpp:157] Top shape: 2 6498 (12996)
I0702 17:51:02.638792  7008 net.cpp:165] Memory required for data: 495738448
I0702 17:51:02.638792  7008 layer_factory.hpp:77] Creating layer fc7_mbox_priorbox
I0702 17:51:02.638792  7008 net.cpp:100] Creating Layer fc7_mbox_priorbox
I0702 17:51:02.638792  7008 net.cpp:434] fc7_mbox_priorbox <- fc7_relu7_0_split_3
I0702 17:51:02.638792  7008 net.cpp:434] fc7_mbox_priorbox <- data_data_0_split_2
I0702 17:51:02.638792  7008 net.cpp:408] fc7_mbox_priorbox -> fc7_mbox_priorbox
I0702 17:51:02.638792  7008 net.cpp:150] Setting up fc7_mbox_priorbox
I0702 17:51:02.638792  7008 net.cpp:157] Top shape: 1 2 8664 (17328)
I0702 17:51:02.638792  7008 net.cpp:165] Memory required for data: 495807760
I0702 17:51:02.638792  7008 layer_factory.hpp:77] Creating layer conv8_2_mbox_loc
I0702 17:51:02.638792  7008 net.cpp:100] Creating Layer conv8_2_mbox_loc
I0702 17:51:02.638792  7008 net.cpp:434] conv8_2_mbox_loc <- conv8_2_conv8_2_relu_0_split_1
I0702 17:51:02.638792  7008 net.cpp:408] conv8_2_mbox_loc -> conv8_2_mbox_loc
I0702 17:51:02.642781  7008 net.cpp:150] Setting up conv8_2_mbox_loc
I0702 17:51:02.642781  7008 net.cpp:157] Top shape: 2 24 10 10 (4800)
I0702 17:51:02.642781  7008 net.cpp:165] Memory required for data: 495826960
I0702 17:51:02.642781  7008 layer_factory.hpp:77] Creating layer conv8_2_mbox_loc_perm
I0702 17:51:02.642781  7008 net.cpp:100] Creating Layer conv8_2_mbox_loc_perm
I0702 17:51:02.642781  7008 net.cpp:434] conv8_2_mbox_loc_perm <- conv8_2_mbox_loc
I0702 17:51:02.642781  7008 net.cpp:408] conv8_2_mbox_loc_perm -> conv8_2_mbox_loc_perm
I0702 17:51:02.642781  7008 net.cpp:150] Setting up conv8_2_mbox_loc_perm
I0702 17:51:02.642781  7008 net.cpp:157] Top shape: 2 10 10 24 (4800)
I0702 17:51:02.642781  7008 net.cpp:165] Memory required for data: 495846160
I0702 17:51:02.642781  7008 layer_factory.hpp:77] Creating layer conv8_2_mbox_loc_flat
I0702 17:51:02.642781  7008 net.cpp:100] Creating Layer conv8_2_mbox_loc_flat
I0702 17:51:02.642781  7008 net.cpp:434] conv8_2_mbox_loc_flat <- conv8_2_mbox_loc_perm
I0702 17:51:02.642781  7008 net.cpp:408] conv8_2_mbox_loc_flat -> conv8_2_mbox_loc_flat
I0702 17:51:02.642781  7008 net.cpp:150] Setting up conv8_2_mbox_loc_flat
I0702 17:51:02.642781  7008 net.cpp:157] Top shape: 2 2400 (4800)
I0702 17:51:02.642781  7008 net.cpp:165] Memory required for data: 495865360
I0702 17:51:02.642781  7008 layer_factory.hpp:77] Creating layer conv8_2_mbox_conf
I0702 17:51:02.642781  7008 net.cpp:100] Creating Layer conv8_2_mbox_conf
I0702 17:51:02.642781  7008 net.cpp:434] conv8_2_mbox_conf <- conv8_2_conv8_2_relu_0_split_2
I0702 17:51:02.642781  7008 net.cpp:408] conv8_2_mbox_conf -> conv8_2_mbox_conf
I0702 17:51:02.645773  7008 net.cpp:150] Setting up conv8_2_mbox_conf
I0702 17:51:02.645773  7008 net.cpp:157] Top shape: 2 18 10 10 (3600)
I0702 17:51:02.645773  7008 net.cpp:165] Memory required for data: 495879760
I0702 17:51:02.645773  7008 layer_factory.hpp:77] Creating layer conv8_2_mbox_conf_perm
I0702 17:51:02.645773  7008 net.cpp:100] Creating Layer conv8_2_mbox_conf_perm
I0702 17:51:02.645773  7008 net.cpp:434] conv8_2_mbox_conf_perm <- conv8_2_mbox_conf
I0702 17:51:02.645773  7008 net.cpp:408] conv8_2_mbox_conf_perm -> conv8_2_mbox_conf_perm
I0702 17:51:02.645773  7008 net.cpp:150] Setting up conv8_2_mbox_conf_perm
I0702 17:51:02.645773  7008 net.cpp:157] Top shape: 2 10 10 18 (3600)
I0702 17:51:02.645773  7008 net.cpp:165] Memory required for data: 495894160
I0702 17:51:02.645773  7008 layer_factory.hpp:77] Creating layer conv8_2_mbox_conf_flat
I0702 17:51:02.645773  7008 net.cpp:100] Creating Layer conv8_2_mbox_conf_flat
I0702 17:51:02.645773  7008 net.cpp:434] conv8_2_mbox_conf_flat <- conv8_2_mbox_conf_perm
I0702 17:51:02.645773  7008 net.cpp:408] conv8_2_mbox_conf_flat -> conv8_2_mbox_conf_flat
I0702 17:51:02.645773  7008 net.cpp:150] Setting up conv8_2_mbox_conf_flat
I0702 17:51:02.645773  7008 net.cpp:157] Top shape: 2 1800 (3600)
I0702 17:51:02.645773  7008 net.cpp:165] Memory required for data: 495908560
I0702 17:51:02.645773  7008 layer_factory.hpp:77] Creating layer conv8_2_mbox_priorbox
I0702 17:51:02.645773  7008 net.cpp:100] Creating Layer conv8_2_mbox_priorbox
I0702 17:51:02.645773  7008 net.cpp:434] conv8_2_mbox_priorbox <- conv8_2_conv8_2_relu_0_split_3
I0702 17:51:02.645773  7008 net.cpp:434] conv8_2_mbox_priorbox <- data_data_0_split_3
I0702 17:51:02.645773  7008 net.cpp:408] conv8_2_mbox_priorbox -> conv8_2_mbox_priorbox
I0702 17:51:02.645773  7008 net.cpp:150] Setting up conv8_2_mbox_priorbox
I0702 17:51:02.645773  7008 net.cpp:157] Top shape: 1 2 2400 (4800)
I0702 17:51:02.645773  7008 net.cpp:165] Memory required for data: 495927760
I0702 17:51:02.645773  7008 layer_factory.hpp:77] Creating layer conv9_2_mbox_loc
I0702 17:51:02.645773  7008 net.cpp:100] Creating Layer conv9_2_mbox_loc
I0702 17:51:02.645773  7008 net.cpp:434] conv9_2_mbox_loc <- conv9_2_conv9_2_relu_0_split_1
I0702 17:51:02.645773  7008 net.cpp:408] conv9_2_mbox_loc -> conv9_2_mbox_loc
I0702 17:51:02.648766  7008 net.cpp:150] Setting up conv9_2_mbox_loc
I0702 17:51:02.649762  7008 net.cpp:157] Top shape: 2 24 5 5 (1200)
I0702 17:51:02.649762  7008 net.cpp:165] Memory required for data: 495932560
I0702 17:51:02.649762  7008 layer_factory.hpp:77] Creating layer conv9_2_mbox_loc_perm
I0702 17:51:02.649762  7008 net.cpp:100] Creating Layer conv9_2_mbox_loc_perm
I0702 17:51:02.649762  7008 net.cpp:434] conv9_2_mbox_loc_perm <- conv9_2_mbox_loc
I0702 17:51:02.649762  7008 net.cpp:408] conv9_2_mbox_loc_perm -> conv9_2_mbox_loc_perm
I0702 17:51:02.649762  7008 net.cpp:150] Setting up conv9_2_mbox_loc_perm
I0702 17:51:02.649762  7008 net.cpp:157] Top shape: 2 5 5 24 (1200)
I0702 17:51:02.649762  7008 net.cpp:165] Memory required for data: 495937360
I0702 17:51:02.649762  7008 layer_factory.hpp:77] Creating layer conv9_2_mbox_loc_flat
I0702 17:51:02.649762  7008 net.cpp:100] Creating Layer conv9_2_mbox_loc_flat
I0702 17:51:02.649762  7008 net.cpp:434] conv9_2_mbox_loc_flat <- conv9_2_mbox_loc_perm
I0702 17:51:02.649762  7008 net.cpp:408] conv9_2_mbox_loc_flat -> conv9_2_mbox_loc_flat
I0702 17:51:02.649762  7008 net.cpp:150] Setting up conv9_2_mbox_loc_flat
I0702 17:51:02.649762  7008 net.cpp:157] Top shape: 2 600 (1200)
I0702 17:51:02.649762  7008 net.cpp:165] Memory required for data: 495942160
I0702 17:51:02.649762  7008 layer_factory.hpp:77] Creating layer conv9_2_mbox_conf
I0702 17:51:02.649762  7008 net.cpp:100] Creating Layer conv9_2_mbox_conf
I0702 17:51:02.649762  7008 net.cpp:434] conv9_2_mbox_conf <- conv9_2_conv9_2_relu_0_split_2
I0702 17:51:02.649762  7008 net.cpp:408] conv9_2_mbox_conf -> conv9_2_mbox_conf
I0702 17:51:02.651757  7008 net.cpp:150] Setting up conv9_2_mbox_conf
I0702 17:51:02.651757  7008 net.cpp:157] Top shape: 2 18 5 5 (900)
I0702 17:51:02.651757  7008 net.cpp:165] Memory required for data: 495945760
I0702 17:51:02.651757  7008 layer_factory.hpp:77] Creating layer conv9_2_mbox_conf_perm
I0702 17:51:02.651757  7008 net.cpp:100] Creating Layer conv9_2_mbox_conf_perm
I0702 17:51:02.651757  7008 net.cpp:434] conv9_2_mbox_conf_perm <- conv9_2_mbox_conf
I0702 17:51:02.651757  7008 net.cpp:408] conv9_2_mbox_conf_perm -> conv9_2_mbox_conf_perm
I0702 17:51:02.652755  7008 net.cpp:150] Setting up conv9_2_mbox_conf_perm
I0702 17:51:02.652755  7008 net.cpp:157] Top shape: 2 5 5 18 (900)
I0702 17:51:02.652755  7008 net.cpp:165] Memory required for data: 495949360
I0702 17:51:02.652755  7008 layer_factory.hpp:77] Creating layer conv9_2_mbox_conf_flat
I0702 17:51:02.652755  7008 net.cpp:100] Creating Layer conv9_2_mbox_conf_flat
I0702 17:51:02.652755  7008 net.cpp:434] conv9_2_mbox_conf_flat <- conv9_2_mbox_conf_perm
I0702 17:51:02.652755  7008 net.cpp:408] conv9_2_mbox_conf_flat -> conv9_2_mbox_conf_flat
I0702 17:51:02.652755  7008 net.cpp:150] Setting up conv9_2_mbox_conf_flat
I0702 17:51:02.652755  7008 net.cpp:157] Top shape: 2 450 (900)
I0702 17:51:02.652755  7008 net.cpp:165] Memory required for data: 495952960
I0702 17:51:02.652755  7008 layer_factory.hpp:77] Creating layer conv9_2_mbox_priorbox
I0702 17:51:02.652755  7008 net.cpp:100] Creating Layer conv9_2_mbox_priorbox
I0702 17:51:02.652755  7008 net.cpp:434] conv9_2_mbox_priorbox <- conv9_2_conv9_2_relu_0_split_3
I0702 17:51:02.652755  7008 net.cpp:434] conv9_2_mbox_priorbox <- data_data_0_split_4
I0702 17:51:02.652755  7008 net.cpp:408] conv9_2_mbox_priorbox -> conv9_2_mbox_priorbox
I0702 17:51:02.652755  7008 net.cpp:150] Setting up conv9_2_mbox_priorbox
I0702 17:51:02.652755  7008 net.cpp:157] Top shape: 1 2 600 (1200)
I0702 17:51:02.652755  7008 net.cpp:165] Memory required for data: 495957760
I0702 17:51:02.652755  7008 layer_factory.hpp:77] Creating layer conv10_2_mbox_loc
I0702 17:51:02.652755  7008 net.cpp:100] Creating Layer conv10_2_mbox_loc
I0702 17:51:02.652755  7008 net.cpp:434] conv10_2_mbox_loc <- conv10_2_conv10_2_relu_0_split_1
I0702 17:51:02.652755  7008 net.cpp:408] conv10_2_mbox_loc -> conv10_2_mbox_loc
I0702 17:51:02.656744  7008 net.cpp:150] Setting up conv10_2_mbox_loc
I0702 17:51:02.656744  7008 net.cpp:157] Top shape: 2 16 3 3 (288)
I0702 17:51:02.656744  7008 net.cpp:165] Memory required for data: 495958912
I0702 17:51:02.656744  7008 layer_factory.hpp:77] Creating layer conv10_2_mbox_loc_perm
I0702 17:51:02.656744  7008 net.cpp:100] Creating Layer conv10_2_mbox_loc_perm
I0702 17:51:02.656744  7008 net.cpp:434] conv10_2_mbox_loc_perm <- conv10_2_mbox_loc
I0702 17:51:02.656744  7008 net.cpp:408] conv10_2_mbox_loc_perm -> conv10_2_mbox_loc_perm
I0702 17:51:02.656744  7008 net.cpp:150] Setting up conv10_2_mbox_loc_perm
I0702 17:51:02.656744  7008 net.cpp:157] Top shape: 2 3 3 16 (288)
I0702 17:51:02.656744  7008 net.cpp:165] Memory required for data: 495960064
I0702 17:51:02.656744  7008 layer_factory.hpp:77] Creating layer conv10_2_mbox_loc_flat
I0702 17:51:02.656744  7008 net.cpp:100] Creating Layer conv10_2_mbox_loc_flat
I0702 17:51:02.656744  7008 net.cpp:434] conv10_2_mbox_loc_flat <- conv10_2_mbox_loc_perm
I0702 17:51:02.656744  7008 net.cpp:408] conv10_2_mbox_loc_flat -> conv10_2_mbox_loc_flat
I0702 17:51:02.656744  7008 net.cpp:150] Setting up conv10_2_mbox_loc_flat
I0702 17:51:02.656744  7008 net.cpp:157] Top shape: 2 144 (288)
I0702 17:51:02.656744  7008 net.cpp:165] Memory required for data: 495961216
I0702 17:51:02.656744  7008 layer_factory.hpp:77] Creating layer conv10_2_mbox_conf
I0702 17:51:02.656744  7008 net.cpp:100] Creating Layer conv10_2_mbox_conf
I0702 17:51:02.656744  7008 net.cpp:434] conv10_2_mbox_conf <- conv10_2_conv10_2_relu_0_split_2
I0702 17:51:02.656744  7008 net.cpp:408] conv10_2_mbox_conf -> conv10_2_mbox_conf
I0702 17:51:02.659736  7008 net.cpp:150] Setting up conv10_2_mbox_conf
I0702 17:51:02.659736  7008 net.cpp:157] Top shape: 2 12 3 3 (216)
I0702 17:51:02.659736  7008 net.cpp:165] Memory required for data: 495962080
I0702 17:51:02.659736  7008 layer_factory.hpp:77] Creating layer conv10_2_mbox_conf_perm
I0702 17:51:02.659736  7008 net.cpp:100] Creating Layer conv10_2_mbox_conf_perm
I0702 17:51:02.659736  7008 net.cpp:434] conv10_2_mbox_conf_perm <- conv10_2_mbox_conf
I0702 17:51:02.659736  7008 net.cpp:408] conv10_2_mbox_conf_perm -> conv10_2_mbox_conf_perm
I0702 17:51:02.659736  7008 net.cpp:150] Setting up conv10_2_mbox_conf_perm
I0702 17:51:02.659736  7008 net.cpp:157] Top shape: 2 3 3 12 (216)
I0702 17:51:02.659736  7008 net.cpp:165] Memory required for data: 495962944
I0702 17:51:02.659736  7008 layer_factory.hpp:77] Creating layer conv10_2_mbox_conf_flat
I0702 17:51:02.659736  7008 net.cpp:100] Creating Layer conv10_2_mbox_conf_flat
I0702 17:51:02.659736  7008 net.cpp:434] conv10_2_mbox_conf_flat <- conv10_2_mbox_conf_perm
I0702 17:51:02.659736  7008 net.cpp:408] conv10_2_mbox_conf_flat -> conv10_2_mbox_conf_flat
I0702 17:51:02.659736  7008 net.cpp:150] Setting up conv10_2_mbox_conf_flat
I0702 17:51:02.659736  7008 net.cpp:157] Top shape: 2 108 (216)
I0702 17:51:02.659736  7008 net.cpp:165] Memory required for data: 495963808
I0702 17:51:02.659736  7008 layer_factory.hpp:77] Creating layer conv10_2_mbox_priorbox
I0702 17:51:02.659736  7008 net.cpp:100] Creating Layer conv10_2_mbox_priorbox
I0702 17:51:02.659736  7008 net.cpp:434] conv10_2_mbox_priorbox <- conv10_2_conv10_2_relu_0_split_3
I0702 17:51:02.659736  7008 net.cpp:434] conv10_2_mbox_priorbox <- data_data_0_split_5
I0702 17:51:02.659736  7008 net.cpp:408] conv10_2_mbox_priorbox -> conv10_2_mbox_priorbox
I0702 17:51:02.659736  7008 net.cpp:150] Setting up conv10_2_mbox_priorbox
I0702 17:51:02.659736  7008 net.cpp:157] Top shape: 1 2 144 (288)
I0702 17:51:02.659736  7008 net.cpp:165] Memory required for data: 495964960
I0702 17:51:02.659736  7008 layer_factory.hpp:77] Creating layer conv11_2_mbox_loc
I0702 17:51:02.659736  7008 net.cpp:100] Creating Layer conv11_2_mbox_loc
I0702 17:51:02.659736  7008 net.cpp:434] conv11_2_mbox_loc <- conv11_2_conv11_2_relu_0_split_0
I0702 17:51:02.659736  7008 net.cpp:408] conv11_2_mbox_loc -> conv11_2_mbox_loc
I0702 17:51:02.662729  7008 net.cpp:150] Setting up conv11_2_mbox_loc
I0702 17:51:02.662729  7008 net.cpp:157] Top shape: 2 16 1 1 (32)
I0702 17:51:02.662729  7008 net.cpp:165] Memory required for data: 495965088
I0702 17:51:02.662729  7008 layer_factory.hpp:77] Creating layer conv11_2_mbox_loc_perm
I0702 17:51:02.662729  7008 net.cpp:100] Creating Layer conv11_2_mbox_loc_perm
I0702 17:51:02.662729  7008 net.cpp:434] conv11_2_mbox_loc_perm <- conv11_2_mbox_loc
I0702 17:51:02.662729  7008 net.cpp:408] conv11_2_mbox_loc_perm -> conv11_2_mbox_loc_perm
I0702 17:51:02.662729  7008 net.cpp:150] Setting up conv11_2_mbox_loc_perm
I0702 17:51:02.662729  7008 net.cpp:157] Top shape: 2 1 1 16 (32)
I0702 17:51:02.662729  7008 net.cpp:165] Memory required for data: 495965216
I0702 17:51:02.662729  7008 layer_factory.hpp:77] Creating layer conv11_2_mbox_loc_flat
I0702 17:51:02.662729  7008 net.cpp:100] Creating Layer conv11_2_mbox_loc_flat
I0702 17:51:02.662729  7008 net.cpp:434] conv11_2_mbox_loc_flat <- conv11_2_mbox_loc_perm
I0702 17:51:02.662729  7008 net.cpp:408] conv11_2_mbox_loc_flat -> conv11_2_mbox_loc_flat
I0702 17:51:02.662729  7008 net.cpp:150] Setting up conv11_2_mbox_loc_flat
I0702 17:51:02.662729  7008 net.cpp:157] Top shape: 2 16 (32)
I0702 17:51:02.662729  7008 net.cpp:165] Memory required for data: 495965344
I0702 17:51:02.662729  7008 layer_factory.hpp:77] Creating layer conv11_2_mbox_conf
I0702 17:51:02.662729  7008 net.cpp:100] Creating Layer conv11_2_mbox_conf
I0702 17:51:02.662729  7008 net.cpp:434] conv11_2_mbox_conf <- conv11_2_conv11_2_relu_0_split_1
I0702 17:51:02.662729  7008 net.cpp:408] conv11_2_mbox_conf -> conv11_2_mbox_conf
I0702 17:51:02.665720  7008 net.cpp:150] Setting up conv11_2_mbox_conf
I0702 17:51:02.665720  7008 net.cpp:157] Top shape: 2 12 1 1 (24)
I0702 17:51:02.665720  7008 net.cpp:165] Memory required for data: 495965440
I0702 17:51:02.665720  7008 layer_factory.hpp:77] Creating layer conv11_2_mbox_conf_perm
I0702 17:51:02.665720  7008 net.cpp:100] Creating Layer conv11_2_mbox_conf_perm
I0702 17:51:02.665720  7008 net.cpp:434] conv11_2_mbox_conf_perm <- conv11_2_mbox_conf
I0702 17:51:02.665720  7008 net.cpp:408] conv11_2_mbox_conf_perm -> conv11_2_mbox_conf_perm
I0702 17:51:02.665720  7008 net.cpp:150] Setting up conv11_2_mbox_conf_perm
I0702 17:51:02.665720  7008 net.cpp:157] Top shape: 2 1 1 12 (24)
I0702 17:51:02.665720  7008 net.cpp:165] Memory required for data: 495965536
I0702 17:51:02.665720  7008 layer_factory.hpp:77] Creating layer conv11_2_mbox_conf_flat
I0702 17:51:02.665720  7008 net.cpp:100] Creating Layer conv11_2_mbox_conf_flat
I0702 17:51:02.665720  7008 net.cpp:434] conv11_2_mbox_conf_flat <- conv11_2_mbox_conf_perm
I0702 17:51:02.665720  7008 net.cpp:408] conv11_2_mbox_conf_flat -> conv11_2_mbox_conf_flat
I0702 17:51:02.665720  7008 net.cpp:150] Setting up conv11_2_mbox_conf_flat
I0702 17:51:02.665720  7008 net.cpp:157] Top shape: 2 12 (24)
I0702 17:51:02.665720  7008 net.cpp:165] Memory required for data: 495965632
I0702 17:51:02.665720  7008 layer_factory.hpp:77] Creating layer conv11_2_mbox_priorbox
I0702 17:51:02.665720  7008 net.cpp:100] Creating Layer conv11_2_mbox_priorbox
I0702 17:51:02.665720  7008 net.cpp:434] conv11_2_mbox_priorbox <- conv11_2_conv11_2_relu_0_split_2
I0702 17:51:02.665720  7008 net.cpp:434] conv11_2_mbox_priorbox <- data_data_0_split_6
I0702 17:51:02.665720  7008 net.cpp:408] conv11_2_mbox_priorbox -> conv11_2_mbox_priorbox
I0702 17:51:02.665720  7008 net.cpp:150] Setting up conv11_2_mbox_priorbox
I0702 17:51:02.665720  7008 net.cpp:157] Top shape: 1 2 16 (32)
I0702 17:51:02.665720  7008 net.cpp:165] Memory required for data: 495965760
I0702 17:51:02.665720  7008 layer_factory.hpp:77] Creating layer mbox_loc
I0702 17:51:02.665720  7008 net.cpp:100] Creating Layer mbox_loc
I0702 17:51:02.665720  7008 net.cpp:434] mbox_loc <- conv4_3_norm_mbox_loc_flat
I0702 17:51:02.665720  7008 net.cpp:434] mbox_loc <- fc7_mbox_loc_flat
I0702 17:51:02.665720  7008 net.cpp:434] mbox_loc <- conv8_2_mbox_loc_flat
I0702 17:51:02.665720  7008 net.cpp:434] mbox_loc <- conv9_2_mbox_loc_flat
I0702 17:51:02.665720  7008 net.cpp:434] mbox_loc <- conv10_2_mbox_loc_flat
I0702 17:51:02.665720  7008 net.cpp:434] mbox_loc <- conv11_2_mbox_loc_flat
I0702 17:51:02.666718  7008 net.cpp:408] mbox_loc -> mbox_loc
I0702 17:51:02.666718  7008 net.cpp:150] Setting up mbox_loc
I0702 17:51:02.666718  7008 net.cpp:157] Top shape: 2 34928 (69856)
I0702 17:51:02.666718  7008 net.cpp:165] Memory required for data: 496245184
I0702 17:51:02.666718  7008 layer_factory.hpp:77] Creating layer mbox_conf
I0702 17:51:02.666718  7008 net.cpp:100] Creating Layer mbox_conf
I0702 17:51:02.666718  7008 net.cpp:434] mbox_conf <- conv4_3_norm_mbox_conf_flat
I0702 17:51:02.666718  7008 net.cpp:434] mbox_conf <- fc7_mbox_conf_flat
I0702 17:51:02.666718  7008 net.cpp:434] mbox_conf <- conv8_2_mbox_conf_flat
I0702 17:51:02.666718  7008 net.cpp:434] mbox_conf <- conv9_2_mbox_conf_flat
I0702 17:51:02.666718  7008 net.cpp:434] mbox_conf <- conv10_2_mbox_conf_flat
I0702 17:51:02.666718  7008 net.cpp:434] mbox_conf <- conv11_2_mbox_conf_flat
I0702 17:51:02.666718  7008 net.cpp:408] mbox_conf -> mbox_conf
I0702 17:51:02.666718  7008 net.cpp:150] Setting up mbox_conf
I0702 17:51:02.666718  7008 net.cpp:157] Top shape: 2 26196 (52392)
I0702 17:51:02.666718  7008 net.cpp:165] Memory required for data: 496454752
I0702 17:51:02.666718  7008 layer_factory.hpp:77] Creating layer mbox_priorbox
I0702 17:51:02.666718  7008 net.cpp:100] Creating Layer mbox_priorbox
I0702 17:51:02.666718  7008 net.cpp:434] mbox_priorbox <- conv4_3_norm_mbox_priorbox
I0702 17:51:02.666718  7008 net.cpp:434] mbox_priorbox <- fc7_mbox_priorbox
I0702 17:51:02.666718  7008 net.cpp:434] mbox_priorbox <- conv8_2_mbox_priorbox
I0702 17:51:02.666718  7008 net.cpp:434] mbox_priorbox <- conv9_2_mbox_priorbox
I0702 17:51:02.666718  7008 net.cpp:434] mbox_priorbox <- conv10_2_mbox_priorbox
I0702 17:51:02.666718  7008 net.cpp:434] mbox_priorbox <- conv11_2_mbox_priorbox
I0702 17:51:02.666718  7008 net.cpp:408] mbox_priorbox -> mbox_priorbox
I0702 17:51:02.666718  7008 net.cpp:150] Setting up mbox_priorbox
I0702 17:51:02.666718  7008 net.cpp:157] Top shape: 1 2 34928 (69856)
I0702 17:51:02.666718  7008 net.cpp:165] Memory required for data: 496734176
I0702 17:51:02.666718  7008 layer_factory.hpp:77] Creating layer mbox_conf_reshape
I0702 17:51:02.666718  7008 net.cpp:100] Creating Layer mbox_conf_reshape
I0702 17:51:02.666718  7008 net.cpp:434] mbox_conf_reshape <- mbox_conf
I0702 17:51:02.666718  7008 net.cpp:408] mbox_conf_reshape -> mbox_conf_reshape
I0702 17:51:02.666718  7008 net.cpp:150] Setting up mbox_conf_reshape
I0702 17:51:02.666718  7008 net.cpp:157] Top shape: 2 8732 3 (52392)
I0702 17:51:02.666718  7008 net.cpp:165] Memory required for data: 496943744
I0702 17:51:02.666718  7008 layer_factory.hpp:77] Creating layer mbox_conf_softmax
I0702 17:51:02.666718  7008 net.cpp:100] Creating Layer mbox_conf_softmax
I0702 17:51:02.666718  7008 net.cpp:434] mbox_conf_softmax <- mbox_conf_reshape
I0702 17:51:02.666718  7008 net.cpp:408] mbox_conf_softmax -> mbox_conf_softmax
I0702 17:51:02.667714  7008 net.cpp:150] Setting up mbox_conf_softmax
I0702 17:51:02.667714  7008 net.cpp:157] Top shape: 2 8732 3 (52392)
I0702 17:51:02.667714  7008 net.cpp:165] Memory required for data: 497153312
I0702 17:51:02.667714  7008 layer_factory.hpp:77] Creating layer mbox_conf_flatten
I0702 17:51:02.667714  7008 net.cpp:100] Creating Layer mbox_conf_flatten
I0702 17:51:02.667714  7008 net.cpp:434] mbox_conf_flatten <- mbox_conf_softmax
I0702 17:51:02.667714  7008 net.cpp:408] mbox_conf_flatten -> mbox_conf_flatten
I0702 17:51:02.667714  7008 net.cpp:150] Setting up mbox_conf_flatten
I0702 17:51:02.667714  7008 net.cpp:157] Top shape: 2 26196 (52392)
I0702 17:51:02.667714  7008 net.cpp:165] Memory required for data: 497362880
I0702 17:51:02.667714  7008 layer_factory.hpp:77] Creating layer detection_out
I0702 17:51:02.667714  7008 net.cpp:100] Creating Layer detection_out
I0702 17:51:02.667714  7008 net.cpp:434] detection_out <- mbox_loc
I0702 17:51:02.667714  7008 net.cpp:434] detection_out <- mbox_conf_flatten
I0702 17:51:02.667714  7008 net.cpp:434] detection_out <- mbox_priorbox
I0702 17:51:02.667714  7008 net.cpp:408] detection_out -> detection_out
W0702 17:51:02.667714  7008 detection_output_layer.cpp:49] Failed to create directory: data\wastedata\results\SSD_300x300\Main
I0702 17:51:02.669709  7008 net.cpp:150] Setting up detection_out
I0702 17:51:02.669709  7008 net.cpp:157] Top shape: 1 1 1 7 (7)
I0702 17:51:02.669709  7008 net.cpp:165] Memory required for data: 497362908
I0702 17:51:02.669709  7008 layer_factory.hpp:77] Creating layer detection_eval
I0702 17:51:02.669709  7008 net.cpp:100] Creating Layer detection_eval
I0702 17:51:02.669709  7008 net.cpp:434] detection_eval <- detection_out
I0702 17:51:02.669709  7008 net.cpp:434] detection_eval <- label
I0702 17:51:02.669709  7008 net.cpp:408] detection_eval -> detection_eval
I0702 17:51:02.670707  7008 net.cpp:150] Setting up detection_eval
I0702 17:51:02.670707  7008 net.cpp:157] Top shape: 1 1 3 5 (15)
I0702 17:51:02.670707  7008 net.cpp:165] Memory required for data: 497362968
I0702 17:51:02.670707  7008 net.cpp:228] detection_eval does not need backward computation.
I0702 17:51:02.670707  7008 net.cpp:228] detection_out does not need backward computation.
I0702 17:51:02.670707  7008 net.cpp:228] mbox_conf_flatten does not need backward computation.
I0702 17:51:02.670707  7008 net.cpp:228] mbox_conf_softmax does not need backward computation.
…
