…
W0630 12:58:33.435658 21000 upgrade_proto.cpp:72] Note that future Caffe releases will only support input layers and not input fields.
I0630 12:58:33.436656 21000 net.cpp:322] The NetState phase (0) differed from the phase (1) specified by a rule in layer detection_out
I0630 12:58:33.436656 21000 net.cpp:58] Initializing net from parameters: 
name: "VGG_wastedata_SSD_300x300_deploy"
state {
  phase: TRAIN
  level: 0
  stage: ""
}
layer {
  name: "input"
  type: "Input"
  top: "data"
  input_param {
    shape {
      dim: 1
      dim: 3
      dim: 300
      dim: 300
    }
  }
}
layer {
  name: "conv1_1"
  type: "Convolution"
  bottom: "data"
  top: "conv1_1"
  param {
    lr_mult: 1
    decay_mult: 1
  }
  param {
    lr_mult: 1
    decay_mult: 0
  }
  convolution_param {
    num_output: 64
    pad: 1
    kernel_size: 3
    weight_filler {
      type: "xavier"
    }
    bias_filler {
      type: "constant"
      value: 0
    }
  }
}
layer {
  name: "relu1_1"
  type: "ReLU"
  bottom: "conv1_1"
  top: "conv1_1"
}
layer {
  name: "conv1_2"
  type: "Convolution"
  bottom: "conv1_1"
  top: "conv1_2"
  param {
    lr_mult: 1
    decay_mult: 1
  }
  param {
    lr_mult: 1
    decay_mult: 0
  }
  convolution_param {
    num_output: 64
    pad: 1
    kernel_size: 3
    weight_filler {
      type: "xavier"
    }
    bias_filler {
      type: "constant"
      value: 0
    }
  }
}
layer {
  name: "relu1_2"
  type: "ReLU"
  bottom: "conv1_2"
  top: "conv1_2"
}
layer {
  name: "pool1"
  type: "Pooling"
  bottom: "conv1_2"
  top: "pool1"
  pooling_param {
    pool: MAX
    kernel_size: 2
    stride: 2
  }
}
layer {
  name: "conv2_1"
  type: "Convolution"
  bottom: "pool1"
  top: "conv2_1"
  param {
    lr_mult: 1
    decay_mult: 1
  }
  param {
    lr_mult: 1
    decay_mult: 0
  }
  convolution_param {
    num_output: 128
    pad: 1
    kernel_size: 3
    weight_filler {
      type: "xavier"
    }
    bias_filler {
      type: "constant"
      value: 0
    }
  }
}
layer {
  name: "relu2_1"
  type: "ReLU"
  bottom: "conv2_1"
  top: "conv2_1"
}
layer {
  name: "conv2_2"
  type: "Convolution"
  bottom: "conv2_1"
  top: "conv2_2"
  param {
    lr_mult: 1
    decay_mult: 1
  }
  param {
    lr_mult: 1
    decay_mult: 0
  }
  convolution_param {
    num_output: 128
    pad: 1
    kernel_size: 3
    weight_filler {
      type: "xavier"
    }
    bias_filler {
      type: "constant"
      value: 0
    }
  }
}
layer {
  name: "relu2_2"
  type: "ReLU"
  bottom: "conv2_2"
  top: "conv2_2"
}
layer {
  name: "pool2"
  type: "Pooling"
  bottom: "conv2_2"
  top: "pool2"
  pooling_param {
    pool: MAX
    kernel_size: 2
    stride: 2
  }
}
layer {
  name: "conv3_1"
  type: "Convolution"
  bottom: "pool2"
  top: "conv3_1"
  param {
    lr_mult: 1
    decay_mult: 1
  }
  param {
    lr_mult: 1
    decay_mult: 0
  }
  convolution_param {
    num_output: 256
    pad: 1
    kernel_size: 3
    weight_filler {
      type: "xavier"
    }
    bias_filler {
      type: "constant"
      value: 0
    }
  }
}
layer {
  name: "relu3_1"
  type: "ReLU"
  bottom: "conv3_1"
  top: "conv3_1"
}
layer {
  name: "conv3_2"
  type: "Convolution"
  bottom: "conv3_1"
  top: "conv3_2"
  param {
    lr_mult: 1
    decay_mult: 1
  }
  param {
    lr_mult: 1
    decay_mult: 0
  }
  convolution_param {
    num_output: 256
    pad: 1
    kernel_size: 3
    weight_filler {
      type: "xavier"
    }
    bias_filler {
      type: "constant"
      value: 0
    }
  }
}
layer {
  name: "relu3_2"
  type: "ReLU"
  bottom: "conv3_2"
  top: "conv3_2"
}
layer {
  name: "conv3_3"
  type: "Convolution"
  bottom: "conv3_2"
  top: "conv3_3"
  param {
    lr_mult: 1
    decay_mult: 1
  }
  param {
    lr_mult: 1
    decay_mult: 0
  }
  convolution_param {
    num_output: 256
    pad: 1
    kernel_size: 3
    weight_filler {
      type: "xavier"
    }
    bias_filler {
      type: "constant"
      value: 0
    }
  }
}
layer {
  name: "relu3_3"
  type: "ReLU"
  bottom: "conv3_3"
  top: "conv3_3"
}
layer {
  name: "pool3"
  type: "Pooling"
  bottom: "conv3_3"
  top: "pool3"
  pooling_param {
    pool: MAX
    kernel_size: 2
    stride: 2
  }
}
layer {
  name: "conv4_1"
  type: "Convolution"
  bottom: "pool3"
  top: "conv4_1"
  param {
    lr_mult: 1
    decay_mult: 1
  }
  param {
    lr_mult: 1
    decay_mult: 0
  }
  convolution_param {
    num_output: 512
    pad: 1
    kernel_size: 3
    weight_filler {
      type: "xavier"
    }
    bias_filler {
      type: "constant"
      value: 0
    }
  }
}
layer {
  name: "relu4_1"
  type: "ReLU"
  bottom: "conv4_1"
  top: "conv4_1"
}
layer {
  name: "conv4_2"
  type: "Convolution"
  bottom: "conv4_1"
  top: "conv4_2"
  param {
    lr_mult: 1
    decay_mult: 1
  }
  param {
    lr_mult: 1
    decay_mult: 0
  }
  convolution_param {
    num_output: 512
    pad: 1
    kernel_size: 3
    weight_filler {
      type: "xavier"
    }
    bias_filler {
      type: "constant"
      value: 0
    }
  }
}
layer {
  name: "relu4_2"
  type: "ReLU"
  bottom: "conv4_2"
  top: "conv4_2"
}
layer {
  name: "conv4_3"
  type: "Convolution"
  bottom: "conv4_2"
  top: "conv4_3"
  param {
    lr_mult: 1
    decay_mult: 1
  }
  param {
    lr_mult: 1
    decay_mult: 0
  }
  convolution_param {
    num_output: 512
    pad: 1
    kernel_size: 3
    weight_filler {
      type: "xavier"
    }
    bias_filler {
      type: "constant"
      value: 0
    }
  }
}
layer {
  name: "relu4_3"
  type: "ReLU"
  bottom: "conv4_3"
  top: "conv4_3"
}
layer {
  name: "pool4"
  type: "Pooling"
  bottom: "conv4_3"
  top: "pool4"
  pooling_param {
    pool: MAX
    kernel_size: 2
    stride: 2
  }
}
layer {
  name: "conv5_1"
  type: "Convolution"
  bottom: "pool4"
  top: "conv5_1"
  param {
    lr_mult: 1
    decay_mult: 1
  }
  param {
    lr_mult: 1
    decay_mult: 0
  }
  convolution_param {
    num_output: 512
    pad: 1
    kernel_size: 3
    weight_filler {
      type: "xavier"
    }
    bias_filler {
      type: "constant"
      value: 0
    }
    dilation: 1
  }
}
layer {
  name: "relu5_1"
  type: "ReLU"
  bottom: "conv5_1"
  top: "conv5_1"
}
layer {
  name: "conv5_2"
  type: "Convolution"
  bottom: "conv5_1"
  top: "conv5_2"
  param {
    lr_mult: 1
    decay_mult: 1
  }
  param {
    lr_mult: 1
    decay_mult: 0
  }
  convolution_param {
    num_output: 512
    pad: 1
    kernel_size: 3
    weight_filler {
      type: "xavier"
    }
    bias_filler {
      type: "constant"
      value: 0
    }
    dilation: 1
  }
}
layer {
  name: "relu5_2"
  type: "ReLU"
  bottom: "conv5_2"
  top: "conv5_2"
}
layer {
  name: "conv5_3"
  type: "Convolution"
  bottom: "conv5_2"
  top: "conv5_3"
  param {
    lr_mult: 1
    decay_mult: 1
  }
  param {
    lr_mult: 1
    decay_mult: 0
  }
  convolution_param {
    num_output: 512
    pad: 1
    kernel_size: 3
    weight_filler {
      type: "xavier"
    }
    bias_filler {
      type: "constant"
      value: 0
    }
    dilation: 1
  }
}
layer {
  name: "relu5_3"
  type: "ReLU"
  bottom: "conv5_3"
  top: "conv5_3"
}
layer {
  name: "pool5"
  type: "Pooling"
  bottom: "conv5_3"
  top: "pool5"
  pooling_param {
    pool: MAX
    kernel_size: 3
    stride: 1
    pad: 1
  }
}
layer {
  name: "fc6"
  type: "Convolution"
  bottom: "pool5"
  top: "fc6"
  param {
    lr_mult: 1
    decay_mult: 1
  }
  param {
    lr_mult: 1
    decay_mult: 0
  }
  convolution_param {
    num_output: 1024
    pad: 6
    kernel_size: 3
    weight_filler {
      type: "xavier"
    }
    bias_filler {
      type: "constant"
      value: 0
    }
    dilation: 6
  }
}
layer {
  name: "relu6"
  type: "ReLU"
  bottom: "fc6"
  top: "fc6"
}
layer {
  name: "fc7"
  type: "Convolution"
  bottom: "fc6"
  top: "fc7"
  param {
    lr_mult: 1
    decay_mult: 1
  }
  param {
    lr_mult: 1
    decay_mult: 0
  }
  convolution_param {
    num_output: 1024
    kernel_size: 1
    weight_filler {
      type: "xavier"
    }
    bias_filler {
      type: "constant"
      value: 0
    }
  }
}
layer {
  name: "relu7"
  type: "ReLU"
  bottom: "fc7"
  top: "fc7"
}
layer {
  name: "conv8_1"
  type: "Convolution"
  bottom: "fc7"
  top: "conv8_1"
  param {
    lr_mult: 1
    decay_mult: 1
  }
  param {
    lr_mult: 2
    decay_mult: 0
  }
  convolution_param {
    num_output: 256
    pad: 0
    kernel_size: 1
    stride: 1
    weight_filler {
      type: "xavier"
    }
    bias_filler {
      type: "constant"
      value: 0
    }
  }
}
layer {
  name: "conv8_1_relu"
  type: "ReLU"
  bottom: "conv8_1"
  top: "conv8_1"
}
layer {
  name: "conv8_2"
  type: "Convolution"
  bottom: "conv8_1"
  top: "conv8_2"
  param {
    lr_mult: 1
    decay_mult: 1
  }
  param {
    lr_mult: 2
    decay_mult: 0
  }
  convolution_param {
    num_output: 512
    pad: 1
    kernel_size: 3
    stride: 2
    weight_filler {
      type: "xavier"
    }
    bias_filler {
      type: "constant"
      value: 0
    }
  }
}
layer {
  name: "conv8_2_relu"
  type: "ReLU"
  bottom: "conv8_2"
  top: "conv8_2"
}
layer {
  name: "conv9_1"
  type: "Convolution"
  bottom: "conv8_2"
  top: "conv9_1"
  param {
    lr_mult: 1
    decay_mult: 1
  }
  param {
    lr_mult: 2
    decay_mult: 0
  }
  convolution_param {
    num_output: 128
    pad: 0
    kernel_size: 1
    stride: 1
    weight_filler {
      type: "xavier"
    }
    bias_filler {
      type: "constant"
      value: 0
    }
  }
}
layer {
  name: "conv9_1_relu"
  type: "ReLU"
  bottom: "conv9_1"
  top: "conv9_1"
}
layer {
  name: "conv9_2"
  type: "Convolution"
  bottom: "conv9_1"
  top: "conv9_2"
  param {
    lr_mult: 1
    decay_mult: 1
  }
  param {
    lr_mult: 2
    decay_mult: 0
  }
  convolution_param {
    num_output: 256
    pad: 1
    kernel_size: 3
    stride: 2
    weight_filler {
      type: "xavier"
    }
    bias_filler {
      type: "constant"
      value: 0
    }
  }
}
layer {
  name: "conv9_2_relu"
  type: "ReLU"
  bottom: "conv9_2"
  top: "conv9_2"
}
layer {
  name: "conv10_1"
  type: "Convolution"
  bottom: "conv9_2"
  top: "conv10_1"
  param {
    lr_mult: 1
    decay_mult: 1
  }
  param {
    lr_mult: 2
    decay_mult: 0
  }
  convolution_param {
    num_output: 128
    pad: 0
    kernel_size: 1
    stride: 1
    weight_filler {
      type: "xavier"
    }
    bias_filler {
      type: "constant"
      value: 0
    }
  }
}
layer {
  name: "conv10_1_relu"
  type: "ReLU"
  bottom: "conv10_1"
  top: "conv10_1"
}
layer {
  name: "conv10_2"
  type: "Convolution"
  bottom: "conv10_1"
  top: "conv10_2"
  param {
    lr_mult: 1
    decay_mult: 1
  }
  param {
    lr_mult: 2
    decay_mult: 0
  }
  convolution_param {
    num_output: 256
    pad: 0
    kernel_size: 3
    stride: 1
    weight_filler {
      type: "xavier"
    }
    bias_filler {
      type: "constant"
      value: 0
    }
  }
}
layer {
  name: "conv10_2_relu"
  type: "ReLU"
  bottom: "conv10_2"
  top: "conv10_2"
}
layer {
  name: "conv11_1"
  type: "Convolution"
  bottom: "conv10_2"
  top: "conv11_1"
  param {
    lr_mult: 1
    decay_mult: 1
  }
  param {
    lr_mult: 2
    decay_mult: 0
  }
  convolution_param {
    num_output: 128
    pad: 0
    kernel_size: 1
    stride: 1
    weight_filler {
      type: "xavier"
    }
    bias_filler {
      type: "constant"
      value: 0
    }
  }
}
layer {
  name: "conv11_1_relu"
  type: "ReLU"
  bottom: "conv11_1"
  top: "conv11_1"
}
layer {
  name: "conv11_2"
  type: "Convolution"
  bottom: "conv11_1"
  top: "conv11_2"
  param {
    lr_mult: 1
    decay_mult: 1
  }
  param {
    lr_mult: 2
    decay_mult: 0
  }
  convolution_param {
    num_output: 256
    pad: 0
    kernel_size: 3
    stride: 1
    weight_filler {
      type: "xavier"
    }
    bias_filler {
      type: "constant"
      value: 0
    }
  }
}
layer {
  name: "conv11_2_relu"
  type: "ReLU"
  bottom: "conv11_2"
  top: "conv11_2"
}
layer {
  name: "conv4_3_norm"
  type: "Normalize"
  bottom: "conv4_3"
  top: "conv4_3_norm"
  norm_param {
    across_spatial: false
    scale_filler {
      type: "constant"
      value: 20
    }
    channel_shared: false
  }
}
layer {
  name: "conv4_3_norm_mbox_loc"
  type: "Convolution"
  bottom: "conv4_3_norm"
  top: "conv4_3_norm_mbox_loc"
  param {
    lr_mult: 1
    decay_mult: 1
  }
  param {
    lr_mult: 2
    decay_mult: 0
  }
  convolution_param {
    num_output: 16
    pad: 1
    kernel_size: 3
    stride: 1
    weight_filler {
      type: "xavier"
    }
    bias_filler {
      type: "constant"
      value: 0
    }
  }
}
layer {
  name: "conv4_3_norm_mbox_loc_perm"
  type: "Permute"
  bottom: "conv4_3_norm_mbox_loc"
  top: "conv4_3_norm_mbox_loc_perm"
  permute_param {
    order: 0
    order: 2
    order: 3
    order: 1
  }
}
layer {
  name: "conv4_3_norm_mbox_loc_flat"
  type: "Flatten"
  bottom: "conv4_3_norm_mbox_loc_perm"
  top: "conv4_3_norm_mbox_loc_flat"
  flatten_param {
    axis: 1
  }
}
layer {
  name: "conv4_3_norm_mbox_conf"
  type: "Convolution"
  bottom: "conv4_3_norm"
  top: "conv4_3_norm_mbox_conf"
  param {
    lr_mult: 1
    decay_mult: 1
  }
  param {
    lr_mult: 2
    decay_mult: 0
  }
  convolution_param {
    num_output: 12
    pad: 1
    kernel_size: 3
    stride: 1
    weight_filler {
      type: "xavier"
    }
    bias_filler {
      type: "constant"
      value: 0
    }
  }
}
layer {
  name: "conv4_3_norm_mbox_conf_perm"
  type: "Permute"
  bottom: "conv4_3_norm_mbox_conf"
  top: "conv4_3_norm_mbox_conf_perm"
  permute_param {
    order: 0
    order: 2
    order: 3
    order: 1
  }
}
layer {
  name: "conv4_3_norm_mbox_conf_flat"
  type: "Flatten"
  bottom: "conv4_3_norm_mbox_conf_perm"
  top: "conv4_3_norm_mbox_conf_flat"
  flatten_param {
    axis: 1
  }
}
layer {
  name: "conv4_3_norm_mbox_priorbox"
  type: "PriorBox"
  bottom: "conv4_3_norm"
  bottom: "data"
  top: "conv4_3_norm_mbox_priorbox"
  prior_box_param {
    min_size: 30
    max_size: 60
    aspect_ratio: 2
    flip: true
    clip: false
    variance: 0.1
    variance: 0.1
    variance: 0.2
    variance: 0.2
    step: 8
    offset: 0.5
  }
}
layer {
  name: "fc7_mbox_loc"
  type: "Convolution"
  bottom: "fc7"
  top: "fc7_mbox_loc"
  param {
    lr_mult: 1
    decay_mult: 1
  }
  param {
    lr_mult: 2
    decay_mult: 0
  }
  convolution_param {
    num_output: 24
    pad: 1
    kernel_size: 3
    stride: 1
    weight_filler {
      type: "xavier"
    }
    bias_filler {
      type: "constant"
      value: 0
    }
  }
}
layer {
  name: "fc7_mbox_loc_perm"
  type: "Permute"
  bottom: "fc7_mbox_loc"
  top: "fc7_mbox_loc_perm"
  permute_param {
    order: 0
    order: 2
    order: 3
    order: 1
  }
}
layer {
  name: "fc7_mbox_loc_flat"
  type: "Flatten"
  bottom: "fc7_mbox_loc_perm"
  top: "fc7_mbox_loc_flat"
  flatten_param {
    axis: 1
  }
}
layer {
  name: "fc7_mbox_conf"
  type: "Convolution"
  bottom: "fc7"
  top: "fc7_mbox_conf"
  param {
    lr_mult: 1
    decay_mult: 1
  }
  param {
    lr_mult: 2
    decay_mult: 0
  }
  convolution_param {
    num_output: 18
    pad: 1
    kernel_size: 3
    stride: 1
    weight_filler {
      type: "xavier"
    }
    bias_filler {
      type: "constant"
      value: 0
    }
  }
}
layer {
  name: "fc7_mbox_conf_perm"
  type: "Permute"
  bottom: "fc7_mbox_conf"
  top: "fc7_mbox_conf_perm"
  permute_param {
    order: 0
    order: 2
    order: 3
    order: 1
  }
}
layer {
  name: "fc7_mbox_conf_flat"
  type: "Flatten"
  bottom: "fc7_mbox_conf_perm"
  top: "fc7_mbox_conf_flat"
  flatten_param {
    axis: 1
  }
}
layer {
  name: "fc7_mbox_priorbox"
  type: "PriorBox"
  bottom: "fc7"
  bottom: "data"
  top: "fc7_mbox_priorbox"
  prior_box_param {
    min_size: 60
    max_size: 111
    aspect_ratio: 2
    aspect_ratio: 3
    flip: true
    clip: false
    variance: 0.1
    variance: 0.1
    variance: 0.2
    variance: 0.2
    step: 16
    offset: 0.5
  }
}
layer {
  name: "conv8_2_mbox_loc"
  type: "Convolution"
  bottom: "conv8_2"
  top: "conv8_2_mbox_loc"
  param {
    lr_mult: 1
    decay_mult: 1
  }
  param {
    lr_mult: 2
    decay_mult: 0
  }
  convolution_param {
    num_output: 24
    pad: 1
    kernel_size: 3
    stride: 1
    weight_filler {
      type: "xavier"
    }
    bias_filler {
      type: "constant"
      value: 0
    }
  }
}
layer {
  name: "conv8_2_mbox_loc_perm"
  type: "Permute"
  bottom: "conv8_2_mbox_loc"
  top: "conv8_2_mbox_loc_perm"
  permute_param {
    order: 0
    order: 2
    order: 3
    order: 1
  }
}
layer {
  name: "conv8_2_mbox_loc_flat"
  type: "Flatten"
  bottom: "conv8_2_mbox_loc_perm"
  top: "conv8_2_mbox_loc_flat"
  flatten_param {
    axis: 1
  }
}
layer {
  name: "conv8_2_mbox_conf"
  type: "Convolution"
  bottom: "conv8_2"
  top: "conv8_2_mbox_conf"
  param {
    lr_mult: 1
    decay_mult: 1
  }
  param {
    lr_mult: 2
    decay_mult: 0
  }
  convolution_param {
    num_output: 18
    pad: 1
    kernel_size: 3
    stride: 1
    weight_filler {
      type: "xavier"
    }
    bias_filler {
      type: "constant"
      value: 0
    }
  }
}
layer {
  name: "conv8_2_mbox_conf_perm"
  type: "Permute"
  bottom: "conv8_2_mbox_conf"
  top: "conv8_2_mbox_conf_perm"
  permute_param {
    order: 0
    order: 2
    order: 3
    order: 1
  }
}
layer {
  name: "conv8_2_mbox_conf_flat"
  type: "Flatten"
  bottom: "conv8_2_mbox_conf_perm"
  top: "conv8_2_mbox_conf_flat"
  flatten_param {
    axis: 1
  }
}
layer {
  name: "conv8_2_mbox_priorbox"
  type: "PriorBox"
  bottom: "conv8_2"
  bottom: "data"
  top: "conv8_2_mbox_priorbox"
  prior_box_param {
    min_size: 111
    max_size: 162
    aspect_ratio: 2
    aspect_ratio: 3
    flip: true
    clip: false
    variance: 0.1
    variance: 0.1
    variance: 0.2
    variance: 0.2
    step: 32
    offset: 0.5
  }
}
layer {
  name: "conv9_2_mbox_loc"
  type: "Convolution"
  bottom: "conv9_2"
  top: "conv9_2_mbox_loc"
  param {
    lr_mult: 1
    decay_mult: 1
  }
  param {
    lr_mult: 2
    decay_mult: 0
  }
  convolution_param {
    num_output: 24
    pad: 1
    kernel_size: 3
    stride: 1
    weight_filler {
      type: "xavier"
    }
    bias_filler {
      type: "constant"
      value: 0
    }
  }
}
layer {
  name: "conv9_2_mbox_loc_perm"
  type: "Permute"
  bottom: "conv9_2_mbox_loc"
  top: "conv9_2_mbox_loc_perm"
  permute_param {
    order: 0
    order: 2
    order: 3
    order: 1
  }
}
layer {
  name: "conv9_2_mbox_loc_flat"
  type: "Flatten"
  bottom: "conv9_2_mbox_loc_perm"
  top: "conv9_2_mbox_loc_flat"
  flatten_param {
    axis: 1
  }
}
layer {
  name: "conv9_2_mbox_conf"
  type: "Convolution"
  bottom: "conv9_2"
  top: "conv9_2_mbox_conf"
  param {
    lr_mult: 1
    decay_mult: 1
  }
  param {
    lr_mult: 2
    decay_mult: 0
  }
  convolution_param {
    num_output: 18
    pad: 1
    kernel_size: 3
    stride: 1
    weight_filler {
      type: "xavier"
    }
    bias_filler {
      type: "constant"
      value: 0
    }
  }
}
layer {
  name: "conv9_2_mbox_conf_perm"
  type: "Permute"
  bottom: "conv9_2_mbox_conf"
  top: "conv9_2_mbox_conf_perm"
  permute_param {
    order: 0
    order: 2
    order: 3
    order: 1
  }
}
layer {
  name: "conv9_2_mbox_conf_flat"
  type: "Flatten"
  bottom: "conv9_2_mbox_conf_perm"
  top: "conv9_2_mbox_conf_flat"
  flatten_param {
    axis: 1
  }
}
layer {
  name: "conv9_2_mbox_priorbox"
  type: "PriorBox"
  bottom: "conv9_2"
  bottom: "data"
  top: "conv9_2_mbox_priorbox"
  prior_box_param {
    min_size: 162
    max_size: 213
    aspect_ratio: 2
    aspect_ratio: 3
    flip: true
    clip: false
    variance: 0.1
    variance: 0.1
    variance: 0.2
    variance: 0.2
    step: 64
    offset: 0.5
  }
}
layer {
  name: "conv10_2_mbox_loc"
  type: "Convolution"
  bottom: "conv10_2"
  top: "conv10_2_mbox_loc"
  param {
    lr_mult: 1
    decay_mult: 1
  }
  param {
    lr_mult: 2
    decay_mult: 0
  }
  convolution_param {
    num_output: 16
    pad: 1
    kernel_size: 3
    stride: 1
    weight_filler {
      type: "xavier"
    }
    bias_filler {
      type: "constant"
      value: 0
    }
  }
}
layer {
  name: "conv10_2_mbox_loc_perm"
  type: "Permute"
  bottom: "conv10_2_mbox_loc"
  top: "conv10_2_mbox_loc_perm"
  permute_param {
    order: 0
    order: 2
    order: 3
    order: 1
  }
}
layer {
  name: "conv10_2_mbox_loc_flat"
  type: "Flatten"
  bottom: "conv10_2_mbox_loc_perm"
  top: "conv10_2_mbox_loc_flat"
  flatten_param {
    axis: 1
  }
}
layer {
  name: "conv10_2_mbox_conf"
  type: "Convolution"
  bottom: "conv10_2"
  top: "conv10_2_mbox_conf"
  param {
    lr_mult: 1
    decay_mult: 1
  }
  param {
    lr_mult: 2
    decay_mult: 0
  }
  convolution_param {
    num_output: 12
    pad: 1
    kernel_size: 3
    stride: 1
    weight_filler {
      type: "xavier"
    }
    bias_filler {
      type: "constant"
      value: 0
    }
  }
}
layer {
  name: "conv10_2_mbox_conf_perm"
  type: "Permute"
  bottom: "conv10_2_mbox_conf"
  top: "conv10_2_mbox_conf_perm"
  permute_param {
    order: 0
    order: 2
    order: 3
    order: 1
  }
}
layer {
  name: "conv10_2_mbox_conf_flat"
  type: "Flatten"
  bottom: "conv10_2_mbox_conf_perm"
  top: "conv10_2_mbox_conf_flat"
  flatten_param {
    axis: 1
  }
}
layer {
  name: "conv10_2_mbox_priorbox"
  type: "PriorBox"
  bottom: "conv10_2"
  bottom: "data"
  top: "conv10_2_mbox_priorbox"
  prior_box_param {
    min_size: 213
    max_size: 264
    aspect_ratio: 2
    flip: true
    clip: false
    variance: 0.1
    variance: 0.1
    variance: 0.2
    variance: 0.2
    step: 100
    offset: 0.5
  }
}
layer {
  name: "conv11_2_mbox_loc"
  type: "Convolution"
  bottom: "conv11_2"
  top: "conv11_2_mbox_loc"
  param {
    lr_mult: 1
    decay_mult: 1
  }
  param {
    lr_mult: 2
    decay_mult: 0
  }
  convolution_param {
    num_output: 16
    pad: 1
    kernel_size: 3
    stride: 1
    weight_filler {
      type: "xavier"
    }
    bias_filler {
      type: "constant"
      value: 0
    }
  }
}
layer {
  name: "conv11_2_mbox_loc_perm"
  type: "Permute"
  bottom: "conv11_2_mbox_loc"
  top: "conv11_2_mbox_loc_perm"
  permute_param {
    order: 0
    order: 2
    order: 3
    order: 1
  }
}
layer {
  name: "conv11_2_mbox_loc_flat"
  type: "Flatten"
  bottom: "conv11_2_mbox_loc_perm"
  top: "conv11_2_mbox_loc_flat"
  flatten_param {
    axis: 1
  }
}
layer {
  name: "conv11_2_mbox_conf"
  type: "Convolution"
  bottom: "conv11_2"
  top: "conv11_2_mbox_conf"
  param {
    lr_mult: 1
    decay_mult: 1
  }
  param {
    lr_mult: 2
    decay_mult: 0
  }
  convolution_param {
    num_output: 12
    pad: 1
    kernel_size: 3
    stride: 1
    weight_filler {
      type: "xavier"
    }
    bias_filler {
      type: "constant"
      value: 0
    }
  }
}
layer {
  name: "conv11_2_mbox_conf_perm"
  type: "Permute"
  bottom: "conv11_2_mbox_conf"
  top: "conv11_2_mbox_conf_perm"
  permute_param {
    order: 0
    order: 2
    order: 3
    order: 1
  }
}
layer {
  name: "conv11_2_mbox_conf_flat"
  type: "Flatten"
  bottom: "conv11_2_mbox_conf_perm"
  top: "conv11_2_mbox_conf_flat"
  flatten_param {
    axis: 1
  }
}
layer {
  name: "conv11_2_mbox_priorbox"
  type: "PriorBox"
  bottom: "conv11_2"
  bottom: "data"
  top: "conv11_2_mbox_priorbox"
  prior_box_param {
    min_size: 264
    max_size: 315
    aspect_ratio: 2
    flip: true
    clip: false
    variance: 0.1
    variance: 0.1
    variance: 0.2
    variance: 0.2
    step: 300
    offset: 0.5
  }
}
layer {
  name: "mbox_loc"
  type: "Concat"
  bottom: "conv4_3_norm_mbox_loc_flat"
  bottom: "fc7_mbox_loc_flat"
  bottom: "conv8_2_mbox_loc_flat"
  bottom: "conv9_2_mbox_loc_flat"
  bottom: "conv10_2_mbox_loc_flat"
  bottom: "conv11_2_mbox_loc_flat"
  top: "mbox_loc"
  concat_param {
    axis: 1
  }
}
layer {
  name: "mbox_conf"
  type: "Concat"
  bottom: "conv4_3_norm_mbox_conf_flat"
  bottom: "fc7_mbox_conf_flat"
  bottom: "conv8_2_mbox_conf_flat"
  bottom: "conv9_2_mbox_conf_flat"
  bottom: "conv10_2_mbox_conf_flat"
  bottom: "conv11_2_mbox_conf_flat"
  top: "mbox_conf"
  concat_param {
    axis: 1
  }
}
layer {
  name: "mbox_priorbox"
  type: "Concat"
  bottom: "conv4_3_norm_mbox_priorbox"
  bottom: "fc7_mbox_priorbox"
  bottom: "conv8_2_mbox_priorbox"
  bottom: "conv9_2_mbox_priorbox"
  bottom: "conv10_2_mbox_priorbox"
  bottom: "conv11_2_mbox_priorbox"
  top: "mbox_priorbox"
  concat_param {
    axis: 2
  }
}
layer {
  name: "mbox_conf_reshape"
  type: "Reshape"
  bottom: "mbox_conf"
  top: "mbox_conf_reshape"
  reshape_param {
    shape {
      dim: 0
      dim: -1
      dim: 3
    }
  }
}
layer {
  name: "mbox_conf_softmax"
  type: "Softmax"
  bottom: "mbox_conf_reshape"
  top: "mbox_conf_softmax"
  softmax_param {
    axis: 2
  }
}
layer {
  name: "mbox_conf_flatten"
  type: "Flatten"
  bottom: "mbox_conf_softmax"
  top: "mbox_conf_flatten"
  flatten_param {
    axis: 1
  }
}
I0630 12:58:33.437654 21000 layer_factory.hpp:77] Creating layer input
I0630 12:58:33.437654 21000 net.cpp:100] Creating Layer input
I0630 12:58:33.437654 21000 net.cpp:408] input -> data
I0630 12:58:33.448624 21000 net.cpp:150] Setting up input
I0630 12:58:33.448624 21000 net.cpp:157] Top shape: 1 3 300 300 (270000)
I0630 12:58:33.448624 21000 net.cpp:165] Memory required for data: 1080000
I0630 12:58:33.448624 21000 layer_factory.hpp:77] Creating layer data_input_0_split
I0630 12:58:33.448624 21000 net.cpp:100] Creating Layer data_input_0_split
I0630 12:58:33.448624 21000 net.cpp:434] data_input_0_split <- data
I0630 12:58:33.448624 21000 net.cpp:408] data_input_0_split -> data_input_0_split_0
I0630 12:58:33.448624 21000 net.cpp:408] data_input_0_split -> data_input_0_split_1
I0630 12:58:33.448624 21000 net.cpp:408] data_input_0_split -> data_input_0_split_2
I0630 12:58:33.448624 21000 net.cpp:408] data_input_0_split -> data_input_0_split_3
I0630 12:58:33.448624 21000 net.cpp:408] data_input_0_split -> data_input_0_split_4
I0630 12:58:33.448624 21000 net.cpp:408] data_input_0_split -> data_input_0_split_5
I0630 12:58:33.448624 21000 net.cpp:408] data_input_0_split -> data_input_0_split_6
I0630 12:58:33.448624 21000 net.cpp:150] Setting up data_input_0_split
I0630 12:58:33.448624 21000 net.cpp:157] Top shape: 1 3 300 300 (270000)
I0630 12:58:33.448624 21000 net.cpp:157] Top shape: 1 3 300 300 (270000)
I0630 12:58:33.448624 21000 net.cpp:157] Top shape: 1 3 300 300 (270000)
I0630 12:58:33.448624 21000 net.cpp:157] Top shape: 1 3 300 300 (270000)
I0630 12:58:33.448624 21000 net.cpp:157] Top shape: 1 3 300 300 (270000)
I0630 12:58:33.448624 21000 net.cpp:157] Top shape: 1 3 300 300 (270000)
I0630 12:58:33.448624 21000 net.cpp:157] Top shape: 1 3 300 300 (270000)
I0630 12:58:33.448624 21000 net.cpp:165] Memory required for data: 8640000
I0630 12:58:33.448624 21000 layer_factory.hpp:77] Creating layer conv1_1
I0630 12:58:33.448624 21000 net.cpp:100] Creating Layer conv1_1
I0630 12:58:33.448624 21000 net.cpp:434] conv1_1 <- data_input_0_split_0
I0630 12:58:33.448624 21000 net.cpp:408] conv1_1 -> conv1_1
I0630 12:58:33.448624 21000 common.cpp:36] System entropy source not available, using fallback algorithm to generate seed instead.
I0630 12:58:34.361184 21000 net.cpp:150] Setting up conv1_1
I0630 12:58:34.361184 21000 net.cpp:157] Top shape: 1 64 300 300 (5760000)
I0630 12:58:34.361184 21000 net.cpp:165] Memory required for data: 31680000
I0630 12:58:34.361184 21000 layer_factory.hpp:77] Creating layer relu1_1
I0630 12:58:34.361184 21000 net.cpp:100] Creating Layer relu1_1
I0630 12:58:34.361184 21000 net.cpp:434] relu1_1 <- conv1_1
I0630 12:58:34.361184 21000 net.cpp:395] relu1_1 -> conv1_1 (in-place)
I0630 12:58:34.362182 21000 net.cpp:150] Setting up relu1_1
I0630 12:58:34.362182 21000 net.cpp:157] Top shape: 1 64 300 300 (5760000)
I0630 12:58:34.362182 21000 net.cpp:165] Memory required for data: 54720000
I0630 12:58:34.362182 21000 layer_factory.hpp:77] Creating layer conv1_2
I0630 12:58:34.362182 21000 net.cpp:100] Creating Layer conv1_2
I0630 12:58:34.362182 21000 net.cpp:434] conv1_2 <- conv1_1
I0630 12:58:34.362182 21000 net.cpp:408] conv1_2 -> conv1_2
I0630 12:58:34.365175 21000 net.cpp:150] Setting up conv1_2
I0630 12:58:34.365175 21000 net.cpp:157] Top shape: 1 64 300 300 (5760000)
I0630 12:58:34.365175 21000 net.cpp:165] Memory required for data: 77760000
I0630 12:58:34.365175 21000 layer_factory.hpp:77] Creating layer relu1_2
I0630 12:58:34.365175 21000 net.cpp:100] Creating Layer relu1_2
I0630 12:58:34.365175 21000 net.cpp:434] relu1_2 <- conv1_2
I0630 12:58:34.365175 21000 net.cpp:395] relu1_2 -> conv1_2 (in-place)
I0630 12:58:34.365175 21000 net.cpp:150] Setting up relu1_2
I0630 12:58:34.365175 21000 net.cpp:157] Top shape: 1 64 300 300 (5760000)
I0630 12:58:34.365175 21000 net.cpp:165] Memory required for data: 100800000
I0630 12:58:34.365175 21000 layer_factory.hpp:77] Creating layer pool1
I0630 12:58:34.365175 21000 net.cpp:100] Creating Layer pool1
I0630 12:58:34.365175 21000 net.cpp:434] pool1 <- conv1_2
I0630 12:58:34.365175 21000 net.cpp:408] pool1 -> pool1
I0630 12:58:34.365175 21000 net.cpp:150] Setting up pool1
I0630 12:58:34.365175 21000 net.cpp:157] Top shape: 1 64 150 150 (1440000)
I0630 12:58:34.365175 21000 net.cpp:165] Memory required for data: 106560000
I0630 12:58:34.365175 21000 layer_factory.hpp:77] Creating layer conv2_1
I0630 12:58:34.365175 21000 net.cpp:100] Creating Layer conv2_1
I0630 12:58:34.365175 21000 net.cpp:434] conv2_1 <- pool1
I0630 12:58:34.365175 21000 net.cpp:408] conv2_1 -> conv2_1
I0630 12:58:34.368166 21000 net.cpp:150] Setting up conv2_1
I0630 12:58:34.368166 21000 net.cpp:157] Top shape: 1 128 150 150 (2880000)
I0630 12:58:34.369163 21000 net.cpp:165] Memory required for data: 118080000
I0630 12:58:34.369163 21000 layer_factory.hpp:77] Creating layer relu2_1
I0630 12:58:34.369163 21000 net.cpp:100] Creating Layer relu2_1
I0630 12:58:34.369163 21000 net.cpp:434] relu2_1 <- conv2_1
I0630 12:58:34.369163 21000 net.cpp:395] relu2_1 -> conv2_1 (in-place)
I0630 12:58:34.369163 21000 net.cpp:150] Setting up relu2_1
I0630 12:58:34.369163 21000 net.cpp:157] Top shape: 1 128 150 150 (2880000)
I0630 12:58:34.369163 21000 net.cpp:165] Memory required for data: 129600000
I0630 12:58:34.369163 21000 layer_factory.hpp:77] Creating layer conv2_2
I0630 12:58:34.369163 21000 net.cpp:100] Creating Layer conv2_2
I0630 12:58:34.369163 21000 net.cpp:434] conv2_2 <- conv2_1
I0630 12:58:34.369163 21000 net.cpp:408] conv2_2 -> conv2_2
I0630 12:58:34.372155 21000 net.cpp:150] Setting up conv2_2
I0630 12:58:34.372155 21000 net.cpp:157] Top shape: 1 128 150 150 (2880000)
I0630 12:58:34.372155 21000 net.cpp:165] Memory required for data: 141120000
I0630 12:58:34.372155 21000 layer_factory.hpp:77] Creating layer relu2_2
I0630 12:58:34.372155 21000 net.cpp:100] Creating Layer relu2_2
I0630 12:58:34.372155 21000 net.cpp:434] relu2_2 <- conv2_2
I0630 12:58:34.372155 21000 net.cpp:395] relu2_2 -> conv2_2 (in-place)
I0630 12:58:34.373152 21000 net.cpp:150] Setting up relu2_2
I0630 12:58:34.373152 21000 net.cpp:157] Top shape: 1 128 150 150 (2880000)
I0630 12:58:34.373152 21000 net.cpp:165] Memory required for data: 152640000
I0630 12:58:34.373152 21000 layer_factory.hpp:77] Creating layer pool2
I0630 12:58:34.373152 21000 net.cpp:100] Creating Layer pool2
I0630 12:58:34.373152 21000 net.cpp:434] pool2 <- conv2_2
I0630 12:58:34.373152 21000 net.cpp:408] pool2 -> pool2
I0630 12:58:34.373152 21000 net.cpp:150] Setting up pool2
I0630 12:58:34.373152 21000 net.cpp:157] Top shape: 1 128 75 75 (720000)
I0630 12:58:34.373152 21000 net.cpp:165] Memory required for data: 155520000
I0630 12:58:34.373152 21000 layer_factory.hpp:77] Creating layer conv3_1
I0630 12:58:34.373152 21000 net.cpp:100] Creating Layer conv3_1
I0630 12:58:34.373152 21000 net.cpp:434] conv3_1 <- pool2
I0630 12:58:34.373152 21000 net.cpp:408] conv3_1 -> conv3_1
I0630 12:58:34.378139 21000 net.cpp:150] Setting up conv3_1
I0630 12:58:34.378139 21000 net.cpp:157] Top shape: 1 256 75 75 (1440000)
I0630 12:58:34.378139 21000 net.cpp:165] Memory required for data: 161280000
I0630 12:58:34.378139 21000 layer_factory.hpp:77] Creating layer relu3_1
I0630 12:58:34.378139 21000 net.cpp:100] Creating Layer relu3_1
I0630 12:58:34.378139 21000 net.cpp:434] relu3_1 <- conv3_1
I0630 12:58:34.378139 21000 net.cpp:395] relu3_1 -> conv3_1 (in-place)
I0630 12:58:34.380134 21000 net.cpp:150] Setting up relu3_1
I0630 12:58:34.380134 21000 net.cpp:157] Top shape: 1 256 75 75 (1440000)
I0630 12:58:34.380134 21000 net.cpp:165] Memory required for data: 167040000
I0630 12:58:34.380134 21000 layer_factory.hpp:77] Creating layer conv3_2
I0630 12:58:34.380134 21000 net.cpp:100] Creating Layer conv3_2
I0630 12:58:34.380134 21000 net.cpp:434] conv3_2 <- conv3_1
I0630 12:58:34.380134 21000 net.cpp:408] conv3_2 -> conv3_2
I0630 12:58:34.387115 21000 net.cpp:150] Setting up conv3_2
I0630 12:58:34.387115 21000 net.cpp:157] Top shape: 1 256 75 75 (1440000)
I0630 12:58:34.387115 21000 net.cpp:165] Memory required for data: 172800000
I0630 12:58:34.387115 21000 layer_factory.hpp:77] Creating layer relu3_2
I0630 12:58:34.387115 21000 net.cpp:100] Creating Layer relu3_2
I0630 12:58:34.387115 21000 net.cpp:434] relu3_2 <- conv3_2
I0630 12:58:34.387115 21000 net.cpp:395] relu3_2 -> conv3_2 (in-place)
I0630 12:58:34.387115 21000 net.cpp:150] Setting up relu3_2
I0630 12:58:34.387115 21000 net.cpp:157] Top shape: 1 256 75 75 (1440000)
I0630 12:58:34.387115 21000 net.cpp:165] Memory required for data: 178560000
I0630 12:58:34.387115 21000 layer_factory.hpp:77] Creating layer conv3_3
I0630 12:58:34.387115 21000 net.cpp:100] Creating Layer conv3_3
I0630 12:58:34.387115 21000 net.cpp:434] conv3_3 <- conv3_2
I0630 12:58:34.387115 21000 net.cpp:408] conv3_3 -> conv3_3
I0630 12:58:34.395094 21000 net.cpp:150] Setting up conv3_3
I0630 12:58:34.395094 21000 net.cpp:157] Top shape: 1 256 75 75 (1440000)
I0630 12:58:34.395094 21000 net.cpp:165] Memory required for data: 184320000
I0630 12:58:34.395094 21000 layer_factory.hpp:77] Creating layer relu3_3
I0630 12:58:34.395094 21000 net.cpp:100] Creating Layer relu3_3
I0630 12:58:34.395094 21000 net.cpp:434] relu3_3 <- conv3_3
I0630 12:58:34.395094 21000 net.cpp:395] relu3_3 -> conv3_3 (in-place)
I0630 12:58:34.395094 21000 net.cpp:150] Setting up relu3_3
I0630 12:58:34.395094 21000 net.cpp:157] Top shape: 1 256 75 75 (1440000)
I0630 12:58:34.395094 21000 net.cpp:165] Memory required for data: 190080000
I0630 12:58:34.395094 21000 layer_factory.hpp:77] Creating layer pool3
I0630 12:58:34.395094 21000 net.cpp:100] Creating Layer pool3
I0630 12:58:34.395094 21000 net.cpp:434] pool3 <- conv3_3
I0630 12:58:34.395094 21000 net.cpp:408] pool3 -> pool3
I0630 12:58:34.395094 21000 net.cpp:150] Setting up pool3
I0630 12:58:34.395094 21000 net.cpp:157] Top shape: 1 256 38 38 (369664)
I0630 12:58:34.395094 21000 net.cpp:165] Memory required for data: 191558656
I0630 12:58:34.396091 21000 layer_factory.hpp:77] Creating layer conv4_1
I0630 12:58:34.396091 21000 net.cpp:100] Creating Layer conv4_1
I0630 12:58:34.396091 21000 net.cpp:434] conv4_1 <- pool3
I0630 12:58:34.396091 21000 net.cpp:408] conv4_1 -> conv4_1
I0630 12:58:34.406064 21000 net.cpp:150] Setting up conv4_1
I0630 12:58:34.406064 21000 net.cpp:157] Top shape: 1 512 38 38 (739328)
I0630 12:58:34.406064 21000 net.cpp:165] Memory required for data: 194515968
I0630 12:58:34.406064 21000 layer_factory.hpp:77] Creating layer relu4_1
I0630 12:58:34.406064 21000 net.cpp:100] Creating Layer relu4_1
I0630 12:58:34.406064 21000 net.cpp:434] relu4_1 <- conv4_1
I0630 12:58:34.406064 21000 net.cpp:395] relu4_1 -> conv4_1 (in-place)
I0630 12:58:34.406064 21000 net.cpp:150] Setting up relu4_1
I0630 12:58:34.407061 21000 net.cpp:157] Top shape: 1 512 38 38 (739328)
I0630 12:58:34.407061 21000 net.cpp:165] Memory required for data: 197473280
I0630 12:58:34.407061 21000 layer_factory.hpp:77] Creating layer conv4_2
I0630 12:58:34.407061 21000 net.cpp:100] Creating Layer conv4_2
I0630 12:58:34.407061 21000 net.cpp:434] conv4_2 <- conv4_1
I0630 12:58:34.407061 21000 net.cpp:408] conv4_2 -> conv4_2
I0630 12:58:34.424017 21000 net.cpp:150] Setting up conv4_2
I0630 12:58:34.425014 21000 net.cpp:157] Top shape: 1 512 38 38 (739328)
I0630 12:58:34.425014 21000 net.cpp:165] Memory required for data: 200430592
I0630 12:58:34.425014 21000 layer_factory.hpp:77] Creating layer relu4_2
I0630 12:58:34.425014 21000 net.cpp:100] Creating Layer relu4_2
I0630 12:58:34.425014 21000 net.cpp:434] relu4_2 <- conv4_2
I0630 12:58:34.425014 21000 net.cpp:395] relu4_2 -> conv4_2 (in-place)
I0630 12:58:34.425014 21000 net.cpp:150] Setting up relu4_2
I0630 12:58:34.425014 21000 net.cpp:157] Top shape: 1 512 38 38 (739328)
I0630 12:58:34.425014 21000 net.cpp:165] Memory required for data: 203387904
I0630 12:58:34.425014 21000 layer_factory.hpp:77] Creating layer conv4_3
I0630 12:58:34.425014 21000 net.cpp:100] Creating Layer conv4_3
I0630 12:58:34.425014 21000 net.cpp:434] conv4_3 <- conv4_2
I0630 12:58:34.425014 21000 net.cpp:408] conv4_3 -> conv4_3
I0630 12:58:34.442966 21000 net.cpp:150] Setting up conv4_3
I0630 12:58:34.442966 21000 net.cpp:157] Top shape: 1 512 38 38 (739328)
I0630 12:58:34.442966 21000 net.cpp:165] Memory required for data: 206345216
I0630 12:58:34.442966 21000 layer_factory.hpp:77] Creating layer relu4_3
I0630 12:58:34.442966 21000 net.cpp:100] Creating Layer relu4_3
I0630 12:58:34.442966 21000 net.cpp:434] relu4_3 <- conv4_3
I0630 12:58:34.442966 21000 net.cpp:395] relu4_3 -> conv4_3 (in-place)
I0630 12:58:34.443964 21000 net.cpp:150] Setting up relu4_3
I0630 12:58:34.443964 21000 net.cpp:157] Top shape: 1 512 38 38 (739328)
I0630 12:58:34.443964 21000 net.cpp:165] Memory required for data: 209302528
I0630 12:58:34.443964 21000 layer_factory.hpp:77] Creating layer conv4_3_relu4_3_0_split
I0630 12:58:34.443964 21000 net.cpp:100] Creating Layer conv4_3_relu4_3_0_split
I0630 12:58:34.443964 21000 net.cpp:434] conv4_3_relu4_3_0_split <- conv4_3
I0630 12:58:34.443964 21000 net.cpp:408] conv4_3_relu4_3_0_split -> conv4_3_relu4_3_0_split_0
I0630 12:58:34.444960 21000 net.cpp:408] conv4_3_relu4_3_0_split -> conv4_3_relu4_3_0_split_1
I0630 12:58:34.444960 21000 net.cpp:150] Setting up conv4_3_relu4_3_0_split
I0630 12:58:34.444960 21000 net.cpp:157] Top shape: 1 512 38 38 (739328)
I0630 12:58:34.444960 21000 net.cpp:157] Top shape: 1 512 38 38 (739328)
I0630 12:58:34.444960 21000 net.cpp:165] Memory required for data: 215217152
I0630 12:58:34.444960 21000 layer_factory.hpp:77] Creating layer pool4
I0630 12:58:34.444960 21000 net.cpp:100] Creating Layer pool4
I0630 12:58:34.444960 21000 net.cpp:434] pool4 <- conv4_3_relu4_3_0_split_0
I0630 12:58:34.444960 21000 net.cpp:408] pool4 -> pool4
I0630 12:58:34.444960 21000 net.cpp:150] Setting up pool4
I0630 12:58:34.444960 21000 net.cpp:157] Top shape: 1 512 19 19 (184832)
I0630 12:58:34.444960 21000 net.cpp:165] Memory required for data: 215956480
I0630 12:58:34.444960 21000 layer_factory.hpp:77] Creating layer conv5_1
I0630 12:58:34.444960 21000 net.cpp:100] Creating Layer conv5_1
I0630 12:58:34.444960 21000 net.cpp:434] conv5_1 <- pool4
I0630 12:58:34.444960 21000 net.cpp:408] conv5_1 -> conv5_1
I0630 12:58:34.460918 21000 net.cpp:150] Setting up conv5_1
I0630 12:58:34.460918 21000 net.cpp:157] Top shape: 1 512 19 19 (184832)
I0630 12:58:34.461916 21000 net.cpp:165] Memory required for data: 216695808
I0630 12:58:34.461916 21000 layer_factory.hpp:77] Creating layer relu5_1
I0630 12:58:34.461916 21000 net.cpp:100] Creating Layer relu5_1
I0630 12:58:34.461916 21000 net.cpp:434] relu5_1 <- conv5_1
I0630 12:58:34.461916 21000 net.cpp:395] relu5_1 -> conv5_1 (in-place)
I0630 12:58:34.461916 21000 net.cpp:150] Setting up relu5_1
I0630 12:58:34.461916 21000 net.cpp:157] Top shape: 1 512 19 19 (184832)
I0630 12:58:34.461916 21000 net.cpp:165] Memory required for data: 217435136
I0630 12:58:34.461916 21000 layer_factory.hpp:77] Creating layer conv5_2
I0630 12:58:34.461916 21000 net.cpp:100] Creating Layer conv5_2
I0630 12:58:34.461916 21000 net.cpp:434] conv5_2 <- conv5_1
I0630 12:58:34.461916 21000 net.cpp:408] conv5_2 -> conv5_2
I0630 12:58:34.479867 21000 net.cpp:150] Setting up conv5_2
I0630 12:58:34.479867 21000 net.cpp:157] Top shape: 1 512 19 19 (184832)
I0630 12:58:34.479867 21000 net.cpp:165] Memory required for data: 218174464
I0630 12:58:34.479867 21000 layer_factory.hpp:77] Creating layer relu5_2
I0630 12:58:34.479867 21000 net.cpp:100] Creating Layer relu5_2
I0630 12:58:34.479867 21000 net.cpp:434] relu5_2 <- conv5_2
I0630 12:58:34.479867 21000 net.cpp:395] relu5_2 -> conv5_2 (in-place)
I0630 12:58:34.479867 21000 net.cpp:150] Setting up relu5_2
I0630 12:58:34.479867 21000 net.cpp:157] Top shape: 1 512 19 19 (184832)
I0630 12:58:34.479867 21000 net.cpp:165] Memory required for data: 218913792
I0630 12:58:34.480865 21000 layer_factory.hpp:77] Creating layer conv5_3
I0630 12:58:34.480865 21000 net.cpp:100] Creating Layer conv5_3
I0630 12:58:34.480865 21000 net.cpp:434] conv5_3 <- conv5_2
I0630 12:58:34.480865 21000 net.cpp:408] conv5_3 -> conv5_3
I0630 12:58:34.497819 21000 net.cpp:150] Setting up conv5_3
I0630 12:58:34.497819 21000 net.cpp:157] Top shape: 1 512 19 19 (184832)
I0630 12:58:34.497819 21000 net.cpp:165] Memory required for data: 219653120
I0630 12:58:34.497819 21000 layer_factory.hpp:77] Creating layer relu5_3
I0630 12:58:34.497819 21000 net.cpp:100] Creating Layer relu5_3
I0630 12:58:34.497819 21000 net.cpp:434] relu5_3 <- conv5_3
I0630 12:58:34.497819 21000 net.cpp:395] relu5_3 -> conv5_3 (in-place)
I0630 12:58:34.497819 21000 net.cpp:150] Setting up relu5_3
I0630 12:58:34.497819 21000 net.cpp:157] Top shape: 1 512 19 19 (184832)
I0630 12:58:34.497819 21000 net.cpp:165] Memory required for data: 220392448
I0630 12:58:34.497819 21000 layer_factory.hpp:77] Creating layer pool5
I0630 12:58:34.497819 21000 net.cpp:100] Creating Layer pool5
I0630 12:58:34.498817 21000 net.cpp:434] pool5 <- conv5_3
I0630 12:58:34.498817 21000 net.cpp:408] pool5 -> pool5
I0630 12:58:34.498817 21000 net.cpp:150] Setting up pool5
I0630 12:58:34.498817 21000 net.cpp:157] Top shape: 1 512 19 19 (184832)
I0630 12:58:34.498817 21000 net.cpp:165] Memory required for data: 221131776
I0630 12:58:34.498817 21000 layer_factory.hpp:77] Creating layer fc6
I0630 12:58:34.498817 21000 net.cpp:100] Creating Layer fc6
I0630 12:58:34.498817 21000 net.cpp:434] fc6 <- pool5
I0630 12:58:34.498817 21000 net.cpp:408] fc6 -> fc6
I0630 12:58:34.527740 21000 net.cpp:150] Setting up fc6
I0630 12:58:34.527740 21000 net.cpp:157] Top shape: 1 1024 19 19 (369664)
I0630 12:58:34.527740 21000 net.cpp:165] Memory required for data: 222610432
I0630 12:58:34.527740 21000 layer_factory.hpp:77] Creating layer relu6
I0630 12:58:34.527740 21000 net.cpp:100] Creating Layer relu6
I0630 12:58:34.527740 21000 net.cpp:434] relu6 <- fc6
I0630 12:58:34.527740 21000 net.cpp:395] relu6 -> fc6 (in-place)
I0630 12:58:34.528738 21000 net.cpp:150] Setting up relu6
I0630 12:58:34.528738 21000 net.cpp:157] Top shape: 1 1024 19 19 (369664)
I0630 12:58:34.528738 21000 net.cpp:165] Memory required for data: 224089088
I0630 12:58:34.528738 21000 layer_factory.hpp:77] Creating layer fc7
I0630 12:58:34.528738 21000 net.cpp:100] Creating Layer fc7
I0630 12:58:34.528738 21000 net.cpp:434] fc7 <- fc6
I0630 12:58:34.528738 21000 net.cpp:408] fc7 -> fc7
I0630 12:58:34.537712 21000 net.cpp:150] Setting up fc7
I0630 12:58:34.537712 21000 net.cpp:157] Top shape: 1 1024 19 19 (369664)
I0630 12:58:34.537712 21000 net.cpp:165] Memory required for data: 225567744
I0630 12:58:34.538710 21000 layer_factory.hpp:77] Creating layer relu7
I0630 12:58:34.538710 21000 net.cpp:100] Creating Layer relu7
I0630 12:58:34.538710 21000 net.cpp:434] relu7 <- fc7
I0630 12:58:34.538710 21000 net.cpp:395] relu7 -> fc7 (in-place)
I0630 12:58:34.538710 21000 net.cpp:150] Setting up relu7
I0630 12:58:34.538710 21000 net.cpp:157] Top shape: 1 1024 19 19 (369664)
I0630 12:58:34.538710 21000 net.cpp:165] Memory required for data: 227046400
I0630 12:58:34.538710 21000 layer_factory.hpp:77] Creating layer fc7_relu7_0_split
I0630 12:58:34.538710 21000 net.cpp:100] Creating Layer fc7_relu7_0_split
I0630 12:58:34.538710 21000 net.cpp:434] fc7_relu7_0_split <- fc7
I0630 12:58:34.538710 21000 net.cpp:408] fc7_relu7_0_split -> fc7_relu7_0_split_0
I0630 12:58:34.538710 21000 net.cpp:408] fc7_relu7_0_split -> fc7_relu7_0_split_1
I0630 12:58:34.538710 21000 net.cpp:408] fc7_relu7_0_split -> fc7_relu7_0_split_2
I0630 12:58:34.538710 21000 net.cpp:408] fc7_relu7_0_split -> fc7_relu7_0_split_3
I0630 12:58:34.538710 21000 net.cpp:150] Setting up fc7_relu7_0_split
I0630 12:58:34.538710 21000 net.cpp:157] Top shape: 1 1024 19 19 (369664)
I0630 12:58:34.538710 21000 net.cpp:157] Top shape: 1 1024 19 19 (369664)
I0630 12:58:34.539707 21000 net.cpp:157] Top shape: 1 1024 19 19 (369664)
I0630 12:58:34.539707 21000 net.cpp:157] Top shape: 1 1024 19 19 (369664)
I0630 12:58:34.539707 21000 net.cpp:165] Memory required for data: 232961024
I0630 12:58:34.539707 21000 layer_factory.hpp:77] Creating layer conv8_1
I0630 12:58:34.539707 21000 net.cpp:100] Creating Layer conv8_1
I0630 12:58:34.539707 21000 net.cpp:434] conv8_1 <- fc7_relu7_0_split_0
I0630 12:58:34.539707 21000 net.cpp:408] conv8_1 -> conv8_1
I0630 12:58:34.544694 21000 net.cpp:150] Setting up conv8_1
I0630 12:58:34.545691 21000 net.cpp:157] Top shape: 1 256 19 19 (92416)
I0630 12:58:34.545691 21000 net.cpp:165] Memory required for data: 233330688
I0630 12:58:34.545691 21000 layer_factory.hpp:77] Creating layer conv8_1_relu
I0630 12:58:34.545691 21000 net.cpp:100] Creating Layer conv8_1_relu
I0630 12:58:34.545691 21000 net.cpp:434] conv8_1_relu <- conv8_1
I0630 12:58:34.545691 21000 net.cpp:395] conv8_1_relu -> conv8_1 (in-place)
I0630 12:58:34.545691 21000 net.cpp:150] Setting up conv8_1_relu
I0630 12:58:34.545691 21000 net.cpp:157] Top shape: 1 256 19 19 (92416)
I0630 12:58:34.545691 21000 net.cpp:165] Memory required for data: 233700352
I0630 12:58:34.545691 21000 layer_factory.hpp:77] Creating layer conv8_2
I0630 12:58:34.545691 21000 net.cpp:100] Creating Layer conv8_2
I0630 12:58:34.545691 21000 net.cpp:434] conv8_2 <- conv8_1
I0630 12:58:34.545691 21000 net.cpp:408] conv8_2 -> conv8_2
I0630 12:58:34.555665 21000 net.cpp:150] Setting up conv8_2
I0630 12:58:34.555665 21000 net.cpp:157] Top shape: 1 512 10 10 (51200)
I0630 12:58:34.555665 21000 net.cpp:165] Memory required for data: 233905152
I0630 12:58:34.555665 21000 layer_factory.hpp:77] Creating layer conv8_2_relu
I0630 12:58:34.555665 21000 net.cpp:100] Creating Layer conv8_2_relu
I0630 12:58:34.555665 21000 net.cpp:434] conv8_2_relu <- conv8_2
I0630 12:58:34.555665 21000 net.cpp:395] conv8_2_relu -> conv8_2 (in-place)
I0630 12:58:34.556663 21000 net.cpp:150] Setting up conv8_2_relu
I0630 12:58:34.556663 21000 net.cpp:157] Top shape: 1 512 10 10 (51200)
I0630 12:58:34.556663 21000 net.cpp:165] Memory required for data: 234109952
I0630 12:58:34.556663 21000 layer_factory.hpp:77] Creating layer conv8_2_conv8_2_relu_0_split
I0630 12:58:34.556663 21000 net.cpp:100] Creating Layer conv8_2_conv8_2_relu_0_split
I0630 12:58:34.556663 21000 net.cpp:434] conv8_2_conv8_2_relu_0_split <- conv8_2
I0630 12:58:34.556663 21000 net.cpp:408] conv8_2_conv8_2_relu_0_split -> conv8_2_conv8_2_relu_0_split_0
I0630 12:58:34.556663 21000 net.cpp:408] conv8_2_conv8_2_relu_0_split -> conv8_2_conv8_2_relu_0_split_1
I0630 12:58:34.556663 21000 net.cpp:408] conv8_2_conv8_2_relu_0_split -> conv8_2_conv8_2_relu_0_split_2
I0630 12:58:34.556663 21000 net.cpp:408] conv8_2_conv8_2_relu_0_split -> conv8_2_conv8_2_relu_0_split_3
I0630 12:58:34.556663 21000 net.cpp:150] Setting up conv8_2_conv8_2_relu_0_split
I0630 12:58:34.556663 21000 net.cpp:157] Top shape: 1 512 10 10 (51200)
I0630 12:58:34.556663 21000 net.cpp:157] Top shape: 1 512 10 10 (51200)
I0630 12:58:34.556663 21000 net.cpp:157] Top shape: 1 512 10 10 (51200)
I0630 12:58:34.556663 21000 net.cpp:157] Top shape: 1 512 10 10 (51200)
I0630 12:58:34.556663 21000 net.cpp:165] Memory required for data: 234929152
I0630 12:58:34.556663 21000 layer_factory.hpp:77] Creating layer conv9_1
I0630 12:58:34.556663 21000 net.cpp:100] Creating Layer conv9_1
I0630 12:58:34.556663 21000 net.cpp:434] conv9_1 <- conv8_2_conv8_2_relu_0_split_0
I0630 12:58:34.556663 21000 net.cpp:408] conv9_1 -> conv9_1
I0630 12:58:34.559654 21000 net.cpp:150] Setting up conv9_1
I0630 12:58:34.559654 21000 net.cpp:157] Top shape: 1 128 10 10 (12800)
I0630 12:58:34.559654 21000 net.cpp:165] Memory required for data: 234980352
I0630 12:58:34.559654 21000 layer_factory.hpp:77] Creating layer conv9_1_relu
I0630 12:58:34.559654 21000 net.cpp:100] Creating Layer conv9_1_relu
I0630 12:58:34.559654 21000 net.cpp:434] conv9_1_relu <- conv9_1
I0630 12:58:34.559654 21000 net.cpp:395] conv9_1_relu -> conv9_1 (in-place)
I0630 12:58:34.560652 21000 net.cpp:150] Setting up conv9_1_relu
I0630 12:58:34.560652 21000 net.cpp:157] Top shape: 1 128 10 10 (12800)
I0630 12:58:34.560652 21000 net.cpp:165] Memory required for data: 235031552
I0630 12:58:34.560652 21000 layer_factory.hpp:77] Creating layer conv9_2
I0630 12:58:34.560652 21000 net.cpp:100] Creating Layer conv9_2
I0630 12:58:34.560652 21000 net.cpp:434] conv9_2 <- conv9_1
I0630 12:58:34.560652 21000 net.cpp:408] conv9_2 -> conv9_2
I0630 12:58:34.564640 21000 net.cpp:150] Setting up conv9_2
I0630 12:58:34.564640 21000 net.cpp:157] Top shape: 1 256 5 5 (6400)
I0630 12:58:34.564640 21000 net.cpp:165] Memory required for data: 235057152
I0630 12:58:34.564640 21000 layer_factory.hpp:77] Creating layer conv9_2_relu
I0630 12:58:34.565639 21000 net.cpp:100] Creating Layer conv9_2_relu
I0630 12:58:34.565639 21000 net.cpp:434] conv9_2_relu <- conv9_2
I0630 12:58:34.565639 21000 net.cpp:395] conv9_2_relu -> conv9_2 (in-place)
I0630 12:58:34.565639 21000 net.cpp:150] Setting up conv9_2_relu
I0630 12:58:34.565639 21000 net.cpp:157] Top shape: 1 256 5 5 (6400)
I0630 12:58:34.565639 21000 net.cpp:165] Memory required for data: 235082752
I0630 12:58:34.565639 21000 layer_factory.hpp:77] Creating layer conv9_2_conv9_2_relu_0_split
I0630 12:58:34.565639 21000 net.cpp:100] Creating Layer conv9_2_conv9_2_relu_0_split
I0630 12:58:34.566635 21000 net.cpp:434] conv9_2_conv9_2_relu_0_split <- conv9_2
I0630 12:58:34.566635 21000 net.cpp:408] conv9_2_conv9_2_relu_0_split -> conv9_2_conv9_2_relu_0_split_0
I0630 12:58:34.566635 21000 net.cpp:408] conv9_2_conv9_2_relu_0_split -> conv9_2_conv9_2_relu_0_split_1
I0630 12:58:34.566635 21000 net.cpp:408] conv9_2_conv9_2_relu_0_split -> conv9_2_conv9_2_relu_0_split_2
I0630 12:58:34.566635 21000 net.cpp:408] conv9_2_conv9_2_relu_0_split -> conv9_2_conv9_2_relu_0_split_3
I0630 12:58:34.566635 21000 net.cpp:150] Setting up conv9_2_conv9_2_relu_0_split
I0630 12:58:34.566635 21000 net.cpp:157] Top shape: 1 256 5 5 (6400)
I0630 12:58:34.566635 21000 net.cpp:157] Top shape: 1 256 5 5 (6400)
I0630 12:58:34.566635 21000 net.cpp:157] Top shape: 1 256 5 5 (6400)
I0630 12:58:34.566635 21000 net.cpp:157] Top shape: 1 256 5 5 (6400)
I0630 12:58:34.566635 21000 net.cpp:165] Memory required for data: 235185152
I0630 12:58:34.566635 21000 layer_factory.hpp:77] Creating layer conv10_1
I0630 12:58:34.566635 21000 net.cpp:100] Creating Layer conv10_1
I0630 12:58:34.566635 21000 net.cpp:434] conv10_1 <- conv9_2_conv9_2_relu_0_split_0
I0630 12:58:34.566635 21000 net.cpp:408] conv10_1 -> conv10_1
I0630 12:58:34.568630 21000 net.cpp:150] Setting up conv10_1
I0630 12:58:34.568630 21000 net.cpp:157] Top shape: 1 128 5 5 (3200)
I0630 12:58:34.568630 21000 net.cpp:165] Memory required for data: 235197952
I0630 12:58:34.568630 21000 layer_factory.hpp:77] Creating layer conv10_1_relu
I0630 12:58:34.568630 21000 net.cpp:100] Creating Layer conv10_1_relu
I0630 12:58:34.568630 21000 net.cpp:434] conv10_1_relu <- conv10_1
I0630 12:58:34.568630 21000 net.cpp:395] conv10_1_relu -> conv10_1 (in-place)
I0630 12:58:34.568630 21000 net.cpp:150] Setting up conv10_1_relu
I0630 12:58:34.569628 21000 net.cpp:157] Top shape: 1 128 5 5 (3200)
I0630 12:58:34.569628 21000 net.cpp:165] Memory required for data: 235210752
I0630 12:58:34.569628 21000 layer_factory.hpp:77] Creating layer conv10_2
I0630 12:58:34.569628 21000 net.cpp:100] Creating Layer conv10_2
I0630 12:58:34.569628 21000 net.cpp:434] conv10_2 <- conv10_1
I0630 12:58:34.569628 21000 net.cpp:408] conv10_2 -> conv10_2
I0630 12:58:34.574613 21000 net.cpp:150] Setting up conv10_2
I0630 12:58:34.574613 21000 net.cpp:157] Top shape: 1 256 3 3 (2304)
I0630 12:58:34.574613 21000 net.cpp:165] Memory required for data: 235219968
I0630 12:58:34.574613 21000 layer_factory.hpp:77] Creating layer conv10_2_relu
I0630 12:58:34.574613 21000 net.cpp:100] Creating Layer conv10_2_relu
I0630 12:58:34.574613 21000 net.cpp:434] conv10_2_relu <- conv10_2
I0630 12:58:34.574613 21000 net.cpp:395] conv10_2_relu -> conv10_2 (in-place)
I0630 12:58:34.575613 21000 net.cpp:150] Setting up conv10_2_relu
I0630 12:58:34.575613 21000 net.cpp:157] Top shape: 1 256 3 3 (2304)
I0630 12:58:34.575613 21000 net.cpp:165] Memory required for data: 235229184
I0630 12:58:34.575613 21000 layer_factory.hpp:77] Creating layer conv10_2_conv10_2_relu_0_split
I0630 12:58:34.575613 21000 net.cpp:100] Creating Layer conv10_2_conv10_2_relu_0_split
I0630 12:58:34.575613 21000 net.cpp:434] conv10_2_conv10_2_relu_0_split <- conv10_2
I0630 12:58:34.575613 21000 net.cpp:408] conv10_2_conv10_2_relu_0_split -> conv10_2_conv10_2_relu_0_split_0
I0630 12:58:34.575613 21000 net.cpp:408] conv10_2_conv10_2_relu_0_split -> conv10_2_conv10_2_relu_0_split_1
I0630 12:58:34.575613 21000 net.cpp:408] conv10_2_conv10_2_relu_0_split -> conv10_2_conv10_2_relu_0_split_2
I0630 12:58:34.575613 21000 net.cpp:408] conv10_2_conv10_2_relu_0_split -> conv10_2_conv10_2_relu_0_split_3
I0630 12:58:34.575613 21000 net.cpp:150] Setting up conv10_2_conv10_2_relu_0_split
I0630 12:58:34.575613 21000 net.cpp:157] Top shape: 1 256 3 3 (2304)
I0630 12:58:34.575613 21000 net.cpp:157] Top shape: 1 256 3 3 (2304)
I0630 12:58:34.575613 21000 net.cpp:157] Top shape: 1 256 3 3 (2304)
I0630 12:58:34.575613 21000 net.cpp:157] Top shape: 1 256 3 3 (2304)
I0630 12:58:34.575613 21000 net.cpp:165] Memory required for data: 235266048
I0630 12:58:34.575613 21000 layer_factory.hpp:77] Creating layer conv11_1
I0630 12:58:34.575613 21000 net.cpp:100] Creating Layer conv11_1
I0630 12:58:34.575613 21000 net.cpp:434] conv11_1 <- conv10_2_conv10_2_relu_0_split_0
I0630 12:58:34.575613 21000 net.cpp:408] conv11_1 -> conv11_1
I0630 12:58:34.578603 21000 net.cpp:150] Setting up conv11_1
I0630 12:58:34.578603 21000 net.cpp:157] Top shape: 1 128 3 3 (1152)
I0630 12:58:34.578603 21000 net.cpp:165] Memory required for data: 235270656
I0630 12:58:34.578603 21000 layer_factory.hpp:77] Creating layer conv11_1_relu
I0630 12:58:34.578603 21000 net.cpp:100] Creating Layer conv11_1_relu
I0630 12:58:34.578603 21000 net.cpp:434] conv11_1_relu <- conv11_1
I0630 12:58:34.578603 21000 net.cpp:395] conv11_1_relu -> conv11_1 (in-place)
I0630 12:58:34.579602 21000 net.cpp:150] Setting up conv11_1_relu
I0630 12:58:34.579602 21000 net.cpp:157] Top shape: 1 128 3 3 (1152)
I0630 12:58:34.579602 21000 net.cpp:165] Memory required for data: 235275264
I0630 12:58:34.579602 21000 layer_factory.hpp:77] Creating layer conv11_2
I0630 12:58:34.579602 21000 net.cpp:100] Creating Layer conv11_2
I0630 12:58:34.579602 21000 net.cpp:434] conv11_2 <- conv11_1
I0630 12:58:34.579602 21000 net.cpp:408] conv11_2 -> conv11_2
I0630 12:58:34.584587 21000 net.cpp:150] Setting up conv11_2
I0630 12:58:34.584587 21000 net.cpp:157] Top shape: 1 256 1 1 (256)
I0630 12:58:34.584587 21000 net.cpp:165] Memory required for data: 235276288
I0630 12:58:34.584587 21000 layer_factory.hpp:77] Creating layer conv11_2_relu
I0630 12:58:34.584587 21000 net.cpp:100] Creating Layer conv11_2_relu
I0630 12:58:34.584587 21000 net.cpp:434] conv11_2_relu <- conv11_2
I0630 12:58:34.584587 21000 net.cpp:395] conv11_2_relu -> conv11_2 (in-place)
I0630 12:58:34.584587 21000 net.cpp:150] Setting up conv11_2_relu
I0630 12:58:34.584587 21000 net.cpp:157] Top shape: 1 256 1 1 (256)
I0630 12:58:34.584587 21000 net.cpp:165] Memory required for data: 235277312
I0630 12:58:34.584587 21000 layer_factory.hpp:77] Creating layer conv11_2_conv11_2_relu_0_split
I0630 12:58:34.584587 21000 net.cpp:100] Creating Layer conv11_2_conv11_2_relu_0_split
I0630 12:58:34.584587 21000 net.cpp:434] conv11_2_conv11_2_relu_0_split <- conv11_2
I0630 12:58:34.584587 21000 net.cpp:408] conv11_2_conv11_2_relu_0_split -> conv11_2_conv11_2_relu_0_split_0
I0630 12:58:34.584587 21000 net.cpp:408] conv11_2_conv11_2_relu_0_split -> conv11_2_conv11_2_relu_0_split_1
I0630 12:58:34.584587 21000 net.cpp:408] conv11_2_conv11_2_relu_0_split -> conv11_2_conv11_2_relu_0_split_2
I0630 12:58:34.584587 21000 net.cpp:150] Setting up conv11_2_conv11_2_relu_0_split
I0630 12:58:34.584587 21000 net.cpp:157] Top shape: 1 256 1 1 (256)
I0630 12:58:34.584587 21000 net.cpp:157] Top shape: 1 256 1 1 (256)
I0630 12:58:34.584587 21000 net.cpp:157] Top shape: 1 256 1 1 (256)
I0630 12:58:34.584587 21000 net.cpp:165] Memory required for data: 235280384
I0630 12:58:34.584587 21000 layer_factory.hpp:77] Creating layer conv4_3_norm
I0630 12:58:34.584587 21000 net.cpp:100] Creating Layer conv4_3_norm
I0630 12:58:34.584587 21000 net.cpp:434] conv4_3_norm <- conv4_3_relu4_3_0_split_1
I0630 12:58:34.584587 21000 net.cpp:408] conv4_3_norm -> conv4_3_norm
I0630 12:58:34.584587 21000 net.cpp:150] Setting up conv4_3_norm
I0630 12:58:34.584587 21000 net.cpp:157] Top shape: 1 512 38 38 (739328)
I0630 12:58:34.584587 21000 net.cpp:165] Memory required for data: 238237696
I0630 12:58:34.584587 21000 layer_factory.hpp:77] Creating layer conv4_3_norm_conv4_3_norm_0_split
I0630 12:58:34.584587 21000 net.cpp:100] Creating Layer conv4_3_norm_conv4_3_norm_0_split
I0630 12:58:34.584587 21000 net.cpp:434] conv4_3_norm_conv4_3_norm_0_split <- conv4_3_norm
I0630 12:58:34.584587 21000 net.cpp:408] conv4_3_norm_conv4_3_norm_0_split -> conv4_3_norm_conv4_3_norm_0_split_0
I0630 12:58:34.584587 21000 net.cpp:408] conv4_3_norm_conv4_3_norm_0_split -> conv4_3_norm_conv4_3_norm_0_split_1
I0630 12:58:34.584587 21000 net.cpp:408] conv4_3_norm_conv4_3_norm_0_split -> conv4_3_norm_conv4_3_norm_0_split_2
I0630 12:58:34.584587 21000 net.cpp:150] Setting up conv4_3_norm_conv4_3_norm_0_split
I0630 12:58:34.584587 21000 net.cpp:157] Top shape: 1 512 38 38 (739328)
I0630 12:58:34.584587 21000 net.cpp:157] Top shape: 1 512 38 38 (739328)
I0630 12:58:34.584587 21000 net.cpp:157] Top shape: 1 512 38 38 (739328)
I0630 12:58:34.584587 21000 net.cpp:165] Memory required for data: 247109632
I0630 12:58:34.584587 21000 layer_factory.hpp:77] Creating layer conv4_3_norm_mbox_loc
I0630 12:58:34.584587 21000 net.cpp:100] Creating Layer conv4_3_norm_mbox_loc
I0630 12:58:34.584587 21000 net.cpp:434] conv4_3_norm_mbox_loc <- conv4_3_norm_conv4_3_norm_0_split_0
I0630 12:58:34.584587 21000 net.cpp:408] conv4_3_norm_mbox_loc -> conv4_3_norm_mbox_loc
I0630 12:58:34.588577 21000 net.cpp:150] Setting up conv4_3_norm_mbox_loc
I0630 12:58:34.588577 21000 net.cpp:157] Top shape: 1 16 38 38 (23104)
I0630 12:58:34.588577 21000 net.cpp:165] Memory required for data: 247202048
I0630 12:58:34.588577 21000 layer_factory.hpp:77] Creating layer conv4_3_norm_mbox_loc_perm
I0630 12:58:34.588577 21000 net.cpp:100] Creating Layer conv4_3_norm_mbox_loc_perm
I0630 12:58:34.588577 21000 net.cpp:434] conv4_3_norm_mbox_loc_perm <- conv4_3_norm_mbox_loc
I0630 12:58:34.588577 21000 net.cpp:408] conv4_3_norm_mbox_loc_perm -> conv4_3_norm_mbox_loc_perm
I0630 12:58:34.588577 21000 net.cpp:150] Setting up conv4_3_norm_mbox_loc_perm
I0630 12:58:34.588577 21000 net.cpp:157] Top shape: 1 38 38 16 (23104)
I0630 12:58:34.588577 21000 net.cpp:165] Memory required for data: 247294464
I0630 12:58:34.588577 21000 layer_factory.hpp:77] Creating layer conv4_3_norm_mbox_loc_flat
I0630 12:58:34.588577 21000 net.cpp:100] Creating Layer conv4_3_norm_mbox_loc_flat
I0630 12:58:34.588577 21000 net.cpp:434] conv4_3_norm_mbox_loc_flat <- conv4_3_norm_mbox_loc_perm
I0630 12:58:34.588577 21000 net.cpp:408] conv4_3_norm_mbox_loc_flat -> conv4_3_norm_mbox_loc_flat
I0630 12:58:34.588577 21000 net.cpp:150] Setting up conv4_3_norm_mbox_loc_flat
I0630 12:58:34.588577 21000 net.cpp:157] Top shape: 1 23104 (23104)
I0630 12:58:34.588577 21000 net.cpp:165] Memory required for data: 247386880
I0630 12:58:34.588577 21000 layer_factory.hpp:77] Creating layer conv4_3_norm_mbox_conf
I0630 12:58:34.588577 21000 net.cpp:100] Creating Layer conv4_3_norm_mbox_conf
I0630 12:58:34.588577 21000 net.cpp:434] conv4_3_norm_mbox_conf <- conv4_3_norm_conv4_3_norm_0_split_1
I0630 12:58:34.588577 21000 net.cpp:408] conv4_3_norm_mbox_conf -> conv4_3_norm_mbox_conf
I0630 12:58:34.591568 21000 net.cpp:150] Setting up conv4_3_norm_mbox_conf
I0630 12:58:34.591568 21000 net.cpp:157] Top shape: 1 12 38 38 (17328)
I0630 12:58:34.591568 21000 net.cpp:165] Memory required for data: 247456192
I0630 12:58:34.591568 21000 layer_factory.hpp:77] Creating layer conv4_3_norm_mbox_conf_perm
I0630 12:58:34.591568 21000 net.cpp:100] Creating Layer conv4_3_norm_mbox_conf_perm
I0630 12:58:34.591568 21000 net.cpp:434] conv4_3_norm_mbox_conf_perm <- conv4_3_norm_mbox_conf
I0630 12:58:34.591568 21000 net.cpp:408] conv4_3_norm_mbox_conf_perm -> conv4_3_norm_mbox_conf_perm
I0630 12:58:34.592566 21000 net.cpp:150] Setting up conv4_3_norm_mbox_conf_perm
I0630 12:58:34.592566 21000 net.cpp:157] Top shape: 1 38 38 12 (17328)
I0630 12:58:34.592566 21000 net.cpp:165] Memory required for data: 247525504
I0630 12:58:34.592566 21000 layer_factory.hpp:77] Creating layer conv4_3_norm_mbox_conf_flat
I0630 12:58:34.592566 21000 net.cpp:100] Creating Layer conv4_3_norm_mbox_conf_flat
I0630 12:58:34.592566 21000 net.cpp:434] conv4_3_norm_mbox_conf_flat <- conv4_3_norm_mbox_conf_perm
I0630 12:58:34.592566 21000 net.cpp:408] conv4_3_norm_mbox_conf_flat -> conv4_3_norm_mbox_conf_flat
I0630 12:58:34.592566 21000 net.cpp:150] Setting up conv4_3_norm_mbox_conf_flat
I0630 12:58:34.592566 21000 net.cpp:157] Top shape: 1 17328 (17328)
I0630 12:58:34.592566 21000 net.cpp:165] Memory required for data: 247594816
I0630 12:58:34.592566 21000 layer_factory.hpp:77] Creating layer conv4_3_norm_mbox_priorbox
I0630 12:58:34.592566 21000 net.cpp:100] Creating Layer conv4_3_norm_mbox_priorbox
I0630 12:58:34.592566 21000 net.cpp:434] conv4_3_norm_mbox_priorbox <- conv4_3_norm_conv4_3_norm_0_split_2
I0630 12:58:34.592566 21000 net.cpp:434] conv4_3_norm_mbox_priorbox <- data_input_0_split_1
I0630 12:58:34.592566 21000 net.cpp:408] conv4_3_norm_mbox_priorbox -> conv4_3_norm_mbox_priorbox
I0630 12:58:34.592566 21000 net.cpp:150] Setting up conv4_3_norm_mbox_priorbox
I0630 12:58:34.592566 21000 net.cpp:157] Top shape: 1 2 23104 (46208)
I0630 12:58:34.592566 21000 net.cpp:165] Memory required for data: 247779648
I0630 12:58:34.592566 21000 layer_factory.hpp:77] Creating layer fc7_mbox_loc
I0630 12:58:34.592566 21000 net.cpp:100] Creating Layer fc7_mbox_loc
I0630 12:58:34.592566 21000 net.cpp:434] fc7_mbox_loc <- fc7_relu7_0_split_1
I0630 12:58:34.592566 21000 net.cpp:408] fc7_mbox_loc -> fc7_mbox_loc
I0630 12:58:34.596555 21000 net.cpp:150] Setting up fc7_mbox_loc
I0630 12:58:34.596555 21000 net.cpp:157] Top shape: 1 24 19 19 (8664)
I0630 12:58:34.596555 21000 net.cpp:165] Memory required for data: 247814304
I0630 12:58:34.596555 21000 layer_factory.hpp:77] Creating layer fc7_mbox_loc_perm
I0630 12:58:34.596555 21000 net.cpp:100] Creating Layer fc7_mbox_loc_perm
I0630 12:58:34.596555 21000 net.cpp:434] fc7_mbox_loc_perm <- fc7_mbox_loc
I0630 12:58:34.596555 21000 net.cpp:408] fc7_mbox_loc_perm -> fc7_mbox_loc_perm
I0630 12:58:34.596555 21000 net.cpp:150] Setting up fc7_mbox_loc_perm
I0630 12:58:34.596555 21000 net.cpp:157] Top shape: 1 19 19 24 (8664)
I0630 12:58:34.596555 21000 net.cpp:165] Memory required for data: 247848960
I0630 12:58:34.596555 21000 layer_factory.hpp:77] Creating layer fc7_mbox_loc_flat
I0630 12:58:34.596555 21000 net.cpp:100] Creating Layer fc7_mbox_loc_flat
I0630 12:58:34.596555 21000 net.cpp:434] fc7_mbox_loc_flat <- fc7_mbox_loc_perm
I0630 12:58:34.596555 21000 net.cpp:408] fc7_mbox_loc_flat -> fc7_mbox_loc_flat
I0630 12:58:34.596555 21000 net.cpp:150] Setting up fc7_mbox_loc_flat
I0630 12:58:34.596555 21000 net.cpp:157] Top shape: 1 8664 (8664)
I0630 12:58:34.596555 21000 net.cpp:165] Memory required for data: 247883616
I0630 12:58:34.596555 21000 layer_factory.hpp:77] Creating layer fc7_mbox_conf
I0630 12:58:34.596555 21000 net.cpp:100] Creating Layer fc7_mbox_conf
I0630 12:58:34.596555 21000 net.cpp:434] fc7_mbox_conf <- fc7_relu7_0_split_2
I0630 12:58:34.596555 21000 net.cpp:408] fc7_mbox_conf -> fc7_mbox_conf
I0630 12:58:34.600545 21000 net.cpp:150] Setting up fc7_mbox_conf
I0630 12:58:34.600545 21000 net.cpp:157] Top shape: 1 18 19 19 (6498)
I0630 12:58:34.600545 21000 net.cpp:165] Memory required for data: 247909608
I0630 12:58:34.600545 21000 layer_factory.hpp:77] Creating layer fc7_mbox_conf_perm
I0630 12:58:34.600545 21000 net.cpp:100] Creating Layer fc7_mbox_conf_perm
I0630 12:58:34.600545 21000 net.cpp:434] fc7_mbox_conf_perm <- fc7_mbox_conf
I0630 12:58:34.600545 21000 net.cpp:408] fc7_mbox_conf_perm -> fc7_mbox_conf_perm
I0630 12:58:34.600545 21000 net.cpp:150] Setting up fc7_mbox_conf_perm
I0630 12:58:34.600545 21000 net.cpp:157] Top shape: 1 19 19 18 (6498)
I0630 12:58:34.600545 21000 net.cpp:165] Memory required for data: 247935600
I0630 12:58:34.600545 21000 layer_factory.hpp:77] Creating layer fc7_mbox_conf_flat
I0630 12:58:34.600545 21000 net.cpp:100] Creating Layer fc7_mbox_conf_flat
I0630 12:58:34.600545 21000 net.cpp:434] fc7_mbox_conf_flat <- fc7_mbox_conf_perm
I0630 12:58:34.600545 21000 net.cpp:408] fc7_mbox_conf_flat -> fc7_mbox_conf_flat
I0630 12:58:34.600545 21000 net.cpp:150] Setting up fc7_mbox_conf_flat
I0630 12:58:34.600545 21000 net.cpp:157] Top shape: 1 6498 (6498)
I0630 12:58:34.600545 21000 net.cpp:165] Memory required for data: 247961592
I0630 12:58:34.600545 21000 layer_factory.hpp:77] Creating layer fc7_mbox_priorbox
I0630 12:58:34.600545 21000 net.cpp:100] Creating Layer fc7_mbox_priorbox
I0630 12:58:34.600545 21000 net.cpp:434] fc7_mbox_priorbox <- fc7_relu7_0_split_3
I0630 12:58:34.600545 21000 net.cpp:434] fc7_mbox_priorbox <- data_input_0_split_2
I0630 12:58:34.600545 21000 net.cpp:408] fc7_mbox_priorbox -> fc7_mbox_priorbox
I0630 12:58:34.600545 21000 net.cpp:150] Setting up fc7_mbox_priorbox
I0630 12:58:34.600545 21000 net.cpp:157] Top shape: 1 2 8664 (17328)
I0630 12:58:34.600545 21000 net.cpp:165] Memory required for data: 248030904
I0630 12:58:34.600545 21000 layer_factory.hpp:77] Creating layer conv8_2_mbox_loc
I0630 12:58:34.600545 21000 net.cpp:100] Creating Layer conv8_2_mbox_loc
I0630 12:58:34.600545 21000 net.cpp:434] conv8_2_mbox_loc <- conv8_2_conv8_2_relu_0_split_1
I0630 12:58:34.600545 21000 net.cpp:408] conv8_2_mbox_loc -> conv8_2_mbox_loc
I0630 12:58:34.603538 21000 net.cpp:150] Setting up conv8_2_mbox_loc
I0630 12:58:34.603538 21000 net.cpp:157] Top shape: 1 24 10 10 (2400)
I0630 12:58:34.603538 21000 net.cpp:165] Memory required for data: 248040504
I0630 12:58:34.603538 21000 layer_factory.hpp:77] Creating layer conv8_2_mbox_loc_perm
I0630 12:58:34.603538 21000 net.cpp:100] Creating Layer conv8_2_mbox_loc_perm
I0630 12:58:34.603538 21000 net.cpp:434] conv8_2_mbox_loc_perm <- conv8_2_mbox_loc
I0630 12:58:34.603538 21000 net.cpp:408] conv8_2_mbox_loc_perm -> conv8_2_mbox_loc_perm
I0630 12:58:34.603538 21000 net.cpp:150] Setting up conv8_2_mbox_loc_perm
I0630 12:58:34.603538 21000 net.cpp:157] Top shape: 1 10 10 24 (2400)
I0630 12:58:34.603538 21000 net.cpp:165] Memory required for data: 248050104
I0630 12:58:34.603538 21000 layer_factory.hpp:77] Creating layer conv8_2_mbox_loc_flat
I0630 12:58:34.603538 21000 net.cpp:100] Creating Layer conv8_2_mbox_loc_flat
I0630 12:58:34.603538 21000 net.cpp:434] conv8_2_mbox_loc_flat <- conv8_2_mbox_loc_perm
I0630 12:58:34.603538 21000 net.cpp:408] conv8_2_mbox_loc_flat -> conv8_2_mbox_loc_flat
I0630 12:58:34.603538 21000 net.cpp:150] Setting up conv8_2_mbox_loc_flat
I0630 12:58:34.603538 21000 net.cpp:157] Top shape: 1 2400 (2400)
I0630 12:58:34.603538 21000 net.cpp:165] Memory required for data: 248059704
I0630 12:58:34.603538 21000 layer_factory.hpp:77] Creating layer conv8_2_mbox_conf
I0630 12:58:34.603538 21000 net.cpp:100] Creating Layer conv8_2_mbox_conf
I0630 12:58:34.603538 21000 net.cpp:434] conv8_2_mbox_conf <- conv8_2_conv8_2_relu_0_split_2
I0630 12:58:34.603538 21000 net.cpp:408] conv8_2_mbox_conf -> conv8_2_mbox_conf
I0630 12:58:34.606529 21000 net.cpp:150] Setting up conv8_2_mbox_conf
I0630 12:58:34.606529 21000 net.cpp:157] Top shape: 1 18 10 10 (1800)
I0630 12:58:34.606529 21000 net.cpp:165] Memory required for data: 248066904
I0630 12:58:34.606529 21000 layer_factory.hpp:77] Creating layer conv8_2_mbox_conf_perm
I0630 12:58:34.606529 21000 net.cpp:100] Creating Layer conv8_2_mbox_conf_perm
I0630 12:58:34.606529 21000 net.cpp:434] conv8_2_mbox_conf_perm <- conv8_2_mbox_conf
I0630 12:58:34.606529 21000 net.cpp:408] conv8_2_mbox_conf_perm -> conv8_2_mbox_conf_perm
I0630 12:58:34.606529 21000 net.cpp:150] Setting up conv8_2_mbox_conf_perm
I0630 12:58:34.606529 21000 net.cpp:157] Top shape: 1 10 10 18 (1800)
I0630 12:58:34.606529 21000 net.cpp:165] Memory required for data: 248074104
I0630 12:58:34.606529 21000 layer_factory.hpp:77] Creating layer conv8_2_mbox_conf_flat
I0630 12:58:34.606529 21000 net.cpp:100] Creating Layer conv8_2_mbox_conf_flat
I0630 12:58:34.606529 21000 net.cpp:434] conv8_2_mbox_conf_flat <- conv8_2_mbox_conf_perm
I0630 12:58:34.606529 21000 net.cpp:408] conv8_2_mbox_conf_flat -> conv8_2_mbox_conf_flat
I0630 12:58:34.606529 21000 net.cpp:150] Setting up conv8_2_mbox_conf_flat
I0630 12:58:34.606529 21000 net.cpp:157] Top shape: 1 1800 (1800)
I0630 12:58:34.606529 21000 net.cpp:165] Memory required for data: 248081304
I0630 12:58:34.606529 21000 layer_factory.hpp:77] Creating layer conv8_2_mbox_priorbox
I0630 12:58:34.606529 21000 net.cpp:100] Creating Layer conv8_2_mbox_priorbox
I0630 12:58:34.606529 21000 net.cpp:434] conv8_2_mbox_priorbox <- conv8_2_conv8_2_relu_0_split_3
I0630 12:58:34.606529 21000 net.cpp:434] conv8_2_mbox_priorbox <- data_input_0_split_3
I0630 12:58:34.606529 21000 net.cpp:408] conv8_2_mbox_priorbox -> conv8_2_mbox_priorbox
I0630 12:58:34.606529 21000 net.cpp:150] Setting up conv8_2_mbox_priorbox
I0630 12:58:34.606529 21000 net.cpp:157] Top shape: 1 2 2400 (4800)
I0630 12:58:34.606529 21000 net.cpp:165] Memory required for data: 248100504
I0630 12:58:34.606529 21000 layer_factory.hpp:77] Creating layer conv9_2_mbox_loc
I0630 12:58:34.606529 21000 net.cpp:100] Creating Layer conv9_2_mbox_loc
I0630 12:58:34.606529 21000 net.cpp:434] conv9_2_mbox_loc <- conv9_2_conv9_2_relu_0_split_1
I0630 12:58:34.606529 21000 net.cpp:408] conv9_2_mbox_loc -> conv9_2_mbox_loc
I0630 12:58:34.610518 21000 net.cpp:150] Setting up conv9_2_mbox_loc
I0630 12:58:34.610518 21000 net.cpp:157] Top shape: 1 24 5 5 (600)
I0630 12:58:34.610518 21000 net.cpp:165] Memory required for data: 248102904
I0630 12:58:34.610518 21000 layer_factory.hpp:77] Creating layer conv9_2_mbox_loc_perm
I0630 12:58:34.610518 21000 net.cpp:100] Creating Layer conv9_2_mbox_loc_perm
I0630 12:58:34.610518 21000 net.cpp:434] conv9_2_mbox_loc_perm <- conv9_2_mbox_loc
I0630 12:58:34.610518 21000 net.cpp:408] conv9_2_mbox_loc_perm -> conv9_2_mbox_loc_perm
I0630 12:58:34.610518 21000 net.cpp:150] Setting up conv9_2_mbox_loc_perm
I0630 12:58:34.610518 21000 net.cpp:157] Top shape: 1 5 5 24 (600)
I0630 12:58:34.610518 21000 net.cpp:165] Memory required for data: 248105304
I0630 12:58:34.610518 21000 layer_factory.hpp:77] Creating layer conv9_2_mbox_loc_flat
I0630 12:58:34.610518 21000 net.cpp:100] Creating Layer conv9_2_mbox_loc_flat
I0630 12:58:34.610518 21000 net.cpp:434] conv9_2_mbox_loc_flat <- conv9_2_mbox_loc_perm
I0630 12:58:34.610518 21000 net.cpp:408] conv9_2_mbox_loc_flat -> conv9_2_mbox_loc_flat
I0630 12:58:34.610518 21000 net.cpp:150] Setting up conv9_2_mbox_loc_flat
I0630 12:58:34.610518 21000 net.cpp:157] Top shape: 1 600 (600)
I0630 12:58:34.610518 21000 net.cpp:165] Memory required for data: 248107704
I0630 12:58:34.610518 21000 layer_factory.hpp:77] Creating layer conv9_2_mbox_conf
I0630 12:58:34.610518 21000 net.cpp:100] Creating Layer conv9_2_mbox_conf
I0630 12:58:34.610518 21000 net.cpp:434] conv9_2_mbox_conf <- conv9_2_conv9_2_relu_0_split_2
I0630 12:58:34.610518 21000 net.cpp:408] conv9_2_mbox_conf -> conv9_2_mbox_conf
I0630 12:58:34.613510 21000 net.cpp:150] Setting up conv9_2_mbox_conf
I0630 12:58:34.613510 21000 net.cpp:157] Top shape: 1 18 5 5 (450)
I0630 12:58:34.613510 21000 net.cpp:165] Memory required for data: 248109504
I0630 12:58:34.613510 21000 layer_factory.hpp:77] Creating layer conv9_2_mbox_conf_perm
I0630 12:58:34.613510 21000 net.cpp:100] Creating Layer conv9_2_mbox_conf_perm
I0630 12:58:34.613510 21000 net.cpp:434] conv9_2_mbox_conf_perm <- conv9_2_mbox_conf
I0630 12:58:34.613510 21000 net.cpp:408] conv9_2_mbox_conf_perm -> conv9_2_mbox_conf_perm
I0630 12:58:34.613510 21000 net.cpp:150] Setting up conv9_2_mbox_conf_perm
I0630 12:58:34.613510 21000 net.cpp:157] Top shape: 1 5 5 18 (450)
I0630 12:58:34.613510 21000 net.cpp:165] Memory required for data: 248111304
I0630 12:58:34.613510 21000 layer_factory.hpp:77] Creating layer conv9_2_mbox_conf_flat
I0630 12:58:34.613510 21000 net.cpp:100] Creating Layer conv9_2_mbox_conf_flat
I0630 12:58:34.613510 21000 net.cpp:434] conv9_2_mbox_conf_flat <- conv9_2_mbox_conf_perm
I0630 12:58:34.613510 21000 net.cpp:408] conv9_2_mbox_conf_flat -> conv9_2_mbox_conf_flat
I0630 12:58:34.613510 21000 net.cpp:150] Setting up conv9_2_mbox_conf_flat
I0630 12:58:34.613510 21000 net.cpp:157] Top shape: 1 450 (450)
I0630 12:58:34.613510 21000 net.cpp:165] Memory required for data: 248113104
I0630 12:58:34.613510 21000 layer_factory.hpp:77] Creating layer conv9_2_mbox_priorbox
I0630 12:58:34.613510 21000 net.cpp:100] Creating Layer conv9_2_mbox_priorbox
I0630 12:58:34.613510 21000 net.cpp:434] conv9_2_mbox_priorbox <- conv9_2_conv9_2_relu_0_split_3
I0630 12:58:34.613510 21000 net.cpp:434] conv9_2_mbox_priorbox <- data_input_0_split_4
I0630 12:58:34.613510 21000 net.cpp:408] conv9_2_mbox_priorbox -> conv9_2_mbox_priorbox
I0630 12:58:34.613510 21000 net.cpp:150] Setting up conv9_2_mbox_priorbox
I0630 12:58:34.613510 21000 net.cpp:157] Top shape: 1 2 600 (1200)
I0630 12:58:34.613510 21000 net.cpp:165] Memory required for data: 248117904
I0630 12:58:34.613510 21000 layer_factory.hpp:77] Creating layer conv10_2_mbox_loc
I0630 12:58:34.613510 21000 net.cpp:100] Creating Layer conv10_2_mbox_loc
I0630 12:58:34.613510 21000 net.cpp:434] conv10_2_mbox_loc <- conv10_2_conv10_2_relu_0_split_1
I0630 12:58:34.613510 21000 net.cpp:408] conv10_2_mbox_loc -> conv10_2_mbox_loc
I0630 12:58:34.616509 21000 net.cpp:150] Setting up conv10_2_mbox_loc
I0630 12:58:34.616509 21000 net.cpp:157] Top shape: 1 16 3 3 (144)
I0630 12:58:34.616509 21000 net.cpp:165] Memory required for data: 248118480
I0630 12:58:34.616509 21000 layer_factory.hpp:77] Creating layer conv10_2_mbox_loc_perm
I0630 12:58:34.616509 21000 net.cpp:100] Creating Layer conv10_2_mbox_loc_perm
I0630 12:58:34.616509 21000 net.cpp:434] conv10_2_mbox_loc_perm <- conv10_2_mbox_loc
I0630 12:58:34.616509 21000 net.cpp:408] conv10_2_mbox_loc_perm -> conv10_2_mbox_loc_perm
I0630 12:58:34.616509 21000 net.cpp:150] Setting up conv10_2_mbox_loc_perm
I0630 12:58:34.616509 21000 net.cpp:157] Top shape: 1 3 3 16 (144)
I0630 12:58:34.616509 21000 net.cpp:165] Memory required for data: 248119056
I0630 12:58:34.616509 21000 layer_factory.hpp:77] Creating layer conv10_2_mbox_loc_flat
I0630 12:58:34.616509 21000 net.cpp:100] Creating Layer conv10_2_mbox_loc_flat
I0630 12:58:34.616509 21000 net.cpp:434] conv10_2_mbox_loc_flat <- conv10_2_mbox_loc_perm
I0630 12:58:34.616509 21000 net.cpp:408] conv10_2_mbox_loc_flat -> conv10_2_mbox_loc_flat
I0630 12:58:34.616509 21000 net.cpp:150] Setting up conv10_2_mbox_loc_flat
I0630 12:58:34.616509 21000 net.cpp:157] Top shape: 1 144 (144)
I0630 12:58:34.616509 21000 net.cpp:165] Memory required for data: 248119632
I0630 12:58:34.616509 21000 layer_factory.hpp:77] Creating layer conv10_2_mbox_conf
I0630 12:58:34.616509 21000 net.cpp:100] Creating Layer conv10_2_mbox_conf
I0630 12:58:34.616509 21000 net.cpp:434] conv10_2_mbox_conf <- conv10_2_conv10_2_relu_0_split_2
I0630 12:58:34.616509 21000 net.cpp:408] conv10_2_mbox_conf -> conv10_2_mbox_conf
I0630 12:58:34.618497 21000 net.cpp:150] Setting up conv10_2_mbox_conf
I0630 12:58:34.618497 21000 net.cpp:157] Top shape: 1 12 3 3 (108)
I0630 12:58:34.618497 21000 net.cpp:165] Memory required for data: 248120064
I0630 12:58:34.618497 21000 layer_factory.hpp:77] Creating layer conv10_2_mbox_conf_perm
I0630 12:58:34.618497 21000 net.cpp:100] Creating Layer conv10_2_mbox_conf_perm
I0630 12:58:34.618497 21000 net.cpp:434] conv10_2_mbox_conf_perm <- conv10_2_mbox_conf
I0630 12:58:34.618497 21000 net.cpp:408] conv10_2_mbox_conf_perm -> conv10_2_mbox_conf_perm
I0630 12:58:34.619494 21000 net.cpp:150] Setting up conv10_2_mbox_conf_perm
I0630 12:58:34.619494 21000 net.cpp:157] Top shape: 1 3 3 12 (108)
I0630 12:58:34.619494 21000 net.cpp:165] Memory required for data: 248120496
I0630 12:58:34.619494 21000 layer_factory.hpp:77] Creating layer conv10_2_mbox_conf_flat
I0630 12:58:34.619494 21000 net.cpp:100] Creating Layer conv10_2_mbox_conf_flat
I0630 12:58:34.619494 21000 net.cpp:434] conv10_2_mbox_conf_flat <- conv10_2_mbox_conf_perm
I0630 12:58:34.619494 21000 net.cpp:408] conv10_2_mbox_conf_flat -> conv10_2_mbox_conf_flat
I0630 12:58:34.619494 21000 net.cpp:150] Setting up conv10_2_mbox_conf_flat
I0630 12:58:34.619494 21000 net.cpp:157] Top shape: 1 108 (108)
I0630 12:58:34.619494 21000 net.cpp:165] Memory required for data: 248120928
I0630 12:58:34.619494 21000 layer_factory.hpp:77] Creating layer conv10_2_mbox_priorbox
I0630 12:58:34.619494 21000 net.cpp:100] Creating Layer conv10_2_mbox_priorbox
I0630 12:58:34.619494 21000 net.cpp:434] conv10_2_mbox_priorbox <- conv10_2_conv10_2_relu_0_split_3
I0630 12:58:34.619494 21000 net.cpp:434] conv10_2_mbox_priorbox <- data_input_0_split_5
I0630 12:58:34.619494 21000 net.cpp:408] conv10_2_mbox_priorbox -> conv10_2_mbox_priorbox
I0630 12:58:34.619494 21000 net.cpp:150] Setting up conv10_2_mbox_priorbox
I0630 12:58:34.619494 21000 net.cpp:157] Top shape: 1 2 144 (288)
I0630 12:58:34.619494 21000 net.cpp:165] Memory required for data: 248122080
I0630 12:58:34.619494 21000 layer_factory.hpp:77] Creating layer conv11_2_mbox_loc
I0630 12:58:34.619494 21000 net.cpp:100] Creating Layer conv11_2_mbox_loc
I0630 12:58:34.619494 21000 net.cpp:434] conv11_2_mbox_loc <- conv11_2_conv11_2_relu_0_split_0
I0630 12:58:34.619494 21000 net.cpp:408] conv11_2_mbox_loc -> conv11_2_mbox_loc
I0630 12:58:34.622486 21000 net.cpp:150] Setting up conv11_2_mbox_loc
I0630 12:58:34.622486 21000 net.cpp:157] Top shape: 1 16 1 1 (16)
I0630 12:58:34.622486 21000 net.cpp:165] Memory required for data: 248122144
I0630 12:58:34.622486 21000 layer_factory.hpp:77] Creating layer conv11_2_mbox_loc_perm
I0630 12:58:34.622486 21000 net.cpp:100] Creating Layer conv11_2_mbox_loc_perm
I0630 12:58:34.622486 21000 net.cpp:434] conv11_2_mbox_loc_perm <- conv11_2_mbox_loc
I0630 12:58:34.622486 21000 net.cpp:408] conv11_2_mbox_loc_perm -> conv11_2_mbox_loc_perm
I0630 12:58:34.623483 21000 net.cpp:150] Setting up conv11_2_mbox_loc_perm
I0630 12:58:34.623483 21000 net.cpp:157] Top shape: 1 1 1 16 (16)
I0630 12:58:34.623483 21000 net.cpp:165] Memory required for data: 248122208
I0630 12:58:34.623483 21000 layer_factory.hpp:77] Creating layer conv11_2_mbox_loc_flat
I0630 12:58:34.623483 21000 net.cpp:100] Creating Layer conv11_2_mbox_loc_flat
I0630 12:58:34.623483 21000 net.cpp:434] conv11_2_mbox_loc_flat <- conv11_2_mbox_loc_perm
I0630 12:58:34.623483 21000 net.cpp:408] conv11_2_mbox_loc_flat -> conv11_2_mbox_loc_flat
I0630 12:58:34.623483 21000 net.cpp:150] Setting up conv11_2_mbox_loc_flat
I0630 12:58:34.623483 21000 net.cpp:157] Top shape: 1 16 (16)
I0630 12:58:34.623483 21000 net.cpp:165] Memory required for data: 248122272
I0630 12:58:34.623483 21000 layer_factory.hpp:77] Creating layer conv11_2_mbox_conf
I0630 12:58:34.623483 21000 net.cpp:100] Creating Layer conv11_2_mbox_conf
I0630 12:58:34.623483 21000 net.cpp:434] conv11_2_mbox_conf <- conv11_2_conv11_2_relu_0_split_1
I0630 12:58:34.623483 21000 net.cpp:408] conv11_2_mbox_conf -> conv11_2_mbox_conf
I0630 12:58:34.627473 21000 net.cpp:150] Setting up conv11_2_mbox_conf
I0630 12:58:34.627473 21000 net.cpp:157] Top shape: 1 12 1 1 (12)
I0630 12:58:34.627473 21000 net.cpp:165] Memory required for data: 248122320
I0630 12:58:34.627473 21000 layer_factory.hpp:77] Creating layer conv11_2_mbox_conf_perm
I0630 12:58:34.627473 21000 net.cpp:100] Creating Layer conv11_2_mbox_conf_perm
I0630 12:58:34.627473 21000 net.cpp:434] conv11_2_mbox_conf_perm <- conv11_2_mbox_conf
I0630 12:58:34.627473 21000 net.cpp:408] conv11_2_mbox_conf_perm -> conv11_2_mbox_conf_perm
I0630 12:58:34.627473 21000 net.cpp:150] Setting up conv11_2_mbox_conf_perm
I0630 12:58:34.627473 21000 net.cpp:157] Top shape: 1 1 1 12 (12)
I0630 12:58:34.627473 21000 net.cpp:165] Memory required for data: 248122368
I0630 12:58:34.627473 21000 layer_factory.hpp:77] Creating layer conv11_2_mbox_conf_flat
I0630 12:58:34.627473 21000 net.cpp:100] Creating Layer conv11_2_mbox_conf_flat
I0630 12:58:34.627473 21000 net.cpp:434] conv11_2_mbox_conf_flat <- conv11_2_mbox_conf_perm
I0630 12:58:34.627473 21000 net.cpp:408] conv11_2_mbox_conf_flat -> conv11_2_mbox_conf_flat
I0630 12:58:34.627473 21000 net.cpp:150] Setting up conv11_2_mbox_conf_flat
I0630 12:58:34.627473 21000 net.cpp:157] Top shape: 1 12 (12)
I0630 12:58:34.627473 21000 net.cpp:165] Memory required for data: 248122416
I0630 12:58:34.627473 21000 layer_factory.hpp:77] Creating layer conv11_2_mbox_priorbox
I0630 12:58:34.627473 21000 net.cpp:100] Creating Layer conv11_2_mbox_priorbox
I0630 12:58:34.627473 21000 net.cpp:434] conv11_2_mbox_priorbox <- conv11_2_conv11_2_relu_0_split_2
I0630 12:58:34.627473 21000 net.cpp:434] conv11_2_mbox_priorbox <- data_input_0_split_6
I0630 12:58:34.627473 21000 net.cpp:408] conv11_2_mbox_priorbox -> conv11_2_mbox_priorbox
I0630 12:58:34.627473 21000 net.cpp:150] Setting up conv11_2_mbox_priorbox
I0630 12:58:34.627473 21000 net.cpp:157] Top shape: 1 2 16 (32)
I0630 12:58:34.627473 21000 net.cpp:165] Memory required for data: 248122544
I0630 12:58:34.627473 21000 layer_factory.hpp:77] Creating layer mbox_loc
I0630 12:58:34.627473 21000 net.cpp:100] Creating Layer mbox_loc
I0630 12:58:34.627473 21000 net.cpp:434] mbox_loc <- conv4_3_norm_mbox_loc_flat
I0630 12:58:34.627473 21000 net.cpp:434] mbox_loc <- fc7_mbox_loc_flat
I0630 12:58:34.627473 21000 net.cpp:434] mbox_loc <- conv8_2_mbox_loc_flat
I0630 12:58:34.627473 21000 net.cpp:434] mbox_loc <- conv9_2_mbox_loc_flat
I0630 12:58:34.627473 21000 net.cpp:434] mbox_loc <- conv10_2_mbox_loc_flat
I0630 12:58:34.627473 21000 net.cpp:434] mbox_loc <- conv11_2_mbox_loc_flat
I0630 12:58:34.627473 21000 net.cpp:408] mbox_loc -> mbox_loc
I0630 12:58:34.627473 21000 net.cpp:150] Setting up mbox_loc
I0630 12:58:34.627473 21000 net.cpp:157] Top shape: 1 34928 (34928)
I0630 12:58:34.627473 21000 net.cpp:165] Memory required for data: 248262256
I0630 12:58:34.627473 21000 layer_factory.hpp:77] Creating layer mbox_conf
I0630 12:58:34.627473 21000 net.cpp:100] Creating Layer mbox_conf
I0630 12:58:34.627473 21000 net.cpp:434] mbox_conf <- conv4_3_norm_mbox_conf_flat
I0630 12:58:34.627473 21000 net.cpp:434] mbox_conf <- fc7_mbox_conf_flat
I0630 12:58:34.627473 21000 net.cpp:434] mbox_conf <- conv8_2_mbox_conf_flat
I0630 12:58:34.627473 21000 net.cpp:434] mbox_conf <- conv9_2_mbox_conf_flat
I0630 12:58:34.627473 21000 net.cpp:434] mbox_conf <- conv10_2_mbox_conf_flat
I0630 12:58:34.627473 21000 net.cpp:434] mbox_conf <- conv11_2_mbox_conf_flat
I0630 12:58:34.627473 21000 net.cpp:408] mbox_conf -> mbox_conf
I0630 12:58:34.627473 21000 net.cpp:150] Setting up mbox_conf
I0630 12:58:34.627473 21000 net.cpp:157] Top shape: 1 26196 (26196)
I0630 12:58:34.627473 21000 net.cpp:165] Memory required for data: 248367040
I0630 12:58:34.627473 21000 layer_factory.hpp:77] Creating layer mbox_priorbox
I0630 12:58:34.627473 21000 net.cpp:100] Creating Layer mbox_priorbox
I0630 12:58:34.627473 21000 net.cpp:434] mbox_priorbox <- conv4_3_norm_mbox_priorbox
I0630 12:58:34.627473 21000 net.cpp:434] mbox_priorbox <- fc7_mbox_priorbox
I0630 12:58:34.627473 21000 net.cpp:434] mbox_priorbox <- conv8_2_mbox_priorbox
I0630 12:58:34.627473 21000 net.cpp:434] mbox_priorbox <- conv9_2_mbox_priorbox
I0630 12:58:34.627473 21000 net.cpp:434] mbox_priorbox <- conv10_2_mbox_priorbox
I0630 12:58:34.627473 21000 net.cpp:434] mbox_priorbox <- conv11_2_mbox_priorbox
I0630 12:58:34.627473 21000 net.cpp:408] mbox_priorbox -> mbox_priorbox
I0630 12:58:34.627473 21000 net.cpp:150] Setting up mbox_priorbox
I0630 12:58:34.627473 21000 net.cpp:157] Top shape: 1 2 34928 (69856)
I0630 12:58:34.627473 21000 net.cpp:165] Memory required for data: 248646464
I0630 12:58:34.627473 21000 layer_factory.hpp:77] Creating layer mbox_conf_reshape
I0630 12:58:34.627473 21000 net.cpp:100] Creating Layer mbox_conf_reshape
I0630 12:58:34.627473 21000 net.cpp:434] mbox_conf_reshape <- mbox_conf
I0630 12:58:34.627473 21000 net.cpp:408] mbox_conf_reshape -> mbox_conf_reshape
I0630 12:58:34.627473 21000 net.cpp:150] Setting up mbox_conf_reshape
I0630 12:58:34.627473 21000 net.cpp:157] Top shape: 1 8732 3 (26196)
I0630 12:58:34.627473 21000 net.cpp:165] Memory required for data: 248751248
I0630 12:58:34.627473 21000 layer_factory.hpp:77] Creating layer mbox_conf_softmax
I0630 12:58:34.627473 21000 net.cpp:100] Creating Layer mbox_conf_softmax
I0630 12:58:34.627473 21000 net.cpp:434] mbox_conf_softmax <- mbox_conf_reshape
I0630 12:58:34.627473 21000 net.cpp:408] mbox_conf_softmax -> mbox_conf_softmax
I0630 12:58:34.628470 21000 net.cpp:150] Setting up mbox_conf_softmax
I0630 12:58:34.628470 21000 net.cpp:157] Top shape: 1 8732 3 (26196)
I0630 12:58:34.628470 21000 net.cpp:165] Memory required for data: 248856032
I0630 12:58:34.628470 21000 layer_factory.hpp:77] Creating layer mbox_conf_flatten
I0630 12:58:34.628470 21000 net.cpp:100] Creating Layer mbox_conf_flatten
I0630 12:58:34.628470 21000 net.cpp:434] mbox_conf_flatten <- mbox_conf_softmax
I0630 12:58:34.628470 21000 net.cpp:408] mbox_conf_flatten -> mbox_conf_flatten
I0630 12:58:34.628470 21000 net.cpp:150] Setting up mbox_conf_flatten
I0630 12:58:34.628470 21000 net.cpp:157] Top shape: 1 26196 (26196)
I0630 12:58:34.628470 21000 net.cpp:165] Memory required for data: 248960816
I0630 12:58:34.628470 21000 net.cpp:228] mbox_conf_flatten does not need backward computation.
I0630 12:58:34.628470 21000 net.cpp:228] mbox_conf_softmax does not need backward computation.
I0630 12:58:34.628470 21000 net.cpp:228] mbox_conf_reshape does not need backward computation.
I0630 12:58:34.628470 21000 net.cpp:228] mbox_priorbox does not need backward computation.
…
