…
      sampler {
        min_scale: 0.3
        max_scale: 1
        min_aspect_ratio: 0.5
        max_aspect_ratio: 2
      }
      sample_constraint {
        min_jaccard_overlap: 0.9
      }
      max_sample: 1
      max_trials: 50
    }
    batch_sampler {
      sampler {
        min_scale: 0.3
        max_scale: 1
        min_aspect_ratio: 0.5
        max_aspect_ratio: 2
      }
      sample_constraint {
        max_jaccard_overlap: 1
      }
      max_sample: 1
      max_trials: 50
    }
    label_map_file: "data\\wastedata\\labelmap_waste.prototxt"
  }
}
layer {
  name: "conv1_1"
  type: "Convolution"
  bottom: "data"
  top: "conv1_1"
  param {
    lr_mult: 1
    decay_mult: 1
  }
  param {
    lr_mult: 1
    decay_mult: 0
  }
  convolution_param {
    num_output: 64
    pad: 1
    kernel_size: 3
    weight_filler {
      type: "xavier"
    }
    bias_filler {
      type: "constant"
      value: 0
    }
  }
}
layer {
  name: "relu1_1"
  type: "ReLU"
  bottom: "conv1_1"
  top: "conv1_1"
}
layer {
  name: "conv1_2"
  type: "Convolution"
  bottom: "conv1_1"
  top: "conv1_2"
  param {
    lr_mult: 1
    decay_mult: 1
  }
  param {
    lr_mult: 1
    decay_mult: 0
  }
  convolution_param {
    num_output: 64
    pad: 1
    kernel_size: 3
    weight_filler {
      type: "xavier"
    }
    bias_filler {
      type: "constant"
      value: 0
    }
  }
}
layer {
  name: "relu1_2"
  type: "ReLU"
  bottom: "conv1_2"
  top: "conv1_2"
}
layer {
  name: "pool1"
  type: "Pooling"
  bottom: "conv1_2"
  top: "pool1"
  pooling_param {
    pool: MAX
    kernel_size: 2
    stride: 2
  }
}
layer {
  name: "conv2_1"
  type: "Convolution"
  bottom: "pool1"
  top: "conv2_1"
  param {
    lr_mult: 1
    decay_mult: 1
  }
  param {
    lr_mult: 1
    decay_mult: 0
  }
  convolution_param {
    num_output: 128
    pad: 1
    kernel_size: 3
    weight_filler {
      type: "xavier"
    }
    bias_filler {
      type: "constant"
      value: 0
    }
  }
}
layer {
  name: "relu2_1"
  type: "ReLU"
  bottom: "conv2_1"
  top: "conv2_1"
}
layer {
  name: "conv2_2"
  type: "Convolution"
  bottom: "conv2_1"
  top: "conv2_2"
  param {
    lr_mult: 1
    decay_mult: 1
  }
  param {
    lr_mult: 1
    decay_mult: 0
  }
  convolution_param {
    num_output: 128
    pad: 1
    kernel_size: 3
    weight_filler {
      type: "xavier"
    }
    bias_filler {
      type: "constant"
      value: 0
    }
  }
}
layer {
  name: "relu2_2"
  type: "ReLU"
  bottom: "conv2_2"
  top: "conv2_2"
}
layer {
  name: "pool2"
  type: "Pooling"
  bottom: "conv2_2"
  top: "pool2"
  pooling_param {
    pool: MAX
    kernel_size: 2
    stride: 2
  }
}
layer {
  name: "conv3_1"
  type: "Convolution"
  bottom: "pool2"
  top: "conv3_1"
  param {
    lr_mult: 1
    decay_mult: 1
  }
  param {
    lr_mult: 1
    decay_mult: 0
  }
  convolution_param {
    num_output: 256
    pad: 1
    kernel_size: 3
    weight_filler {
      type: "xavier"
    }
    bias_filler {
      type: "constant"
      value: 0
    }
  }
}
layer {
  name: "relu3_1"
  type: "ReLU"
  bottom: "conv3_1"
  top: "conv3_1"
}
layer {
  name: "conv3_2"
  type: "Convolution"
  bottom: "conv3_1"
  top: "conv3_2"
  param {
    lr_mult: 1
    decay_mult: 1
  }
  param {
    lr_mult: 1
    decay_mult: 0
  }
  convolution_param {
    num_output: 256
    pad: 1
    kernel_size: 3
    weight_filler {
      type: "xavier"
    }
    bias_filler {
      type: "constant"
      value: 0
    }
  }
}
layer {
  name: "relu3_2"
  type: "ReLU"
  bottom: "conv3_2"
  top: "conv3_2"
}
layer {
  name: "conv3_3"
  type: "Convolution"
  bottom: "conv3_2"
  top: "conv3_3"
  param {
    lr_mult: 1
    decay_mult: 1
  }
  param {
    lr_mult: 1
    decay_mult: 0
  }
  convolution_param {
    num_output: 256
    pad: 1
    kernel_size: 3
    weight_filler {
      type: "xavier"
    }
    bias_filler {
      type: "constant"
      value: 0
    }
  }
}
layer {
  name: "relu3_3"
  type: "ReLU"
  bottom: "conv3_3"
  top: "conv3_3"
}
layer {
  name: "pool3"
  type: "Pooling"
  bottom: "conv3_3"
  top: "pool3"
  pooling_param {
    pool: MAX
    kernel_size: 2
    stride: 2
  }
}
layer {
  name: "conv4_1"
  type: "Convolution"
  bottom: "pool3"
  top: "conv4_1"
  param {
    lr_mult: 1
    decay_mult: 1
  }
  param {
    lr_mult: 1
    decay_mult: 0
  }
  convolution_param {
    num_output: 512
    pad: 1
    kernel_size: 3
    weight_filler {
      type: "xavier"
    }
    bias_filler {
      type: "constant"
      value: 0
    }
  }
}
layer {
  name: "relu4_1"
  type: "ReLU"
  bottom: "conv4_1"
  top: "conv4_1"
}
layer {
  name: "conv4_2"
  type: "Convolution"
  bottom: "conv4_1"
  top: "conv4_2"
  param {
    lr_mult: 1
    decay_mult: 1
  }
  param {
    lr_mult: 1
    decay_mult: 0
  }
  convolution_param {
    num_output: 512
    pad: 1
    kernel_size: 3
    weight_filler {
      type: "xavier"
    }
    bias_filler {
      type: "constant"
      value: 0
    }
  }
}
layer {
  name: "relu4_2"
  type: "ReLU"
  bottom: "conv4_2"
  top: "conv4_2"
}
layer {
  name: "conv4_3"
  type: "Convolution"
  bottom: "conv4_2"
  top: "conv4_3"
  param {
    lr_mult: 1
    decay_mult: 1
  }
  param {
    lr_mult: 1
    decay_mult: 0
  }
  convolution_param {
    num_output: 512
    pad: 1
    kernel_size: 3
    weight_filler {
      type: "xavier"
    }
    bias_filler {
      type: "constant"
      value: 0
    }
  }
}
layer {
  name: "relu4_3"
  type: "ReLU"
  bottom: "conv4_3"
  top: "conv4_3"
}
layer {
  name: "pool4"
  type: "Pooling"
  bottom: "conv4_3"
  top: "pool4"
  pooling_param {
    pool: MAX
    kernel_size: 2
    stride: 2
  }
}
layer {
  name: "conv5_1"
  type: "Convolution"
  bottom: "pool4"
  top: "conv5_1"
  param {
    lr_mult: 1
    decay_mult: 1
  }
  param {
    lr_mult: 1
    decay_mult: 0
  }
  convolution_param {
    num_output: 512
    pad: 1
    kernel_size: 3
    weight_filler {
      type: "xavier"
    }
    bias_filler {
      type: "constant"
      value: 0
    }
    dilation: 1
  }
}
layer {
  name: "relu5_1"
  type: "ReLU"
  bottom: "conv5_1"
  top: "conv5_1"
}
layer {
  name: "conv5_2"
  type: "Convolution"
  bottom: "conv5_1"
  top: "conv5_2"
  param {
    lr_mult: 1
    decay_mult: 1
  }
  param {
    lr_mult: 1
    decay_mult: 0
  }
  convolution_param {
    num_output: 512
    pad: 1
    kernel_size: 3
    weight_filler {
      type: "xavier"
    }
    bias_filler {
      type: "constant"
      value: 0
    }
    dilation: 1
  }
}
layer {
  name: "relu5_2"
  type: "ReLU"
  bottom: "conv5_2"
  top: "conv5_2"
}
layer {
  name: "conv5_3"
  type: "Convolution"
  bottom: "conv5_2"
  top: "conv5_3"
  param {
    lr_mult: 1
    decay_mult: 1
  }
  param {
    lr_mult: 1
    decay_mult: 0
  }
  convolution_param {
    num_output: 512
    pad: 1
    kernel_size: 3
    weight_filler {
      type: "xavier"
    }
    bias_filler {
      type: "constant"
      value: 0
    }
    dilation: 1
  }
}
layer {
  name: "relu5_3"
  type: "ReLU"
  bottom: "conv5_3"
  top: "conv5_3"
}
layer {
  name: "pool5"
  type: "Pooling"
  bottom: "conv5_3"
  top: "pool5"
  pooling_param {
    pool: MAX
    kernel_size: 3
    stride: 1
    pad: 1
  }
}
layer {
  name: "fc6"
  type: "Convolution"
  bottom: "pool5"
  top: "fc6"
  param {
    lr_mult: 1
    decay_mult: 1
  }
  param {
    lr_mult: 1
    decay_mult: 0
  }
  convolution_param {
    num_output: 1024
    pad: 6
    kernel_size: 3
    weight_filler {
      type: "xavier"
    }
    bias_filler {
      type: "constant"
      value: 0
    }
    dilation: 6
  }
}
layer {
  name: "relu6"
  type: "ReLU"
  bottom: "fc6"
  top: "fc6"
}
layer {
  name: "fc7"
  type: "Convolution"
  bottom: "fc6"
  top: "fc7"
  param {
    lr_mult: 1
    decay_mult: 1
  }
  param {
    lr_mult: 1
    decay_mult: 0
  }
  convolution_param {
    num_output: 1024
    kernel_size: 1
    weight_filler {
      type: "xavier"
    }
    bias_filler {
      type: "constant"
      value: 0
    }
  }
}
layer {
  name: "relu7"
  type: "ReLU"
  bottom: "fc7"
  top: "fc7"
}
layer {
  name: "conv8_1"
  type: "Convolution"
  bottom: "fc7"
  top: "conv8_1"
  param {
    lr_mult: 1
    decay_mult: 1
  }
  param {
    lr_mult: 2
    decay_mult: 0
  }
  convolution_param {
    num_output: 256
    pad: 0
    kernel_size: 1
    stride: 1
    weight_filler {
      type: "xavier"
    }
    bias_filler {
      type: "constant"
      value: 0
    }
  }
}
layer {
  name: "conv8_1_relu"
  type: "ReLU"
  bottom: "conv8_1"
  top: "conv8_1"
}
layer {
  name: "conv8_2"
  type: "Convolution"
  bottom: "conv8_1"
  top: "conv8_2"
  param {
    lr_mult: 1
    decay_mult: 1
  }
  param {
    lr_mult: 2
    decay_mult: 0
  }
  convolution_param {
    num_output: 512
    pad: 1
    kernel_size: 3
    stride: 2
    weight_filler {
      type: "xavier"
    }
    bias_filler {
      type: "constant"
      value: 0
    }
  }
}
layer {
  name: "conv8_2_relu"
  type: "ReLU"
  bottom: "conv8_2"
  top: "conv8_2"
}
layer {
  name: "conv9_1"
  type: "Convolution"
  bottom: "conv8_2"
  top: "conv9_1"
  param {
    lr_mult: 1
    decay_mult: 1
  }
  param {
    lr_mult: 2
    decay_mult: 0
  }
  convolution_param {
    num_output: 128
    pad: 0
    kernel_size: 1
    stride: 1
    weight_filler {
      type: "xavier"
    }
    bias_filler {
      type: "constant"
      value: 0
    }
  }
}
layer {
  name: "conv9_1_relu"
  type: "ReLU"
  bottom: "conv9_1"
  top: "conv9_1"
}
layer {
  name: "conv9_2"
  type: "Convolution"
  bottom: "conv9_1"
  top: "conv9_2"
  param {
    lr_mult: 1
    decay_mult: 1
  }
  param {
    lr_mult: 2
    decay_mult: 0
  }
  convolution_param {
    num_output: 256
    pad: 1
    kernel_size: 3
    stride: 2
    weight_filler {
      type: "xavier"
    }
    bias_filler {
      type: "constant"
      value: 0
    }
  }
}
layer {
  name: "conv9_2_relu"
  type: "ReLU"
  bottom: "conv9_2"
  top: "conv9_2"
}
layer {
  name: "conv10_1"
  type: "Convolution"
  bottom: "conv9_2"
  top: "conv10_1"
  param {
    lr_mult: 1
    decay_mult: 1
  }
  param {
    lr_mult: 2
    decay_mult: 0
  }
  convolution_param {
    num_output: 128
    pad: 0
    kernel_size: 1
    stride: 1
    weight_filler {
      type: "xavier"
    }
    bias_filler {
      type: "constant"
      value: 0
    }
  }
}
layer {
  name: "conv10_1_relu"
  type: "ReLU"
  bottom: "conv10_1"
  top: "conv10_1"
}
layer {
  name: "conv10_2"
  type: "Convolution"
  bottom: "conv10_1"
  top: "conv10_2"
  param {
    lr_mult: 1
    decay_mult: 1
  }
  param {
    lr_mult: 2
    decay_mult: 0
  }
  convolution_param {
    num_output: 256
    pad: 1
    kernel_size: 3
    stride: 2
    weight_filler {
      type: "xavier"
    }
    bias_filler {
      type: "constant"
      value: 0
    }
  }
}
layer {
  name: "conv10_2_relu"
  type: "ReLU"
  bottom: "conv10_2"
  top: "conv10_2"
}
layer {
  name: "conv11_1"
  type: "Convolution"
  bottom: "conv10_2"
  top: "conv11_1"
  param {
    lr_mult: 1
    decay_mult: 1
  }
  param {
    lr_mult: 2
    decay_mult: 0
  }
  convolution_param {
    num_output: 128
    pad: 0
    kernel_size: 1
    stride: 1
    weight_filler {
      type: "xavier"
    }
    bias_filler {
      type: "constant"
      value: 0
    }
  }
}
layer {
  name: "conv11_1_relu"
  type: "ReLU"
  bottom: "conv11_1"
  top: "conv11_1"
}
layer {
  name: "conv11_2"
  type: "Convolution"
  bottom: "conv11_1"
  top: "conv11_2"
  param {
    lr_mult: 1
    decay_mult: 1
  }
  param {
    lr_mult: 2
    decay_mult: 0
  }
  convolution_param {
    num_output: 256
    pad: 1
    kernel_size: 3
    stride: 2
    weight_filler {
      type: "xavier"
    }
    bias_filler {
      type: "constant"
      value: 0
    }
  }
}
layer {
  name: "conv11_2_relu"
  type: "ReLU"
  bottom: "conv11_2"
  top: "conv11_2"
}
layer {
  name: "conv12_1"
  type: "Convolution"
  bottom: "conv11_2"
  top: "conv12_1"
  param {
    lr_mult: 1
    decay_mult: 1
  }
  param {
    lr_mult: 2
    decay_mult: 0
  }
  convolution_param {
    num_output: 128
    pad: 0
    kernel_size: 1
    stride: 1
    weight_filler {
      type: "xavier"
    }
    bias_filler {
      type: "constant"
      value: 0
    }
  }
}
layer {
  name: "conv12_1_relu"
  type: "ReLU"
  bottom: "conv12_1"
  top: "conv12_1"
}
layer {
  name: "conv12_2"
  type: "Convolution"
  bottom: "conv12_1"
  top: "conv12_2"
  param {
    lr_mult: 1
    decay_mult: 1
  }
  param {
    lr_mult: 2
    decay_mult: 0
  }
  convolution_param {
    num_output: 256
    pad: 1
    kernel_size: 4
    stride: 1
    weight_filler {
      type: "xavier"
    }
    bias_filler {
      type: "constant"
      value: 0
    }
  }
}
layer {
  name: "conv12_2_relu"
  type: "ReLU"
  bottom: "conv12_2"
  top: "conv12_2"
}
layer {
  name: "conv4_3_norm"
  type: "Normalize"
  bottom: "conv4_3"
  top: "conv4_3_norm"
  norm_param {
    across_spatial: false
    scale_filler {
      type: "constant"
      value: 20
    }
    channel_shared: false
  }
}
layer {
  name: "conv4_3_norm_mbox_loc"
  type: "Convolution"
  bottom: "conv4_3_norm"
  top: "conv4_3_norm_mbox_loc"
  param {
    lr_mult: 1
    decay_mult: 1
  }
  param {
    lr_mult: 2
    decay_mult: 0
  }
  convolution_param {
    num_output: 16
    pad: 1
    kernel_size: 3
    stride: 1
    weight_filler {
      type: "xavier"
    }
    bias_filler {
      type: "constant"
      value: 0
    }
  }
}
layer {
  name: "conv4_3_norm_mbox_loc_perm"
  type: "Permute"
  bottom: "conv4_3_norm_mbox_loc"
  top: "conv4_3_norm_mbox_loc_perm"
  permute_param {
    order: 0
    order: 2
    order: 3
    order: 1
  }
}
layer {
  name: "conv4_3_norm_mbox_loc_flat"
  type: "Flatten"
  bottom: "conv4_3_norm_mbox_loc_perm"
  top: "conv4_3_norm_mbox_loc_flat"
  flatten_param {
    axis: 1
  }
}
layer {
  name: "conv4_3_norm_mbox_conf"
  type: "Convolution"
  bottom: "conv4_3_norm"
  top: "conv4_3_norm_mbox_conf"
  param {
    lr_mult: 1
    decay_mult: 1
  }
  param {
    lr_mult: 2
    decay_mult: 0
  }
  convolution_param {
    num_output: 12
    pad: 1
    kernel_size: 3
    stride: 1
    weight_filler {
      type: "xavier"
    }
    bias_filler {
      type: "constant"
      value: 0
    }
  }
}
layer {
  name: "conv4_3_norm_mbox_conf_perm"
  type: "Permute"
  bottom: "conv4_3_norm_mbox_conf"
  top: "conv4_3_norm_mbox_conf_perm"
  permute_param {
    order: 0
    order: 2
    order: 3
    order: 1
  }
}
layer {
  name: "conv4_3_norm_mbox_conf_flat"
  type: "Flatten"
  bottom: "conv4_3_norm_mbox_conf_perm"
  top: "conv4_3_norm_mbox_conf_flat"
  flatten_param {
    axis: 1
  }
}
layer {
  name: "conv4_3_norm_mbox_priorbox"
  type: "PriorBox"
  bottom: "conv4_3_norm"
  bottom: "data"
  top: "conv4_3_norm_mbox_priorbox"
  prior_box_param {
    min_size: 35.84
    max_size: 76.8
    aspect_ratio: 2
    flip: true
    clip: false
    variance: 0.1
    variance: 0.1
    variance: 0.2
    variance: 0.2
    step: 8
    offset: 0.5
  }
}
layer {
  name: "fc7_mbox_loc"
  type: "Convolution"
  bottom: "fc7"
  top: "fc7_mbox_loc"
  param {
    lr_mult: 1
    decay_mult: 1
  }
  param {
    lr_mult: 2
    decay_mult: 0
  }
  convolution_param {
    num_output: 24
    pad: 1
    kernel_size: 3
    stride: 1
    weight_filler {
      type: "xavier"
    }
    bias_filler {
      type: "constant"
      value: 0
    }
  }
}
layer {
  name: "fc7_mbox_loc_perm"
  type: "Permute"
  bottom: "fc7_mbox_loc"
  top: "fc7_mbox_loc_perm"
  permute_param {
    order: 0
    order: 2
    order: 3
    order: 1
  }
}
layer {
  name: "fc7_mbox_loc_flat"
  type: "Flatten"
  bottom: "fc7_mbox_loc_perm"
  top: "fc7_mbox_loc_flat"
  flatten_param {
    axis: 1
  }
}
layer {
  name: "fc7_mbox_conf"
  type: "Convolution"
  bottom: "fc7"
  top: "fc7_mbox_conf"
  param {
    lr_mult: 1
    decay_mult: 1
  }
  param {
    lr_mult: 2
    decay_mult: 0
  }
  convolution_param {
    num_output: 18
    pad: 1
    kernel_size: 3
    stride: 1
    weight_filler {
      type: "xavier"
    }
    bias_filler {
      type: "constant"
      value: 0
    }
  }
}
layer {
  name: "fc7_mbox_conf_perm"
  type: "Permute"
  bottom: "fc7_mbox_conf"
  top: "fc7_mbox_conf_perm"
  permute_param {
    order: 0
    order: 2
    order: 3
    order: 1
  }
}
layer {
  name: "fc7_mbox_conf_flat"
  type: "Flatten"
  bottom: "fc7_mbox_conf_perm"
  top: "fc7_mbox_conf_flat"
  flatten_param {
    axis: 1
  }
}
layer {
  name: "fc7_mbox_priorbox"
  type: "PriorBox"
  bottom: "fc7"
  bottom: "data"
  top: "fc7_mbox_priorbox"
  prior_box_param {
    min_size: 76.8
    max_size: 153.6
    aspect_ratio: 2
    aspect_ratio: 3
    flip: true
    clip: false
    variance: 0.1
    variance: 0.1
    variance: 0.2
    variance: 0.2
    step: 16
    offset: 0.5
  }
}
layer {
  name: "conv8_2_mbox_loc"
  type: "Convolution"
  bottom: "conv8_2"
  top: "conv8_2_mbox_loc"
  param {
    lr_mult: 1
    decay_mult: 1
  }
  param {
    lr_mult: 2
    decay_mult: 0
  }
  convolution_param {
    num_output: 24
    pad: 1
    kernel_size: 3
    stride: 1
    weight_filler {
      type: "xavier"
    }
    bias_filler {
      type: "constant"
      value: 0
    }
  }
}
layer {
  name: "conv8_2_mbox_loc_perm"
  type: "Permute"
  bottom: "conv8_2_mbox_loc"
  top: "conv8_2_mbox_loc_perm"
  permute_param {
    order: 0
    order: 2
    order: 3
    order: 1
  }
}
layer {
  name: "conv8_2_mbox_loc_flat"
  type: "Flatten"
  bottom: "conv8_2_mbox_loc_perm"
  top: "conv8_2_mbox_loc_flat"
  flatten_param {
    axis: 1
  }
}
layer {
  name: "conv8_2_mbox_conf"
  type: "Convolution"
  bottom: "conv8_2"
  top: "conv8_2_mbox_conf"
  param {
    lr_mult: 1
    decay_mult: 1
  }
  param {
    lr_mult: 2
    decay_mult: 0
  }
  convolution_param {
    num_output: 18
    pad: 1
    kernel_size: 3
    stride: 1
    weight_filler {
      type: "xavier"
    }
    bias_filler {
      type: "constant"
      value: 0
    }
  }
}
layer {
  name: "conv8_2_mbox_conf_perm"
  type: "Permute"
  bottom: "conv8_2_mbox_conf"
  top: "conv8_2_mbox_conf_perm"
  permute_param {
    order: 0
    order: 2
    order: 3
    order: 1
  }
}
layer {
  name: "conv8_2_mbox_conf_flat"
  type: "Flatten"
  bottom: "conv8_2_mbox_conf_perm"
  top: "conv8_2_mbox_conf_flat"
  flatten_param {
    axis: 1
  }
}
layer {
  name: "conv8_2_mbox_priorbox"
  type: "PriorBox"
  bottom: "conv8_2"
  bottom: "data"
  top: "conv8_2_mbox_priorbox"
  prior_box_param {
    min_size: 153.6
    max_size: 230.4
    aspect_ratio: 2
    aspect_ratio: 3
    flip: true
    clip: false
    variance: 0.1
    variance: 0.1
    variance: 0.2
    variance: 0.2
    step: 32
    offset: 0.5
  }
}
layer {
  name: "conv9_2_mbox_loc"
  type: "Convolution"
  bottom: "conv9_2"
  top: "conv9_2_mbox_loc"
  param {
    lr_mult: 1
    decay_mult: 1
  }
  param {
    lr_mult: 2
    decay_mult: 0
  }
  convolution_param {
    num_output: 24
    pad: 1
    kernel_size: 3
    stride: 1
    weight_filler {
      type: "xavier"
    }
    bias_filler {
      type: "constant"
      value: 0
    }
  }
}
layer {
  name: "conv9_2_mbox_loc_perm"
  type: "Permute"
  bottom: "conv9_2_mbox_loc"
  top: "conv9_2_mbox_loc_perm"
  permute_param {
    order: 0
    order: 2
    order: 3
    order: 1
  }
}
layer {
  name: "conv9_2_mbox_loc_flat"
  type: "Flatten"
  bottom: "conv9_2_mbox_loc_perm"
  top: "conv9_2_mbox_loc_flat"
  flatten_param {
    axis: 1
  }
}
layer {
  name: "conv9_2_mbox_conf"
  type: "Convolution"
  bottom: "conv9_2"
  top: "conv9_2_mbox_conf"
  param {
    lr_mult: 1
    decay_mult: 1
  }
  param {
    lr_mult: 2
    decay_mult: 0
  }
  convolution_param {
    num_output: 18
    pad: 1
    kernel_size: 3
    stride: 1
    weight_filler {
      type: "xavier"
    }
    bias_filler {
      type: "constant"
      value: 0
    }
  }
}
layer {
  name: "conv9_2_mbox_conf_perm"
  type: "Permute"
  bottom: "conv9_2_mbox_conf"
  top: "conv9_2_mbox_conf_perm"
  permute_param {
    order: 0
    order: 2
    order: 3
    order: 1
  }
}
layer {
  name: "conv9_2_mbox_conf_flat"
  type: "Flatten"
  bottom: "conv9_2_mbox_conf_perm"
  top: "conv9_2_mbox_conf_flat"
  flatten_param {
    axis: 1
  }
}
layer {
  name: "conv9_2_mbox_priorbox"
  type: "PriorBox"
  bottom: "conv9_2"
  bottom: "data"
  top: "conv9_2_mbox_priorbox"
  prior_box_param {
    min_size: 230.4
    max_size: 307.2
    aspect_ratio: 2
    aspect_ratio: 3
    flip: true
    clip: false
    variance: 0.1
    variance: 0.1
    variance: 0.2
    variance: 0.2
    step: 64
    offset: 0.5
  }
}
layer {
  name: "conv10_2_mbox_loc"
  type: "Convolution"
  bottom: "conv10_2"
  top: "conv10_2_mbox_loc"
  param {
    lr_mult: 1
    decay_mult: 1
  }
  param {
    lr_mult: 2
    decay_mult: 0
  }
  convolution_param {
    num_output: 24
    pad: 1
    kernel_size: 3
    stride: 1
    weight_filler {
      type: "xavier"
    }
    bias_filler {
      type: "constant"
      value: 0
    }
  }
}
layer {
  name: "conv10_2_mbox_loc_perm"
  type: "Permute"
  bottom: "conv10_2_mbox_loc"
  top: "conv10_2_mbox_loc_perm"
  permute_param {
    order: 0
    order: 2
    order: 3
    order: 1
  }
}
layer {
  name: "conv10_2_mbox_loc_flat"
  type: "Flatten"
  bottom: "conv10_2_mbox_loc_perm"
  top: "conv10_2_mbox_loc_flat"
  flatten_param {
    axis: 1
  }
}
layer {
  name: "conv10_2_mbox_conf"
  type: "Convolution"
  bottom: "conv10_2"
  top: "conv10_2_mbox_conf"
  param {
    lr_mult: 1
    decay_mult: 1
  }
  param {
    lr_mult: 2
    decay_mult: 0
  }
  convolution_param {
    num_output: 18
    pad: 1
    kernel_size: 3
    stride: 1
    weight_filler {
      type: "xavier"
    }
    bias_filler {
      type: "constant"
      value: 0
    }
  }
}
layer {
  name: "conv10_2_mbox_conf_perm"
  type: "Permute"
  bottom: "conv10_2_mbox_conf"
  top: "conv10_2_mbox_conf_perm"
  permute_param {
    order: 0
    order: 2
    order: 3
    order: 1
  }
}
layer {
  name: "conv10_2_mbox_conf_flat"
  type: "Flatten"
  bottom: "conv10_2_mbox_conf_perm"
  top: "conv10_2_mbox_conf_flat"
  flatten_param {
    axis: 1
  }
}
layer {
  name: "conv10_2_mbox_priorbox"
  type: "PriorBox"
  bottom: "conv10_2"
  bottom: "data"
  top: "conv10_2_mbox_priorbox"
  prior_box_param {
    min_size: 307.2
    max_size: 384
    aspect_ratio: 2
    aspect_ratio: 3
    flip: true
    clip: false
    variance: 0.1
    variance: 0.1
    variance: 0.2
    variance: 0.2
    step: 128
    offset: 0.5
  }
}
layer {
  name: "conv11_2_mbox_loc"
  type: "Convolution"
  bottom: "conv11_2"
  top: "conv11_2_mbox_loc"
  param {
    lr_mult: 1
    decay_mult: 1
  }
  param {
    lr_mult: 2
    decay_mult: 0
  }
  convolution_param {
    num_output: 16
    pad: 1
    kernel_size: 3
    stride: 1
    weight_filler {
      type: "xavier"
    }
    bias_filler {
      type: "constant"
      value: 0
    }
  }
}
layer {
  name: "conv11_2_mbox_loc_perm"
  type: "Permute"
  bottom: "conv11_2_mbox_loc"
  top: "conv11_2_mbox_loc_perm"
  permute_param {
    order: 0
    order: 2
    order: 3
    order: 1
  }
}
layer {
  name: "conv11_2_mbox_loc_flat"
  type: "Flatten"
  bottom: "conv11_2_mbox_loc_perm"
  top: "conv11_2_mbox_loc_flat"
  flatten_param {
    axis: 1
  }
}
layer {
  name: "conv11_2_mbox_conf"
  type: "Convolution"
  bottom: "conv11_2"
  top: "conv11_2_mbox_conf"
  param {
    lr_mult: 1
    decay_mult: 1
  }
  param {
    lr_mult: 2
    decay_mult: 0
  }
  convolution_param {
    num_output: 12
    pad: 1
    kernel_size: 3
    stride: 1
    weight_filler {
      type: "xavier"
    }
    bias_filler {
      type: "constant"
      value: 0
    }
  }
}
layer {
  name: "conv11_2_mbox_conf_perm"
  type: "Permute"
  bottom: "conv11_2_mbox_conf"
  top: "conv11_2_mbox_conf_perm"
  permute_param {
    order: 0
    order: 2
    order: 3
    order: 1
  }
}
layer {
  name: "conv11_2_mbox_conf_flat"
  type: "Flatten"
  bottom: "conv11_2_mbox_conf_perm"
  top: "conv11_2_mbox_conf_flat"
  flatten_param {
    axis: 1
  }
}
layer {
  name: "conv11_2_mbox_priorbox"
  type: "PriorBox"
  bottom: "conv11_2"
  bottom: "data"
  top: "conv11_2_mbox_priorbox"
  prior_box_param {
    min_size: 384
    max_size: 460.8
    aspect_ratio: 2
    flip: true
    clip: false
    variance: 0.1
    variance: 0.1
    variance: 0.2
    variance: 0.2
    step: 256
    offset: 0.5
  }
}
layer {
  name: "conv12_2_mbox_loc"
  type: "Convolution"
  bottom: "conv12_2"
  top: "conv12_2_mbox_loc"
  param {
    lr_mult: 1
    decay_mult: 1
  }
  param {
    lr_mult: 2
    decay_mult: 0
  }
  convolution_param {
    num_output: 16
    pad: 1
    kernel_size: 3
    stride: 1
    weight_filler {
      type: "xavier"
    }
    bias_filler {
      type: "constant"
      value: 0
    }
  }
}
layer {
  name: "conv12_2_mbox_loc_perm"
  type: "Permute"
  bottom: "conv12_2_mbox_loc"
  top: "conv12_2_mbox_loc_perm"
  permute_param {
    order: 0
    order: 2
    order: 3
    order: 1
  }
}
layer {
  name: "conv12_2_mbox_loc_flat"
  type: "Flatten"
  bottom: "conv12_2_mbox_loc_perm"
  top: "conv12_2_mbox_loc_flat"
  flatten_param {
    axis: 1
  }
}
layer {
  name: "conv12_2_mbox_conf"
  type: "Convolution"
  bottom: "conv12_2"
  top: "conv12_2_mbox_conf"
  param {
    lr_mult: 1
    decay_mult: 1
  }
  param {
    lr_mult: 2
    decay_mult: 0
  }
  convolution_param {
    num_output: 12
    pad: 1
    kernel_size: 3
    stride: 1
    weight_filler {
      type: "xavier"
    }
    bias_filler {
      type: "constant"
      value: 0
    }
  }
}
layer {
  name: "conv12_2_mbox_conf_perm"
  type: "Permute"
  bottom: "conv12_2_mbox_conf"
  top: "conv12_2_mbox_conf_perm"
  permute_param {
    order: 0
    order: 2
    order: 3
    order: 1
  }
}
layer {
  name: "conv12_2_mbox_conf_flat"
  type: "Flatten"
  bottom: "conv12_2_mbox_conf_perm"
  top: "conv12_2_mbox_conf_flat"
  flatten_param {
    axis: 1
  }
}
layer {
  name: "conv12_2_mbox_priorbox"
  type: "PriorBox"
  bottom: "conv12_2"
  bottom: "data"
  top: "conv12_2_mbox_priorbox"
  prior_box_param {
    min_size: 460.8
    max_size: 537.6
    aspect_ratio: 2
    flip: true
    clip: false
    variance: 0.1
    variance: 0.1
    variance: 0.2
    variance: 0.2
    step: 512
    offset: 0.5
  }
}
layer {
  name: "mbox_loc"
  type: "Concat"
  bottom: "conv4_3_norm_mbox_loc_flat"
  bottom: "fc7_mbox_loc_flat"
  bottom: "conv8_2_mbox_loc_flat"
  bottom: "conv9_2_mbox_loc_flat"
  bottom: "conv10_2_mbox_loc_flat"
  bottom: "conv11_2_mbox_loc_flat"
  bottom: "conv12_2_mbox_loc_flat"
  top: "mbox_loc"
  concat_param {
    axis: 1
  }
}
layer {
  name: "mbox_conf"
  type: "Concat"
  bottom: "conv4_3_norm_mbox_conf_flat"
  bottom: "fc7_mbox_conf_flat"
  bottom: "conv8_2_mbox_conf_flat"
  bottom: "conv9_2_mbox_conf_flat"
  bottom: "conv10_2_mbox_conf_flat"
  bottom: "conv11_2_mbox_conf_flat"
  bottom: "conv12_2_mbox_conf_flat"
  top: "mbox_conf"
  concat_param {
    axis: 1
  }
}
layer {
  name: "mbox_priorbox"
  type: "Concat"
  bottom: "conv4_3_norm_mbox_priorbox"
  bottom: "fc7_mbox_priorbox"
  bottom: "conv8_2_mbox_priorbox"
  bottom: "conv9_2_mbox_priorbox"
  bottom: "conv10_2_mbox_priorbox"
  bottom: "conv11_2_mbox_priorbox"
  bottom: "conv12_2_mbox_priorbox"
  top: "mbox_priorbox"
  concat_param {
    axis: 2
  }
}
layer {
  name: "mbox_loss"
  type: "MultiBoxLoss"
  bottom: "mbox_loc"
  bottom: "mbox_conf"
  bottom: "mbox_priorbox"
  bottom: "label"
  top: "mbox_loss"
  include {
    phase: TRAIN
  }
  propagate_down: true
  propagate_down: true
  propagate_down: false
  propagate_down: false
  loss_param {
    normalization: VALID
  }
  multibox_loss_param {
    loc_loss_type: SMOOTH_L1
    conf_loss_type: SOFTMAX
    loc_weight: 1
    num_classes: 3
    share_location: true
    match_type: PER_PREDICTION
    overlap_threshold: 0.5
    use_prior_for_matching: true
    background_label_id: 0
    use_d
I0730 22:35:58.649583 18600 layer_factory.hpp:77] Creating layer data
I0730 22:35:58.649583 18600 common.cpp:36] System entropy source not available, using fallback algorithm to generate seed instead.
I0730 22:35:58.649583 18600 net.cpp:100] Creating Layer data
I0730 22:35:58.649583 18600 net.cpp:408] data -> data
I0730 22:35:58.649583 18600 net.cpp:408] data -> label
I0730 22:35:58.650580 12068 common.cpp:36] System entropy source not available, using fallback algorithm to generate seed instead.
I0730 22:35:58.654569 12068 db_lmdb.cpp:40] Opened lmdb examples\wastedata\wastedata_trainval_lmdb
I0730 22:35:58.666538 18600 annotated_data_layer.cpp:62] output data size: 4,3,512,512
I0730 22:35:58.688479 18600 net.cpp:150] Setting up data
I0730 22:35:58.688479 18600 net.cpp:157] Top shape: 4 3 512 512 (3145728)
I0730 22:35:58.688479 18600 net.cpp:157] Top shape: 1 1 1 8 (8)
I0730 22:35:58.688479 18600 net.cpp:165] Memory required for data: 12582944
I0730 22:35:58.688479 18600 layer_factory.hpp:77] Creating layer data_data_0_split
I0730 22:35:58.688479 18600 net.cpp:100] Creating Layer data_data_0_split
I0730 22:35:58.688479 18600 net.cpp:434] data_data_0_split <- data
I0730 22:35:58.688479 18600 net.cpp:408] data_data_0_split -> data_data_0_split_0
I0730 22:35:58.688479 18600 net.cpp:408] data_data_0_split -> data_data_0_split_1
I0730 22:35:58.688479 18600 net.cpp:408] data_data_0_split -> data_data_0_split_2
I0730 22:35:58.688479 18600 net.cpp:408] data_data_0_split -> data_data_0_split_3
I0730 22:35:58.688479 18600 net.cpp:408] data_data_0_split -> data_data_0_split_4
I0730 22:35:58.688479 18600 net.cpp:408] data_data_0_split -> data_data_0_split_5
I0730 22:35:58.688479 18600 net.cpp:408] data_data_0_split -> data_data_0_split_6
I0730 22:35:58.688479 18600 net.cpp:408] data_data_0_split -> data_data_0_split_7
I0730 22:35:58.688479 18600 net.cpp:150] Setting up data_data_0_split
I0730 22:35:58.689476 18600 net.cpp:157] Top shape: 4 3 512 512 (3145728)
I0730 22:35:58.689476 18600 net.cpp:157] Top shape: 4 3 512 512 (3145728)
I0730 22:35:58.689476 18600 net.cpp:157] Top shape: 4 3 512 512 (3145728)
I0730 22:35:58.689476 18600 net.cpp:157] Top shape: 4 3 512 512 (3145728)
I0730 22:35:58.689476 18600 net.cpp:157] Top shape: 4 3 512 512 (3145728)
I0730 22:35:58.689476 18600 net.cpp:157] Top shape: 4 3 512 512 (3145728)
I0730 22:35:58.689476 18600 net.cpp:157] Top shape: 4 3 512 512 (3145728)
I0730 22:35:58.689476 18600 net.cpp:157] Top shape: 4 3 512 512 (3145728)
I0730 22:35:58.689476 18600 net.cpp:165] Memory required for data: 113246240
I0730 22:35:58.689476 18600 layer_factory.hpp:77] Creating layer conv1_1
I0730 22:35:58.689476 18600 net.cpp:100] Creating Layer conv1_1
I0730 22:35:58.689476 18600 net.cpp:434] conv1_1 <- data_data_0_split_0
I0730 22:35:58.689476 18600 net.cpp:408] conv1_1 -> conv1_1
I0730 22:35:58.689476 10864 common.cpp:36] System entropy source not available, using fallback algorithm to generate seed instead.
I0730 22:35:59.643925 18600 net.cpp:150] Setting up conv1_1
I0730 22:35:59.643925 18600 net.cpp:157] Top shape: 4 64 512 512 (67108864)
I0730 22:35:59.643925 18600 net.cpp:165] Memory required for data: 381681696
I0730 22:35:59.643925 18600 layer_factory.hpp:77] Creating layer relu1_1
I0730 22:35:59.643925 18600 net.cpp:100] Creating Layer relu1_1
I0730 22:35:59.643925 18600 net.cpp:434] relu1_1 <- conv1_1
I0730 22:35:59.643925 18600 net.cpp:395] relu1_1 -> conv1_1 (in-place)
I0730 22:35:59.644923 18600 net.cpp:150] Setting up relu1_1
I0730 22:35:59.644923 18600 net.cpp:157] Top shape: 4 64 512 512 (67108864)
I0730 22:35:59.644923 18600 net.cpp:165] Memory required for data: 650117152
I0730 22:35:59.644923 18600 layer_factory.hpp:77] Creating layer conv1_2
I0730 22:35:59.644923 18600 net.cpp:100] Creating Layer conv1_2
I0730 22:35:59.644923 18600 net.cpp:434] conv1_2 <- conv1_1
I0730 22:35:59.644923 18600 net.cpp:408] conv1_2 -> conv1_2
I0730 22:35:59.647915 18600 net.cpp:150] Setting up conv1_2
I0730 22:35:59.647915 18600 net.cpp:157] Top shape: 4 64 512 512 (67108864)
I0730 22:35:59.647915 18600 net.cpp:165] Memory required for data: 918552608
I0730 22:35:59.647915 18600 layer_factory.hpp:77] Creating layer relu1_2
I0730 22:35:59.647915 18600 net.cpp:100] Creating Layer relu1_2
I0730 22:35:59.647915 18600 net.cpp:434] relu1_2 <- conv1_2
I0730 22:35:59.647915 18600 net.cpp:395] relu1_2 -> conv1_2 (in-place)
I0730 22:35:59.648912 18600 net.cpp:150] Setting up relu1_2
I0730 22:35:59.648912 18600 net.cpp:157] Top shape: 4 64 512 512 (67108864)
I0730 22:35:59.648912 18600 net.cpp:165] Memory required for data: 1186988064
I0730 22:35:59.648912 18600 layer_factory.hpp:77] Creating layer pool1
I0730 22:35:59.648912 18600 net.cpp:100] Creating Layer pool1
I0730 22:35:59.648912 18600 net.cpp:434] pool1 <- conv1_2
I0730 22:35:59.648912 18600 net.cpp:408] pool1 -> pool1
I0730 22:35:59.648912 18600 net.cpp:150] Setting up pool1
I0730 22:35:59.648912 18600 net.cpp:157] Top shape: 4 64 256 256 (16777216)
I0730 22:35:59.648912 18600 net.cpp:165] Memory required for data: 1254096928
I0730 22:35:59.648912 18600 layer_factory.hpp:77] Creating layer conv2_1
I0730 22:35:59.648912 18600 net.cpp:100] Creating Layer conv2_1
I0730 22:35:59.648912 18600 net.cpp:434] conv2_1 <- pool1
I0730 22:35:59.648912 18600 net.cpp:408] conv2_1 -> conv2_1
I0730 22:35:59.651904 18600 net.cpp:150] Setting up conv2_1
I0730 22:35:59.651904 18600 net.cpp:157] Top shape: 4 128 256 256 (33554432)
I0730 22:35:59.651904 18600 net.cpp:165] Memory required for data: 1388314656
I0730 22:35:59.651904 18600 layer_factory.hpp:77] Creating layer relu2_1
I0730 22:35:59.651904 18600 net.cpp:100] Creating Layer relu2_1
I0730 22:35:59.651904 18600 net.cpp:434] relu2_1 <- conv2_1
I0730 22:35:59.651904 18600 net.cpp:395] relu2_1 -> conv2_1 (in-place)
I0730 22:35:59.652901 18600 net.cpp:150] Setting up relu2_1
I0730 22:35:59.652901 18600 net.cpp:157] Top shape: 4 128 256 256 (33554432)
I0730 22:35:59.652901 18600 net.cpp:165] Memory required for data: 1522532384
I0730 22:35:59.652901 18600 layer_factory.hpp:77] Creating layer conv2_2
I0730 22:35:59.652901 18600 net.cpp:100] Creating Layer conv2_2
I0730 22:35:59.652901 18600 net.cpp:434] conv2_2 <- conv2_1
I0730 22:35:59.652901 18600 net.cpp:408] conv2_2 -> conv2_2
I0730 22:35:59.655894 18600 net.cpp:150] Setting up conv2_2
I0730 22:35:59.655894 18600 net.cpp:157] Top shape: 4 128 256 256 (33554432)
I0730 22:35:59.655894 18600 net.cpp:165] Memory required for data: 1656750112
I0730 22:35:59.655894 18600 layer_factory.hpp:77] Creating layer relu2_2
I0730 22:35:59.655894 18600 net.cpp:100] Creating Layer relu2_2
I0730 22:35:59.655894 18600 net.cpp:434] relu2_2 <- conv2_2
I0730 22:35:59.655894 18600 net.cpp:395] relu2_2 -> conv2_2 (in-place)
I0730 22:35:59.656891 18600 net.cpp:150] Setting up relu2_2
I0730 22:35:59.656891 18600 net.cpp:157] Top shape: 4 128 256 256 (33554432)
I0730 22:35:59.656891 18600 net.cpp:165] Memory required for data: 1790967840
I0730 22:35:59.656891 18600 layer_factory.hpp:77] Creating layer pool2
I0730 22:35:59.656891 18600 net.cpp:100] Creating Layer pool2
I0730 22:35:59.656891 18600 net.cpp:434] pool2 <- conv2_2
I0730 22:35:59.656891 18600 net.cpp:408] pool2 -> pool2
I0730 22:35:59.656891 18600 net.cpp:150] Setting up pool2
I0730 22:35:59.656891 18600 net.cpp:157] Top shape: 4 128 128 128 (8388608)
I0730 22:35:59.656891 18600 net.cpp:165] Memory required for data: 1824522272
I0730 22:35:59.656891 18600 layer_factory.hpp:77] Creating layer conv3_1
I0730 22:35:59.656891 18600 net.cpp:100] Creating Layer conv3_1
I0730 22:35:59.656891 18600 net.cpp:434] conv3_1 <- pool2
I0730 22:35:59.656891 18600 net.cpp:408] conv3_1 -> conv3_1
I0730 22:35:59.661877 18600 net.cpp:150] Setting up conv3_1
I0730 22:35:59.661877 18600 net.cpp:157] Top shape: 4 256 128 128 (16777216)
I0730 22:35:59.661877 18600 net.cpp:165] Memory required for data: 1891631136
I0730 22:35:59.661877 18600 layer_factory.hpp:77] Creating layer relu3_1
I0730 22:35:59.661877 18600 net.cpp:100] Creating Layer relu3_1
I0730 22:35:59.661877 18600 net.cpp:434] relu3_1 <- conv3_1
I0730 22:35:59.661877 18600 net.cpp:395] relu3_1 -> conv3_1 (in-place)
I0730 22:35:59.662875 18600 net.cpp:150] Setting up relu3_1
I0730 22:35:59.662875 18600 net.cpp:157] Top shape: 4 256 128 128 (16777216)
I0730 22:35:59.662875 18600 net.cpp:165] Memory required for data: 1958740000
I0730 22:35:59.662875 18600 layer_factory.hpp:77] Creating layer conv3_2
I0730 22:35:59.662875 18600 net.cpp:100] Creating Layer conv3_2
I0730 22:35:59.662875 18600 net.cpp:434] conv3_2 <- conv3_1
I0730 22:35:59.662875 18600 net.cpp:408] conv3_2 -> conv3_2
I0730 22:35:59.669857 18600 net.cpp:150] Setting up conv3_2
I0730 22:35:59.670855 18600 net.cpp:157] Top shape: 4 256 128 128 (16777216)
I0730 22:35:59.670855 18600 net.cpp:165] Memory required for data: 2025848864
I0730 22:35:59.670855 18600 layer_factory.hpp:77] Creating layer relu3_2
I0730 22:35:59.670855 18600 net.cpp:100] Creating Layer relu3_2
I0730 22:35:59.670855 18600 net.cpp:434] relu3_2 <- conv3_2
I0730 22:35:59.670855 18600 net.cpp:395] relu3_2 -> conv3_2 (in-place)
I0730 22:35:59.670855 18600 net.cpp:150] Setting up relu3_2
I0730 22:35:59.670855 18600 net.cpp:157] Top shape: 4 256 128 128 (16777216)
I0730 22:35:59.670855 18600 net.cpp:165] Memory required for data: 2092957728
I0730 22:35:59.670855 18600 layer_factory.hpp:77] Creating layer conv3_3
I0730 22:35:59.670855 18600 net.cpp:100] Creating Layer conv3_3
I0730 22:35:59.670855 18600 net.cpp:434] conv3_3 <- conv3_2
I0730 22:35:59.670855 18600 net.cpp:408] conv3_3 -> conv3_3
I0730 22:35:59.678833 18600 net.cpp:150] Setting up conv3_3
I0730 22:35:59.678833 18600 net.cpp:157] Top shape: 4 256 128 128 (16777216)
I0730 22:35:59.678833 18600 net.cpp:165] Memory required for data: 2160066592
I0730 22:35:59.678833 18600 layer_factory.hpp:77] Creating layer relu3_3
I0730 22:35:59.678833 18600 net.cpp:100] Creating Layer relu3_3
I0730 22:35:59.678833 18600 net.cpp:434] relu3_3 <- conv3_3
I0730 22:35:59.678833 18600 net.cpp:395] relu3_3 -> conv3_3 (in-place)
I0730 22:35:59.678833 18600 net.cpp:150] Setting up relu3_3
I0730 22:35:59.678833 18600 net.cpp:157] Top shape: 4 256 128 128 (16777216)
I0730 22:35:59.678833 18600 net.cpp:165] Memory required for data: 2227175456
I0730 22:35:59.678833 18600 layer_factory.hpp:77] Creating layer pool3
I0730 22:35:59.679829 18600 net.cpp:100] Creating Layer pool3
I0730 22:35:59.679829 18600 net.cpp:434] pool3 <- conv3_3
I0730 22:35:59.679829 18600 net.cpp:408] pool3 -> pool3
I0730 22:35:59.679829 18600 net.cpp:150] Setting up pool3
I0730 22:35:59.679829 18600 net.cpp:157] Top shape: 4 256 64 64 (4194304)
I0730 22:35:59.679829 18600 net.cpp:165] Memory required for data: 2243952672
I0730 22:35:59.679829 18600 layer_factory.hpp:77] Creating layer conv4_1
I0730 22:35:59.679829 18600 net.cpp:100] Creating Layer conv4_1
I0730 22:35:59.679829 18600 net.cpp:434] conv4_1 <- pool3
I0730 22:35:59.679829 18600 net.cpp:408] conv4_1 -> conv4_1
I0730 22:35:59.689803 18600 net.cpp:150] Setting up conv4_1
I0730 22:35:59.689803 18600 net.cpp:157] Top shape: 4 512 64 64 (8388608)
I0730 22:35:59.689803 18600 net.cpp:165] Memory required for data: 2277507104
I0730 22:35:59.689803 18600 layer_factory.hpp:77] Creating layer relu4_1
I0730 22:35:59.689803 18600 net.cpp:100] Creating Layer relu4_1
I0730 22:35:59.689803 18600 net.cpp:434] relu4_1 <- conv4_1
I0730 22:35:59.689803 18600 net.cpp:395] relu4_1 -> conv4_1 (in-place)
I0730 22:35:59.690801 18600 net.cpp:150] Setting up relu4_1
I0730 22:35:59.690801 18600 net.cpp:157] Top shape: 4 512 64 64 (8388608)
I0730 22:35:59.690801 18600 net.cpp:165] Memory required for data: 2311061536
I0730 22:35:59.690801 18600 layer_factory.hpp:77] Creating layer conv4_2
I0730 22:35:59.690801 18600 net.cpp:100] Creating Layer conv4_2
I0730 22:35:59.690801 18600 net.cpp:434] conv4_2 <- conv4_1
I0730 22:35:59.690801 18600 net.cpp:408] conv4_2 -> conv4_2
I0730 22:35:59.706758 18600 net.cpp:150] Setting up conv4_2
I0730 22:35:59.706758 18600 net.cpp:157] Top shape: 4 512 64 64 (8388608)
I0730 22:35:59.706758 18600 net.cpp:165] Memory required for data: 2344615968
I0730 22:35:59.706758 18600 layer_factory.hpp:77] Creating layer relu4_2
I0730 22:35:59.706758 18600 net.cpp:100] Creating Layer relu4_2
I0730 22:35:59.706758 18600 net.cpp:434] relu4_2 <- conv4_2
I0730 22:35:59.706758 18600 net.cpp:395] relu4_2 -> conv4_2 (in-place)
I0730 22:35:59.707756 18600 net.cpp:150] Setting up relu4_2
I0730 22:35:59.707756 18600 net.cpp:157] Top shape: 4 512 64 64 (8388608)
I0730 22:35:59.707756 18600 net.cpp:165] Memory required for data: 2378170400
I0730 22:35:59.707756 18600 layer_factory.hpp:77] Creating layer conv4_3
I0730 22:35:59.707756 18600 net.cpp:100] Creating Layer conv4_3
I0730 22:35:59.707756 18600 net.cpp:434] conv4_3 <- conv4_2
I0730 22:35:59.707756 18600 net.cpp:408] conv4_3 -> conv4_3
I0730 22:35:59.725708 18600 net.cpp:150] Setting up conv4_3
I0730 22:35:59.725708 18600 net.cpp:157] Top shape: 4 512 64 64 (8388608)
I0730 22:35:59.725708 18600 net.cpp:165] Memory required for data: 2411724832
I0730 22:35:59.725708 18600 layer_factory.hpp:77] Creating layer relu4_3
I0730 22:35:59.725708 18600 net.cpp:100] Creating Layer relu4_3
I0730 22:35:59.725708 18600 net.cpp:434] relu4_3 <- conv4_3
I0730 22:35:59.725708 18600 net.cpp:395] relu4_3 -> conv4_3 (in-place)
I0730 22:35:59.726706 18600 net.cpp:150] Setting up relu4_3
I0730 22:35:59.727701 18600 net.cpp:157] Top shape: 4 512 64 64 (8388608)
I0730 22:35:59.727701 18600 net.cpp:165] Memory required for data: 2445279264
I0730 22:35:59.727701 18600 layer_factory.hpp:77] Creating layer conv4_3_relu4_3_0_split
I0730 22:35:59.727701 18600 net.cpp:100] Creating Layer conv4_3_relu4_3_0_split
I0730 22:35:59.727701 18600 net.cpp:434] conv4_3_relu4_3_0_split <- conv4_3
I0730 22:35:59.727701 18600 net.cpp:408] conv4_3_relu4_3_0_split -> conv4_3_relu4_3_0_split_0
I0730 22:35:59.727701 18600 net.cpp:408] conv4_3_relu4_3_0_split -> conv4_3_relu4_3_0_split_1
I0730 22:35:59.727701 18600 net.cpp:150] Setting up conv4_3_relu4_3_0_split
I0730 22:35:59.727701 18600 net.cpp:157] Top shape: 4 512 64 64 (8388608)
I0730 22:35:59.727701 18600 net.cpp:157] Top shape: 4 512 64 64 (8388608)
I0730 22:35:59.727701 18600 net.cpp:165] Memory required for data: 2512388128
I0730 22:35:59.727701 18600 layer_factory.hpp:77] Creating layer pool4
I0730 22:35:59.727701 18600 net.cpp:100] Creating Layer pool4
I0730 22:35:59.727701 18600 net.cpp:434] pool4 <- conv4_3_relu4_3_0_split_0
I0730 22:35:59.727701 18600 net.cpp:408] pool4 -> pool4
I0730 22:35:59.727701 18600 net.cpp:150] Setting up pool4
I0730 22:35:59.727701 18600 net.cpp:157] Top shape: 4 512 32 32 (2097152)
I0730 22:35:59.727701 18600 net.cpp:165] Memory required for data: 2520776736
I0730 22:35:59.727701 18600 layer_factory.hpp:77] Creating layer conv5_1
I0730 22:35:59.727701 18600 net.cpp:100] Creating Layer conv5_1
I0730 22:35:59.727701 18600 net.cpp:434] conv5_1 <- pool4
I0730 22:35:59.727701 18600 net.cpp:408] conv5_1 -> conv5_1
I0730 22:35:59.745654 18600 net.cpp:150] Setting up conv5_1
I0730 22:35:59.745654 18600 net.cpp:157] Top shape: 4 512 32 32 (2097152)
I0730 22:35:59.745654 18600 net.cpp:165] Memory required for data: 2529165344
I0730 22:35:59.745654 18600 layer_factory.hpp:77] Creating layer relu5_1
I0730 22:35:59.745654 18600 net.cpp:100] Creating Layer relu5_1
I0730 22:35:59.745654 18600 net.cpp:434] relu5_1 <- conv5_1
I0730 22:35:59.745654 18600 net.cpp:395] relu5_1 -> conv5_1 (in-place)
I0730 22:35:59.745654 18600 net.cpp:150] Setting up relu5_1
I0730 22:35:59.745654 18600 net.cpp:157] Top shape: 4 512 32 32 (2097152)
I0730 22:35:59.745654 18600 net.cpp:165] Memory required for data: 2537553952
I0730 22:35:59.745654 18600 layer_factory.hpp:77] Creating layer conv5_2
I0730 22:35:59.745654 18600 net.cpp:100] Creating Layer conv5_2
I0730 22:35:59.745654 18600 net.cpp:434] conv5_2 <- conv5_1
I0730 22:35:59.745654 18600 net.cpp:408] conv5_2 -> conv5_2
I0730 22:35:59.763607 18600 net.cpp:150] Setting up conv5_2
I0730 22:35:59.763607 18600 net.cpp:157] Top shape: 4 512 32 32 (2097152)
I0730 22:35:59.763607 18600 net.cpp:165] Memory required for data: 2545942560
I0730 22:35:59.763607 18600 layer_factory.hpp:77] Creating layer relu5_2
I0730 22:35:59.763607 18600 net.cpp:100] Creating Layer relu5_2
I0730 22:35:59.763607 18600 net.cpp:434] relu5_2 <- conv5_2
I0730 22:35:59.763607 18600 net.cpp:395] relu5_2 -> conv5_2 (in-place)
I0730 22:35:59.763607 18600 net.cpp:150] Setting up relu5_2
I0730 22:35:59.764603 18600 net.cpp:157] Top shape: 4 512 32 32 (2097152)
I0730 22:35:59.764603 18600 net.cpp:165] Memory required for data: 2554331168
I0730 22:35:59.764603 18600 layer_factory.hpp:77] Creating layer conv5_3
I0730 22:35:59.764603 18600 net.cpp:100] Creating Layer conv5_3
I0730 22:35:59.764603 18600 net.cpp:434] conv5_3 <- conv5_2
I0730 22:35:59.764603 18600 net.cpp:408] conv5_3 -> conv5_3
I0730 22:35:59.782555 18600 net.cpp:150] Setting up conv5_3
I0730 22:35:59.782555 18600 net.cpp:157] Top shape: 4 512 32 32 (2097152)
I0730 22:35:59.782555 18600 net.cpp:165] Memory required for data: 2562719776
I0730 22:35:59.782555 18600 layer_factory.hpp:77] Creating layer relu5_3
I0730 22:35:59.782555 18600 net.cpp:100] Creating Layer relu5_3
I0730 22:35:59.782555 18600 net.cpp:434] relu5_3 <- conv5_3
I0730 22:35:59.782555 18600 net.cpp:395] relu5_3 -> conv5_3 (in-place)
I0730 22:35:59.782555 18600 net.cpp:150] Setting up relu5_3
I0730 22:35:59.782555 18600 net.cpp:157] Top shape: 4 512 32 32 (2097152)
I0730 22:35:59.782555 18600 net.cpp:165] Memory required for data: 2571108384
I0730 22:35:59.782555 18600 layer_factory.hpp:77] Creating layer pool5
I0730 22:35:59.782555 18600 net.cpp:100] Creating Layer pool5
I0730 22:35:59.782555 18600 net.cpp:434] pool5 <- conv5_3
I0730 22:35:59.783552 18600 net.cpp:408] pool5 -> pool5
I0730 22:35:59.783552 18600 net.cpp:150] Setting up pool5
I0730 22:35:59.783552 18600 net.cpp:157] Top shape: 4 512 32 32 (2097152)
I0730 22:35:59.783552 18600 net.cpp:165] Memory required for data: 2579496992
I0730 22:35:59.783552 18600 layer_factory.hpp:77] Creating layer fc6
I0730 22:35:59.783552 18600 net.cpp:100] Creating Layer fc6
I0730 22:35:59.783552 18600 net.cpp:434] fc6 <- pool5
I0730 22:35:59.783552 18600 net.cpp:408] fc6 -> fc6
I0730 22:35:59.813472 18600 net.cpp:150] Setting up fc6
I0730 22:35:59.813472 18600 net.cpp:157] Top shape: 4 1024 32 32 (4194304)
I0730 22:35:59.813472 18600 net.cpp:165] Memory required for data: 2596274208
I0730 22:35:59.813472 18600 layer_factory.hpp:77] Creating layer relu6
I0730 22:35:59.813472 18600 net.cpp:100] Creating Layer relu6
I0730 22:35:59.813472 18600 net.cpp:434] relu6 <- fc6
I0730 22:35:59.813472 18600 net.cpp:395] relu6 -> fc6 (in-place)
I0730 22:35:59.814469 18600 net.cpp:150] Setting up relu6
I0730 22:35:59.814469 18600 net.cpp:157] Top shape: 4 1024 32 32 (4194304)
I0730 22:35:59.814469 18600 net.cpp:165] Memory required for data: 2613051424
I0730 22:35:59.814469 18600 layer_factory.hpp:77] Creating layer fc7
I0730 22:35:59.814469 18600 net.cpp:100] Creating Layer fc7
I0730 22:35:59.814469 18600 net.cpp:434] fc7 <- fc6
I0730 22:35:59.814469 18600 net.cpp:408] fc7 -> fc7
I0730 22:35:59.824442 18600 net.cpp:150] Setting up fc7
I0730 22:35:59.824442 18600 net.cpp:157] Top shape: 4 1024 32 32 (4194304)
I0730 22:35:59.824442 18600 net.cpp:165] Memory required for data: 2629828640
I0730 22:35:59.824442 18600 layer_factory.hpp:77] Creating layer relu7
I0730 22:35:59.824442 18600 net.cpp:100] Creating Layer relu7
I0730 22:35:59.824442 18600 net.cpp:434] relu7 <- fc7
I0730 22:35:59.824442 18600 net.cpp:395] relu7 -> fc7 (in-place)
I0730 22:35:59.824442 18600 net.cpp:150] Setting up relu7
I0730 22:35:59.824442 18600 net.cpp:157] Top shape: 4 1024 32 32 (4194304)
I0730 22:35:59.824442 18600 net.cpp:165] Memory required for data: 2646605856
I0730 22:35:59.824442 18600 layer_factory.hpp:77] Creating layer fc7_relu7_0_split
I0730 22:35:59.824442 18600 net.cpp:100] Creating Layer fc7_relu7_0_split
I0730 22:35:59.824442 18600 net.cpp:434] fc7_relu7_0_split <- fc7
I0730 22:35:59.824442 18600 net.cpp:408] fc7_relu7_0_split -> fc7_relu7_0_split_0
I0730 22:35:59.824442 18600 net.cpp:408] fc7_relu7_0_split -> fc7_relu7_0_split_1
I0730 22:35:59.824442 18600 net.cpp:408] fc7_relu7_0_split -> fc7_relu7_0_split_2
I0730 22:35:59.824442 18600 net.cpp:408] fc7_relu7_0_split -> fc7_relu7_0_split_3
I0730 22:35:59.824442 18600 net.cpp:150] Setting up fc7_relu7_0_split
I0730 22:35:59.824442 18600 net.cpp:157] Top shape: 4 1024 32 32 (4194304)
I0730 22:35:59.824442 18600 net.cpp:157] Top shape: 4 1024 32 32 (4194304)
I0730 22:35:59.824442 18600 net.cpp:157] Top shape: 4 1024 32 32 (4194304)
I0730 22:35:59.824442 18600 net.cpp:157] Top shape: 4 1024 32 32 (4194304)
I0730 22:35:59.824442 18600 net.cpp:165] Memory required for data: 2713714720
I0730 22:35:59.824442 18600 layer_factory.hpp:77] Creating layer conv8_1
I0730 22:35:59.824442 18600 net.cpp:100] Creating Layer conv8_1
I0730 22:35:59.824442 18600 net.cpp:434] conv8_1 <- fc7_relu7_0_split_0
I0730 22:35:59.824442 18600 net.cpp:408] conv8_1 -> conv8_1
I0730 22:35:59.829429 18600 net.cpp:150] Setting up conv8_1
I0730 22:35:59.829429 18600 net.cpp:157] Top shape: 4 256 32 32 (1048576)
I0730 22:35:59.829429 18600 net.cpp:165] Memory required for data: 2717909024
I0730 22:35:59.829429 18600 layer_factory.hpp:77] Creating layer conv8_1_relu
I0730 22:35:59.829429 18600 net.cpp:100] Creating Layer conv8_1_relu
I0730 22:35:59.829429 18600 net.cpp:434] conv8_1_relu <- conv8_1
I0730 22:35:59.829429 18600 net.cpp:395] conv8_1_relu -> conv8_1 (in-place)
I0730 22:35:59.830426 18600 net.cpp:150] Setting up conv8_1_relu
I0730 22:35:59.830426 18600 net.cpp:157] Top shape: 4 256 32 32 (1048576)
I0730 22:35:59.830426 18600 net.cpp:165] Memory required for data: 2722103328
I0730 22:35:59.830426 18600 layer_factory.hpp:77] Creating layer conv8_2
I0730 22:35:59.830426 18600 net.cpp:100] Creating Layer conv8_2
I0730 22:35:59.830426 18600 net.cpp:434] conv8_2 <- conv8_1
I0730 22:35:59.830426 18600 net.cpp:408] conv8_2 -> conv8_2
I0730 22:35:59.840400 18600 net.cpp:150] Setting up conv8_2
I0730 22:35:59.840400 18600 net.cpp:157] Top shape: 4 512 16 16 (524288)
I0730 22:35:59.840400 18600 net.cpp:165] Memory required for data: 2724200480
I0730 22:35:59.840400 18600 layer_factory.hpp:77] Creating layer conv8_2_relu
I0730 22:35:59.840400 18600 net.cpp:100] Creating Layer conv8_2_relu
I0730 22:35:59.840400 18600 net.cpp:434] conv8_2_relu <- conv8_2
I0730 22:35:59.840400 18600 net.cpp:395] conv8_2_relu -> conv8_2 (in-place)
I0730 22:35:59.841398 18600 net.cpp:150] Setting up conv8_2_relu
I0730 22:35:59.841398 18600 net.cpp:157] Top shape: 4 512 16 16 (524288)
I0730 22:35:59.841398 18600 net.cpp:165] Memory required for data: 2726297632
I0730 22:35:59.841398 18600 layer_factory.hpp:77] Creating layer conv8_2_conv8_2_relu_0_split
I0730 22:35:59.841398 18600 net.cpp:100] Creating Layer conv8_2_conv8_2_relu_0_split
I0730 22:35:59.841398 18600 net.cpp:434] conv8_2_conv8_2_relu_0_split <- conv8_2
I0730 22:35:59.841398 18600 net.cpp:408] conv8_2_conv8_2_relu_0_split -> conv8_2_conv8_2_relu_0_split_0
I0730 22:35:59.841398 18600 net.cpp:408] conv8_2_conv8_2_relu_0_split -> conv8_2_conv8_2_relu_0_split_1
I0730 22:35:59.841398 18600 net.cpp:408] conv8_2_conv8_2_relu_0_split -> conv8_2_conv8_2_relu_0_split_2
I0730 22:35:59.841398 18600 net.cpp:408] conv8_2_conv8_2_relu_0_split -> conv8_2_conv8_2_relu_0_split_3
I0730 22:35:59.841398 18600 net.cpp:150] Setting up conv8_2_conv8_2_relu_0_split
I0730 22:35:59.841398 18600 net.cpp:157] Top shape: 4 512 16 16 (524288)
I0730 22:35:59.841398 18600 net.cpp:157] Top shape: 4 512 16 16 (524288)
I0730 22:35:59.841398 18600 net.cpp:157] Top shape: 4 512 16 16 (524288)
I0730 22:35:59.841398 18600 net.cpp:157] Top shape: 4 512 16 16 (524288)
I0730 22:35:59.841398 18600 net.cpp:165] Memory required for data: 2734686240
I0730 22:35:59.841398 18600 layer_factory.hpp:77] Creating layer conv9_1
I0730 22:35:59.841398 18600 net.cpp:100] Creating Layer conv9_1
I0730 22:35:59.841398 18600 net.cpp:434] conv9_1 <- conv8_2_conv8_2_relu_0_split_0
I0730 22:35:59.841398 18600 net.cpp:408] conv9_1 -> conv9_1
I0730 22:35:59.843392 18600 net.cpp:150] Setting up conv9_1
I0730 22:35:59.843392 18600 net.cpp:157] Top shape: 4 128 16 16 (131072)
I0730 22:35:59.843392 18600 net.cpp:165] Memory required for data: 2735210528
I0730 22:35:59.843392 18600 layer_factory.hpp:77] Creating layer conv9_1_relu
I0730 22:35:59.843392 18600 net.cpp:100] Creating Layer conv9_1_relu
I0730 22:35:59.843392 18600 net.cpp:434] conv9_1_relu <- conv9_1
I0730 22:35:59.843392 18600 net.cpp:395] conv9_1_relu -> conv9_1 (in-place)
I0730 22:35:59.844389 18600 net.cpp:150] Setting up conv9_1_relu
I0730 22:35:59.844389 18600 net.cpp:157] Top shape: 4 128 16 16 (131072)
I0730 22:35:59.844389 18600 net.cpp:165] Memory required for data: 2735734816
I0730 22:35:59.844389 18600 layer_factory.hpp:77] Creating layer conv9_2
I0730 22:35:59.844389 18600 net.cpp:100] Creating Layer conv9_2
I0730 22:35:59.844389 18600 net.cpp:434] conv9_2 <- conv9_1
I0730 22:35:59.844389 18600 net.cpp:408] conv9_2 -> conv9_2
I0730 22:35:59.848378 18600 net.cpp:150] Setting up conv9_2
I0730 22:35:59.848378 18600 net.cpp:157] Top shape: 4 256 8 8 (65536)
I0730 22:35:59.848378 18600 net.cpp:165] Memory required for data: 2735996960
I0730 22:35:59.848378 18600 layer_factory.hpp:77] Creating layer conv9_2_relu
I0730 22:35:59.848378 18600 net.cpp:100] Creating Layer conv9_2_relu
I0730 22:35:59.848378 18600 net.cpp:434] conv9_2_relu <- conv9_2
I0730 22:35:59.848378 18600 net.cpp:395] conv9_2_relu -> conv9_2 (in-place)
I0730 22:35:59.850373 18600 net.cpp:150] Setting up conv9_2_relu
I0730 22:35:59.850373 18600 net.cpp:157] Top shape: 4 256 8 8 (65536)
I0730 22:35:59.850373 18600 net.cpp:165] Memory required for data: 2736259104
I0730 22:35:59.850373 18600 layer_factory.hpp:77] Creating layer conv9_2_conv9_2_relu_0_split
I0730 22:35:59.850373 18600 net.cpp:100] Creating Layer conv9_2_conv9_2_relu_0_split
I0730 22:35:59.850373 18600 net.cpp:434] conv9_2_conv9_2_relu_0_split <- conv9_2
I0730 22:35:59.850373 18600 net.cpp:408] conv9_2_conv9_2_relu_0_split -> conv9_2_conv9_2_relu_0_split_0
I0730 22:35:59.850373 18600 net.cpp:408] conv9_2_conv9_2_relu_0_split -> conv9_2_conv9_2_relu_0_split_1
I0730 22:35:59.850373 18600 net.cpp:408] conv9_2_conv9_2_relu_0_split -> conv9_2_conv9_2_relu_0_split_2
I0730 22:35:59.850373 18600 net.cpp:408] conv9_2_conv9_2_relu_0_split -> conv9_2_conv9_2_relu_0_split_3
I0730 22:35:59.850373 18600 net.cpp:150] Setting up conv9_2_conv9_2_relu_0_split
I0730 22:35:59.850373 18600 net.cpp:157] Top shape: 4 256 8 8 (65536)
I0730 22:35:59.850373 18600 net.cpp:157] Top shape: 4 256 8 8 (65536)
I0730 22:35:59.850373 18600 net.cpp:157] Top shape: 4 256 8 8 (65536)
I0730 22:35:59.850373 18600 net.cpp:157] Top shape: 4 256 8 8 (65536)
I0730 22:35:59.850373 18600 net.cpp:165] Memory required for data: 2737307680
I0730 22:35:59.850373 18600 layer_factory.hpp:77] Creating layer conv10_1
I0730 22:35:59.850373 18600 net.cpp:100] Creating Layer conv10_1
I0730 22:35:59.850373 18600 net.cpp:434] conv10_1 <- conv9_2_conv9_2_relu_0_split_0
I0730 22:35:59.850373 18600 net.cpp:408] conv10_1 -> conv10_1
I0730 22:35:59.853365 18600 net.cpp:150] Setting up conv10_1
I0730 22:35:59.853365 18600 net.cpp:157] Top shape: 4 128 8 8 (32768)
I0730 22:35:59.853365 18600 net.cpp:165] Memory required for data: 2737438752
I0730 22:35:59.853365 18600 layer_factory.hpp:77] Creating layer conv10_1_relu
I0730 22:35:59.853365 18600 net.cpp:100] Creating Layer conv10_1_relu
I0730 22:35:59.853365 18600 net.cpp:434] conv10_1_relu <- conv10_1
I0730 22:35:59.853365 18600 net.cpp:395] conv10_1_relu -> conv10_1 (in-place)
I0730 22:35:59.854362 18600 net.cpp:150] Setting up conv10_1_relu
I0730 22:35:59.854362 18600 net.cpp:157] Top shape: 4 128 8 8 (32768)
I0730 22:35:59.854362 18600 net.cpp:165] Memory required for data: 2737569824
I0730 22:35:59.854362 18600 layer_factory.hpp:77] Creating layer conv10_2
I0730 22:35:59.854362 18600 net.cpp:100] Creating Layer conv10_2
I0730 22:35:59.854362 18600 net.cpp:434] conv10_2 <- conv10_1
I0730 22:35:59.854362 18600 net.cpp:408] conv10_2 -> conv10_2
I0730 22:35:59.859349 18600 net.cpp:150] Setting up conv10_2
I0730 22:35:59.859349 18600 net.cpp:157] Top shape: 4 256 4 4 (16384)
I0730 22:35:59.859349 18600 net.cpp:165] Memory required for data: 2737635360
I0730 22:35:59.859349 18600 layer_factory.hpp:77] Creating layer conv10_2_relu
I0730 22:35:59.859349 18600 net.cpp:100] Creating Layer conv10_2_relu
I0730 22:35:59.859349 18600 net.cpp:434] conv10_2_relu <- conv10_2
I0730 22:35:59.859349 18600 net.cpp:395] conv10_2_relu -> conv10_2 (in-place)
I0730 22:35:59.860347 18600 net.cpp:150] Setting up conv10_2_relu
I0730 22:35:59.860347 18600 net.cpp:157] Top shape: 4 256 4 4 (16384)
I0730 22:35:59.860347 18600 net.cpp:165] Memory required for data: 2737700896
I0730 22:35:59.860347 18600 layer_factory.hpp:77] Creating layer conv10_2_conv10_2_relu_0_split
I0730 22:35:59.860347 18600 net.cpp:100] Creating Layer conv10_2_conv10_2_relu_0_split
I0730 22:35:59.860347 18600 net.cpp:434] conv10_2_conv10_2_relu_0_split <- conv10_2
I0730 22:35:59.860347 18600 net.cpp:408] conv10_2_conv10_2_relu_0_split -> conv10_2_conv10_2_relu_0_split_0
I0730 22:35:59.860347 18600 net.cpp:408] conv10_2_conv10_2_relu_0_split -> conv10_2_conv10_2_relu_0_split_1
I0730 22:35:59.860347 18600 net.cpp:408] conv10_2_conv10_2_relu_0_split -> conv10_2_conv10_2_relu_0_split_2
I0730 22:35:59.860347 18600 net.cpp:408] conv10_2_conv10_2_relu_0_split -> conv10_2_conv10_2_relu_0_split_3
I0730 22:35:59.860347 18600 net.cpp:150] Setting up conv10_2_conv10_2_relu_0_split
I0730 22:35:59.860347 18600 net.cpp:157] Top shape: 4 256 4 4 (16384)
I0730 22:35:59.860347 18600 net.cpp:157] Top shape: 4 256 4 4 (16384)
I0730 22:35:59.860347 18600 net.cpp:157] Top shape: 4 256 4 4 (16384)
I0730 22:35:59.860347 18600 net.cpp:157] Top shape: 4 256 4 4 (16384)
I0730 22:35:59.860347 18600 net.cpp:165] Memory required for data: 2737963040
I0730 22:35:59.860347 18600 layer_factory.hpp:77] Creating layer conv11_1
I0730 22:35:59.860347 18600 net.cpp:100] Creating Layer conv11_1
I0730 22:35:59.860347 18600 net.cpp:434] conv11_1 <- conv10_2_conv10_2_relu_0_split_0
I0730 22:35:59.860347 18600 net.cpp:408] conv11_1 -> conv11_1
I0730 22:35:59.862341 18600 net.cpp:150] Setting up conv11_1
I0730 22:35:59.862341 18600 net.cpp:157] Top shape: 4 128 4 4 (8192)
I0730 22:35:59.862341 18600 net.cpp:165] Memory required for data: 2737995808
I0730 22:35:59.862341 18600 layer_factory.hpp:77] Creating layer conv11_1_relu
I0730 22:35:59.862341 18600 net.cpp:100] Creating Layer conv11_1_relu
I0730 22:35:59.862341 18600 net.cpp:434] conv11_1_relu <- conv11_1
I0730 22:35:59.862341 18600 net.cpp:395] conv11_1_relu -> conv11_1 (in-place)
I0730 22:35:59.863338 18600 net.cpp:150] Setting up conv11_1_relu
I0730 22:35:59.863338 18600 net.cpp:157] Top shape: 4 128 4 4 (8192)
I0730 22:35:59.863338 18600 net.cpp:165] Memory required for data: 2738028576
I0730 22:35:59.863338 18600 layer_factory.hpp:77] Creating layer conv11_2
I0730 22:35:59.863338 18600 net.cpp:100] Creating Layer conv11_2
I0730 22:35:59.863338 18600 net.cpp:434] conv11_2 <- conv11_1
I0730 22:35:59.863338 18600 net.cpp:408] conv11_2 -> conv11_2
I0730 22:35:59.868325 18600 net.cpp:150] Setting up conv11_2
I0730 22:35:59.868325 18600 net.cpp:157] Top shape: 4 256 2 2 (4096)
I0730 22:35:59.868325 18600 net.cpp:165] Memory required for data: 2738044960
I0730 22:35:59.868325 18600 layer_factory.hpp:77] Creating layer conv11_2_relu
I0730 22:35:59.868325 18600 net.cpp:100] Creating Layer conv11_2_relu
I0730 22:35:59.868325 18600 net.cpp:434] conv11_2_relu <- conv11_2
I0730 22:35:59.868325 18600 net.cpp:395] conv11_2_relu -> conv11_2 (in-place)
I0730 22:35:59.869323 18600 net.cpp:150] Setting up conv11_2_relu
I0730 22:35:59.869323 18600 net.cpp:157] Top shape: 4 256 2 2 (4096)
I0730 22:35:59.869323 18600 net.cpp:165] Memory required for data: 2738061344
I0730 22:35:59.869323 18600 layer_factory.hpp:77] Creating layer conv11_2_conv11_2_relu_0_split
I0730 22:35:59.869323 18600 net.cpp:100] Creating Layer conv11_2_conv11_2_relu_0_split
I0730 22:35:59.869323 18600 net.cpp:434] conv11_2_conv11_2_relu_0_split <- conv11_2
I0730 22:35:59.869323 18600 net.cpp:408] conv11_2_conv11_2_relu_0_split -> conv11_2_conv11_2_relu_0_split_0
I0730 22:35:59.869323 18600 net.cpp:408] conv11_2_conv11_2_relu_0_split -> conv11_2_conv11_2_relu_0_split_1
I0730 22:35:59.869323 18600 net.cpp:408] conv11_2_conv11_2_relu_0_split -> conv11_2_conv11_2_relu_0_split_2
I0730 22:35:59.869323 18600 net.cpp:408] conv11_2_conv11_2_relu_0_split -> conv11_2_conv11_2_relu_0_split_3
I0730 22:35:59.869323 18600 net.cpp:150] Setting up conv11_2_conv11_2_relu_0_split
I0730 22:35:59.869323 18600 net.cpp:157] Top shape: 4 256 2 2 (4096)
I0730 22:35:59.869323 18600 net.cpp:157] Top shape: 4 256 2 2 (4096)
I0730 22:35:59.869323 18600 net.cpp:157] Top shape: 4 256 2 2 (4096)
I0730 22:35:59.869323 18600 net.cpp:157] Top shape: 4 256 2 2 (4096)
I0730 22:35:59.869323 18600 net.cpp:165] Memory required for data: 2738126880
I0730 22:35:59.869323 18600 layer_factory.hpp:77] Creating layer conv12_1
I0730 22:35:59.869323 18600 net.cpp:100] Creating Layer conv12_1
I0730 22:35:59.869323 18600 net.cpp:434] conv12_1 <- conv11_2_conv11_2_relu_0_split_0
I0730 22:35:59.869323 18600 net.cpp:408] conv12_1 -> conv12_1
I0730 22:35:59.872314 18600 net.cpp:150] Setting up conv12_1
I0730 22:35:59.872314 18600 net.cpp:157] Top shape: 4 128 2 2 (2048)
I0730 22:35:59.872314 18600 net.cpp:165] Memory required for data: 2738135072
I0730 22:35:59.872314 18600 layer_factory.hpp:77] Creating layer conv12_1_relu
I0730 22:35:59.872314 18600 net.cpp:100] Creating Layer conv12_1_relu
I0730 22:35:59.872314 18600 net.cpp:434] conv12_1_relu <- conv12_1
I0730 22:35:59.872314 18600 net.cpp:395] conv12_1_relu -> conv12_1 (in-place)
I0730 22:35:59.873311 18600 net.cpp:150] Setting up conv12_1_relu
I0730 22:35:59.873311 18600 net.cpp:157] Top shape: 4 128 2 2 (2048)
I0730 22:35:59.873311 18600 net.cpp:165] Memory required for data: 2738143264
I0730 22:35:59.873311 18600 layer_factory.hpp:77] Creating layer conv12_2
I0730 22:35:59.873311 18600 net.cpp:100] Creating Layer conv12_2
I0730 22:35:59.873311 18600 net.cpp:434] conv12_2 <- conv12_1
I0730 22:35:59.873311 18600 net.cpp:408] conv12_2 -> conv12_2
I0730 22:35:59.879297 18600 net.cpp:150] Setting up conv12_2
I0730 22:35:59.879297 18600 net.cpp:157] Top shape: 4 256 1 1 (1024)
I0730 22:35:59.879297 18600 net.cpp:165] Memory required for data: 2738147360
I0730 22:35:59.879297 18600 layer_factory.hpp:77] Creating layer conv12_2_relu
I0730 22:35:59.879297 18600 net.cpp:100] Creating Layer conv12_2_relu
I0730 22:35:59.879297 18600 net.cpp:434] conv12_2_relu <- conv12_2
I0730 22:35:59.879297 18600 net.cpp:395] conv12_2_relu -> conv12_2 (in-place)
I0730 22:35:59.879297 18600 net.cpp:150] Setting up conv12_2_relu
I0730 22:35:59.880293 18600 net.cpp:157] Top shape: 4 256 1 1 (1024)
I0730 22:35:59.880293 18600 net.cpp:165] Memory required for data: 2738151456
I0730 22:35:59.880293 18600 layer_factory.hpp:77] Creating layer conv12_2_conv12_2_relu_0_split
I0730 22:35:59.880293 18600 net.cpp:100] Creating Layer conv12_2_conv12_2_relu_0_split
I0730 22:35:59.880293 18600 net.cpp:434] conv12_2_conv12_2_relu_0_split <- conv12_2
I0730 22:35:59.880293 18600 net.cpp:408] conv12_2_conv12_2_relu_0_split -> conv12_2_conv12_2_relu_0_split_0
I0730 22:35:59.880293 18600 net.cpp:408] conv12_2_conv12_2_relu_0_split -> conv12_2_conv12_2_relu_0_split_1
I0730 22:35:59.880293 18600 net.cpp:408] conv12_2_conv12_2_relu_0_split -> conv12_2_conv12_2_relu_0_split_2
I0730 22:35:59.880293 18600 net.cpp:150] Setting up conv12_2_conv12_2_relu_0_split
I0730 22:35:59.880293 18600 net.cpp:157] Top shape: 4 256 1 1 (1024)
I0730 22:35:59.880293 18600 net.cpp:157] Top shape: 4 256 1 1 (1024)
I0730 22:35:59.880293 18600 net.cpp:157] Top shape: 4 256 1 1 (1024)
I0730 22:35:59.880293 18600 net.cpp:165] Memory required for data: 2738163744
I0730 22:35:59.880293 18600 layer_factory.hpp:77] Creating layer conv4_3_norm
I0730 22:35:59.880293 18600 net.cpp:100] Creating Layer conv4_3_norm
I0730 22:35:59.880293 18600 net.cpp:434] conv4_3_norm <- conv4_3_relu4_3_0_split_1
I0730 22:35:59.880293 18600 net.cpp:408] conv4_3_norm -> conv4_3_norm
I0730 22:35:59.880293 18600 net.cpp:150] Setting up conv4_3_norm
I0730 22:35:59.880293 18600 net.cpp:157] Top shape: 4 512 64 64 (8388608)
I0730 22:35:59.880293 18600 net.cpp:165] Memory required for data: 2771718176
I0730 22:35:59.880293 18600 layer_factory.hpp:77] Creating layer conv4_3_norm_conv4_3_norm_0_split
I0730 22:35:59.880293 18600 net.cpp:100] Creating Layer conv4_3_norm_conv4_3_norm_0_split
I0730 22:35:59.880293 18600 net.cpp:434] conv4_3_norm_conv4_3_norm_0_split <- conv4_3_norm
I0730 22:35:59.880293 18600 net.cpp:408] conv4_3_norm_conv4_3_norm_0_split -> conv4_3_norm_conv4_3_norm_0_split_0
I0730 22:35:59.880293 18600 net.cpp:408] conv4_3_norm_conv4_3_norm_0_split -> conv4_3_norm_conv4_3_norm_0_split_1
I0730 22:35:59.880293 18600 net.cpp:408] conv4_3_norm_conv4_3_norm_0_split -> conv4_3_norm_conv4_3_norm_0_split_2
I0730 22:35:59.880293 18600 net.cpp:150] Setting up conv4_3_norm_conv4_3_norm_0_split
I0730 22:35:59.880293 18600 net.cpp:157] Top shape: 4 512 64 64 (8388608)
I0730 22:35:59.880293 18600 net.cpp:157] Top shape: 4 512 64 64 (8388608)
I0730 22:35:59.880293 18600 net.cpp:157] Top shape: 4 512 64 64 (8388608)
I0730 22:35:59.880293 18600 net.cpp:165] Memory required for data: 2872381472
I0730 22:35:59.880293 18600 layer_factory.hpp:77] Creating layer conv4_3_norm_mbox_loc
I0730 22:35:59.880293 18600 net.cpp:100] Creating Layer conv4_3_norm_mbox_loc
I0730 22:35:59.880293 18600 net.cpp:434] conv4_3_norm_mbox_loc <- conv4_3_norm_conv4_3_norm_0_split_0
I0730 22:35:59.880293 18600 net.cpp:408] conv4_3_norm_mbox_loc -> conv4_3_norm_mbox_loc
I0730 22:35:59.884284 18600 net.cpp:150] Setting up conv4_3_norm_mbox_loc
I0730 22:35:59.884284 18600 net.cpp:157] Top shape: 4 16 64 64 (262144)
I0730 22:35:59.884284 18600 net.cpp:165] Memory required for data: 2873430048
I0730 22:35:59.884284 18600 layer_factory.hpp:77] Creating layer conv4_3_norm_mbox_loc_perm
I0730 22:35:59.884284 18600 net.cpp:100] Creating Layer conv4_3_norm_mbox_loc_perm
I0730 22:35:59.884284 18600 net.cpp:434] conv4_3_norm_mbox_loc_perm <- conv4_3_norm_mbox_loc
I0730 22:35:59.884284 18600 net.cpp:408] conv4_3_norm_mbox_loc_perm -> conv4_3_norm_mbox_loc_perm
I0730 22:35:59.884284 18600 net.cpp:150] Setting up conv4_3_norm_mbox_loc_perm
I0730 22:35:59.884284 18600 net.cpp:157] Top shape: 4 64 64 16 (262144)
I0730 22:35:59.884284 18600 net.cpp:165] Memory required for data: 2874478624
I0730 22:35:59.884284 18600 layer_factory.hpp:77] Creating layer conv4_3_norm_mbox_loc_flat
I0730 22:35:59.884284 18600 net.cpp:100] Creating Layer conv4_3_norm_mbox_loc_flat
I0730 22:35:59.884284 18600 net.cpp:434] conv4_3_norm_mbox_loc_flat <- conv4_3_norm_mbox_loc_perm
I0730 22:35:59.884284 18600 net.cpp:408] conv4_3_norm_mbox_loc_flat -> conv4_3_norm_mbox_loc_flat
I0730 22:35:59.884284 18600 net.cpp:150] Setting up conv4_3_norm_mbox_loc_flat
I0730 22:35:59.884284 18600 net.cpp:157] Top shape: 4 65536 (262144)
I0730 22:35:59.885280 18600 net.cpp:165] Memory required for data: 2875527200
I0730 22:35:59.885280 18600 layer_factory.hpp:77] Creating layer conv4_3_norm_mbox_conf
I0730 22:35:59.885280 18600 net.cpp:100] Creating Layer conv4_3_norm_mbox_conf
I0730 22:35:59.885280 18600 net.cpp:434] conv4_3_norm_mbox_conf <- conv4_3_norm_conv4_3_norm_0_split_1
I0730 22:35:59.885280 18600 net.cpp:408] conv4_3_norm_mbox_conf -> conv4_3_norm_mbox_conf
I0730 22:35:59.888273 18600 net.cpp:150] Setting up conv4_3_norm_mbox_conf
I0730 22:35:59.888273 18600 net.cpp:157] Top shape: 4 12 64 64 (196608)
I0730 22:35:59.888273 18600 net.cpp:165] Memory required for data: 2876313632
I0730 22:35:59.888273 18600 layer_factory.hpp:77] Creating layer conv4_3_norm_mbox_conf_perm
I0730 22:35:59.889269 18600 net.cpp:100] Creating Layer conv4_3_norm_mbox_conf_perm
I0730 22:35:59.889269 18600 net.cpp:434] conv4_3_norm_mbox_conf_perm <- conv4_3_norm_mbox_conf
I0730 22:35:59.889269 18600 net.cpp:408] conv4_3_norm_mbox_conf_perm -> conv4_3_norm_mbox_conf_perm
I0730 22:35:59.889269 18600 net.cpp:150] Setting up conv4_3_norm_mbox_conf_perm
I0730 22:35:59.889269 18600 net.cpp:157] Top shape: 4 64 64 12 (196608)
I0730 22:35:59.889269 18600 net.cpp:165] Memory required for data: 2877100064
I0730 22:35:59.889269 18600 layer_factory.hpp:77] Creating layer conv4_3_norm_mbox_conf_flat
I0730 22:35:59.889269 18600 net.cpp:100] Creating Layer conv4_3_norm_mbox_conf_flat
I0730 22:35:59.889269 18600 net.cpp:434] conv4_3_norm_mbox_conf_flat <- conv4_3_norm_mbox_conf_perm
I0730 22:35:59.889269 18600 net.cpp:408] conv4_3_norm_mbox_conf_flat -> conv4_3_norm_mbox_conf_flat
I0730 22:35:59.889269 18600 net.cpp:150] Setting up conv4_3_norm_mbox_conf_flat
I0730 22:35:59.889269 18600 net.cpp:157] Top shape: 4 49152 (196608)
I0730 22:35:59.889269 18600 net.cpp:165] Memory required for data: 2877886496
I0730 22:35:59.889269 18600 layer_factory.hpp:77] Creating layer conv4_3_norm_mbox_priorbox
I0730 22:35:59.889269 18600 net.cpp:100] Creating Layer conv4_3_norm_mbox_priorbox
I0730 22:35:59.889269 18600 net.cpp:434] conv4_3_norm_mbox_priorbox <- conv4_3_norm_conv4_3_norm_0_split_2
I0730 22:35:59.889269 18600 net.cpp:434] conv4_3_norm_mbox_priorbox <- data_data_0_split_1
I0730 22:35:59.889269 18600 net.cpp:408] conv4_3_norm_mbox_priorbox -> conv4_3_norm_mbox_priorbox
I0730 22:35:59.889269 18600 net.cpp:150] Setting up conv4_3_norm_mbox_priorbox
I0730 22:35:59.889269 18600 net.cpp:157] Top shape: 1 2 65536 (131072)
I0730 22:35:59.889269 18600 net.cpp:165] Memory required for data: 2878410784
I0730 22:35:59.889269 18600 layer_factory.hpp:77] Creating layer fc7_mbox_loc
I0730 22:35:59.889269 18600 net.cpp:100] Creating Layer fc7_mbox_loc
I0730 22:35:59.889269 18600 net.cpp:434] fc7_mbox_loc <- fc7_relu7_0_split_1
I0730 22:35:59.889269 18600 net.cpp:408] fc7_mbox_loc -> fc7_mbox_loc
I0730 22:35:59.894256 18600 net.cpp:150] Setting up fc7_mbox_loc
I0730 22:35:59.894256 18600 net.cpp:157] Top shape: 4 24 32 32 (98304)
I0730 22:35:59.894256 18600 net.cpp:165] Memory required for data: 2878804000
I0730 22:35:59.894256 18600 layer_factory.hpp:77] Creating layer fc7_mbox_loc_perm
I0730 22:35:59.894256 18600 net.cpp:100] Creating Layer fc7_mbox_loc_perm
I0730 22:35:59.894256 18600 net.cpp:434] fc7_mbox_loc_perm <- fc7_mbox_loc
I0730 22:35:59.894256 18600 net.cpp:408] fc7_mbox_loc_perm -> fc7_mbox_loc_perm
I0730 22:35:59.894256 18600 net.cpp:150] Setting up fc7_mbox_loc_perm
I0730 22:35:59.894256 18600 net.cpp:157] Top shape: 4 32 32 24 (98304)
I0730 22:35:59.894256 18600 net.cpp:165] Memory required for data: 2879197216
I0730 22:35:59.894256 18600 layer_factory.hpp:77] Creating layer fc7_mbox_loc_flat
I0730 22:35:59.894256 18600 net.cpp:100] Creating Layer fc7_mbox_loc_flat
I0730 22:35:59.894256 18600 net.cpp:434] fc7_mbox_loc_flat <- fc7_mbox_loc_perm
I0730 22:35:59.894256 18600 net.cpp:408] fc7_mbox_loc_flat -> fc7_mbox_loc_flat
I0730 22:35:59.894256 18600 net.cpp:150] Setting up fc7_mbox_loc_flat
I0730 22:35:59.894256 18600 net.cpp:157] Top shape: 4 24576 (98304)
I0730 22:35:59.894256 18600 net.cpp:165] Memory required for data: 2879590432
I0730 22:35:59.894256 18600 layer_factory.hpp:77] Creating layer fc7_mbox_conf
I0730 22:35:59.894256 18600 net.cpp:100] Creating Layer fc7_mbox_conf
I0730 22:35:59.894256 18600 net.cpp:434] fc7_mbox_conf <- fc7_relu7_0_split_2
I0730 22:35:59.894256 18600 net.cpp:408] fc7_mbox_conf -> fc7_mbox_conf
I0730 22:35:59.897248 18600 net.cpp:150] Setting up fc7_mbox_conf
I0730 22:35:59.898245 18600 net.cpp:157] Top shape: 4 18 32 32 (73728)
I0730 22:35:59.898245 18600 net.cpp:165] Memory required for data: 2879885344
I0730 22:35:59.898245 18600 layer_factory.hpp:77] Creating layer fc7_mbox_conf_perm
I0730 22:35:59.898245 18600 net.cpp:100] Creating Layer fc7_mbox_conf_perm
I0730 22:35:59.898245 18600 net.cpp:434] fc7_mbox_conf_perm <- fc7_mbox_conf
I0730 22:35:59.898245 18600 net.cpp:408] fc7_mbox_conf_perm -> fc7_mbox_conf_perm
I0730 22:35:59.898245 18600 net.cpp:150] Setting up fc7_mbox_conf_perm
I0730 22:35:59.898245 18600 net.cpp:157] Top shape: 4 32 32 18 (73728)
I0730 22:35:59.898245 18600 net.cpp:165] Memory required for data: 2880180256
I0730 22:35:59.898245 18600 layer_factory.hpp:77] Creating layer fc7_mbox_conf_flat
I0730 22:35:59.898245 18600 net.cpp:100] Creating Layer fc7_mbox_conf_flat
I0730 22:35:59.898245 18600 net.cpp:434] fc7_mbox_conf_flat <- fc7_mbox_conf_perm
I0730 22:35:59.898245 18600 net.cpp:408] fc7_mbox_conf_flat -> fc7_mbox_conf_flat
I0730 22:35:59.898245 18600 net.cpp:150] Setting up fc7_mbox_conf_flat
I0730 22:35:59.898245 18600 net.cpp:157] Top shape: 4 18432 (73728)
I0730 22:35:59.898245 18600 net.cpp:165] Memory required for data: 2880475168
I0730 22:35:59.898245 18600 layer_factory.hpp:77] Creating layer fc7_mbox_priorbox
I0730 22:35:59.898245 18600 net.cpp:100] Creating Layer fc7_mbox_priorbox
I0730 22:35:59.898245 18600 net.cpp:434] fc7_mbox_priorbox <- fc7_relu7_0_split_3
I0730 22:35:59.898245 18600 net.cpp:434] fc7_mbox_priorbox <- data_data_0_split_2
I0730 22:35:59.898245 18600 net.cpp:408] fc7_mbox_priorbox -> fc7_mbox_priorbox
I0730 22:35:59.898245 18600 net.cpp:150] Setting up fc7_mbox_priorbox
I0730 22:35:59.898245 18600 net.cpp:157] Top shape: 1 2 24576 (49152)
I0730 22:35:59.898245 18600 net.cpp:165] Memory required for data: 2880671776
I0730 22:35:59.898245 18600 layer_factory.hpp:77] Creating layer conv8_2_mbox_loc
I0730 22:35:59.898245 18600 net.cpp:100] Creating Layer conv8_2_mbox_loc
I0730 22:35:59.898245 18600 net.cpp:434] conv8_2_mbox_loc <- conv8_2_conv8_2_relu_0_split_1
I0730 22:35:59.898245 18600 net.cpp:408] conv8_2_mbox_loc -> conv8_2_mbox_loc
I0730 22:35:59.903231 18600 net.cpp:150] Setting up conv8_2_mbox_loc
I0730 22:35:59.903231 18600 net.cpp:157] Top shape: 4 24 16 16 (24576)
I0730 22:35:59.903231 18600 net.cpp:165] Memory required for data: 2880770080
I0730 22:35:59.903231 18600 layer_factory.hpp:77] Creating layer conv8_2_mbox_loc_perm
I0730 22:35:59.903231 18600 net.cpp:100] Creating Layer conv8_2_mbox_loc_perm
I0730 22:35:59.903231 18600 net.cpp:434] conv8_2_mbox_loc_perm <- conv8_2_mbox_loc
I0730 22:35:59.903231 18600 net.cpp:408] conv8_2_mbox_loc_perm -> conv8_2_mbox_loc_perm
I0730 22:35:59.903231 18600 net.cpp:150] Setting up conv8_2_mbox_loc_perm
I0730 22:35:59.903231 18600 net.cpp:157] Top shape: 4 16 16 24 (24576)
I0730 22:35:59.903231 18600 net.cpp:165] Memory required for data: 2880868384
I0730 22:35:59.903231 18600 layer_factory.hpp:77] Creating layer conv8_2_mbox_loc_flat
I0730 22:35:59.903231 18600 net.cpp:100] Creating Layer conv8_2_mbox_loc_flat
I0730 22:35:59.903231 18600 net.cpp:434] conv8_2_mbox_loc_flat <- conv8_2_mbox_loc_perm
I0730 22:35:59.903231 18600 net.cpp:408] conv8_2_mbox_loc_flat -> conv8_2_mbox_loc_flat
I0730 22:35:59.903231 18600 net.cpp:150] Setting up conv8_2_mbox_loc_flat
I0730 22:35:59.903231 18600 net.cpp:157] Top shape: 4 6144 (24576)
I0730 22:35:59.903231 18600 net.cpp:165] Memory required for data: 2880966688
I0730 22:35:59.903231 18600 layer_factory.hpp:77] Creating layer conv8_2_mbox_conf
I0730 22:35:59.903231 18600 net.cpp:100] Creating Layer conv8_2_mbox_conf
I0730 22:35:59.903231 18600 net.cpp:434] conv8_2_mbox_conf <- conv8_2_conv8_2_relu_0_split_2
I0730 22:35:59.903231 18600 net.cpp:408] conv8_2_mbox_conf -> conv8_2_mbox_conf
I0730 22:35:59.907222 18600 net.cpp:150] Setting up conv8_2_mbox_conf
I0730 22:35:59.907222 18600 net.cpp:157] Top shape: 4 18 16 16 (18432)
I0730 22:35:59.907222 18600 net.cpp:165] Memory required for data: 2881040416
I0730 22:35:59.907222 18600 layer_factory.hpp:77] Creating layer conv8_2_mbox_conf_perm
I0730 22:35:59.907222 18600 net.cpp:100] Creating Layer conv8_2_mbox_conf_perm
I0730 22:35:59.907222 18600 net.cpp:434] conv8_2_mbox_conf_perm <- conv8_2_mbox_conf
I0730 22:35:59.907222 18600 net.cpp:408] conv8_2_mbox_conf_perm -> conv8_2_mbox_conf_perm
I0730 22:35:59.907222 18600 net.cpp:150] Setting up conv8_2_mbox_conf_perm
I0730 22:35:59.907222 18600 net.cpp:157] Top shape: 4 16 16 18 (18432)
I0730 22:35:59.907222 18600 net.cpp:165] Memory required for data: 2881114144
I0730 22:35:59.907222 18600 layer_factory.hpp:77] Creating layer conv8_2_mbox_conf_flat
I0730 22:35:59.907222 18600 net.cpp:100] Creating Layer conv8_2_mbox_conf_flat
I0730 22:35:59.907222 18600 net.cpp:434] conv8_2_mbox_conf_flat <- conv8_2_mbox_conf_perm
I0730 22:35:59.907222 18600 net.cpp:408] conv8_2_mbox_conf_flat -> conv8_2_mbox_conf_flat
I0730 22:35:59.907222 18600 net.cpp:150] Setting up conv8_2_mbox_conf_flat
I0730 22:35:59.907222 18600 net.cpp:157] Top shape: 4 4608 (18432)
I0730 22:35:59.907222 18600 net.cpp:165] Memory required for data: 2881187872
I0730 22:35:59.907222 18600 layer_factory.hpp:77] Creating layer conv8_2_mbox_priorbox
I0730 22:35:59.907222 18600 net.cpp:100] Creating Layer conv8_2_mbox_priorbox
I0730 22:35:59.907222 18600 net.cpp:434] conv8_2_mbox_priorbox <- conv8_2_conv8_2_relu_0_split_3
I0730 22:35:59.907222 18600 net.cpp:434] conv8_2_mbox_priorbox <- data_data_0_split_3
I0730 22:35:59.907222 18600 net.cpp:408] conv8_2_mbox_priorbox -> conv8_2_mbox_priorbox
I0730 22:35:59.907222 18600 net.cpp:150] Setting up conv8_2_mbox_priorbox
I0730 22:35:59.907222 18600 net.cpp:157] Top shape: 1 2 6144 (12288)
I0730 22:35:59.907222 18600 net.cpp:165] Memory required for data: 2881237024
I0730 22:35:59.907222 18600 layer_factory.hpp:77] Creating layer conv9_2_mbox_loc
I0730 22:35:59.907222 18600 net.cpp:100] Creating Layer conv9_2_mbox_loc
I0730 22:35:59.907222 18600 net.cpp:434] conv9_2_mbox_loc <- conv9_2_conv9_2_relu_0_split_1
I0730 22:35:59.907222 18600 net.cpp:408] conv9_2_mbox_loc -> conv9_2_mbox_loc
I0730 22:35:59.910213 18600 net.cpp:150] Setting up conv9_2_mbox_loc
I0730 22:35:59.910213 18600 net.cpp:157] Top shape: 4 24 8 8 (6144)
I0730 22:35:59.910213 18600 net.cpp:165] Memory required for data: 2881261600
I0730 22:35:59.910213 18600 layer_factory.hpp:77] Creating layer conv9_2_mbox_loc_perm
I0730 22:35:59.910213 18600 net.cpp:100] Creating Layer conv9_2_mbox_loc_perm
I0730 22:35:59.910213 18600 net.cpp:434] conv9_2_mbox_loc_perm <- conv9_2_mbox_loc
I0730 22:35:59.910213 18600 net.cpp:408] conv9_2_mbox_loc_perm -> conv9_2_mbox_loc_perm
I0730 22:35:59.910213 18600 net.cpp:150] Setting up conv9_2_mbox_loc_perm
I0730 22:35:59.910213 18600 net.cpp:157] Top shape: 4 8 8 24 (6144)
I0730 22:35:59.910213 18600 net.cpp:165] Memory required for data: 2881286176
I0730 22:35:59.910213 18600 layer_factory.hpp:77] Creating layer conv9_2_mbox_loc_flat
I0730 22:35:59.910213 18600 net.cpp:100] Creating Layer conv9_2_mbox_loc_flat
I0730 22:35:59.910213 18600 net.cpp:434] conv9_2_mbox_loc_flat <- conv9_2_mbox_loc_perm
I0730 22:35:59.910213 18600 net.cpp:408] conv9_2_mbox_loc_flat -> conv9_2_mbox_loc_flat
I0730 22:35:59.910213 18600 net.cpp:150] Setting up conv9_2_mbox_loc_flat
I0730 22:35:59.910213 18600 net.cpp:157] Top shape: 4 1536 (6144)
I0730 22:35:59.910213 18600 net.cpp:165] Memory required for data: 2881310752
I0730 22:35:59.910213 18600 layer_factory.hpp:77] Creating layer conv9_2_mbox_conf
I0730 22:35:59.910213 18600 net.cpp:100] Creating Layer conv9_2_mbox_conf
I0730 22:35:59.910213 18600 net.cpp:434] conv9_2_mbox_conf <- conv9_2_conv9_2_relu_0_split_2
I0730 22:35:59.910213 18600 net.cpp:408] conv9_2_mbox_conf -> conv9_2_mbox_conf
I0730 22:35:59.913205 18600 net.cpp:150] Setting up conv9_2_mbox_conf
I0730 22:35:59.913205 18600 net.cpp:157] Top shape: 4 18 8 8 (4608)
I0730 22:35:59.913205 18600 net.cpp:165] Memory required for data: 2881329184
I0730 22:35:59.913205 18600 layer_factory.hpp:77] Creating layer conv9_2_mbox_conf_perm
I0730 22:35:59.913205 18600 net.cpp:100] Creating Layer conv9_2_mbox_conf_perm
I0730 22:35:59.913205 18600 net.cpp:434] conv9_2_mbox_conf_perm <- conv9_2_mbox_conf
I0730 22:35:59.913205 18600 net.cpp:408] conv9_2_mbox_conf_perm -> conv9_2_mbox_conf_perm
I0730 22:35:59.913205 18600 net.cpp:150] Setting up conv9_2_mbox_conf_perm
I0730 22:35:59.913205 18600 net.cpp:157] Top shape: 4 8 8 18 (4608)
I0730 22:35:59.913205 18600 net.cpp:165] Memory required for data: 2881347616
I0730 22:35:59.913205 18600 layer_factory.hpp:77] Creating layer conv9_2_mbox_conf_flat
I0730 22:35:59.913205 18600 net.cpp:100] Creating Layer conv9_2_mbox_conf_flat
I0730 22:35:59.913205 18600 net.cpp:434] conv9_2_mbox_conf_flat <- conv9_2_mbox_conf_perm
I0730 22:35:59.913205 18600 net.cpp:408] conv9_2_mbox_conf_flat -> conv9_2_mbox_conf_flat
I0730 22:35:59.913205 18600 net.cpp:150] Setting up conv9_2_mbox_conf_flat
I0730 22:35:59.913205 18600 net.cpp:157] Top shape: 4 1152 (4608)
I0730 22:35:59.913205 18600 net.cpp:165] Memory required for data: 2881366048
I0730 22:35:59.913205 18600 layer_factory.hpp:77] Creating layer conv9_2_mbox_priorbox
I0730 22:35:59.913205 18600 net.cpp:100] Creating Layer conv9_2_mbox_priorbox
I0730 22:35:59.913205 18600 net.cpp:434] conv9_2_mbox_priorbox <- conv9_2_conv9_2_relu_0_split_3
I0730 22:35:59.913205 18600 net.cpp:434] conv9_2_mbox_priorbox <- data_data_0_split_4
I0730 22:35:59.913205 18600 net.cpp:408] conv9_2_mbox_priorbox -> conv9_2_mbox_priorbox
I0730 22:35:59.913205 18600 net.cpp:150] Setting up conv9_2_mbox_priorbox
I0730 22:35:59.913205 18600 net.cpp:157] Top shape: 1 2 1536 (3072)
I0730 22:35:59.913205 18600 net.cpp:165] Memory required for data: 2881378336
I0730 22:35:59.913205 18600 layer_factory.hpp:77] Creating layer conv10_2_mbox_loc
I0730 22:35:59.913205 18600 net.cpp:100] Creating Layer conv10_2_mbox_loc
I0730 22:35:59.913205 18600 net.cpp:434] conv10_2_mbox_loc <- conv10_2_conv10_2_relu_0_split_1
I0730 22:35:59.913205 18600 net.cpp:408] conv10_2_mbox_loc -> conv10_2_mbox_loc
I0730 22:35:59.916198 18600 net.cpp:150] Setting up conv10_2_mbox_loc
I0730 22:35:59.916198 18600 net.cpp:157] Top shape: 4 24 4 4 (1536)
I0730 22:35:59.916198 18600 net.cpp:165] Memory required for data: 2881384480
I0730 22:35:59.916198 18600 layer_factory.hpp:77] Creating layer conv10_2_mbox_loc_perm
I0730 22:35:59.916198 18600 net.cpp:100] Creating Layer conv10_2_mbox_loc_perm
I0730 22:35:59.916198 18600 net.cpp:434] conv10_2_mbox_loc_perm <- conv10_2_mbox_loc
I0730 22:35:59.916198 18600 net.cpp:408] conv10_2_mbox_loc_perm -> conv10_2_mbox_loc_perm
I0730 22:35:59.916198 18600 net.cpp:150] Setting up conv10_2_mbox_loc_perm
I0730 22:35:59.916198 18600 net.cpp:157] Top shape: 4 4 4 24 (1536)
I0730 22:35:59.916198 18600 net.cpp:165] Memory required for data: 2881390624
I0730 22:35:59.916198 18600 layer_factory.hpp:77] Creating layer conv10_2_mbox_loc_flat
I0730 22:35:59.916198 18600 net.cpp:100] Creating Layer conv10_2_mbox_loc_flat
I0730 22:35:59.916198 18600 net.cpp:434] conv10_2_mbox_loc_flat <- conv10_2_mbox_loc_perm
I0730 22:35:59.916198 18600 net.cpp:408] conv10_2_mbox_loc_flat -> conv10_2_mbox_loc_flat
I0730 22:35:59.916198 18600 net.cpp:150] Setting up conv10_2_mbox_loc_flat
I0730 22:35:59.916198 18600 net.cpp:157] Top shape: 4 384 (1536)
I0730 22:35:59.916198 18600 net.cpp:165] Memory required for data: 2881396768
I0730 22:35:59.916198 18600 layer_factory.hpp:77] Creating layer conv10_2_mbox_conf
I0730 22:35:59.916198 18600 net.cpp:100] Creating Layer conv10_2_mbox_conf
I0730 22:35:59.916198 18600 net.cpp:434] conv10_2_mbox_conf <- conv10_2_conv10_2_relu_0_split_2
I0730 22:35:59.916198 18600 net.cpp:408] conv10_2_mbox_conf -> conv10_2_mbox_conf
I0730 22:35:59.920186 18600 net.cpp:150] Setting up conv10_2_mbox_conf
I0730 22:35:59.920186 18600 net.cpp:157] Top shape: 4 18 4 4 (1152)
I0730 22:35:59.920186 18600 net.cpp:165] Memory required for data: 2881401376
I0730 22:35:59.920186 18600 layer_factory.hpp:77] Creating layer conv10_2_mbox_conf_perm
I0730 22:35:59.920186 18600 net.cpp:100] Creating Layer conv10_2_mbox_conf_perm
I0730 22:35:59.920186 18600 net.cpp:434] conv10_2_mbox_conf_perm <- conv10_2_mbox_conf
I0730 22:35:59.920186 18600 net.cpp:408] conv10_2_mbox_conf_perm -> conv10_2_mbox_conf_perm
I0730 22:35:59.920186 18600 net.cpp:150] Setting up conv10_2_mbox_conf_perm
I0730 22:35:59.920186 18600 net.cpp:157] Top shape: 4 4 4 18 (1152)
I0730 22:35:59.920186 18600 net.cpp:165] Memory required for data: 2881405984
I0730 22:35:59.920186 18600 layer_factory.hpp:77] Creating layer conv10_2_mbox_conf_flat
I0730 22:35:59.920186 18600 net.cpp:100] Creating Layer conv10_2_mbox_conf_flat
I0730 22:35:59.920186 18600 net.cpp:434] conv10_2_mbox_conf_flat <- conv10_2_mbox_conf_perm
I0730 22:35:59.920186 18600 net.cpp:408] conv10_2_mbox_conf_flat -> conv10_2_mbox_conf_flat
I0730 22:35:59.920186 18600 net.cpp:150] Setting up conv10_2_mbox_conf_flat
I0730 22:35:59.920186 18600 net.cpp:157] Top shape: 4 288 (1152)
I0730 22:35:59.920186 18600 net.cpp:165] Memory required for data: 2881410592
I0730 22:35:59.920186 18600 layer_factory.hpp:77] Creating layer conv10_2_mbox_priorbox
I0730 22:35:59.920186 18600 net.cpp:100] Creating Layer conv10_2_mbox_priorbox
I0730 22:35:59.920186 18600 net.cpp:434] conv10_2_mbox_priorbox <- conv10_2_conv10_2_relu_0_split_3
I0730 22:35:59.920186 18600 net.cpp:434] conv10_2_mbox_priorbox <- data_data_0_split_5
I0730 22:35:59.920186 18600 net.cpp:408] conv10_2_mbox_priorbox -> conv10_2_mbox_priorbox
I0730 22:35:59.920186 18600 net.cpp:150] Setting up conv10_2_mbox_priorbox
I0730 22:35:59.920186 18600 net.cpp:157] Top shape: 1 2 384 (768)
I0730 22:35:59.920186 18600 net.cpp:165] Memory required for data: 2881413664
I0730 22:35:59.920186 18600 layer_factory.hpp:77] Creating layer conv11_2_mbox_loc
I0730 22:35:59.920186 18600 net.cpp:100] Creating Layer conv11_2_mbox_loc
I0730 22:35:59.920186 18600 net.cpp:434] conv11_2_mbox_loc <- conv11_2_conv11_2_relu_0_split_1
I0730 22:35:59.920186 18600 net.cpp:408] conv11_2_mbox_loc -> conv11_2_mbox_loc
I0730 22:35:59.924176 18600 net.cpp:150] Setting up conv11_2_mbox_loc
I0730 22:35:59.925173 18600 net.cpp:157] Top shape: 4 16 2 2 (256)
I0730 22:35:59.925173 18600 net.cpp:165] Memory required for data: 2881414688
I0730 22:35:59.925173 18600 layer_factory.hpp:77] Creating layer conv11_2_mbox_loc_perm
I0730 22:35:59.925173 18600 net.cpp:100] Creating Layer conv11_2_mbox_loc_perm
I0730 22:35:59.925173 18600 net.cpp:434] conv11_2_mbox_loc_perm <- conv11_2_mbox_loc
I0730 22:35:59.925173 18600 net.cpp:408] conv11_2_mbox_loc_perm -> conv11_2_mbox_loc_perm
I0730 22:35:59.925173 18600 net.cpp:150] Setting up conv11_2_mbox_loc_perm
I0730 22:35:59.925173 18600 net.cpp:157] Top shape: 4 2 2 16 (256)
I0730 22:35:59.925173 18600 net.cpp:165] Memory required for data: 2881415712
I0730 22:35:59.925173 18600 layer_factory.hpp:77] Creating layer conv11_2_mbox_loc_flat
I0730 22:35:59.925173 18600 net.cpp:100] Creating Layer conv11_2_mbox_loc_flat
I0730 22:35:59.925173 18600 net.cpp:434] conv11_2_mbox_loc_flat <- conv11_2_mbox_loc_perm
I0730 22:35:59.925173 18600 net.cpp:408] conv11_2_mbox_loc_flat -> conv11_2_mbox_loc_flat
I0730 22:35:59.925173 18600 net.cpp:150] Setting up conv11_2_mbox_loc_flat
I0730 22:35:59.925173 18600 net.cpp:157] Top shape: 4 64 (256)
I0730 22:35:59.925173 18600 net.cpp:165] Memory required for data: 2881416736
I0730 22:35:59.925173 18600 layer_factory.hpp:77] Creating layer conv11_2_mbox_conf
I0730 22:35:59.925173 18600 net.cpp:100] Creating Layer conv11_2_mbox_conf
I0730 22:35:59.925173 18600 net.cpp:434] conv11_2_mbox_conf <- conv11_2_conv11_2_relu_0_split_2
I0730 22:35:59.925173 18600 net.cpp:408] conv11_2_mbox_conf -> conv11_2_mbox_conf
I0730 22:35:59.927168 18600 net.cpp:150] Setting up conv11_2_mbox_conf
I0730 22:35:59.927168 18600 net.cpp:157] Top shape: 4 12 2 2 (192)
I0730 22:35:59.927168 18600 net.cpp:165] Memory required for data: 2881417504
I0730 22:35:59.927168 18600 layer_factory.hpp:77] Creating layer conv11_2_mbox_conf_perm
I0730 22:35:59.927168 18600 net.cpp:100] Creating Layer conv11_2_mbox_conf_perm
I0730 22:35:59.927168 18600 net.cpp:434] conv11_2_mbox_conf_perm <- conv11_2_mbox_conf
I0730 22:35:59.927168 18600 net.cpp:408] conv11_2_mbox_conf_perm -> conv11_2_mbox_conf_perm
I0730 22:35:59.927168 18600 net.cpp:150] Setting up conv11_2_mbox_conf_perm
I0730 22:35:59.927168 18600 net.cpp:157] Top shape: 4 2 2 12 (192)
I0730 22:35:59.927168 18600 net.cpp:165] Memory required for data: 2881418272
I0730 22:35:59.927168 18600 layer_factory.hpp:77] Creating layer conv11_2_mbox_conf_flat
I0730 22:35:59.927168 18600 net.cpp:100] Creating Layer conv11_2_mbox_conf_flat
I0730 22:35:59.928165 18600 net.cpp:434] conv11_2_mbox_conf_flat <- conv11_2_mbox_conf_perm
I0730 22:35:59.928165 18600 net.cpp:408] conv11_2_mbox_conf_flat -> conv11_2_mbox_conf_flat
I0730 22:35:59.928165 18600 net.cpp:150] Setting up conv11_2_mbox_conf_flat
I0730 22:35:59.928165 18600 net.cpp:157] Top shape: 4 48 (192)
I0730 22:35:59.928165 18600 net.cpp:165] Memory required for data: 2881419040
I0730 22:35:59.928165 18600 layer_factory.hpp:77] Creating layer conv11_2_mbox_priorbox
I0730 22:35:59.928165 18600 net.cpp:100] Creating Layer conv11_2_mbox_priorbox
I0730 22:35:59.928165 18600 net.cpp:434] conv11_2_mbox_priorbox <- conv11_2_conv11_2_relu_0_split_3
I0730 22:35:59.928165 18600 net.cpp:434] conv11_2_mbox_priorbox <- data_data_0_split_6
I0730 22:35:59.928165 18600 net.cpp:408] conv11_2_mbox_priorbox -> conv11_2_mbox_priorbox
I0730 22:35:59.928165 18600 net.cpp:150] Setting up conv11_2_mbox_priorbox
I0730 22:35:59.928165 18600 net.cpp:157] Top shape: 1 2 64 (128)
I0730 22:35:59.928165 18600 net.cpp:165] Memory required for data: 2881419552
I0730 22:35:59.928165 18600 layer_factory.hpp:77] Creating layer conv12_2_mbox_loc
I0730 22:35:59.928165 18600 net.cpp:100] Creating Layer conv12_2_mbox_loc
I0730 22:35:59.928165 18600 net.cpp:434] conv12_2_mbox_loc <- conv12_2_conv12_2_relu_0_split_0
I0730 22:35:59.928165 18600 net.cpp:408] conv12_2_mbox_loc -> conv12_2_mbox_loc
I0730 22:35:59.930160 18600 net.cpp:150] Setting up conv12_2_mbox_loc
I0730 22:35:59.930160 18600 net.cpp:157] Top shape: 4 16 1 1 (64)
I0730 22:35:59.930160 18600 net.cpp:165] Memory required for data: 2881419808
I0730 22:35:59.930160 18600 layer_factory.hpp:77] Creating layer conv12_2_mbox_loc_perm
I0730 22:35:59.930160 18600 net.cpp:100] Creating Layer conv12_2_mbox_loc_perm
I0730 22:35:59.930160 18600 net.cpp:434] conv12_2_mbox_loc_perm <- conv12_2_mbox_loc
I0730 22:35:59.930160 18600 net.cpp:408] conv12_2_mbox_loc_perm -> conv12_2_mbox_loc_perm
I0730 22:35:59.930160 18600 net.cpp:150] Setting up conv12_2_mbox_loc_perm
I0730 22:35:59.930160 18600 net.cpp:157] Top shape: 4 1 1 16 (64)
I0730 22:35:59.930160 18600 net.cpp:165] Memory required for data: 2881420064
I0730 22:35:59.930160 18600 layer_factory.hpp:77] Creating layer conv12_2_mbox_loc_flat
I0730 22:35:59.930160 18600 net.cpp:100] Creating Layer conv12_2_mbox_loc_flat
I0730 22:35:59.930160 18600 net.cpp:434] conv12_2_mbox_loc_flat <- conv12_2_mbox_loc_perm
I0730 22:35:59.930160 18600 net.cpp:408] conv12_2_mbox_loc_flat -> conv12_2_mbox_loc_flat
I0730 22:35:59.930160 18600 net.cpp:150] Setting up conv12_2_mbox_loc_flat
I0730 22:35:59.930160 18600 net.cpp:157] Top shape: 4 16 (64)
I0730 22:35:59.930160 18600 net.cpp:165] Memory required for data: 2881420320
I0730 22:35:59.930160 18600 layer_factory.hpp:77] Creating layer conv12_2_mbox_conf
I0730 22:35:59.930160 18600 net.cpp:100] Creating Layer conv12_2_mbox_conf
I0730 22:35:59.930160 18600 net.cpp:434] conv12_2_mbox_conf <- conv12_2_conv12_2_relu_0_split_1
I0730 22:35:59.930160 18600 net.cpp:408] conv12_2_mbox_conf -> conv12_2_mbox_conf
I0730 22:35:59.932154 18600 net.cpp:150] Setting up conv12_2_mbox_conf
I0730 22:35:59.932154 18600 net.cpp:157] Top shape: 4 12 1 1 (48)
I0730 22:35:59.932154 18600 net.cpp:165] Memory required for data: 2881420512
I0730 22:35:59.932154 18600 layer_factory.hpp:77] Creating layer conv12_2_mbox_conf_perm
I0730 22:35:59.932154 18600 net.cpp:100] Creating Layer conv12_2_mbox_conf_perm
I0730 22:35:59.932154 18600 net.cpp:434] conv12_2_mbox_conf_perm <- conv12_2_mbox_conf
I0730 22:35:59.932154 18600 net.cpp:408] conv12_2_mbox_conf_perm -> conv12_2_mbox_conf_perm
I0730 22:35:59.932154 18600 net.cpp:150] Setting up conv12_2_mbox_conf_perm
I0730 22:35:59.932154 18600 net.cpp:157] Top shape: 4 1 1 12 (48)
I0730 22:35:59.932154 18600 net.cpp:165] Memory required for data: 2881420704
I0730 22:35:59.932154 18600 layer_factory.hpp:77] Creating layer conv12_2_mbox_conf_flat
I0730 22:35:59.932154 18600 net.cpp:100] Creating Layer conv12_2_mbox_conf_flat
I0730 22:35:59.932154 18600 net.cpp:434] conv12_2_mbox_conf_flat <- conv12_2_mbox_conf_perm
I0730 22:35:59.932154 18600 net.cpp:408] conv12_2_mbox_conf_flat -> conv12_2_mbox_conf_flat
I0730 22:35:59.932154 18600 net.cpp:150] Setting up conv12_2_mbox_conf_flat
I0730 22:35:59.932154 18600 net.cpp:157] Top shape: 4 12 (48)
I0730 22:35:59.932154 18600 net.cpp:165] Memory required for data: 2881420896
I0730 22:35:59.933152 18600 layer_factory.hpp:77] Creating layer conv12_2_mbox_priorbox
I0730 22:35:59.933152 18600 net.cpp:100] Creating Layer conv12_2_mbox_priorbox
I0730 22:35:59.933152 18600 net.cpp:434] conv12_2_mbox_priorbox <- conv12_2_conv12_2_relu_0_split_2
I0730 22:35:59.933152 18600 net.cpp:434] conv12_2_mbox_priorbox <- data_data_0_split_7
I0730 22:35:59.933152 18600 net.cpp:408] conv12_2_mbox_priorbox -> conv12_2_mbox_priorbox
I0730 22:35:59.933152 18600 net.cpp:150] Setting up conv12_2_mbox_priorbox
I0730 22:35:59.933152 18600 net.cpp:157] Top shape: 1 2 16 (32)
I0730 22:35:59.933152 18600 net.cpp:165] Memory required for data: 2881421024
I0730 22:35:59.933152 18600 layer_factory.hpp:77] Creating layer mbox_loc
I0730 22:35:59.933152 18600 net.cpp:100] Creating Layer mbox_loc
I0730 22:35:59.933152 18600 net.cpp:434] mbox_loc <- conv4_3_norm_mbox_loc_flat
I0730 22:35:59.933152 18600 net.cpp:434] mbox_loc <- fc7_mbox_loc_flat
I0730 22:35:59.933152 18600 net.cpp:434] mbox_loc <- conv8_2_mbox_loc_flat
I0730 22:35:59.933152 18600 net.cpp:434] mbox_loc <- conv9_2_mbox_loc_flat
I0730 22:35:59.933152 18600 net.cpp:434] mbox_loc <- conv10_2_mbox_loc_flat
I0730 22:35:59.933152 18600 net.cpp:434] mbox_loc <- conv11_2_mbox_loc_flat
I0730 22:35:59.933152 18600 net.cpp:434] mbox_loc <- conv12_2_mbox_loc_flat
I0730 22:35:59.933152 18600 net.cpp:408] mbox_loc -> mbox_loc
I0730 22:35:59.933152 18600 net.cpp:150] Setting up mbox_loc
I0730 22:35:59.933152 18600 net.cpp:157] Top shape: 4 98256 (393024)
I0730 22:35:59.933152 18600 net.cpp:165] Memory required for data: 2882993120
I0730 22:35:59.933152 18600 layer_factory.hpp:77] Creating layer mbox_conf
I0730 22:35:59.933152 18600 net.cpp:100] Creating Layer mbox_conf
I0730 22:35:59.933152 18600 net.cpp:434] mbox_conf <- conv4_3_norm_mbox_conf_flat
I0730 22:35:59.933152 18600 net.cpp:434] mbox_conf <- fc7_mbox_conf_flat
I0730 22:35:59.933152 18600 net.cpp:434] mbox_conf <- conv8_2_mbox_conf_flat
I0730 22:35:59.933152 18600 net.cpp:434] mbox_conf <- conv9_2_mbox_conf_flat
I0730 22:35:59.933152 18600 net.cpp:434] mbox_conf <- conv10_2_mbox_conf_flat
I0730 22:35:59.933152 18600 net.cpp:434] mbox_conf <- conv11_2_mbox_conf_flat
I0730 22:35:59.933152 18600 net.cpp:434] mbox_conf <- conv12_2_mbox_conf_flat
I0730 22:35:59.933152 18600 net.cpp:408] mbox_conf -> mbox_conf
I0730 22:35:59.933152 18600 net.cpp:150] Setting up mbox_conf
I0730 22:35:59.933152 18600 net.cpp:157] Top shape: 4 73692 (294768)
I0730 22:35:59.933152 18600 net.cpp:165] Memory required for data: 2884172192
I0730 22:35:59.933152 18600 layer_factory.hpp:77] Creating layer mbox_priorbox
I0730 22:35:59.933152 18600 net.cpp:100] Creating Layer mbox_priorbox
I0730 22:35:59.933152 18600 net.cpp:434] mbox_priorbox <- conv4_3_norm_mbox_priorbox
I0730 22:35:59.933152 18600 net.cpp:434] mbox_priorbox <- fc7_mbox_priorbox
I0730 22:35:59.933152 18600 net.cpp:434] mbox_priorbox <- conv8_2_mbox_priorbox
I0730 22:35:59.933152 18600 net.cpp:434] mbox_priorbox <- conv9_2_mbox_priorbox
I0730 22:35:59.933152 18600 net.cpp:434] mbox_priorbox <- conv10_2_mbox_priorbox
I0730 22:35:59.933152 18600 net.cpp:434] mbox_priorbox <- conv11_2_mbox_priorbox
I0730 22:35:59.933152 18600 net.cpp:434] mbox_priorbox <- conv12_2_mbox_priorbox
I0730 22:35:59.933152 18600 net.cpp:408] mbox_priorbox -> mbox_priorbox
I0730 22:35:59.933152 18600 net.cpp:150] Setting up mbox_priorbox
I0730 22:35:59.933152 18600 net.cpp:157] Top shape: 1 2 98256 (196512)
I0730 22:35:59.933152 18600 net.cpp:165] Memory required for data: 2884958240
I0730 22:35:59.933152 18600 layer_factory.hpp:77] Creating layer mbox_loss
I0730 22:35:59.933152 18600 net.cpp:100] Creating Layer mbox_loss
I0730 22:35:59.933152 18600 net.cpp:434] mbox_loss <- mbox_loc
I0730 22:35:59.933152 18600 net.cpp:434] mbox_loss <- mbox_conf
I0730 22:35:59.933152 18600 net.cpp:434] mbox_loss <- mbox_priorbox
…
  name: "data"
  type: "AnnotatedData"
  top: "data"
  top: "label"
  include {
    phase: TEST
  }
  transform_param {
    mean_value: 104
    mean_value: 117
    mean_value: 123
    force_color: true
    resize_param {
      prob: 1
      resize_mode: WARP
      height: 512
      width: 512
      interp_mode: LINEAR
    }
  }
  data_param {
    source: "examples\\wastedata\\wastedata_test_lmdb"
    batch_size: 8
    backend: LMDB
  }
  annotated_data_param {
    batch_sampler {
    }
    label_map_file: "data\\wastedata\\labelmap_waste.prototxt"
  }
}
layer {
  name: "conv1_1"
  type: "Convolution"
  bottom: "data"
  top: "conv1_1"
  param {
    lr_mult: 1
    decay_mult: 1
  }
  param {
    lr_mult: 1
    decay_mult: 0
  }
  convolution_param {
    num_output: 64
    pad: 1
    kernel_size: 3
    weight_filler {
      type: "xavier"
    }
    bias_filler {
      type: "constant"
      value: 0
    }
  }
}
layer {
  name: "relu1_1"
  type: "ReLU"
  bottom: "conv1_1"
  top: "conv1_1"
}
layer {
  name: "conv1_2"
  type: "Convolution"
  bottom: "conv1_1"
  top: "conv1_2"
  param {
    lr_mult: 1
    decay_mult: 1
  }
  param {
    lr_mult: 1
    decay_mult: 0
  }
  convolution_param {
    num_output: 64
    pad: 1
    kernel_size: 3
    weight_filler {
      type: "xavier"
    }
    bias_filler {
      type: "constant"
      value: 0
    }
  }
}
layer {
  name: "relu1_2"
  type: "ReLU"
  bottom: "conv1_2"
  top: "conv1_2"
}
layer {
  name: "pool1"
  type: "Pooling"
  bottom: "conv1_2"
  top: "pool1"
  pooling_param {
    pool: MAX
    kernel_size: 2
    stride: 2
  }
}
layer {
  name: "conv2_1"
  type: "Convolution"
  bottom: "pool1"
  top: "conv2_1"
  param {
    lr_mult: 1
    decay_mult: 1
  }
  param {
    lr_mult: 1
    decay_mult: 0
  }
  convolution_param {
    num_output: 128
    pad: 1
    kernel_size: 3
    weight_filler {
      type: "xavier"
    }
    bias_filler {
      type: "constant"
      value: 0
    }
  }
}
layer {
  name: "relu2_1"
  type: "ReLU"
  bottom: "conv2_1"
  top: "conv2_1"
}
layer {
  name: "conv2_2"
  type: "Convolution"
  bottom: "conv2_1"
  top: "conv2_2"
  param {
    lr_mult: 1
    decay_mult: 1
  }
  param {
    lr_mult: 1
    decay_mult: 0
  }
  convolution_param {
    num_output: 128
    pad: 1
    kernel_size: 3
    weight_filler {
      type: "xavier"
    }
    bias_filler {
      type: "constant"
      value: 0
    }
  }
}
layer {
  name: "relu2_2"
  type: "ReLU"
  bottom: "conv2_2"
  top: "conv2_2"
}
layer {
  name: "pool2"
  type: "Pooling"
  bottom: "conv2_2"
  top: "pool2"
  pooling_param {
    pool: MAX
    kernel_size: 2
    stride: 2
  }
}
layer {
  name: "conv3_1"
  type: "Convolution"
  bottom: "pool2"
  top: "conv3_1"
  param {
    lr_mult: 1
    decay_mult: 1
  }
  param {
    lr_mult: 1
    decay_mult: 0
  }
  convolution_param {
    num_output: 256
    pad: 1
    kernel_size: 3
    weight_filler {
      type: "xavier"
    }
    bias_filler {
      type: "constant"
      value: 0
    }
  }
}
layer {
  name: "relu3_1"
  type: "ReLU"
  bottom: "conv3_1"
  top: "conv3_1"
}
layer {
  name: "conv3_2"
  type: "Convolution"
  bottom: "conv3_1"
  top: "conv3_2"
  param {
    lr_mult: 1
    decay_mult: 1
  }
  param {
    lr_mult: 1
    decay_mult: 0
  }
  convolution_param {
    num_output: 256
    pad: 1
    kernel_size: 3
    weight_filler {
      type: "xavier"
    }
    bias_filler {
      type: "constant"
      value: 0
    }
  }
}
layer {
  name: "relu3_2"
  type: "ReLU"
  bottom: "conv3_2"
  top: "conv3_2"
}
layer {
  name: "conv3_3"
  type: "Convolution"
  bottom: "conv3_2"
  top: "conv3_3"
  param {
    lr_mult: 1
    decay_mult: 1
  }
  param {
    lr_mult: 1
    decay_mult: 0
  }
  convolution_param {
    num_output: 256
    pad: 1
    kernel_size: 3
    weight_filler {
      type: "xavier"
    }
    bias_filler {
      type: "constant"
      value: 0
    }
  }
}
layer {
  name: "relu3_3"
  type: "ReLU"
  bottom: "conv3_3"
  top: "conv3_3"
}
layer {
  name: "pool3"
  type: "Pooling"
  bottom: "conv3_3"
  top: "pool3"
  pooling_param {
    pool: MAX
    kernel_size: 2
    stride: 2
  }
}
layer {
  name: "conv4_1"
  type: "Convolution"
  bottom: "pool3"
  top: "conv4_1"
  param {
    lr_mult: 1
    decay_mult: 1
  }
  param {
    lr_mult: 1
    decay_mult: 0
  }
  convolution_param {
    num_output: 512
    pad: 1
    kernel_size: 3
    weight_filler {
      type: "xavier"
    }
    bias_filler {
      type: "constant"
      value: 0
    }
  }
}
layer {
  name: "relu4_1"
  type: "ReLU"
  bottom: "conv4_1"
  top: "conv4_1"
}
layer {
  name: "conv4_2"
  type: "Convolution"
  bottom: "conv4_1"
  top: "conv4_2"
  param {
    lr_mult: 1
    decay_mult: 1
  }
  param {
    lr_mult: 1
    decay_mult: 0
  }
  convolution_param {
    num_output: 512
    pad: 1
    kernel_size: 3
    weight_filler {
      type: "xavier"
    }
    bias_filler {
      type: "constant"
      value: 0
    }
  }
}
layer {
  name: "relu4_2"
  type: "ReLU"
  bottom: "conv4_2"
  top: "conv4_2"
}
layer {
  name: "conv4_3"
  type: "Convolution"
  bottom: "conv4_2"
  top: "conv4_3"
  param {
    lr_mult: 1
    decay_mult: 1
  }
  param {
    lr_mult: 1
    decay_mult: 0
  }
  convolution_param {
    num_output: 512
    pad: 1
    kernel_size: 3
    weight_filler {
      type: "xavier"
    }
    bias_filler {
      type: "constant"
      value: 0
    }
  }
}
layer {
  name: "relu4_3"
  type: "ReLU"
  bottom: "conv4_3"
  top: "conv4_3"
}
layer {
  name: "pool4"
  type: "Pooling"
  bottom: "conv4_3"
  top: "pool4"
  pooling_param {
    pool: MAX
    kernel_size: 2
    stride: 2
  }
}
layer {
  name: "conv5_1"
  type: "Convolution"
  bottom: "pool4"
  top: "conv5_1"
  param {
    lr_mult: 1
    decay_mult: 1
  }
  param {
    lr_mult: 1
    decay_mult: 0
  }
  convolution_param {
    num_output: 512
    pad: 1
    kernel_size: 3
    weight_filler {
      type: "xavier"
    }
    bias_filler {
      type: "constant"
      value: 0
    }
    dilation: 1
  }
}
layer {
  name: "relu5_1"
  type: "ReLU"
  bottom: "conv5_1"
  top: "conv5_1"
}
layer {
  name: "conv5_2"
  type: "Convolution"
  bottom: "conv5_1"
  top: "conv5_2"
  param {
    lr_mult: 1
    decay_mult: 1
  }
  param {
    lr_mult: 1
    decay_mult: 0
  }
  convolution_param {
    num_output: 512
    pad: 1
    kernel_size: 3
    weight_filler {
      type: "xavier"
    }
    bias_filler {
      type: "constant"
      value: 0
    }
    dilation: 1
  }
}
layer {
  name: "relu5_2"
  type: "ReLU"
  bottom: "conv5_2"
  top: "conv5_2"
}
layer {
  name: "conv5_3"
  type: "Convolution"
  bottom: "conv5_2"
  top: "conv5_3"
  param {
    lr_mult: 1
    decay_mult: 1
  }
  param {
    lr_mult: 1
    decay_mult: 0
  }
  convolution_param {
    num_output: 512
    pad: 1
    kernel_size: 3
    weight_filler {
      type: "xavier"
    }
    bias_filler {
      type: "constant"
      value: 0
    }
    dilation: 1
  }
}
layer {
  name: "relu5_3"
  type: "ReLU"
  bottom: "conv5_3"
  top: "conv5_3"
}
layer {
  name: "pool5"
  type: "Pooling"
  bottom: "conv5_3"
  top: "pool5"
  pooling_param {
    pool: MAX
    kernel_size: 3
    stride: 1
    pad: 1
  }
}
layer {
  name: "fc6"
  type: "Convolution"
  bottom: "pool5"
  top: "fc6"
  param {
    lr_mult: 1
    decay_mult: 1
  }
  param {
    lr_mult: 1
    decay_mult: 0
  }
  convolution_param {
    num_output: 1024
    pad: 6
    kernel_size: 3
    weight_filler {
      type: "xavier"
    }
    bias_filler {
      type: "constant"
      value: 0
    }
    dilation: 6
  }
}
layer {
  name: "relu6"
  type: "ReLU"
  bottom: "fc6"
  top: "fc6"
}
layer {
  name: "fc7"
  type: "Convolution"
  bottom: "fc6"
  top: "fc7"
  param {
    lr_mult: 1
    decay_mult: 1
  }
  param {
    lr_mult: 1
    decay_mult: 0
  }
  convolution_param {
    num_output: 1024
    kernel_size: 1
    weight_filler {
      type: "xavier"
    }
    bias_filler {
      type: "constant"
      value: 0
    }
  }
}
layer {
  name: "relu7"
  type: "ReLU"
  bottom: "fc7"
  top: "fc7"
}
layer {
  name: "conv8_1"
  type: "Convolution"
  bottom: "fc7"
  top: "conv8_1"
  param {
    lr_mult: 1
    decay_mult: 1
  }
  param {
    lr_mult: 2
    decay_mult: 0
  }
  convolution_param {
    num_output: 256
    pad: 0
    kernel_size: 1
    stride: 1
    weight_filler {
      type: "xavier"
    }
    bias_filler {
      type: "constant"
      value: 0
    }
  }
}
layer {
  name: "conv8_1_relu"
  type: "ReLU"
  bottom: "conv8_1"
  top: "conv8_1"
}
layer {
  name: "conv8_2"
  type: "Convolution"
  bottom: "conv8_1"
  top: "conv8_2"
  param {
    lr_mult: 1
    decay_mult: 1
  }
  param {
    lr_mult: 2
    decay_mult: 0
  }
  convolution_param {
    num_output: 512
    pad: 1
    kernel_size: 3
    stride: 2
    weight_filler {
      type: "xavier"
    }
    bias_filler {
      type: "constant"
      value: 0
    }
  }
}
layer {
  name: "conv8_2_relu"
  type: "ReLU"
  bottom: "conv8_2"
  top: "conv8_2"
}
layer {
  name: "conv9_1"
  type: "Convolution"
  bottom: "conv8_2"
  top: "conv9_1"
  param {
    lr_mult: 1
    decay_mult: 1
  }
  param {
    lr_mult: 2
    decay_mult: 0
  }
  convolution_param {
    num_output: 128
    pad: 0
    kernel_size: 1
    stride: 1
    weight_filler {
      type: "xavier"
    }
    bias_filler {
      type: "constant"
      value: 0
    }
  }
}
layer {
  name: "conv9_1_relu"
  type: "ReLU"
  bottom: "conv9_1"
  top: "conv9_1"
}
layer {
  name: "conv9_2"
  type: "Convolution"
  bottom: "conv9_1"
  top: "conv9_2"
  param {
    lr_mult: 1
    decay_mult: 1
  }
  param {
    lr_mult: 2
    decay_mult: 0
  }
  convolution_param {
    num_output: 256
    pad: 1
    kernel_size: 3
    stride: 2
    weight_filler {
      type: "xavier"
    }
    bias_filler {
      type: "constant"
      value: 0
    }
  }
}
layer {
  name: "conv9_2_relu"
  type: "ReLU"
  bottom: "conv9_2"
  top: "conv9_2"
}
layer {
  name: "conv10_1"
  type: "Convolution"
  bottom: "conv9_2"
  top: "conv10_1"
  param {
    lr_mult: 1
    decay_mult: 1
  }
  param {
    lr_mult: 2
    decay_mult: 0
  }
  convolution_param {
    num_output: 128
    pad: 0
    kernel_size: 1
    stride: 1
    weight_filler {
      type: "xavier"
    }
    bias_filler {
      type: "constant"
      value: 0
    }
  }
}
layer {
  name: "conv10_1_relu"
  type: "ReLU"
  bottom: "conv10_1"
  top: "conv10_1"
}
layer {
  name: "conv10_2"
  type: "Convolution"
  bottom: "conv10_1"
  top: "conv10_2"
  param {
    lr_mult: 1
    decay_mult: 1
  }
  param {
    lr_mult: 2
    decay_mult: 0
  }
  convolution_param {
    num_output: 256
    pad: 1
    kernel_size: 3
    stride: 2
    weight_filler {
      type: "xavier"
    }
    bias_filler {
      type: "constant"
      value: 0
    }
  }
}
layer {
  name: "conv10_2_relu"
  type: "ReLU"
  bottom: "conv10_2"
  top: "conv10_2"
}
layer {
  name: "conv11_1"
  type: "Convolution"
  bottom: "conv10_2"
  top: "conv11_1"
  param {
    lr_mult: 1
    decay_mult: 1
  }
  param {
    lr_mult: 2
    decay_mult: 0
  }
  convolution_param {
    num_output: 128
    pad: 0
    kernel_size: 1
    stride: 1
    weight_filler {
      type: "xavier"
    }
    bias_filler {
      type: "constant"
      value: 0
    }
  }
}
layer {
  name: "conv11_1_relu"
  type: "ReLU"
  bottom: "conv11_1"
  top: "conv11_1"
}
layer {
  name: "conv11_2"
  type: "Convolution"
  bottom: "conv11_1"
  top: "conv11_2"
  param {
    lr_mult: 1
    decay_mult: 1
  }
  param {
    lr_mult: 2
    decay_mult: 0
  }
  convolution_param {
    num_output: 256
    pad: 1
    kernel_size: 3
    stride: 2
    weight_filler {
      type: "xavier"
    }
    bias_filler {
      type: "constant"
      value: 0
    }
  }
}
layer {
  name: "conv11_2_relu"
  type: "ReLU"
  bottom: "conv11_2"
  top: "conv11_2"
}
layer {
  name: "conv12_1"
  type: "Convolution"
  bottom: "conv11_2"
  top: "conv12_1"
  param {
    lr_mult: 1
    decay_mult: 1
  }
  param {
    lr_mult: 2
    decay_mult: 0
  }
  convolution_param {
    num_output: 128
    pad: 0
    kernel_size: 1
    stride: 1
    weight_filler {
      type: "xavier"
    }
    bias_filler {
      type: "constant"
      value: 0
    }
  }
}
layer {
  name: "conv12_1_relu"
  type: "ReLU"
  bottom: "conv12_1"
  top: "conv12_1"
}
layer {
  name: "conv12_2"
  type: "Convolution"
  bottom: "conv12_1"
  top: "conv12_2"
  param {
    lr_mult: 1
    decay_mult: 1
  }
  param {
    lr_mult: 2
    decay_mult: 0
  }
  convolution_param {
    num_output: 256
    pad: 1
    kernel_size: 4
    stride: 1
    weight_filler {
      type: "xavier"
    }
    bias_filler {
      type: "constant"
      value: 0
    }
  }
}
layer {
  name: "conv12_2_relu"
  type: "ReLU"
  bottom: "conv12_2"
  top: "conv12_2"
}
layer {
  name: "conv4_3_norm"
  type: "Normalize"
  bottom: "conv4_3"
  top: "conv4_3_norm"
  norm_param {
    across_spatial: false
    scale_filler {
      type: "constant"
      value: 20
    }
    channel_shared: false
  }
}
layer {
  name: "conv4_3_norm_mbox_loc"
  type: "Convolution"
  bottom: "conv4_3_norm"
  top: "conv4_3_norm_mbox_loc"
  param {
    lr_mult: 1
    decay_mult: 1
  }
  param {
    lr_mult: 2
    decay_mult: 0
  }
  convolution_param {
    num_output: 16
    pad: 1
    kernel_size: 3
    stride: 1
    weight_filler {
      type: "xavier"
    }
    bias_filler {
      type: "constant"
      value: 0
    }
  }
}
layer {
  name: "conv4_3_norm_mbox_loc_perm"
  type: "Permute"
  bottom: "conv4_3_norm_mbox_loc"
  top: "conv4_3_norm_mbox_loc_perm"
  permute_param {
    order: 0
    order: 2
    order: 3
    order: 1
  }
}
layer {
  name: "conv4_3_norm_mbox_loc_flat"
  type: "Flatten"
  bottom: "conv4_3_norm_mbox_loc_perm"
  top: "conv4_3_norm_mbox_loc_flat"
  flatten_param {
    axis: 1
  }
}
layer {
  name: "conv4_3_norm_mbox_conf"
  type: "Convolution"
  bottom: "conv4_3_norm"
  top: "conv4_3_norm_mbox_conf"
  param {
    lr_mult: 1
    decay_mult: 1
  }
  param {
    lr_mult: 2
    decay_mult: 0
  }
  convolution_param {
    num_output: 12
    pad: 1
    kernel_size: 3
    stride: 1
    weight_filler {
      type: "xavier"
    }
    bias_filler {
      type: "constant"
      value: 0
    }
  }
}
layer {
  name: "conv4_3_norm_mbox_conf_perm"
  type: "Permute"
  bottom: "conv4_3_norm_mbox_conf"
  top: "conv4_3_norm_mbox_conf_perm"
  permute_param {
    order: 0
    order: 2
    order: 3
    order: 1
  }
}
layer {
  name: "conv4_3_norm_mbox_conf_flat"
  type: "Flatten"
  bottom: "conv4_3_norm_mbox_conf_perm"
  top: "conv4_3_norm_mbox_conf_flat"
  flatten_param {
    axis: 1
  }
}
layer {
  name: "conv4_3_norm_mbox_priorbox"
  type: "PriorBox"
  bottom: "conv4_3_norm"
  bottom: "data"
  top: "conv4_3_norm_mbox_priorbox"
  prior_box_param {
    min_size: 35.84
    max_size: 76.8
    aspect_ratio: 2
    flip: true
    clip: false
    variance: 0.1
    variance: 0.1
    variance: 0.2
    variance: 0.2
    step: 8
    offset: 0.5
  }
}
layer {
  name: "fc7_mbox_loc"
  type: "Convolution"
  bottom: "fc7"
  top: "fc7_mbox_loc"
  param {
    lr_mult: 1
    decay_mult: 1
  }
  param {
    lr_mult: 2
    decay_mult: 0
  }
  convolution_param {
    num_output: 24
    pad: 1
    kernel_size: 3
    stride: 1
    weight_filler {
      type: "xavier"
    }
    bias_filler {
      type: "constant"
      value: 0
    }
  }
}
layer {
  name: "fc7_mbox_loc_perm"
  type: "Permute"
  bottom: "fc7_mbox_loc"
  top: "fc7_mbox_loc_perm"
  permute_param {
    order: 0
    order: 2
    order: 3
    order: 1
  }
}
layer {
  name: "fc7_mbox_loc_flat"
  type: "Flatten"
  bottom: "fc7_mbox_loc_perm"
  top: "fc7_mbox_loc_flat"
  flatten_param {
    axis: 1
  }
}
layer {
  name: "fc7_mbox_conf"
  type: "Convolution"
  bottom: "fc7"
  top: "fc7_mbox_conf"
  param {
    lr_mult: 1
    decay_mult: 1
  }
  param {
    lr_mult: 2
    decay_mult: 0
  }
  convolution_param {
    num_output: 18
    pad: 1
    kernel_size: 3
    stride: 1
    weight_filler {
      type: "xavier"
    }
    bias_filler {
      type: "constant"
      value: 0
    }
  }
}
layer {
  name: "fc7_mbox_conf_perm"
  type: "Permute"
  bottom: "fc7_mbox_conf"
  top: "fc7_mbox_conf_perm"
  permute_param {
    order: 0
    order: 2
    order: 3
    order: 1
  }
}
layer {
  name: "fc7_mbox_conf_flat"
  type: "Flatten"
  bottom: "fc7_mbox_conf_perm"
  top: "fc7_mbox_conf_flat"
  flatten_param {
    axis: 1
  }
}
layer {
  name: "fc7_mbox_priorbox"
  type: "PriorBox"
  bottom: "fc7"
  bottom: "data"
  top: "fc7_mbox_priorbox"
  prior_box_param {
    min_size: 76.8
    max_size: 153.6
    aspect_ratio: 2
    aspect_ratio: 3
    flip: true
    clip: false
    variance: 0.1
    variance: 0.1
    variance: 0.2
    variance: 0.2
    step: 16
    offset: 0.5
  }
}
layer {
  name: "conv8_2_mbox_loc"
  type: "Convolution"
  bottom: "conv8_2"
  top: "conv8_2_mbox_loc"
  param {
    lr_mult: 1
    decay_mult: 1
  }
  param {
    lr_mult: 2
    decay_mult: 0
  }
  convolution_param {
    num_output: 24
    pad: 1
    kernel_size: 3
    stride: 1
    weight_filler {
      type: "xavier"
    }
    bias_filler {
      type: "constant"
      value: 0
    }
  }
}
layer {
  name: "conv8_2_mbox_loc_perm"
  type: "Permute"
  bottom: "conv8_2_mbox_loc"
  top: "conv8_2_mbox_loc_perm"
  permute_param {
    order: 0
    order: 2
    order: 3
    order: 1
  }
}
layer {
  name: "conv8_2_mbox_loc_flat"
  type: "Flatten"
  bottom: "conv8_2_mbox_loc_perm"
  top: "conv8_2_mbox_loc_flat"
  flatten_param {
    axis: 1
  }
}
layer {
  name: "conv8_2_mbox_conf"
  type: "Convolution"
  bottom: "conv8_2"
  top: "conv8_2_mbox_conf"
  param {
    lr_mult: 1
    decay_mult: 1
  }
  param {
    lr_mult: 2
    decay_mult: 0
  }
  convolution_param {
    num_output: 18
    pad: 1
    kernel_size: 3
    stride: 1
    weight_filler {
      type: "xavier"
    }
    bias_filler {
      type: "constant"
      value: 0
    }
  }
}
layer {
  name: "conv8_2_mbox_conf_perm"
  type: "Permute"
  bottom: "conv8_2_mbox_conf"
  top: "conv8_2_mbox_conf_perm"
  permute_param {
    order: 0
    order: 2
    order: 3
    order: 1
  }
}
layer {
  name: "conv8_2_mbox_conf_flat"
  type: "Flatten"
  bottom: "conv8_2_mbox_conf_perm"
  top: "conv8_2_mbox_conf_flat"
  flatten_param {
    axis: 1
  }
}
layer {
  name: "conv8_2_mbox_priorbox"
  type: "PriorBox"
  bottom: "conv8_2"
  bottom: "data"
  top: "conv8_2_mbox_priorbox"
  prior_box_param {
    min_size: 153.6
    max_size: 230.4
    aspect_ratio: 2
    aspect_ratio: 3
    flip: true
    clip: false
    variance: 0.1
    variance: 0.1
    variance: 0.2
    variance: 0.2
    step: 32
    offset: 0.5
  }
}
layer {
  name: "conv9_2_mbox_loc"
  type: "Convolution"
  bottom: "conv9_2"
  top: "conv9_2_mbox_loc"
  param {
    lr_mult: 1
    decay_mult: 1
  }
  param {
    lr_mult: 2
    decay_mult: 0
  }
  convolution_param {
    num_output: 24
    pad: 1
    kernel_size: 3
    stride: 1
    weight_filler {
      type: "xavier"
    }
    bias_filler {
      type: "constant"
      value: 0
    }
  }
}
layer {
  name: "conv9_2_mbox_loc_perm"
  type: "Permute"
  bottom: "conv9_2_mbox_loc"
  top: "conv9_2_mbox_loc_perm"
  permute_param {
    order: 0
    order: 2
    order: 3
    order: 1
  }
}
layer {
  name: "conv9_2_mbox_loc_flat"
  type: "Flatten"
  bottom: "conv9_2_mbox_loc_perm"
  top: "conv9_2_mbox_loc_flat"
  flatten_param {
    axis: 1
  }
}
layer {
  name: "conv9_2_mbox_conf"
  type: "Convolution"
  bottom: "conv9_2"
  top: "conv9_2_mbox_conf"
  param {
    lr_mult: 1
    decay_mult: 1
  }
  param {
    lr_mult: 2
    decay_mult: 0
  }
  convolution_param {
    num_output: 18
    pad: 1
    kernel_size: 3
    stride: 1
    weight_filler {
      type: "xavier"
    }
    bias_filler {
      type: "constant"
      value: 0
    }
  }
}
layer {
  name: "conv9_2_mbox_conf_perm"
  type: "Permute"
  bottom: "conv9_2_mbox_conf"
  top: "conv9_2_mbox_conf_perm"
  permute_param {
    order: 0
    order: 2
    order: 3
    order: 1
  }
}
layer {
  name: "conv9_2_mbox_conf_flat"
  type: "Flatten"
  bottom: "conv9_2_mbox_conf_perm"
  top: "conv9_2_mbox_conf_flat"
  flatten_param {
    axis: 1
  }
}
layer {
  name: "conv9_2_mbox_priorbox"
  type: "PriorBox"
  bottom: "conv9_2"
  bottom: "data"
  top: "conv9_2_mbox_priorbox"
  prior_box_param {
    min_size: 230.4
    max_size: 307.2
    aspect_ratio: 2
    aspect_ratio: 3
    flip: true
    clip: false
    variance: 0.1
    variance: 0.1
    variance: 0.2
    variance: 0.2
    step: 64
    offset: 0.5
  }
}
layer {
  name: "conv10_2_mbox_loc"
  type: "Convolution"
  bottom: "conv10_2"
  top: "conv10_2_mbox_loc"
  param {
    lr_mult: 1
    decay_mult: 1
  }
  param {
    lr_mult: 2
    decay_mult: 0
  }
  convolution_param {
    num_output: 24
    pad: 1
    kernel_size: 3
    stride: 1
    weight_filler {
      type: "xavier"
    }
    bias_filler {
      type: "constant"
      value: 0
    }
  }
}
layer {
  name: "conv10_2_mbox_loc_perm"
  type: "Permute"
  bottom: "conv10_2_mbox_loc"
  top: "conv10_2_mbox_loc_perm"
  permute_param {
    order: 0
    order: 2
    order: 3
    order: 1
  }
}
layer {
  name: "conv10_2_mbox_loc_flat"
  type: "Flatten"
  bottom: "conv10_2_mbox_loc_perm"
  top: "conv10_2_mbox_loc_flat"
  flatten_param {
    axis: 1
  }
}
layer {
  name: "conv10_2_mbox_conf"
  type: "Convolution"
  bottom: "conv10_2"
  top: "conv10_2_mbox_conf"
  param {
    lr_mult: 1
    decay_mult: 1
  }
  param {
    lr_mult: 2
    decay_mult: 0
  }
  convolution_param {
    num_output: 18
    pad: 1
    kernel_size: 3
    stride: 1
    weight_filler {
      type: "xavier"
    }
    bias_filler {
      type: "constant"
      value: 0
    }
  }
}
layer {
  name: "conv10_2_mbox_conf_perm"
  type: "Permute"
  bottom: "conv10_2_mbox_conf"
  top: "conv10_2_mbox_conf_perm"
  permute_param {
    order: 0
    order: 2
    order: 3
    order: 1
  }
}
layer {
  name: "conv10_2_mbox_conf_flat"
  type: "Flatten"
  bottom: "conv10_2_mbox_conf_perm"
  top: "conv10_2_mbox_conf_flat"
  flatten_param {
    axis: 1
  }
}
layer {
  name: "conv10_2_mbox_priorbox"
  type: "PriorBox"
  bottom: "conv10_2"
  bottom: "data"
  top: "conv10_2_mbox_priorbox"
  prior_box_param {
    min_size: 307.2
    max_size: 384
    aspect_ratio: 2
    aspect_ratio: 3
    flip: true
    clip: false
    variance: 0.1
    variance: 0.1
    variance: 0.2
    variance: 0.2
    step: 128
    offset: 0.5
  }
}
layer {
  name: "conv11_2_mbox_loc"
  type: "Convolution"
  bottom: "conv11_2"
  top: "conv11_2_mbox_loc"
  param {
    lr_mult: 1
    decay_mult: 1
  }
  param {
    lr_mult: 2
    decay_mult: 0
  }
  convolution_param {
    num_output: 16
    pad: 1
    kernel_size: 3
    stride: 1
    weight_filler {
      type: "xavier"
    }
    bias_filler {
      type: "constant"
      value: 0
    }
  }
}
layer {
  name: "conv11_2_mbox_loc_perm"
  type: "Permute"
  bottom: "conv11_2_mbox_loc"
  top: "conv11_2_mbox_loc_perm"
  permute_param {
    order: 0
    order: 2
    order: 3
    order: 1
  }
}
layer {
  name: "conv11_2_mbox_loc_flat"
  type: "Flatten"
  bottom: "conv11_2_mbox_loc_perm"
  top: "conv11_2_mbox_loc_flat"
  flatten_param {
    axis: 1
  }
}
layer {
  name: "conv11_2_mbox_conf"
  type: "Convolution"
  bottom: "conv11_2"
  top: "conv11_2_mbox_conf"
  param {
    lr_mult: 1
    decay_mult: 1
  }
  param {
    lr_mult: 2
    decay_mult: 0
  }
  convolution_param {
    num_output: 12
    pad: 1
    kernel_size: 3
    stride: 1
    weight_filler {
      type: "xavier"
    }
    bias_filler {
      type: "constant"
      value: 0
    }
  }
}
layer {
  name: "conv11_2_mbox_conf_perm"
  type: "Permute"
  bottom: "conv11_2_mbox_conf"
  top: "conv11_2_mbox_conf_perm"
  permute_param {
    order: 0
    order: 2
    order: 3
    order: 1
  }
}
layer {
  name: "conv11_2_mbox_conf_flat"
  type: "Flatten"
  bottom: "conv11_2_mbox_conf_perm"
  top: "conv11_2_mbox_conf_flat"
  flatten_param {
    axis: 1
  }
}
layer {
  name: "conv11_2_mbox_priorbox"
  type: "PriorBox"
  bottom: "conv11_2"
  bottom: "data"
  top: "conv11_2_mbox_priorbox"
  prior_box_param {
    min_size: 384
    max_size: 460.8
    aspect_ratio: 2
    flip: true
    clip: false
    variance: 0.1
    variance: 0.1
    variance: 0.2
    variance: 0.2
    step: 256
    offset: 0.5
  }
}
layer {
  name: "conv12_2_mbox_loc"
  type: "Convolution"
  bottom: "conv12_2"
  top: "conv12_2_mbox_loc"
  param {
    lr_mult: 1
    decay_mult: 1
  }
  param {
    lr_mult: 2
    decay_mult: 0
  }
  convolution_param {
    num_output: 16
    pad: 1
    kernel_size: 3
    stride: 1
    weight_filler {
      type: "xavier"
    }
    bias_filler {
      type: "constant"
      value: 0
    }
  }
}
layer {
  name: "conv12_2_mbox_loc_perm"
  type: "Permute"
  bottom: "conv12_2_mbox_loc"
  top: "conv12_2_mbox_loc_perm"
  permute_param {
    order: 0
    order: 2
    order: 3
    order: 1
  }
}
layer {
  name: "conv12_2_mbox_loc_flat"
  type: "Flatten"
  bottom: "conv12_2_mbox_loc_perm"
  top: "conv12_2_mbox_loc_flat"
  flatten_param {
    axis: 1
  }
}
layer {
  name: "conv12_2_mbox_conf"
  type: "Convolution"
  bottom: "conv12_2"
  top: "conv12_2_mbox_conf"
  param {
    lr_mult: 1
    decay_mult: 1
  }
  param {
    lr_mult: 2
    decay_mult: 0
  }
  convolution_param {
    num_output: 12
    pad: 1
    kernel_size: 3
    stride: 1
    weight_filler {
      type: "xavier"
    }
    bias_filler {
      type: "constant"
      value: 0
    }
  }
}
layer {
  name: "conv12_2_mbox_conf_perm"
  type: "Permute"
  bottom: "conv12_2_mbox_conf"
  top: "conv12_2_mbox_conf_perm"
  permute_param {
    order: 0
    order: 2
    order: 3
    order: 1
  }
}
layer {
  name: "conv12_2_mbox_conf_flat"
  type: "Flatten"
  bottom: "conv12_2_mbox_conf_perm"
  top: "conv12_2_mbox_conf_flat"
  flatten_param {
    axis: 1
  }
}
layer {
  name: "conv12_2_mbox_priorbox"
  type: "PriorBox"
  bottom: "conv12_2"
  bottom: "data"
  top: "conv12_2_mbox_priorbox"
  prior_box_param {
    min_size: 460.8
    max_size: 537.6
    aspect_ratio: 2
    flip: true
    clip: false
    variance: 0.1
    variance: 0.1
    variance: 0.2
    variance: 0.2
    step: 512
    offset: 0.5
  }
}
layer {
  name: "mbox_loc"
  type: "Concat"
  bottom: "conv4_3_norm_mbox_loc_flat"
  bottom: "fc7_mbox_loc_flat"
  bottom: "conv8_2_mbox_loc_flat"
  bottom: "conv9_2_mbox_loc_flat"
  bottom: "conv10_2_mbox_loc_flat"
  bottom: "conv11_2_mbox_loc_flat"
  bottom: "conv12_2_mbox_loc_flat"
  top: "mbox_loc"
  concat_param {
    axis: 1
  }
}
layer {
  name: "mbox_conf"
  type: "Concat"
  bottom: "conv4_3_norm_mbox_conf_flat"
  bottom: "fc7_mbox_conf_flat"
  bottom: "conv8_2_mbox_conf_flat"
  bottom: "conv9_2_mbox_conf_flat"
  bottom: "conv10_2_mbox_conf_flat"
  bottom: "conv11_2_mbox_conf_flat"
  bottom: "conv12_2_mbox_conf_flat"
  top: "mbox_conf"
  concat_param {
    axis: 1
  }
}
layer {
  name: "mbox_priorbox"
  type: "Concat"
  bottom: "conv4_3_norm_mbox_priorbox"
  bottom: "fc7_mbox_priorbox"
  bottom: "conv8_2_mbox_priorbox"
  bottom: "conv9_2_mbox_priorbox"
  bottom: "conv10_2_mbox_priorbox"
  bottom: "conv11_2_mbox_priorbox"
  bottom: "conv12_2_mbox_priorbox"
  top: "mbox_priorbox"
  concat_param {
    axis: 2
  }
}
layer {
  name: "mbox_conf_reshape"
  type: "Reshape"
  bottom: "mbox_conf"
  top: "mbox_conf_reshape"
  reshape_param {
    shape {
      dim: 0
      dim: -1
      dim: 3
    }
  }
}
layer {
  name: "mbox_conf_softmax"
  type: "Softmax"
  bottom: "mbox_conf_reshape"
  top: "mbox_conf_softmax"
  softmax_param {
    axis: 2
  }
}
layer {
  name: "mbox_conf_flatten"
  type: "Flatten"
  bottom: "mbox_conf_softmax"
  top: "mbox_conf_flatten"
  flatten_param {
    axis: 1
  }
}
layer {
  name: "detection_out"
  type: "DetectionOutput"
  bottom: "mbox_loc"
  bottom: "mbox_conf_flatten"
  bottom: "mbox_priorbox"
  top: "detection_out"
  include {
    phase: TEST
  }
  detection_output_param {
    num_classes: 3
    share_location: true
    background_label_id: 0
    nms_param {
      nms_threshold: 0.45
      top_k: 400
    }
    save_output_param {
      output_directory: "data\\wastedata\\results\\SSD_512x512_score\\Main"
      output_name_prefix: "comp4_det_test_"
      output_format: "VOC"
      label_map_file: "data\\wastedata\\labelmap_waste.prototxt"
      name_size_file: "data\\wastedata\\test_name_size.txt"
      num_test_image: 1000
    }
    code_type: CENTER_SIZE
    keep_top_k: 200
    confidence_threshold: 0.01
  }
}
layer {
  name: "detection_eval"
  type: "DetectionEvaluate"
  bottom: "detection_out"
  bottom: "label"
  top: "detection_eval"
  include {
    phase: TEST
  }
  detection_evaluate_param {
    num_classes: 3
    background_label_id: 0
    overlap_threshold: 0.5
    evaluate_difficult_gt: false
    name_size_file: "data\\wastedata\\test_name_size.txt"
  }
}
I0730 22:35:59.950106 18600 layer_factory.hpp:77] Creating layer data
I0730 22:35:59.950106 18600 net.cpp:100] Creating Layer data
I0730 22:35:59.950106 18600 net.cpp:408] data -> data
I0730 22:35:59.950106 18600 net.cpp:408] data -> label
I0730 22:35:59.952101  8132 common.cpp:36] System entropy source not available, using fallback algorithm to generate seed instead.
I0730 22:35:59.957088  8132 db_lmdb.cpp:40] Opened lmdb examples\wastedata\wastedata_test_lmdb
I0730 22:35:59.975040 18600 annotated_data_layer.cpp:62] output data size: 8,3,512,512
I0730 22:36:00.023909 18600 net.cpp:150] Setting up data
I0730 22:36:00.023909 18600 net.cpp:157] Top shape: 8 3 512 512 (6291456)
I0730 22:36:00.023909 18600 net.cpp:157] Top shape: 1 1 3 8 (24)
I0730 22:36:00.023909 18600 net.cpp:165] Memory required for data: 25165920
I0730 22:36:00.023909 18600 layer_factory.hpp:77] Creating layer data_data_0_split
I0730 22:36:00.023909 18600 net.cpp:100] Creating Layer data_data_0_split
I0730 22:36:00.023909 18600 net.cpp:434] data_data_0_split <- data
I0730 22:36:00.023909 18600 net.cpp:408] data_data_0_split -> data_data_0_split_0
I0730 22:36:00.023909 18600 net.cpp:408] data_data_0_split -> data_data_0_split_1
I0730 22:36:00.023909 18600 net.cpp:408] data_data_0_split -> data_data_0_split_2
I0730 22:36:00.023909 18600 net.cpp:408] data_data_0_split -> data_data_0_split_3
I0730 22:36:00.023909 18600 net.cpp:408] data_data_0_split -> data_data_0_split_4
I0730 22:36:00.023909 18600 net.cpp:408] data_data_0_split -> data_data_0_split_5
I0730 22:36:00.023909 18600 net.cpp:408] data_data_0_split -> data_data_0_split_6
I0730 22:36:00.023909 18600 net.cpp:408] data_data_0_split -> data_data_0_split_7
I0730 22:36:00.023909 18600 net.cpp:150] Setting up data_data_0_split
I0730 22:36:00.023909 18600 net.cpp:157] Top shape: 8 3 512 512 (6291456)
I0730 22:36:00.023909 18600 net.cpp:157] Top shape: 8 3 512 512 (6291456)
I0730 22:36:00.023909 18600 net.cpp:157] Top shape: 8 3 512 512 (6291456)
I0730 22:36:00.023909 18600 net.cpp:157] Top shape: 8 3 512 512 (6291456)
I0730 22:36:00.023909 18600 net.cpp:157] Top shape: 8 3 512 512 (6291456)
I0730 22:36:00.023909 18600 net.cpp:157] Top shape: 8 3 512 512 (6291456)
I0730 22:36:00.023909 18600 net.cpp:157] Top shape: 8 3 512 512 (6291456)
I0730 22:36:00.023909 18600 net.cpp:157] Top shape: 8 3 512 512 (6291456)
I0730 22:36:00.023909 18600 net.cpp:165] Memory required for data: 226492512
I0730 22:36:00.023909 18600 layer_factory.hpp:77] Creating layer conv1_1
I0730 22:36:00.023909 18600 net.cpp:100] Creating Layer conv1_1
I0730 22:36:00.023909 18600 net.cpp:434] conv1_1 <- data_data_0_split_0
I0730 22:36:00.023909 18600 net.cpp:408] conv1_1 -> conv1_1
I0730 22:36:00.024906  4648 common.cpp:36] System entropy source not available, using fallback algorithm to generate seed instead.
I0730 22:36:00.026901 18600 net.cpp:150] Setting up conv1_1
I0730 22:36:00.026901 18600 net.cpp:157] Top shape: 8 64 512 512 (134217728)
I0730 22:36:00.026901 18600 net.cpp:165] Memory required for data: 763363424
I0730 22:36:00.026901 18600 layer_factory.hpp:77] Creating layer relu1_1
I0730 22:36:00.026901 18600 net.cpp:100] Creating Layer relu1_1
I0730 22:36:00.026901 18600 net.cpp:434] relu1_1 <- conv1_1
I0730 22:36:00.026901 18600 net.cpp:395] relu1_1 -> conv1_1 (in-place)
I0730 22:36:00.027899 18600 net.cpp:150] Setting up relu1_1
I0730 22:36:00.027899 18600 net.cpp:157] Top shape: 8 64 512 512 (134217728)
I0730 22:36:00.027899 18600 net.cpp:165] Memory required for data: 1300234336
I0730 22:36:00.027899 18600 layer_factory.hpp:77] Creating layer conv1_2
I0730 22:36:00.027899 18600 net.cpp:100] Creating Layer conv1_2
I0730 22:36:00.027899 18600 net.cpp:434] conv1_2 <- conv1_1
I0730 22:36:00.027899 18600 net.cpp:408] conv1_2 -> conv1_2
I0730 22:36:00.030891 18600 net.cpp:150] Setting up conv1_2
I0730 22:36:00.030891 18600 net.cpp:157] Top shape: 8 64 512 512 (134217728)
I0730 22:36:00.030891 18600 net.cpp:165] Memory required for data: 1837105248
I0730 22:36:00.030891 18600 layer_factory.hpp:77] Creating layer relu1_2
I0730 22:36:00.031888 18600 net.cpp:100] Creating Layer relu1_2
I0730 22:36:00.031888 18600 net.cpp:434] relu1_2 <- conv1_2
I0730 22:36:00.031888 18600 net.cpp:395] relu1_2 -> conv1_2 (in-place)
I0730 22:36:00.031888 18600 net.cpp:150] Setting up relu1_2
I0730 22:36:00.031888 18600 net.cpp:157] Top shape: 8 64 512 512 (134217728)
I0730 22:36:00.031888 18600 net.cpp:165] Memory required for data: 2373976160
I0730 22:36:00.031888 18600 layer_factory.hpp:77] Creating layer pool1
I0730 22:36:00.031888 18600 net.cpp:100] Creating Layer pool1
I0730 22:36:00.031888 18600 net.cpp:434] pool1 <- conv1_2
I0730 22:36:00.031888 18600 net.cpp:408] pool1 -> pool1
I0730 22:36:00.031888 18600 net.cpp:150] Setting up pool1
I0730 22:36:00.031888 18600 net.cpp:157] Top shape: 8 64 256 256 (33554432)
I0730 22:36:00.031888 18600 net.cpp:165] Memory required for data: 2508193888
I0730 22:36:00.031888 18600 layer_factory.hpp:77] Creating layer conv2_1
I0730 22:36:00.031888 18600 net.cpp:100] Creating Layer conv2_1
I0730 22:36:00.031888 18600 net.cpp:434] conv2_1 <- pool1
I0730 22:36:00.031888 18600 net.cpp:408] conv2_1 -> conv2_1
I0730 22:36:00.035877 18600 net.cpp:150] Setting up conv2_1
I0730 22:36:00.035877 18600 net.cpp:157] Top shape: 8 128 256 256 (67108864)
I0730 22:36:00.035877 18600 net.cpp:165] Memory required for data: 2776629344
I0730 22:36:00.035877 18600 layer_factory.hpp:77] Creating layer relu2_1
I0730 22:36:00.035877 18600 net.cpp:100] Creating Layer relu2_1
I0730 22:36:00.035877 18600 net.cpp:434] relu2_1 <- conv2_1
I0730 22:36:00.035877 18600 net.cpp:395] relu2_1 -> conv2_1 (in-place)
I0730 22:36:00.035877 18600 net.cpp:150] Setting up relu2_1
I0730 22:36:00.035877 18600 net.cpp:157] Top shape: 8 128 256 256 (67108864)
I0730 22:36:00.035877 18600 net.cpp:165] Memory required for data: 3045064800
I0730 22:36:00.035877 18600 layer_factory.hpp:77] Creating layer conv2_2
I0730 22:36:00.035877 18600 net.cpp:100] Creating Layer conv2_2
I0730 22:36:00.035877 18600 net.cpp:434] conv2_2 <- conv2_1
I0730 22:36:00.035877 18600 net.cpp:408] conv2_2 -> conv2_2
I0730 22:36:00.039867 18600 net.cpp:150] Setting up conv2_2
I0730 22:36:00.040864 18600 net.cpp:157] Top shape: 8 128 256 256 (67108864)
I0730 22:36:00.040864 18600 net.cpp:165] Memory required for data: 3313500256
I0730 22:36:00.040864 18600 layer_factory.hpp:77] Creating layer relu2_2
I0730 22:36:00.040864 18600 net.cpp:100] Creating Layer relu2_2
I0730 22:36:00.040864 18600 net.cpp:434] relu2_2 <- conv2_2
I0730 22:36:00.040864 18600 net.cpp:395] relu2_2 -> conv2_2 (in-place)
I0730 22:36:00.044854 18600 net.cpp:150] Setting up relu2_2
I0730 22:36:00.044854 18600 net.cpp:157] Top shape: 8 128 256 256 (67108864)
I0730 22:36:00.044854 18600 net.cpp:165] Memory required for data: 3581935712
I0730 22:36:00.044854 18600 layer_factory.hpp:77] Creating layer pool2
I0730 22:36:00.044854 18600 net.cpp:100] Creating Layer pool2
I0730 22:36:00.044854 18600 net.cpp:434] pool2 <- conv2_2
I0730 22:36:00.044854 18600 net.cpp:408] pool2 -> pool2
I0730 22:36:00.044854 18600 net.cpp:150] Setting up pool2
I0730 22:36:00.044854 18600 net.cpp:157] Top shape: 8 128 128 128 (16777216)
I0730 22:36:00.044854 18600 net.cpp:165] Memory required for data: 3649044576
I0730 22:36:00.044854 18600 layer_factory.hpp:77] Creating layer conv3_1
I0730 22:36:00.044854 18600 net.cpp:100] Creating Layer conv3_1
I0730 22:36:00.044854 18600 net.cpp:434] conv3_1 <- pool2
I0730 22:36:00.044854 18600 net.cpp:408] conv3_1 -> conv3_1
I0730 22:36:00.049840 18600 net.cpp:150] Setting up conv3_1
I0730 22:36:00.049840 18600 net.cpp:157] Top shape: 8 256 128 128 (33554432)
I0730 22:36:00.049840 18600 net.cpp:165] Memory required for data: 3783262304
I0730 22:36:00.049840 18600 layer_factory.hpp:77] Creating layer relu3_1
I0730 22:36:00.049840 18600 net.cpp:100] Creating Layer relu3_1
I0730 22:36:00.049840 18600 net.cpp:434] relu3_1 <- conv3_1
I0730 22:36:00.049840 18600 net.cpp:395] relu3_1 -> conv3_1 (in-place)
I0730 22:36:00.050837 18600 net.cpp:150] Setting up relu3_1
I0730 22:36:00.050837 18600 net.cpp:157] Top shape: 8 256 128 128 (33554432)
I0730 22:36:00.050837 18600 net.cpp:165] Memory required for data: 3917480032
I0730 22:36:00.050837 18600 layer_factory.hpp:77] Creating layer conv3_2
I0730 22:36:00.050837 18600 net.cpp:100] Creating Layer conv3_2
I0730 22:36:00.050837 18600 net.cpp:434] conv3_2 <- conv3_1
I0730 22:36:00.050837 18600 net.cpp:408] conv3_2 -> conv3_2
I0730 22:36:00.059813 18600 net.cpp:150] Setting up conv3_2
I0730 22:36:00.059813 18600 net.cpp:157] Top shape: 8 256 128 128 (33554432)
I0730 22:36:00.059813 18600 net.cpp:165] Memory required for data: 4051697760
I0730 22:36:00.059813 18600 layer_factory.hpp:77] Creating layer relu3_2
I0730 22:36:00.059813 18600 net.cpp:100] Creating Layer relu3_2
I0730 22:36:00.059813 18600 net.cpp:434] relu3_2 <- conv3_2
I0730 22:36:00.059813 18600 net.cpp:395] relu3_2 -> conv3_2 (in-place)
I0730 22:36:00.059813 18600 net.cpp:150] Setting up relu3_2
I0730 22:36:00.059813 18600 net.cpp:157] Top shape: 8 256 128 128 (33554432)
I0730 22:36:00.059813 18600 net.cpp:165] Memory required for data: 4185915488
I0730 22:36:00.059813 18600 layer_factory.hpp:77] Creating layer conv3_3
I0730 22:36:00.059813 18600 net.cpp:100] Creating Layer conv3_3
I0730 22:36:00.059813 18600 net.cpp:434] conv3_3 <- conv3_2
I0730 22:36:00.060811 18600 net.cpp:408] conv3_3 -> conv3_3
I0730 22:36:00.068789 18600 net.cpp:150] Setting up conv3_3
I0730 22:36:00.068789 18600 net.cpp:157] Top shape: 8 256 128 128 (33554432)
I0730 22:36:00.068789 18600 net.cpp:165] Memory required for data: 4320133216
I0730 22:36:00.068789 18600 layer_factory.hpp:77] Creating layer relu3_3
I0730 22:36:00.068789 18600 net.cpp:100] Creating Layer relu3_3
I0730 22:36:00.068789 18600 net.cpp:434] relu3_3 <- conv3_3
I0730 22:36:00.068789 18600 net.cpp:395] relu3_3 -> conv3_3 (in-place)
I0730 22:36:00.070784 18600 net.cpp:150] Setting up relu3_3
I0730 22:36:00.070784 18600 net.cpp:157] Top shape: 8 256 128 128 (33554432)
I0730 22:36:00.070784 18600 net.cpp:165] Memory required for data: 4454350944
I0730 22:36:00.070784 18600 layer_factory.hpp:77] Creating layer pool3
I0730 22:36:00.070784 18600 net.cpp:100] Creating Layer pool3
I0730 22:36:00.070784 18600 net.cpp:434] pool3 <- conv3_3
I0730 22:36:00.070784 18600 net.cpp:408] pool3 -> pool3
I0730 22:36:00.070784 18600 net.cpp:150] Setting up pool3
I0730 22:36:00.070784 18600 net.cpp:157] Top shape: 8 256 64 64 (8388608)
I0730 22:36:00.070784 18600 net.cpp:165] Memory required for data: 4487905376
I0730 22:36:00.070784 18600 layer_factory.hpp:77] Creating layer conv4_1
I0730 22:36:00.070784 18600 net.cpp:100] Creating Layer conv4_1
I0730 22:36:00.070784 18600 net.cpp:434] conv4_1 <- pool3
I0730 22:36:00.070784 18600 net.cpp:408] conv4_1 -> conv4_1
I0730 22:36:00.081753 18600 net.cpp:150] Setting up conv4_1
I0730 22:36:00.081753 18600 net.cpp:157] Top shape: 8 512 64 64 (16777216)
I0730 22:36:00.081753 18600 net.cpp:165] Memory required for data: 4555014240
I0730 22:36:00.081753 18600 layer_factory.hpp:77] Creating layer relu4_1
I0730 22:36:00.081753 18600 net.cpp:100] Creating Layer relu4_1
I0730 22:36:00.081753 18600 net.cpp:434] relu4_1 <- conv4_1
I0730 22:36:00.081753 18600 net.cpp:395] relu4_1 -> conv4_1 (in-place)
I0730 22:36:00.083748 18600 net.cpp:150] Setting up relu4_1
I0730 22:36:00.083748 18600 net.cpp:157] Top shape: 8 512 64 64 (16777216)
I0730 22:36:00.083748 18600 net.cpp:165] Memory required for data: 4622123104
I0730 22:36:00.083748 18600 layer_factory.hpp:77] Creating layer conv4_2
I0730 22:36:00.083748 18600 net.cpp:100] Creating Layer conv4_2
I0730 22:36:00.083748 18600 net.cpp:434] conv4_2 <- conv4_1
I0730 22:36:00.083748 18600 net.cpp:408] conv4_2 -> conv4_2
I0730 22:36:00.101702 18600 net.cpp:150] Setting up conv4_2
I0730 22:36:00.101702 18600 net.cpp:157] Top shape: 8 512 64 64 (16777216)
I0730 22:36:00.101702 18600 net.cpp:165] Memory required for data: 4689231968
I0730 22:36:00.101702 18600 layer_factory.hpp:77] Creating layer relu4_2
I0730 22:36:00.101702 18600 net.cpp:100] Creating Layer relu4_2
I0730 22:36:00.101702 18600 net.cpp:434] relu4_2 <- conv4_2
I0730 22:36:00.101702 18600 net.cpp:395] relu4_2 -> conv4_2 (in-place)
I0730 22:36:00.102699 18600 net.cpp:150] Setting up relu4_2
I0730 22:36:00.103696 18600 net.cpp:157] Top shape: 8 512 64 64 (16777216)
I0730 22:36:00.103696 18600 net.cpp:165] Memory required for data: 4756340832
I0730 22:36:00.103696 18600 layer_factory.hpp:77] Creating layer conv4_3
I0730 22:36:00.103696 18600 net.cpp:100] Creating Layer conv4_3
I0730 22:36:00.103696 18600 net.cpp:434] conv4_3 <- conv4_2
I0730 22:36:00.103696 18600 net.cpp:408] conv4_3 -> conv4_3
I0730 22:36:00.121649 18600 net.cpp:150] Setting up conv4_3
I0730 22:36:00.121649 18600 net.cpp:157] Top shape: 8 512 64 64 (16777216)
I0730 22:36:00.121649 18600 net.cpp:165] Memory required for data: 4823449696
I0730 22:36:00.121649 18600 layer_factory.hpp:77] Creating layer relu4_3
I0730 22:36:00.121649 18600 net.cpp:100] Creating Layer relu4_3
I0730 22:36:00.121649 18600 net.cpp:434] relu4_3 <- conv4_3
I0730 22:36:00.121649 18600 net.cpp:395] relu4_3 -> conv4_3 (in-place)
I0730 22:36:00.122646 18600 net.cpp:150] Setting up relu4_3
I0730 22:36:00.122646 18600 net.cpp:157] Top shape: 8 512 64 64 (16777216)
I0730 22:36:00.122646 18600 net.cpp:165] Memory required for data: 4890558560
I0730 22:36:00.122646 18600 layer_factory.hpp:77] Creating layer conv4_3_relu4_3_0_split
I0730 22:36:00.122646 18600 net.cpp:100] Creating Layer conv4_3_relu4_3_0_split
I0730 22:36:00.122646 18600 net.cpp:434] conv4_3_relu4_3_0_split <- conv4_3
I0730 22:36:00.122646 18600 net.cpp:408] conv4_3_relu4_3_0_split -> conv4_3_relu4_3_0_split_0
I0730 22:36:00.122646 18600 net.cpp:408] conv4_3_relu4_3_0_split -> conv4_3_relu4_3_0_split_1
I0730 22:36:00.122646 18600 net.cpp:150] Setting up conv4_3_relu4_3_0_split
I0730 22:36:00.122646 18600 net.cpp:157] Top shape: 8 512 64 64 (16777216)
I0730 22:36:00.122646 18600 net.cpp:157] Top shape: 8 512 64 64 (16777216)
I0730 22:36:00.122646 18600 net.cpp:165] Memory required for data: 5024776288
I0730 22:36:00.122646 18600 layer_factory.hpp:77] Creating layer pool4
I0730 22:36:00.122646 18600 net.cpp:100] Creating Layer pool4
I0730 22:36:00.122646 18600 net.cpp:434] pool4 <- conv4_3_relu4_3_0_split_0
I0730 22:36:00.122646 18600 net.cpp:408] pool4 -> pool4
I0730 22:36:00.122646 18600 net.cpp:150] Setting up pool4
I0730 22:36:00.122646 18600 net.cpp:157] Top shape: 8 512 32 32 (4194304)
I0730 22:36:00.122646 18600 net.cpp:165] Memory required for data: 5041553504
I0730 22:36:00.122646 18600 layer_factory.hpp:77] Creating layer conv5_1
I0730 22:36:00.122646 18600 net.cpp:100] Creating Layer conv5_1
I0730 22:36:00.122646 18600 net.cpp:434] conv5_1 <- pool4
I0730 22:36:00.122646 18600 net.cpp:408] conv5_1 -> conv5_1
I0730 22:36:00.141595 18600 net.cpp:150] Setting up conv5_1
I0730 22:36:00.141595 18600 net.cpp:157] Top shape: 8 512 32 32 (4194304)
I0730 22:36:00.141595 18600 net.cpp:165] Memory required for data: 5058330720
I0730 22:36:00.141595 18600 layer_factory.hpp:77] Creating layer relu5_1
I0730 22:36:00.141595 18600 net.cpp:100] Creating Layer relu5_1
I0730 22:36:00.141595 18600 net.cpp:434] relu5_1 <- conv5_1
I0730 22:36:00.141595 18600 net.cpp:395] relu5_1 -> conv5_1 (in-place)
I0730 22:36:00.141595 18600 net.cpp:150] Setting up relu5_1
I0730 22:36:00.141595 18600 net.cpp:157] Top shape: 8 512 32 32 (4194304)
I0730 22:36:00.141595 18600 net.cpp:165] Memory required for data: 5075107936
I0730 22:36:00.141595 18600 layer_factory.hpp:77] Creating layer conv5_2
I0730 22:36:00.141595 18600 net.cpp:100] Creating Layer conv5_2
I0730 22:36:00.141595 18600 net.cpp:434] conv5_2 <- conv5_1
I0730 22:36:00.141595 18600 net.cpp:408] conv5_2 -> conv5_2
I0730 22:36:00.159548 18600 net.cpp:150] Setting up conv5_2
I0730 22:36:00.159548 18600 net.cpp:157] Top shape: 8 512 32 32 (4194304)
I0730 22:36:00.159548 18600 net.cpp:165] Memory required for data: 5091885152
I0730 22:36:00.159548 18600 layer_factory.hpp:77] Creating layer relu5_2
I0730 22:36:00.159548 18600 net.cpp:100] Creating Layer relu5_2
I0730 22:36:00.159548 18600 net.cpp:434] relu5_2 <- conv5_2
I0730 22:36:00.159548 18600 net.cpp:395] relu5_2 -> conv5_2 (in-place)
I0730 22:36:00.160544 18600 net.cpp:150] Setting up relu5_2
I0730 22:36:00.160544 18600 net.cpp:157] Top shape: 8 512 32 32 (4194304)
I0730 22:36:00.160544 18600 net.cpp:165] Memory required for data: 5108662368
I0730 22:36:00.160544 18600 layer_factory.hpp:77] Creating layer conv5_3
I0730 22:36:00.160544 18600 net.cpp:100] Creating Layer conv5_3
I0730 22:36:00.160544 18600 net.cpp:434] conv5_3 <- conv5_2
I0730 22:36:00.160544 18600 net.cpp:408] conv5_3 -> conv5_3
I0730 22:36:00.179494 18600 net.cpp:150] Setting up conv5_3
I0730 22:36:00.179494 18600 net.cpp:157] Top shape: 8 512 32 32 (4194304)
I0730 22:36:00.179494 18600 net.cpp:165] Memory required for data: 5125439584
I0730 22:36:00.179494 18600 layer_factory.hpp:77] Creating layer relu5_3
I0730 22:36:00.179494 18600 net.cpp:100] Creating Layer relu5_3
I0730 22:36:00.179494 18600 net.cpp:434] relu5_3 <- conv5_3
I0730 22:36:00.179494 18600 net.cpp:395] relu5_3 -> conv5_3 (in-place)
I0730 22:36:00.179494 18600 net.cpp:150] Setting up relu5_3
I0730 22:36:00.179494 18600 net.cpp:157] Top shape: 8 512 32 32 (4194304)
I0730 22:36:00.179494 18600 net.cpp:165] Memory required for data: 5142216800
I0730 22:36:00.179494 18600 layer_factory.hpp:77] Creating layer pool5
I0730 22:36:00.179494 18600 net.cpp:100] Creating Layer pool5
I0730 22:36:00.179494 18600 net.cpp:434] pool5 <- conv5_3
I0730 22:36:00.179494 18600 net.cpp:408] pool5 -> pool5
I0730 22:36:00.179494 18600 net.cpp:150] Setting up pool5
I0730 22:36:00.179494 18600 net.cpp:157] Top shape: 8 512 32 32 (4194304)
I0730 22:36:00.179494 18600 net.cpp:165] Memory required for data: 5158994016
I0730 22:36:00.179494 18600 layer_factory.hpp:77] Creating layer fc6
I0730 22:36:00.179494 18600 net.cpp:100] Creating Layer fc6
I0730 22:36:00.179494 18600 net.cpp:434] fc6 <- pool5
I0730 22:36:00.180491 18600 net.cpp:408] fc6 -> fc6
I0730 22:36:00.210412 18600 net.cpp:150] Setting up fc6
I0730 22:36:00.210412 18600 net.cpp:157] Top shape: 8 1024 32 32 (8388608)
I0730 22:36:00.210412 18600 net.cpp:165] Memory required for data: 5192548448
I0730 22:36:00.210412 18600 layer_factory.hpp:77] Creating layer relu6
I0730 22:36:00.210412 18600 net.cpp:100] Creating Layer relu6
I0730 22:36:00.210412 18600 net.cpp:434] relu6 <- fc6
I0730 22:36:00.210412 18600 net.cpp:395] relu6 -> fc6 (in-place)
I0730 22:36:00.210412 18600 net.cpp:150] Setting up relu6
I0730 22:36:00.210412 18600 net.cpp:157] Top shape: 8 1024 32 32 (8388608)
I0730 22:36:00.210412 18600 net.cpp:165] Memory required for data: 5226102880
I0730 22:36:00.210412 18600 layer_factory.hpp:77] Creating layer fc7
I0730 22:36:00.210412 18600 net.cpp:100] Creating Layer fc7
I0730 22:36:00.210412 18600 net.cpp:434] fc7 <- fc6
I0730 22:36:00.210412 18600 net.cpp:408] fc7 -> fc7
I0730 22:36:00.236341 18600 net.cpp:150] Setting up fc7
I0730 22:36:00.236341 18600 net.cpp:157] Top shape: 8 1024 32 32 (8388608)
I0730 22:36:00.236341 18600 net.cpp:165] Memory required for data: 5259657312
I0730 22:36:00.236341 18600 layer_factory.hpp:77] Creating layer relu7
I0730 22:36:00.236341 18600 net.cpp:100] Creating Layer relu7
I0730 22:36:00.236341 18600 net.cpp:434] relu7 <- fc7
I0730 22:36:00.236341 18600 net.cpp:395] relu7 -> fc7 (in-place)
I0730 22:36:00.237339 18600 net.cpp:150] Setting up relu7
I0730 22:36:00.237339 18600 net.cpp:157] Top shape: 8 1024 32 32 (8388608)
I0730 22:36:00.237339 18600 net.cpp:165] Memory required for data: 5293211744
I0730 22:36:00.237339 18600 layer_factory.hpp:77] Creating layer fc7_relu7_0_split
I0730 22:36:00.237339 18600 net.cpp:100] Creating Layer fc7_relu7_0_split
I0730 22:36:00.237339 18600 net.cpp:434] fc7_relu7_0_split <- fc7
I0730 22:36:00.237339 18600 net.cpp:408] fc7_relu7_0_split -> fc7_relu7_0_split_0
I0730 22:36:00.237339 18600 net.cpp:408] fc7_relu7_0_split -> fc7_relu7_0_split_1
I0730 22:36:00.237339 18600 net.cpp:408] fc7_relu7_0_split -> fc7_relu7_0_split_2
I0730 22:36:00.237339 18600 net.cpp:408] fc7_relu7_0_split -> fc7_relu7_0_split_3
I0730 22:36:00.237339 18600 net.cpp:150] Setting up fc7_relu7_0_split
I0730 22:36:00.237339 18600 net.cpp:157] Top shape: 8 1024 32 32 (8388608)
I0730 22:36:00.237339 18600 net.cpp:157] Top shape: 8 1024 32 32 (8388608)
I0730 22:36:00.237339 18600 net.cpp:157] Top shape: 8 1024 32 32 (8388608)
I0730 22:36:00.237339 18600 net.cpp:157] Top shape: 8 1024 32 32 (8388608)
I0730 22:36:00.237339 18600 net.cpp:165] Memory required for data: 5427429472
I0730 22:36:00.237339 18600 layer_factory.hpp:77] Creating layer conv8_1
I0730 22:36:00.237339 18600 net.cpp:100] Creating Layer conv8_1
I0730 22:36:00.237339 18600 net.cpp:434] conv8_1 <- fc7_relu7_0_split_0
I0730 22:36:00.237339 18600 net.cpp:408] conv8_1 -> conv8_1
I0730 22:36:00.242326 18600 net.cpp:150] Setting up conv8_1
I0730 22:36:00.242326 18600 net.cpp:157] Top shape: 8 256 32 32 (2097152)
I0730 22:36:00.242326 18600 net.cpp:165] Memory required for data: 5435818080
I0730 22:36:00.242326 18600 layer_factory.hpp:77] Creating layer conv8_1_relu
I0730 22:36:00.242326 18600 net.cpp:100] Creating Layer conv8_1_relu
I0730 22:36:00.242326 18600 net.cpp:434] conv8_1_relu <- conv8_1
I0730 22:36:00.242326 18600 net.cpp:395] conv8_1_relu -> conv8_1 (in-place)
I0730 22:36:00.243324 18600 net.cpp:150] Setting up conv8_1_relu
I0730 22:36:00.243324 18600 net.cpp:157] Top shape: 8 256 32 32 (2097152)
I0730 22:36:00.243324 18600 net.cpp:165] Memory required for data: 5444206688
I0730 22:36:00.243324 18600 layer_factory.hpp:77] Creating layer conv8_2
I0730 22:36:00.243324 18600 net.cpp:100] Creating Layer conv8_2
I0730 22:36:00.243324 18600 net.cpp:434] conv8_2 <- conv8_1
I0730 22:36:00.243324 18600 net.cpp:408] conv8_2 -> conv8_2
I0730 22:36:00.253296 18600 net.cpp:150] Setting up conv8_2
I0730 22:36:00.253296 18600 net.cpp:157] Top shape: 8 512 16 16 (1048576)
I0730 22:36:00.253296 18600 net.cpp:165] Memory required for data: 5448400992
I0730 22:36:00.253296 18600 layer_factory.hpp:77] Creating layer conv8_2_relu
I0730 22:36:00.253296 18600 net.cpp:100] Creating Layer conv8_2_relu
I0730 22:36:00.253296 18600 net.cpp:434] conv8_2_relu <- conv8_2
I0730 22:36:00.253296 18600 net.cpp:395] conv8_2_relu -> conv8_2 (in-place)
I0730 22:36:00.254293 18600 net.cpp:150] Setting up conv8_2_relu
I0730 22:36:00.254293 18600 net.cpp:157] Top shape: 8 512 16 16 (1048576)
I0730 22:36:00.254293 18600 net.cpp:165] Memory required for data: 5452595296
I0730 22:36:00.254293 18600 layer_factory.hpp:77] Creating layer conv8_2_conv8_2_relu_0_split
I0730 22:36:00.254293 18600 net.cpp:100] Creating Layer conv8_2_conv8_2_relu_0_split
I0730 22:36:00.254293 18600 net.cpp:434] conv8_2_conv8_2_relu_0_split <- conv8_2
I0730 22:36:00.254293 18600 net.cpp:408] conv8_2_conv8_2_relu_0_split -> conv8_2_conv8_2_relu_0_split_0
I0730 22:36:00.254293 18600 net.cpp:408] conv8_2_conv8_2_relu_0_split -> conv8_2_conv8_2_relu_0_split_1
I0730 22:36:00.254293 18600 net.cpp:408] conv8_2_conv8_2_relu_0_split -> conv8_2_conv8_2_relu_0_split_2
I0730 22:36:00.254293 18600 net.cpp:408] conv8_2_conv8_2_relu_0_split -> conv8_2_conv8_2_relu_0_split_3
I0730 22:36:00.254293 18600 net.cpp:150] Setting up conv8_2_conv8_2_relu_0_split
I0730 22:36:00.254293 18600 net.cpp:157] Top shape: 8 512 16 16 (1048576)
I0730 22:36:00.254293 18600 net.cpp:157] Top shape: 8 512 16 16 (1048576)
I0730 22:36:00.254293 18600 net.cpp:157] Top shape: 8 512 16 16 (1048576)
I0730 22:36:00.254293 18600 net.cpp:157] Top shape: 8 512 16 16 (1048576)
I0730 22:36:00.254293 18600 net.cpp:165] Memory required for data: 5469372512
I0730 22:36:00.254293 18600 layer_factory.hpp:77] Creating layer conv9_1
I0730 22:36:00.254293 18600 net.cpp:100] Creating Layer conv9_1
I0730 22:36:00.254293 18600 net.cpp:434] conv9_1 <- conv8_2_conv8_2_relu_0_split_0
I0730 22:36:00.254293 18600 net.cpp:408] conv9_1 -> conv9_1
I0730 22:36:00.275238 18600 net.cpp:150] Setting up conv9_1
I0730 22:36:00.275238 18600 net.cpp:157] Top shape: 8 128 16 16 (262144)
I0730 22:36:00.275238 18600 net.cpp:165] Memory required for data: 5470421088
I0730 22:36:00.275238 18600 layer_factory.hpp:77] Creating layer conv9_1_relu
I0730 22:36:00.275238 18600 net.cpp:100] Creating Layer conv9_1_relu
I0730 22:36:00.275238 18600 net.cpp:434] conv9_1_relu <- conv9_1
I0730 22:36:00.275238 18600 net.cpp:395] conv9_1_relu -> conv9_1 (in-place)
I0730 22:36:00.276239 18600 net.cpp:150] Setting up conv9_1_relu
I0730 22:36:00.276239 18600 net.cpp:157] Top shape: 8 128 16 16 (262144)
I0730 22:36:00.276239 18600 net.cpp:165] Memory required for data: 5471469664
I0730 22:36:00.276239 18600 layer_factory.hpp:77] Creating layer conv9_2
I0730 22:36:00.276239 18600 net.cpp:100] Creating Layer conv9_2
I0730 22:36:00.276239 18600 net.cpp:434] conv9_2 <- conv9_1
I0730 22:36:00.276239 18600 net.cpp:408] conv9_2 -> conv9_2
I0730 22:36:00.282219 18600 net.cpp:150] Setting up conv9_2
I0730 22:36:00.282219 18600 net.cpp:157] Top shape: 8 256 8 8 (131072)
I0730 22:36:00.282219 18600 net.cpp:165] Memory required for data: 5471993952
I0730 22:36:00.282219 18600 layer_factory.hpp:77] Creating layer conv9_2_relu
I0730 22:36:00.282219 18600 net.cpp:100] Creating Layer conv9_2_relu
I0730 22:36:00.282219 18600 net.cpp:434] conv9_2_relu <- conv9_2
I0730 22:36:00.282219 18600 net.cpp:395] conv9_2_relu -> conv9_2 (in-place)
I0730 22:36:00.283216 18600 net.cpp:150] Setting up conv9_2_relu
I0730 22:36:00.283216 18600 net.cpp:157] Top shape: 8 256 8 8 (131072)
I0730 22:36:00.283216 18600 net.cpp:165] Memory required for data: 5472518240
I0730 22:36:00.283216 18600 layer_factory.hpp:77] Creating layer conv9_2_conv9_2_relu_0_split
I0730 22:36:00.283216 18600 net.cpp:100] Creating Layer conv9_2_conv9_2_relu_0_split
I0730 22:36:00.283216 18600 net.cpp:434] conv9_2_conv9_2_relu_0_split <- conv9_2
I0730 22:36:00.283216 18600 net.cpp:408] conv9_2_conv9_2_relu_0_split -> conv9_2_conv9_2_relu_0_split_0
I0730 22:36:00.283216 18600 net.cpp:408] conv9_2_conv9_2_relu_0_split -> conv9_2_conv9_2_relu_0_split_1
I0730 22:36:00.283216 18600 net.cpp:408] conv9_2_conv9_2_relu_0_split -> conv9_2_conv9_2_relu_0_split_2
I0730 22:36:00.283216 18600 net.cpp:408] conv9_2_conv9_2_relu_0_split -> conv9_2_conv9_2_relu_0_split_3
I0730 22:36:00.283216 18600 net.cpp:150] Setting up conv9_2_conv9_2_relu_0_split
I0730 22:36:00.283216 18600 net.cpp:157] Top shape: 8 256 8 8 (131072)
I0730 22:36:00.283216 18600 net.cpp:157] Top shape: 8 256 8 8 (131072)
I0730 22:36:00.283216 18600 net.cpp:157] Top shape: 8 256 8 8 (131072)
I0730 22:36:00.283216 18600 net.cpp:157] Top shape: 8 256 8 8 (131072)
I0730 22:36:00.283216 18600 net.cpp:165] Memory required for data: 5474615392
I0730 22:36:00.283216 18600 layer_factory.hpp:77] Creating layer conv10_1
I0730 22:36:00.283216 18600 net.cpp:100] Creating Layer conv10_1
I0730 22:36:00.283216 18600 net.cpp:434] conv10_1 <- conv9_2_conv9_2_relu_0_split_0
I0730 22:36:00.283216 18600 net.cpp:408] conv10_1 -> conv10_1
I0730 22:36:00.287206 18600 net.cpp:150] Setting up conv10_1
I0730 22:36:00.287206 18600 net.cpp:157] Top shape: 8 128 8 8 (65536)
I0730 22:36:00.287206 18600 net.cpp:165] Memory required for data: 5474877536
I0730 22:36:00.287206 18600 layer_factory.hpp:77] Creating layer conv10_1_relu
I0730 22:36:00.287206 18600 net.cpp:100] Creating Layer conv10_1_relu
I0730 22:36:00.287206 18600 net.cpp:434] conv10_1_relu <- conv10_1
I0730 22:36:00.287206 18600 net.cpp:395] conv10_1_relu -> conv10_1 (in-place)
I0730 22:36:00.288203 18600 net.cpp:150] Setting up conv10_1_relu
I0730 22:36:00.288203 18600 net.cpp:157] Top shape: 8 128 8 8 (65536)
I0730 22:36:00.288203 18600 net.cpp:165] Memory required for data: 5475139680
I0730 22:36:00.288203 18600 layer_factory.hpp:77] Creating layer conv10_2
I0730 22:36:00.288203 18600 net.cpp:100] Creating Layer conv10_2
I0730 22:36:00.288203 18600 net.cpp:434] conv10_2 <- conv10_1
I0730 22:36:00.288203 18600 net.cpp:408] conv10_2 -> conv10_2
I0730 22:36:00.293190 18600 net.cpp:150] Setting up conv10_2
I0730 22:36:00.293190 18600 net.cpp:157] Top shape: 8 256 4 4 (32768)
I0730 22:36:00.293190 18600 net.cpp:165] Memory required for data: 5475270752
I0730 22:36:00.293190 18600 layer_factory.hpp:77] Creating layer conv10_2_relu
I0730 22:36:00.293190 18600 net.cpp:100] Creating Layer conv10_2_relu
I0730 22:36:00.293190 18600 net.cpp:434] conv10_2_relu <- conv10_2
I0730 22:36:00.293190 18600 net.cpp:395] conv10_2_relu -> conv10_2 (in-place)
I0730 22:36:00.294188 18600 net.cpp:150] Setting up conv10_2_relu
I0730 22:36:00.294188 18600 net.cpp:157] Top shape: 8 256 4 4 (32768)
I0730 22:36:00.294188 18600 net.cpp:165] Memory required for data: 5475401824
I0730 22:36:00.294188 18600 layer_factory.hpp:77] Creating layer conv10_2_conv10_2_relu_0_split
I0730 22:36:00.294188 18600 net.cpp:100] Creating Layer conv10_2_conv10_2_relu_0_split
I0730 22:36:00.294188 18600 net.cpp:434] conv10_2_conv10_2_relu_0_split <- conv10_2
I0730 22:36:00.294188 18600 net.cpp:408] conv10_2_conv10_2_relu_0_split -> conv10_2_conv10_2_relu_0_split_0
I0730 22:36:00.294188 18600 net.cpp:408] conv10_2_conv10_2_relu_0_split -> conv10_2_conv10_2_relu_0_split_1
I0730 22:36:00.294188 18600 net.cpp:408] conv10_2_conv10_2_relu_0_split -> conv10_2_conv10_2_relu_0_split_2
I0730 22:36:00.294188 18600 net.cpp:408] conv10_2_conv10_2_relu_0_split -> conv10_2_conv10_2_relu_0_split_3
I0730 22:36:00.294188 18600 net.cpp:150] Setting up conv10_2_conv10_2_relu_0_split
I0730 22:36:00.294188 18600 net.cpp:157] Top shape: 8 256 4 4 (32768)
I0730 22:36:00.294188 18600 net.cpp:157] Top shape: 8 256 4 4 (32768)
I0730 22:36:00.294188 18600 net.cpp:157] Top shape: 8 256 4 4 (32768)
I0730 22:36:00.294188 18600 net.cpp:157] Top shape: 8 256 4 4 (32768)
I0730 22:36:00.294188 18600 net.cpp:165] Memory required for data: 5475926112
I0730 22:36:00.294188 18600 layer_factory.hpp:77] Creating layer conv11_1
I0730 22:36:00.294188 18600 net.cpp:100] Creating Layer conv11_1
I0730 22:36:00.294188 18600 net.cpp:434] conv11_1 <- conv10_2_conv10_2_relu_0_split_0
I0730 22:36:00.294188 18600 net.cpp:408] conv11_1 -> conv11_1
I0730 22:36:00.296182 18600 net.cpp:150] Setting up conv11_1
I0730 22:36:00.296182 18600 net.cpp:157] Top shape: 8 128 4 4 (16384)
I0730 22:36:00.296182 18600 net.cpp:165] Memory required for data: 5475991648
I0730 22:36:00.296182 18600 layer_factory.hpp:77] Creating layer conv11_1_relu
I0730 22:36:00.296182 18600 net.cpp:100] Creating Layer conv11_1_relu
I0730 22:36:00.296182 18600 net.cpp:434] conv11_1_relu <- conv11_1
I0730 22:36:00.296182 18600 net.cpp:395] conv11_1_relu -> conv11_1 (in-place)
I0730 22:36:00.297179 18600 net.cpp:150] Setting up conv11_1_relu
I0730 22:36:00.297179 18600 net.cpp:157] Top shape: 8 128 4 4 (16384)
I0730 22:36:00.297179 18600 net.cpp:165] Memory required for data: 5476057184
I0730 22:36:00.297179 18600 layer_factory.hpp:77] Creating layer conv11_2
I0730 22:36:00.297179 18600 net.cpp:100] Creating Layer conv11_2
I0730 22:36:00.297179 18600 net.cpp:434] conv11_2 <- conv11_1
I0730 22:36:00.297179 18600 net.cpp:408] conv11_2 -> conv11_2
I0730 22:36:00.302165 18600 net.cpp:150] Setting up conv11_2
I0730 22:36:00.302165 18600 net.cpp:157] Top shape: 8 256 2 2 (8192)
I0730 22:36:00.302165 18600 net.cpp:165] Memory required for data: 5476089952
I0730 22:36:00.302165 18600 layer_factory.hpp:77] Creating layer conv11_2_relu
I0730 22:36:00.302165 18600 net.cpp:100] Creating Layer conv11_2_relu
I0730 22:36:00.302165 18600 net.cpp:434] conv11_2_relu <- conv11_2
I0730 22:36:00.302165 18600 net.cpp:395] conv11_2_relu -> conv11_2 (in-place)
I0730 22:36:00.303164 18600 net.cpp:150] Setting up conv11_2_relu
I0730 22:36:00.303164 18600 net.cpp:157] Top shape: 8 256 2 2 (8192)
I0730 22:36:00.303164 18600 net.cpp:165] Memory required for data: 5476122720
I0730 22:36:00.303164 18600 layer_factory.hpp:77] Creating layer conv11_2_conv11_2_relu_0_split
I0730 22:36:00.303164 18600 net.cpp:100] Creating Layer conv11_2_conv11_2_relu_0_split
I0730 22:36:00.303164 18600 net.cpp:434] conv11_2_conv11_2_relu_0_split <- conv11_2
I0730 22:36:00.303164 18600 net.cpp:408] conv11_2_conv11_2_relu_0_split -> conv11_2_conv11_2_relu_0_split_0
I0730 22:36:00.303164 18600 net.cpp:408] conv11_2_conv11_2_relu_0_split -> conv11_2_conv11_2_relu_0_split_1
I0730 22:36:00.303164 18600 net.cpp:408] conv11_2_conv11_2_relu_0_split -> conv11_2_conv11_2_relu_0_split_2
I0730 22:36:00.303164 18600 net.cpp:408] conv11_2_conv11_2_relu_0_split -> conv11_2_conv11_2_relu_0_split_3
I0730 22:36:00.304160 18600 net.cpp:150] Setting up conv11_2_conv11_2_relu_0_split
I0730 22:36:00.304160 18600 net.cpp:157] Top shape: 8 256 2 2 (8192)
I0730 22:36:00.304160 18600 net.cpp:157] Top shape: 8 256 2 2 (8192)
I0730 22:36:00.304160 18600 net.cpp:157] Top shape: 8 256 2 2 (8192)
I0730 22:36:00.304160 18600 net.cpp:157] Top shape: 8 256 2 2 (8192)
I0730 22:36:00.304160 18600 net.cpp:165] Memory required for data: 5476253792
I0730 22:36:00.304160 18600 layer_factory.hpp:77] Creating layer conv12_1
I0730 22:36:00.304160 18600 net.cpp:100] Creating Layer conv12_1
I0730 22:36:00.304160 18600 net.cpp:434] conv12_1 <- conv11_2_conv11_2_relu_0_split_0
I0730 22:36:00.304160 18600 net.cpp:408] conv12_1 -> conv12_1
I0730 22:36:00.307152 18600 net.cpp:150] Setting up conv12_1
I0730 22:36:00.307152 18600 net.cpp:157] Top shape: 8 128 2 2 (4096)
I0730 22:36:00.307152 18600 net.cpp:165] Memory required for data: 5476270176
I0730 22:36:00.307152 18600 layer_factory.hpp:77] Creating layer conv12_1_relu
I0730 22:36:00.307152 18600 net.cpp:100] Creating Layer conv12_1_relu
I0730 22:36:00.307152 18600 net.cpp:434] conv12_1_relu <- conv12_1
I0730 22:36:00.307152 18600 net.cpp:395] conv12_1_relu -> conv12_1 (in-place)
I0730 22:36:00.308149 18600 net.cpp:150] Setting up conv12_1_relu
I0730 22:36:00.308149 18600 net.cpp:157] Top shape: 8 128 2 2 (4096)
I0730 22:36:00.308149 18600 net.cpp:165] Memory required for data: 5476286560
I0730 22:36:00.308149 18600 layer_factory.hpp:77] Creating layer conv12_2
I0730 22:36:00.308149 18600 net.cpp:100] Creating Layer conv12_2
I0730 22:36:00.308149 18600 net.cpp:434] conv12_2 <- conv12_1
I0730 22:36:00.308149 18600 net.cpp:408] conv12_2 -> conv12_2
I0730 22:36:00.314134 18600 net.cpp:150] Setting up conv12_2
I0730 22:36:00.314134 18600 net.cpp:157] Top shape: 8 256 1 1 (2048)
I0730 22:36:00.314134 18600 net.cpp:165] Memory required for data: 5476294752
I0730 22:36:00.314134 18600 layer_factory.hpp:77] Creating layer conv12_2_relu
I0730 22:36:00.314134 18600 net.cpp:100] Creating Layer conv12_2_relu
I0730 22:36:00.314134 18600 net.cpp:434] conv12_2_relu <- conv12_2
I0730 22:36:00.314134 18600 net.cpp:395] conv12_2_relu -> conv12_2 (in-place)
I0730 22:36:00.314134 18600 net.cpp:150] Setting up conv12_2_relu
I0730 22:36:00.314134 18600 net.cpp:157] Top shape: 8 256 1 1 (2048)
I0730 22:36:00.314134 18600 net.cpp:165] Memory required for data: 5476302944
I0730 22:36:00.314134 18600 layer_factory.hpp:77] Creating layer conv12_2_conv12_2_relu_0_split
I0730 22:36:00.314134 18600 net.cpp:100] Creating Layer conv12_2_conv12_2_relu_0_split
I0730 22:36:00.314134 18600 net.cpp:434] conv12_2_conv12_2_relu_0_split <- conv12_2
I0730 22:36:00.314134 18600 net.cpp:408] conv12_2_conv12_2_relu_0_split -> conv12_2_conv12_2_relu_0_split_0
I0730 22:36:00.314134 18600 net.cpp:408] conv12_2_conv12_2_relu_0_split -> conv12_2_conv12_2_relu_0_split_1
I0730 22:36:00.314134 18600 net.cpp:408] conv12_2_conv12_2_relu_0_split -> conv12_2_conv12_2_relu_0_split_2
I0730 22:36:00.314134 18600 net.cpp:150] Setting up conv12_2_conv12_2_relu_0_split
I0730 22:36:00.314134 18600 net.cpp:157] Top shape: 8 256 1 1 (2048)
I0730 22:36:00.314134 18600 net.cpp:157] Top shape: 8 256 1 1 (2048)
I0730 22:36:00.314134 18600 net.cpp:157] Top shape: 8 256 1 1 (2048)
I0730 22:36:00.314134 18600 net.cpp:165] Memory required for data: 5476327520
I0730 22:36:00.314134 18600 layer_factory.hpp:77] Creating layer conv4_3_norm
I0730 22:36:00.314134 18600 net.cpp:100] Creating Layer conv4_3_norm
I0730 22:36:00.314134 18600 net.cpp:434] conv4_3_norm <- conv4_3_relu4_3_0_split_1
I0730 22:36:00.314134 18600 net.cpp:408] conv4_3_norm -> conv4_3_norm
I0730 22:36:00.315131 18600 net.cpp:150] Setting up conv4_3_norm
I0730 22:36:00.315131 18600 net.cpp:157] Top shape: 8 512 64 64 (16777216)
I0730 22:36:00.315131 18600 net.cpp:165] Memory required for data: 5543436384
I0730 22:36:00.315131 18600 layer_factory.hpp:77] Creating layer conv4_3_norm_conv4_3_norm_0_split
I0730 22:36:00.315131 18600 net.cpp:100] Creating Layer conv4_3_norm_conv4_3_norm_0_split
I0730 22:36:00.315131 18600 net.cpp:434] conv4_3_norm_conv4_3_norm_0_split <- conv4_3_norm
I0730 22:36:00.315131 18600 net.cpp:408] conv4_3_norm_conv4_3_norm_0_split -> conv4_3_norm_conv4_3_norm_0_split_0
I0730 22:36:00.315131 18600 net.cpp:408] conv4_3_norm_conv4_3_norm_0_split -> conv4_3_norm_conv4_3_norm_0_split_1
I0730 22:36:00.315131 18600 net.cpp:408] conv4_3_norm_conv4_3_norm_0_split -> conv4_3_norm_conv4_3_norm_0_split_2
I0730 22:36:00.315131 18600 net.cpp:150] Setting up conv4_3_norm_conv4_3_norm_0_split
I0730 22:36:00.315131 18600 net.cpp:157] Top shape: 8 512 64 64 (16777216)
I0730 22:36:00.315131 18600 net.cpp:157] Top shape: 8 512 64 64 (16777216)
I0730 22:36:00.315131 18600 net.cpp:157] Top shape: 8 512 64 64 (16777216)
I0730 22:36:00.315131 18600 net.cpp:165] Memory required for data: 5744762976
I0730 22:36:00.315131 18600 layer_factory.hpp:77] Creating layer conv4_3_norm_mbox_loc
I0730 22:36:00.315131 18600 net.cpp:100] Creating Layer conv4_3_norm_mbox_loc
I0730 22:36:00.315131 18600 net.cpp:434] conv4_3_norm_mbox_loc <- conv4_3_norm_conv4_3_norm_0_split_0
I0730 22:36:00.315131 18600 net.cpp:408] conv4_3_norm_mbox_loc -> conv4_3_norm_mbox_loc
I0730 22:36:00.320118 18600 net.cpp:150] Setting up conv4_3_norm_mbox_loc
I0730 22:36:00.320118 18600 net.cpp:157] Top shape: 8 16 64 64 (524288)
I0730 22:36:00.321115 18600 net.cpp:165] Memory required for data: 5746860128
I0730 22:36:00.321115 18600 layer_factory.hpp:77] Creating layer conv4_3_norm_mbox_loc_perm
I0730 22:36:00.321115 18600 net.cpp:100] Creating Layer conv4_3_norm_mbox_loc_perm
I0730 22:36:00.321115 18600 net.cpp:434] conv4_3_norm_mbox_loc_perm <- conv4_3_norm_mbox_loc
I0730 22:36:00.321115 18600 net.cpp:408] conv4_3_norm_mbox_loc_perm -> conv4_3_norm_mbox_loc_perm
I0730 22:36:00.321115 18600 net.cpp:150] Setting up conv4_3_norm_mbox_loc_perm
I0730 22:36:00.321115 18600 net.cpp:157] Top shape: 8 64 64 16 (524288)
I0730 22:36:00.321115 18600 net.cpp:165] Memory required for data: 5748957280
I0730 22:36:00.321115 18600 layer_factory.hpp:77] Creating layer conv4_3_norm_mbox_loc_flat
I0730 22:36:00.321115 18600 net.cpp:100] Creating Layer conv4_3_norm_mbox_loc_flat
I0730 22:36:00.321115 18600 net.cpp:434] conv4_3_norm_mbox_loc_flat <- conv4_3_norm_mbox_loc_perm
I0730 22:36:00.321115 18600 net.cpp:408] conv4_3_norm_mbox_loc_flat -> conv4_3_norm_mbox_loc_flat
I0730 22:36:00.321115 18600 net.cpp:150] Setting up conv4_3_norm_mbox_loc_flat
I0730 22:36:00.321115 18600 net.cpp:157] Top shape: 8 65536 (524288)
I0730 22:36:00.321115 18600 net.cpp:165] Memory required for data: 5751054432
I0730 22:36:00.321115 18600 layer_factory.hpp:77] Creating layer conv4_3_norm_mbox_conf
I0730 22:36:00.321115 18600 net.cpp:100] Creating Layer conv4_3_norm_mbox_conf
I0730 22:36:00.321115 18600 net.cpp:434] conv4_3_norm_mbox_conf <- conv4_3_norm_conv4_3_norm_0_split_1
I0730 22:36:00.321115 18600 net.cpp:408] conv4_3_norm_mbox_conf -> conv4_3_norm_mbox_conf
I0730 22:36:00.324107 18600 net.cpp:150] Setting up conv4_3_norm_mbox_conf
I0730 22:36:00.324107 18600 net.cpp:157] Top shape: 8 12 64 64 (393216)
I0730 22:36:00.324107 18600 net.cpp:165] Memory required for data: 5752627296
I0730 22:36:00.324107 18600 layer_factory.hpp:77] Creating layer conv4_3_norm_mbox_conf_perm
I0730 22:36:00.324107 18600 net.cpp:100] Creating Layer conv4_3_norm_mbox_conf_perm
I0730 22:36:00.324107 18600 net.cpp:434] conv4_3_norm_mbox_conf_perm <- conv4_3_norm_mbox_conf
I0730 22:36:00.324107 18600 net.cpp:408] conv4_3_norm_mbox_conf_perm -> conv4_3_norm_mbox_conf_perm
I0730 22:36:00.324107 18600 net.cpp:150] Setting up conv4_3_norm_mbox_conf_perm
I0730 22:36:00.324107 18600 net.cpp:157] Top shape: 8 64 64 12 (393216)
I0730 22:36:00.324107 18600 net.cpp:165] Memory required for data: 5754200160
I0730 22:36:00.324107 18600 layer_factory.hpp:77] Creating layer conv4_3_norm_mbox_conf_flat
I0730 22:36:00.324107 18600 net.cpp:100] Creating Layer conv4_3_norm_mbox_conf_flat
I0730 22:36:00.324107 18600 net.cpp:434] conv4_3_norm_mbox_conf_flat <- conv4_3_norm_mbox_conf_perm
I0730 22:36:00.324107 18600 net.cpp:408] conv4_3_norm_mbox_conf_flat -> conv4_3_norm_mbox_conf_flat
I0730 22:36:00.324107 18600 net.cpp:150] Setting up conv4_3_norm_mbox_conf_flat
I0730 22:36:00.324107 18600 net.cpp:157] Top shape: 8 49152 (393216)
I0730 22:36:00.324107 18600 net.cpp:165] Memory required for data: 5755773024
I0730 22:36:00.324107 18600 layer_factory.hpp:77] Creating layer conv4_3_norm_mbox_priorbox
I0730 22:36:00.324107 18600 net.cpp:100] Creating Layer conv4_3_norm_mbox_priorbox
I0730 22:36:00.324107 18600 net.cpp:434] conv4_3_norm_mbox_priorbox <- conv4_3_norm_conv4_3_norm_0_split_2
I0730 22:36:00.324107 18600 net.cpp:434] conv4_3_norm_mbox_priorbox <- data_data_0_split_1
I0730 22:36:00.324107 18600 net.cpp:408] conv4_3_norm_mbox_priorbox -> conv4_3_norm_mbox_priorbox
I0730 22:36:00.324107 18600 net.cpp:150] Setting up conv4_3_norm_mbox_priorbox
I0730 22:36:00.324107 18600 net.cpp:157] Top shape: 1 2 65536 (131072)
I0730 22:36:00.324107 18600 net.cpp:165] Memory required for data: 5756297312
I0730 22:36:00.324107 18600 layer_factory.hpp:77] Creating layer fc7_mbox_loc
I0730 22:36:00.324107 18600 net.cpp:100] Creating Layer fc7_mbox_loc
I0730 22:36:00.324107 18600 net.cpp:434] fc7_mbox_loc <- fc7_relu7_0_split_1
I0730 22:36:00.324107 18600 net.cpp:408] fc7_mbox_loc -> fc7_mbox_loc
I0730 22:36:00.328096 18600 net.cpp:150] Setting up fc7_mbox_loc
I0730 22:36:00.328096 18600 net.cpp:157] Top shape: 8 24 32 32 (196608)
I0730 22:36:00.328096 18600 net.cpp:165] Memory required for data: 5757083744
I0730 22:36:00.328096 18600 layer_factory.hpp:77] Creating layer fc7_mbox_loc_perm
I0730 22:36:00.328096 18600 net.cpp:100] Creating Layer fc7_mbox_loc_perm
I0730 22:36:00.328096 18600 net.cpp:434] fc7_mbox_loc_perm <- fc7_mbox_loc
I0730 22:36:00.328096 18600 net.cpp:408] fc7_mbox_loc_perm -> fc7_mbox_loc_perm
I0730 22:36:00.328096 18600 net.cpp:150] Setting up fc7_mbox_loc_perm
I0730 22:36:00.328096 18600 net.cpp:157] Top shape: 8 32 32 24 (196608)
I0730 22:36:00.328096 18600 net.cpp:165] Memory required for data: 5757870176
I0730 22:36:00.328096 18600 layer_factory.hpp:77] Creating layer fc7_mbox_loc_flat
I0730 22:36:00.328096 18600 net.cpp:100] Creating Layer fc7_mbox_loc_flat
I0730 22:36:00.328096 18600 net.cpp:434] fc7_mbox_loc_flat <- fc7_mbox_loc_perm
I0730 22:36:00.328096 18600 net.cpp:408] fc7_mbox_loc_flat -> fc7_mbox_loc_flat
I0730 22:36:00.328096 18600 net.cpp:150] Setting up fc7_mbox_loc_flat
I0730 22:36:00.328096 18600 net.cpp:157] Top shape: 8 24576 (196608)
I0730 22:36:00.328096 18600 net.cpp:165] Memory required for data: 5758656608
I0730 22:36:00.328096 18600 layer_factory.hpp:77] Creating layer fc7_mbox_conf
I0730 22:36:00.328096 18600 net.cpp:100] Creating Layer fc7_mbox_conf
I0730 22:36:00.328096 18600 net.cpp:434] fc7_mbox_conf <- fc7_relu7_0_split_2
I0730 22:36:00.328096 18600 net.cpp:408] fc7_mbox_conf -> fc7_mbox_conf
I0730 22:36:00.332087 18600 net.cpp:150] Setting up fc7_mbox_conf
I0730 22:36:00.332087 18600 net.cpp:157] Top shape: 8 18 32 32 (147456)
I0730 22:36:00.332087 18600 net.cpp:165] Memory required for data: 5759246432
I0730 22:36:00.332087 18600 layer_factory.hpp:77] Creating layer fc7_mbox_conf_perm
I0730 22:36:00.332087 18600 net.cpp:100] Creating Layer fc7_mbox_conf_perm
I0730 22:36:00.332087 18600 net.cpp:434] fc7_mbox_conf_perm <- fc7_mbox_conf
I0730 22:36:00.332087 18600 net.cpp:408] fc7_mbox_conf_perm -> fc7_mbox_conf_perm
I0730 22:36:00.332087 18600 net.cpp:150] Setting up fc7_mbox_conf_perm
I0730 22:36:00.332087 18600 net.cpp:157] Top shape: 8 32 32 18 (147456)
I0730 22:36:00.332087 18600 net.cpp:165] Memory required for data: 5759836256
I0730 22:36:00.332087 18600 layer_factory.hpp:77] Creating layer fc7_mbox_conf_flat
I0730 22:36:00.332087 18600 net.cpp:100] Creating Layer fc7_mbox_conf_flat
I0730 22:36:00.332087 18600 net.cpp:434] fc7_mbox_conf_flat <- fc7_mbox_conf_perm
I0730 22:36:00.332087 18600 net.cpp:408] fc7_mbox_conf_flat -> fc7_mbox_conf_flat
I0730 22:36:00.332087 18600 net.cpp:150] Setting up fc7_mbox_conf_flat
I0730 22:36:00.332087 18600 net.cpp:157] Top shape: 8 18432 (147456)
I0730 22:36:00.332087 18600 net.cpp:165] Memory required for data: 5760426080
I0730 22:36:00.332087 18600 layer_factory.hpp:77] Creating layer fc7_mbox_priorbox
I0730 22:36:00.332087 18600 net.cpp:100] Creating Layer fc7_mbox_priorbox
I0730 22:36:00.332087 18600 net.cpp:434] fc7_mbox_priorbox <- fc7_relu7_0_split_3
I0730 22:36:00.332087 18600 net.cpp:434] fc7_mbox_priorbox <- data_data_0_split_2
I0730 22:36:00.332087 18600 net.cpp:408] fc7_mbox_priorbox -> fc7_mbox_priorbox
I0730 22:36:00.332087 18600 net.cpp:150] Setting up fc7_mbox_priorbox
I0730 22:36:00.332087 18600 net.cpp:157] Top shape: 1 2 24576 (49152)
I0730 22:36:00.332087 18600 net.cpp:165] Memory required for data: 5760622688
I0730 22:36:00.332087 18600 layer_factory.hpp:77] Creating layer conv8_2_mbox_loc
I0730 22:36:00.332087 18600 net.cpp:100] Creating Layer conv8_2_mbox_loc
I0730 22:36:00.332087 18600 net.cpp:434] conv8_2_mbox_loc <- conv8_2_conv8_2_relu_0_split_1
I0730 22:36:00.332087 18600 net.cpp:408] conv8_2_mbox_loc -> conv8_2_mbox_loc
I0730 22:36:00.338070 18600 net.cpp:150] Setting up conv8_2_mbox_loc
I0730 22:36:00.338070 18600 net.cpp:157] Top shape: 8 24 16 16 (49152)
I0730 22:36:00.338070 18600 net.cpp:165] Memory required for data: 5760819296
I0730 22:36:00.338070 18600 layer_factory.hpp:77] Creating layer conv8_2_mbox_loc_perm
I0730 22:36:00.338070 18600 net.cpp:100] Creating Layer conv8_2_mbox_loc_perm
I0730 22:36:00.338070 18600 net.cpp:434] conv8_2_mbox_loc_perm <- conv8_2_mbox_loc
I0730 22:36:00.338070 18600 net.cpp:408] conv8_2_mbox_loc_perm -> conv8_2_mbox_loc_perm
I0730 22:36:00.338070 18600 net.cpp:150] Setting up conv8_2_mbox_loc_perm
I0730 22:36:00.338070 18600 net.cpp:157] Top shape: 8 16 16 24 (49152)
I0730 22:36:00.338070 18600 net.cpp:165] Memory required for data: 5761015904
I0730 22:36:00.338070 18600 layer_factory.hpp:77] Creating layer conv8_2_mbox_loc_flat
I0730 22:36:00.338070 18600 net.cpp:100] Creating Layer conv8_2_mbox_loc_flat
I0730 22:36:00.338070 18600 net.cpp:434] conv8_2_mbox_loc_flat <- conv8_2_mbox_loc_perm
I0730 22:36:00.338070 18600 net.cpp:408] conv8_2_mbox_loc_flat -> conv8_2_mbox_loc_flat
I0730 22:36:00.338070 18600 net.cpp:150] Setting up conv8_2_mbox_loc_flat
I0730 22:36:00.338070 18600 net.cpp:157] Top shape: 8 6144 (49152)
I0730 22:36:00.338070 18600 net.cpp:165] Memory required for data: 5761212512
I0730 22:36:00.338070 18600 layer_factory.hpp:77] Creating layer conv8_2_mbox_conf
I0730 22:36:00.338070 18600 net.cpp:100] Creating Layer conv8_2_mbox_conf
I0730 22:36:00.338070 18600 net.cpp:434] conv8_2_mbox_conf <- conv8_2_conv8_2_relu_0_split_2
I0730 22:36:00.338070 18600 net.cpp:408] conv8_2_mbox_conf -> conv8_2_mbox_conf
I0730 22:36:00.341061 18600 net.cpp:150] Setting up conv8_2_mbox_conf
I0730 22:36:00.341061 18600 net.cpp:157] Top shape: 8 18 16 16 (36864)
I0730 22:36:00.341061 18600 net.cpp:165] Memory required for data: 5761359968
I0730 22:36:00.341061 18600 layer_factory.hpp:77] Creating layer conv8_2_mbox_conf_perm
I0730 22:36:00.341061 18600 net.cpp:100] Creating Layer conv8_2_mbox_conf_perm
I0730 22:36:00.341061 18600 net.cpp:434] conv8_2_mbox_conf_perm <- conv8_2_mbox_conf
I0730 22:36:00.341061 18600 net.cpp:408] conv8_2_mbox_conf_perm -> conv8_2_mbox_conf_perm
I0730 22:36:00.342059 18600 net.cpp:150] Setting up conv8_2_mbox_conf_perm
I0730 22:36:00.342059 18600 net.cpp:157] Top shape: 8 16 16 18 (36864)
I0730 22:36:00.342059 18600 net.cpp:165] Memory required for data: 5761507424
I0730 22:36:00.342059 18600 layer_factory.hpp:77] Creating layer conv8_2_mbox_conf_flat
I0730 22:36:00.342059 18600 net.cpp:100] Creating Layer conv8_2_mbox_conf_flat
I0730 22:36:00.342059 18600 net.cpp:434] conv8_2_mbox_conf_flat <- conv8_2_mbox_conf_perm
I0730 22:36:00.342059 18600 net.cpp:408] conv8_2_mbox_conf_flat -> conv8_2_mbox_conf_flat
I0730 22:36:00.342059 18600 net.cpp:150] Setting up conv8_2_mbox_conf_flat
I0730 22:36:00.342059 18600 net.cpp:157] Top shape: 8 4608 (36864)
I0730 22:36:00.342059 18600 net.cpp:165] Memory required for data: 5761654880
I0730 22:36:00.342059 18600 layer_factory.hpp:77] Creating layer conv8_2_mbox_priorbox
I0730 22:36:00.342059 18600 net.cpp:100] Creating Layer conv8_2_mbox_priorbox
I0730 22:36:00.342059 18600 net.cpp:434] conv8_2_mbox_priorbox <- conv8_2_conv8_2_relu_0_split_3
I0730 22:36:00.342059 18600 net.cpp:434] conv8_2_mbox_priorbox <- data_data_0_split_3
I0730 22:36:00.342059 18600 net.cpp:408] conv8_2_mbox_priorbox -> conv8_2_mbox_priorbox
I0730 22:36:00.342059 18600 net.cpp:150] Setting up conv8_2_mbox_priorbox
I0730 22:36:00.342059 18600 net.cpp:157] Top shape: 1 2 6144 (12288)
I0730 22:36:00.342059 18600 net.cpp:165] Memory required for data: 5761704032
I0730 22:36:00.342059 18600 layer_factory.hpp:77] Creating layer conv9_2_mbox_loc
I0730 22:36:00.342059 18600 net.cpp:100] Creating Layer conv9_2_mbox_loc
I0730 22:36:00.342059 18600 net.cpp:434] conv9_2_mbox_loc <- conv9_2_conv9_2_relu_0_split_1
I0730 22:36:00.342059 18600 net.cpp:408] conv9_2_mbox_loc -> conv9_2_mbox_loc
I0730 22:36:00.344054 18600 net.cpp:150] Setting up conv9_2_mbox_loc
I0730 22:36:00.344054 18600 net.cpp:157] Top shape: 8 24 8 8 (12288)
I0730 22:36:00.345052 18600 net.cpp:165] Memory required for data: 5761753184
I0730 22:36:00.345052 18600 layer_factory.hpp:77] Creating layer conv9_2_mbox_loc_perm
I0730 22:36:00.345052 18600 net.cpp:100] Creating Layer conv9_2_mbox_loc_perm
I0730 22:36:00.345052 18600 net.cpp:434] conv9_2_mbox_loc_perm <- conv9_2_mbox_loc
I0730 22:36:00.345052 18600 net.cpp:408] conv9_2_mbox_loc_perm -> conv9_2_mbox_loc_perm
I0730 22:36:00.345052 18600 net.cpp:150] Setting up conv9_2_mbox_loc_perm
I0730 22:36:00.345052 18600 net.cpp:157] Top shape: 8 8 8 24 (12288)
I0730 22:36:00.345052 18600 net.cpp:165] Memory required for data: 5761802336
I0730 22:36:00.345052 18600 layer_factory.hpp:77] Creating layer conv9_2_mbox_loc_flat
I0730 22:36:00.345052 18600 net.cpp:100] Creating Layer conv9_2_mbox_loc_flat
I0730 22:36:00.345052 18600 net.cpp:434] conv9_2_mbox_loc_flat <- conv9_2_mbox_loc_perm
I0730 22:36:00.345052 18600 net.cpp:408] conv9_2_mbox_loc_flat -> conv9_2_mbox_loc_flat
I0730 22:36:00.345052 18600 net.cpp:150] Setting up conv9_2_mbox_loc_flat
I0730 22:36:00.345052 18600 net.cpp:157] Top shape: 8 1536 (12288)
I0730 22:36:00.345052 18600 net.cpp:165] Memory required for data: 5761851488
I0730 22:36:00.345052 18600 layer_factory.hpp:77] Creating layer conv9_2_mbox_conf
I0730 22:36:00.345052 18600 net.cpp:100] Creating Layer conv9_2_mbox_conf
I0730 22:36:00.345052 18600 net.cpp:434] conv9_2_mbox_conf <- conv9_2_conv9_2_relu_0_split_2
I0730 22:36:00.345052 18600 net.cpp:408] conv9_2_mbox_conf -> conv9_2_mbox_conf
I0730 22:36:00.348043 18600 net.cpp:150] Setting up conv9_2_mbox_conf
I0730 22:36:00.348043 18600 net.cpp:157] Top shape: 8 18 8 8 (9216)
I0730 22:36:00.348043 18600 net.cpp:165] Memory required for data: 5761888352
I0730 22:36:00.348043 18600 layer_factory.hpp:77] Creating layer conv9_2_mbox_conf_perm
I0730 22:36:00.348043 18600 net.cpp:100] Creating Layer conv9_2_mbox_conf_perm
I0730 22:36:00.348043 18600 net.cpp:434] conv9_2_mbox_conf_perm <- conv9_2_mbox_conf
I0730 22:36:00.348043 18600 net.cpp:408] conv9_2_mbox_conf_perm -> conv9_2_mbox_conf_perm
I0730 22:36:00.348043 18600 net.cpp:150] Setting up conv9_2_mbox_conf_perm
I0730 22:36:00.348043 18600 net.cpp:157] Top shape: 8 8 8 18 (9216)
I0730 22:36:00.348043 18600 net.cpp:165] Memory required for data: 5761925216
I0730 22:36:00.348043 18600 layer_factory.hpp:77] Creating layer conv9_2_mbox_conf_flat
I0730 22:36:00.348043 18600 net.cpp:100] Creating Layer conv9_2_mbox_conf_flat
I0730 22:36:00.348043 18600 net.cpp:434] conv9_2_mbox_conf_flat <- conv9_2_mbox_conf_perm
I0730 22:36:00.348043 18600 net.cpp:408] conv9_2_mbox_conf_flat -> conv9_2_mbox_conf_flat
I0730 22:36:00.348043 18600 net.cpp:150] Setting up conv9_2_mbox_conf_flat
I0730 22:36:00.348043 18600 net.cpp:157] Top shape: 8 1152 (9216)
I0730 22:36:00.348043 18600 net.cpp:165] Memory required for data: 5761962080
I0730 22:36:00.348043 18600 layer_factory.hpp:77] Creating layer conv9_2_mbox_priorbox
I0730 22:36:00.348043 18600 net.cpp:100] Creating Layer conv9_2_mbox_priorbox
I0730 22:36:00.348043 18600 net.cpp:434] conv9_2_mbox_priorbox <- conv9_2_conv9_2_relu_0_split_3
I0730 22:36:00.348043 18600 net.cpp:434] conv9_2_mbox_priorbox <- data_data_0_split_4
I0730 22:36:00.348043 18600 net.cpp:408] conv9_2_mbox_priorbox -> conv9_2_mbox_priorbox
I0730 22:36:00.348043 18600 net.cpp:150] Setting up conv9_2_mbox_priorbox
I0730 22:36:00.348043 18600 net.cpp:157] Top shape: 1 2 1536 (3072)
I0730 22:36:00.348043 18600 net.cpp:165] Memory required for data: 5761974368
I0730 22:36:00.348043 18600 layer_factory.hpp:77] Creating layer conv10_2_mbox_loc
I0730 22:36:00.348043 18600 net.cpp:100] Creating Layer conv10_2_mbox_loc
I0730 22:36:00.348043 18600 net.cpp:434] conv10_2_mbox_loc <- conv10_2_conv10_2_relu_0_split_1
I0730 22:36:00.348043 18600 net.cpp:408] conv10_2_mbox_loc -> conv10_2_mbox_loc
I0730 22:36:00.353029 18600 net.cpp:150] Setting up conv10_2_mbox_loc
I0730 22:36:00.353029 18600 net.cpp:157] Top shape: 8 24 4 4 (3072)
I0730 22:36:00.353029 18600 net.cpp:165] Memory required for data: 5761986656
I0730 22:36:00.353029 18600 layer_factory.hpp:77] Creating layer conv10_2_mbox_loc_perm
I0730 22:36:00.353029 18600 net.cpp:100] Creating Layer conv10_2_mbox_loc_perm
I0730 22:36:00.353029 18600 net.cpp:434] conv10_2_mbox_loc_perm <- conv10_2_mbox_loc
I0730 22:36:00.353029 18600 net.cpp:408] conv10_2_mbox_loc_perm -> conv10_2_mbox_loc_perm
I0730 22:36:00.353029 18600 net.cpp:150] Setting up conv10_2_mbox_loc_perm
I0730 22:36:00.354027 18600 net.cpp:157] Top shape: 8 4 4 24 (3072)
I0730 22:36:00.354027 18600 net.cpp:165] Memory required for data: 5761998944
I0730 22:36:00.354027 18600 layer_factory.hpp:77] Creating layer conv10_2_mbox_loc_flat
I0730 22:36:00.354027 18600 net.cpp:100] Creating Layer conv10_2_mbox_loc_flat
I0730 22:36:00.354027 18600 net.cpp:434] conv10_2_mbox_loc_flat <- conv10_2_mbox_loc_perm
I0730 22:36:00.354027 18600 net.cpp:408] conv10_2_mbox_loc_flat -> conv10_2_mbox_loc_flat
I0730 22:36:00.354027 18600 net.cpp:150] Setting up conv10_2_mbox_loc_flat
I0730 22:36:00.354027 18600 net.cpp:157] Top shape: 8 384 (3072)
I0730 22:36:00.354027 18600 net.cpp:165] Memory required for data: 5762011232
I0730 22:36:00.354027 18600 layer_factory.hpp:77] Creating layer conv10_2_mbox_conf
I0730 22:36:00.354027 18600 net.cpp:100] Creating Layer conv10_2_mbox_conf
I0730 22:36:00.354027 18600 net.cpp:434] conv10_2_mbox_conf <- conv10_2_conv10_2_relu_0_split_2
I0730 22:36:00.354027 18600 net.cpp:408] conv10_2_mbox_conf -> conv10_2_mbox_conf
I0730 22:36:00.357019 18600 net.cpp:150] Setting up conv10_2_mbox_conf
I0730 22:36:00.357019 18600 net.cpp:157] Top shape: 8 18 4 4 (2304)
I0730 22:36:00.357019 18600 net.cpp:165] Memory required for data: 5762020448
I0730 22:36:00.357019 18600 layer_factory.hpp:77] Creating layer conv10_2_mbox_conf_perm
I0730 22:36:00.357019 18600 net.cpp:100] Creating Layer conv10_2_mbox_conf_perm
I0730 22:36:00.357019 18600 net.cpp:434] conv10_2_mbox_conf_perm <- conv10_2_mbox_conf
I0730 22:36:00.357019 18600 net.cpp:408] conv10_2_mbox_conf_perm -> conv10_2_mbox_conf_perm
I0730 22:36:00.357019 18600 net.cpp:150] Setting up conv10_2_mbox_conf_perm
I0730 22:36:00.357019 18600 net.cpp:157] Top shape: 8 4 4 18 (2304)
I0730 22:36:00.357019 18600 net.cpp:165] Memory required for data: 5762029664
I0730 22:36:00.357019 18600 layer_factory.hpp:77] Creating layer conv10_2_mbox_conf_flat
I0730 22:36:00.357019 18600 net.cpp:100] Creating Layer conv10_2_mbox_conf_flat
I0730 22:36:00.357019 18600 net.cpp:434] conv10_2_mbox_conf_flat <- conv10_2_mbox_conf_perm
I0730 22:36:00.357019 18600 net.cpp:408] conv10_2_mbox_conf_flat -> conv10_2_mbox_conf_flat
I0730 22:36:00.357019 18600 net.cpp:150] Setting up conv10_2_mbox_conf_flat
I0730 22:36:00.357019 18600 net.cpp:157] Top shape: 8 288 (2304)
I0730 22:36:00.357019 18600 net.cpp:165] Memory required for data: 5762038880
I0730 22:36:00.357019 18600 layer_factory.hpp:77] Creating layer conv10_2_mbox_priorbox
I0730 22:36:00.357019 18600 net.cpp:100] Creating Layer conv10_2_mbox_priorbox
I0730 22:36:00.357019 18600 net.cpp:434] conv10_2_mbox_priorbox <- conv10_2_conv10_2_relu_0_split_3
I0730 22:36:00.357019 18600 net.cpp:434] conv10_2_mbox_priorbox <- data_data_0_split_5
I0730 22:36:00.357019 18600 net.cpp:408] conv10_2_mbox_priorbox -> conv10_2_mbox_priorbox
I0730 22:36:00.357019 18600 net.cpp:150] Setting up conv10_2_mbox_priorbox
I0730 22:36:00.357019 18600 net.cpp:157] Top shape: 1 2 384 (768)
I0730 22:36:00.357019 18600 net.cpp:165] Memory required for data: 5762041952
I0730 22:36:00.357019 18600 layer_factory.hpp:77] Creating layer conv11_2_mbox_loc
I0730 22:36:00.357019 18600 net.cpp:100] Creating Layer conv11_2_mbox_loc
I0730 22:36:00.357019 18600 net.cpp:434] conv11_2_mbox_loc <- conv11_2_conv11_2_relu_0_split_1
I0730 22:36:00.357019 18600 net.cpp:408] conv11_2_mbox_loc -> conv11_2_mbox_loc
I0730 22:36:00.361008 18600 net.cpp:150] Setting up conv11_2_mbox_loc
I0730 22:36:00.361008 18600 net.cpp:157] Top shape: 8 16 2 2 (512)
I0730 22:36:00.361008 18600 net.cpp:165] Memory required for data: 5762044000
I0730 22:36:00.361008 18600 layer_factory.hpp:77] Creating layer conv11_2_mbox_loc_perm
I0730 22:36:00.361008 18600 net.cpp:100] Creating Layer conv11_2_mbox_loc_perm
I0730 22:36:00.361008 18600 net.cpp:434] conv11_2_mbox_loc_perm <- conv11_2_mbox_loc
I0730 22:36:00.361008 18600 net.cpp:408] conv11_2_mbox_loc_perm -> conv11_2_mbox_loc_perm
I0730 22:36:00.361008 18600 net.cpp:150] Setting up conv11_2_mbox_loc_perm
I0730 22:36:00.361008 18600 net.cpp:157] Top shape: 8 2 2 16 (512)
I0730 22:36:00.361008 18600 net.cpp:165] Memory required for data: 5762046048
I0730 22:36:00.361008 18600 layer_factory.hpp:77] Creating layer conv11_2_mbox_loc_flat
I0730 22:36:00.361008 18600 net.cpp:100] Creating Layer conv11_2_mbox_loc_flat
I0730 22:36:00.361008 18600 net.cpp:434] conv11_2_mbox_loc_flat <- conv11_2_mbox_loc_perm
I0730 22:36:00.361008 18600 net.cpp:408] conv11_2_mbox_loc_flat -> conv11_2_mbox_loc_flat
I0730 22:36:00.361008 18600 net.cpp:150] Setting up conv11_2_mbox_loc_flat
I0730 22:36:00.361008 18600 net.cpp:157] Top shape: 8 64 (512)
I0730 22:36:00.361008 18600 net.cpp:165] Memory required for data: 5762048096
I0730 22:36:00.361008 18600 layer_factory.hpp:77] Creating layer conv11_2_mbox_conf
I0730 22:36:00.361008 18600 net.cpp:100] Creating Layer conv11_2_mbox_conf
I0730 22:36:00.361008 18600 net.cpp:434] conv11_2_mbox_conf <- conv11_2_conv11_2_relu_0_split_2
I0730 22:36:00.361008 18600 net.cpp:408] conv11_2_mbox_conf -> conv11_2_mbox_conf
I0730 22:36:00.364001 18600 net.cpp:150] Setting up conv11_2_mbox_conf
I0730 22:36:00.364001 18600 net.cpp:157] Top shape: 8 12 2 2 (384)
I0730 22:36:00.364001 18600 net.cpp:165] Memory required for data: 5762049632
I0730 22:36:00.364001 18600 layer_factory.hpp:77] Creating layer conv11_2_mbox_conf_perm
I0730 22:36:00.364001 18600 net.cpp:100] Creating Layer conv11_2_mbox_conf_perm
I0730 22:36:00.364001 18600 net.cpp:434] conv11_2_mbox_conf_perm <- conv11_2_mbox_conf
I0730 22:36:00.364001 18600 net.cpp:408] conv11_2_mbox_conf_perm -> conv11_2_mbox_conf_perm
I0730 22:36:00.364001 18600 net.cpp:150] Setting up conv11_2_mbox_conf_perm
I0730 22:36:00.364001 18600 net.cpp:157] Top shape: 8 2 2 12 (384)
I0730 22:36:00.364001 18600 net.cpp:165] Memory required for data: 5762051168
I0730 22:36:00.364001 18600 layer_factory.hpp:77] Creating layer conv11_2_mbox_conf_flat
I0730 22:36:00.364001 18600 net.cpp:100] Creating Layer conv11_2_mbox_conf_flat
I0730 22:36:00.364001 18600 net.cpp:434] conv11_2_mbox_conf_flat <- conv11_2_mbox_conf_perm
I0730 22:36:00.364001 18600 net.cpp:408] conv11_2_mbox_conf_flat -> conv11_2_mbox_conf_flat
I0730 22:36:00.364001 18600 net.cpp:150] Setting up conv11_2_mbox_conf_flat
I0730 22:36:00.364001 18600 net.cpp:157] Top shape: 8 48 (384)
I0730 22:36:00.364001 18600 net.cpp:165] Memory required for data: 5762052704
I0730 22:36:00.364001 18600 layer_factory.hpp:77] Creating layer conv11_2_mbox_priorbox
I0730 22:36:00.364001 18600 net.cpp:100] Creating Layer conv11_2_mbox_priorbox
I0730 22:36:00.364001 18600 net.cpp:434] conv11_2_mbox_priorbox <- conv11_2_conv11_2_relu_0_split_3
I0730 22:36:00.364001 18600 net.cpp:434] conv11_2_mbox_priorbox <- data_data_0_split_6
I0730 22:36:00.364001 18600 net.cpp:408] conv11_2_mbox_priorbox -> conv11_2_mbox_priorbox
I0730 22:36:00.364001 18600 net.cpp:150] Setting up conv11_2_mbox_priorbox
I0730 22:36:00.364001 18600 net.cpp:157] Top shape: 1 2 64 (128)
I0730 22:36:00.364001 18600 net.cpp:165] Memory required for data: 5762053216
I0730 22:36:00.364001 18600 layer_factory.hpp:77] Creating layer conv12_2_mbox_loc
I0730 22:36:00.364001 18600 net.cpp:100] Creating Layer conv12_2_mbox_loc
I0730 22:36:00.364001 18600 net.cpp:434] conv12_2_mbox_loc <- conv12_2_conv12_2_relu_0_split_0
I0730 22:36:00.364001 18600 net.cpp:408] conv12_2_mbox_loc -> conv12_2_mbox_loc
I0730 22:36:00.366992 18600 net.cpp:150] Setting up conv12_2_mbox_loc
I0730 22:36:00.366992 18600 net.cpp:157] Top shape: 8 16 1 1 (128)
I0730 22:36:00.366992 18600 net.cpp:165] Memory required for data: 5762053728
I0730 22:36:00.366992 18600 layer_factory.hpp:77] Creating layer conv12_2_mbox_loc_perm
I0730 22:36:00.366992 18600 net.cpp:100] Creating Layer conv12_2_mbox_loc_perm
I0730 22:36:00.366992 18600 net.cpp:434] conv12_2_mbox_loc_perm <- conv12_2_mbox_loc
I0730 22:36:00.366992 18600 net.cpp:408] conv12_2_mbox_loc_perm -> conv12_2_mbox_loc_perm
I0730 22:36:00.366992 18600 net.cpp:150] Setting up conv12_2_mbox_loc_perm
I0730 22:36:00.366992 18600 net.cpp:157] Top shape: 8 1 1 16 (128)
I0730 22:36:00.366992 18600 net.cpp:165] Memory required for data: 5762054240
I0730 22:36:00.366992 18600 layer_factory.hpp:77] Creating layer conv12_2_mbox_loc_flat
I0730 22:36:00.366992 18600 net.cpp:100] Creating Layer conv12_2_mbox_loc_flat
I0730 22:36:00.366992 18600 net.cpp:434] conv12_2_mbox_loc_flat <- conv12_2_mbox_loc_perm
I0730 22:36:00.366992 18600 net.cpp:408] conv12_2_mbox_loc_flat -> conv12_2_mbox_loc_flat
I0730 22:36:00.366992 18600 net.cpp:150] Setting up conv12_2_mbox_loc_flat
I0730 22:36:00.366992 18600 net.cpp:157] Top shape: 8 16 (128)
I0730 22:36:00.366992 18600 net.cpp:165] Memory required for data: 5762054752
I0730 22:36:00.366992 18600 layer_factory.hpp:77] Creating layer conv12_2_mbox_conf
I0730 22:36:00.366992 18600 net.cpp:100] Creating Layer conv12_2_mbox_conf
I0730 22:36:00.366992 18600 net.cpp:434] conv12_2_mbox_conf <- conv12_2_conv12_2_relu_0_split_1
I0730 22:36:00.366992 18600 net.cpp:408] conv12_2_mbox_conf -> conv12_2_mbox_conf
I0730 22:36:00.370981 18600 net.cpp:150] Setting up conv12_2_mbox_conf
I0730 22:36:00.371979 18600 net.cpp:157] Top shape: 8 12 1 1 (96)
I0730 22:36:00.371979 18600 net.cpp:165] Memory required for data: 5762055136
I0730 22:36:00.371979 18600 layer_factory.hpp:77] Creating layer conv12_2_mbox_conf_perm
I0730 22:36:00.371979 18600 net.cpp:100] Creating Layer conv12_2_mbox_conf_perm
I0730 22:36:00.371979 18600 net.cpp:434] conv12_2_mbox_conf_perm <- conv12_2_mbox_conf
I0730 22:36:00.371979 18600 net.cpp:408] conv12_2_mbox_conf_perm -> conv12_2_mbox_conf_perm
I0730 22:36:00.371979 18600 net.cpp:150] Setting up conv12_2_mbox_conf_perm
I0730 22:36:00.371979 18600 net.cpp:157] Top shape: 8 1 1 12 (96)
I0730 22:36:00.371979 18600 net.cpp:165] Memory required for data: 5762055520
I0730 22:36:00.371979 18600 layer_factory.hpp:77] Creating layer conv12_2_mbox_conf_flat
I0730 22:36:00.371979 18600 net.cpp:100] Creating Layer conv12_2_mbox_conf_flat
I0730 22:36:00.371979 18600 net.cpp:434] conv12_2_mbox_conf_flat <- conv12_2_mbox_conf_perm
I0730 22:36:00.371979 18600 net.cpp:408] conv12_2_mbox_conf_flat -> conv12_2_mbox_conf_flat
I0730 22:36:00.371979 18600 net.cpp:150] Setting up conv12_2_mbox_conf_flat
I0730 22:36:00.371979 18600 net.cpp:157] Top shape: 8 12 (96)
I0730 22:36:00.371979 18600 net.cpp:165] Memory required for data: 5762055904
I0730 22:36:00.371979 18600 layer_factory.hpp:77] Creating layer conv12_2_mbox_priorbox
I0730 22:36:00.371979 18600 net.cpp:100] Creating Layer conv12_2_mbox_priorbox
I0730 22:36:00.371979 18600 net.cpp:434] conv12_2_mbox_priorbox <- conv12_2_conv12_2_relu_0_split_2
I0730 22:36:00.371979 18600 net.cpp:434] conv12_2_mbox_priorbox <- data_data_0_split_7
I0730 22:36:00.371979 18600 net.cpp:408] conv12_2_mbox_priorbox -> conv12_2_mbox_priorbox
I0730 22:36:00.371979 18600 net.cpp:150] Setting up conv12_2_mbox_priorbox
I0730 22:36:00.371979 18600 net.cpp:157] Top shape: 1 2 16 (32)
I0730 22:36:00.371979 18600 net.cpp:165] Memory required for data: 5762056032
I0730 22:36:00.371979 18600 layer_factory.hpp:77] Creating layer mbox_loc
I0730 22:36:00.371979 18600 net.cpp:100] Creating Layer mbox_loc
I0730 22:36:00.371979 18600 net.cpp:434] mbox_loc <- conv4_3_norm_mbox_loc_flat
I0730 22:36:00.371979 18600 net.cpp:434] mbox_loc <- fc7_mbox_loc_flat
I0730 22:36:00.371979 18600 net.cpp:434] mbox_loc <- conv8_2_mbox_loc_flat
I0730 22:36:00.371979 18600 net.cpp:434] mbox_loc <- conv9_2_mbox_loc_flat
I0730 22:36:00.371979 18600 net.cpp:434] mbox_loc <- conv10_2_mbox_loc_flat
I0730 22:36:00.371979 18600 net.cpp:434] mbox_loc <- conv11_2_mbox_loc_flat
I0730 22:36:00.371979 18600 net.cpp:434] mbox_loc <- conv12_2_mbox_loc_flat
I0730 22:36:00.371979 18600 net.cpp:408] mbox_loc -> mbox_loc
I0730 22:36:00.371979 18600 net.cpp:150] Setting up mbox_loc
I0730 22:36:00.371979 18600 net.cpp:157] Top shape: 8 98256 (786048)
I0730 22:36:00.371979 18600 net.cpp:165] Memory required for data: 5765200224
I0730 22:36:00.371979 18600 layer_factory.hpp:77] Creating layer mbox_conf
I0730 22:36:00.371979 18600 net.cpp:100] Creating Layer mbox_conf
I0730 22:36:00.371979 18600 net.cpp:434] mbox_conf <- conv4_3_norm_mbox_conf_flat
I0730 22:36:00.371979 18600 net.cpp:434] mbox_conf <- fc7_mbox_conf_flat
I0730 22:36:00.371979 18600 net.cpp:434] mbox_conf <- conv8_2_mbox_conf_flat
I0730 22:36:00.371979 18600 net.cpp:434] mbox_conf <- conv9_2_mbox_conf_flat
I0730 22:36:00.371979 18600 net.cpp:434] mbox_conf <- conv10_2_mbox_conf_flat
I0730 22:36:00.371979 18600 net.cpp:434] mbox_conf <- conv11_2_mbox_conf_flat
I0730 22:36:00.371979 18600 net.cpp:434] mbox_conf <- conv12_2_mbox_conf_flat
I0730 22:36:00.371979 18600 net.cpp:408] mbox_conf -> mbox_conf
I0730 22:36:00.371979 18600 net.cpp:150] Setting up mbox_conf
I0730 22:36:00.371979 18600 net.cpp:157] Top shape: 8 73692 (589536)
I0730 22:36:00.371979 18600 net.cpp:165] Memory required for data: 5767558368
I0730 22:36:00.371979 18600 layer_factory.hpp:77] Creating layer mbox_priorbox
I0730 22:36:00.371979 18600 net.cpp:100] Creating Layer mbox_priorbox
I0730 22:36:00.371979 18600 net.cpp:434] mbox_priorbox <- conv4_3_norm_mbox_priorbox
I0730 22:36:00.371979 18600 net.cpp:434] mbox_priorbox <- fc7_mbox_priorbox
I0730 22:36:00.371979 18600 net.cpp:434] mbox_priorbox <- conv8_2_mbox_priorbox
I0730 22:36:00.371979 18600 net.cpp:434] mbox_priorbox <- conv9_2_mbox_priorbox
I0730 22:36:00.371979 18600 net.cpp:434] mbox_priorbox <- conv10_2_mbox_priorbox
I0730 22:36:00.371979 18600 net.cpp:434] mbox_priorbox <- conv11_2_mbox_priorbox
I0730 22:36:00.371979 18600 net.cpp:434] mbox_priorbox <- conv12_2_mbox_priorbox
I0730 22:36:00.371979 18600 net.cpp:408] mbox_priorbox -> mbox_priorbox
I0730 22:36:00.371979 18600 net.cpp:150] Setting up mbox_priorbox
I0730 22:36:00.371979 18600 net.cpp:157] Top shape: 1 2 98256 (196512)
I0730 22:36:00.371979 18600 net.cpp:165] Memory required for data: 5768344416
I0730 22:36:00.371979 18600 layer_factory.hpp:77] Creating layer mbox_conf_reshape
I0730 22:36:00.371979 18600 net.cpp:100] Creating Layer mbox_conf_reshape
I0730 22:36:00.371979 18600 net.cpp:434] mbox_conf_reshape <- mbox_conf
I0730 22:36:00.371979 18600 net.cpp:408] mbox_conf_reshape -> mbox_conf_reshape
I0730 22:36:00.371979 18600 net.cpp:150] Setting up mbox_conf_reshape
I0730 22:36:00.371979 18600 net.cpp:157] Top shape: 8 24564 3 (589536)
I0730 22:36:00.371979 18600 net.cpp:165] Memory required for data: 5770702560
I0730 22:36:00.371979 18600 layer_factory.hpp:77] Creating layer mbox_conf_softmax
I0730 22:36:00.371979 18600 net.cpp:100] Creating Layer mbox_conf_softmax
I0730 22:36:00.371979 18600 net.cpp:434] mbox_conf_softmax <- mbox_conf_reshape
I0730 22:36:00.371979 18600 net.cpp:408] mbox_conf_softmax -> mbox_conf_softmax
I0730 22:36:00.372977 18600 net.cpp:150] Setting up mbox_conf_softmax
I0730 22:36:00.372977 18600 net.cpp:157] Top shape: 8 24564 3 (589536)
I0730 22:36:00.372977 18600 net.cpp:165] Memory required for data: 5773060704
I0730 22:36:00.372977 18600 layer_factory.hpp:77] Creating layer mbox_conf_flatten
I0730 22:36:00.372977 18600 net.cpp:100] Creating Layer mbox_conf_flatten
I0730 22:36:00.372977 18600 net.cpp:434] mbox_conf_flatten <- mbox_conf_softmax
I0730 22:36:00.372977 18600 net.cpp:408] mbox_conf_flatten -> mbox_conf_flatten
I0730 22:36:00.372977 18600 net.cpp:150] Setting up mbox_conf_flatten
I0730 22:36:00.372977 18600 net.cpp:157] Top shape: 8 73692 (589536)
I0730 22:36:00.372977 18600 net.cpp:165] Memory required for data: 5775418848
I0730 22:36:00.372977 18600 layer_factory.hpp:77] Creating layer detection_out
I0730 22:36:00.372977 18600 net.cpp:100] Creating Layer detection_out
I0730 22:36:00.372977 18600 net.cpp:434] detection_out <- mbox_loc
I0730 22:36:00.372977 18600 net.cpp:434] detection_out <- mbox_conf_flatten
I0730 22:36:00.372977 18600 net.cpp:434] detection_out <- mbox_priorbox
I0730 22:36:00.372977 18600 net.cpp:408] detection_out -> detection_out
I0730 22:36:00.374970 18600 net.cpp:150] Setting up detection_out
I0730 22:36:00.374970 18600 net.cpp:157] Top shape: 1 1 1 7 (7)
I0730 22:36:00.374970 18600 net.cpp:165] Memory required for data: 5775418876
I0730 22:36:00.374970 18600 layer_factory.hpp:77] Creating layer detection_eval
I0730 22:36:00.374970 18600 net.cpp:100] Creating Layer detection_eval
I0730 22:36:00.374970 18600 net.cpp:434] detection_eval <- detection_out
I0730 22:36:00.374970 18600 net.cpp:434] detection_eval <- label
I0730 22:36:00.374970 18600 net.cpp:408] detection_eval -> detection_eval
I0730 22:36:00.375968 18600 net.cpp:150] Setting up detection_eval
I0730 22:36:00.375968 18600 net.cpp:157] Top shape: 1 1 3 5 (15)
I0730 22:36:00.375968 18600 net.cpp:165] Memory required for data: 5775418936
I0730 22:36:00.375968 18600 net.cpp:228] detection_eval does not need backward computation.
I0730 22:36:00.375968 18600 net.cpp:228] detection_out does not need backward computation.
I0730 22:36:00.375968 18600 net.cpp:228] mbox_conf_flatten does not need backward computation.
I0730 22:36:00.375968 18600 net.cpp:228] mbox_conf_softmax does not need backward computation.
…
