…
      sampler {
        min_scale: 0.3
        max_scale: 1
        min_aspect_ratio: 0.5
        max_aspect_ratio: 2
      }
      sample_constraint {
        min_jaccard_overlap: 0.9
      }
      max_sample: 1
      max_trials: 50
    }
    batch_sampler {
      sampler {
        min_scale: 0.3
        max_scale: 1
        min_aspect_ratio: 0.5
        max_aspect_ratio: 2
      }
      sample_constraint {
        max_jaccard_overlap: 1
      }
      max_sample: 1
      max_trials: 50
    }
    label_map_file: "data\\wastedata\\labelmap_waste.prototxt"
  }
}
layer {
  name: "conv1_1"
  type: "Convolution"
  bottom: "data"
  top: "conv1_1"
  param {
    lr_mult: 1
    decay_mult: 1
  }
  param {
    lr_mult: 1
    decay_mult: 0
  }
  convolution_param {
    num_output: 64
    pad: 1
    kernel_size: 3
    weight_filler {
      type: "xavier"
    }
    bias_filler {
      type: "constant"
      value: 0
    }
  }
}
layer {
  name: "relu1_1"
  type: "ReLU"
  bottom: "conv1_1"
  top: "conv1_1"
}
layer {
  name: "conv1_2"
  type: "Convolution"
  bottom: "conv1_1"
  top: "conv1_2"
  param {
    lr_mult: 1
    decay_mult: 1
  }
  param {
    lr_mult: 1
    decay_mult: 0
  }
  convolution_param {
    num_output: 64
    pad: 1
    kernel_size: 3
    weight_filler {
      type: "xavier"
    }
    bias_filler {
      type: "constant"
      value: 0
    }
  }
}
layer {
  name: "relu1_2"
  type: "ReLU"
  bottom: "conv1_2"
  top: "conv1_2"
}
layer {
  name: "pool1"
  type: "Pooling"
  bottom: "conv1_2"
  top: "pool1"
  pooling_param {
    pool: MAX
    kernel_size: 2
    stride: 2
  }
}
layer {
  name: "conv2_1"
  type: "Convolution"
  bottom: "pool1"
  top: "conv2_1"
  param {
    lr_mult: 1
    decay_mult: 1
  }
  param {
    lr_mult: 1
    decay_mult: 0
  }
  convolution_param {
    num_output: 128
    pad: 1
    kernel_size: 3
    weight_filler {
      type: "xavier"
    }
    bias_filler {
      type: "constant"
      value: 0
    }
  }
}
layer {
  name: "relu2_1"
  type: "ReLU"
  bottom: "conv2_1"
  top: "conv2_1"
}
layer {
  name: "conv2_2"
  type: "Convolution"
  bottom: "conv2_1"
  top: "conv2_2"
  param {
    lr_mult: 1
    decay_mult: 1
  }
  param {
    lr_mult: 1
    decay_mult: 0
  }
  convolution_param {
    num_output: 128
    pad: 1
    kernel_size: 3
    weight_filler {
      type: "xavier"
    }
    bias_filler {
      type: "constant"
      value: 0
    }
  }
}
layer {
  name: "relu2_2"
  type: "ReLU"
  bottom: "conv2_2"
  top: "conv2_2"
}
layer {
  name: "pool2"
  type: "Pooling"
  bottom: "conv2_2"
  top: "pool2"
  pooling_param {
    pool: MAX
    kernel_size: 2
    stride: 2
  }
}
layer {
  name: "conv3_1"
  type: "Convolution"
  bottom: "pool2"
  top: "conv3_1"
  param {
    lr_mult: 1
    decay_mult: 1
  }
  param {
    lr_mult: 1
    decay_mult: 0
  }
  convolution_param {
    num_output: 256
    pad: 1
    kernel_size: 3
    weight_filler {
      type: "xavier"
    }
    bias_filler {
      type: "constant"
      value: 0
    }
  }
}
layer {
  name: "relu3_1"
  type: "ReLU"
  bottom: "conv3_1"
  top: "conv3_1"
}
layer {
  name: "conv3_2"
  type: "Convolution"
  bottom: "conv3_1"
  top: "conv3_2"
  param {
    lr_mult: 1
    decay_mult: 1
  }
  param {
    lr_mult: 1
    decay_mult: 0
  }
  convolution_param {
    num_output: 256
    pad: 1
    kernel_size: 3
    weight_filler {
      type: "xavier"
    }
    bias_filler {
      type: "constant"
      value: 0
    }
  }
}
layer {
  name: "relu3_2"
  type: "ReLU"
  bottom: "conv3_2"
  top: "conv3_2"
}
layer {
  name: "conv3_3"
  type: "Convolution"
  bottom: "conv3_2"
  top: "conv3_3"
  param {
    lr_mult: 1
    decay_mult: 1
  }
  param {
    lr_mult: 1
    decay_mult: 0
  }
  convolution_param {
    num_output: 256
    pad: 1
    kernel_size: 3
    weight_filler {
      type: "xavier"
    }
    bias_filler {
      type: "constant"
      value: 0
    }
  }
}
layer {
  name: "relu3_3"
  type: "ReLU"
  bottom: "conv3_3"
  top: "conv3_3"
}
layer {
  name: "pool3"
  type: "Pooling"
  bottom: "conv3_3"
  top: "pool3"
  pooling_param {
    pool: MAX
    kernel_size: 2
    stride: 2
  }
}
layer {
  name: "conv4_1"
  type: "Convolution"
  bottom: "pool3"
  top: "conv4_1"
  param {
    lr_mult: 1
    decay_mult: 1
  }
  param {
    lr_mult: 1
    decay_mult: 0
  }
  convolution_param {
    num_output: 512
    pad: 1
    kernel_size: 3
    weight_filler {
      type: "xavier"
    }
    bias_filler {
      type: "constant"
      value: 0
    }
  }
}
layer {
  name: "relu4_1"
  type: "ReLU"
  bottom: "conv4_1"
  top: "conv4_1"
}
layer {
  name: "conv4_2"
  type: "Convolution"
  bottom: "conv4_1"
  top: "conv4_2"
  param {
    lr_mult: 1
    decay_mult: 1
  }
  param {
    lr_mult: 1
    decay_mult: 0
  }
  convolution_param {
    num_output: 512
    pad: 1
    kernel_size: 3
    weight_filler {
      type: "xavier"
    }
    bias_filler {
      type: "constant"
      value: 0
    }
  }
}
layer {
  name: "relu4_2"
  type: "ReLU"
  bottom: "conv4_2"
  top: "conv4_2"
}
layer {
  name: "conv4_3"
  type: "Convolution"
  bottom: "conv4_2"
  top: "conv4_3"
  param {
    lr_mult: 1
    decay_mult: 1
  }
  param {
    lr_mult: 1
    decay_mult: 0
  }
  convolution_param {
    num_output: 512
    pad: 1
    kernel_size: 3
    weight_filler {
      type: "xavier"
    }
    bias_filler {
      type: "constant"
      value: 0
    }
  }
}
layer {
  name: "relu4_3"
  type: "ReLU"
  bottom: "conv4_3"
  top: "conv4_3"
}
layer {
  name: "pool4"
  type: "Pooling"
  bottom: "conv4_3"
  top: "pool4"
  pooling_param {
    pool: MAX
    kernel_size: 2
    stride: 2
  }
}
layer {
  name: "conv5_1"
  type: "Convolution"
  bottom: "pool4"
  top: "conv5_1"
  param {
    lr_mult: 1
    decay_mult: 1
  }
  param {
    lr_mult: 1
    decay_mult: 0
  }
  convolution_param {
    num_output: 512
    pad: 1
    kernel_size: 3
    weight_filler {
      type: "xavier"
    }
    bias_filler {
      type: "constant"
      value: 0
    }
    dilation: 1
  }
}
layer {
  name: "relu5_1"
  type: "ReLU"
  bottom: "conv5_1"
  top: "conv5_1"
}
layer {
  name: "conv5_2"
  type: "Convolution"
  bottom: "conv5_1"
  top: "conv5_2"
  param {
    lr_mult: 1
    decay_mult: 1
  }
  param {
    lr_mult: 1
    decay_mult: 0
  }
  convolution_param {
    num_output: 512
    pad: 1
    kernel_size: 3
    weight_filler {
      type: "xavier"
    }
    bias_filler {
      type: "constant"
      value: 0
    }
    dilation: 1
  }
}
layer {
  name: "relu5_2"
  type: "ReLU"
  bottom: "conv5_2"
  top: "conv5_2"
}
layer {
  name: "conv5_3"
  type: "Convolution"
  bottom: "conv5_2"
  top: "conv5_3"
  param {
    lr_mult: 1
    decay_mult: 1
  }
  param {
    lr_mult: 1
    decay_mult: 0
  }
  convolution_param {
    num_output: 512
    pad: 1
    kernel_size: 3
    weight_filler {
      type: "xavier"
    }
    bias_filler {
      type: "constant"
      value: 0
    }
    dilation: 1
  }
}
layer {
  name: "relu5_3"
  type: "ReLU"
  bottom: "conv5_3"
  top: "conv5_3"
}
layer {
  name: "pool5"
  type: "Pooling"
  bottom: "conv5_3"
  top: "pool5"
  pooling_param {
    pool: MAX
    kernel_size: 3
    stride: 1
    pad: 1
  }
}
layer {
  name: "fc6"
  type: "Convolution"
  bottom: "pool5"
  top: "fc6"
  param {
    lr_mult: 1
    decay_mult: 1
  }
  param {
    lr_mult: 1
    decay_mult: 0
  }
  convolution_param {
    num_output: 1024
    pad: 6
    kernel_size: 3
    weight_filler {
      type: "xavier"
    }
    bias_filler {
      type: "constant"
      value: 0
    }
    dilation: 6
  }
}
layer {
  name: "relu6"
  type: "ReLU"
  bottom: "fc6"
  top: "fc6"
}
layer {
  name: "fc7"
  type: "Convolution"
  bottom: "fc6"
  top: "fc7"
  param {
    lr_mult: 1
    decay_mult: 1
  }
  param {
    lr_mult: 1
    decay_mult: 0
  }
  convolution_param {
    num_output: 1024
    kernel_size: 1
    weight_filler {
      type: "xavier"
    }
    bias_filler {
      type: "constant"
      value: 0
    }
  }
}
layer {
  name: "relu7"
  type: "ReLU"
  bottom: "fc7"
  top: "fc7"
}
layer {
  name: "conv8_1"
  type: "Convolution"
  bottom: "fc7"
  top: "conv8_1"
  param {
    lr_mult: 1
    decay_mult: 1
  }
  param {
    lr_mult: 2
    decay_mult: 0
  }
  convolution_param {
    num_output: 256
    pad: 0
    kernel_size: 1
    stride: 1
    weight_filler {
      type: "xavier"
    }
    bias_filler {
      type: "constant"
      value: 0
    }
  }
}
layer {
  name: "conv8_1_relu"
  type: "ReLU"
  bottom: "conv8_1"
  top: "conv8_1"
}
layer {
  name: "conv8_2"
  type: "Convolution"
  bottom: "conv8_1"
  top: "conv8_2"
  param {
    lr_mult: 1
    decay_mult: 1
  }
  param {
    lr_mult: 2
    decay_mult: 0
  }
  convolution_param {
    num_output: 512
    pad: 1
    kernel_size: 3
    stride: 2
    weight_filler {
      type: "xavier"
    }
    bias_filler {
      type: "constant"
      value: 0
    }
  }
}
layer {
  name: "conv8_2_relu"
  type: "ReLU"
  bottom: "conv8_2"
  top: "conv8_2"
}
layer {
  name: "conv9_1"
  type: "Convolution"
  bottom: "conv8_2"
  top: "conv9_1"
  param {
    lr_mult: 1
    decay_mult: 1
  }
  param {
    lr_mult: 2
    decay_mult: 0
  }
  convolution_param {
    num_output: 128
    pad: 0
    kernel_size: 1
    stride: 1
    weight_filler {
      type: "xavier"
    }
    bias_filler {
      type: "constant"
      value: 0
    }
  }
}
layer {
  name: "conv9_1_relu"
  type: "ReLU"
  bottom: "conv9_1"
  top: "conv9_1"
}
layer {
  name: "conv9_2"
  type: "Convolution"
  bottom: "conv9_1"
  top: "conv9_2"
  param {
    lr_mult: 1
    decay_mult: 1
  }
  param {
    lr_mult: 2
    decay_mult: 0
  }
  convolution_param {
    num_output: 256
    pad: 1
    kernel_size: 3
    stride: 2
    weight_filler {
      type: "xavier"
    }
    bias_filler {
      type: "constant"
      value: 0
    }
  }
}
layer {
  name: "conv9_2_relu"
  type: "ReLU"
  bottom: "conv9_2"
  top: "conv9_2"
}
layer {
  name: "conv10_1"
  type: "Convolution"
  bottom: "conv9_2"
  top: "conv10_1"
  param {
    lr_mult: 1
    decay_mult: 1
  }
  param {
    lr_mult: 2
    decay_mult: 0
  }
  convolution_param {
    num_output: 128
    pad: 0
    kernel_size: 1
    stride: 1
    weight_filler {
      type: "xavier"
    }
    bias_filler {
      type: "constant"
      value: 0
    }
  }
}
layer {
  name: "conv10_1_relu"
  type: "ReLU"
  bottom: "conv10_1"
  top: "conv10_1"
}
layer {
  name: "conv10_2"
  type: "Convolution"
  bottom: "conv10_1"
  top: "conv10_2"
  param {
    lr_mult: 1
    decay_mult: 1
  }
  param {
    lr_mult: 2
    decay_mult: 0
  }
  convolution_param {
    num_output: 256
    pad: 0
    kernel_size: 3
    stride: 1
    weight_filler {
      type: "xavier"
    }
    bias_filler {
      type: "constant"
      value: 0
    }
  }
}
layer {
  name: "conv10_2_relu"
  type: "ReLU"
  bottom: "conv10_2"
  top: "conv10_2"
}
layer {
  name: "conv11_1"
  type: "Convolution"
  bottom: "conv10_2"
  top: "conv11_1"
  param {
    lr_mult: 1
    decay_mult: 1
  }
  param {
    lr_mult: 2
    decay_mult: 0
  }
  convolution_param {
    num_output: 128
    pad: 0
    kernel_size: 1
    stride: 1
    weight_filler {
      type: "xavier"
    }
    bias_filler {
      type: "constant"
      value: 0
    }
  }
}
layer {
  name: "conv11_1_relu"
  type: "ReLU"
  bottom: "conv11_1"
  top: "conv11_1"
}
layer {
  name: "conv11_2"
  type: "Convolution"
  bottom: "conv11_1"
  top: "conv11_2"
  param {
    lr_mult: 1
    decay_mult: 1
  }
  param {
    lr_mult: 2
    decay_mult: 0
  }
  convolution_param {
    num_output: 256
    pad: 0
    kernel_size: 3
    stride: 1
    weight_filler {
      type: "xavier"
    }
    bias_filler {
      type: "constant"
      value: 0
    }
  }
}
layer {
  name: "conv11_2_relu"
  type: "ReLU"
  bottom: "conv11_2"
  top: "conv11_2"
}
layer {
  name: "conv4_3_norm"
  type: "Normalize"
  bottom: "conv4_3"
  top: "conv4_3_norm"
  norm_param {
    across_spatial: false
    scale_filler {
      type: "constant"
      value: 20
    }
    channel_shared: false
  }
}
layer {
  name: "conv4_3_norm_mbox_loc"
  type: "Convolution"
  bottom: "conv4_3_norm"
  top: "conv4_3_norm_mbox_loc"
  param {
    lr_mult: 1
    decay_mult: 1
  }
  param {
    lr_mult: 2
    decay_mult: 0
  }
  convolution_param {
    num_output: 16
    pad: 1
    kernel_size: 3
    stride: 1
    weight_filler {
      type: "xavier"
    }
    bias_filler {
      type: "constant"
      value: 0
    }
  }
}
layer {
  name: "conv4_3_norm_mbox_loc_perm"
  type: "Permute"
  bottom: "conv4_3_norm_mbox_loc"
  top: "conv4_3_norm_mbox_loc_perm"
  permute_param {
    order: 0
    order: 2
    order: 3
    order: 1
  }
}
layer {
  name: "conv4_3_norm_mbox_loc_flat"
  type: "Flatten"
  bottom: "conv4_3_norm_mbox_loc_perm"
  top: "conv4_3_norm_mbox_loc_flat"
  flatten_param {
    axis: 1
  }
}
layer {
  name: "conv4_3_norm_mbox_conf"
  type: "Convolution"
  bottom: "conv4_3_norm"
  top: "conv4_3_norm_mbox_conf"
  param {
    lr_mult: 1
    decay_mult: 1
  }
  param {
    lr_mult: 2
    decay_mult: 0
  }
  convolution_param {
    num_output: 12
    pad: 1
    kernel_size: 3
    stride: 1
    weight_filler {
      type: "xavier"
    }
    bias_filler {
      type: "constant"
      value: 0
    }
  }
}
layer {
  name: "conv4_3_norm_mbox_conf_perm"
  type: "Permute"
  bottom: "conv4_3_norm_mbox_conf"
  top: "conv4_3_norm_mbox_conf_perm"
  permute_param {
    order: 0
    order: 2
    order: 3
    order: 1
  }
}
layer {
  name: "conv4_3_norm_mbox_conf_flat"
  type: "Flatten"
  bottom: "conv4_3_norm_mbox_conf_perm"
  top: "conv4_3_norm_mbox_conf_flat"
  flatten_param {
    axis: 1
  }
}
layer {
  name: "conv4_3_norm_mbox_priorbox"
  type: "PriorBox"
  bottom: "conv4_3_norm"
  bottom: "data"
  top: "conv4_3_norm_mbox_priorbox"
  prior_box_param {
    min_size: 30
    max_size: 60
    aspect_ratio: 2
    flip: true
    clip: false
    variance: 0.1
    variance: 0.1
    variance: 0.2
    variance: 0.2
    step: 8
    offset: 0.5
  }
}
layer {
  name: "fc7_mbox_loc"
  type: "Convolution"
  bottom: "fc7"
  top: "fc7_mbox_loc"
  param {
    lr_mult: 1
    decay_mult: 1
  }
  param {
    lr_mult: 2
    decay_mult: 0
  }
  convolution_param {
    num_output: 24
    pad: 1
    kernel_size: 3
    stride: 1
    weight_filler {
      type: "xavier"
    }
    bias_filler {
      type: "constant"
      value: 0
    }
  }
}
layer {
  name: "fc7_mbox_loc_perm"
  type: "Permute"
  bottom: "fc7_mbox_loc"
  top: "fc7_mbox_loc_perm"
  permute_param {
    order: 0
    order: 2
    order: 3
    order: 1
  }
}
layer {
  name: "fc7_mbox_loc_flat"
  type: "Flatten"
  bottom: "fc7_mbox_loc_perm"
  top: "fc7_mbox_loc_flat"
  flatten_param {
    axis: 1
  }
}
layer {
  name: "fc7_mbox_conf"
  type: "Convolution"
  bottom: "fc7"
  top: "fc7_mbox_conf"
  param {
    lr_mult: 1
    decay_mult: 1
  }
  param {
    lr_mult: 2
    decay_mult: 0
  }
  convolution_param {
    num_output: 18
    pad: 1
    kernel_size: 3
    stride: 1
    weight_filler {
      type: "xavier"
    }
    bias_filler {
      type: "constant"
      value: 0
    }
  }
}
layer {
  name: "fc7_mbox_conf_perm"
  type: "Permute"
  bottom: "fc7_mbox_conf"
  top: "fc7_mbox_conf_perm"
  permute_param {
    order: 0
    order: 2
    order: 3
    order: 1
  }
}
layer {
  name: "fc7_mbox_conf_flat"
  type: "Flatten"
  bottom: "fc7_mbox_conf_perm"
  top: "fc7_mbox_conf_flat"
  flatten_param {
    axis: 1
  }
}
layer {
  name: "fc7_mbox_priorbox"
  type: "PriorBox"
  bottom: "fc7"
  bottom: "data"
  top: "fc7_mbox_priorbox"
  prior_box_param {
    min_size: 60
    max_size: 111
    aspect_ratio: 2
    aspect_ratio: 3
    flip: true
    clip: false
    variance: 0.1
    variance: 0.1
    variance: 0.2
    variance: 0.2
    step: 16
    offset: 0.5
  }
}
layer {
  name: "conv8_2_mbox_loc"
  type: "Convolution"
  bottom: "conv8_2"
  top: "conv8_2_mbox_loc"
  param {
    lr_mult: 1
    decay_mult: 1
  }
  param {
    lr_mult: 2
    decay_mult: 0
  }
  convolution_param {
    num_output: 24
    pad: 1
    kernel_size: 3
    stride: 1
    weight_filler {
      type: "xavier"
    }
    bias_filler {
      type: "constant"
      value: 0
    }
  }
}
layer {
  name: "conv8_2_mbox_loc_perm"
  type: "Permute"
  bottom: "conv8_2_mbox_loc"
  top: "conv8_2_mbox_loc_perm"
  permute_param {
    order: 0
    order: 2
    order: 3
    order: 1
  }
}
layer {
  name: "conv8_2_mbox_loc_flat"
  type: "Flatten"
  bottom: "conv8_2_mbox_loc_perm"
  top: "conv8_2_mbox_loc_flat"
  flatten_param {
    axis: 1
  }
}
layer {
  name: "conv8_2_mbox_conf"
  type: "Convolution"
  bottom: "conv8_2"
  top: "conv8_2_mbox_conf"
  param {
    lr_mult: 1
    decay_mult: 1
  }
  param {
    lr_mult: 2
    decay_mult: 0
  }
  convolution_param {
    num_output: 18
    pad: 1
    kernel_size: 3
    stride: 1
    weight_filler {
      type: "xavier"
    }
    bias_filler {
      type: "constant"
      value: 0
    }
  }
}
layer {
  name: "conv8_2_mbox_conf_perm"
  type: "Permute"
  bottom: "conv8_2_mbox_conf"
  top: "conv8_2_mbox_conf_perm"
  permute_param {
    order: 0
    order: 2
    order: 3
    order: 1
  }
}
layer {
  name: "conv8_2_mbox_conf_flat"
  type: "Flatten"
  bottom: "conv8_2_mbox_conf_perm"
  top: "conv8_2_mbox_conf_flat"
  flatten_param {
    axis: 1
  }
}
layer {
  name: "conv8_2_mbox_priorbox"
  type: "PriorBox"
  bottom: "conv8_2"
  bottom: "data"
  top: "conv8_2_mbox_priorbox"
  prior_box_param {
    min_size: 111
    max_size: 162
    aspect_ratio: 2
    aspect_ratio: 3
    flip: true
    clip: false
    variance: 0.1
    variance: 0.1
    variance: 0.2
    variance: 0.2
    step: 32
    offset: 0.5
  }
}
layer {
  name: "conv9_2_mbox_loc"
  type: "Convolution"
  bottom: "conv9_2"
  top: "conv9_2_mbox_loc"
  param {
    lr_mult: 1
    decay_mult: 1
  }
  param {
    lr_mult: 2
    decay_mult: 0
  }
  convolution_param {
    num_output: 24
    pad: 1
    kernel_size: 3
    stride: 1
    weight_filler {
      type: "xavier"
    }
    bias_filler {
      type: "constant"
      value: 0
    }
  }
}
layer {
  name: "conv9_2_mbox_loc_perm"
  type: "Permute"
  bottom: "conv9_2_mbox_loc"
  top: "conv9_2_mbox_loc_perm"
  permute_param {
    order: 0
    order: 2
    order: 3
    order: 1
  }
}
layer {
  name: "conv9_2_mbox_loc_flat"
  type: "Flatten"
  bottom: "conv9_2_mbox_loc_perm"
  top: "conv9_2_mbox_loc_flat"
  flatten_param {
    axis: 1
  }
}
layer {
  name: "conv9_2_mbox_conf"
  type: "Convolution"
  bottom: "conv9_2"
  top: "conv9_2_mbox_conf"
  param {
    lr_mult: 1
    decay_mult: 1
  }
  param {
    lr_mult: 2
    decay_mult: 0
  }
  convolution_param {
    num_output: 18
    pad: 1
    kernel_size: 3
    stride: 1
    weight_filler {
      type: "xavier"
    }
    bias_filler {
      type: "constant"
      value: 0
    }
  }
}
layer {
  name: "conv9_2_mbox_conf_perm"
  type: "Permute"
  bottom: "conv9_2_mbox_conf"
  top: "conv9_2_mbox_conf_perm"
  permute_param {
    order: 0
    order: 2
    order: 3
    order: 1
  }
}
layer {
  name: "conv9_2_mbox_conf_flat"
  type: "Flatten"
  bottom: "conv9_2_mbox_conf_perm"
  top: "conv9_2_mbox_conf_flat"
  flatten_param {
    axis: 1
  }
}
layer {
  name: "conv9_2_mbox_priorbox"
  type: "PriorBox"
  bottom: "conv9_2"
  bottom: "data"
  top: "conv9_2_mbox_priorbox"
  prior_box_param {
    min_size: 162
    max_size: 213
    aspect_ratio: 2
    aspect_ratio: 3
    flip: true
    clip: false
    variance: 0.1
    variance: 0.1
    variance: 0.2
    variance: 0.2
    step: 64
    offset: 0.5
  }
}
layer {
  name: "conv10_2_mbox_loc"
  type: "Convolution"
  bottom: "conv10_2"
  top: "conv10_2_mbox_loc"
  param {
    lr_mult: 1
    decay_mult: 1
  }
  param {
    lr_mult: 2
    decay_mult: 0
  }
  convolution_param {
    num_output: 16
    pad: 1
    kernel_size: 3
    stride: 1
    weight_filler {
      type: "xavier"
    }
    bias_filler {
      type: "constant"
      value: 0
    }
  }
}
layer {
  name: "conv10_2_mbox_loc_perm"
  type: "Permute"
  bottom: "conv10_2_mbox_loc"
  top: "conv10_2_mbox_loc_perm"
  permute_param {
    order: 0
    order: 2
    order: 3
    order: 1
  }
}
layer {
  name: "conv10_2_mbox_loc_flat"
  type: "Flatten"
  bottom: "conv10_2_mbox_loc_perm"
  top: "conv10_2_mbox_loc_flat"
  flatten_param {
    axis: 1
  }
}
layer {
  name: "conv10_2_mbox_conf"
  type: "Convolution"
  bottom: "conv10_2"
  top: "conv10_2_mbox_conf"
  param {
    lr_mult: 1
    decay_mult: 1
  }
  param {
    lr_mult: 2
    decay_mult: 0
  }
  convolution_param {
    num_output: 12
    pad: 1
    kernel_size: 3
    stride: 1
    weight_filler {
      type: "xavier"
    }
    bias_filler {
      type: "constant"
      value: 0
    }
  }
}
layer {
  name: "conv10_2_mbox_conf_perm"
  type: "Permute"
  bottom: "conv10_2_mbox_conf"
  top: "conv10_2_mbox_conf_perm"
  permute_param {
    order: 0
    order: 2
    order: 3
    order: 1
  }
}
layer {
  name: "conv10_2_mbox_conf_flat"
  type: "Flatten"
  bottom: "conv10_2_mbox_conf_perm"
  top: "conv10_2_mbox_conf_flat"
  flatten_param {
    axis: 1
  }
}
layer {
  name: "conv10_2_mbox_priorbox"
  type: "PriorBox"
  bottom: "conv10_2"
  bottom: "data"
  top: "conv10_2_mbox_priorbox"
  prior_box_param {
    min_size: 213
    max_size: 264
    aspect_ratio: 2
    flip: true
    clip: false
    variance: 0.1
    variance: 0.1
    variance: 0.2
    variance: 0.2
    step: 100
    offset: 0.5
  }
}
layer {
  name: "conv11_2_mbox_loc"
  type: "Convolution"
  bottom: "conv11_2"
  top: "conv11_2_mbox_loc"
  param {
    lr_mult: 1
    decay_mult: 1
  }
  param {
    lr_mult: 2
    decay_mult: 0
  }
  convolution_param {
    num_output: 16
    pad: 1
    kernel_size: 3
    stride: 1
    weight_filler {
      type: "xavier"
    }
    bias_filler {
      type: "constant"
      value: 0
    }
  }
}
layer {
  name: "conv11_2_mbox_loc_perm"
  type: "Permute"
  bottom: "conv11_2_mbox_loc"
  top: "conv11_2_mbox_loc_perm"
  permute_param {
    order: 0
    order: 2
    order: 3
    order: 1
  }
}
layer {
  name: "conv11_2_mbox_loc_flat"
  type: "Flatten"
  bottom: "conv11_2_mbox_loc_perm"
  top: "conv11_2_mbox_loc_flat"
  flatten_param {
    axis: 1
  }
}
layer {
  name: "conv11_2_mbox_conf"
  type: "Convolution"
  bottom: "conv11_2"
  top: "conv11_2_mbox_conf"
  param {
    lr_mult: 1
    decay_mult: 1
  }
  param {
    lr_mult: 2
    decay_mult: 0
  }
  convolution_param {
    num_output: 12
    pad: 1
    kernel_size: 3
    stride: 1
    weight_filler {
      type: "xavier"
    }
    bias_filler {
      type: "constant"
      value: 0
    }
  }
}
layer {
  name: "conv11_2_mbox_conf_perm"
  type: "Permute"
  bottom: "conv11_2_mbox_conf"
  top: "conv11_2_mbox_conf_perm"
  permute_param {
    order: 0
    order: 2
    order: 3
    order: 1
  }
}
layer {
  name: "conv11_2_mbox_conf_flat"
  type: "Flatten"
  bottom: "conv11_2_mbox_conf_perm"
  top: "conv11_2_mbox_conf_flat"
  flatten_param {
    axis: 1
  }
}
layer {
  name: "conv11_2_mbox_priorbox"
  type: "PriorBox"
  bottom: "conv11_2"
  bottom: "data"
  top: "conv11_2_mbox_priorbox"
  prior_box_param {
    min_size: 264
    max_size: 315
    aspect_ratio: 2
    flip: true
    clip: false
    variance: 0.1
    variance: 0.1
    variance: 0.2
    variance: 0.2
    step: 300
    offset: 0.5
  }
}
layer {
  name: "mbox_loc"
  type: "Concat"
  bottom: "conv4_3_norm_mbox_loc_flat"
  bottom: "fc7_mbox_loc_flat"
  bottom: "conv8_2_mbox_loc_flat"
  bottom: "conv9_2_mbox_loc_flat"
  bottom: "conv10_2_mbox_loc_flat"
  bottom: "conv11_2_mbox_loc_flat"
  top: "mbox_loc"
  concat_param {
    axis: 1
  }
}
layer {
  name: "mbox_conf"
  type: "Concat"
  bottom: "conv4_3_norm_mbox_conf_flat"
  bottom: "fc7_mbox_conf_flat"
  bottom: "conv8_2_mbox_conf_flat"
  bottom: "conv9_2_mbox_conf_flat"
  bottom: "conv10_2_mbox_conf_flat"
  bottom: "conv11_2_mbox_conf_flat"
  top: "mbox_conf"
  concat_param {
    axis: 1
  }
}
layer {
  name: "mbox_priorbox"
  type: "Concat"
  bottom: "conv4_3_norm_mbox_priorbox"
  bottom: "fc7_mbox_priorbox"
  bottom: "conv8_2_mbox_priorbox"
  bottom: "conv9_2_mbox_priorbox"
  bottom: "conv10_2_mbox_priorbox"
  bottom: "conv11_2_mbox_priorbox"
  top: "mbox_priorbox"
  concat_param {
    axis: 2
  }
}
layer {
  name: "mbox_loss"
  type: "MultiBoxLoss"
  bottom: "mbox_loc"
  bottom: "mbox_conf"
  bottom: "mbox_priorbox"
  bottom: "label"
  top: "mbox_loss"
  include {
    phase: TRAIN
  }
  propagate_down: true
  propagate_down: true
  propagate_down: false
  propagate_down: false
  loss_param {
    normalization: VALID
  }
  multibox_loss_param {
    loc_loss_type: SMOOTH_L1
    conf_loss_type: SOFTMAX
    loc_weight: 1
    num_classes: 3
    share_location: true
    match_type: PER_PREDICTION
    overlap_threshold: 0.5
    use_prior_for_matching: true
    background_label_id: 0
    use_difficult_gt: true
    neg_pos_ratio: 3
    neg_overlap: 0.5
    code_type: CENTER_SIZE
    ignore_cross_boundary_bbox: false
    mining_type: MAX_NEGATIVE
  }
}
I0820 09:02:28.214125 11316 layer_factory.hpp:77] Creating layer data
I0820 09:02:28.218117 11316 common.cpp:36] System entropy source not available, using fallback algorithm to generate seed instead.
I0820 09:02:28.218117 11316 net.cpp:100] Creating Layer data
I0820 09:02:28.218117 11316 net.cpp:408] data -> data
I0820 09:02:28.219112 11316 net.cpp:408] data -> label
I0820 09:02:28.228088 16336 common.cpp:36] System entropy source not available, using fallback algorithm to generate seed instead.
I0820 09:02:28.287981 16336 db_lmdb.cpp:40] Opened lmdb examples\wastedata\wastedata_trainval_lmdb
I0820 09:02:28.471490 11316 annotated_data_layer.cpp:62] output data size: 8,3,300,300
I0820 09:02:28.500412 11316 net.cpp:150] Setting up data
I0820 09:02:28.500412 11316 net.cpp:157] Top shape: 8 3 300 300 (2160000)
I0820 09:02:28.500412 11316 net.cpp:157] Top shape: 1 1 1 8 (8)
I0820 09:02:28.500412 11316 net.cpp:165] Memory required for data: 8640032
I0820 09:02:28.500412 11316 layer_factory.hpp:77] Creating layer data_data_0_split
I0820 09:02:28.500412 11316 net.cpp:100] Creating Layer data_data_0_split
I0820 09:02:28.500412 11316 net.cpp:434] data_data_0_split <- data
I0820 09:02:28.501410 11316 net.cpp:408] data_data_0_split -> data_data_0_split_0
I0820 09:02:28.501410 11316 net.cpp:408] data_data_0_split -> data_data_0_split_1
I0820 09:02:28.501410 11316 net.cpp:408] data_data_0_split -> data_data_0_split_2
I0820 09:02:28.501410 11316 net.cpp:408] data_data_0_split -> data_data_0_split_3
I0820 09:02:28.501410 11316 net.cpp:408] data_data_0_split -> data_data_0_split_4
I0820 09:02:28.501410 11316 net.cpp:408] data_data_0_split -> data_data_0_split_5
I0820 09:02:28.501410 11316 net.cpp:408] data_data_0_split -> data_data_0_split_6
I0820 09:02:28.501410 11316 net.cpp:150] Setting up data_data_0_split
I0820 09:02:28.501410 11316 net.cpp:157] Top shape: 8 3 300 300 (2160000)
I0820 09:02:28.501410 11316 net.cpp:157] Top shape: 8 3 300 300 (2160000)
I0820 09:02:28.501410 13180 common.cpp:36] System entropy source not available, using fallback algorithm to generate seed instead.
I0820 09:02:28.501410 11316 net.cpp:157] Top shape: 8 3 300 300 (2160000)
I0820 09:02:28.501410 11316 net.cpp:157] Top shape: 8 3 300 300 (2160000)
I0820 09:02:28.501410 11316 net.cpp:157] Top shape: 8 3 300 300 (2160000)
I0820 09:02:28.501410 11316 net.cpp:157] Top shape: 8 3 300 300 (2160000)
I0820 09:02:28.501410 11316 net.cpp:157] Top shape: 8 3 300 300 (2160000)
I0820 09:02:28.501410 11316 net.cpp:165] Memory required for data: 69120032
I0820 09:02:28.501410 11316 layer_factory.hpp:77] Creating layer conv1_1
I0820 09:02:28.501410 11316 net.cpp:100] Creating Layer conv1_1
I0820 09:02:28.501410 11316 net.cpp:434] conv1_1 <- data_data_0_split_0
I0820 09:02:28.501410 11316 net.cpp:408] conv1_1 -> conv1_1
I0820 09:02:39.350769 11316 net.cpp:150] Setting up conv1_1
I0820 09:02:39.350769 11316 net.cpp:157] Top shape: 8 64 300 300 (46080000)
I0820 09:02:39.350769 11316 net.cpp:165] Memory required for data: 253440032
I0820 09:02:39.350769 11316 layer_factory.hpp:77] Creating layer relu1_1
I0820 09:02:39.350769 11316 net.cpp:100] Creating Layer relu1_1
I0820 09:02:39.351769 11316 net.cpp:434] relu1_1 <- conv1_1
I0820 09:02:39.351769 11316 net.cpp:395] relu1_1 -> conv1_1 (in-place)
I0820 09:02:39.352764 11316 net.cpp:150] Setting up relu1_1
I0820 09:02:39.352764 11316 net.cpp:157] Top shape: 8 64 300 300 (46080000)
I0820 09:02:39.352764 11316 net.cpp:165] Memory required for data: 437760032
I0820 09:02:39.352764 11316 layer_factory.hpp:77] Creating layer conv1_2
I0820 09:02:39.352764 11316 net.cpp:100] Creating Layer conv1_2
I0820 09:02:39.352764 11316 net.cpp:434] conv1_2 <- conv1_1
I0820 09:02:39.352764 11316 net.cpp:408] conv1_2 -> conv1_2
I0820 09:02:39.363734 11316 net.cpp:150] Setting up conv1_2
I0820 09:02:39.363734 11316 net.cpp:157] Top shape: 8 64 300 300 (46080000)
I0820 09:02:39.363734 11316 net.cpp:165] Memory required for data: 622080032
I0820 09:02:39.363734 11316 layer_factory.hpp:77] Creating layer relu1_2
I0820 09:02:39.363734 11316 net.cpp:100] Creating Layer relu1_2
I0820 09:02:39.363734 11316 net.cpp:434] relu1_2 <- conv1_2
I0820 09:02:39.363734 11316 net.cpp:395] relu1_2 -> conv1_2 (in-place)
I0820 09:02:39.365729 11316 net.cpp:150] Setting up relu1_2
I0820 09:02:39.365729 11316 net.cpp:157] Top shape: 8 64 300 300 (46080000)
I0820 09:02:39.365729 11316 net.cpp:165] Memory required for data: 806400032
I0820 09:02:39.365729 11316 layer_factory.hpp:77] Creating layer pool1
I0820 09:02:39.365729 11316 net.cpp:100] Creating Layer pool1
I0820 09:02:39.365729 11316 net.cpp:434] pool1 <- conv1_2
I0820 09:02:39.365729 11316 net.cpp:408] pool1 -> pool1
I0820 09:02:39.365729 11316 net.cpp:150] Setting up pool1
I0820 09:02:39.365729 11316 net.cpp:157] Top shape: 8 64 150 150 (11520000)
I0820 09:02:39.365729 11316 net.cpp:165] Memory required for data: 852480032
I0820 09:02:39.365729 11316 layer_factory.hpp:77] Creating layer conv2_1
I0820 09:02:39.365729 11316 net.cpp:100] Creating Layer conv2_1
I0820 09:02:39.365729 11316 net.cpp:434] conv2_1 <- pool1
I0820 09:02:39.365729 11316 net.cpp:408] conv2_1 -> conv2_1
I0820 09:02:39.368721 11316 net.cpp:150] Setting up conv2_1
I0820 09:02:39.369719 11316 net.cpp:157] Top shape: 8 128 150 150 (23040000)
I0820 09:02:39.369719 11316 net.cpp:165] Memory required for data: 944640032
I0820 09:02:39.369719 11316 layer_factory.hpp:77] Creating layer relu2_1
I0820 09:02:39.369719 11316 net.cpp:100] Creating Layer relu2_1
I0820 09:02:39.369719 11316 net.cpp:434] relu2_1 <- conv2_1
I0820 09:02:39.369719 11316 net.cpp:395] relu2_1 -> conv2_1 (in-place)
I0820 09:02:39.369719 11316 net.cpp:150] Setting up relu2_1
I0820 09:02:39.369719 11316 net.cpp:157] Top shape: 8 128 150 150 (23040000)
I0820 09:02:39.369719 11316 net.cpp:165] Memory required for data: 1036800032
I0820 09:02:39.369719 11316 layer_factory.hpp:77] Creating layer conv2_2
I0820 09:02:39.369719 11316 net.cpp:100] Creating Layer conv2_2
I0820 09:02:39.369719 11316 net.cpp:434] conv2_2 <- conv2_1
I0820 09:02:39.369719 11316 net.cpp:408] conv2_2 -> conv2_2
I0820 09:02:39.375702 11316 net.cpp:150] Setting up conv2_2
I0820 09:02:39.375702 11316 net.cpp:157] Top shape: 8 128 150 150 (23040000)
I0820 09:02:39.375702 11316 net.cpp:165] Memory required for data: 1128960032
I0820 09:02:39.376700 11316 layer_factory.hpp:77] Creating layer relu2_2
I0820 09:02:39.376700 11316 net.cpp:100] Creating Layer relu2_2
I0820 09:02:39.376700 11316 net.cpp:434] relu2_2 <- conv2_2
I0820 09:02:39.376700 11316 net.cpp:395] relu2_2 -> conv2_2 (in-place)
I0820 09:02:39.377697 11316 net.cpp:150] Setting up relu2_2
I0820 09:02:39.377697 11316 net.cpp:157] Top shape: 8 128 150 150 (23040000)
I0820 09:02:39.377697 11316 net.cpp:165] Memory required for data: 1221120032
I0820 09:02:39.377697 11316 layer_factory.hpp:77] Creating layer pool2
I0820 09:02:39.377697 11316 net.cpp:100] Creating Layer pool2
I0820 09:02:39.377697 11316 net.cpp:434] pool2 <- conv2_2
I0820 09:02:39.377697 11316 net.cpp:408] pool2 -> pool2
I0820 09:02:39.377697 11316 net.cpp:150] Setting up pool2
I0820 09:02:39.377697 11316 net.cpp:157] Top shape: 8 128 75 75 (5760000)
I0820 09:02:39.377697 11316 net.cpp:165] Memory required for data: 1244160032
I0820 09:02:39.377697 11316 layer_factory.hpp:77] Creating layer conv3_1
I0820 09:02:39.377697 11316 net.cpp:100] Creating Layer conv3_1
I0820 09:02:39.377697 11316 net.cpp:434] conv3_1 <- pool2
I0820 09:02:39.377697 11316 net.cpp:408] conv3_1 -> conv3_1
I0820 09:02:39.388670 11316 net.cpp:150] Setting up conv3_1
I0820 09:02:39.388670 11316 net.cpp:157] Top shape: 8 256 75 75 (11520000)
I0820 09:02:39.388670 11316 net.cpp:165] Memory required for data: 1290240032
I0820 09:02:39.388670 11316 layer_factory.hpp:77] Creating layer relu3_1
I0820 09:02:39.388670 11316 net.cpp:100] Creating Layer relu3_1
I0820 09:02:39.388670 11316 net.cpp:434] relu3_1 <- conv3_1
I0820 09:02:39.388670 11316 net.cpp:395] relu3_1 -> conv3_1 (in-place)
I0820 09:02:39.391660 11316 net.cpp:150] Setting up relu3_1
I0820 09:02:39.391660 11316 net.cpp:157] Top shape: 8 256 75 75 (11520000)
I0820 09:02:39.391660 11316 net.cpp:165] Memory required for data: 1336320032
I0820 09:02:39.391660 11316 layer_factory.hpp:77] Creating layer conv3_2
I0820 09:02:39.391660 11316 net.cpp:100] Creating Layer conv3_2
I0820 09:02:39.391660 11316 net.cpp:434] conv3_2 <- conv3_1
I0820 09:02:39.391660 11316 net.cpp:408] conv3_2 -> conv3_2
I0820 09:02:39.404628 11316 net.cpp:150] Setting up conv3_2
I0820 09:02:39.404628 11316 net.cpp:157] Top shape: 8 256 75 75 (11520000)
I0820 09:02:39.404628 11316 net.cpp:165] Memory required for data: 1382400032
I0820 09:02:39.404628 11316 layer_factory.hpp:77] Creating layer relu3_2
I0820 09:02:39.404628 11316 net.cpp:100] Creating Layer relu3_2
I0820 09:02:39.404628 11316 net.cpp:434] relu3_2 <- conv3_2
I0820 09:02:39.404628 11316 net.cpp:395] relu3_2 -> conv3_2 (in-place)
I0820 09:02:39.405622 11316 net.cpp:150] Setting up relu3_2
I0820 09:02:39.405622 11316 net.cpp:157] Top shape: 8 256 75 75 (11520000)
I0820 09:02:39.405622 11316 net.cpp:165] Memory required for data: 1428480032
I0820 09:02:39.405622 11316 layer_factory.hpp:77] Creating layer conv3_3
I0820 09:02:39.405622 11316 net.cpp:100] Creating Layer conv3_3
I0820 09:02:39.405622 11316 net.cpp:434] conv3_3 <- conv3_2
I0820 09:02:39.405622 11316 net.cpp:408] conv3_3 -> conv3_3
I0820 09:02:39.427564 11316 net.cpp:150] Setting up conv3_3
I0820 09:02:39.427564 11316 net.cpp:157] Top shape: 8 256 75 75 (11520000)
I0820 09:02:39.427564 11316 net.cpp:165] Memory required for data: 1474560032
I0820 09:02:39.427564 11316 layer_factory.hpp:77] Creating layer relu3_3
I0820 09:02:39.427564 11316 net.cpp:100] Creating Layer relu3_3
I0820 09:02:39.427564 11316 net.cpp:434] relu3_3 <- conv3_3
I0820 09:02:39.427564 11316 net.cpp:395] relu3_3 -> conv3_3 (in-place)
I0820 09:02:39.429558 11316 net.cpp:150] Setting up relu3_3
I0820 09:02:39.429558 11316 net.cpp:157] Top shape: 8 256 75 75 (11520000)
I0820 09:02:39.429558 11316 net.cpp:165] Memory required for data: 1520640032
I0820 09:02:39.429558 11316 layer_factory.hpp:77] Creating layer pool3
I0820 09:02:39.429558 11316 net.cpp:100] Creating Layer pool3
I0820 09:02:39.429558 11316 net.cpp:434] pool3 <- conv3_3
I0820 09:02:39.429558 11316 net.cpp:408] pool3 -> pool3
I0820 09:02:39.429558 11316 net.cpp:150] Setting up pool3
I0820 09:02:39.429558 11316 net.cpp:157] Top shape: 8 256 38 38 (2957312)
I0820 09:02:39.429558 11316 net.cpp:165] Memory required for data: 1532469280
I0820 09:02:39.429558 11316 layer_factory.hpp:77] Creating layer conv4_1
I0820 09:02:39.429558 11316 net.cpp:100] Creating Layer conv4_1
I0820 09:02:39.429558 11316 net.cpp:434] conv4_1 <- pool3
I0820 09:02:39.429558 11316 net.cpp:408] conv4_1 -> conv4_1
I0820 09:02:39.440529 11316 net.cpp:150] Setting up conv4_1
I0820 09:02:39.440529 11316 net.cpp:157] Top shape: 8 512 38 38 (5914624)
I0820 09:02:39.440529 11316 net.cpp:165] Memory required for data: 1556127776
I0820 09:02:39.440529 11316 layer_factory.hpp:77] Creating layer relu4_1
I0820 09:02:39.440529 11316 net.cpp:100] Creating Layer relu4_1
I0820 09:02:39.440529 11316 net.cpp:434] relu4_1 <- conv4_1
I0820 09:02:39.440529 11316 net.cpp:395] relu4_1 -> conv4_1 (in-place)
I0820 09:02:39.454491 11316 net.cpp:150] Setting up relu4_1
I0820 09:02:39.454491 11316 net.cpp:157] Top shape: 8 512 38 38 (5914624)
I0820 09:02:39.454491 11316 net.cpp:165] Memory required for data: 1579786272
I0820 09:02:39.454491 11316 layer_factory.hpp:77] Creating layer conv4_2
I0820 09:02:39.454491 11316 net.cpp:100] Creating Layer conv4_2
I0820 09:02:39.454491 11316 net.cpp:434] conv4_2 <- conv4_1
I0820 09:02:39.454491 11316 net.cpp:408] conv4_2 -> conv4_2
I0820 09:02:39.471446 11316 net.cpp:150] Setting up conv4_2
I0820 09:02:39.471446 11316 net.cpp:157] Top shape: 8 512 38 38 (5914624)
I0820 09:02:39.471446 11316 net.cpp:165] Memory required for data: 1603444768
I0820 09:02:39.471446 11316 layer_factory.hpp:77] Creating layer relu4_2
I0820 09:02:39.471446 11316 net.cpp:100] Creating Layer relu4_2
I0820 09:02:39.471446 11316 net.cpp:434] relu4_2 <- conv4_2
I0820 09:02:39.471446 11316 net.cpp:395] relu4_2 -> conv4_2 (in-place)
I0820 09:02:39.472445 11316 net.cpp:150] Setting up relu4_2
I0820 09:02:39.472445 11316 net.cpp:157] Top shape: 8 512 38 38 (5914624)
I0820 09:02:39.472445 11316 net.cpp:165] Memory required for data: 1627103264
I0820 09:02:39.472445 11316 layer_factory.hpp:77] Creating layer conv4_3
I0820 09:02:39.472445 11316 net.cpp:100] Creating Layer conv4_3
I0820 09:02:39.472445 11316 net.cpp:434] conv4_3 <- conv4_2
I0820 09:02:39.472445 11316 net.cpp:408] conv4_3 -> conv4_3
I0820 09:02:39.488401 11316 net.cpp:150] Setting up conv4_3
I0820 09:02:39.489408 11316 net.cpp:157] Top shape: 8 512 38 38 (5914624)
I0820 09:02:39.489408 11316 net.cpp:165] Memory required for data: 1650761760
I0820 09:02:39.489408 11316 layer_factory.hpp:77] Creating layer relu4_3
I0820 09:02:39.489408 11316 net.cpp:100] Creating Layer relu4_3
I0820 09:02:39.489408 11316 net.cpp:434] relu4_3 <- conv4_3
I0820 09:02:39.489408 11316 net.cpp:395] relu4_3 -> conv4_3 (in-place)
I0820 09:02:39.490396 11316 net.cpp:150] Setting up relu4_3
I0820 09:02:39.490396 11316 net.cpp:157] Top shape: 8 512 38 38 (5914624)
I0820 09:02:39.490396 11316 net.cpp:165] Memory required for data: 1674420256
I0820 09:02:39.490396 11316 layer_factory.hpp:77] Creating layer conv4_3_relu4_3_0_split
I0820 09:02:39.490396 11316 net.cpp:100] Creating Layer conv4_3_relu4_3_0_split
I0820 09:02:39.490396 11316 net.cpp:434] conv4_3_relu4_3_0_split <- conv4_3
I0820 09:02:39.490396 11316 net.cpp:408] conv4_3_relu4_3_0_split -> conv4_3_relu4_3_0_split_0
I0820 09:02:39.490396 11316 net.cpp:408] conv4_3_relu4_3_0_split -> conv4_3_relu4_3_0_split_1
I0820 09:02:39.490396 11316 net.cpp:150] Setting up conv4_3_relu4_3_0_split
I0820 09:02:39.490396 11316 net.cpp:157] Top shape: 8 512 38 38 (5914624)
I0820 09:02:39.490396 11316 net.cpp:157] Top shape: 8 512 38 38 (5914624)
I0820 09:02:39.490396 11316 net.cpp:165] Memory required for data: 1721737248
I0820 09:02:39.490396 11316 layer_factory.hpp:77] Creating layer pool4
I0820 09:02:39.490396 11316 net.cpp:100] Creating Layer pool4
I0820 09:02:39.490396 11316 net.cpp:434] pool4 <- conv4_3_relu4_3_0_split_0
I0820 09:02:39.490396 11316 net.cpp:408] pool4 -> pool4
I0820 09:02:39.490396 11316 net.cpp:150] Setting up pool4
I0820 09:02:39.490396 11316 net.cpp:157] Top shape: 8 512 19 19 (1478656)
I0820 09:02:39.490396 11316 net.cpp:165] Memory required for data: 1727651872
I0820 09:02:39.490396 11316 layer_factory.hpp:77] Creating layer conv5_1
I0820 09:02:39.490396 11316 net.cpp:100] Creating Layer conv5_1
I0820 09:02:39.490396 11316 net.cpp:434] conv5_1 <- pool4
I0820 09:02:39.490396 11316 net.cpp:408] conv5_1 -> conv5_1
I0820 09:02:39.508348 11316 net.cpp:150] Setting up conv5_1
I0820 09:02:39.508348 11316 net.cpp:157] Top shape: 8 512 19 19 (1478656)
I0820 09:02:39.508348 11316 net.cpp:165] Memory required for data: 1733566496
I0820 09:02:39.508348 11316 layer_factory.hpp:77] Creating layer relu5_1
I0820 09:02:39.508348 11316 net.cpp:100] Creating Layer relu5_1
I0820 09:02:39.508348 11316 net.cpp:434] relu5_1 <- conv5_1
I0820 09:02:39.508348 11316 net.cpp:395] relu5_1 -> conv5_1 (in-place)
I0820 09:02:39.509346 11316 net.cpp:150] Setting up relu5_1
I0820 09:02:39.509346 11316 net.cpp:157] Top shape: 8 512 19 19 (1478656)
I0820 09:02:39.509346 11316 net.cpp:165] Memory required for data: 1739481120
I0820 09:02:39.509346 11316 layer_factory.hpp:77] Creating layer conv5_2
I0820 09:02:39.509346 11316 net.cpp:100] Creating Layer conv5_2
I0820 09:02:39.509346 11316 net.cpp:434] conv5_2 <- conv5_1
I0820 09:02:39.509346 11316 net.cpp:408] conv5_2 -> conv5_2
I0820 09:02:39.527297 11316 net.cpp:150] Setting up conv5_2
I0820 09:02:39.527297 11316 net.cpp:157] Top shape: 8 512 19 19 (1478656)
I0820 09:02:39.527297 11316 net.cpp:165] Memory required for data: 1745395744
I0820 09:02:39.527297 11316 layer_factory.hpp:77] Creating layer relu5_2
I0820 09:02:39.527297 11316 net.cpp:100] Creating Layer relu5_2
I0820 09:02:39.527297 11316 net.cpp:434] relu5_2 <- conv5_2
I0820 09:02:39.527297 11316 net.cpp:395] relu5_2 -> conv5_2 (in-place)
I0820 09:02:39.528295 11316 net.cpp:150] Setting up relu5_2
I0820 09:02:39.528295 11316 net.cpp:157] Top shape: 8 512 19 19 (1478656)
I0820 09:02:39.528295 11316 net.cpp:165] Memory required for data: 1751310368
I0820 09:02:39.528295 11316 layer_factory.hpp:77] Creating layer conv5_3
I0820 09:02:39.528295 11316 net.cpp:100] Creating Layer conv5_3
I0820 09:02:39.528295 11316 net.cpp:434] conv5_3 <- conv5_2
I0820 09:02:39.528295 11316 net.cpp:408] conv5_3 -> conv5_3
I0820 09:02:39.546247 11316 net.cpp:150] Setting up conv5_3
I0820 09:02:39.546247 11316 net.cpp:157] Top shape: 8 512 19 19 (1478656)
I0820 09:02:39.546247 11316 net.cpp:165] Memory required for data: 1757224992
I0820 09:02:39.546247 11316 layer_factory.hpp:77] Creating layer relu5_3
I0820 09:02:39.546247 11316 net.cpp:100] Creating Layer relu5_3
I0820 09:02:39.546247 11316 net.cpp:434] relu5_3 <- conv5_3
I0820 09:02:39.546247 11316 net.cpp:395] relu5_3 -> conv5_3 (in-place)
I0820 09:02:39.547245 11316 net.cpp:150] Setting up relu5_3
I0820 09:02:39.547245 11316 net.cpp:157] Top shape: 8 512 19 19 (1478656)
I0820 09:02:39.547245 11316 net.cpp:165] Memory required for data: 1763139616
I0820 09:02:39.547245 11316 layer_factory.hpp:77] Creating layer pool5
I0820 09:02:39.547245 11316 net.cpp:100] Creating Layer pool5
I0820 09:02:39.547245 11316 net.cpp:434] pool5 <- conv5_3
I0820 09:02:39.547245 11316 net.cpp:408] pool5 -> pool5
I0820 09:02:39.547245 11316 net.cpp:150] Setting up pool5
I0820 09:02:39.547245 11316 net.cpp:157] Top shape: 8 512 19 19 (1478656)
I0820 09:02:39.547245 11316 net.cpp:165] Memory required for data: 1769054240
I0820 09:02:39.547245 11316 layer_factory.hpp:77] Creating layer fc6
I0820 09:02:39.547245 11316 net.cpp:100] Creating Layer fc6
I0820 09:02:39.547245 11316 net.cpp:434] fc6 <- pool5
I0820 09:02:39.547245 11316 net.cpp:408] fc6 -> fc6
I0820 09:02:39.576166 11316 net.cpp:150] Setting up fc6
I0820 09:02:39.576166 11316 net.cpp:157] Top shape: 8 1024 19 19 (2957312)
I0820 09:02:39.576166 11316 net.cpp:165] Memory required for data: 1780883488
I0820 09:02:39.576166 11316 layer_factory.hpp:77] Creating layer relu6
I0820 09:02:39.576166 11316 net.cpp:100] Creating Layer relu6
I0820 09:02:39.576166 11316 net.cpp:434] relu6 <- fc6
I0820 09:02:39.576166 11316 net.cpp:395] relu6 -> fc6 (in-place)
I0820 09:02:39.578161 11316 net.cpp:150] Setting up relu6
I0820 09:02:39.578161 11316 net.cpp:157] Top shape: 8 1024 19 19 (2957312)
I0820 09:02:39.578161 11316 net.cpp:165] Memory required for data: 1792712736
I0820 09:02:39.578161 11316 layer_factory.hpp:77] Creating layer fc7
I0820 09:02:39.578161 11316 net.cpp:100] Creating Layer fc7
I0820 09:02:39.578161 11316 net.cpp:434] fc7 <- fc6
I0820 09:02:39.578161 11316 net.cpp:408] fc7 -> fc7
I0820 09:02:39.587137 11316 net.cpp:150] Setting up fc7
I0820 09:02:39.587137 11316 net.cpp:157] Top shape: 8 1024 19 19 (2957312)
I0820 09:02:39.587137 11316 net.cpp:165] Memory required for data: 1804541984
I0820 09:02:39.587137 11316 layer_factory.hpp:77] Creating layer relu7
I0820 09:02:39.587137 11316 net.cpp:100] Creating Layer relu7
I0820 09:02:39.587137 11316 net.cpp:434] relu7 <- fc7
I0820 09:02:39.587137 11316 net.cpp:395] relu7 -> fc7 (in-place)
I0820 09:02:39.588135 11316 net.cpp:150] Setting up relu7
I0820 09:02:39.588135 11316 net.cpp:157] Top shape: 8 1024 19 19 (2957312)
I0820 09:02:39.588135 11316 net.cpp:165] Memory required for data: 1816371232
I0820 09:02:39.588135 11316 layer_factory.hpp:77] Creating layer fc7_relu7_0_split
I0820 09:02:39.588135 11316 net.cpp:100] Creating Layer fc7_relu7_0_split
I0820 09:02:39.588135 11316 net.cpp:434] fc7_relu7_0_split <- fc7
I0820 09:02:39.588135 11316 net.cpp:408] fc7_relu7_0_split -> fc7_relu7_0_split_0
I0820 09:02:39.588135 11316 net.cpp:408] fc7_relu7_0_split -> fc7_relu7_0_split_1
I0820 09:02:39.588135 11316 net.cpp:408] fc7_relu7_0_split -> fc7_relu7_0_split_2
I0820 09:02:39.588135 11316 net.cpp:408] fc7_relu7_0_split -> fc7_relu7_0_split_3
I0820 09:02:39.588135 11316 net.cpp:150] Setting up fc7_relu7_0_split
I0820 09:02:39.588135 11316 net.cpp:157] Top shape: 8 1024 19 19 (2957312)
I0820 09:02:39.588135 11316 net.cpp:157] Top shape: 8 1024 19 19 (2957312)
I0820 09:02:39.588135 11316 net.cpp:157] Top shape: 8 1024 19 19 (2957312)
I0820 09:02:39.588135 11316 net.cpp:157] Top shape: 8 1024 19 19 (2957312)
I0820 09:02:39.588135 11316 net.cpp:165] Memory required for data: 1863688224
I0820 09:02:39.588135 11316 layer_factory.hpp:77] Creating layer conv8_1
I0820 09:02:39.588135 11316 net.cpp:100] Creating Layer conv8_1
I0820 09:02:39.588135 11316 net.cpp:434] conv8_1 <- fc7_relu7_0_split_0
I0820 09:02:39.588135 11316 net.cpp:408] conv8_1 -> conv8_1
I0820 09:02:39.594118 11316 net.cpp:150] Setting up conv8_1
I0820 09:02:39.594118 11316 net.cpp:157] Top shape: 8 256 19 19 (739328)
I0820 09:02:39.594118 11316 net.cpp:165] Memory required for data: 1866645536
I0820 09:02:39.594118 11316 layer_factory.hpp:77] Creating layer conv8_1_relu
I0820 09:02:39.594118 11316 net.cpp:100] Creating Layer conv8_1_relu
I0820 09:02:39.594118 11316 net.cpp:434] conv8_1_relu <- conv8_1
I0820 09:02:39.594118 11316 net.cpp:395] conv8_1_relu -> conv8_1 (in-place)
I0820 09:02:39.595116 11316 net.cpp:150] Setting up conv8_1_relu
I0820 09:02:39.595116 11316 net.cpp:157] Top shape: 8 256 19 19 (739328)
I0820 09:02:39.595116 11316 net.cpp:165] Memory required for data: 1869602848
I0820 09:02:39.595116 11316 layer_factory.hpp:77] Creating layer conv8_2
I0820 09:02:39.595116 11316 net.cpp:100] Creating Layer conv8_2
I0820 09:02:39.595116 11316 net.cpp:434] conv8_2 <- conv8_1
I0820 09:02:39.595116 11316 net.cpp:408] conv8_2 -> conv8_2
I0820 09:02:39.604092 11316 net.cpp:150] Setting up conv8_2
I0820 09:02:39.604092 11316 net.cpp:157] Top shape: 8 512 10 10 (409600)
I0820 09:02:39.604092 11316 net.cpp:165] Memory required for data: 1871241248
I0820 09:02:39.605091 11316 layer_factory.hpp:77] Creating layer conv8_2_relu
I0820 09:02:39.605091 11316 net.cpp:100] Creating Layer conv8_2_relu
I0820 09:02:39.605091 11316 net.cpp:434] conv8_2_relu <- conv8_2
I0820 09:02:39.605091 11316 net.cpp:395] conv8_2_relu -> conv8_2 (in-place)
I0820 09:02:39.631019 11316 net.cpp:150] Setting up conv8_2_relu
I0820 09:02:39.631019 11316 net.cpp:157] Top shape: 8 512 10 10 (409600)
I0820 09:02:39.631019 11316 net.cpp:165] Memory required for data: 1872879648
I0820 09:02:39.631019 11316 layer_factory.hpp:77] Creating layer conv8_2_conv8_2_relu_0_split
I0820 09:02:39.631019 11316 net.cpp:100] Creating Layer conv8_2_conv8_2_relu_0_split
I0820 09:02:39.632016 11316 net.cpp:434] conv8_2_conv8_2_relu_0_split <- conv8_2
I0820 09:02:39.632016 11316 net.cpp:408] conv8_2_conv8_2_relu_0_split -> conv8_2_conv8_2_relu_0_split_0
I0820 09:02:39.632016 11316 net.cpp:408] conv8_2_conv8_2_relu_0_split -> conv8_2_conv8_2_relu_0_split_1
I0820 09:02:39.632016 11316 net.cpp:408] conv8_2_conv8_2_relu_0_split -> conv8_2_conv8_2_relu_0_split_2
I0820 09:02:39.632016 11316 net.cpp:408] conv8_2_conv8_2_relu_0_split -> conv8_2_conv8_2_relu_0_split_3
I0820 09:02:39.632016 11316 net.cpp:150] Setting up conv8_2_conv8_2_relu_0_split
I0820 09:02:39.632016 11316 net.cpp:157] Top shape: 8 512 10 10 (409600)
I0820 09:02:39.632016 11316 net.cpp:157] Top shape: 8 512 10 10 (409600)
I0820 09:02:39.632016 11316 net.cpp:157] Top shape: 8 512 10 10 (409600)
I0820 09:02:39.632016 11316 net.cpp:157] Top shape: 8 512 10 10 (409600)
I0820 09:02:39.632016 11316 net.cpp:165] Memory required for data: 1879433248
I0820 09:02:39.632016 11316 layer_factory.hpp:77] Creating layer conv9_1
I0820 09:02:39.632016 11316 net.cpp:100] Creating Layer conv9_1
I0820 09:02:39.632016 11316 net.cpp:434] conv9_1 <- conv8_2_conv8_2_relu_0_split_0
I0820 09:02:39.632016 11316 net.cpp:408] conv9_1 -> conv9_1
I0820 09:02:39.635008 11316 net.cpp:150] Setting up conv9_1
I0820 09:02:39.635008 11316 net.cpp:157] Top shape: 8 128 10 10 (102400)
I0820 09:02:39.635008 11316 net.cpp:165] Memory required for data: 1879842848
I0820 09:02:39.635008 11316 layer_factory.hpp:77] Creating layer conv9_1_relu
I0820 09:02:39.635008 11316 net.cpp:100] Creating Layer conv9_1_relu
I0820 09:02:39.635008 11316 net.cpp:434] conv9_1_relu <- conv9_1
I0820 09:02:39.635008 11316 net.cpp:395] conv9_1_relu -> conv9_1 (in-place)
I0820 09:02:39.635008 11316 net.cpp:150] Setting up conv9_1_relu
I0820 09:02:39.635008 11316 net.cpp:157] Top shape: 8 128 10 10 (102400)
I0820 09:02:39.635008 11316 net.cpp:165] Memory required for data: 1880252448
I0820 09:02:39.635008 11316 layer_factory.hpp:77] Creating layer conv9_2
I0820 09:02:39.635008 11316 net.cpp:100] Creating Layer conv9_2
I0820 09:02:39.635008 11316 net.cpp:434] conv9_2 <- conv9_1
I0820 09:02:39.635008 11316 net.cpp:408] conv9_2 -> conv9_2
I0820 09:02:39.640993 11316 net.cpp:150] Setting up conv9_2
I0820 09:02:39.640993 11316 net.cpp:157] Top shape: 8 256 5 5 (51200)
I0820 09:02:39.640993 11316 net.cpp:165] Memory required for data: 1880457248
I0820 09:02:39.640993 11316 layer_factory.hpp:77] Creating layer conv9_2_relu
I0820 09:02:39.640993 11316 net.cpp:100] Creating Layer conv9_2_relu
I0820 09:02:39.640993 11316 net.cpp:434] conv9_2_relu <- conv9_2
I0820 09:02:39.640993 11316 net.cpp:395] conv9_2_relu -> conv9_2 (in-place)
I0820 09:02:39.641990 11316 net.cpp:150] Setting up conv9_2_relu
I0820 09:02:39.641990 11316 net.cpp:157] Top shape: 8 256 5 5 (51200)
I0820 09:02:39.641990 11316 net.cpp:165] Memory required for data: 1880662048
I0820 09:02:39.641990 11316 layer_factory.hpp:77] Creating layer conv9_2_conv9_2_relu_0_split
I0820 09:02:39.641990 11316 net.cpp:100] Creating Layer conv9_2_conv9_2_relu_0_split
I0820 09:02:39.641990 11316 net.cpp:434] conv9_2_conv9_2_relu_0_split <- conv9_2
I0820 09:02:39.641990 11316 net.cpp:408] conv9_2_conv9_2_relu_0_split -> conv9_2_conv9_2_relu_0_split_0
I0820 09:02:39.641990 11316 net.cpp:408] conv9_2_conv9_2_relu_0_split -> conv9_2_conv9_2_relu_0_split_1
I0820 09:02:39.641990 11316 net.cpp:408] conv9_2_conv9_2_relu_0_split -> conv9_2_conv9_2_relu_0_split_2
I0820 09:02:39.641990 11316 net.cpp:408] conv9_2_conv9_2_relu_0_split -> conv9_2_conv9_2_relu_0_split_3
I0820 09:02:39.641990 11316 net.cpp:150] Setting up conv9_2_conv9_2_relu_0_split
I0820 09:02:39.641990 11316 net.cpp:157] Top shape: 8 256 5 5 (51200)
I0820 09:02:39.641990 11316 net.cpp:157] Top shape: 8 256 5 5 (51200)
I0820 09:02:39.641990 11316 net.cpp:157] Top shape: 8 256 5 5 (51200)
I0820 09:02:39.641990 11316 net.cpp:157] Top shape: 8 256 5 5 (51200)
I0820 09:02:39.641990 11316 net.cpp:165] Memory required for data: 1881481248
I0820 09:02:39.641990 11316 layer_factory.hpp:77] Creating layer conv10_1
I0820 09:02:39.641990 11316 net.cpp:100] Creating Layer conv10_1
I0820 09:02:39.641990 11316 net.cpp:434] conv10_1 <- conv9_2_conv9_2_relu_0_split_0
I0820 09:02:39.641990 11316 net.cpp:408] conv10_1 -> conv10_1
I0820 09:02:39.644982 11316 net.cpp:150] Setting up conv10_1
I0820 09:02:39.644982 11316 net.cpp:157] Top shape: 8 128 5 5 (25600)
I0820 09:02:39.644982 11316 net.cpp:165] Memory required for data: 1881583648
I0820 09:02:39.644982 11316 layer_factory.hpp:77] Creating layer conv10_1_relu
I0820 09:02:39.644982 11316 net.cpp:100] Creating Layer conv10_1_relu
I0820 09:02:39.644982 11316 net.cpp:434] conv10_1_relu <- conv10_1
I0820 09:02:39.644982 11316 net.cpp:395] conv10_1_relu -> conv10_1 (in-place)
I0820 09:02:39.644982 11316 net.cpp:150] Setting up conv10_1_relu
I0820 09:02:39.644982 11316 net.cpp:157] Top shape: 8 128 5 5 (25600)
I0820 09:02:39.644982 11316 net.cpp:165] Memory required for data: 1881686048
I0820 09:02:39.644982 11316 layer_factory.hpp:77] Creating layer conv10_2
I0820 09:02:39.644982 11316 net.cpp:100] Creating Layer conv10_2
I0820 09:02:39.644982 11316 net.cpp:434] conv10_2 <- conv10_1
I0820 09:02:39.644982 11316 net.cpp:408] conv10_2 -> conv10_2
I0820 09:02:39.650966 11316 net.cpp:150] Setting up conv10_2
I0820 09:02:39.650966 11316 net.cpp:157] Top shape: 8 256 3 3 (18432)
I0820 09:02:39.650966 11316 net.cpp:165] Memory required for data: 1881759776
I0820 09:02:39.650966 11316 layer_factory.hpp:77] Creating layer conv10_2_relu
I0820 09:02:39.650966 11316 net.cpp:100] Creating Layer conv10_2_relu
I0820 09:02:39.650966 11316 net.cpp:434] conv10_2_relu <- conv10_2
I0820 09:02:39.650966 11316 net.cpp:395] conv10_2_relu -> conv10_2 (in-place)
I0820 09:02:39.651963 11316 net.cpp:150] Setting up conv10_2_relu
I0820 09:02:39.651963 11316 net.cpp:157] Top shape: 8 256 3 3 (18432)
I0820 09:02:39.651963 11316 net.cpp:165] Memory required for data: 1881833504
I0820 09:02:39.651963 11316 layer_factory.hpp:77] Creating layer conv10_2_conv10_2_relu_0_split
I0820 09:02:39.651963 11316 net.cpp:100] Creating Layer conv10_2_conv10_2_relu_0_split
I0820 09:02:39.651963 11316 net.cpp:434] conv10_2_conv10_2_relu_0_split <- conv10_2
I0820 09:02:39.651963 11316 net.cpp:408] conv10_2_conv10_2_relu_0_split -> conv10_2_conv10_2_relu_0_split_0
I0820 09:02:39.651963 11316 net.cpp:408] conv10_2_conv10_2_relu_0_split -> conv10_2_conv10_2_relu_0_split_1
I0820 09:02:39.651963 11316 net.cpp:408] conv10_2_conv10_2_relu_0_split -> conv10_2_conv10_2_relu_0_split_2
I0820 09:02:39.651963 11316 net.cpp:408] conv10_2_conv10_2_relu_0_split -> conv10_2_conv10_2_relu_0_split_3
I0820 09:02:39.651963 11316 net.cpp:150] Setting up conv10_2_conv10_2_relu_0_split
I0820 09:02:39.651963 11316 net.cpp:157] Top shape: 8 256 3 3 (18432)
I0820 09:02:39.651963 11316 net.cpp:157] Top shape: 8 256 3 3 (18432)
I0820 09:02:39.651963 11316 net.cpp:157] Top shape: 8 256 3 3 (18432)
I0820 09:02:39.651963 11316 net.cpp:157] Top shape: 8 256 3 3 (18432)
I0820 09:02:39.651963 11316 net.cpp:165] Memory required for data: 1882128416
I0820 09:02:39.651963 11316 layer_factory.hpp:77] Creating layer conv11_1
I0820 09:02:39.651963 11316 net.cpp:100] Creating Layer conv11_1
I0820 09:02:39.651963 11316 net.cpp:434] conv11_1 <- conv10_2_conv10_2_relu_0_split_0
I0820 09:02:39.651963 11316 net.cpp:408] conv11_1 -> conv11_1
I0820 09:02:39.653959 11316 net.cpp:150] Setting up conv11_1
I0820 09:02:39.653959 11316 net.cpp:157] Top shape: 8 128 3 3 (9216)
I0820 09:02:39.653959 11316 net.cpp:165] Memory required for data: 1882165280
I0820 09:02:39.653959 11316 layer_factory.hpp:77] Creating layer conv11_1_relu
I0820 09:02:39.653959 11316 net.cpp:100] Creating Layer conv11_1_relu
I0820 09:02:39.653959 11316 net.cpp:434] conv11_1_relu <- conv11_1
I0820 09:02:39.653959 11316 net.cpp:395] conv11_1_relu -> conv11_1 (in-place)
I0820 09:02:39.654956 11316 net.cpp:150] Setting up conv11_1_relu
I0820 09:02:39.654956 11316 net.cpp:157] Top shape: 8 128 3 3 (9216)
I0820 09:02:39.654956 11316 net.cpp:165] Memory required for data: 1882202144
I0820 09:02:39.654956 11316 layer_factory.hpp:77] Creating layer conv11_2
I0820 09:02:39.654956 11316 net.cpp:100] Creating Layer conv11_2
I0820 09:02:39.654956 11316 net.cpp:434] conv11_2 <- conv11_1
I0820 09:02:39.654956 11316 net.cpp:408] conv11_2 -> conv11_2
I0820 09:02:39.660940 11316 net.cpp:150] Setting up conv11_2
I0820 09:02:39.660940 11316 net.cpp:157] Top shape: 8 256 1 1 (2048)
I0820 09:02:39.660940 11316 net.cpp:165] Memory required for data: 1882210336
I0820 09:02:39.660940 11316 layer_factory.hpp:77] Creating layer conv11_2_relu
I0820 09:02:39.660940 11316 net.cpp:100] Creating Layer conv11_2_relu
I0820 09:02:39.660940 11316 net.cpp:434] conv11_2_relu <- conv11_2
I0820 09:02:39.660940 11316 net.cpp:395] conv11_2_relu -> conv11_2 (in-place)
I0820 09:02:39.660940 11316 net.cpp:150] Setting up conv11_2_relu
I0820 09:02:39.660940 11316 net.cpp:157] Top shape: 8 256 1 1 (2048)
I0820 09:02:39.660940 11316 net.cpp:165] Memory required for data: 1882218528
I0820 09:02:39.660940 11316 layer_factory.hpp:77] Creating layer conv11_2_conv11_2_relu_0_split
I0820 09:02:39.660940 11316 net.cpp:100] Creating Layer conv11_2_conv11_2_relu_0_split
I0820 09:02:39.660940 11316 net.cpp:434] conv11_2_conv11_2_relu_0_split <- conv11_2
I0820 09:02:39.660940 11316 net.cpp:408] conv11_2_conv11_2_relu_0_split -> conv11_2_conv11_2_relu_0_split_0
I0820 09:02:39.660940 11316 net.cpp:408] conv11_2_conv11_2_relu_0_split -> conv11_2_conv11_2_relu_0_split_1
I0820 09:02:39.660940 11316 net.cpp:408] conv11_2_conv11_2_relu_0_split -> conv11_2_conv11_2_relu_0_split_2
I0820 09:02:39.660940 11316 net.cpp:150] Setting up conv11_2_conv11_2_relu_0_split
I0820 09:02:39.660940 11316 net.cpp:157] Top shape: 8 256 1 1 (2048)
I0820 09:02:39.660940 11316 net.cpp:157] Top shape: 8 256 1 1 (2048)
I0820 09:02:39.660940 11316 net.cpp:157] Top shape: 8 256 1 1 (2048)
I0820 09:02:39.660940 11316 net.cpp:165] Memory required for data: 1882243104
I0820 09:02:39.660940 11316 layer_factory.hpp:77] Creating layer conv4_3_norm
I0820 09:02:39.660940 11316 net.cpp:100] Creating Layer conv4_3_norm
I0820 09:02:39.660940 11316 net.cpp:434] conv4_3_norm <- conv4_3_relu4_3_0_split_1
I0820 09:02:39.660940 11316 net.cpp:408] conv4_3_norm -> conv4_3_norm
I0820 09:02:39.661937 11316 net.cpp:150] Setting up conv4_3_norm
I0820 09:02:39.661937 11316 net.cpp:157] Top shape: 8 512 38 38 (5914624)
I0820 09:02:39.661937 11316 net.cpp:165] Memory required for data: 1905901600
I0820 09:02:39.661937 11316 layer_factory.hpp:77] Creating layer conv4_3_norm_conv4_3_norm_0_split
I0820 09:02:39.661937 11316 net.cpp:100] Creating Layer conv4_3_norm_conv4_3_norm_0_split
I0820 09:02:39.661937 11316 net.cpp:434] conv4_3_norm_conv4_3_norm_0_split <- conv4_3_norm
I0820 09:02:39.661937 11316 net.cpp:408] conv4_3_norm_conv4_3_norm_0_split -> conv4_3_norm_conv4_3_norm_0_split_0
I0820 09:02:39.661937 11316 net.cpp:408] conv4_3_norm_conv4_3_norm_0_split -> conv4_3_norm_conv4_3_norm_0_split_1
I0820 09:02:39.661937 11316 net.cpp:408] conv4_3_norm_conv4_3_norm_0_split -> conv4_3_norm_conv4_3_norm_0_split_2
I0820 09:02:39.661937 11316 net.cpp:150] Setting up conv4_3_norm_conv4_3_norm_0_split
I0820 09:02:39.661937 11316 net.cpp:157] Top shape: 8 512 38 38 (5914624)
I0820 09:02:39.661937 11316 net.cpp:157] Top shape: 8 512 38 38 (5914624)
I0820 09:02:39.661937 11316 net.cpp:157] Top shape: 8 512 38 38 (5914624)
I0820 09:02:39.661937 11316 net.cpp:165] Memory required for data: 1976877088
I0820 09:02:39.661937 11316 layer_factory.hpp:77] Creating layer conv4_3_norm_mbox_loc
I0820 09:02:39.661937 11316 net.cpp:100] Creating Layer conv4_3_norm_mbox_loc
I0820 09:02:39.661937 11316 net.cpp:434] conv4_3_norm_mbox_loc <- conv4_3_norm_conv4_3_norm_0_split_0
I0820 09:02:39.661937 11316 net.cpp:408] conv4_3_norm_mbox_loc -> conv4_3_norm_mbox_loc
I0820 09:02:39.665926 11316 net.cpp:150] Setting up conv4_3_norm_mbox_loc
I0820 09:02:39.665926 11316 net.cpp:157] Top shape: 8 16 38 38 (184832)
I0820 09:02:39.665926 11316 net.cpp:165] Memory required for data: 1977616416
I0820 09:02:39.665926 11316 layer_factory.hpp:77] Creating layer conv4_3_norm_mbox_loc_perm
I0820 09:02:39.665926 11316 net.cpp:100] Creating Layer conv4_3_norm_mbox_loc_perm
I0820 09:02:39.665926 11316 net.cpp:434] conv4_3_norm_mbox_loc_perm <- conv4_3_norm_mbox_loc
I0820 09:02:39.665926 11316 net.cpp:408] conv4_3_norm_mbox_loc_perm -> conv4_3_norm_mbox_loc_perm
I0820 09:02:39.665926 11316 net.cpp:150] Setting up conv4_3_norm_mbox_loc_perm
I0820 09:02:39.665926 11316 net.cpp:157] Top shape: 8 38 38 16 (184832)
I0820 09:02:39.665926 11316 net.cpp:165] Memory required for data: 1978355744
I0820 09:02:39.665926 11316 layer_factory.hpp:77] Creating layer conv4_3_norm_mbox_loc_flat
I0820 09:02:39.665926 11316 net.cpp:100] Creating Layer conv4_3_norm_mbox_loc_flat
I0820 09:02:39.665926 11316 net.cpp:434] conv4_3_norm_mbox_loc_flat <- conv4_3_norm_mbox_loc_perm
I0820 09:02:39.665926 11316 net.cpp:408] conv4_3_norm_mbox_loc_flat -> conv4_3_norm_mbox_loc_flat
I0820 09:02:39.665926 11316 net.cpp:150] Setting up conv4_3_norm_mbox_loc_flat
I0820 09:02:39.665926 11316 net.cpp:157] Top shape: 8 23104 (184832)
I0820 09:02:39.665926 11316 net.cpp:165] Memory required for data: 1979095072
I0820 09:02:39.665926 11316 layer_factory.hpp:77] Creating layer conv4_3_norm_mbox_conf
I0820 09:02:39.665926 11316 net.cpp:100] Creating Layer conv4_3_norm_mbox_conf
I0820 09:02:39.665926 11316 net.cpp:434] conv4_3_norm_mbox_conf <- conv4_3_norm_conv4_3_norm_0_split_1
I0820 09:02:39.665926 11316 net.cpp:408] conv4_3_norm_mbox_conf -> conv4_3_norm_mbox_conf
I0820 09:02:39.668918 11316 net.cpp:150] Setting up conv4_3_norm_mbox_conf
I0820 09:02:39.668918 11316 net.cpp:157] Top shape: 8 12 38 38 (138624)
I0820 09:02:39.668918 11316 net.cpp:165] Memory required for data: 1979649568
I0820 09:02:39.668918 11316 layer_factory.hpp:77] Creating layer conv4_3_norm_mbox_conf_perm
I0820 09:02:39.668918 11316 net.cpp:100] Creating Layer conv4_3_norm_mbox_conf_perm
I0820 09:02:39.668918 11316 net.cpp:434] conv4_3_norm_mbox_conf_perm <- conv4_3_norm_mbox_conf
I0820 09:02:39.668918 11316 net.cpp:408] conv4_3_norm_mbox_conf_perm -> conv4_3_norm_mbox_conf_perm
I0820 09:02:39.668918 11316 net.cpp:150] Setting up conv4_3_norm_mbox_conf_perm
I0820 09:02:39.668918 11316 net.cpp:157] Top shape: 8 38 38 12 (138624)
I0820 09:02:39.668918 11316 net.cpp:165] Memory required for data: 1980204064
I0820 09:02:39.668918 11316 layer_factory.hpp:77] Creating layer conv4_3_norm_mbox_conf_flat
I0820 09:02:39.668918 11316 net.cpp:100] Creating Layer conv4_3_norm_mbox_conf_flat
I0820 09:02:39.668918 11316 net.cpp:434] conv4_3_norm_mbox_conf_flat <- conv4_3_norm_mbox_conf_perm
I0820 09:02:39.668918 11316 net.cpp:408] conv4_3_norm_mbox_conf_flat -> conv4_3_norm_mbox_conf_flat
I0820 09:02:39.668918 11316 net.cpp:150] Setting up conv4_3_norm_mbox_conf_flat
I0820 09:02:39.668918 11316 net.cpp:157] Top shape: 8 17328 (138624)
I0820 09:02:39.668918 11316 net.cpp:165] Memory required for data: 1980758560
I0820 09:02:39.668918 11316 layer_factory.hpp:77] Creating layer conv4_3_norm_mbox_priorbox
I0820 09:02:39.668918 11316 net.cpp:100] Creating Layer conv4_3_norm_mbox_priorbox
I0820 09:02:39.668918 11316 net.cpp:434] conv4_3_norm_mbox_priorbox <- conv4_3_norm_conv4_3_norm_0_split_2
I0820 09:02:39.668918 11316 net.cpp:434] conv4_3_norm_mbox_priorbox <- data_data_0_split_1
I0820 09:02:39.668918 11316 net.cpp:408] conv4_3_norm_mbox_priorbox -> conv4_3_norm_mbox_priorbox
I0820 09:02:39.669915 11316 net.cpp:150] Setting up conv4_3_norm_mbox_priorbox
I0820 09:02:39.669915 11316 net.cpp:157] Top shape: 1 2 23104 (46208)
I0820 09:02:39.669915 11316 net.cpp:165] Memory required for data: 1980943392
I0820 09:02:39.669915 11316 layer_factory.hpp:77] Creating layer fc7_mbox_loc
I0820 09:02:39.669915 11316 net.cpp:100] Creating Layer fc7_mbox_loc
I0820 09:02:39.669915 11316 net.cpp:434] fc7_mbox_loc <- fc7_relu7_0_split_1
I0820 09:02:39.669915 11316 net.cpp:408] fc7_mbox_loc -> fc7_mbox_loc
I0820 09:02:39.672909 11316 net.cpp:150] Setting up fc7_mbox_loc
I0820 09:02:39.672909 11316 net.cpp:157] Top shape: 8 24 19 19 (69312)
I0820 09:02:39.672909 11316 net.cpp:165] Memory required for data: 1981220640
I0820 09:02:39.672909 11316 layer_factory.hpp:77] Creating layer fc7_mbox_loc_perm
I0820 09:02:39.672909 11316 net.cpp:100] Creating Layer fc7_mbox_loc_perm
I0820 09:02:39.672909 11316 net.cpp:434] fc7_mbox_loc_perm <- fc7_mbox_loc
I0820 09:02:39.672909 11316 net.cpp:408] fc7_mbox_loc_perm -> fc7_mbox_loc_perm
I0820 09:02:39.672909 11316 net.cpp:150] Setting up fc7_mbox_loc_perm
I0820 09:02:39.672909 11316 net.cpp:157] Top shape: 8 19 19 24 (69312)
I0820 09:02:39.672909 11316 net.cpp:165] Memory required for data: 1981497888
I0820 09:02:39.672909 11316 layer_factory.hpp:77] Creating layer fc7_mbox_loc_flat
I0820 09:02:39.672909 11316 net.cpp:100] Creating Layer fc7_mbox_loc_flat
I0820 09:02:39.672909 11316 net.cpp:434] fc7_mbox_loc_flat <- fc7_mbox_loc_perm
I0820 09:02:39.672909 11316 net.cpp:408] fc7_mbox_loc_flat -> fc7_mbox_loc_flat
I0820 09:02:39.672909 11316 net.cpp:150] Setting up fc7_mbox_loc_flat
I0820 09:02:39.672909 11316 net.cpp:157] Top shape: 8 8664 (69312)
I0820 09:02:39.672909 11316 net.cpp:165] Memory required for data: 1981775136
I0820 09:02:39.672909 11316 layer_factory.hpp:77] Creating layer fc7_mbox_conf
I0820 09:02:39.672909 11316 net.cpp:100] Creating Layer fc7_mbox_conf
I0820 09:02:39.672909 11316 net.cpp:434] fc7_mbox_conf <- fc7_relu7_0_split_2
I0820 09:02:39.672909 11316 net.cpp:408] fc7_mbox_conf -> fc7_mbox_conf
I0820 09:02:39.677894 11316 net.cpp:150] Setting up fc7_mbox_conf
I0820 09:02:39.677894 11316 net.cpp:157] Top shape: 8 18 19 19 (51984)
I0820 09:02:39.677894 11316 net.cpp:165] Memory required for data: 1981983072
I0820 09:02:39.677894 11316 layer_factory.hpp:77] Creating layer fc7_mbox_conf_perm
I0820 09:02:39.677894 11316 net.cpp:100] Creating Layer fc7_mbox_conf_perm
I0820 09:02:39.678892 11316 net.cpp:434] fc7_mbox_conf_perm <- fc7_mbox_conf
I0820 09:02:39.678892 11316 net.cpp:408] fc7_mbox_conf_perm -> fc7_mbox_conf_perm
I0820 09:02:39.678892 11316 net.cpp:150] Setting up fc7_mbox_conf_perm
I0820 09:02:39.678892 11316 net.cpp:157] Top shape: 8 19 19 18 (51984)
I0820 09:02:39.678892 11316 net.cpp:165] Memory required for data: 1982191008
I0820 09:02:39.678892 11316 layer_factory.hpp:77] Creating layer fc7_mbox_conf_flat
I0820 09:02:39.678892 11316 net.cpp:100] Creating Layer fc7_mbox_conf_flat
I0820 09:02:39.678892 11316 net.cpp:434] fc7_mbox_conf_flat <- fc7_mbox_conf_perm
I0820 09:02:39.678892 11316 net.cpp:408] fc7_mbox_conf_flat -> fc7_mbox_conf_flat
I0820 09:02:39.678892 11316 net.cpp:150] Setting up fc7_mbox_conf_flat
I0820 09:02:39.678892 11316 net.cpp:157] Top shape: 8 6498 (51984)
I0820 09:02:39.678892 11316 net.cpp:165] Memory required for data: 1982398944
I0820 09:02:39.678892 11316 layer_factory.hpp:77] Creating layer fc7_mbox_priorbox
I0820 09:02:39.678892 11316 net.cpp:100] Creating Layer fc7_mbox_priorbox
I0820 09:02:39.678892 11316 net.cpp:434] fc7_mbox_priorbox <- fc7_relu7_0_split_3
I0820 09:02:39.678892 11316 net.cpp:434] fc7_mbox_priorbox <- data_data_0_split_2
I0820 09:02:39.678892 11316 net.cpp:408] fc7_mbox_priorbox -> fc7_mbox_priorbox
I0820 09:02:39.678892 11316 net.cpp:150] Setting up fc7_mbox_priorbox
I0820 09:02:39.678892 11316 net.cpp:157] Top shape: 1 2 8664 (17328)
I0820 09:02:39.678892 11316 net.cpp:165] Memory required for data: 1982468256
I0820 09:02:39.678892 11316 layer_factory.hpp:77] Creating layer conv8_2_mbox_loc
I0820 09:02:39.678892 11316 net.cpp:100] Creating Layer conv8_2_mbox_loc
I0820 09:02:39.678892 11316 net.cpp:434] conv8_2_mbox_loc <- conv8_2_conv8_2_relu_0_split_1
I0820 09:02:39.678892 11316 net.cpp:408] conv8_2_mbox_loc -> conv8_2_mbox_loc
I0820 09:02:39.710806 11316 net.cpp:150] Setting up conv8_2_mbox_loc
I0820 09:02:39.710806 11316 net.cpp:157] Top shape: 8 24 10 10 (19200)
I0820 09:02:39.710806 11316 net.cpp:165] Memory required for data: 1982545056
I0820 09:02:39.710806 11316 layer_factory.hpp:77] Creating layer conv8_2_mbox_loc_perm
I0820 09:02:39.710806 11316 net.cpp:100] Creating Layer conv8_2_mbox_loc_perm
I0820 09:02:39.710806 11316 net.cpp:434] conv8_2_mbox_loc_perm <- conv8_2_mbox_loc
I0820 09:02:39.710806 11316 net.cpp:408] conv8_2_mbox_loc_perm -> conv8_2_mbox_loc_perm
I0820 09:02:39.710806 11316 net.cpp:150] Setting up conv8_2_mbox_loc_perm
I0820 09:02:39.710806 11316 net.cpp:157] Top shape: 8 10 10 24 (19200)
I0820 09:02:39.710806 11316 net.cpp:165] Memory required for data: 1982621856
I0820 09:02:39.710806 11316 layer_factory.hpp:77] Creating layer conv8_2_mbox_loc_flat
I0820 09:02:39.710806 11316 net.cpp:100] Creating Layer conv8_2_mbox_loc_flat
I0820 09:02:39.710806 11316 net.cpp:434] conv8_2_mbox_loc_flat <- conv8_2_mbox_loc_perm
I0820 09:02:39.710806 11316 net.cpp:408] conv8_2_mbox_loc_flat -> conv8_2_mbox_loc_flat
I0820 09:02:39.710806 11316 net.cpp:150] Setting up conv8_2_mbox_loc_flat
I0820 09:02:39.710806 11316 net.cpp:157] Top shape: 8 2400 (19200)
I0820 09:02:39.710806 11316 net.cpp:165] Memory required for data: 1982698656
I0820 09:02:39.710806 11316 layer_factory.hpp:77] Creating layer conv8_2_mbox_conf
I0820 09:02:39.710806 11316 net.cpp:100] Creating Layer conv8_2_mbox_conf
I0820 09:02:39.710806 11316 net.cpp:434] conv8_2_mbox_conf <- conv8_2_conv8_2_relu_0_split_2
I0820 09:02:39.710806 11316 net.cpp:408] conv8_2_mbox_conf -> conv8_2_mbox_conf
I0820 09:02:39.713798 11316 net.cpp:150] Setting up conv8_2_mbox_conf
I0820 09:02:39.713798 11316 net.cpp:157] Top shape: 8 18 10 10 (14400)
I0820 09:02:39.713798 11316 net.cpp:165] Memory required for data: 1982756256
I0820 09:02:39.713798 11316 layer_factory.hpp:77] Creating layer conv8_2_mbox_conf_perm
I0820 09:02:39.713798 11316 net.cpp:100] Creating Layer conv8_2_mbox_conf_perm
I0820 09:02:39.713798 11316 net.cpp:434] conv8_2_mbox_conf_perm <- conv8_2_mbox_conf
I0820 09:02:39.713798 11316 net.cpp:408] conv8_2_mbox_conf_perm -> conv8_2_mbox_conf_perm
I0820 09:02:39.713798 11316 net.cpp:150] Setting up conv8_2_mbox_conf_perm
I0820 09:02:39.713798 11316 net.cpp:157] Top shape: 8 10 10 18 (14400)
I0820 09:02:39.713798 11316 net.cpp:165] Memory required for data: 1982813856
I0820 09:02:39.713798 11316 layer_factory.hpp:77] Creating layer conv8_2_mbox_conf_flat
I0820 09:02:39.713798 11316 net.cpp:100] Creating Layer conv8_2_mbox_conf_flat
I0820 09:02:39.713798 11316 net.cpp:434] conv8_2_mbox_conf_flat <- conv8_2_mbox_conf_perm
I0820 09:02:39.713798 11316 net.cpp:408] conv8_2_mbox_conf_flat -> conv8_2_mbox_conf_flat
I0820 09:02:39.713798 11316 net.cpp:150] Setting up conv8_2_mbox_conf_flat
I0820 09:02:39.713798 11316 net.cpp:157] Top shape: 8 1800 (14400)
I0820 09:02:39.713798 11316 net.cpp:165] Memory required for data: 1982871456
I0820 09:02:39.714795 11316 layer_factory.hpp:77] Creating layer conv8_2_mbox_priorbox
I0820 09:02:39.714795 11316 net.cpp:100] Creating Layer conv8_2_mbox_priorbox
I0820 09:02:39.714795 11316 net.cpp:434] conv8_2_mbox_priorbox <- conv8_2_conv8_2_relu_0_split_3
I0820 09:02:39.714795 11316 net.cpp:434] conv8_2_mbox_priorbox <- data_data_0_split_3
I0820 09:02:39.714795 11316 net.cpp:408] conv8_2_mbox_priorbox -> conv8_2_mbox_priorbox
I0820 09:02:39.714795 11316 net.cpp:150] Setting up conv8_2_mbox_priorbox
I0820 09:02:39.714795 11316 net.cpp:157] Top shape: 1 2 2400 (4800)
I0820 09:02:39.714795 11316 net.cpp:165] Memory required for data: 1982890656
I0820 09:02:39.714795 11316 layer_factory.hpp:77] Creating layer conv9_2_mbox_loc
I0820 09:02:39.714795 11316 net.cpp:100] Creating Layer conv9_2_mbox_loc
I0820 09:02:39.714795 11316 net.cpp:434] conv9_2_mbox_loc <- conv9_2_conv9_2_relu_0_split_1
I0820 09:02:39.714795 11316 net.cpp:408] conv9_2_mbox_loc -> conv9_2_mbox_loc
I0820 09:02:39.717787 11316 net.cpp:150] Setting up conv9_2_mbox_loc
I0820 09:02:39.717787 11316 net.cpp:157] Top shape: 8 24 5 5 (4800)
I0820 09:02:39.717787 11316 net.cpp:165] Memory required for data: 1982909856
I0820 09:02:39.717787 11316 layer_factory.hpp:77] Creating layer conv9_2_mbox_loc_perm
I0820 09:02:39.717787 11316 net.cpp:100] Creating Layer conv9_2_mbox_loc_perm
I0820 09:02:39.717787 11316 net.cpp:434] conv9_2_mbox_loc_perm <- conv9_2_mbox_loc
I0820 09:02:39.717787 11316 net.cpp:408] conv9_2_mbox_loc_perm -> conv9_2_mbox_loc_perm
I0820 09:02:39.717787 11316 net.cpp:150] Setting up conv9_2_mbox_loc_perm
I0820 09:02:39.717787 11316 net.cpp:157] Top shape: 8 5 5 24 (4800)
I0820 09:02:39.717787 11316 net.cpp:165] Memory required for data: 1982929056
I0820 09:02:39.717787 11316 layer_factory.hpp:77] Creating layer conv9_2_mbox_loc_flat
I0820 09:02:39.717787 11316 net.cpp:100] Creating Layer conv9_2_mbox_loc_flat
I0820 09:02:39.717787 11316 net.cpp:434] conv9_2_mbox_loc_flat <- conv9_2_mbox_loc_perm
I0820 09:02:39.717787 11316 net.cpp:408] conv9_2_mbox_loc_flat -> conv9_2_mbox_loc_flat
I0820 09:02:39.717787 11316 net.cpp:150] Setting up conv9_2_mbox_loc_flat
I0820 09:02:39.717787 11316 net.cpp:157] Top shape: 8 600 (4800)
I0820 09:02:39.717787 11316 net.cpp:165] Memory required for data: 1982948256
I0820 09:02:39.717787 11316 layer_factory.hpp:77] Creating layer conv9_2_mbox_conf
I0820 09:02:39.717787 11316 net.cpp:100] Creating Layer conv9_2_mbox_conf
I0820 09:02:39.717787 11316 net.cpp:434] conv9_2_mbox_conf <- conv9_2_conv9_2_relu_0_split_2
I0820 09:02:39.717787 11316 net.cpp:408] conv9_2_mbox_conf -> conv9_2_mbox_conf
I0820 09:02:39.719782 11316 net.cpp:150] Setting up conv9_2_mbox_conf
I0820 09:02:39.719782 11316 net.cpp:157] Top shape: 8 18 5 5 (3600)
I0820 09:02:39.719782 11316 net.cpp:165] Memory required for data: 1982962656
I0820 09:02:39.719782 11316 layer_factory.hpp:77] Creating layer conv9_2_mbox_conf_perm
I0820 09:02:39.719782 11316 net.cpp:100] Creating Layer conv9_2_mbox_conf_perm
I0820 09:02:39.719782 11316 net.cpp:434] conv9_2_mbox_conf_perm <- conv9_2_mbox_conf
I0820 09:02:39.719782 11316 net.cpp:408] conv9_2_mbox_conf_perm -> conv9_2_mbox_conf_perm
I0820 09:02:39.719782 11316 net.cpp:150] Setting up conv9_2_mbox_conf_perm
I0820 09:02:39.719782 11316 net.cpp:157] Top shape: 8 5 5 18 (3600)
I0820 09:02:39.719782 11316 net.cpp:165] Memory required for data: 1982977056
I0820 09:02:39.719782 11316 layer_factory.hpp:77] Creating layer conv9_2_mbox_conf_flat
I0820 09:02:39.719782 11316 net.cpp:100] Creating Layer conv9_2_mbox_conf_flat
I0820 09:02:39.719782 11316 net.cpp:434] conv9_2_mbox_conf_flat <- conv9_2_mbox_conf_perm
I0820 09:02:39.719782 11316 net.cpp:408] conv9_2_mbox_conf_flat -> conv9_2_mbox_conf_flat
I0820 09:02:39.719782 11316 net.cpp:150] Setting up conv9_2_mbox_conf_flat
I0820 09:02:39.719782 11316 net.cpp:157] Top shape: 8 450 (3600)
I0820 09:02:39.719782 11316 net.cpp:165] Memory required for data: 1982991456
I0820 09:02:39.719782 11316 layer_factory.hpp:77] Creating layer conv9_2_mbox_priorbox
I0820 09:02:39.719782 11316 net.cpp:100] Creating Layer conv9_2_mbox_priorbox
I0820 09:02:39.719782 11316 net.cpp:434] conv9_2_mbox_priorbox <- conv9_2_conv9_2_relu_0_split_3
I0820 09:02:39.719782 11316 net.cpp:434] conv9_2_mbox_priorbox <- data_data_0_split_4
I0820 09:02:39.719782 11316 net.cpp:408] conv9_2_mbox_priorbox -> conv9_2_mbox_priorbox
I0820 09:02:39.719782 11316 net.cpp:150] Setting up conv9_2_mbox_priorbox
I0820 09:02:39.719782 11316 net.cpp:157] Top shape: 1 2 600 (1200)
I0820 09:02:39.719782 11316 net.cpp:165] Memory required for data: 1982996256
I0820 09:02:39.719782 11316 layer_factory.hpp:77] Creating layer conv10_2_mbox_loc
I0820 09:02:39.719782 11316 net.cpp:100] Creating Layer conv10_2_mbox_loc
I0820 09:02:39.719782 11316 net.cpp:434] conv10_2_mbox_loc <- conv10_2_conv10_2_relu_0_split_1
I0820 09:02:39.719782 11316 net.cpp:408] conv10_2_mbox_loc -> conv10_2_mbox_loc
I0820 09:02:39.722774 11316 net.cpp:150] Setting up conv10_2_mbox_loc
I0820 09:02:39.722774 11316 net.cpp:157] Top shape: 8 16 3 3 (1152)
I0820 09:02:39.722774 11316 net.cpp:165] Memory required for data: 1983000864
I0820 09:02:39.722774 11316 layer_factory.hpp:77] Creating layer conv10_2_mbox_loc_perm
I0820 09:02:39.722774 11316 net.cpp:100] Creating Layer conv10_2_mbox_loc_perm
I0820 09:02:39.722774 11316 net.cpp:434] conv10_2_mbox_loc_perm <- conv10_2_mbox_loc
I0820 09:02:39.722774 11316 net.cpp:408] conv10_2_mbox_loc_perm -> conv10_2_mbox_loc_perm
I0820 09:02:39.722774 11316 net.cpp:150] Setting up conv10_2_mbox_loc_perm
I0820 09:02:39.722774 11316 net.cpp:157] Top shape: 8 3 3 16 (1152)
I0820 09:02:39.722774 11316 net.cpp:165] Memory required for data: 1983005472
I0820 09:02:39.722774 11316 layer_factory.hpp:77] Creating layer conv10_2_mbox_loc_flat
I0820 09:02:39.722774 11316 net.cpp:100] Creating Layer conv10_2_mbox_loc_flat
I0820 09:02:39.722774 11316 net.cpp:434] conv10_2_mbox_loc_flat <- conv10_2_mbox_loc_perm
I0820 09:02:39.722774 11316 net.cpp:408] conv10_2_mbox_loc_flat -> conv10_2_mbox_loc_flat
I0820 09:02:39.722774 11316 net.cpp:150] Setting up conv10_2_mbox_loc_flat
I0820 09:02:39.722774 11316 net.cpp:157] Top shape: 8 144 (1152)
I0820 09:02:39.722774 11316 net.cpp:165] Memory required for data: 1983010080
I0820 09:02:39.722774 11316 layer_factory.hpp:77] Creating layer conv10_2_mbox_conf
I0820 09:02:39.722774 11316 net.cpp:100] Creating Layer conv10_2_mbox_conf
I0820 09:02:39.722774 11316 net.cpp:434] conv10_2_mbox_conf <- conv10_2_conv10_2_relu_0_split_2
I0820 09:02:39.722774 11316 net.cpp:408] conv10_2_mbox_conf -> conv10_2_mbox_conf
I0820 09:02:39.726764 11316 net.cpp:150] Setting up conv10_2_mbox_conf
I0820 09:02:39.726764 11316 net.cpp:157] Top shape: 8 12 3 3 (864)
I0820 09:02:39.726764 11316 net.cpp:165] Memory required for data: 1983013536
I0820 09:02:39.726764 11316 layer_factory.hpp:77] Creating layer conv10_2_mbox_conf_perm
I0820 09:02:39.726764 11316 net.cpp:100] Creating Layer conv10_2_mbox_conf_perm
I0820 09:02:39.726764 11316 net.cpp:434] conv10_2_mbox_conf_perm <- conv10_2_mbox_conf
I0820 09:02:39.726764 11316 net.cpp:408] conv10_2_mbox_conf_perm -> conv10_2_mbox_conf_perm
I0820 09:02:39.726764 11316 net.cpp:150] Setting up conv10_2_mbox_conf_perm
I0820 09:02:39.726764 11316 net.cpp:157] Top shape: 8 3 3 12 (864)
I0820 09:02:39.726764 11316 net.cpp:165] Memory required for data: 1983016992
I0820 09:02:39.726764 11316 layer_factory.hpp:77] Creating layer conv10_2_mbox_conf_flat
I0820 09:02:39.726764 11316 net.cpp:100] Creating Layer conv10_2_mbox_conf_flat
I0820 09:02:39.726764 11316 net.cpp:434] conv10_2_mbox_conf_flat <- conv10_2_mbox_conf_perm
I0820 09:02:39.726764 11316 net.cpp:408] conv10_2_mbox_conf_flat -> conv10_2_mbox_conf_flat
I0820 09:02:39.726764 11316 net.cpp:150] Setting up conv10_2_mbox_conf_flat
I0820 09:02:39.726764 11316 net.cpp:157] Top shape: 8 108 (864)
I0820 09:02:39.726764 11316 net.cpp:165] Memory required for data: 1983020448
I0820 09:02:39.726764 11316 layer_factory.hpp:77] Creating layer conv10_2_mbox_priorbox
I0820 09:02:39.726764 11316 net.cpp:100] Creating Layer conv10_2_mbox_priorbox
I0820 09:02:39.726764 11316 net.cpp:434] conv10_2_mbox_priorbox <- conv10_2_conv10_2_relu_0_split_3
I0820 09:02:39.726764 11316 net.cpp:434] conv10_2_mbox_priorbox <- data_data_0_split_5
I0820 09:02:39.726764 11316 net.cpp:408] conv10_2_mbox_priorbox -> conv10_2_mbox_priorbox
I0820 09:02:39.726764 11316 net.cpp:150] Setting up conv10_2_mbox_priorbox
I0820 09:02:39.726764 11316 net.cpp:157] Top shape: 1 2 144 (288)
I0820 09:02:39.726764 11316 net.cpp:165] Memory required for data: 1983021600
I0820 09:02:39.726764 11316 layer_factory.hpp:77] Creating layer conv11_2_mbox_loc
I0820 09:02:39.726764 11316 net.cpp:100] Creating Layer conv11_2_mbox_loc
I0820 09:02:39.726764 11316 net.cpp:434] conv11_2_mbox_loc <- conv11_2_conv11_2_relu_0_split_0
I0820 09:02:39.726764 11316 net.cpp:408] conv11_2_mbox_loc -> conv11_2_mbox_loc
I0820 09:02:39.730753 11316 net.cpp:150] Setting up conv11_2_mbox_loc
I0820 09:02:39.730753 11316 net.cpp:157] Top shape: 8 16 1 1 (128)
I0820 09:02:39.730753 11316 net.cpp:165] Memory required for data: 1983022112
I0820 09:02:39.730753 11316 layer_factory.hpp:77] Creating layer conv11_2_mbox_loc_perm
I0820 09:02:39.730753 11316 net.cpp:100] Creating Layer conv11_2_mbox_loc_perm
I0820 09:02:39.730753 11316 net.cpp:434] conv11_2_mbox_loc_perm <- conv11_2_mbox_loc
I0820 09:02:39.730753 11316 net.cpp:408] conv11_2_mbox_loc_perm -> conv11_2_mbox_loc_perm
I0820 09:02:39.730753 11316 net.cpp:150] Setting up conv11_2_mbox_loc_perm
I0820 09:02:39.730753 11316 net.cpp:157] Top shape: 8 1 1 16 (128)
I0820 09:02:39.730753 11316 net.cpp:165] Memory required for data: 1983022624
I0820 09:02:39.730753 11316 layer_factory.hpp:77] Creating layer conv11_2_mbox_loc_flat
I0820 09:02:39.730753 11316 net.cpp:100] Creating Layer conv11_2_mbox_loc_flat
I0820 09:02:39.730753 11316 net.cpp:434] conv11_2_mbox_loc_flat <- conv11_2_mbox_loc_perm
I0820 09:02:39.730753 11316 net.cpp:408] conv11_2_mbox_loc_flat -> conv11_2_mbox_loc_flat
I0820 09:02:39.730753 11316 net.cpp:150] Setting up conv11_2_mbox_loc_flat
I0820 09:02:39.730753 11316 net.cpp:157] Top shape: 8 16 (128)
I0820 09:02:39.730753 11316 net.cpp:165] Memory required for data: 1983023136
I0820 09:02:39.730753 11316 layer_factory.hpp:77] Creating layer conv11_2_mbox_conf
I0820 09:02:39.730753 11316 net.cpp:100] Creating Layer conv11_2_mbox_conf
I0820 09:02:39.730753 11316 net.cpp:434] conv11_2_mbox_conf <- conv11_2_conv11_2_relu_0_split_1
I0820 09:02:39.730753 11316 net.cpp:408] conv11_2_mbox_conf -> conv11_2_mbox_conf
I0820 09:02:39.733745 11316 net.cpp:150] Setting up conv11_2_mbox_conf
I0820 09:02:39.733745 11316 net.cpp:157] Top shape: 8 12 1 1 (96)
I0820 09:02:39.733745 11316 net.cpp:165] Memory required for data: 1983023520
I0820 09:02:39.733745 11316 layer_factory.hpp:77] Creating layer conv11_2_mbox_conf_perm
I0820 09:02:39.733745 11316 net.cpp:100] Creating Layer conv11_2_mbox_conf_perm
I0820 09:02:39.733745 11316 net.cpp:434] conv11_2_mbox_conf_perm <- conv11_2_mbox_conf
I0820 09:02:39.733745 11316 net.cpp:408] conv11_2_mbox_conf_perm -> conv11_2_mbox_conf_perm
I0820 09:02:39.733745 11316 net.cpp:150] Setting up conv11_2_mbox_conf_perm
I0820 09:02:39.733745 11316 net.cpp:157] Top shape: 8 1 1 12 (96)
I0820 09:02:39.733745 11316 net.cpp:165] Memory required for data: 1983023904
I0820 09:02:39.733745 11316 layer_factory.hpp:77] Creating layer conv11_2_mbox_conf_flat
I0820 09:02:39.733745 11316 net.cpp:100] Creating Layer conv11_2_mbox_conf_flat
I0820 09:02:39.733745 11316 net.cpp:434] conv11_2_mbox_conf_flat <- conv11_2_mbox_conf_perm
I0820 09:02:39.733745 11316 net.cpp:408] conv11_2_mbox_conf_flat -> conv11_2_mbox_conf_flat
I0820 09:02:39.733745 11316 net.cpp:150] Setting up conv11_2_mbox_conf_flat
I0820 09:02:39.733745 11316 net.cpp:157] Top shape: 8 12 (96)
I0820 09:02:39.733745 11316 net.cpp:165] Memory required for data: 1983024288
I0820 09:02:39.733745 11316 layer_factory.hpp:77] Creating layer conv11_2_mbox_priorbox
I0820 09:02:39.733745 11316 net.cpp:100] Creating Layer conv11_2_mbox_priorbox
I0820 09:02:39.733745 11316 net.cpp:434] conv11_2_mbox_priorbox <- conv11_2_conv11_2_relu_0_split_2
I0820 09:02:39.733745 11316 net.cpp:434] conv11_2_mbox_priorbox <- data_data_0_split_6
I0820 09:02:39.733745 11316 net.cpp:408] conv11_2_mbox_priorbox -> conv11_2_mbox_priorbox
I0820 09:02:39.733745 11316 net.cpp:150] Setting up conv11_2_mbox_priorbox
I0820 09:02:39.733745 11316 net.cpp:157] Top shape: 1 2 16 (32)
I0820 09:02:39.733745 11316 net.cpp:165] Memory required for data: 1983024416
I0820 09:02:39.733745 11316 layer_factory.hpp:77] Creating layer mbox_loc
I0820 09:02:39.734742 11316 net.cpp:100] Creating Layer mbox_loc
I0820 09:02:39.734742 11316 net.cpp:434] mbox_loc <- conv4_3_norm_mbox_loc_flat
I0820 09:02:39.734742 11316 net.cpp:434] mbox_loc <- fc7_mbox_loc_flat
I0820 09:02:39.734742 11316 net.cpp:434] mbox_loc <- conv8_2_mbox_loc_flat
I0820 09:02:39.734742 11316 net.cpp:434] mbox_loc <- conv9_2_mbox_loc_flat
I0820 09:02:39.734742 11316 net.cpp:434] mbox_loc <- conv10_2_mbox_loc_flat
I0820 09:02:39.734742 11316 net.cpp:434] mbox_loc <- conv11_2_mbox_loc_flat
I0820 09:02:39.734742 11316 net.cpp:408] mbox_loc -> mbox_loc
I0820 09:02:39.734742 11316 net.cpp:150] Setting up mbox_loc
I0820 09:02:39.734742 11316 net.cpp:157] Top shape: 8 34928 (279424)
I0820 09:02:39.734742 11316 net.cpp:165] Memory required for data: 1984142112
I0820 09:02:39.734742 11316 layer_factory.hpp:77] Creating layer mbox_conf
I0820 09:02:39.734742 11316 net.cpp:100] Creating Layer mbox_conf
I0820 09:02:39.734742 11316 net.cpp:434] mbox_conf <- conv4_3_norm_mbox_conf_flat
I0820 09:02:39.734742 11316 net.cpp:434] mbox_conf <- fc7_mbox_conf_flat
I0820 09:02:39.734742 11316 net.cpp:434] mbox_conf <- conv8_2_mbox_conf_flat
I0820 09:02:39.734742 11316 net.cpp:434] mbox_conf <- conv9_2_mbox_conf_flat
I0820 09:02:39.734742 11316 net.cpp:434] mbox_conf <- conv10_2_mbox_conf_flat
I0820 09:02:39.734742 11316 net.cpp:434] mbox_conf <- conv11_2_mbox_conf_flat
I0820 09:02:39.734742 11316 net.cpp:408] mbox_conf -> mbox_conf
I0820 09:02:39.734742 11316 net.cpp:150] Setting up mbox_conf
I0820 09:02:39.734742 11316 net.cpp:157] Top shape: 8 26196 (209568)
I0820 09:02:39.734742 11316 net.cpp:165] Memory required for data: 1984980384
I0820 09:02:39.734742 11316 layer_factory.hpp:77] Creating layer mbox_priorbox
I0820 09:02:39.734742 11316 net.cpp:100] Creating Layer mbox_priorbox
I0820 09:02:39.734742 11316 net.cpp:434] mbox_priorbox <- conv4_3_norm_mbox_priorbox
I0820 09:02:39.734742 11316 net.cpp:434] mbox_priorbox <- fc7_mbox_priorbox
I0820 09:02:39.734742 11316 net.cpp:434] mbox_priorbox <- conv8_2_mbox_priorbox
I0820 09:02:39.734742 11316 net.cpp:434] mbox_priorbox <- conv9_2_mbox_priorbox
I0820 09:02:39.734742 11316 net.cpp:434] mbox_priorbox <- conv10_2_mbox_priorbox
I0820 09:02:39.734742 11316 net.cpp:434] mbox_priorbox <- conv11_2_mbox_priorbox
I0820 09:02:39.734742 11316 net.cpp:408] mbox_priorbox -> mbox_priorbox
I0820 09:02:39.734742 11316 net.cpp:150] Setting up mbox_priorbox
I0820 09:02:39.734742 11316 net.cpp:157] Top shape: 1 2 34928 (69856)
I0820 09:02:39.734742 11316 net.cpp:165] Memory required for data: 1985259808
I0820 09:02:39.734742 11316 layer_factory.hpp:77] Creating layer mbox_loss
I0820 09:02:39.734742 11316 net.cpp:100] Creating Layer mbox_loss
I0820 09:02:39.734742 11316 net.cpp:434] mbox_loss <- mbox_loc
I0820 09:02:39.734742 11316 net.cpp:434] mbox_loss <- mbox_conf
I0820 09:02:39.734742 11316 net.cpp:434] mbox_loss <- mbox_priorbox
…
layer {
  name: "data"
  type: "AnnotatedData"
  top: "data"
  include {
    phase: TEST
  }
  transform_param {
    mean_value: 104
    mean_value: 117
    mean_value: 123
    force_color: true
    resize_param {
      prob: 1
      resize_mode: WARP
      height: 300
      width: 300
      interp_mode: LINEAR
    }
  }
  data_param {
    source: "examples\\wastedata\\wastedata_test_lmdb"
    batch_size: 8
    backend: LMDB
  }
  annotated_data_param {
    batch_sampler {
    }
    label_map_file: "data\\wastedata\\labelmap_waste.prototxt"
  }
}
layer {
  name: "conv1_1"
  type: "Convolution"
  bottom: "data"
  top: "conv1_1"
  param {
    lr_mult: 1
    decay_mult: 1
  }
  param {
    lr_mult: 1
    decay_mult: 0
  }
  convolution_param {
    num_output: 64
    pad: 1
    kernel_size: 3
    weight_filler {
      type: "xavier"
    }
    bias_filler {
      type: "constant"
      value: 0
    }
  }
}
layer {
  name: "relu1_1"
  type: "ReLU"
  bottom: "conv1_1"
  top: "conv1_1"
}
layer {
  name: "conv1_2"
  type: "Convolution"
  bottom: "conv1_1"
  top: "conv1_2"
  param {
    lr_mult: 1
    decay_mult: 1
  }
  param {
    lr_mult: 1
    decay_mult: 0
  }
  convolution_param {
    num_output: 64
    pad: 1
    kernel_size: 3
    weight_filler {
      type: "xavier"
    }
    bias_filler {
      type: "constant"
      value: 0
    }
  }
}
layer {
  name: "relu1_2"
  type: "ReLU"
  bottom: "conv1_2"
  top: "conv1_2"
}
layer {
  name: "pool1"
  type: "Pooling"
  bottom: "conv1_2"
  top: "pool1"
  pooling_param {
    pool: MAX
    kernel_size: 2
    stride: 2
  }
}
layer {
  name: "conv2_1"
  type: "Convolution"
  bottom: "pool1"
  top: "conv2_1"
  param {
    lr_mult: 1
    decay_mult: 1
  }
  param {
    lr_mult: 1
    decay_mult: 0
  }
  convolution_param {
    num_output: 128
    pad: 1
    kernel_size: 3
    weight_filler {
      type: "xavier"
    }
    bias_filler {
      type: "constant"
      value: 0
    }
  }
}
layer {
  name: "relu2_1"
  type: "ReLU"
  bottom: "conv2_1"
  top: "conv2_1"
}
layer {
  name: "conv2_2"
  type: "Convolution"
  bottom: "conv2_1"
  top: "conv2_2"
  param {
    lr_mult: 1
    decay_mult: 1
  }
  param {
    lr_mult: 1
    decay_mult: 0
  }
  convolution_param {
    num_output: 128
    pad: 1
    kernel_size: 3
    weight_filler {
      type: "xavier"
    }
    bias_filler {
      type: "constant"
      value: 0
    }
  }
}
layer {
  name: "relu2_2"
  type: "ReLU"
  bottom: "conv2_2"
  top: "conv2_2"
}
layer {
  name: "pool2"
  type: "Pooling"
  bottom: "conv2_2"
  top: "pool2"
  pooling_param {
    pool: MAX
    kernel_size: 2
    stride: 2
  }
}
layer {
  name: "conv3_1"
  type: "Convolution"
  bottom: "pool2"
  top: "conv3_1"
  param {
    lr_mult: 1
    decay_mult: 1
  }
  param {
    lr_mult: 1
    decay_mult: 0
  }
  convolution_param {
    num_output: 256
    pad: 1
    kernel_size: 3
    weight_filler {
      type: "xavier"
    }
    bias_filler {
      type: "constant"
      value: 0
    }
  }
}
layer {
  name: "relu3_1"
  type: "ReLU"
  bottom: "conv3_1"
  top: "conv3_1"
}
layer {
  name: "conv3_2"
  type: "Convolution"
  bottom: "conv3_1"
  top: "conv3_2"
  param {
    lr_mult: 1
    decay_mult: 1
  }
  param {
    lr_mult: 1
    decay_mult: 0
  }
  convolution_param {
    num_output: 256
    pad: 1
    kernel_size: 3
    weight_filler {
      type: "xavier"
    }
    bias_filler {
      type: "constant"
      value: 0
    }
  }
}
layer {
  name: "relu3_2"
  type: "ReLU"
  bottom: "conv3_2"
  top: "conv3_2"
}
layer {
  name: "conv3_3"
  type: "Convolution"
  bottom: "conv3_2"
  top: "conv3_3"
  param {
    lr_mult: 1
    decay_mult: 1
  }
  param {
    lr_mult: 1
    decay_mult: 0
  }
  convolution_param {
    num_output: 256
    pad: 1
    kernel_size: 3
    weight_filler {
      type: "xavier"
    }
    bias_filler {
      type: "constant"
      value: 0
    }
  }
}
layer {
  name: "relu3_3"
  type: "ReLU"
  bottom: "conv3_3"
  top: "conv3_3"
}
layer {
  name: "pool3"
  type: "Pooling"
  bottom: "conv3_3"
  top: "pool3"
  pooling_param {
    pool: MAX
    kernel_size: 2
    stride: 2
  }
}
layer {
  name: "conv4_1"
  type: "Convolution"
  bottom: "pool3"
  top: "conv4_1"
  param {
    lr_mult: 1
    decay_mult: 1
  }
  param {
    lr_mult: 1
    decay_mult: 0
  }
  convolution_param {
    num_output: 512
    pad: 1
    kernel_size: 3
    weight_filler {
      type: "xavier"
    }
    bias_filler {
      type: "constant"
      value: 0
    }
  }
}
layer {
  name: "relu4_1"
  type: "ReLU"
  bottom: "conv4_1"
  top: "conv4_1"
}
layer {
  name: "conv4_2"
  type: "Convolution"
  bottom: "conv4_1"
  top: "conv4_2"
  param {
    lr_mult: 1
    decay_mult: 1
  }
  param {
    lr_mult: 1
    decay_mult: 0
  }
  convolution_param {
    num_output: 512
    pad: 1
    kernel_size: 3
    weight_filler {
      type: "xavier"
    }
    bias_filler {
      type: "constant"
      value: 0
    }
  }
}
layer {
  name: "relu4_2"
  type: "ReLU"
  bottom: "conv4_2"
  top: "conv4_2"
}
layer {
  name: "conv4_3"
  type: "Convolution"
  bottom: "conv4_2"
  top: "conv4_3"
  param {
    lr_mult: 1
    decay_mult: 1
  }
  param {
    lr_mult: 1
    decay_mult: 0
  }
  convolution_param {
    num_output: 512
    pad: 1
    kernel_size: 3
    weight_filler {
      type: "xavier"
    }
    bias_filler {
      type: "constant"
      value: 0
    }
  }
}
layer {
  name: "relu4_3"
  type: "ReLU"
  bottom: "conv4_3"
  top: "conv4_3"
}
layer {
  name: "pool4"
  type: "Pooling"
  bottom: "conv4_3"
  top: "pool4"
  pooling_param {
    pool: MAX
    kernel_size: 2
    stride: 2
  }
}
layer {
  name: "conv5_1"
  type: "Convolution"
  bottom: "pool4"
  top: "conv5_1"
  param {
    lr_mult: 1
    decay_mult: 1
  }
  param {
    lr_mult: 1
    decay_mult: 0
  }
  convolution_param {
    num_output: 512
    pad: 1
    kernel_size: 3
    weight_filler {
      type: "xavier"
    }
    bias_filler {
      type: "constant"
      value: 0
    }
    dilation: 1
  }
}
layer {
  name: "relu5_1"
  type: "ReLU"
  bottom: "conv5_1"
  top: "conv5_1"
}
layer {
  name: "conv5_2"
  type: "Convolution"
  bottom: "conv5_1"
  top: "conv5_2"
  param {
    lr_mult: 1
    decay_mult: 1
  }
  param {
    lr_mult: 1
    decay_mult: 0
  }
  convolution_param {
    num_output: 512
    pad: 1
    kernel_size: 3
    weight_filler {
      type: "xavier"
    }
    bias_filler {
      type: "constant"
      value: 0
    }
    dilation: 1
  }
}
layer {
  name: "relu5_2"
  type: "ReLU"
  bottom: "conv5_2"
  top: "conv5_2"
}
layer {
  name: "conv5_3"
  type: "Convolution"
  bottom: "conv5_2"
  top: "conv5_3"
  param {
    lr_mult: 1
    decay_mult: 1
  }
  param {
    lr_mult: 1
    decay_mult: 0
  }
  convolution_param {
    num_output: 512
    pad: 1
    kernel_size: 3
    weight_filler {
      type: "xavier"
    }
    bias_filler {
      type: "constant"
      value: 0
    }
    dilation: 1
  }
}
layer {
  name: "relu5_3"
  type: "ReLU"
  bottom: "conv5_3"
  top: "conv5_3"
}
layer {
  name: "pool5"
  type: "Pooling"
  bottom: "conv5_3"
  top: "pool5"
  pooling_param {
    pool: MAX
    kernel_size: 3
    stride: 1
    pad: 1
  }
}
layer {
  name: "fc6"
  type: "Convolution"
  bottom: "pool5"
  top: "fc6"
  param {
    lr_mult: 1
    decay_mult: 1
  }
  param {
    lr_mult: 1
    decay_mult: 0
  }
  convolution_param {
    num_output: 1024
    pad: 6
    kernel_size: 3
    weight_filler {
      type: "xavier"
    }
    bias_filler {
      type: "constant"
      value: 0
    }
    dilation: 6
  }
}
layer {
  name: "relu6"
  type: "ReLU"
  bottom: "fc6"
  top: "fc6"
}
layer {
  name: "fc7"
  type: "Convolution"
  bottom: "fc6"
  top: "fc7"
  param {
    lr_mult: 1
    decay_mult: 1
  }
  param {
    lr_mult: 1
    decay_mult: 0
  }
  convolution_param {
    num_output: 1024
    kernel_size: 1
    weight_filler {
      type: "xavier"
    }
    bias_filler {
      type: "constant"
      value: 0
    }
  }
}
layer {
  name: "relu7"
  type: "ReLU"
  bottom: "fc7"
  top: "fc7"
}
layer {
  name: "conv8_1"
  type: "Convolution"
  bottom: "fc7"
  top: "conv8_1"
  param {
    lr_mult: 1
    decay_mult: 1
  }
  param {
    lr_mult: 2
    decay_mult: 0
  }
  convolution_param {
    num_output: 256
    pad: 0
    kernel_size: 1
    stride: 1
    weight_filler {
      type: "xavier"
    }
    bias_filler {
      type: "constant"
      value: 0
    }
  }
}
layer {
  name: "conv8_1_relu"
  type: "ReLU"
  bottom: "conv8_1"
  top: "conv8_1"
}
layer {
  name: "conv8_2"
  type: "Convolution"
  bottom: "conv8_1"
  top: "conv8_2"
  param {
    lr_mult: 1
    decay_mult: 1
  }
  param {
    lr_mult: 2
    decay_mult: 0
  }
  convolution_param {
    num_output: 512
    pad: 1
    kernel_size: 3
    stride: 2
    weight_filler {
      type: "xavier"
    }
    bias_filler {
      type: "constant"
      value: 0
    }
  }
}
layer {
  name: "conv8_2_relu"
  type: "ReLU"
  bottom: "conv8_2"
  top: "conv8_2"
}
layer {
  name: "conv9_1"
  type: "Convolution"
  bottom: "conv8_2"
  top: "conv9_1"
  param {
    lr_mult: 1
    decay_mult: 1
  }
  param {
    lr_mult: 2
    decay_mult: 0
  }
  convolution_param {
    num_output: 128
    pad: 0
    kernel_size: 1
    stride: 1
    weight_filler {
      type: "xavier"
    }
    bias_filler {
      type: "constant"
      value: 0
    }
  }
}
layer {
  name: "conv9_1_relu"
  type: "ReLU"
  bottom: "conv9_1"
  top: "conv9_1"
}
layer {
  name: "conv9_2"
  type: "Convolution"
  bottom: "conv9_1"
  top: "conv9_2"
  param {
    lr_mult: 1
    decay_mult: 1
  }
  param {
    lr_mult: 2
    decay_mult: 0
  }
  convolution_param {
    num_output: 256
    pad: 1
    kernel_size: 3
    stride: 2
    weight_filler {
      type: "xavier"
    }
    bias_filler {
      type: "constant"
      value: 0
    }
  }
}
layer {
  name: "conv9_2_relu"
  type: "ReLU"
  bottom: "conv9_2"
  top: "conv9_2"
}
layer {
  name: "conv10_1"
  type: "Convolution"
  bottom: "conv9_2"
  top: "conv10_1"
  param {
    lr_mult: 1
    decay_mult: 1
  }
  param {
    lr_mult: 2
    decay_mult: 0
  }
  convolution_param {
    num_output: 128
    pad: 0
    kernel_size: 1
    stride: 1
    weight_filler {
      type: "xavier"
    }
    bias_filler {
      type: "constant"
      value: 0
    }
  }
}
layer {
  name: "conv10_1_relu"
  type: "ReLU"
  bottom: "conv10_1"
  top: "conv10_1"
}
layer {
  name: "conv10_2"
  type: "Convolution"
  bottom: "conv10_1"
  top: "conv10_2"
  param {
    lr_mult: 1
    decay_mult: 1
  }
  param {
    lr_mult: 2
    decay_mult: 0
  }
  convolution_param {
    num_output: 256
    pad: 0
    kernel_size: 3
    stride: 1
    weight_filler {
      type: "xavier"
    }
    bias_filler {
      type: "constant"
      value: 0
    }
  }
}
layer {
  name: "conv10_2_relu"
  type: "ReLU"
  bottom: "conv10_2"
  top: "conv10_2"
}
layer {
  name: "conv11_1"
  type: "Convolution"
  bottom: "conv10_2"
  top: "conv11_1"
  param {
    lr_mult: 1
    decay_mult: 1
  }
  param {
    lr_mult: 2
    decay_mult: 0
  }
  convolution_param {
    num_output: 128
    pad: 0
    kernel_size: 1
    stride: 1
    weight_filler {
      type: "xavier"
    }
    bias_filler {
      type: "constant"
      value: 0
    }
  }
}
layer {
  name: "conv11_1_relu"
  type: "ReLU"
  bottom: "conv11_1"
  top: "conv11_1"
}
layer {
  name: "conv11_2"
  type: "Convolution"
  bottom: "conv11_1"
  top: "conv11_2"
  param {
    lr_mult: 1
    decay_mult: 1
  }
  param {
    lr_mult: 2
    decay_mult: 0
  }
  convolution_param {
    num_output: 256
    pad: 0
    kernel_size: 3
    stride: 1
    weight_filler {
      type: "xavier"
    }
    bias_filler {
      type: "constant"
      value: 0
    }
  }
}
layer {
  name: "conv11_2_relu"
  type: "ReLU"
  bottom: "conv11_2"
  top: "conv11_2"
}
layer {
  name: "conv4_3_norm"
  type: "Normalize"
  bottom: "conv4_3"
  top: "conv4_3_norm"
  norm_param {
    across_spatial: false
    scale_filler {
      type: "constant"
      value: 20
    }
    channel_shared: false
  }
}
layer {
  name: "conv4_3_norm_mbox_loc"
  type: "Convolution"
  bottom: "conv4_3_norm"
  top: "conv4_3_norm_mbox_loc"
  param {
    lr_mult: 1
    decay_mult: 1
  }
  param {
    lr_mult: 2
    decay_mult: 0
  }
  convolution_param {
    num_output: 16
    pad: 1
    kernel_size: 3
    stride: 1
    weight_filler {
      type: "xavier"
    }
    bias_filler {
      type: "constant"
      value: 0
    }
  }
}
layer {
  name: "conv4_3_norm_mbox_loc_perm"
  type: "Permute"
  bottom: "conv4_3_norm_mbox_loc"
  top: "conv4_3_norm_mbox_loc_perm"
  permute_param {
    order: 0
    order: 2
    order: 3
    order: 1
  }
}
layer {
  name: "conv4_3_norm_mbox_loc_flat"
  type: "Flatten"
  bottom: "conv4_3_norm_mbox_loc_perm"
  top: "conv4_3_norm_mbox_loc_flat"
  flatten_param {
    axis: 1
  }
}
layer {
  name: "conv4_3_norm_mbox_conf"
  type: "Convolution"
  bottom: "conv4_3_norm"
  top: "conv4_3_norm_mbox_conf"
  param {
    lr_mult: 1
    decay_mult: 1
  }
  param {
    lr_mult: 2
    decay_mult: 0
  }
  convolution_param {
    num_output: 12
    pad: 1
    kernel_size: 3
    stride: 1
    weight_filler {
      type: "xavier"
    }
    bias_filler {
      type: "constant"
      value: 0
    }
  }
}
layer {
  name: "conv4_3_norm_mbox_conf_perm"
  type: "Permute"
  bottom: "conv4_3_norm_mbox_conf"
  top: "conv4_3_norm_mbox_conf_perm"
  permute_param {
    order: 0
    order: 2
    order: 3
    order: 1
  }
}
layer {
  name: "conv4_3_norm_mbox_conf_flat"
  type: "Flatten"
  bottom: "conv4_3_norm_mbox_conf_perm"
  top: "conv4_3_norm_mbox_conf_flat"
  flatten_param {
    axis: 1
  }
}
layer {
  name: "conv4_3_norm_mbox_priorbox"
  type: "PriorBox"
  bottom: "conv4_3_norm"
  bottom: "data"
  top: "conv4_3_norm_mbox_priorbox"
  prior_box_param {
    min_size: 30
    max_size: 60
    aspect_ratio: 2
    flip: true
    clip: false
    variance: 0.1
    variance: 0.1
    variance: 0.2
    variance: 0.2
    step: 8
    offset: 0.5
  }
}
layer {
  name: "fc7_mbox_loc"
  type: "Convolution"
  bottom: "fc7"
  top: "fc7_mbox_loc"
  param {
    lr_mult: 1
    decay_mult: 1
  }
  param {
    lr_mult: 2
    decay_mult: 0
  }
  convolution_param {
    num_output: 24
    pad: 1
    kernel_size: 3
    stride: 1
    weight_filler {
      type: "xavier"
    }
    bias_filler {
      type: "constant"
      value: 0
    }
  }
}
layer {
  name: "fc7_mbox_loc_perm"
  type: "Permute"
  bottom: "fc7_mbox_loc"
  top: "fc7_mbox_loc_perm"
  permute_param {
    order: 0
    order: 2
    order: 3
    order: 1
  }
}
layer {
  name: "fc7_mbox_loc_flat"
  type: "Flatten"
  bottom: "fc7_mbox_loc_perm"
  top: "fc7_mbox_loc_flat"
  flatten_param {
    axis: 1
  }
}
layer {
  name: "fc7_mbox_conf"
  type: "Convolution"
  bottom: "fc7"
  top: "fc7_mbox_conf"
  param {
    lr_mult: 1
    decay_mult: 1
  }
  param {
    lr_mult: 2
    decay_mult: 0
  }
  convolution_param {
    num_output: 18
    pad: 1
    kernel_size: 3
    stride: 1
    weight_filler {
      type: "xavier"
    }
    bias_filler {
      type: "constant"
      value: 0
    }
  }
}
layer {
  name: "fc7_mbox_conf_perm"
  type: "Permute"
  bottom: "fc7_mbox_conf"
  top: "fc7_mbox_conf_perm"
  permute_param {
    order: 0
    order: 2
    order: 3
    order: 1
  }
}
layer {
  name: "fc7_mbox_conf_flat"
  type: "Flatten"
  bottom: "fc7_mbox_conf_perm"
  top: "fc7_mbox_conf_flat"
  flatten_param {
    axis: 1
  }
}
layer {
  name: "fc7_mbox_priorbox"
  type: "PriorBox"
  bottom: "fc7"
  bottom: "data"
  top: "fc7_mbox_priorbox"
  prior_box_param {
    min_size: 60
    max_size: 111
    aspect_ratio: 2
    aspect_ratio: 3
    flip: true
    clip: false
    variance: 0.1
    variance: 0.1
    variance: 0.2
    variance: 0.2
    step: 16
    offset: 0.5
  }
}
layer {
  name: "conv8_2_mbox_loc"
  type: "Convolution"
  bottom: "conv8_2"
  top: "conv8_2_mbox_loc"
  param {
    lr_mult: 1
    decay_mult: 1
  }
  param {
    lr_mult: 2
    decay_mult: 0
  }
  convolution_param {
    num_output: 24
    pad: 1
    kernel_size: 3
    stride: 1
    weight_filler {
      type: "xavier"
    }
    bias_filler {
      type: "constant"
      value: 0
    }
  }
}
layer {
  name: "conv8_2_mbox_loc_perm"
  type: "Permute"
  bottom: "conv8_2_mbox_loc"
  top: "conv8_2_mbox_loc_perm"
  permute_param {
    order: 0
    order: 2
    order: 3
    order: 1
  }
}
layer {
  name: "conv8_2_mbox_loc_flat"
  type: "Flatten"
  bottom: "conv8_2_mbox_loc_perm"
  top: "conv8_2_mbox_loc_flat"
  flatten_param {
    axis: 1
  }
}
layer {
  name: "conv8_2_mbox_conf"
  type: "Convolution"
  bottom: "conv8_2"
  top: "conv8_2_mbox_conf"
  param {
    lr_mult: 1
    decay_mult: 1
  }
  param {
    lr_mult: 2
    decay_mult: 0
  }
  convolution_param {
    num_output: 18
    pad: 1
    kernel_size: 3
    stride: 1
    weight_filler {
      type: "xavier"
    }
    bias_filler {
      type: "constant"
      value: 0
    }
  }
}
layer {
  name: "conv8_2_mbox_conf_perm"
  type: "Permute"
  bottom: "conv8_2_mbox_conf"
  top: "conv8_2_mbox_conf_perm"
  permute_param {
    order: 0
    order: 2
    order: 3
    order: 1
  }
}
layer {
  name: "conv8_2_mbox_conf_flat"
  type: "Flatten"
  bottom: "conv8_2_mbox_conf_perm"
  top: "conv8_2_mbox_conf_flat"
  flatten_param {
    axis: 1
  }
}
layer {
  name: "conv8_2_mbox_priorbox"
  type: "PriorBox"
  bottom: "conv8_2"
  bottom: "data"
  top: "conv8_2_mbox_priorbox"
  prior_box_param {
    min_size: 111
    max_size: 162
    aspect_ratio: 2
    aspect_ratio: 3
    flip: true
    clip: false
    variance: 0.1
    variance: 0.1
    variance: 0.2
    variance: 0.2
    step: 32
    offset: 0.5
  }
}
layer {
  name: "conv9_2_mbox_loc"
  type: "Convolution"
  bottom: "conv9_2"
  top: "conv9_2_mbox_loc"
  param {
    lr_mult: 1
    decay_mult: 1
  }
  param {
    lr_mult: 2
    decay_mult: 0
  }
  convolution_param {
    num_output: 24
    pad: 1
    kernel_size: 3
    stride: 1
    weight_filler {
      type: "xavier"
    }
    bias_filler {
      type: "constant"
      value: 0
    }
  }
}
layer {
  name: "conv9_2_mbox_loc_perm"
  type: "Permute"
  bottom: "conv9_2_mbox_loc"
  top: "conv9_2_mbox_loc_perm"
  permute_param {
    order: 0
    order: 2
    order: 3
    order: 1
  }
}
layer {
  name: "conv9_2_mbox_loc_flat"
  type: "Flatten"
  bottom: "conv9_2_mbox_loc_perm"
  top: "conv9_2_mbox_loc_flat"
  flatten_param {
    axis: 1
  }
}
layer {
  name: "conv9_2_mbox_conf"
  type: "Convolution"
  bottom: "conv9_2"
  top: "conv9_2_mbox_conf"
  param {
    lr_mult: 1
    decay_mult: 1
  }
  param {
    lr_mult: 2
    decay_mult: 0
  }
  convolution_param {
    num_output: 18
    pad: 1
    kernel_size: 3
    stride: 1
    weight_filler {
      type: "xavier"
    }
    bias_filler {
      type: "constant"
      value: 0
    }
  }
}
layer {
  name: "conv9_2_mbox_conf_perm"
  type: "Permute"
  bottom: "conv9_2_mbox_conf"
  top: "conv9_2_mbox_conf_perm"
  permute_param {
    order: 0
    order: 2
    order: 3
    order: 1
  }
}
layer {
  name: "conv9_2_mbox_conf_flat"
  type: "Flatten"
  bottom: "conv9_2_mbox_conf_perm"
  top: "conv9_2_mbox_conf_flat"
  flatten_param {
    axis: 1
  }
}
layer {
  name: "conv9_2_mbox_priorbox"
  type: "PriorBox"
  bottom: "conv9_2"
  bottom: "data"
  top: "conv9_2_mbox_priorbox"
  prior_box_param {
    min_size: 162
    max_size: 213
    aspect_ratio: 2
    aspect_ratio: 3
    flip: true
    clip: false
    variance: 0.1
    variance: 0.1
    variance: 0.2
    variance: 0.2
    step: 64
    offset: 0.5
  }
}
layer {
  name: "conv10_2_mbox_loc"
  type: "Convolution"
  bottom: "conv10_2"
  top: "conv10_2_mbox_loc"
  param {
    lr_mult: 1
    decay_mult: 1
  }
  param {
    lr_mult: 2
    decay_mult: 0
  }
  convolution_param {
    num_output: 16
    pad: 1
    kernel_size: 3
    stride: 1
    weight_filler {
      type: "xavier"
    }
    bias_filler {
      type: "constant"
      value: 0
    }
  }
}
layer {
  name: "conv10_2_mbox_loc_perm"
  type: "Permute"
  bottom: "conv10_2_mbox_loc"
  top: "conv10_2_mbox_loc_perm"
  permute_param {
    order: 0
    order: 2
    order: 3
    order: 1
  }
}
layer {
  name: "conv10_2_mbox_loc_flat"
  type: "Flatten"
  bottom: "conv10_2_mbox_loc_perm"
  top: "conv10_2_mbox_loc_flat"
  flatten_param {
    axis: 1
  }
}
layer {
  name: "conv10_2_mbox_conf"
  type: "Convolution"
  bottom: "conv10_2"
  top: "conv10_2_mbox_conf"
  param {
    lr_mult: 1
    decay_mult: 1
  }
  param {
    lr_mult: 2
    decay_mult: 0
  }
  convolution_param {
    num_output: 12
    pad: 1
    kernel_size: 3
    stride: 1
    weight_filler {
      type: "xavier"
    }
    bias_filler {
      type: "constant"
      value: 0
    }
  }
}
layer {
  name: "conv10_2_mbox_conf_perm"
  type: "Permute"
  bottom: "conv10_2_mbox_conf"
  top: "conv10_2_mbox_conf_perm"
  permute_param {
    order: 0
    order: 2
    order: 3
    order: 1
  }
}
layer {
  name: "conv10_2_mbox_conf_flat"
  type: "Flatten"
  bottom: "conv10_2_mbox_conf_perm"
  top: "conv10_2_mbox_conf_flat"
  flatten_param {
    axis: 1
  }
}
layer {
  name: "conv10_2_mbox_priorbox"
  type: "PriorBox"
  bottom: "conv10_2"
  bottom: "data"
  top: "conv10_2_mbox_priorbox"
  prior_box_param {
    min_size: 213
    max_size: 264
    aspect_ratio: 2
    flip: true
    clip: false
    variance: 0.1
    variance: 0.1
    variance: 0.2
    variance: 0.2
    step: 100
    offset: 0.5
  }
}
layer {
  name: "conv11_2_mbox_loc"
  type: "Convolution"
  bottom: "conv11_2"
  top: "conv11_2_mbox_loc"
  param {
    lr_mult: 1
    decay_mult: 1
  }
  param {
    lr_mult: 2
    decay_mult: 0
  }
  convolution_param {
    num_output: 16
    pad: 1
    kernel_size: 3
    stride: 1
    weight_filler {
      type: "xavier"
    }
    bias_filler {
      type: "constant"
      value: 0
    }
  }
}
layer {
  name: "conv11_2_mbox_loc_perm"
  type: "Permute"
  bottom: "conv11_2_mbox_loc"
  top: "conv11_2_mbox_loc_perm"
  permute_param {
    order: 0
    order: 2
    order: 3
    order: 1
  }
}
layer {
  name: "conv11_2_mbox_loc_flat"
  type: "Flatten"
  bottom: "conv11_2_mbox_loc_perm"
  top: "conv11_2_mbox_loc_flat"
  flatten_param {
    axis: 1
  }
}
layer {
  name: "conv11_2_mbox_conf"
  type: "Convolution"
  bottom: "conv11_2"
  top: "conv11_2_mbox_conf"
  param {
    lr_mult: 1
    decay_mult: 1
  }
  param {
    lr_mult: 2
    decay_mult: 0
  }
  convolution_param {
    num_output: 12
    pad: 1
    kernel_size: 3
    stride: 1
    weight_filler {
      type: "xavier"
    }
    bias_filler {
      type: "constant"
      value: 0
    }
  }
}
layer {
  name: "conv11_2_mbox_conf_perm"
  type: "Permute"
  bottom: "conv11_2_mbox_conf"
  top: "conv11_2_mbox_conf_perm"
  permute_param {
    order: 0
    order: 2
    order: 3
    order: 1
  }
}
layer {
  name: "conv11_2_mbox_conf_flat"
  type: "Flatten"
  bottom: "conv11_2_mbox_conf_perm"
  top: "conv11_2_mbox_conf_flat"
  flatten_param {
    axis: 1
  }
}
layer {
  name: "conv11_2_mbox_priorbox"
  type: "PriorBox"
  bottom: "conv11_2"
  bottom: "data"
  top: "conv11_2_mbox_priorbox"
  prior_box_param {
    min_size: 264
    max_size: 315
    aspect_ratio: 2
    flip: true
    clip: false
    variance: 0.1
    variance: 0.1
    variance: 0.2
    variance: 0.2
    step: 300
    offset: 0.5
  }
}
layer {
  name: "mbox_loc"
  type: "Concat"
  bottom: "conv4_3_norm_mbox_loc_flat"
  bottom: "fc7_mbox_loc_flat"
  bottom: "conv8_2_mbox_loc_flat"
  bottom: "conv9_2_mbox_loc_flat"
  bottom: "conv10_2_mbox_loc_flat"
  bottom: "conv11_2_mbox_loc_flat"
  top: "mbox_loc"
  concat_param {
    axis: 1
  }
}
layer {
  name: "mbox_conf"
  type: "Concat"
  bottom: "conv4_3_norm_mbox_conf_flat"
  bottom: "fc7_mbox_conf_flat"
  bottom: "conv8_2_mbox_conf_flat"
  bottom: "conv9_2_mbox_conf_flat"
  bottom: "conv10_2_mbox_conf_flat"
  bottom: "conv11_2_mbox_conf_flat"
  top: "mbox_conf"
  concat_param {
    axis: 1
  }
}
layer {
  name: "mbox_priorbox"
  type: "Concat"
  bottom: "conv4_3_norm_mbox_priorbox"
  bottom: "fc7_mbox_priorbox"
  bottom: "conv8_2_mbox_priorbox"
  bottom: "conv9_2_mbox_priorbox"
  bottom: "conv10_2_mbox_priorbox"
  bottom: "conv11_2_mbox_priorbox"
  top: "mbox_priorbox"
  concat_param {
    axis: 2
  }
}
layer {
  name: "mbox_conf_reshape"
  type: "Reshape"
  bottom: "mbox_conf"
  top: "mbox_conf_reshape"
  reshape_param {
    shape {
      dim: 0
      dim: -1
      dim: 3
    }
  }
}
layer {
  name: "mbox_conf_softmax"
  type: "Softmax"
  bottom: "mbox_conf_reshape"
  top: "mbox_conf_softmax"
  softmax_param {
    axis: 2
  }
}
layer {
  name: "mbox_conf_flatten"
  type: "Flatten"
  bottom: "mbox_conf_softmax"
  top: "mbox_conf_flatten"
  flatten_param {
    axis: 1
  }
}
layer {
  name: "detection_out"
  type: "DetectionOutput"
  bottom: "mbox_loc"
  bottom: "mbox_conf_flatten"
  bottom: "mbox_priorbox"
  top: "detection_out"
  include {
    phase: TEST
  }
  detection_output_param {
    num_classes: 3
    share_location: true
    background_label_id: 0
    nms_param {
      nms_threshold: 0.45
      top_k: 400
    }
    code_type: CENTER_SIZE
    keep_top_k: 200
    confidence_threshold: 0.01
  }
}
layer {
  name: "slience"
  type: "Silence"
  bottom: "detection_out"
  include {
    phase: TEST
  }
}
I0820 09:02:39.784610 11316 layer_factory.hpp:77] Creating layer data
I0820 09:02:39.785606 11316 net.cpp:100] Creating Layer data
I0820 09:02:39.785606 11316 net.cpp:408] data -> data
I0820 09:02:39.786604 10436 common.cpp:36] System entropy source not available, using fallback algorithm to generate seed instead.
I0820 09:02:39.826498 10436 db_lmdb.cpp:40] Opened lmdb examples\wastedata\wastedata_test_lmdb
I0820 09:02:39.850433 11316 annotated_data_layer.cpp:62] output data size: 8,3,300,300
I0820 09:02:39.895313 11316 net.cpp:150] Setting up data
I0820 09:02:39.895313 11316 net.cpp:157] Top shape: 8 3 300 300 (2160000)
I0820 09:02:39.895313 11316 net.cpp:165] Memory required for data: 8640000
I0820 09:02:39.895313 11316 layer_factory.hpp:77] Creating layer data_data_0_split
I0820 09:02:39.895313 11316 net.cpp:100] Creating Layer data_data_0_split
I0820 09:02:39.895313 11316 net.cpp:434] data_data_0_split <- data
I0820 09:02:39.895313 11316 net.cpp:408] data_data_0_split -> data_data_0_split_0
I0820 09:02:39.895313 11316 net.cpp:408] data_data_0_split -> data_data_0_split_1
I0820 09:02:39.895313 11316 net.cpp:408] data_data_0_split -> data_data_0_split_2
I0820 09:02:39.895313 11316 net.cpp:408] data_data_0_split -> data_data_0_split_3
I0820 09:02:39.895313 11316 net.cpp:408] data_data_0_split -> data_data_0_split_4
I0820 09:02:39.895313 11316 net.cpp:408] data_data_0_split -> data_data_0_split_5
I0820 09:02:39.895313 11316 net.cpp:408] data_data_0_split -> data_data_0_split_6
I0820 09:02:39.895313 11316 net.cpp:150] Setting up data_data_0_split
I0820 09:02:39.895313 11316 net.cpp:157] Top shape: 8 3 300 300 (2160000)
I0820 09:02:39.895313 11316 net.cpp:157] Top shape: 8 3 300 300 (2160000)
I0820 09:02:39.895313 11316 net.cpp:157] Top shape: 8 3 300 300 (2160000)
I0820 09:02:39.895313 11316 net.cpp:157] Top shape: 8 3 300 300 (2160000)
I0820 09:02:39.895313 11316 net.cpp:157] Top shape: 8 3 300 300 (2160000)
I0820 09:02:39.895313 11316 net.cpp:157] Top shape: 8 3 300 300 (2160000)
I0820 09:02:39.895313 11316 net.cpp:157] Top shape: 8 3 300 300 (2160000)
I0820 09:02:39.895313 11316 net.cpp:165] Memory required for data: 69120000
I0820 09:02:39.895313 11316 layer_factory.hpp:77] Creating layer conv1_1
I0820 09:02:39.895313 11316 net.cpp:100] Creating Layer conv1_1
I0820 09:02:39.895313 11316 net.cpp:434] conv1_1 <- data_data_0_split_0
I0820 09:02:39.895313 11316 net.cpp:408] conv1_1 -> conv1_1
I0820 09:02:39.896311 17372 common.cpp:36] System entropy source not available, using fallback algorithm to generate seed instead.
I0820 09:02:39.898305 11316 net.cpp:150] Setting up conv1_1
I0820 09:02:39.898305 11316 net.cpp:157] Top shape: 8 64 300 300 (46080000)
I0820 09:02:39.898305 11316 net.cpp:165] Memory required for data: 253440000
I0820 09:02:39.898305 11316 layer_factory.hpp:77] Creating layer relu1_1
I0820 09:02:39.898305 11316 net.cpp:100] Creating Layer relu1_1
I0820 09:02:39.898305 11316 net.cpp:434] relu1_1 <- conv1_1
I0820 09:02:39.898305 11316 net.cpp:395] relu1_1 -> conv1_1 (in-place)
I0820 09:02:39.900300 11316 net.cpp:150] Setting up relu1_1
I0820 09:02:39.900300 11316 net.cpp:157] Top shape: 8 64 300 300 (46080000)
I0820 09:02:39.900300 11316 net.cpp:165] Memory required for data: 437760000
I0820 09:02:39.900300 11316 layer_factory.hpp:77] Creating layer conv1_2
I0820 09:02:39.900300 11316 net.cpp:100] Creating Layer conv1_2
I0820 09:02:39.900300 11316 net.cpp:434] conv1_2 <- conv1_1
I0820 09:02:39.900300 11316 net.cpp:408] conv1_2 -> conv1_2
I0820 09:02:39.902294 11316 net.cpp:150] Setting up conv1_2
I0820 09:02:39.902294 11316 net.cpp:157] Top shape: 8 64 300 300 (46080000)
I0820 09:02:39.902294 11316 net.cpp:165] Memory required for data: 622080000
I0820 09:02:39.902294 11316 layer_factory.hpp:77] Creating layer relu1_2
I0820 09:02:39.902294 11316 net.cpp:100] Creating Layer relu1_2
I0820 09:02:39.902294 11316 net.cpp:434] relu1_2 <- conv1_2
I0820 09:02:39.902294 11316 net.cpp:395] relu1_2 -> conv1_2 (in-place)
I0820 09:02:39.903292 11316 net.cpp:150] Setting up relu1_2
I0820 09:02:39.903292 11316 net.cpp:157] Top shape: 8 64 300 300 (46080000)
I0820 09:02:39.903292 11316 net.cpp:165] Memory required for data: 806400000
I0820 09:02:39.903292 11316 layer_factory.hpp:77] Creating layer pool1
I0820 09:02:39.903292 11316 net.cpp:100] Creating Layer pool1
I0820 09:02:39.903292 11316 net.cpp:434] pool1 <- conv1_2
I0820 09:02:39.903292 11316 net.cpp:408] pool1 -> pool1
I0820 09:02:39.903292 11316 net.cpp:150] Setting up pool1
I0820 09:02:39.903292 11316 net.cpp:157] Top shape: 8 64 150 150 (11520000)
I0820 09:02:39.903292 11316 net.cpp:165] Memory required for data: 852480000
I0820 09:02:39.903292 11316 layer_factory.hpp:77] Creating layer conv2_1
I0820 09:02:39.903292 11316 net.cpp:100] Creating Layer conv2_1
I0820 09:02:39.903292 11316 net.cpp:434] conv2_1 <- pool1
I0820 09:02:39.903292 11316 net.cpp:408] conv2_1 -> conv2_1
I0820 09:02:39.906284 11316 net.cpp:150] Setting up conv2_1
I0820 09:02:39.906284 11316 net.cpp:157] Top shape: 8 128 150 150 (23040000)
I0820 09:02:39.906284 11316 net.cpp:165] Memory required for data: 944640000
I0820 09:02:39.906284 11316 layer_factory.hpp:77] Creating layer relu2_1
I0820 09:02:39.906284 11316 net.cpp:100] Creating Layer relu2_1
I0820 09:02:39.906284 11316 net.cpp:434] relu2_1 <- conv2_1
I0820 09:02:39.906284 11316 net.cpp:395] relu2_1 -> conv2_1 (in-place)
I0820 09:02:39.906284 11316 net.cpp:150] Setting up relu2_1
I0820 09:02:39.906284 11316 net.cpp:157] Top shape: 8 128 150 150 (23040000)
I0820 09:02:39.906284 11316 net.cpp:165] Memory required for data: 1036800000
I0820 09:02:39.906284 11316 layer_factory.hpp:77] Creating layer conv2_2
I0820 09:02:39.906284 11316 net.cpp:100] Creating Layer conv2_2
I0820 09:02:39.906284 11316 net.cpp:434] conv2_2 <- conv2_1
I0820 09:02:39.906284 11316 net.cpp:408] conv2_2 -> conv2_2
I0820 09:02:39.910274 11316 net.cpp:150] Setting up conv2_2
I0820 09:02:39.911271 11316 net.cpp:157] Top shape: 8 128 150 150 (23040000)
I0820 09:02:39.911271 11316 net.cpp:165] Memory required for data: 1128960000
I0820 09:02:39.911271 11316 layer_factory.hpp:77] Creating layer relu2_2
I0820 09:02:39.911271 11316 net.cpp:100] Creating Layer relu2_2
I0820 09:02:39.911271 11316 net.cpp:434] relu2_2 <- conv2_2
I0820 09:02:39.911271 11316 net.cpp:395] relu2_2 -> conv2_2 (in-place)
I0820 09:02:39.912268 11316 net.cpp:150] Setting up relu2_2
I0820 09:02:39.912268 11316 net.cpp:157] Top shape: 8 128 150 150 (23040000)
I0820 09:02:39.912268 11316 net.cpp:165] Memory required for data: 1221120000
I0820 09:02:39.912268 11316 layer_factory.hpp:77] Creating layer pool2
I0820 09:02:39.912268 11316 net.cpp:100] Creating Layer pool2
I0820 09:02:39.912268 11316 net.cpp:434] pool2 <- conv2_2
I0820 09:02:39.912268 11316 net.cpp:408] pool2 -> pool2
I0820 09:02:39.912268 11316 net.cpp:150] Setting up pool2
I0820 09:02:39.912268 11316 net.cpp:157] Top shape: 8 128 75 75 (5760000)
I0820 09:02:39.912268 11316 net.cpp:165] Memory required for data: 1244160000
I0820 09:02:39.912268 11316 layer_factory.hpp:77] Creating layer conv3_1
I0820 09:02:39.912268 11316 net.cpp:100] Creating Layer conv3_1
I0820 09:02:39.912268 11316 net.cpp:434] conv3_1 <- pool2
I0820 09:02:39.912268 11316 net.cpp:408] conv3_1 -> conv3_1
I0820 09:02:39.917254 11316 net.cpp:150] Setting up conv3_1
I0820 09:02:39.917254 11316 net.cpp:157] Top shape: 8 256 75 75 (11520000)
I0820 09:02:39.917254 11316 net.cpp:165] Memory required for data: 1290240000
I0820 09:02:39.917254 11316 layer_factory.hpp:77] Creating layer relu3_1
I0820 09:02:39.917254 11316 net.cpp:100] Creating Layer relu3_1
I0820 09:02:39.917254 11316 net.cpp:434] relu3_1 <- conv3_1
I0820 09:02:39.917254 11316 net.cpp:395] relu3_1 -> conv3_1 (in-place)
I0820 09:02:39.918252 11316 net.cpp:150] Setting up relu3_1
I0820 09:02:39.918252 11316 net.cpp:157] Top shape: 8 256 75 75 (11520000)
I0820 09:02:39.918252 11316 net.cpp:165] Memory required for data: 1336320000
I0820 09:02:39.918252 11316 layer_factory.hpp:77] Creating layer conv3_2
I0820 09:02:39.918252 11316 net.cpp:100] Creating Layer conv3_2
I0820 09:02:39.918252 11316 net.cpp:434] conv3_2 <- conv3_1
I0820 09:02:39.918252 11316 net.cpp:408] conv3_2 -> conv3_2
I0820 09:02:39.954156 11316 net.cpp:150] Setting up conv3_2
I0820 09:02:39.954156 11316 net.cpp:157] Top shape: 8 256 75 75 (11520000)
I0820 09:02:39.954156 11316 net.cpp:165] Memory required for data: 1382400000
I0820 09:02:39.954156 11316 layer_factory.hpp:77] Creating layer relu3_2
I0820 09:02:39.954156 11316 net.cpp:100] Creating Layer relu3_2
I0820 09:02:39.954156 11316 net.cpp:434] relu3_2 <- conv3_2
I0820 09:02:39.954156 11316 net.cpp:395] relu3_2 -> conv3_2 (in-place)
I0820 09:02:39.957149 11316 net.cpp:150] Setting up relu3_2
I0820 09:02:39.957149 11316 net.cpp:157] Top shape: 8 256 75 75 (11520000)
I0820 09:02:39.957149 11316 net.cpp:165] Memory required for data: 1428480000
I0820 09:02:39.957149 11316 layer_factory.hpp:77] Creating layer conv3_3
I0820 09:02:39.957149 11316 net.cpp:100] Creating Layer conv3_3
I0820 09:02:39.957149 11316 net.cpp:434] conv3_3 <- conv3_2
I0820 09:02:39.957149 11316 net.cpp:408] conv3_3 -> conv3_3
I0820 09:02:39.965126 11316 net.cpp:150] Setting up conv3_3
I0820 09:02:39.965126 11316 net.cpp:157] Top shape: 8 256 75 75 (11520000)
I0820 09:02:39.965126 11316 net.cpp:165] Memory required for data: 1474560000
I0820 09:02:39.965126 11316 layer_factory.hpp:77] Creating layer relu3_3
I0820 09:02:39.965126 11316 net.cpp:100] Creating Layer relu3_3
I0820 09:02:39.965126 11316 net.cpp:434] relu3_3 <- conv3_3
I0820 09:02:39.965126 11316 net.cpp:395] relu3_3 -> conv3_3 (in-place)
I0820 09:02:39.965126 11316 net.cpp:150] Setting up relu3_3
I0820 09:02:39.965126 11316 net.cpp:157] Top shape: 8 256 75 75 (11520000)
I0820 09:02:39.965126 11316 net.cpp:165] Memory required for data: 1520640000
I0820 09:02:39.965126 11316 layer_factory.hpp:77] Creating layer pool3
I0820 09:02:39.965126 11316 net.cpp:100] Creating Layer pool3
I0820 09:02:39.965126 11316 net.cpp:434] pool3 <- conv3_3
I0820 09:02:39.965126 11316 net.cpp:408] pool3 -> pool3
I0820 09:02:39.965126 11316 net.cpp:150] Setting up pool3
I0820 09:02:39.965126 11316 net.cpp:157] Top shape: 8 256 38 38 (2957312)
I0820 09:02:39.965126 11316 net.cpp:165] Memory required for data: 1532469248
I0820 09:02:39.965126 11316 layer_factory.hpp:77] Creating layer conv4_1
I0820 09:02:39.965126 11316 net.cpp:100] Creating Layer conv4_1
I0820 09:02:39.965126 11316 net.cpp:434] conv4_1 <- pool3
I0820 09:02:39.965126 11316 net.cpp:408] conv4_1 -> conv4_1
I0820 09:02:39.976097 11316 net.cpp:150] Setting up conv4_1
I0820 09:02:39.976097 11316 net.cpp:157] Top shape: 8 512 38 38 (5914624)
I0820 09:02:39.976097 11316 net.cpp:165] Memory required for data: 1556127744
I0820 09:02:39.976097 11316 layer_factory.hpp:77] Creating layer relu4_1
I0820 09:02:39.976097 11316 net.cpp:100] Creating Layer relu4_1
I0820 09:02:39.976097 11316 net.cpp:434] relu4_1 <- conv4_1
I0820 09:02:39.976097 11316 net.cpp:395] relu4_1 -> conv4_1 (in-place)
I0820 09:02:39.977094 11316 net.cpp:150] Setting up relu4_1
I0820 09:02:39.977094 11316 net.cpp:157] Top shape: 8 512 38 38 (5914624)
I0820 09:02:39.977094 11316 net.cpp:165] Memory required for data: 1579786240
I0820 09:02:39.977094 11316 layer_factory.hpp:77] Creating layer conv4_2
I0820 09:02:39.977094 11316 net.cpp:100] Creating Layer conv4_2
I0820 09:02:39.977094 11316 net.cpp:434] conv4_2 <- conv4_1
I0820 09:02:39.977094 11316 net.cpp:408] conv4_2 -> conv4_2
I0820 09:02:39.997041 11316 net.cpp:150] Setting up conv4_2
I0820 09:02:39.997041 11316 net.cpp:157] Top shape: 8 512 38 38 (5914624)
I0820 09:02:39.997041 11316 net.cpp:165] Memory required for data: 1603444736
I0820 09:02:39.997041 11316 layer_factory.hpp:77] Creating layer relu4_2
I0820 09:02:39.997041 11316 net.cpp:100] Creating Layer relu4_2
I0820 09:02:39.997041 11316 net.cpp:434] relu4_2 <- conv4_2
I0820 09:02:39.997041 11316 net.cpp:395] relu4_2 -> conv4_2 (in-place)
I0820 09:02:39.998039 11316 net.cpp:150] Setting up relu4_2
I0820 09:02:39.998039 11316 net.cpp:157] Top shape: 8 512 38 38 (5914624)
I0820 09:02:39.998039 11316 net.cpp:165] Memory required for data: 1627103232
I0820 09:02:39.998039 11316 layer_factory.hpp:77] Creating layer conv4_3
I0820 09:02:39.998039 11316 net.cpp:100] Creating Layer conv4_3
I0820 09:02:39.998039 11316 net.cpp:434] conv4_3 <- conv4_2
I0820 09:02:39.998039 11316 net.cpp:408] conv4_3 -> conv4_3
I0820 09:02:40.014993 11316 net.cpp:150] Setting up conv4_3
I0820 09:02:40.014993 11316 net.cpp:157] Top shape: 8 512 38 38 (5914624)
I0820 09:02:40.014993 11316 net.cpp:165] Memory required for data: 1650761728
I0820 09:02:40.014993 11316 layer_factory.hpp:77] Creating layer relu4_3
I0820 09:02:40.014993 11316 net.cpp:100] Creating Layer relu4_3
I0820 09:02:40.014993 11316 net.cpp:434] relu4_3 <- conv4_3
I0820 09:02:40.014993 11316 net.cpp:395] relu4_3 -> conv4_3 (in-place)
I0820 09:02:40.015990 11316 net.cpp:150] Setting up relu4_3
I0820 09:02:40.015990 11316 net.cpp:157] Top shape: 8 512 38 38 (5914624)
I0820 09:02:40.015990 11316 net.cpp:165] Memory required for data: 1674420224
I0820 09:02:40.015990 11316 layer_factory.hpp:77] Creating layer conv4_3_relu4_3_0_split
I0820 09:02:40.015990 11316 net.cpp:100] Creating Layer conv4_3_relu4_3_0_split
I0820 09:02:40.015990 11316 net.cpp:434] conv4_3_relu4_3_0_split <- conv4_3
I0820 09:02:40.015990 11316 net.cpp:408] conv4_3_relu4_3_0_split -> conv4_3_relu4_3_0_split_0
I0820 09:02:40.015990 11316 net.cpp:408] conv4_3_relu4_3_0_split -> conv4_3_relu4_3_0_split_1
I0820 09:02:40.015990 11316 net.cpp:150] Setting up conv4_3_relu4_3_0_split
I0820 09:02:40.015990 11316 net.cpp:157] Top shape: 8 512 38 38 (5914624)
I0820 09:02:40.015990 11316 net.cpp:157] Top shape: 8 512 38 38 (5914624)
I0820 09:02:40.015990 11316 net.cpp:165] Memory required for data: 1721737216
I0820 09:02:40.015990 11316 layer_factory.hpp:77] Creating layer pool4
I0820 09:02:40.015990 11316 net.cpp:100] Creating Layer pool4
I0820 09:02:40.015990 11316 net.cpp:434] pool4 <- conv4_3_relu4_3_0_split_0
I0820 09:02:40.015990 11316 net.cpp:408] pool4 -> pool4
I0820 09:02:40.015990 11316 net.cpp:150] Setting up pool4
I0820 09:02:40.015990 11316 net.cpp:157] Top shape: 8 512 19 19 (1478656)
I0820 09:02:40.015990 11316 net.cpp:165] Memory required for data: 1727651840
I0820 09:02:40.015990 11316 layer_factory.hpp:77] Creating layer conv5_1
I0820 09:02:40.015990 11316 net.cpp:100] Creating Layer conv5_1
I0820 09:02:40.015990 11316 net.cpp:434] conv5_1 <- pool4
I0820 09:02:40.015990 11316 net.cpp:408] conv5_1 -> conv5_1
I0820 09:02:40.032946 11316 net.cpp:150] Setting up conv5_1
I0820 09:02:40.032946 11316 net.cpp:157] Top shape: 8 512 19 19 (1478656)
I0820 09:02:40.032946 11316 net.cpp:165] Memory required for data: 1733566464
I0820 09:02:40.033943 11316 layer_factory.hpp:77] Creating layer relu5_1
I0820 09:02:40.033943 11316 net.cpp:100] Creating Layer relu5_1
I0820 09:02:40.033943 11316 net.cpp:434] relu5_1 <- conv5_1
I0820 09:02:40.033943 11316 net.cpp:395] relu5_1 -> conv5_1 (in-place)
I0820 09:02:40.034940 11316 net.cpp:150] Setting up relu5_1
I0820 09:02:40.034940 11316 net.cpp:157] Top shape: 8 512 19 19 (1478656)
I0820 09:02:40.034940 11316 net.cpp:165] Memory required for data: 1739481088
I0820 09:02:40.034940 11316 layer_factory.hpp:77] Creating layer conv5_2
I0820 09:02:40.034940 11316 net.cpp:100] Creating Layer conv5_2
I0820 09:02:40.034940 11316 net.cpp:434] conv5_2 <- conv5_1
I0820 09:02:40.034940 11316 net.cpp:408] conv5_2 -> conv5_2
I0820 09:02:40.051894 11316 net.cpp:150] Setting up conv5_2
I0820 09:02:40.051894 11316 net.cpp:157] Top shape: 8 512 19 19 (1478656)
I0820 09:02:40.051894 11316 net.cpp:165] Memory required for data: 1745395712
I0820 09:02:40.051894 11316 layer_factory.hpp:77] Creating layer relu5_2
I0820 09:02:40.051894 11316 net.cpp:100] Creating Layer relu5_2
I0820 09:02:40.051894 11316 net.cpp:434] relu5_2 <- conv5_2
I0820 09:02:40.051894 11316 net.cpp:395] relu5_2 -> conv5_2 (in-place)
I0820 09:02:40.052892 11316 net.cpp:150] Setting up relu5_2
I0820 09:02:40.052892 11316 net.cpp:157] Top shape: 8 512 19 19 (1478656)
I0820 09:02:40.052892 11316 net.cpp:165] Memory required for data: 1751310336
I0820 09:02:40.052892 11316 layer_factory.hpp:77] Creating layer conv5_3
I0820 09:02:40.052892 11316 net.cpp:100] Creating Layer conv5_3
I0820 09:02:40.052892 11316 net.cpp:434] conv5_3 <- conv5_2
I0820 09:02:40.052892 11316 net.cpp:408] conv5_3 -> conv5_3
I0820 09:02:40.069846 11316 net.cpp:150] Setting up conv5_3
I0820 09:02:40.069846 11316 net.cpp:157] Top shape: 8 512 19 19 (1478656)
I0820 09:02:40.069846 11316 net.cpp:165] Memory required for data: 1757224960
I0820 09:02:40.069846 11316 layer_factory.hpp:77] Creating layer relu5_3
I0820 09:02:40.069846 11316 net.cpp:100] Creating Layer relu5_3
I0820 09:02:40.069846 11316 net.cpp:434] relu5_3 <- conv5_3
I0820 09:02:40.069846 11316 net.cpp:395] relu5_3 -> conv5_3 (in-place)
I0820 09:02:40.070844 11316 net.cpp:150] Setting up relu5_3
I0820 09:02:40.070844 11316 net.cpp:157] Top shape: 8 512 19 19 (1478656)
I0820 09:02:40.070844 11316 net.cpp:165] Memory required for data: 1763139584
I0820 09:02:40.070844 11316 layer_factory.hpp:77] Creating layer pool5
I0820 09:02:40.070844 11316 net.cpp:100] Creating Layer pool5
I0820 09:02:40.070844 11316 net.cpp:434] pool5 <- conv5_3
I0820 09:02:40.070844 11316 net.cpp:408] pool5 -> pool5
I0820 09:02:40.070844 11316 net.cpp:150] Setting up pool5
I0820 09:02:40.070844 11316 net.cpp:157] Top shape: 8 512 19 19 (1478656)
I0820 09:02:40.070844 11316 net.cpp:165] Memory required for data: 1769054208
I0820 09:02:40.070844 11316 layer_factory.hpp:77] Creating layer fc6
I0820 09:02:40.070844 11316 net.cpp:100] Creating Layer fc6
I0820 09:02:40.070844 11316 net.cpp:434] fc6 <- pool5
I0820 09:02:40.070844 11316 net.cpp:408] fc6 -> fc6
I0820 09:02:40.099766 11316 net.cpp:150] Setting up fc6
I0820 09:02:40.099766 11316 net.cpp:157] Top shape: 8 1024 19 19 (2957312)
I0820 09:02:40.099766 11316 net.cpp:165] Memory required for data: 1780883456
I0820 09:02:40.099766 11316 layer_factory.hpp:77] Creating layer relu6
I0820 09:02:40.100764 11316 net.cpp:100] Creating Layer relu6
I0820 09:02:40.100764 11316 net.cpp:434] relu6 <- fc6
I0820 09:02:40.100764 11316 net.cpp:395] relu6 -> fc6 (in-place)
I0820 09:02:40.100764 11316 net.cpp:150] Setting up relu6
I0820 09:02:40.100764 11316 net.cpp:157] Top shape: 8 1024 19 19 (2957312)
I0820 09:02:40.100764 11316 net.cpp:165] Memory required for data: 1792712704
I0820 09:02:40.100764 11316 layer_factory.hpp:77] Creating layer fc7
I0820 09:02:40.100764 11316 net.cpp:100] Creating Layer fc7
I0820 09:02:40.100764 11316 net.cpp:434] fc7 <- fc6
I0820 09:02:40.100764 11316 net.cpp:408] fc7 -> fc7
I0820 09:02:40.112732 11316 net.cpp:150] Setting up fc7
I0820 09:02:40.112732 11316 net.cpp:157] Top shape: 8 1024 19 19 (2957312)
I0820 09:02:40.112732 11316 net.cpp:165] Memory required for data: 1804541952
I0820 09:02:40.112732 11316 layer_factory.hpp:77] Creating layer relu7
I0820 09:02:40.112732 11316 net.cpp:100] Creating Layer relu7
I0820 09:02:40.112732 11316 net.cpp:434] relu7 <- fc7
I0820 09:02:40.112732 11316 net.cpp:395] relu7 -> fc7 (in-place)
I0820 09:02:40.112732 11316 net.cpp:150] Setting up relu7
I0820 09:02:40.112732 11316 net.cpp:157] Top shape: 8 1024 19 19 (2957312)
I0820 09:02:40.112732 11316 net.cpp:165] Memory required for data: 1816371200
I0820 09:02:40.112732 11316 layer_factory.hpp:77] Creating layer fc7_relu7_0_split
I0820 09:02:40.112732 11316 net.cpp:100] Creating Layer fc7_relu7_0_split
I0820 09:02:40.112732 11316 net.cpp:434] fc7_relu7_0_split <- fc7
I0820 09:02:40.112732 11316 net.cpp:408] fc7_relu7_0_split -> fc7_relu7_0_split_0
I0820 09:02:40.112732 11316 net.cpp:408] fc7_relu7_0_split -> fc7_relu7_0_split_1
I0820 09:02:40.112732 11316 net.cpp:408] fc7_relu7_0_split -> fc7_relu7_0_split_2
I0820 09:02:40.112732 11316 net.cpp:408] fc7_relu7_0_split -> fc7_relu7_0_split_3
I0820 09:02:40.112732 11316 net.cpp:150] Setting up fc7_relu7_0_split
I0820 09:02:40.112732 11316 net.cpp:157] Top shape: 8 1024 19 19 (2957312)
I0820 09:02:40.112732 11316 net.cpp:157] Top shape: 8 1024 19 19 (2957312)
I0820 09:02:40.112732 11316 net.cpp:157] Top shape: 8 1024 19 19 (2957312)
I0820 09:02:40.112732 11316 net.cpp:157] Top shape: 8 1024 19 19 (2957312)
I0820 09:02:40.112732 11316 net.cpp:165] Memory required for data: 1863688192
I0820 09:02:40.112732 11316 layer_factory.hpp:77] Creating layer conv8_1
I0820 09:02:40.112732 11316 net.cpp:100] Creating Layer conv8_1
I0820 09:02:40.112732 11316 net.cpp:434] conv8_1 <- fc7_relu7_0_split_0
I0820 09:02:40.112732 11316 net.cpp:408] conv8_1 -> conv8_1
I0820 09:02:40.145644 11316 net.cpp:150] Setting up conv8_1
I0820 09:02:40.145644 11316 net.cpp:157] Top shape: 8 256 19 19 (739328)
I0820 09:02:40.145644 11316 net.cpp:165] Memory required for data: 1866645504
I0820 09:02:40.145644 11316 layer_factory.hpp:77] Creating layer conv8_1_relu
I0820 09:02:40.145644 11316 net.cpp:100] Creating Layer conv8_1_relu
I0820 09:02:40.145644 11316 net.cpp:434] conv8_1_relu <- conv8_1
I0820 09:02:40.145644 11316 net.cpp:395] conv8_1_relu -> conv8_1 (in-place)
I0820 09:02:40.146641 11316 net.cpp:150] Setting up conv8_1_relu
I0820 09:02:40.146641 11316 net.cpp:157] Top shape: 8 256 19 19 (739328)
I0820 09:02:40.146641 11316 net.cpp:165] Memory required for data: 1869602816
I0820 09:02:40.146641 11316 layer_factory.hpp:77] Creating layer conv8_2
I0820 09:02:40.146641 11316 net.cpp:100] Creating Layer conv8_2
I0820 09:02:40.146641 11316 net.cpp:434] conv8_2 <- conv8_1
I0820 09:02:40.146641 11316 net.cpp:408] conv8_2 -> conv8_2
I0820 09:02:40.156615 11316 net.cpp:150] Setting up conv8_2
I0820 09:02:40.157613 11316 net.cpp:157] Top shape: 8 512 10 10 (409600)
I0820 09:02:40.157613 11316 net.cpp:165] Memory required for data: 1871241216
I0820 09:02:40.157613 11316 layer_factory.hpp:77] Creating layer conv8_2_relu
I0820 09:02:40.157613 11316 net.cpp:100] Creating Layer conv8_2_relu
I0820 09:02:40.157613 11316 net.cpp:434] conv8_2_relu <- conv8_2
I0820 09:02:40.157613 11316 net.cpp:395] conv8_2_relu -> conv8_2 (in-place)
I0820 09:02:40.157613 11316 net.cpp:150] Setting up conv8_2_relu
I0820 09:02:40.157613 11316 net.cpp:157] Top shape: 8 512 10 10 (409600)
I0820 09:02:40.157613 11316 net.cpp:165] Memory required for data: 1872879616
I0820 09:02:40.157613 11316 layer_factory.hpp:77] Creating layer conv8_2_conv8_2_relu_0_split
I0820 09:02:40.157613 11316 net.cpp:100] Creating Layer conv8_2_conv8_2_relu_0_split
I0820 09:02:40.157613 11316 net.cpp:434] conv8_2_conv8_2_relu_0_split <- conv8_2
I0820 09:02:40.157613 11316 net.cpp:408] conv8_2_conv8_2_relu_0_split -> conv8_2_conv8_2_relu_0_split_0
I0820 09:02:40.157613 11316 net.cpp:408] conv8_2_conv8_2_relu_0_split -> conv8_2_conv8_2_relu_0_split_1
I0820 09:02:40.157613 11316 net.cpp:408] conv8_2_conv8_2_relu_0_split -> conv8_2_conv8_2_relu_0_split_2
I0820 09:02:40.157613 11316 net.cpp:408] conv8_2_conv8_2_relu_0_split -> conv8_2_conv8_2_relu_0_split_3
I0820 09:02:40.157613 11316 net.cpp:150] Setting up conv8_2_conv8_2_relu_0_split
I0820 09:02:40.157613 11316 net.cpp:157] Top shape: 8 512 10 10 (409600)
I0820 09:02:40.157613 11316 net.cpp:157] Top shape: 8 512 10 10 (409600)
I0820 09:02:40.157613 11316 net.cpp:157] Top shape: 8 512 10 10 (409600)
I0820 09:02:40.157613 11316 net.cpp:157] Top shape: 8 512 10 10 (409600)
I0820 09:02:40.157613 11316 net.cpp:165] Memory required for data: 1879433216
I0820 09:02:40.157613 11316 layer_factory.hpp:77] Creating layer conv9_1
I0820 09:02:40.157613 11316 net.cpp:100] Creating Layer conv9_1
I0820 09:02:40.157613 11316 net.cpp:434] conv9_1 <- conv8_2_conv8_2_relu_0_split_0
I0820 09:02:40.157613 11316 net.cpp:408] conv9_1 -> conv9_1
I0820 09:02:40.161602 11316 net.cpp:150] Setting up conv9_1
I0820 09:02:40.161602 11316 net.cpp:157] Top shape: 8 128 10 10 (102400)
I0820 09:02:40.161602 11316 net.cpp:165] Memory required for data: 1879842816
I0820 09:02:40.161602 11316 layer_factory.hpp:77] Creating layer conv9_1_relu
I0820 09:02:40.161602 11316 net.cpp:100] Creating Layer conv9_1_relu
I0820 09:02:40.161602 11316 net.cpp:434] conv9_1_relu <- conv9_1
I0820 09:02:40.161602 11316 net.cpp:395] conv9_1_relu -> conv9_1 (in-place)
I0820 09:02:40.162600 11316 net.cpp:150] Setting up conv9_1_relu
I0820 09:02:40.162600 11316 net.cpp:157] Top shape: 8 128 10 10 (102400)
I0820 09:02:40.162600 11316 net.cpp:165] Memory required for data: 1880252416
I0820 09:02:40.162600 11316 layer_factory.hpp:77] Creating layer conv9_2
I0820 09:02:40.162600 11316 net.cpp:100] Creating Layer conv9_2
I0820 09:02:40.162600 11316 net.cpp:434] conv9_2 <- conv9_1
I0820 09:02:40.162600 11316 net.cpp:408] conv9_2 -> conv9_2
I0820 09:02:40.167585 11316 net.cpp:150] Setting up conv9_2
I0820 09:02:40.167585 11316 net.cpp:157] Top shape: 8 256 5 5 (51200)
I0820 09:02:40.167585 11316 net.cpp:165] Memory required for data: 1880457216
I0820 09:02:40.167585 11316 layer_factory.hpp:77] Creating layer conv9_2_relu
I0820 09:02:40.167585 11316 net.cpp:100] Creating Layer conv9_2_relu
I0820 09:02:40.167585 11316 net.cpp:434] conv9_2_relu <- conv9_2
I0820 09:02:40.167585 11316 net.cpp:395] conv9_2_relu -> conv9_2 (in-place)
I0820 09:02:40.167585 11316 net.cpp:150] Setting up conv9_2_relu
I0820 09:02:40.167585 11316 net.cpp:157] Top shape: 8 256 5 5 (51200)
I0820 09:02:40.167585 11316 net.cpp:165] Memory required for data: 1880662016
I0820 09:02:40.167585 11316 layer_factory.hpp:77] Creating layer conv9_2_conv9_2_relu_0_split
I0820 09:02:40.167585 11316 net.cpp:100] Creating Layer conv9_2_conv9_2_relu_0_split
I0820 09:02:40.167585 11316 net.cpp:434] conv9_2_conv9_2_relu_0_split <- conv9_2
I0820 09:02:40.167585 11316 net.cpp:408] conv9_2_conv9_2_relu_0_split -> conv9_2_conv9_2_relu_0_split_0
I0820 09:02:40.167585 11316 net.cpp:408] conv9_2_conv9_2_relu_0_split -> conv9_2_conv9_2_relu_0_split_1
I0820 09:02:40.167585 11316 net.cpp:408] conv9_2_conv9_2_relu_0_split -> conv9_2_conv9_2_relu_0_split_2
I0820 09:02:40.167585 11316 net.cpp:408] conv9_2_conv9_2_relu_0_split -> conv9_2_conv9_2_relu_0_split_3
I0820 09:02:40.167585 11316 net.cpp:150] Setting up conv9_2_conv9_2_relu_0_split
I0820 09:02:40.168583 11316 net.cpp:157] Top shape: 8 256 5 5 (51200)
I0820 09:02:40.168583 11316 net.cpp:157] Top shape: 8 256 5 5 (51200)
I0820 09:02:40.168583 11316 net.cpp:157] Top shape: 8 256 5 5 (51200)
I0820 09:02:40.168583 11316 net.cpp:157] Top shape: 8 256 5 5 (51200)
I0820 09:02:40.168583 11316 net.cpp:165] Memory required for data: 1881481216
I0820 09:02:40.168583 11316 layer_factory.hpp:77] Creating layer conv10_1
I0820 09:02:40.168583 11316 net.cpp:100] Creating Layer conv10_1
I0820 09:02:40.168583 11316 net.cpp:434] conv10_1 <- conv9_2_conv9_2_relu_0_split_0
I0820 09:02:40.168583 11316 net.cpp:408] conv10_1 -> conv10_1
I0820 09:02:40.170578 11316 net.cpp:150] Setting up conv10_1
I0820 09:02:40.170578 11316 net.cpp:157] Top shape: 8 128 5 5 (25600)
I0820 09:02:40.170578 11316 net.cpp:165] Memory required for data: 1881583616
I0820 09:02:40.170578 11316 layer_factory.hpp:77] Creating layer conv10_1_relu
I0820 09:02:40.170578 11316 net.cpp:100] Creating Layer conv10_1_relu
I0820 09:02:40.170578 11316 net.cpp:434] conv10_1_relu <- conv10_1
I0820 09:02:40.170578 11316 net.cpp:395] conv10_1_relu -> conv10_1 (in-place)
I0820 09:02:40.171576 11316 net.cpp:150] Setting up conv10_1_relu
I0820 09:02:40.171576 11316 net.cpp:157] Top shape: 8 128 5 5 (25600)
I0820 09:02:40.171576 11316 net.cpp:165] Memory required for data: 1881686016
I0820 09:02:40.171576 11316 layer_factory.hpp:77] Creating layer conv10_2
I0820 09:02:40.171576 11316 net.cpp:100] Creating Layer conv10_2
I0820 09:02:40.171576 11316 net.cpp:434] conv10_2 <- conv10_1
I0820 09:02:40.171576 11316 net.cpp:408] conv10_2 -> conv10_2
I0820 09:02:40.175565 11316 net.cpp:150] Setting up conv10_2
I0820 09:02:40.176561 11316 net.cpp:157] Top shape: 8 256 3 3 (18432)
I0820 09:02:40.176561 11316 net.cpp:165] Memory required for data: 1881759744
I0820 09:02:40.176561 11316 layer_factory.hpp:77] Creating layer conv10_2_relu
I0820 09:02:40.176561 11316 net.cpp:100] Creating Layer conv10_2_relu
I0820 09:02:40.176561 11316 net.cpp:434] conv10_2_relu <- conv10_2
I0820 09:02:40.176561 11316 net.cpp:395] conv10_2_relu -> conv10_2 (in-place)
I0820 09:02:40.177559 11316 net.cpp:150] Setting up conv10_2_relu
I0820 09:02:40.177559 11316 net.cpp:157] Top shape: 8 256 3 3 (18432)
I0820 09:02:40.177559 11316 net.cpp:165] Memory required for data: 1881833472
I0820 09:02:40.177559 11316 layer_factory.hpp:77] Creating layer conv10_2_conv10_2_relu_0_split
I0820 09:02:40.177559 11316 net.cpp:100] Creating Layer conv10_2_conv10_2_relu_0_split
I0820 09:02:40.177559 11316 net.cpp:434] conv10_2_conv10_2_relu_0_split <- conv10_2
I0820 09:02:40.177559 11316 net.cpp:408] conv10_2_conv10_2_relu_0_split -> conv10_2_conv10_2_relu_0_split_0
I0820 09:02:40.177559 11316 net.cpp:408] conv10_2_conv10_2_relu_0_split -> conv10_2_conv10_2_relu_0_split_1
I0820 09:02:40.177559 11316 net.cpp:408] conv10_2_conv10_2_relu_0_split -> conv10_2_conv10_2_relu_0_split_2
I0820 09:02:40.177559 11316 net.cpp:408] conv10_2_conv10_2_relu_0_split -> conv10_2_conv10_2_relu_0_split_3
I0820 09:02:40.177559 11316 net.cpp:150] Setting up conv10_2_conv10_2_relu_0_split
I0820 09:02:40.177559 11316 net.cpp:157] Top shape: 8 256 3 3 (18432)
I0820 09:02:40.177559 11316 net.cpp:157] Top shape: 8 256 3 3 (18432)
I0820 09:02:40.177559 11316 net.cpp:157] Top shape: 8 256 3 3 (18432)
I0820 09:02:40.177559 11316 net.cpp:157] Top shape: 8 256 3 3 (18432)
I0820 09:02:40.177559 11316 net.cpp:165] Memory required for data: 1882128384
I0820 09:02:40.177559 11316 layer_factory.hpp:77] Creating layer conv11_1
I0820 09:02:40.177559 11316 net.cpp:100] Creating Layer conv11_1
I0820 09:02:40.177559 11316 net.cpp:434] conv11_1 <- conv10_2_conv10_2_relu_0_split_0
I0820 09:02:40.177559 11316 net.cpp:408] conv11_1 -> conv11_1
I0820 09:02:40.181548 11316 net.cpp:150] Setting up conv11_1
I0820 09:02:40.181548 11316 net.cpp:157] Top shape: 8 128 3 3 (9216)
I0820 09:02:40.181548 11316 net.cpp:165] Memory required for data: 1882165248
I0820 09:02:40.181548 11316 layer_factory.hpp:77] Creating layer conv11_1_relu
I0820 09:02:40.181548 11316 net.cpp:100] Creating Layer conv11_1_relu
I0820 09:02:40.181548 11316 net.cpp:434] conv11_1_relu <- conv11_1
I0820 09:02:40.181548 11316 net.cpp:395] conv11_1_relu -> conv11_1 (in-place)
I0820 09:02:40.181548 11316 net.cpp:150] Setting up conv11_1_relu
I0820 09:02:40.182545 11316 net.cpp:157] Top shape: 8 128 3 3 (9216)
I0820 09:02:40.182545 11316 net.cpp:165] Memory required for data: 1882202112
I0820 09:02:40.182545 11316 layer_factory.hpp:77] Creating layer conv11_2
I0820 09:02:40.182545 11316 net.cpp:100] Creating Layer conv11_2
I0820 09:02:40.182545 11316 net.cpp:434] conv11_2 <- conv11_1
I0820 09:02:40.182545 11316 net.cpp:408] conv11_2 -> conv11_2
I0820 09:02:40.186535 11316 net.cpp:150] Setting up conv11_2
I0820 09:02:40.186535 11316 net.cpp:157] Top shape: 8 256 1 1 (2048)
I0820 09:02:40.186535 11316 net.cpp:165] Memory required for data: 1882210304
I0820 09:02:40.186535 11316 layer_factory.hpp:77] Creating layer conv11_2_relu
I0820 09:02:40.186535 11316 net.cpp:100] Creating Layer conv11_2_relu
I0820 09:02:40.186535 11316 net.cpp:434] conv11_2_relu <- conv11_2
I0820 09:02:40.186535 11316 net.cpp:395] conv11_2_relu -> conv11_2 (in-place)
I0820 09:02:40.187532 11316 net.cpp:150] Setting up conv11_2_relu
I0820 09:02:40.187532 11316 net.cpp:157] Top shape: 8 256 1 1 (2048)
I0820 09:02:40.187532 11316 net.cpp:165] Memory required for data: 1882218496
I0820 09:02:40.187532 11316 layer_factory.hpp:77] Creating layer conv11_2_conv11_2_relu_0_split
I0820 09:02:40.187532 11316 net.cpp:100] Creating Layer conv11_2_conv11_2_relu_0_split
I0820 09:02:40.187532 11316 net.cpp:434] conv11_2_conv11_2_relu_0_split <- conv11_2
I0820 09:02:40.187532 11316 net.cpp:408] conv11_2_conv11_2_relu_0_split -> conv11_2_conv11_2_relu_0_split_0
I0820 09:02:40.187532 11316 net.cpp:408] conv11_2_conv11_2_relu_0_split -> conv11_2_conv11_2_relu_0_split_1
I0820 09:02:40.187532 11316 net.cpp:408] conv11_2_conv11_2_relu_0_split -> conv11_2_conv11_2_relu_0_split_2
I0820 09:02:40.187532 11316 net.cpp:150] Setting up conv11_2_conv11_2_relu_0_split
I0820 09:02:40.187532 11316 net.cpp:157] Top shape: 8 256 1 1 (2048)
I0820 09:02:40.187532 11316 net.cpp:157] Top shape: 8 256 1 1 (2048)
I0820 09:02:40.187532 11316 net.cpp:157] Top shape: 8 256 1 1 (2048)
I0820 09:02:40.187532 11316 net.cpp:165] Memory required for data: 1882243072
I0820 09:02:40.187532 11316 layer_factory.hpp:77] Creating layer conv4_3_norm
I0820 09:02:40.187532 11316 net.cpp:100] Creating Layer conv4_3_norm
I0820 09:02:40.187532 11316 net.cpp:434] conv4_3_norm <- conv4_3_relu4_3_0_split_1
I0820 09:02:40.187532 11316 net.cpp:408] conv4_3_norm -> conv4_3_norm
I0820 09:02:40.187532 11316 net.cpp:150] Setting up conv4_3_norm
I0820 09:02:40.187532 11316 net.cpp:157] Top shape: 8 512 38 38 (5914624)
I0820 09:02:40.187532 11316 net.cpp:165] Memory required for data: 1905901568
I0820 09:02:40.187532 11316 layer_factory.hpp:77] Creating layer conv4_3_norm_conv4_3_norm_0_split
I0820 09:02:40.187532 11316 net.cpp:100] Creating Layer conv4_3_norm_conv4_3_norm_0_split
I0820 09:02:40.187532 11316 net.cpp:434] conv4_3_norm_conv4_3_norm_0_split <- conv4_3_norm
I0820 09:02:40.187532 11316 net.cpp:408] conv4_3_norm_conv4_3_norm_0_split -> conv4_3_norm_conv4_3_norm_0_split_0
I0820 09:02:40.187532 11316 net.cpp:408] conv4_3_norm_conv4_3_norm_0_split -> conv4_3_norm_conv4_3_norm_0_split_1
I0820 09:02:40.187532 11316 net.cpp:408] conv4_3_norm_conv4_3_norm_0_split -> conv4_3_norm_conv4_3_norm_0_split_2
I0820 09:02:40.188529 11316 net.cpp:150] Setting up conv4_3_norm_conv4_3_norm_0_split
I0820 09:02:40.188529 11316 net.cpp:157] Top shape: 8 512 38 38 (5914624)
I0820 09:02:40.188529 11316 net.cpp:157] Top shape: 8 512 38 38 (5914624)
I0820 09:02:40.188529 11316 net.cpp:157] Top shape: 8 512 38 38 (5914624)
I0820 09:02:40.188529 11316 net.cpp:165] Memory required for data: 1976877056
I0820 09:02:40.188529 11316 layer_factory.hpp:77] Creating layer conv4_3_norm_mbox_loc
I0820 09:02:40.188529 11316 net.cpp:100] Creating Layer conv4_3_norm_mbox_loc
I0820 09:02:40.188529 11316 net.cpp:434] conv4_3_norm_mbox_loc <- conv4_3_norm_conv4_3_norm_0_split_0
I0820 09:02:40.188529 11316 net.cpp:408] conv4_3_norm_mbox_loc -> conv4_3_norm_mbox_loc
I0820 09:02:40.191521 11316 net.cpp:150] Setting up conv4_3_norm_mbox_loc
I0820 09:02:40.191521 11316 net.cpp:157] Top shape: 8 16 38 38 (184832)
I0820 09:02:40.191521 11316 net.cpp:165] Memory required for data: 1977616384
I0820 09:02:40.191521 11316 layer_factory.hpp:77] Creating layer conv4_3_norm_mbox_loc_perm
I0820 09:02:40.191521 11316 net.cpp:100] Creating Layer conv4_3_norm_mbox_loc_perm
I0820 09:02:40.191521 11316 net.cpp:434] conv4_3_norm_mbox_loc_perm <- conv4_3_norm_mbox_loc
I0820 09:02:40.191521 11316 net.cpp:408] conv4_3_norm_mbox_loc_perm -> conv4_3_norm_mbox_loc_perm
I0820 09:02:40.191521 11316 net.cpp:150] Setting up conv4_3_norm_mbox_loc_perm
I0820 09:02:40.191521 11316 net.cpp:157] Top shape: 8 38 38 16 (184832)
I0820 09:02:40.191521 11316 net.cpp:165] Memory required for data: 1978355712
I0820 09:02:40.191521 11316 layer_factory.hpp:77] Creating layer conv4_3_norm_mbox_loc_flat
I0820 09:02:40.191521 11316 net.cpp:100] Creating Layer conv4_3_norm_mbox_loc_flat
I0820 09:02:40.191521 11316 net.cpp:434] conv4_3_norm_mbox_loc_flat <- conv4_3_norm_mbox_loc_perm
I0820 09:02:40.191521 11316 net.cpp:408] conv4_3_norm_mbox_loc_flat -> conv4_3_norm_mbox_loc_flat
I0820 09:02:40.191521 11316 net.cpp:150] Setting up conv4_3_norm_mbox_loc_flat
I0820 09:02:40.191521 11316 net.cpp:157] Top shape: 8 23104 (184832)
I0820 09:02:40.191521 11316 net.cpp:165] Memory required for data: 1979095040
I0820 09:02:40.191521 11316 layer_factory.hpp:77] Creating layer conv4_3_norm_mbox_conf
I0820 09:02:40.191521 11316 net.cpp:100] Creating Layer conv4_3_norm_mbox_conf
I0820 09:02:40.191521 11316 net.cpp:434] conv4_3_norm_mbox_conf <- conv4_3_norm_conv4_3_norm_0_split_1
I0820 09:02:40.191521 11316 net.cpp:408] conv4_3_norm_mbox_conf -> conv4_3_norm_mbox_conf
I0820 09:02:40.196508 11316 net.cpp:150] Setting up conv4_3_norm_mbox_conf
I0820 09:02:40.196508 11316 net.cpp:157] Top shape: 8 12 38 38 (138624)
I0820 09:02:40.196508 11316 net.cpp:165] Memory required for data: 1979649536
I0820 09:02:40.196508 11316 layer_factory.hpp:77] Creating layer conv4_3_norm_mbox_conf_perm
I0820 09:02:40.196508 11316 net.cpp:100] Creating Layer conv4_3_norm_mbox_conf_perm
I0820 09:02:40.196508 11316 net.cpp:434] conv4_3_norm_mbox_conf_perm <- conv4_3_norm_mbox_conf
I0820 09:02:40.196508 11316 net.cpp:408] conv4_3_norm_mbox_conf_perm -> conv4_3_norm_mbox_conf_perm
I0820 09:02:40.196508 11316 net.cpp:150] Setting up conv4_3_norm_mbox_conf_perm
I0820 09:02:40.196508 11316 net.cpp:157] Top shape: 8 38 38 12 (138624)
I0820 09:02:40.196508 11316 net.cpp:165] Memory required for data: 1980204032
I0820 09:02:40.196508 11316 layer_factory.hpp:77] Creating layer conv4_3_norm_mbox_conf_flat
I0820 09:02:40.196508 11316 net.cpp:100] Creating Layer conv4_3_norm_mbox_conf_flat
I0820 09:02:40.196508 11316 net.cpp:434] conv4_3_norm_mbox_conf_flat <- conv4_3_norm_mbox_conf_perm
I0820 09:02:40.196508 11316 net.cpp:408] conv4_3_norm_mbox_conf_flat -> conv4_3_norm_mbox_conf_flat
I0820 09:02:40.196508 11316 net.cpp:150] Setting up conv4_3_norm_mbox_conf_flat
I0820 09:02:40.196508 11316 net.cpp:157] Top shape: 8 17328 (138624)
I0820 09:02:40.196508 11316 net.cpp:165] Memory required for data: 1980758528
I0820 09:02:40.196508 11316 layer_factory.hpp:77] Creating layer conv4_3_norm_mbox_priorbox
I0820 09:02:40.196508 11316 net.cpp:100] Creating Layer conv4_3_norm_mbox_priorbox
I0820 09:02:40.196508 11316 net.cpp:434] conv4_3_norm_mbox_priorbox <- conv4_3_norm_conv4_3_norm_0_split_2
I0820 09:02:40.196508 11316 net.cpp:434] conv4_3_norm_mbox_priorbox <- data_data_0_split_1
I0820 09:02:40.196508 11316 net.cpp:408] conv4_3_norm_mbox_priorbox -> conv4_3_norm_mbox_priorbox
I0820 09:02:40.196508 11316 net.cpp:150] Setting up conv4_3_norm_mbox_priorbox
I0820 09:02:40.196508 11316 net.cpp:157] Top shape: 1 2 23104 (46208)
I0820 09:02:40.196508 11316 net.cpp:165] Memory required for data: 1980943360
I0820 09:02:40.196508 11316 layer_factory.hpp:77] Creating layer fc7_mbox_loc
I0820 09:02:40.196508 11316 net.cpp:100] Creating Layer fc7_mbox_loc
I0820 09:02:40.196508 11316 net.cpp:434] fc7_mbox_loc <- fc7_relu7_0_split_1
I0820 09:02:40.196508 11316 net.cpp:408] fc7_mbox_loc -> fc7_mbox_loc
I0820 09:02:40.200497 11316 net.cpp:150] Setting up fc7_mbox_loc
I0820 09:02:40.200497 11316 net.cpp:157] Top shape: 8 24 19 19 (69312)
I0820 09:02:40.200497 11316 net.cpp:165] Memory required for data: 1981220608
I0820 09:02:40.200497 11316 layer_factory.hpp:77] Creating layer fc7_mbox_loc_perm
I0820 09:02:40.200497 11316 net.cpp:100] Creating Layer fc7_mbox_loc_perm
I0820 09:02:40.200497 11316 net.cpp:434] fc7_mbox_loc_perm <- fc7_mbox_loc
I0820 09:02:40.200497 11316 net.cpp:408] fc7_mbox_loc_perm -> fc7_mbox_loc_perm
I0820 09:02:40.200497 11316 net.cpp:150] Setting up fc7_mbox_loc_perm
I0820 09:02:40.200497 11316 net.cpp:157] Top shape: 8 19 19 24 (69312)
I0820 09:02:40.200497 11316 net.cpp:165] Memory required for data: 1981497856
I0820 09:02:40.200497 11316 layer_factory.hpp:77] Creating layer fc7_mbox_loc_flat
I0820 09:02:40.200497 11316 net.cpp:100] Creating Layer fc7_mbox_loc_flat
I0820 09:02:40.200497 11316 net.cpp:434] fc7_mbox_loc_flat <- fc7_mbox_loc_perm
I0820 09:02:40.200497 11316 net.cpp:408] fc7_mbox_loc_flat -> fc7_mbox_loc_flat
I0820 09:02:40.200497 11316 net.cpp:150] Setting up fc7_mbox_loc_flat
I0820 09:02:40.200497 11316 net.cpp:157] Top shape: 8 8664 (69312)
I0820 09:02:40.200497 11316 net.cpp:165] Memory required for data: 1981775104
I0820 09:02:40.200497 11316 layer_factory.hpp:77] Creating layer fc7_mbox_conf
I0820 09:02:40.200497 11316 net.cpp:100] Creating Layer fc7_mbox_conf
I0820 09:02:40.200497 11316 net.cpp:434] fc7_mbox_conf <- fc7_relu7_0_split_2
I0820 09:02:40.200497 11316 net.cpp:408] fc7_mbox_conf -> fc7_mbox_conf
I0820 09:02:40.231417 11316 net.cpp:150] Setting up fc7_mbox_conf
I0820 09:02:40.231417 11316 net.cpp:157] Top shape: 8 18 19 19 (51984)
I0820 09:02:40.231417 11316 net.cpp:165] Memory required for data: 1981983040
I0820 09:02:40.231417 11316 layer_factory.hpp:77] Creating layer fc7_mbox_conf_perm
I0820 09:02:40.231417 11316 net.cpp:100] Creating Layer fc7_mbox_conf_perm
I0820 09:02:40.231417 11316 net.cpp:434] fc7_mbox_conf_perm <- fc7_mbox_conf
I0820 09:02:40.231417 11316 net.cpp:408] fc7_mbox_conf_perm -> fc7_mbox_conf_perm
I0820 09:02:40.231417 11316 net.cpp:150] Setting up fc7_mbox_conf_perm
I0820 09:02:40.231417 11316 net.cpp:157] Top shape: 8 19 19 18 (51984)
I0820 09:02:40.231417 11316 net.cpp:165] Memory required for data: 1982190976
I0820 09:02:40.231417 11316 layer_factory.hpp:77] Creating layer fc7_mbox_conf_flat
I0820 09:02:40.231417 11316 net.cpp:100] Creating Layer fc7_mbox_conf_flat
I0820 09:02:40.231417 11316 net.cpp:434] fc7_mbox_conf_flat <- fc7_mbox_conf_perm
I0820 09:02:40.231417 11316 net.cpp:408] fc7_mbox_conf_flat -> fc7_mbox_conf_flat
I0820 09:02:40.231417 11316 net.cpp:150] Setting up fc7_mbox_conf_flat
I0820 09:02:40.231417 11316 net.cpp:157] Top shape: 8 6498 (51984)
I0820 09:02:40.231417 11316 net.cpp:165] Memory required for data: 1982398912
I0820 09:02:40.231417 11316 layer_factory.hpp:77] Creating layer fc7_mbox_priorbox
I0820 09:02:40.231417 11316 net.cpp:100] Creating Layer fc7_mbox_priorbox
I0820 09:02:40.231417 11316 net.cpp:434] fc7_mbox_priorbox <- fc7_relu7_0_split_3
I0820 09:02:40.231417 11316 net.cpp:434] fc7_mbox_priorbox <- data_data_0_split_2
I0820 09:02:40.231417 11316 net.cpp:408] fc7_mbox_priorbox -> fc7_mbox_priorbox
I0820 09:02:40.231417 11316 net.cpp:150] Setting up fc7_mbox_priorbox
I0820 09:02:40.231417 11316 net.cpp:157] Top shape: 1 2 8664 (17328)
I0820 09:02:40.231417 11316 net.cpp:165] Memory required for data: 1982468224
I0820 09:02:40.231417 11316 layer_factory.hpp:77] Creating layer conv8_2_mbox_loc
I0820 09:02:40.231417 11316 net.cpp:100] Creating Layer conv8_2_mbox_loc
I0820 09:02:40.231417 11316 net.cpp:434] conv8_2_mbox_loc <- conv8_2_conv8_2_relu_0_split_1
I0820 09:02:40.231417 11316 net.cpp:408] conv8_2_mbox_loc -> conv8_2_mbox_loc
I0820 09:02:40.235405 11316 net.cpp:150] Setting up conv8_2_mbox_loc
I0820 09:02:40.235405 11316 net.cpp:157] Top shape: 8 24 10 10 (19200)
I0820 09:02:40.235405 11316 net.cpp:165] Memory required for data: 1982545024
I0820 09:02:40.235405 11316 layer_factory.hpp:77] Creating layer conv8_2_mbox_loc_perm
I0820 09:02:40.236402 11316 net.cpp:100] Creating Layer conv8_2_mbox_loc_perm
I0820 09:02:40.236402 11316 net.cpp:434] conv8_2_mbox_loc_perm <- conv8_2_mbox_loc
I0820 09:02:40.236402 11316 net.cpp:408] conv8_2_mbox_loc_perm -> conv8_2_mbox_loc_perm
I0820 09:02:40.236402 11316 net.cpp:150] Setting up conv8_2_mbox_loc_perm
I0820 09:02:40.236402 11316 net.cpp:157] Top shape: 8 10 10 24 (19200)
I0820 09:02:40.236402 11316 net.cpp:165] Memory required for data: 1982621824
I0820 09:02:40.236402 11316 layer_factory.hpp:77] Creating layer conv8_2_mbox_loc_flat
I0820 09:02:40.236402 11316 net.cpp:100] Creating Layer conv8_2_mbox_loc_flat
I0820 09:02:40.236402 11316 net.cpp:434] conv8_2_mbox_loc_flat <- conv8_2_mbox_loc_perm
I0820 09:02:40.236402 11316 net.cpp:408] conv8_2_mbox_loc_flat -> conv8_2_mbox_loc_flat
I0820 09:02:40.236402 11316 net.cpp:150] Setting up conv8_2_mbox_loc_flat
I0820 09:02:40.236402 11316 net.cpp:157] Top shape: 8 2400 (19200)
I0820 09:02:40.236402 11316 net.cpp:165] Memory required for data: 1982698624
I0820 09:02:40.236402 11316 layer_factory.hpp:77] Creating layer conv8_2_mbox_conf
I0820 09:02:40.236402 11316 net.cpp:100] Creating Layer conv8_2_mbox_conf
I0820 09:02:40.236402 11316 net.cpp:434] conv8_2_mbox_conf <- conv8_2_conv8_2_relu_0_split_2
I0820 09:02:40.236402 11316 net.cpp:408] conv8_2_mbox_conf -> conv8_2_mbox_conf
I0820 09:02:40.239393 11316 net.cpp:150] Setting up conv8_2_mbox_conf
I0820 09:02:40.239393 11316 net.cpp:157] Top shape: 8 18 10 10 (14400)
I0820 09:02:40.239393 11316 net.cpp:165] Memory required for data: 1982756224
I0820 09:02:40.239393 11316 layer_factory.hpp:77] Creating layer conv8_2_mbox_conf_perm
I0820 09:02:40.239393 11316 net.cpp:100] Creating Layer conv8_2_mbox_conf_perm
I0820 09:02:40.239393 11316 net.cpp:434] conv8_2_mbox_conf_perm <- conv8_2_mbox_conf
I0820 09:02:40.239393 11316 net.cpp:408] conv8_2_mbox_conf_perm -> conv8_2_mbox_conf_perm
I0820 09:02:40.239393 11316 net.cpp:150] Setting up conv8_2_mbox_conf_perm
I0820 09:02:40.239393 11316 net.cpp:157] Top shape: 8 10 10 18 (14400)
I0820 09:02:40.239393 11316 net.cpp:165] Memory required for data: 1982813824
I0820 09:02:40.239393 11316 layer_factory.hpp:77] Creating layer conv8_2_mbox_conf_flat
I0820 09:02:40.239393 11316 net.cpp:100] Creating Layer conv8_2_mbox_conf_flat
I0820 09:02:40.239393 11316 net.cpp:434] conv8_2_mbox_conf_flat <- conv8_2_mbox_conf_perm
I0820 09:02:40.239393 11316 net.cpp:408] conv8_2_mbox_conf_flat -> conv8_2_mbox_conf_flat
I0820 09:02:40.239393 11316 net.cpp:150] Setting up conv8_2_mbox_conf_flat
I0820 09:02:40.239393 11316 net.cpp:157] Top shape: 8 1800 (14400)
I0820 09:02:40.239393 11316 net.cpp:165] Memory required for data: 1982871424
I0820 09:02:40.239393 11316 layer_factory.hpp:77] Creating layer conv8_2_mbox_priorbox
I0820 09:02:40.239393 11316 net.cpp:100] Creating Layer conv8_2_mbox_priorbox
I0820 09:02:40.239393 11316 net.cpp:434] conv8_2_mbox_priorbox <- conv8_2_conv8_2_relu_0_split_3
I0820 09:02:40.239393 11316 net.cpp:434] conv8_2_mbox_priorbox <- data_data_0_split_3
I0820 09:02:40.239393 11316 net.cpp:408] conv8_2_mbox_priorbox -> conv8_2_mbox_priorbox
I0820 09:02:40.239393 11316 net.cpp:150] Setting up conv8_2_mbox_priorbox
I0820 09:02:40.239393 11316 net.cpp:157] Top shape: 1 2 2400 (4800)
I0820 09:02:40.239393 11316 net.cpp:165] Memory required for data: 1982890624
I0820 09:02:40.239393 11316 layer_factory.hpp:77] Creating layer conv9_2_mbox_loc
I0820 09:02:40.239393 11316 net.cpp:100] Creating Layer conv9_2_mbox_loc
I0820 09:02:40.239393 11316 net.cpp:434] conv9_2_mbox_loc <- conv9_2_conv9_2_relu_0_split_1
I0820 09:02:40.239393 11316 net.cpp:408] conv9_2_mbox_loc -> conv9_2_mbox_loc
I0820 09:02:40.243382 11316 net.cpp:150] Setting up conv9_2_mbox_loc
I0820 09:02:40.243382 11316 net.cpp:157] Top shape: 8 24 5 5 (4800)
I0820 09:02:40.243382 11316 net.cpp:165] Memory required for data: 1982909824
I0820 09:02:40.243382 11316 layer_factory.hpp:77] Creating layer conv9_2_mbox_loc_perm
I0820 09:02:40.243382 11316 net.cpp:100] Creating Layer conv9_2_mbox_loc_perm
I0820 09:02:40.243382 11316 net.cpp:434] conv9_2_mbox_loc_perm <- conv9_2_mbox_loc
I0820 09:02:40.243382 11316 net.cpp:408] conv9_2_mbox_loc_perm -> conv9_2_mbox_loc_perm
I0820 09:02:40.243382 11316 net.cpp:150] Setting up conv9_2_mbox_loc_perm
I0820 09:02:40.243382 11316 net.cpp:157] Top shape: 8 5 5 24 (4800)
I0820 09:02:40.243382 11316 net.cpp:165] Memory required for data: 1982929024
I0820 09:02:40.243382 11316 layer_factory.hpp:77] Creating layer conv9_2_mbox_loc_flat
I0820 09:02:40.243382 11316 net.cpp:100] Creating Layer conv9_2_mbox_loc_flat
I0820 09:02:40.243382 11316 net.cpp:434] conv9_2_mbox_loc_flat <- conv9_2_mbox_loc_perm
I0820 09:02:40.243382 11316 net.cpp:408] conv9_2_mbox_loc_flat -> conv9_2_mbox_loc_flat
I0820 09:02:40.243382 11316 net.cpp:150] Setting up conv9_2_mbox_loc_flat
I0820 09:02:40.243382 11316 net.cpp:157] Top shape: 8 600 (4800)
I0820 09:02:40.243382 11316 net.cpp:165] Memory required for data: 1982948224
I0820 09:02:40.243382 11316 layer_factory.hpp:77] Creating layer conv9_2_mbox_conf
I0820 09:02:40.243382 11316 net.cpp:100] Creating Layer conv9_2_mbox_conf
I0820 09:02:40.243382 11316 net.cpp:434] conv9_2_mbox_conf <- conv9_2_conv9_2_relu_0_split_2
I0820 09:02:40.243382 11316 net.cpp:408] conv9_2_mbox_conf -> conv9_2_mbox_conf
I0820 09:02:40.246376 11316 net.cpp:150] Setting up conv9_2_mbox_conf
I0820 09:02:40.246376 11316 net.cpp:157] Top shape: 8 18 5 5 (3600)
I0820 09:02:40.246376 11316 net.cpp:165] Memory required for data: 1982962624
I0820 09:02:40.246376 11316 layer_factory.hpp:77] Creating layer conv9_2_mbox_conf_perm
I0820 09:02:40.246376 11316 net.cpp:100] Creating Layer conv9_2_mbox_conf_perm
I0820 09:02:40.246376 11316 net.cpp:434] conv9_2_mbox_conf_perm <- conv9_2_mbox_conf
I0820 09:02:40.246376 11316 net.cpp:408] conv9_2_mbox_conf_perm -> conv9_2_mbox_conf_perm
I0820 09:02:40.246376 11316 net.cpp:150] Setting up conv9_2_mbox_conf_perm
I0820 09:02:40.246376 11316 net.cpp:157] Top shape: 8 5 5 18 (3600)
I0820 09:02:40.246376 11316 net.cpp:165] Memory required for data: 1982977024
I0820 09:02:40.246376 11316 layer_factory.hpp:77] Creating layer conv9_2_mbox_conf_flat
I0820 09:02:40.246376 11316 net.cpp:100] Creating Layer conv9_2_mbox_conf_flat
I0820 09:02:40.246376 11316 net.cpp:434] conv9_2_mbox_conf_flat <- conv9_2_mbox_conf_perm
I0820 09:02:40.246376 11316 net.cpp:408] conv9_2_mbox_conf_flat -> conv9_2_mbox_conf_flat
I0820 09:02:40.246376 11316 net.cpp:150] Setting up conv9_2_mbox_conf_flat
I0820 09:02:40.246376 11316 net.cpp:157] Top shape: 8 450 (3600)
I0820 09:02:40.246376 11316 net.cpp:165] Memory required for data: 1982991424
I0820 09:02:40.246376 11316 layer_factory.hpp:77] Creating layer conv9_2_mbox_priorbox
I0820 09:02:40.246376 11316 net.cpp:100] Creating Layer conv9_2_mbox_priorbox
I0820 09:02:40.246376 11316 net.cpp:434] conv9_2_mbox_priorbox <- conv9_2_conv9_2_relu_0_split_3
I0820 09:02:40.246376 11316 net.cpp:434] conv9_2_mbox_priorbox <- data_data_0_split_4
I0820 09:02:40.246376 11316 net.cpp:408] conv9_2_mbox_priorbox -> conv9_2_mbox_priorbox
I0820 09:02:40.246376 11316 net.cpp:150] Setting up conv9_2_mbox_priorbox
I0820 09:02:40.246376 11316 net.cpp:157] Top shape: 1 2 600 (1200)
I0820 09:02:40.246376 11316 net.cpp:165] Memory required for data: 1982996224
I0820 09:02:40.246376 11316 layer_factory.hpp:77] Creating layer conv10_2_mbox_loc
I0820 09:02:40.246376 11316 net.cpp:100] Creating Layer conv10_2_mbox_loc
I0820 09:02:40.246376 11316 net.cpp:434] conv10_2_mbox_loc <- conv10_2_conv10_2_relu_0_split_1
I0820 09:02:40.246376 11316 net.cpp:408] conv10_2_mbox_loc -> conv10_2_mbox_loc
I0820 09:02:40.250365 11316 net.cpp:150] Setting up conv10_2_mbox_loc
I0820 09:02:40.250365 11316 net.cpp:157] Top shape: 8 16 3 3 (1152)
I0820 09:02:40.250365 11316 net.cpp:165] Memory required for data: 1983000832
I0820 09:02:40.250365 11316 layer_factory.hpp:77] Creating layer conv10_2_mbox_loc_perm
I0820 09:02:40.250365 11316 net.cpp:100] Creating Layer conv10_2_mbox_loc_perm
I0820 09:02:40.250365 11316 net.cpp:434] conv10_2_mbox_loc_perm <- conv10_2_mbox_loc
I0820 09:02:40.250365 11316 net.cpp:408] conv10_2_mbox_loc_perm -> conv10_2_mbox_loc_perm
I0820 09:02:40.250365 11316 net.cpp:150] Setting up conv10_2_mbox_loc_perm
I0820 09:02:40.250365 11316 net.cpp:157] Top shape: 8 3 3 16 (1152)
I0820 09:02:40.250365 11316 net.cpp:165] Memory required for data: 1983005440
I0820 09:02:40.250365 11316 layer_factory.hpp:77] Creating layer conv10_2_mbox_loc_flat
I0820 09:02:40.250365 11316 net.cpp:100] Creating Layer conv10_2_mbox_loc_flat
I0820 09:02:40.250365 11316 net.cpp:434] conv10_2_mbox_loc_flat <- conv10_2_mbox_loc_perm
I0820 09:02:40.250365 11316 net.cpp:408] conv10_2_mbox_loc_flat -> conv10_2_mbox_loc_flat
I0820 09:02:40.250365 11316 net.cpp:150] Setting up conv10_2_mbox_loc_flat
I0820 09:02:40.250365 11316 net.cpp:157] Top shape: 8 144 (1152)
I0820 09:02:40.250365 11316 net.cpp:165] Memory required for data: 1983010048
I0820 09:02:40.250365 11316 layer_factory.hpp:77] Creating layer conv10_2_mbox_conf
I0820 09:02:40.250365 11316 net.cpp:100] Creating Layer conv10_2_mbox_conf
I0820 09:02:40.250365 11316 net.cpp:434] conv10_2_mbox_conf <- conv10_2_conv10_2_relu_0_split_2
I0820 09:02:40.250365 11316 net.cpp:408] conv10_2_mbox_conf -> conv10_2_mbox_conf
I0820 09:02:40.252359 11316 net.cpp:150] Setting up conv10_2_mbox_conf
I0820 09:02:40.252359 11316 net.cpp:157] Top shape: 8 12 3 3 (864)
I0820 09:02:40.252359 11316 net.cpp:165] Memory required for data: 1983013504
I0820 09:02:40.252359 11316 layer_factory.hpp:77] Creating layer conv10_2_mbox_conf_perm
I0820 09:02:40.252359 11316 net.cpp:100] Creating Layer conv10_2_mbox_conf_perm
I0820 09:02:40.252359 11316 net.cpp:434] conv10_2_mbox_conf_perm <- conv10_2_mbox_conf
I0820 09:02:40.252359 11316 net.cpp:408] conv10_2_mbox_conf_perm -> conv10_2_mbox_conf_perm
I0820 09:02:40.252359 11316 net.cpp:150] Setting up conv10_2_mbox_conf_perm
I0820 09:02:40.252359 11316 net.cpp:157] Top shape: 8 3 3 12 (864)
I0820 09:02:40.252359 11316 net.cpp:165] Memory required for data: 1983016960
I0820 09:02:40.252359 11316 layer_factory.hpp:77] Creating layer conv10_2_mbox_conf_flat
I0820 09:02:40.252359 11316 net.cpp:100] Creating Layer conv10_2_mbox_conf_flat
I0820 09:02:40.252359 11316 net.cpp:434] conv10_2_mbox_conf_flat <- conv10_2_mbox_conf_perm
I0820 09:02:40.252359 11316 net.cpp:408] conv10_2_mbox_conf_flat -> conv10_2_mbox_conf_flat
I0820 09:02:40.252359 11316 net.cpp:150] Setting up conv10_2_mbox_conf_flat
I0820 09:02:40.252359 11316 net.cpp:157] Top shape: 8 108 (864)
I0820 09:02:40.252359 11316 net.cpp:165] Memory required for data: 1983020416
I0820 09:02:40.252359 11316 layer_factory.hpp:77] Creating layer conv10_2_mbox_priorbox
I0820 09:02:40.252359 11316 net.cpp:100] Creating Layer conv10_2_mbox_priorbox
I0820 09:02:40.252359 11316 net.cpp:434] conv10_2_mbox_priorbox <- conv10_2_conv10_2_relu_0_split_3
I0820 09:02:40.252359 11316 net.cpp:434] conv10_2_mbox_priorbox <- data_data_0_split_5
I0820 09:02:40.252359 11316 net.cpp:408] conv10_2_mbox_priorbox -> conv10_2_mbox_priorbox
I0820 09:02:40.252359 11316 net.cpp:150] Setting up conv10_2_mbox_priorbox
I0820 09:02:40.252359 11316 net.cpp:157] Top shape: 1 2 144 (288)
I0820 09:02:40.252359 11316 net.cpp:165] Memory required for data: 1983021568
I0820 09:02:40.252359 11316 layer_factory.hpp:77] Creating layer conv11_2_mbox_loc
I0820 09:02:40.252359 11316 net.cpp:100] Creating Layer conv11_2_mbox_loc
I0820 09:02:40.252359 11316 net.cpp:434] conv11_2_mbox_loc <- conv11_2_conv11_2_relu_0_split_0
I0820 09:02:40.252359 11316 net.cpp:408] conv11_2_mbox_loc -> conv11_2_mbox_loc
I0820 09:02:40.255350 11316 net.cpp:150] Setting up conv11_2_mbox_loc
I0820 09:02:40.255350 11316 net.cpp:157] Top shape: 8 16 1 1 (128)
I0820 09:02:40.255350 11316 net.cpp:165] Memory required for data: 1983022080
I0820 09:02:40.255350 11316 layer_factory.hpp:77] Creating layer conv11_2_mbox_loc_perm
I0820 09:02:40.255350 11316 net.cpp:100] Creating Layer conv11_2_mbox_loc_perm
I0820 09:02:40.255350 11316 net.cpp:434] conv11_2_mbox_loc_perm <- conv11_2_mbox_loc
I0820 09:02:40.255350 11316 net.cpp:408] conv11_2_mbox_loc_perm -> conv11_2_mbox_loc_perm
I0820 09:02:40.255350 11316 net.cpp:150] Setting up conv11_2_mbox_loc_perm
I0820 09:02:40.255350 11316 net.cpp:157] Top shape: 8 1 1 16 (128)
I0820 09:02:40.255350 11316 net.cpp:165] Memory required for data: 1983022592
I0820 09:02:40.255350 11316 layer_factory.hpp:77] Creating layer conv11_2_mbox_loc_flat
I0820 09:02:40.255350 11316 net.cpp:100] Creating Layer conv11_2_mbox_loc_flat
I0820 09:02:40.255350 11316 net.cpp:434] conv11_2_mbox_loc_flat <- conv11_2_mbox_loc_perm
I0820 09:02:40.255350 11316 net.cpp:408] conv11_2_mbox_loc_flat -> conv11_2_mbox_loc_flat
I0820 09:02:40.255350 11316 net.cpp:150] Setting up conv11_2_mbox_loc_flat
I0820 09:02:40.255350 11316 net.cpp:157] Top shape: 8 16 (128)
I0820 09:02:40.255350 11316 net.cpp:165] Memory required for data: 1983023104
I0820 09:02:40.255350 11316 layer_factory.hpp:77] Creating layer conv11_2_mbox_conf
I0820 09:02:40.255350 11316 net.cpp:100] Creating Layer conv11_2_mbox_conf
I0820 09:02:40.255350 11316 net.cpp:434] conv11_2_mbox_conf <- conv11_2_conv11_2_relu_0_split_1
I0820 09:02:40.255350 11316 net.cpp:408] conv11_2_mbox_conf -> conv11_2_mbox_conf
I0820 09:02:40.259341 11316 net.cpp:150] Setting up conv11_2_mbox_conf
I0820 09:02:40.259341 11316 net.cpp:157] Top shape: 8 12 1 1 (96)
I0820 09:02:40.259341 11316 net.cpp:165] Memory required for data: 1983023488
I0820 09:02:40.259341 11316 layer_factory.hpp:77] Creating layer conv11_2_mbox_conf_perm
I0820 09:02:40.259341 11316 net.cpp:100] Creating Layer conv11_2_mbox_conf_perm
I0820 09:02:40.259341 11316 net.cpp:434] conv11_2_mbox_conf_perm <- conv11_2_mbox_conf
I0820 09:02:40.259341 11316 net.cpp:408] conv11_2_mbox_conf_perm -> conv11_2_mbox_conf_perm
I0820 09:02:40.259341 11316 net.cpp:150] Setting up conv11_2_mbox_conf_perm
I0820 09:02:40.259341 11316 net.cpp:157] Top shape: 8 1 1 12 (96)
I0820 09:02:40.259341 11316 net.cpp:165] Memory required for data: 1983023872
I0820 09:02:40.259341 11316 layer_factory.hpp:77] Creating layer conv11_2_mbox_conf_flat
I0820 09:02:40.259341 11316 net.cpp:100] Creating Layer conv11_2_mbox_conf_flat
I0820 09:02:40.259341 11316 net.cpp:434] conv11_2_mbox_conf_flat <- conv11_2_mbox_conf_perm
I0820 09:02:40.259341 11316 net.cpp:408] conv11_2_mbox_conf_flat -> conv11_2_mbox_conf_flat
I0820 09:02:40.259341 11316 net.cpp:150] Setting up conv11_2_mbox_conf_flat
I0820 09:02:40.259341 11316 net.cpp:157] Top shape: 8 12 (96)
I0820 09:02:40.259341 11316 net.cpp:165] Memory required for data: 1983024256
I0820 09:02:40.259341 11316 layer_factory.hpp:77] Creating layer conv11_2_mbox_priorbox
I0820 09:02:40.260337 11316 net.cpp:100] Creating Layer conv11_2_mbox_priorbox
I0820 09:02:40.260337 11316 net.cpp:434] conv11_2_mbox_priorbox <- conv11_2_conv11_2_relu_0_split_2
I0820 09:02:40.260337 11316 net.cpp:434] conv11_2_mbox_priorbox <- data_data_0_split_6
I0820 09:02:40.260337 11316 net.cpp:408] conv11_2_mbox_priorbox -> conv11_2_mbox_priorbox
I0820 09:02:40.260337 11316 net.cpp:150] Setting up conv11_2_mbox_priorbox
I0820 09:02:40.260337 11316 net.cpp:157] Top shape: 1 2 16 (32)
I0820 09:02:40.260337 11316 net.cpp:165] Memory required for data: 1983024384
I0820 09:02:40.260337 11316 layer_factory.hpp:77] Creating layer mbox_loc
I0820 09:02:40.260337 11316 net.cpp:100] Creating Layer mbox_loc
I0820 09:02:40.260337 11316 net.cpp:434] mbox_loc <- conv4_3_norm_mbox_loc_flat
I0820 09:02:40.260337 11316 net.cpp:434] mbox_loc <- fc7_mbox_loc_flat
I0820 09:02:40.260337 11316 net.cpp:434] mbox_loc <- conv8_2_mbox_loc_flat
I0820 09:02:40.260337 11316 net.cpp:434] mbox_loc <- conv9_2_mbox_loc_flat
I0820 09:02:40.260337 11316 net.cpp:434] mbox_loc <- conv10_2_mbox_loc_flat
I0820 09:02:40.260337 11316 net.cpp:434] mbox_loc <- conv11_2_mbox_loc_flat
I0820 09:02:40.260337 11316 net.cpp:408] mbox_loc -> mbox_loc
I0820 09:02:40.260337 11316 net.cpp:150] Setting up mbox_loc
I0820 09:02:40.260337 11316 net.cpp:157] Top shape: 8 34928 (279424)
I0820 09:02:40.260337 11316 net.cpp:165] Memory required for data: 1984142080
I0820 09:02:40.260337 11316 layer_factory.hpp:77] Creating layer mbox_conf
I0820 09:02:40.260337 11316 net.cpp:100] Creating Layer mbox_conf
I0820 09:02:40.260337 11316 net.cpp:434] mbox_conf <- conv4_3_norm_mbox_conf_flat
I0820 09:02:40.260337 11316 net.cpp:434] mbox_conf <- fc7_mbox_conf_flat
I0820 09:02:40.260337 11316 net.cpp:434] mbox_conf <- conv8_2_mbox_conf_flat
I0820 09:02:40.260337 11316 net.cpp:434] mbox_conf <- conv9_2_mbox_conf_flat
I0820 09:02:40.260337 11316 net.cpp:434] mbox_conf <- conv10_2_mbox_conf_flat
I0820 09:02:40.260337 11316 net.cpp:434] mbox_conf <- conv11_2_mbox_conf_flat
I0820 09:02:40.260337 11316 net.cpp:408] mbox_conf -> mbox_conf
I0820 09:02:40.260337 11316 net.cpp:150] Setting up mbox_conf
I0820 09:02:40.260337 11316 net.cpp:157] Top shape: 8 26196 (209568)
I0820 09:02:40.260337 11316 net.cpp:165] Memory required for data: 1984980352
I0820 09:02:40.260337 11316 layer_factory.hpp:77] Creating layer mbox_priorbox
I0820 09:02:40.260337 11316 net.cpp:100] Creating Layer mbox_priorbox
I0820 09:02:40.260337 11316 net.cpp:434] mbox_priorbox <- conv4_3_norm_mbox_priorbox
I0820 09:02:40.260337 11316 net.cpp:434] mbox_priorbox <- fc7_mbox_priorbox
I0820 09:02:40.260337 11316 net.cpp:434] mbox_priorbox <- conv8_2_mbox_priorbox
I0820 09:02:40.260337 11316 net.cpp:434] mbox_priorbox <- conv9_2_mbox_priorbox
I0820 09:02:40.260337 11316 net.cpp:434] mbox_priorbox <- conv10_2_mbox_priorbox
I0820 09:02:40.260337 11316 net.cpp:434] mbox_priorbox <- conv11_2_mbox_priorbox
I0820 09:02:40.260337 11316 net.cpp:408] mbox_priorbox -> mbox_priorbox
I0820 09:02:40.260337 11316 net.cpp:150] Setting up mbox_priorbox
I0820 09:02:40.260337 11316 net.cpp:157] Top shape: 1 2 34928 (69856)
I0820 09:02:40.260337 11316 net.cpp:165] Memory required for data: 1985259776
I0820 09:02:40.260337 11316 layer_factory.hpp:77] Creating layer mbox_conf_reshape
I0820 09:02:40.263329 11316 net.cpp:100] Creating Layer mbox_conf_reshape
I0820 09:02:40.263329 11316 net.cpp:434] mbox_conf_reshape <- mbox_conf
I0820 09:02:40.263329 11316 net.cpp:408] mbox_conf_reshape -> mbox_conf_reshape
I0820 09:02:40.263329 11316 net.cpp:150] Setting up mbox_conf_reshape
I0820 09:02:40.263329 11316 net.cpp:157] Top shape: 8 8732 3 (209568)
I0820 09:02:40.263329 11316 net.cpp:165] Memory required for data: 1986098048
I0820 09:02:40.263329 11316 layer_factory.hpp:77] Creating layer mbox_conf_softmax
I0820 09:02:40.263329 11316 net.cpp:100] Creating Layer mbox_conf_softmax
I0820 09:02:40.263329 11316 net.cpp:434] mbox_conf_softmax <- mbox_conf_reshape
I0820 09:02:40.263329 11316 net.cpp:408] mbox_conf_softmax -> mbox_conf_softmax
I0820 09:02:40.264326 11316 net.cpp:150] Setting up mbox_conf_softmax
I0820 09:02:40.264326 11316 net.cpp:157] Top shape: 8 8732 3 (209568)
I0820 09:02:40.264326 11316 net.cpp:165] Memory required for data: 1986936320
I0820 09:02:40.264326 11316 layer_factory.hpp:77] Creating layer mbox_conf_flatten
I0820 09:02:40.264326 11316 net.cpp:100] Creating Layer mbox_conf_flatten
I0820 09:02:40.264326 11316 net.cpp:434] mbox_conf_flatten <- mbox_conf_softmax
I0820 09:02:40.264326 11316 net.cpp:408] mbox_conf_flatten -> mbox_conf_flatten
I0820 09:02:40.264326 11316 net.cpp:150] Setting up mbox_conf_flatten
I0820 09:02:40.264326 11316 net.cpp:157] Top shape: 8 26196 (209568)
I0820 09:02:40.264326 11316 net.cpp:165] Memory required for data: 1987774592
I0820 09:02:40.264326 11316 layer_factory.hpp:77] Creating layer detection_out
I0820 09:02:40.264326 11316 net.cpp:100] Creating Layer detection_out
I0820 09:02:40.265324 11316 net.cpp:434] detection_out <- mbox_loc
I0820 09:02:40.265324 11316 net.cpp:434] detection_out <- mbox_conf_flatten
I0820 09:02:40.265324 11316 net.cpp:434] detection_out <- mbox_priorbox
I0820 09:02:40.265324 11316 net.cpp:408] detection_out -> detection_out
I0820 09:02:40.265324 11316 net.cpp:150] Setting up detection_out
I0820 09:02:40.265324 11316 net.cpp:157] Top shape: 1 1 1 7 (7)
I0820 09:02:40.265324 11316 net.cpp:165] Memory required for data: 1987774620
I0820 09:02:40.265324 11316 layer_factory.hpp:77] Creating layer slience
I0820 09:02:40.265324 11316 net.cpp:100] Creating Layer slience
I0820 09:02:40.265324 11316 net.cpp:434] slience <- detection_out
I0820 09:02:40.265324 11316 net.cpp:150] Setting up slience
I0820 09:02:40.265324 11316 net.cpp:165] Memory required for data: 1987774620
…
