…
      sampler {
        min_scale: 0.3
        max_scale: 1
        min_aspect_ratio: 0.5
        max_aspect_ratio: 2
      }
      sample_constraint {
        min_jaccard_overlap: 0.9
      }
      max_sample: 1
      max_trials: 50
    }
    batch_sampler {
      sampler {
        min_scale: 0.3
        max_scale: 1
        min_aspect_ratio: 0.5
        max_aspect_ratio: 2
      }
      sample_constraint {
        max_jaccard_overlap: 1
      }
      max_sample: 1
      max_trials: 50
    }
    label_map_file: "data\\wastedata\\labelmap_waste.prototxt"
  }
}
layer {
  name: "conv1_1"
  type: "Convolution"
  bottom: "data"
  top: "conv1_1"
  param {
    lr_mult: 1
    decay_mult: 1
  }
  param {
    lr_mult: 1
    decay_mult: 0
  }
  convolution_param {
    num_output: 64
    pad: 1
    kernel_size: 3
    weight_filler {
      type: "xavier"
    }
    bias_filler {
      type: "constant"
      value: 0
    }
  }
}
layer {
  name: "relu1_1"
  type: "ReLU"
  bottom: "conv1_1"
  top: "conv1_1"
}
layer {
  name: "conv1_2"
  type: "Convolution"
  bottom: "conv1_1"
  top: "conv1_2"
  param {
    lr_mult: 1
    decay_mult: 1
  }
  param {
    lr_mult: 1
    decay_mult: 0
  }
  convolution_param {
    num_output: 64
    pad: 1
    kernel_size: 3
    weight_filler {
      type: "xavier"
    }
    bias_filler {
      type: "constant"
      value: 0
    }
  }
}
layer {
  name: "relu1_2"
  type: "ReLU"
  bottom: "conv1_2"
  top: "conv1_2"
}
layer {
  name: "pool1"
  type: "Pooling"
  bottom: "conv1_2"
  top: "pool1"
  pooling_param {
    pool: MAX
    kernel_size: 2
    stride: 2
  }
}
layer {
  name: "conv2_1"
  type: "Convolution"
  bottom: "pool1"
  top: "conv2_1"
  param {
    lr_mult: 1
    decay_mult: 1
  }
  param {
    lr_mult: 1
    decay_mult: 0
  }
  convolution_param {
    num_output: 128
    pad: 1
    kernel_size: 3
    weight_filler {
      type: "xavier"
    }
    bias_filler {
      type: "constant"
      value: 0
    }
  }
}
layer {
  name: "relu2_1"
  type: "ReLU"
  bottom: "conv2_1"
  top: "conv2_1"
}
layer {
  name: "conv2_2"
  type: "Convolution"
  bottom: "conv2_1"
  top: "conv2_2"
  param {
    lr_mult: 1
    decay_mult: 1
  }
  param {
    lr_mult: 1
    decay_mult: 0
  }
  convolution_param {
    num_output: 128
    pad: 1
    kernel_size: 3
    weight_filler {
      type: "xavier"
    }
    bias_filler {
      type: "constant"
      value: 0
    }
  }
}
layer {
  name: "relu2_2"
  type: "ReLU"
  bottom: "conv2_2"
  top: "conv2_2"
}
layer {
  name: "pool2"
  type: "Pooling"
  bottom: "conv2_2"
  top: "pool2"
  pooling_param {
    pool: MAX
    kernel_size: 2
    stride: 2
  }
}
layer {
  name: "conv3_1"
  type: "Convolution"
  bottom: "pool2"
  top: "conv3_1"
  param {
    lr_mult: 1
    decay_mult: 1
  }
  param {
    lr_mult: 1
    decay_mult: 0
  }
  convolution_param {
    num_output: 256
    pad: 1
    kernel_size: 3
    weight_filler {
      type: "xavier"
    }
    bias_filler {
      type: "constant"
      value: 0
    }
  }
}
layer {
  name: "relu3_1"
  type: "ReLU"
  bottom: "conv3_1"
  top: "conv3_1"
}
layer {
  name: "conv3_2"
  type: "Convolution"
  bottom: "conv3_1"
  top: "conv3_2"
  param {
    lr_mult: 1
    decay_mult: 1
  }
  param {
    lr_mult: 1
    decay_mult: 0
  }
  convolution_param {
    num_output: 256
    pad: 1
    kernel_size: 3
    weight_filler {
      type: "xavier"
    }
    bias_filler {
      type: "constant"
      value: 0
    }
  }
}
layer {
  name: "relu3_2"
  type: "ReLU"
  bottom: "conv3_2"
  top: "conv3_2"
}
layer {
  name: "conv3_3"
  type: "Convolution"
  bottom: "conv3_2"
  top: "conv3_3"
  param {
    lr_mult: 1
    decay_mult: 1
  }
  param {
    lr_mult: 1
    decay_mult: 0
  }
  convolution_param {
    num_output: 256
    pad: 1
    kernel_size: 3
    weight_filler {
      type: "xavier"
    }
    bias_filler {
      type: "constant"
      value: 0
    }
  }
}
layer {
  name: "relu3_3"
  type: "ReLU"
  bottom: "conv3_3"
  top: "conv3_3"
}
layer {
  name: "pool3"
  type: "Pooling"
  bottom: "conv3_3"
  top: "pool3"
  pooling_param {
    pool: MAX
    kernel_size: 2
    stride: 2
  }
}
layer {
  name: "conv4_1"
  type: "Convolution"
  bottom: "pool3"
  top: "conv4_1"
  param {
    lr_mult: 1
    decay_mult: 1
  }
  param {
    lr_mult: 1
    decay_mult: 0
  }
  convolution_param {
    num_output: 512
    pad: 1
    kernel_size: 3
    weight_filler {
      type: "xavier"
    }
    bias_filler {
      type: "constant"
      value: 0
    }
  }
}
layer {
  name: "relu4_1"
  type: "ReLU"
  bottom: "conv4_1"
  top: "conv4_1"
}
layer {
  name: "conv4_2"
  type: "Convolution"
  bottom: "conv4_1"
  top: "conv4_2"
  param {
    lr_mult: 1
    decay_mult: 1
  }
  param {
    lr_mult: 1
    decay_mult: 0
  }
  convolution_param {
    num_output: 512
    pad: 1
    kernel_size: 3
    weight_filler {
      type: "xavier"
    }
    bias_filler {
      type: "constant"
      value: 0
    }
  }
}
layer {
  name: "relu4_2"
  type: "ReLU"
  bottom: "conv4_2"
  top: "conv4_2"
}
layer {
  name: "conv4_3"
  type: "Convolution"
  bottom: "conv4_2"
  top: "conv4_3"
  param {
    lr_mult: 1
    decay_mult: 1
  }
  param {
    lr_mult: 1
    decay_mult: 0
  }
  convolution_param {
    num_output: 512
    pad: 1
    kernel_size: 3
    weight_filler {
      type: "xavier"
    }
    bias_filler {
      type: "constant"
      value: 0
    }
  }
}
layer {
  name: "relu4_3"
  type: "ReLU"
  bottom: "conv4_3"
  top: "conv4_3"
}
layer {
  name: "pool4"
  type: "Pooling"
  bottom: "conv4_3"
  top: "pool4"
  pooling_param {
    pool: MAX
    kernel_size: 2
    stride: 2
  }
}
layer {
  name: "conv5_1"
  type: "Convolution"
  bottom: "pool4"
  top: "conv5_1"
  param {
    lr_mult: 1
    decay_mult: 1
  }
  param {
    lr_mult: 1
    decay_mult: 0
  }
  convolution_param {
    num_output: 512
    pad: 1
    kernel_size: 3
    weight_filler {
      type: "xavier"
    }
    bias_filler {
      type: "constant"
      value: 0
    }
    dilation: 1
  }
}
layer {
  name: "relu5_1"
  type: "ReLU"
  bottom: "conv5_1"
  top: "conv5_1"
}
layer {
  name: "conv5_2"
  type: "Convolution"
  bottom: "conv5_1"
  top: "conv5_2"
  param {
    lr_mult: 1
    decay_mult: 1
  }
  param {
    lr_mult: 1
    decay_mult: 0
  }
  convolution_param {
    num_output: 512
    pad: 1
    kernel_size: 3
    weight_filler {
      type: "xavier"
    }
    bias_filler {
      type: "constant"
      value: 0
    }
    dilation: 1
  }
}
layer {
  name: "relu5_2"
  type: "ReLU"
  bottom: "conv5_2"
  top: "conv5_2"
}
layer {
  name: "conv5_3"
  type: "Convolution"
  bottom: "conv5_2"
  top: "conv5_3"
  param {
    lr_mult: 1
    decay_mult: 1
  }
  param {
    lr_mult: 1
    decay_mult: 0
  }
  convolution_param {
    num_output: 512
    pad: 1
    kernel_size: 3
    weight_filler {
      type: "xavier"
    }
    bias_filler {
      type: "constant"
      value: 0
    }
    dilation: 1
  }
}
layer {
  name: "relu5_3"
  type: "ReLU"
  bottom: "conv5_3"
  top: "conv5_3"
}
layer {
  name: "pool5"
  type: "Pooling"
  bottom: "conv5_3"
  top: "pool5"
  pooling_param {
    pool: MAX
    kernel_size: 3
    stride: 1
    pad: 1
  }
}
layer {
  name: "fc6"
  type: "Convolution"
  bottom: "pool5"
  top: "fc6"
  param {
    lr_mult: 1
    decay_mult: 1
  }
  param {
    lr_mult: 1
    decay_mult: 0
  }
  convolution_param {
    num_output: 1024
    pad: 6
    kernel_size: 3
    weight_filler {
      type: "xavier"
    }
    bias_filler {
      type: "constant"
      value: 0
    }
    dilation: 6
  }
}
layer {
  name: "relu6"
  type: "ReLU"
  bottom: "fc6"
  top: "fc6"
}
layer {
  name: "fc7"
  type: "Convolution"
  bottom: "fc6"
  top: "fc7"
  param {
    lr_mult: 1
    decay_mult: 1
  }
  param {
    lr_mult: 1
    decay_mult: 0
  }
  convolution_param {
    num_output: 1024
    kernel_size: 1
    weight_filler {
      type: "xavier"
    }
    bias_filler {
      type: "constant"
      value: 0
    }
  }
}
layer {
  name: "relu7"
  type: "ReLU"
  bottom: "fc7"
  top: "fc7"
}
layer {
  name: "conv8_1"
  type: "Convolution"
  bottom: "fc7"
  top: "conv8_1"
  param {
    lr_mult: 1
    decay_mult: 1
  }
  param {
    lr_mult: 2
    decay_mult: 0
  }
  convolution_param {
    num_output: 256
    pad: 0
    kernel_size: 1
    stride: 1
    weight_filler {
      type: "xavier"
    }
    bias_filler {
      type: "constant"
      value: 0
    }
  }
}
layer {
  name: "conv8_1_relu"
  type: "ReLU"
  bottom: "conv8_1"
  top: "conv8_1"
}
layer {
  name: "conv8_2"
  type: "Convolution"
  bottom: "conv8_1"
  top: "conv8_2"
  param {
    lr_mult: 1
    decay_mult: 1
  }
  param {
    lr_mult: 2
    decay_mult: 0
  }
  convolution_param {
    num_output: 512
    pad: 1
    kernel_size: 3
    stride: 2
    weight_filler {
      type: "xavier"
    }
    bias_filler {
      type: "constant"
      value: 0
    }
  }
}
layer {
  name: "conv8_2_relu"
  type: "ReLU"
  bottom: "conv8_2"
  top: "conv8_2"
}
layer {
  name: "conv9_1"
  type: "Convolution"
  bottom: "conv8_2"
  top: "conv9_1"
  param {
    lr_mult: 1
    decay_mult: 1
  }
  param {
    lr_mult: 2
    decay_mult: 0
  }
  convolution_param {
    num_output: 128
    pad: 0
    kernel_size: 1
    stride: 1
    weight_filler {
      type: "xavier"
    }
    bias_filler {
      type: "constant"
      value: 0
    }
  }
}
layer {
  name: "conv9_1_relu"
  type: "ReLU"
  bottom: "conv9_1"
  top: "conv9_1"
}
layer {
  name: "conv9_2"
  type: "Convolution"
  bottom: "conv9_1"
  top: "conv9_2"
  param {
    lr_mult: 1
    decay_mult: 1
  }
  param {
    lr_mult: 2
    decay_mult: 0
  }
  convolution_param {
    num_output: 256
    pad: 1
    kernel_size: 3
    stride: 2
    weight_filler {
      type: "xavier"
    }
    bias_filler {
      type: "constant"
      value: 0
    }
  }
}
layer {
  name: "conv9_2_relu"
  type: "ReLU"
  bottom: "conv9_2"
  top: "conv9_2"
}
layer {
  name: "conv10_1"
  type: "Convolution"
  bottom: "conv9_2"
  top: "conv10_1"
  param {
    lr_mult: 1
    decay_mult: 1
  }
  param {
    lr_mult: 2
    decay_mult: 0
  }
  convolution_param {
    num_output: 128
    pad: 0
    kernel_size: 1
    stride: 1
    weight_filler {
      type: "xavier"
    }
    bias_filler {
      type: "constant"
      value: 0
    }
  }
}
layer {
  name: "conv10_1_relu"
  type: "ReLU"
  bottom: "conv10_1"
  top: "conv10_1"
}
layer {
  name: "conv10_2"
  type: "Convolution"
  bottom: "conv10_1"
  top: "conv10_2"
  param {
    lr_mult: 1
    decay_mult: 1
  }
  param {
    lr_mult: 2
    decay_mult: 0
  }
  convolution_param {
    num_output: 256
    pad: 1
    kernel_size: 3
    stride: 2
    weight_filler {
      type: "xavier"
    }
    bias_filler {
      type: "constant"
      value: 0
    }
  }
}
layer {
  name: "conv10_2_relu"
  type: "ReLU"
  bottom: "conv10_2"
  top: "conv10_2"
}
layer {
  name: "conv11_1"
  type: "Convolution"
  bottom: "conv10_2"
  top: "conv11_1"
  param {
    lr_mult: 1
    decay_mult: 1
  }
  param {
    lr_mult: 2
    decay_mult: 0
  }
  convolution_param {
    num_output: 128
    pad: 0
    kernel_size: 1
    stride: 1
    weight_filler {
      type: "xavier"
    }
    bias_filler {
      type: "constant"
      value: 0
    }
  }
}
layer {
  name: "conv11_1_relu"
  type: "ReLU"
  bottom: "conv11_1"
  top: "conv11_1"
}
layer {
  name: "conv11_2"
  type: "Convolution"
  bottom: "conv11_1"
  top: "conv11_2"
  param {
    lr_mult: 1
    decay_mult: 1
  }
  param {
    lr_mult: 2
    decay_mult: 0
  }
  convolution_param {
    num_output: 256
    pad: 1
    kernel_size: 3
    stride: 2
    weight_filler {
      type: "xavier"
    }
    bias_filler {
      type: "constant"
      value: 0
    }
  }
}
layer {
  name: "conv11_2_relu"
  type: "ReLU"
  bottom: "conv11_2"
  top: "conv11_2"
}
layer {
  name: "conv12_1"
  type: "Convolution"
  bottom: "conv11_2"
  top: "conv12_1"
  param {
    lr_mult: 1
    decay_mult: 1
  }
  param {
    lr_mult: 2
    decay_mult: 0
  }
  convolution_param {
    num_output: 128
    pad: 0
    kernel_size: 1
    stride: 1
    weight_filler {
      type: "xavier"
    }
    bias_filler {
      type: "constant"
      value: 0
    }
  }
}
layer {
  name: "conv12_1_relu"
  type: "ReLU"
  bottom: "conv12_1"
  top: "conv12_1"
}
layer {
  name: "conv12_2"
  type: "Convolution"
  bottom: "conv12_1"
  top: "conv12_2"
  param {
    lr_mult: 1
    decay_mult: 1
  }
  param {
    lr_mult: 2
    decay_mult: 0
  }
  convolution_param {
    num_output: 256
    pad: 1
    kernel_size: 4
    stride: 1
    weight_filler {
      type: "xavier"
    }
    bias_filler {
      type: "constant"
      value: 0
    }
  }
}
layer {
  name: "conv12_2_relu"
  type: "ReLU"
  bottom: "conv12_2"
  top: "conv12_2"
}
layer {
  name: "conv4_3_norm"
  type: "Normalize"
  bottom: "conv4_3"
  top: "conv4_3_norm"
  norm_param {
    across_spatial: false
    scale_filler {
      type: "constant"
      value: 20
    }
    channel_shared: false
  }
}
layer {
  name: "conv4_3_norm_mbox_loc"
  type: "Convolution"
  bottom: "conv4_3_norm"
  top: "conv4_3_norm_mbox_loc"
  param {
    lr_mult: 1
    decay_mult: 1
  }
  param {
    lr_mult: 2
    decay_mult: 0
  }
  convolution_param {
    num_output: 16
    pad: 1
    kernel_size: 3
    stride: 1
    weight_filler {
      type: "xavier"
    }
    bias_filler {
      type: "constant"
      value: 0
    }
  }
}
layer {
  name: "conv4_3_norm_mbox_loc_perm"
  type: "Permute"
  bottom: "conv4_3_norm_mbox_loc"
  top: "conv4_3_norm_mbox_loc_perm"
  permute_param {
    order: 0
    order: 2
    order: 3
    order: 1
  }
}
layer {
  name: "conv4_3_norm_mbox_loc_flat"
  type: "Flatten"
  bottom: "conv4_3_norm_mbox_loc_perm"
  top: "conv4_3_norm_mbox_loc_flat"
  flatten_param {
    axis: 1
  }
}
layer {
  name: "conv4_3_norm_mbox_conf"
  type: "Convolution"
  bottom: "conv4_3_norm"
  top: "conv4_3_norm_mbox_conf"
  param {
    lr_mult: 1
    decay_mult: 1
  }
  param {
    lr_mult: 2
    decay_mult: 0
  }
  convolution_param {
    num_output: 12
    pad: 1
    kernel_size: 3
    stride: 1
    weight_filler {
      type: "xavier"
    }
    bias_filler {
      type: "constant"
      value: 0
    }
  }
}
layer {
  name: "conv4_3_norm_mbox_conf_perm"
  type: "Permute"
  bottom: "conv4_3_norm_mbox_conf"
  top: "conv4_3_norm_mbox_conf_perm"
  permute_param {
    order: 0
    order: 2
    order: 3
    order: 1
  }
}
layer {
  name: "conv4_3_norm_mbox_conf_flat"
  type: "Flatten"
  bottom: "conv4_3_norm_mbox_conf_perm"
  top: "conv4_3_norm_mbox_conf_flat"
  flatten_param {
    axis: 1
  }
}
layer {
  name: "conv4_3_norm_mbox_priorbox"
  type: "PriorBox"
  bottom: "conv4_3_norm"
  bottom: "data"
  top: "conv4_3_norm_mbox_priorbox"
  prior_box_param {
    min_size: 35.84
    max_size: 76.8
    aspect_ratio: 2
    flip: true
    clip: false
    variance: 0.1
    variance: 0.1
    variance: 0.2
    variance: 0.2
    step: 8
    offset: 0.5
  }
}
layer {
  name: "fc7_mbox_loc"
  type: "Convolution"
  bottom: "fc7"
  top: "fc7_mbox_loc"
  param {
    lr_mult: 1
    decay_mult: 1
  }
  param {
    lr_mult: 2
    decay_mult: 0
  }
  convolution_param {
    num_output: 24
    pad: 1
    kernel_size: 3
    stride: 1
    weight_filler {
      type: "xavier"
    }
    bias_filler {
      type: "constant"
      value: 0
    }
  }
}
layer {
  name: "fc7_mbox_loc_perm"
  type: "Permute"
  bottom: "fc7_mbox_loc"
  top: "fc7_mbox_loc_perm"
  permute_param {
    order: 0
    order: 2
    order: 3
    order: 1
  }
}
layer {
  name: "fc7_mbox_loc_flat"
  type: "Flatten"
  bottom: "fc7_mbox_loc_perm"
  top: "fc7_mbox_loc_flat"
  flatten_param {
    axis: 1
  }
}
layer {
  name: "fc7_mbox_conf"
  type: "Convolution"
  bottom: "fc7"
  top: "fc7_mbox_conf"
  param {
    lr_mult: 1
    decay_mult: 1
  }
  param {
    lr_mult: 2
    decay_mult: 0
  }
  convolution_param {
    num_output: 18
    pad: 1
    kernel_size: 3
    stride: 1
    weight_filler {
      type: "xavier"
    }
    bias_filler {
      type: "constant"
      value: 0
    }
  }
}
layer {
  name: "fc7_mbox_conf_perm"
  type: "Permute"
  bottom: "fc7_mbox_conf"
  top: "fc7_mbox_conf_perm"
  permute_param {
    order: 0
    order: 2
    order: 3
    order: 1
  }
}
layer {
  name: "fc7_mbox_conf_flat"
  type: "Flatten"
  bottom: "fc7_mbox_conf_perm"
  top: "fc7_mbox_conf_flat"
  flatten_param {
    axis: 1
  }
}
layer {
  name: "fc7_mbox_priorbox"
  type: "PriorBox"
  bottom: "fc7"
  bottom: "data"
  top: "fc7_mbox_priorbox"
  prior_box_param {
    min_size: 76.8
    max_size: 153.6
    aspect_ratio: 2
    aspect_ratio: 3
    flip: true
    clip: false
    variance: 0.1
    variance: 0.1
    variance: 0.2
    variance: 0.2
    step: 16
    offset: 0.5
  }
}
layer {
  name: "conv8_2_mbox_loc"
  type: "Convolution"
  bottom: "conv8_2"
  top: "conv8_2_mbox_loc"
  param {
    lr_mult: 1
    decay_mult: 1
  }
  param {
    lr_mult: 2
    decay_mult: 0
  }
  convolution_param {
    num_output: 24
    pad: 1
    kernel_size: 3
    stride: 1
    weight_filler {
      type: "xavier"
    }
    bias_filler {
      type: "constant"
      value: 0
    }
  }
}
layer {
  name: "conv8_2_mbox_loc_perm"
  type: "Permute"
  bottom: "conv8_2_mbox_loc"
  top: "conv8_2_mbox_loc_perm"
  permute_param {
    order: 0
    order: 2
    order: 3
    order: 1
  }
}
layer {
  name: "conv8_2_mbox_loc_flat"
  type: "Flatten"
  bottom: "conv8_2_mbox_loc_perm"
  top: "conv8_2_mbox_loc_flat"
  flatten_param {
    axis: 1
  }
}
layer {
  name: "conv8_2_mbox_conf"
  type: "Convolution"
  bottom: "conv8_2"
  top: "conv8_2_mbox_conf"
  param {
    lr_mult: 1
    decay_mult: 1
  }
  param {
    lr_mult: 2
    decay_mult: 0
  }
  convolution_param {
    num_output: 18
    pad: 1
    kernel_size: 3
    stride: 1
    weight_filler {
      type: "xavier"
    }
    bias_filler {
      type: "constant"
      value: 0
    }
  }
}
layer {
  name: "conv8_2_mbox_conf_perm"
  type: "Permute"
  bottom: "conv8_2_mbox_conf"
  top: "conv8_2_mbox_conf_perm"
  permute_param {
    order: 0
    order: 2
    order: 3
    order: 1
  }
}
layer {
  name: "conv8_2_mbox_conf_flat"
  type: "Flatten"
  bottom: "conv8_2_mbox_conf_perm"
  top: "conv8_2_mbox_conf_flat"
  flatten_param {
    axis: 1
  }
}
layer {
  name: "conv8_2_mbox_priorbox"
  type: "PriorBox"
  bottom: "conv8_2"
  bottom: "data"
  top: "conv8_2_mbox_priorbox"
  prior_box_param {
    min_size: 153.6
    max_size: 230.4
    aspect_ratio: 2
    aspect_ratio: 3
    flip: true
    clip: false
    variance: 0.1
    variance: 0.1
    variance: 0.2
    variance: 0.2
    step: 32
    offset: 0.5
  }
}
layer {
  name: "conv9_2_mbox_loc"
  type: "Convolution"
  bottom: "conv9_2"
  top: "conv9_2_mbox_loc"
  param {
    lr_mult: 1
    decay_mult: 1
  }
  param {
    lr_mult: 2
    decay_mult: 0
  }
  convolution_param {
    num_output: 24
    pad: 1
    kernel_size: 3
    stride: 1
    weight_filler {
      type: "xavier"
    }
    bias_filler {
      type: "constant"
      value: 0
    }
  }
}
layer {
  name: "conv9_2_mbox_loc_perm"
  type: "Permute"
  bottom: "conv9_2_mbox_loc"
  top: "conv9_2_mbox_loc_perm"
  permute_param {
    order: 0
    order: 2
    order: 3
    order: 1
  }
}
layer {
  name: "conv9_2_mbox_loc_flat"
  type: "Flatten"
  bottom: "conv9_2_mbox_loc_perm"
  top: "conv9_2_mbox_loc_flat"
  flatten_param {
    axis: 1
  }
}
layer {
  name: "conv9_2_mbox_conf"
  type: "Convolution"
  bottom: "conv9_2"
  top: "conv9_2_mbox_conf"
  param {
    lr_mult: 1
    decay_mult: 1
  }
  param {
    lr_mult: 2
    decay_mult: 0
  }
  convolution_param {
    num_output: 18
    pad: 1
    kernel_size: 3
    stride: 1
    weight_filler {
      type: "xavier"
    }
    bias_filler {
      type: "constant"
      value: 0
    }
  }
}
layer {
  name: "conv9_2_mbox_conf_perm"
  type: "Permute"
  bottom: "conv9_2_mbox_conf"
  top: "conv9_2_mbox_conf_perm"
  permute_param {
    order: 0
    order: 2
    order: 3
    order: 1
  }
}
layer {
  name: "conv9_2_mbox_conf_flat"
  type: "Flatten"
  bottom: "conv9_2_mbox_conf_perm"
  top: "conv9_2_mbox_conf_flat"
  flatten_param {
    axis: 1
  }
}
layer {
  name: "conv9_2_mbox_priorbox"
  type: "PriorBox"
  bottom: "conv9_2"
  bottom: "data"
  top: "conv9_2_mbox_priorbox"
  prior_box_param {
    min_size: 230.4
    max_size: 307.2
    aspect_ratio: 2
    aspect_ratio: 3
    flip: true
    clip: false
    variance: 0.1
    variance: 0.1
    variance: 0.2
    variance: 0.2
    step: 64
    offset: 0.5
  }
}
layer {
  name: "conv10_2_mbox_loc"
  type: "Convolution"
  bottom: "conv10_2"
  top: "conv10_2_mbox_loc"
  param {
    lr_mult: 1
    decay_mult: 1
  }
  param {
    lr_mult: 2
    decay_mult: 0
  }
  convolution_param {
    num_output: 24
    pad: 1
    kernel_size: 3
    stride: 1
    weight_filler {
      type: "xavier"
    }
    bias_filler {
      type: "constant"
      value: 0
    }
  }
}
layer {
  name: "conv10_2_mbox_loc_perm"
  type: "Permute"
  bottom: "conv10_2_mbox_loc"
  top: "conv10_2_mbox_loc_perm"
  permute_param {
    order: 0
    order: 2
    order: 3
    order: 1
  }
}
layer {
  name: "conv10_2_mbox_loc_flat"
  type: "Flatten"
  bottom: "conv10_2_mbox_loc_perm"
  top: "conv10_2_mbox_loc_flat"
  flatten_param {
    axis: 1
  }
}
layer {
  name: "conv10_2_mbox_conf"
  type: "Convolution"
  bottom: "conv10_2"
  top: "conv10_2_mbox_conf"
  param {
    lr_mult: 1
    decay_mult: 1
  }
  param {
    lr_mult: 2
    decay_mult: 0
  }
  convolution_param {
    num_output: 18
    pad: 1
    kernel_size: 3
    stride: 1
    weight_filler {
      type: "xavier"
    }
    bias_filler {
      type: "constant"
      value: 0
    }
  }
}
layer {
  name: "conv10_2_mbox_conf_perm"
  type: "Permute"
  bottom: "conv10_2_mbox_conf"
  top: "conv10_2_mbox_conf_perm"
  permute_param {
    order: 0
    order: 2
    order: 3
    order: 1
  }
}
layer {
  name: "conv10_2_mbox_conf_flat"
  type: "Flatten"
  bottom: "conv10_2_mbox_conf_perm"
  top: "conv10_2_mbox_conf_flat"
  flatten_param {
    axis: 1
  }
}
layer {
  name: "conv10_2_mbox_priorbox"
  type: "PriorBox"
  bottom: "conv10_2"
  bottom: "data"
  top: "conv10_2_mbox_priorbox"
  prior_box_param {
    min_size: 307.2
    max_size: 384
    aspect_ratio: 2
    aspect_ratio: 3
    flip: true
    clip: false
    variance: 0.1
    variance: 0.1
    variance: 0.2
    variance: 0.2
    step: 128
    offset: 0.5
  }
}
layer {
  name: "conv11_2_mbox_loc"
  type: "Convolution"
  bottom: "conv11_2"
  top: "conv11_2_mbox_loc"
  param {
    lr_mult: 1
    decay_mult: 1
  }
  param {
    lr_mult: 2
    decay_mult: 0
  }
  convolution_param {
    num_output: 16
    pad: 1
    kernel_size: 3
    stride: 1
    weight_filler {
      type: "xavier"
    }
    bias_filler {
      type: "constant"
      value: 0
    }
  }
}
layer {
  name: "conv11_2_mbox_loc_perm"
  type: "Permute"
  bottom: "conv11_2_mbox_loc"
  top: "conv11_2_mbox_loc_perm"
  permute_param {
    order: 0
    order: 2
    order: 3
    order: 1
  }
}
layer {
  name: "conv11_2_mbox_loc_flat"
  type: "Flatten"
  bottom: "conv11_2_mbox_loc_perm"
  top: "conv11_2_mbox_loc_flat"
  flatten_param {
    axis: 1
  }
}
layer {
  name: "conv11_2_mbox_conf"
  type: "Convolution"
  bottom: "conv11_2"
  top: "conv11_2_mbox_conf"
  param {
    lr_mult: 1
    decay_mult: 1
  }
  param {
    lr_mult: 2
    decay_mult: 0
  }
  convolution_param {
    num_output: 12
    pad: 1
    kernel_size: 3
    stride: 1
    weight_filler {
      type: "xavier"
    }
    bias_filler {
      type: "constant"
      value: 0
    }
  }
}
layer {
  name: "conv11_2_mbox_conf_perm"
  type: "Permute"
  bottom: "conv11_2_mbox_conf"
  top: "conv11_2_mbox_conf_perm"
  permute_param {
    order: 0
    order: 2
    order: 3
    order: 1
  }
}
layer {
  name: "conv11_2_mbox_conf_flat"
  type: "Flatten"
  bottom: "conv11_2_mbox_conf_perm"
  top: "conv11_2_mbox_conf_flat"
  flatten_param {
    axis: 1
  }
}
layer {
  name: "conv11_2_mbox_priorbox"
  type: "PriorBox"
  bottom: "conv11_2"
  bottom: "data"
  top: "conv11_2_mbox_priorbox"
  prior_box_param {
    min_size: 384
    max_size: 460.8
    aspect_ratio: 2
    flip: true
    clip: false
    variance: 0.1
    variance: 0.1
    variance: 0.2
    variance: 0.2
    step: 256
    offset: 0.5
  }
}
layer {
  name: "conv12_2_mbox_loc"
  type: "Convolution"
  bottom: "conv12_2"
  top: "conv12_2_mbox_loc"
  param {
    lr_mult: 1
    decay_mult: 1
  }
  param {
    lr_mult: 2
    decay_mult: 0
  }
  convolution_param {
    num_output: 16
    pad: 1
    kernel_size: 3
    stride: 1
    weight_filler {
      type: "xavier"
    }
    bias_filler {
      type: "constant"
      value: 0
    }
  }
}
layer {
  name: "conv12_2_mbox_loc_perm"
  type: "Permute"
  bottom: "conv12_2_mbox_loc"
  top: "conv12_2_mbox_loc_perm"
  permute_param {
    order: 0
    order: 2
    order: 3
    order: 1
  }
}
layer {
  name: "conv12_2_mbox_loc_flat"
  type: "Flatten"
  bottom: "conv12_2_mbox_loc_perm"
  top: "conv12_2_mbox_loc_flat"
  flatten_param {
    axis: 1
  }
}
layer {
  name: "conv12_2_mbox_conf"
  type: "Convolution"
  bottom: "conv12_2"
  top: "conv12_2_mbox_conf"
  param {
    lr_mult: 1
    decay_mult: 1
  }
  param {
    lr_mult: 2
    decay_mult: 0
  }
  convolution_param {
    num_output: 12
    pad: 1
    kernel_size: 3
    stride: 1
    weight_filler {
      type: "xavier"
    }
    bias_filler {
      type: "constant"
      value: 0
    }
  }
}
layer {
  name: "conv12_2_mbox_conf_perm"
  type: "Permute"
  bottom: "conv12_2_mbox_conf"
  top: "conv12_2_mbox_conf_perm"
  permute_param {
    order: 0
    order: 2
    order: 3
    order: 1
  }
}
layer {
  name: "conv12_2_mbox_conf_flat"
  type: "Flatten"
  bottom: "conv12_2_mbox_conf_perm"
  top: "conv12_2_mbox_conf_flat"
  flatten_param {
    axis: 1
  }
}
layer {
  name: "conv12_2_mbox_priorbox"
  type: "PriorBox"
  bottom: "conv12_2"
  bottom: "data"
  top: "conv12_2_mbox_priorbox"
  prior_box_param {
    min_size: 460.8
    max_size: 537.6
    aspect_ratio: 2
    flip: true
    clip: false
    variance: 0.1
    variance: 0.1
    variance: 0.2
    variance: 0.2
    step: 512
    offset: 0.5
  }
}
layer {
  name: "mbox_loc"
  type: "Concat"
  bottom: "conv4_3_norm_mbox_loc_flat"
  bottom: "fc7_mbox_loc_flat"
  bottom: "conv8_2_mbox_loc_flat"
  bottom: "conv9_2_mbox_loc_flat"
  bottom: "conv10_2_mbox_loc_flat"
  bottom: "conv11_2_mbox_loc_flat"
  bottom: "conv12_2_mbox_loc_flat"
  top: "mbox_loc"
  concat_param {
    axis: 1
  }
}
layer {
  name: "mbox_conf"
  type: "Concat"
  bottom: "conv4_3_norm_mbox_conf_flat"
  bottom: "fc7_mbox_conf_flat"
  bottom: "conv8_2_mbox_conf_flat"
  bottom: "conv9_2_mbox_conf_flat"
  bottom: "conv10_2_mbox_conf_flat"
  bottom: "conv11_2_mbox_conf_flat"
  bottom: "conv12_2_mbox_conf_flat"
  top: "mbox_conf"
  concat_param {
    axis: 1
  }
}
layer {
  name: "mbox_priorbox"
  type: "Concat"
  bottom: "conv4_3_norm_mbox_priorbox"
  bottom: "fc7_mbox_priorbox"
  bottom: "conv8_2_mbox_priorbox"
  bottom: "conv9_2_mbox_priorbox"
  bottom: "conv10_2_mbox_priorbox"
  bottom: "conv11_2_mbox_priorbox"
  bottom: "conv12_2_mbox_priorbox"
  top: "mbox_priorbox"
  concat_param {
    axis: 2
  }
}
layer {
  name: "mbox_loss"
  type: "MultiBoxLoss"
  bottom: "mbox_loc"
  bottom: "mbox_conf"
  bottom: "mbox_priorbox"
  bottom: "label"
  top: "mbox_loss"
  include {
    phase: TRAIN
  }
  propagate_down: true
  propagate_down: true
  propagate_down: false
  propagate_down: false
  loss_param {
    normalization: VALID
  }
  multibox_loss_param {
    loc_loss_type: SMOOTH_L1
    conf_loss_type: SOFTMAX
    loc_weight: 1
    num_classes: 3
    share_location: true
    match_type: PER_PREDICTION
    overlap_threshold: 0.5
    use_prior_for_matching: true
    background_label_id: 0
    use_d
I0820 09:14:23.469610  1992 layer_factory.hpp:77] Creating layer data
I0820 09:14:23.469610  1992 common.cpp:36] System entropy source not available, using fallback algorithm to generate seed instead.
I0820 09:14:23.469610  1992 net.cpp:100] Creating Layer data
I0820 09:14:23.469610  1992 net.cpp:408] data -> data
I0820 09:14:23.469610  1992 net.cpp:408] data -> label
I0820 09:14:23.470594 17560 common.cpp:36] System entropy source not available, using fallback algorithm to generate seed instead.
I0820 09:14:23.470594 17560 db_lmdb.cpp:40] Opened lmdb examples\wastedata\wastedata_trainval_lmdb
I0820 09:14:23.482563  1992 annotated_data_layer.cpp:62] output data size: 4,3,512,512
I0820 09:14:23.503506  1992 net.cpp:150] Setting up data
I0820 09:14:23.503506  1992 net.cpp:157] Top shape: 4 3 512 512 (3145728)
I0820 09:14:23.503506  1992 net.cpp:157] Top shape: 1 1 1 8 (8)
I0820 09:14:23.503506  1992 net.cpp:165] Memory required for data: 12582944
I0820 09:14:23.503506  1992 layer_factory.hpp:77] Creating layer data_data_0_split
I0820 09:14:23.503506  1992 net.cpp:100] Creating Layer data_data_0_split
I0820 09:14:23.503506  1992 net.cpp:434] data_data_0_split <- data
I0820 09:14:23.503506  1992 net.cpp:408] data_data_0_split -> data_data_0_split_0
I0820 09:14:23.503506  1992 net.cpp:408] data_data_0_split -> data_data_0_split_1
I0820 09:14:23.503506  1992 net.cpp:408] data_data_0_split -> data_data_0_split_2
I0820 09:14:23.503506  1992 net.cpp:408] data_data_0_split -> data_data_0_split_3
I0820 09:14:23.503506  1992 net.cpp:408] data_data_0_split -> data_data_0_split_4
I0820 09:14:23.503506  1992 net.cpp:408] data_data_0_split -> data_data_0_split_5
I0820 09:14:23.503506  1992 net.cpp:408] data_data_0_split -> data_data_0_split_6
I0820 09:14:23.503506  1992 net.cpp:408] data_data_0_split -> data_data_0_split_7
I0820 09:14:23.503506  1992 net.cpp:150] Setting up data_data_0_split
I0820 09:14:23.503506  1992 net.cpp:157] Top shape: 4 3 512 512 (3145728)
I0820 09:14:23.503506  1992 net.cpp:157] Top shape: 4 3 512 512 (3145728)
I0820 09:14:23.503506  1992 net.cpp:157] Top shape: 4 3 512 512 (3145728)
I0820 09:14:23.503506  1992 net.cpp:157] Top shape: 4 3 512 512 (3145728)
I0820 09:14:23.503506  1992 net.cpp:157] Top shape: 4 3 512 512 (3145728)
I0820 09:14:23.503506  1992 net.cpp:157] Top shape: 4 3 512 512 (3145728)
I0820 09:14:23.503506  1992 net.cpp:157] Top shape: 4 3 512 512 (3145728)
I0820 09:14:23.503506  1992 net.cpp:157] Top shape: 4 3 512 512 (3145728)
I0820 09:14:23.503506  1992 net.cpp:165] Memory required for data: 113246240
I0820 09:14:23.503506  1992 layer_factory.hpp:77] Creating layer conv1_1
I0820 09:14:23.503506  1992 net.cpp:100] Creating Layer conv1_1
I0820 09:14:23.503506  1992 net.cpp:434] conv1_1 <- data_data_0_split_0
I0820 09:14:23.503506  1992 net.cpp:408] conv1_1 -> conv1_1
I0820 09:14:23.504503 10140 common.cpp:36] System entropy source not available, using fallback algorithm to generate seed instead.
I0820 09:14:24.425041  1992 net.cpp:150] Setting up conv1_1
I0820 09:14:24.425041  1992 net.cpp:157] Top shape: 4 64 512 512 (67108864)
I0820 09:14:24.425041  1992 net.cpp:165] Memory required for data: 381681696
I0820 09:14:24.425041  1992 layer_factory.hpp:77] Creating layer relu1_1
I0820 09:14:24.425041  1992 net.cpp:100] Creating Layer relu1_1
I0820 09:14:24.425041  1992 net.cpp:434] relu1_1 <- conv1_1
I0820 09:14:24.425041  1992 net.cpp:395] relu1_1 -> conv1_1 (in-place)
I0820 09:14:24.425041  1992 net.cpp:150] Setting up relu1_1
I0820 09:14:24.425041  1992 net.cpp:157] Top shape: 4 64 512 512 (67108864)
I0820 09:14:24.425041  1992 net.cpp:165] Memory required for data: 650117152
I0820 09:14:24.425041  1992 layer_factory.hpp:77] Creating layer conv1_2
I0820 09:14:24.425041  1992 net.cpp:100] Creating Layer conv1_2
I0820 09:14:24.425041  1992 net.cpp:434] conv1_2 <- conv1_1
I0820 09:14:24.425041  1992 net.cpp:408] conv1_2 -> conv1_2
I0820 09:14:24.429030  1992 net.cpp:150] Setting up conv1_2
I0820 09:14:24.429030  1992 net.cpp:157] Top shape: 4 64 512 512 (67108864)
I0820 09:14:24.429030  1992 net.cpp:165] Memory required for data: 918552608
I0820 09:14:24.429030  1992 layer_factory.hpp:77] Creating layer relu1_2
I0820 09:14:24.429030  1992 net.cpp:100] Creating Layer relu1_2
I0820 09:14:24.429030  1992 net.cpp:434] relu1_2 <- conv1_2
I0820 09:14:24.429030  1992 net.cpp:395] relu1_2 -> conv1_2 (in-place)
I0820 09:14:24.429030  1992 net.cpp:150] Setting up relu1_2
I0820 09:14:24.429030  1992 net.cpp:157] Top shape: 4 64 512 512 (67108864)
I0820 09:14:24.429030  1992 net.cpp:165] Memory required for data: 1186988064
I0820 09:14:24.429030  1992 layer_factory.hpp:77] Creating layer pool1
I0820 09:14:24.429030  1992 net.cpp:100] Creating Layer pool1
I0820 09:14:24.429030  1992 net.cpp:434] pool1 <- conv1_2
I0820 09:14:24.429030  1992 net.cpp:408] pool1 -> pool1
I0820 09:14:24.429030  1992 net.cpp:150] Setting up pool1
I0820 09:14:24.429030  1992 net.cpp:157] Top shape: 4 64 256 256 (16777216)
I0820 09:14:24.429030  1992 net.cpp:165] Memory required for data: 1254096928
I0820 09:14:24.429030  1992 layer_factory.hpp:77] Creating layer conv2_1
I0820 09:14:24.429030  1992 net.cpp:100] Creating Layer conv2_1
I0820 09:14:24.429030  1992 net.cpp:434] conv2_1 <- pool1
I0820 09:14:24.429030  1992 net.cpp:408] conv2_1 -> conv2_1
I0820 09:14:24.432022  1992 net.cpp:150] Setting up conv2_1
I0820 09:14:24.432022  1992 net.cpp:157] Top shape: 4 128 256 256 (33554432)
I0820 09:14:24.432022  1992 net.cpp:165] Memory required for data: 1388314656
I0820 09:14:24.432022  1992 layer_factory.hpp:77] Creating layer relu2_1
I0820 09:14:24.432022  1992 net.cpp:100] Creating Layer relu2_1
I0820 09:14:24.432022  1992 net.cpp:434] relu2_1 <- conv2_1
I0820 09:14:24.433020  1992 net.cpp:395] relu2_1 -> conv2_1 (in-place)
I0820 09:14:24.433020  1992 net.cpp:150] Setting up relu2_1
I0820 09:14:24.433020  1992 net.cpp:157] Top shape: 4 128 256 256 (33554432)
I0820 09:14:24.433020  1992 net.cpp:165] Memory required for data: 1522532384
I0820 09:14:24.433020  1992 layer_factory.hpp:77] Creating layer conv2_2
I0820 09:14:24.433020  1992 net.cpp:100] Creating Layer conv2_2
I0820 09:14:24.433020  1992 net.cpp:434] conv2_2 <- conv2_1
I0820 09:14:24.433020  1992 net.cpp:408] conv2_2 -> conv2_2
I0820 09:14:24.437009  1992 net.cpp:150] Setting up conv2_2
I0820 09:14:24.437009  1992 net.cpp:157] Top shape: 4 128 256 256 (33554432)
I0820 09:14:24.437009  1992 net.cpp:165] Memory required for data: 1656750112
I0820 09:14:24.437009  1992 layer_factory.hpp:77] Creating layer relu2_2
I0820 09:14:24.437009  1992 net.cpp:100] Creating Layer relu2_2
I0820 09:14:24.437009  1992 net.cpp:434] relu2_2 <- conv2_2
I0820 09:14:24.437009  1992 net.cpp:395] relu2_2 -> conv2_2 (in-place)
I0820 09:14:24.437009  1992 net.cpp:150] Setting up relu2_2
I0820 09:14:24.437009  1992 net.cpp:157] Top shape: 4 128 256 256 (33554432)
I0820 09:14:24.438006  1992 net.cpp:165] Memory required for data: 1790967840
I0820 09:14:24.438006  1992 layer_factory.hpp:77] Creating layer pool2
I0820 09:14:24.438006  1992 net.cpp:100] Creating Layer pool2
I0820 09:14:24.438006  1992 net.cpp:434] pool2 <- conv2_2
I0820 09:14:24.438006  1992 net.cpp:408] pool2 -> pool2
I0820 09:14:24.438006  1992 net.cpp:150] Setting up pool2
I0820 09:14:24.438006  1992 net.cpp:157] Top shape: 4 128 128 128 (8388608)
I0820 09:14:24.438006  1992 net.cpp:165] Memory required for data: 1824522272
I0820 09:14:24.438006  1992 layer_factory.hpp:77] Creating layer conv3_1
I0820 09:14:24.438006  1992 net.cpp:100] Creating Layer conv3_1
I0820 09:14:24.438006  1992 net.cpp:434] conv3_1 <- pool2
I0820 09:14:24.438006  1992 net.cpp:408] conv3_1 -> conv3_1
I0820 09:14:24.441995  1992 net.cpp:150] Setting up conv3_1
I0820 09:14:24.441995  1992 net.cpp:157] Top shape: 4 256 128 128 (16777216)
I0820 09:14:24.441995  1992 net.cpp:165] Memory required for data: 1891631136
I0820 09:14:24.441995  1992 layer_factory.hpp:77] Creating layer relu3_1
I0820 09:14:24.441995  1992 net.cpp:100] Creating Layer relu3_1
I0820 09:14:24.441995  1992 net.cpp:434] relu3_1 <- conv3_1
I0820 09:14:24.441995  1992 net.cpp:395] relu3_1 -> conv3_1 (in-place)
I0820 09:14:24.443990  1992 net.cpp:150] Setting up relu3_1
I0820 09:14:24.443990  1992 net.cpp:157] Top shape: 4 256 128 128 (16777216)
I0820 09:14:24.443990  1992 net.cpp:165] Memory required for data: 1958740000
I0820 09:14:24.443990  1992 layer_factory.hpp:77] Creating layer conv3_2
I0820 09:14:24.443990  1992 net.cpp:100] Creating Layer conv3_2
I0820 09:14:24.443990  1992 net.cpp:434] conv3_2 <- conv3_1
I0820 09:14:24.443990  1992 net.cpp:408] conv3_2 -> conv3_2
I0820 09:14:24.449975  1992 net.cpp:150] Setting up conv3_2
I0820 09:14:24.449975  1992 net.cpp:157] Top shape: 4 256 128 128 (16777216)
I0820 09:14:24.449975  1992 net.cpp:165] Memory required for data: 2025848864
I0820 09:14:24.449975  1992 layer_factory.hpp:77] Creating layer relu3_2
I0820 09:14:24.449975  1992 net.cpp:100] Creating Layer relu3_2
I0820 09:14:24.449975  1992 net.cpp:434] relu3_2 <- conv3_2
I0820 09:14:24.449975  1992 net.cpp:395] relu3_2 -> conv3_2 (in-place)
I0820 09:14:24.450971  1992 net.cpp:150] Setting up relu3_2
I0820 09:14:24.450971  1992 net.cpp:157] Top shape: 4 256 128 128 (16777216)
I0820 09:14:24.450971  1992 net.cpp:165] Memory required for data: 2092957728
I0820 09:14:24.450971  1992 layer_factory.hpp:77] Creating layer conv3_3
I0820 09:14:24.450971  1992 net.cpp:100] Creating Layer conv3_3
I0820 09:14:24.450971  1992 net.cpp:434] conv3_3 <- conv3_2
I0820 09:14:24.450971  1992 net.cpp:408] conv3_3 -> conv3_3
I0820 09:14:24.457953  1992 net.cpp:150] Setting up conv3_3
I0820 09:14:24.457953  1992 net.cpp:157] Top shape: 4 256 128 128 (16777216)
I0820 09:14:24.457953  1992 net.cpp:165] Memory required for data: 2160066592
I0820 09:14:24.457953  1992 layer_factory.hpp:77] Creating layer relu3_3
I0820 09:14:24.457953  1992 net.cpp:100] Creating Layer relu3_3
I0820 09:14:24.457953  1992 net.cpp:434] relu3_3 <- conv3_3
I0820 09:14:24.457953  1992 net.cpp:395] relu3_3 -> conv3_3 (in-place)
I0820 09:14:24.458950  1992 net.cpp:150] Setting up relu3_3
I0820 09:14:24.458950  1992 net.cpp:157] Top shape: 4 256 128 128 (16777216)
I0820 09:14:24.458950  1992 net.cpp:165] Memory required for data: 2227175456
I0820 09:14:24.458950  1992 layer_factory.hpp:77] Creating layer pool3
I0820 09:14:24.458950  1992 net.cpp:100] Creating Layer pool3
I0820 09:14:24.458950  1992 net.cpp:434] pool3 <- conv3_3
I0820 09:14:24.458950  1992 net.cpp:408] pool3 -> pool3
I0820 09:14:24.458950  1992 net.cpp:150] Setting up pool3
I0820 09:14:24.458950  1992 net.cpp:157] Top shape: 4 256 64 64 (4194304)
I0820 09:14:24.458950  1992 net.cpp:165] Memory required for data: 2243952672
I0820 09:14:24.458950  1992 layer_factory.hpp:77] Creating layer conv4_1
I0820 09:14:24.458950  1992 net.cpp:100] Creating Layer conv4_1
I0820 09:14:24.458950  1992 net.cpp:434] conv4_1 <- pool3
I0820 09:14:24.458950  1992 net.cpp:408] conv4_1 -> conv4_1
I0820 09:14:24.468924  1992 net.cpp:150] Setting up conv4_1
I0820 09:14:24.468924  1992 net.cpp:157] Top shape: 4 512 64 64 (8388608)
I0820 09:14:24.468924  1992 net.cpp:165] Memory required for data: 2277507104
I0820 09:14:24.469921  1992 layer_factory.hpp:77] Creating layer relu4_1
I0820 09:14:24.469921  1992 net.cpp:100] Creating Layer relu4_1
I0820 09:14:24.469921  1992 net.cpp:434] relu4_1 <- conv4_1
I0820 09:14:24.469921  1992 net.cpp:395] relu4_1 -> conv4_1 (in-place)
I0820 09:14:24.469921  1992 net.cpp:150] Setting up relu4_1
I0820 09:14:24.469921  1992 net.cpp:157] Top shape: 4 512 64 64 (8388608)
I0820 09:14:24.469921  1992 net.cpp:165] Memory required for data: 2311061536
I0820 09:14:24.469921  1992 layer_factory.hpp:77] Creating layer conv4_2
I0820 09:14:24.469921  1992 net.cpp:100] Creating Layer conv4_2
I0820 09:14:24.469921  1992 net.cpp:434] conv4_2 <- conv4_1
I0820 09:14:24.470918  1992 net.cpp:408] conv4_2 -> conv4_2
I0820 09:14:24.486876  1992 net.cpp:150] Setting up conv4_2
I0820 09:14:24.486876  1992 net.cpp:157] Top shape: 4 512 64 64 (8388608)
I0820 09:14:24.486876  1992 net.cpp:165] Memory required for data: 2344615968
I0820 09:14:24.486876  1992 layer_factory.hpp:77] Creating layer relu4_2
I0820 09:14:24.486876  1992 net.cpp:100] Creating Layer relu4_2
I0820 09:14:24.486876  1992 net.cpp:434] relu4_2 <- conv4_2
I0820 09:14:24.486876  1992 net.cpp:395] relu4_2 -> conv4_2 (in-place)
I0820 09:14:24.487874  1992 net.cpp:150] Setting up relu4_2
I0820 09:14:24.487874  1992 net.cpp:157] Top shape: 4 512 64 64 (8388608)
I0820 09:14:24.487874  1992 net.cpp:165] Memory required for data: 2378170400
I0820 09:14:24.487874  1992 layer_factory.hpp:77] Creating layer conv4_3
I0820 09:14:24.487874  1992 net.cpp:100] Creating Layer conv4_3
I0820 09:14:24.487874  1992 net.cpp:434] conv4_3 <- conv4_2
I0820 09:14:24.487874  1992 net.cpp:408] conv4_3 -> conv4_3
I0820 09:14:24.504828  1992 net.cpp:150] Setting up conv4_3
I0820 09:14:24.504828  1992 net.cpp:157] Top shape: 4 512 64 64 (8388608)
I0820 09:14:24.504828  1992 net.cpp:165] Memory required for data: 2411724832
I0820 09:14:24.504828  1992 layer_factory.hpp:77] Creating layer relu4_3
I0820 09:14:24.504828  1992 net.cpp:100] Creating Layer relu4_3
I0820 09:14:24.504828  1992 net.cpp:434] relu4_3 <- conv4_3
I0820 09:14:24.504828  1992 net.cpp:395] relu4_3 -> conv4_3 (in-place)
I0820 09:14:24.505825  1992 net.cpp:150] Setting up relu4_3
I0820 09:14:24.505825  1992 net.cpp:157] Top shape: 4 512 64 64 (8388608)
I0820 09:14:24.505825  1992 net.cpp:165] Memory required for data: 2445279264
I0820 09:14:24.505825  1992 layer_factory.hpp:77] Creating layer conv4_3_relu4_3_0_split
I0820 09:14:24.505825  1992 net.cpp:100] Creating Layer conv4_3_relu4_3_0_split
I0820 09:14:24.505825  1992 net.cpp:434] conv4_3_relu4_3_0_split <- conv4_3
I0820 09:14:24.505825  1992 net.cpp:408] conv4_3_relu4_3_0_split -> conv4_3_relu4_3_0_split_0
I0820 09:14:24.505825  1992 net.cpp:408] conv4_3_relu4_3_0_split -> conv4_3_relu4_3_0_split_1
I0820 09:14:24.505825  1992 net.cpp:150] Setting up conv4_3_relu4_3_0_split
I0820 09:14:24.505825  1992 net.cpp:157] Top shape: 4 512 64 64 (8388608)
I0820 09:14:24.505825  1992 net.cpp:157] Top shape: 4 512 64 64 (8388608)
I0820 09:14:24.505825  1992 net.cpp:165] Memory required for data: 2512388128
I0820 09:14:24.505825  1992 layer_factory.hpp:77] Creating layer pool4
I0820 09:14:24.506824  1992 net.cpp:100] Creating Layer pool4
I0820 09:14:24.506824  1992 net.cpp:434] pool4 <- conv4_3_relu4_3_0_split_0
I0820 09:14:24.506824  1992 net.cpp:408] pool4 -> pool4
I0820 09:14:24.506824  1992 net.cpp:150] Setting up pool4
I0820 09:14:24.506824  1992 net.cpp:157] Top shape: 4 512 32 32 (2097152)
I0820 09:14:24.506824  1992 net.cpp:165] Memory required for data: 2520776736
I0820 09:14:24.506824  1992 layer_factory.hpp:77] Creating layer conv5_1
I0820 09:14:24.506824  1992 net.cpp:100] Creating Layer conv5_1
I0820 09:14:24.506824  1992 net.cpp:434] conv5_1 <- pool4
I0820 09:14:24.506824  1992 net.cpp:408] conv5_1 -> conv5_1
I0820 09:14:24.523777  1992 net.cpp:150] Setting up conv5_1
I0820 09:14:24.523777  1992 net.cpp:157] Top shape: 4 512 32 32 (2097152)
I0820 09:14:24.523777  1992 net.cpp:165] Memory required for data: 2529165344
I0820 09:14:24.523777  1992 layer_factory.hpp:77] Creating layer relu5_1
I0820 09:14:24.523777  1992 net.cpp:100] Creating Layer relu5_1
I0820 09:14:24.523777  1992 net.cpp:434] relu5_1 <- conv5_1
I0820 09:14:24.523777  1992 net.cpp:395] relu5_1 -> conv5_1 (in-place)
I0820 09:14:24.523777  1992 net.cpp:150] Setting up relu5_1
I0820 09:14:24.524775  1992 net.cpp:157] Top shape: 4 512 32 32 (2097152)
I0820 09:14:24.524775  1992 net.cpp:165] Memory required for data: 2537553952
I0820 09:14:24.524775  1992 layer_factory.hpp:77] Creating layer conv5_2
I0820 09:14:24.524775  1992 net.cpp:100] Creating Layer conv5_2
I0820 09:14:24.524775  1992 net.cpp:434] conv5_2 <- conv5_1
I0820 09:14:24.524775  1992 net.cpp:408] conv5_2 -> conv5_2
I0820 09:14:24.540732  1992 net.cpp:150] Setting up conv5_2
I0820 09:14:24.540732  1992 net.cpp:157] Top shape: 4 512 32 32 (2097152)
I0820 09:14:24.540732  1992 net.cpp:165] Memory required for data: 2545942560
I0820 09:14:24.540732  1992 layer_factory.hpp:77] Creating layer relu5_2
I0820 09:14:24.540732  1992 net.cpp:100] Creating Layer relu5_2
I0820 09:14:24.540732  1992 net.cpp:434] relu5_2 <- conv5_2
I0820 09:14:24.540732  1992 net.cpp:395] relu5_2 -> conv5_2 (in-place)
I0820 09:14:24.541729  1992 net.cpp:150] Setting up relu5_2
I0820 09:14:24.541729  1992 net.cpp:157] Top shape: 4 512 32 32 (2097152)
I0820 09:14:24.541729  1992 net.cpp:165] Memory required for data: 2554331168
I0820 09:14:24.541729  1992 layer_factory.hpp:77] Creating layer conv5_3
I0820 09:14:24.541729  1992 net.cpp:100] Creating Layer conv5_3
I0820 09:14:24.541729  1992 net.cpp:434] conv5_3 <- conv5_2
I0820 09:14:24.541729  1992 net.cpp:408] conv5_3 -> conv5_3
I0820 09:14:24.558684  1992 net.cpp:150] Setting up conv5_3
I0820 09:14:24.558684  1992 net.cpp:157] Top shape: 4 512 32 32 (2097152)
I0820 09:14:24.558684  1992 net.cpp:165] Memory required for data: 2562719776
I0820 09:14:24.558684  1992 layer_factory.hpp:77] Creating layer relu5_3
I0820 09:14:24.558684  1992 net.cpp:100] Creating Layer relu5_3
I0820 09:14:24.558684  1992 net.cpp:434] relu5_3 <- conv5_3
I0820 09:14:24.558684  1992 net.cpp:395] relu5_3 -> conv5_3 (in-place)
I0820 09:14:24.559681  1992 net.cpp:150] Setting up relu5_3
I0820 09:14:24.559681  1992 net.cpp:157] Top shape: 4 512 32 32 (2097152)
I0820 09:14:24.559681  1992 net.cpp:165] Memory required for data: 2571108384
I0820 09:14:24.559681  1992 layer_factory.hpp:77] Creating layer pool5
I0820 09:14:24.559681  1992 net.cpp:100] Creating Layer pool5
I0820 09:14:24.559681  1992 net.cpp:434] pool5 <- conv5_3
I0820 09:14:24.559681  1992 net.cpp:408] pool5 -> pool5
I0820 09:14:24.559681  1992 net.cpp:150] Setting up pool5
I0820 09:14:24.559681  1992 net.cpp:157] Top shape: 4 512 32 32 (2097152)
I0820 09:14:24.559681  1992 net.cpp:165] Memory required for data: 2579496992
I0820 09:14:24.559681  1992 layer_factory.hpp:77] Creating layer fc6
I0820 09:14:24.559681  1992 net.cpp:100] Creating Layer fc6
I0820 09:14:24.559681  1992 net.cpp:434] fc6 <- pool5
I0820 09:14:24.559681  1992 net.cpp:408] fc6 -> fc6
I0820 09:14:24.586609  1992 net.cpp:150] Setting up fc6
I0820 09:14:24.586609  1992 net.cpp:157] Top shape: 4 1024 32 32 (4194304)
I0820 09:14:24.586609  1992 net.cpp:165] Memory required for data: 2596274208
I0820 09:14:24.586609  1992 layer_factory.hpp:77] Creating layer relu6
I0820 09:14:24.586609  1992 net.cpp:100] Creating Layer relu6
I0820 09:14:24.586609  1992 net.cpp:434] relu6 <- fc6
I0820 09:14:24.586609  1992 net.cpp:395] relu6 -> fc6 (in-place)
I0820 09:14:24.588604  1992 net.cpp:150] Setting up relu6
I0820 09:14:24.588604  1992 net.cpp:157] Top shape: 4 1024 32 32 (4194304)
I0820 09:14:24.588604  1992 net.cpp:165] Memory required for data: 2613051424
I0820 09:14:24.588604  1992 layer_factory.hpp:77] Creating layer fc7
I0820 09:14:24.588604  1992 net.cpp:100] Creating Layer fc7
I0820 09:14:24.588604  1992 net.cpp:434] fc7 <- fc6
I0820 09:14:24.588604  1992 net.cpp:408] fc7 -> fc7
I0820 09:14:24.596583  1992 net.cpp:150] Setting up fc7
I0820 09:14:24.596583  1992 net.cpp:157] Top shape: 4 1024 32 32 (4194304)
I0820 09:14:24.596583  1992 net.cpp:165] Memory required for data: 2629828640
I0820 09:14:24.596583  1992 layer_factory.hpp:77] Creating layer relu7
I0820 09:14:24.596583  1992 net.cpp:100] Creating Layer relu7
I0820 09:14:24.596583  1992 net.cpp:434] relu7 <- fc7
I0820 09:14:24.596583  1992 net.cpp:395] relu7 -> fc7 (in-place)
I0820 09:14:24.597580  1992 net.cpp:150] Setting up relu7
I0820 09:14:24.597580  1992 net.cpp:157] Top shape: 4 1024 32 32 (4194304)
I0820 09:14:24.597580  1992 net.cpp:165] Memory required for data: 2646605856
I0820 09:14:24.597580  1992 layer_factory.hpp:77] Creating layer fc7_relu7_0_split
I0820 09:14:24.597580  1992 net.cpp:100] Creating Layer fc7_relu7_0_split
I0820 09:14:24.597580  1992 net.cpp:434] fc7_relu7_0_split <- fc7
I0820 09:14:24.597580  1992 net.cpp:408] fc7_relu7_0_split -> fc7_relu7_0_split_0
I0820 09:14:24.597580  1992 net.cpp:408] fc7_relu7_0_split -> fc7_relu7_0_split_1
I0820 09:14:24.597580  1992 net.cpp:408] fc7_relu7_0_split -> fc7_relu7_0_split_2
I0820 09:14:24.597580  1992 net.cpp:408] fc7_relu7_0_split -> fc7_relu7_0_split_3
I0820 09:14:24.597580  1992 net.cpp:150] Setting up fc7_relu7_0_split
I0820 09:14:24.597580  1992 net.cpp:157] Top shape: 4 1024 32 32 (4194304)
I0820 09:14:24.597580  1992 net.cpp:157] Top shape: 4 1024 32 32 (4194304)
I0820 09:14:24.597580  1992 net.cpp:157] Top shape: 4 1024 32 32 (4194304)
I0820 09:14:24.597580  1992 net.cpp:157] Top shape: 4 1024 32 32 (4194304)
I0820 09:14:24.597580  1992 net.cpp:165] Memory required for data: 2713714720
I0820 09:14:24.597580  1992 layer_factory.hpp:77] Creating layer conv8_1
I0820 09:14:24.597580  1992 net.cpp:100] Creating Layer conv8_1
I0820 09:14:24.597580  1992 net.cpp:434] conv8_1 <- fc7_relu7_0_split_0
I0820 09:14:24.597580  1992 net.cpp:408] conv8_1 -> conv8_1
I0820 09:14:24.602567  1992 net.cpp:150] Setting up conv8_1
I0820 09:14:24.602567  1992 net.cpp:157] Top shape: 4 256 32 32 (1048576)
I0820 09:14:24.602567  1992 net.cpp:165] Memory required for data: 2717909024
I0820 09:14:24.602567  1992 layer_factory.hpp:77] Creating layer conv8_1_relu
I0820 09:14:24.602567  1992 net.cpp:100] Creating Layer conv8_1_relu
I0820 09:14:24.602567  1992 net.cpp:434] conv8_1_relu <- conv8_1
I0820 09:14:24.602567  1992 net.cpp:395] conv8_1_relu -> conv8_1 (in-place)
I0820 09:14:24.603564  1992 net.cpp:150] Setting up conv8_1_relu
I0820 09:14:24.603564  1992 net.cpp:157] Top shape: 4 256 32 32 (1048576)
I0820 09:14:24.603564  1992 net.cpp:165] Memory required for data: 2722103328
I0820 09:14:24.603564  1992 layer_factory.hpp:77] Creating layer conv8_2
I0820 09:14:24.603564  1992 net.cpp:100] Creating Layer conv8_2
I0820 09:14:24.603564  1992 net.cpp:434] conv8_2 <- conv8_1
I0820 09:14:24.603564  1992 net.cpp:408] conv8_2 -> conv8_2
I0820 09:14:24.613538  1992 net.cpp:150] Setting up conv8_2
I0820 09:14:24.613538  1992 net.cpp:157] Top shape: 4 512 16 16 (524288)
I0820 09:14:24.613538  1992 net.cpp:165] Memory required for data: 2724200480
I0820 09:14:24.613538  1992 layer_factory.hpp:77] Creating layer conv8_2_relu
I0820 09:14:24.613538  1992 net.cpp:100] Creating Layer conv8_2_relu
I0820 09:14:24.613538  1992 net.cpp:434] conv8_2_relu <- conv8_2
I0820 09:14:24.613538  1992 net.cpp:395] conv8_2_relu -> conv8_2 (in-place)
I0820 09:14:24.614535  1992 net.cpp:150] Setting up conv8_2_relu
I0820 09:14:24.614535  1992 net.cpp:157] Top shape: 4 512 16 16 (524288)
I0820 09:14:24.614535  1992 net.cpp:165] Memory required for data: 2726297632
I0820 09:14:24.614535  1992 layer_factory.hpp:77] Creating layer conv8_2_conv8_2_relu_0_split
I0820 09:14:24.614535  1992 net.cpp:100] Creating Layer conv8_2_conv8_2_relu_0_split
I0820 09:14:24.614535  1992 net.cpp:434] conv8_2_conv8_2_relu_0_split <- conv8_2
I0820 09:14:24.614535  1992 net.cpp:408] conv8_2_conv8_2_relu_0_split -> conv8_2_conv8_2_relu_0_split_0
I0820 09:14:24.614535  1992 net.cpp:408] conv8_2_conv8_2_relu_0_split -> conv8_2_conv8_2_relu_0_split_1
I0820 09:14:24.614535  1992 net.cpp:408] conv8_2_conv8_2_relu_0_split -> conv8_2_conv8_2_relu_0_split_2
I0820 09:14:24.614535  1992 net.cpp:408] conv8_2_conv8_2_relu_0_split -> conv8_2_conv8_2_relu_0_split_3
I0820 09:14:24.614535  1992 net.cpp:150] Setting up conv8_2_conv8_2_relu_0_split
I0820 09:14:24.614535  1992 net.cpp:157] Top shape: 4 512 16 16 (524288)
I0820 09:14:24.614535  1992 net.cpp:157] Top shape: 4 512 16 16 (524288)
I0820 09:14:24.614535  1992 net.cpp:157] Top shape: 4 512 16 16 (524288)
I0820 09:14:24.614535  1992 net.cpp:157] Top shape: 4 512 16 16 (524288)
I0820 09:14:24.614535  1992 net.cpp:165] Memory required for data: 2734686240
I0820 09:14:24.614535  1992 layer_factory.hpp:77] Creating layer conv9_1
I0820 09:14:24.614535  1992 net.cpp:100] Creating Layer conv9_1
I0820 09:14:24.614535  1992 net.cpp:434] conv9_1 <- conv8_2_conv8_2_relu_0_split_0
I0820 09:14:24.614535  1992 net.cpp:408] conv9_1 -> conv9_1
I0820 09:14:24.616529  1992 net.cpp:150] Setting up conv9_1
I0820 09:14:24.616529  1992 net.cpp:157] Top shape: 4 128 16 16 (131072)
I0820 09:14:24.616529  1992 net.cpp:165] Memory required for data: 2735210528
I0820 09:14:24.616529  1992 layer_factory.hpp:77] Creating layer conv9_1_relu
I0820 09:14:24.616529  1992 net.cpp:100] Creating Layer conv9_1_relu
I0820 09:14:24.616529  1992 net.cpp:434] conv9_1_relu <- conv9_1
I0820 09:14:24.616529  1992 net.cpp:395] conv9_1_relu -> conv9_1 (in-place)
I0820 09:14:24.617527  1992 net.cpp:150] Setting up conv9_1_relu
I0820 09:14:24.617527  1992 net.cpp:157] Top shape: 4 128 16 16 (131072)
I0820 09:14:24.617527  1992 net.cpp:165] Memory required for data: 2735734816
I0820 09:14:24.617527  1992 layer_factory.hpp:77] Creating layer conv9_2
I0820 09:14:24.617527  1992 net.cpp:100] Creating Layer conv9_2
I0820 09:14:24.617527  1992 net.cpp:434] conv9_2 <- conv9_1
I0820 09:14:24.617527  1992 net.cpp:408] conv9_2 -> conv9_2
I0820 09:14:24.622514  1992 net.cpp:150] Setting up conv9_2
I0820 09:14:24.622514  1992 net.cpp:157] Top shape: 4 256 8 8 (65536)
I0820 09:14:24.622514  1992 net.cpp:165] Memory required for data: 2735996960
I0820 09:14:24.622514  1992 layer_factory.hpp:77] Creating layer conv9_2_relu
I0820 09:14:24.622514  1992 net.cpp:100] Creating Layer conv9_2_relu
I0820 09:14:24.622514  1992 net.cpp:434] conv9_2_relu <- conv9_2
I0820 09:14:24.622514  1992 net.cpp:395] conv9_2_relu -> conv9_2 (in-place)
I0820 09:14:24.623510  1992 net.cpp:150] Setting up conv9_2_relu
I0820 09:14:24.623510  1992 net.cpp:157] Top shape: 4 256 8 8 (65536)
I0820 09:14:24.623510  1992 net.cpp:165] Memory required for data: 2736259104
I0820 09:14:24.623510  1992 layer_factory.hpp:77] Creating layer conv9_2_conv9_2_relu_0_split
I0820 09:14:24.623510  1992 net.cpp:100] Creating Layer conv9_2_conv9_2_relu_0_split
I0820 09:14:24.623510  1992 net.cpp:434] conv9_2_conv9_2_relu_0_split <- conv9_2
I0820 09:14:24.623510  1992 net.cpp:408] conv9_2_conv9_2_relu_0_split -> conv9_2_conv9_2_relu_0_split_0
I0820 09:14:24.623510  1992 net.cpp:408] conv9_2_conv9_2_relu_0_split -> conv9_2_conv9_2_relu_0_split_1
I0820 09:14:24.623510  1992 net.cpp:408] conv9_2_conv9_2_relu_0_split -> conv9_2_conv9_2_relu_0_split_2
I0820 09:14:24.623510  1992 net.cpp:408] conv9_2_conv9_2_relu_0_split -> conv9_2_conv9_2_relu_0_split_3
I0820 09:14:24.623510  1992 net.cpp:150] Setting up conv9_2_conv9_2_relu_0_split
I0820 09:14:24.623510  1992 net.cpp:157] Top shape: 4 256 8 8 (65536)
I0820 09:14:24.623510  1992 net.cpp:157] Top shape: 4 256 8 8 (65536)
I0820 09:14:24.623510  1992 net.cpp:157] Top shape: 4 256 8 8 (65536)
I0820 09:14:24.623510  1992 net.cpp:157] Top shape: 4 256 8 8 (65536)
I0820 09:14:24.623510  1992 net.cpp:165] Memory required for data: 2737307680
I0820 09:14:24.623510  1992 layer_factory.hpp:77] Creating layer conv10_1
I0820 09:14:24.623510  1992 net.cpp:100] Creating Layer conv10_1
I0820 09:14:24.623510  1992 net.cpp:434] conv10_1 <- conv9_2_conv9_2_relu_0_split_0
I0820 09:14:24.623510  1992 net.cpp:408] conv10_1 -> conv10_1
I0820 09:14:24.625506  1992 net.cpp:150] Setting up conv10_1
I0820 09:14:24.625506  1992 net.cpp:157] Top shape: 4 128 8 8 (32768)
I0820 09:14:24.625506  1992 net.cpp:165] Memory required for data: 2737438752
I0820 09:14:24.625506  1992 layer_factory.hpp:77] Creating layer conv10_1_relu
I0820 09:14:24.625506  1992 net.cpp:100] Creating Layer conv10_1_relu
I0820 09:14:24.625506  1992 net.cpp:434] conv10_1_relu <- conv10_1
I0820 09:14:24.625506  1992 net.cpp:395] conv10_1_relu -> conv10_1 (in-place)
I0820 09:14:24.626503  1992 net.cpp:150] Setting up conv10_1_relu
I0820 09:14:24.626503  1992 net.cpp:157] Top shape: 4 128 8 8 (32768)
I0820 09:14:24.626503  1992 net.cpp:165] Memory required for data: 2737569824
I0820 09:14:24.626503  1992 layer_factory.hpp:77] Creating layer conv10_2
I0820 09:14:24.626503  1992 net.cpp:100] Creating Layer conv10_2
I0820 09:14:24.626503  1992 net.cpp:434] conv10_2 <- conv10_1
I0820 09:14:24.626503  1992 net.cpp:408] conv10_2 -> conv10_2
I0820 09:14:24.631489  1992 net.cpp:150] Setting up conv10_2
I0820 09:14:24.631489  1992 net.cpp:157] Top shape: 4 256 4 4 (16384)
I0820 09:14:24.631489  1992 net.cpp:165] Memory required for data: 2737635360
I0820 09:14:24.631489  1992 layer_factory.hpp:77] Creating layer conv10_2_relu
I0820 09:14:24.631489  1992 net.cpp:100] Creating Layer conv10_2_relu
I0820 09:14:24.631489  1992 net.cpp:434] conv10_2_relu <- conv10_2
I0820 09:14:24.631489  1992 net.cpp:395] conv10_2_relu -> conv10_2 (in-place)
I0820 09:14:24.632488  1992 net.cpp:150] Setting up conv10_2_relu
I0820 09:14:24.632488  1992 net.cpp:157] Top shape: 4 256 4 4 (16384)
I0820 09:14:24.632488  1992 net.cpp:165] Memory required for data: 2737700896
I0820 09:14:24.632488  1992 layer_factory.hpp:77] Creating layer conv10_2_conv10_2_relu_0_split
I0820 09:14:24.632488  1992 net.cpp:100] Creating Layer conv10_2_conv10_2_relu_0_split
I0820 09:14:24.632488  1992 net.cpp:434] conv10_2_conv10_2_relu_0_split <- conv10_2
I0820 09:14:24.632488  1992 net.cpp:408] conv10_2_conv10_2_relu_0_split -> conv10_2_conv10_2_relu_0_split_0
I0820 09:14:24.632488  1992 net.cpp:408] conv10_2_conv10_2_relu_0_split -> conv10_2_conv10_2_relu_0_split_1
I0820 09:14:24.632488  1992 net.cpp:408] conv10_2_conv10_2_relu_0_split -> conv10_2_conv10_2_relu_0_split_2
I0820 09:14:24.632488  1992 net.cpp:408] conv10_2_conv10_2_relu_0_split -> conv10_2_conv10_2_relu_0_split_3
I0820 09:14:24.632488  1992 net.cpp:150] Setting up conv10_2_conv10_2_relu_0_split
I0820 09:14:24.632488  1992 net.cpp:157] Top shape: 4 256 4 4 (16384)
I0820 09:14:24.632488  1992 net.cpp:157] Top shape: 4 256 4 4 (16384)
I0820 09:14:24.632488  1992 net.cpp:157] Top shape: 4 256 4 4 (16384)
I0820 09:14:24.632488  1992 net.cpp:157] Top shape: 4 256 4 4 (16384)
I0820 09:14:24.632488  1992 net.cpp:165] Memory required for data: 2737963040
I0820 09:14:24.632488  1992 layer_factory.hpp:77] Creating layer conv11_1
I0820 09:14:24.632488  1992 net.cpp:100] Creating Layer conv11_1
I0820 09:14:24.632488  1992 net.cpp:434] conv11_1 <- conv10_2_conv10_2_relu_0_split_0
I0820 09:14:24.632488  1992 net.cpp:408] conv11_1 -> conv11_1
I0820 09:14:24.634481  1992 net.cpp:150] Setting up conv11_1
I0820 09:14:24.634481  1992 net.cpp:157] Top shape: 4 128 4 4 (8192)
I0820 09:14:24.634481  1992 net.cpp:165] Memory required for data: 2737995808
I0820 09:14:24.634481  1992 layer_factory.hpp:77] Creating layer conv11_1_relu
I0820 09:14:24.634481  1992 net.cpp:100] Creating Layer conv11_1_relu
I0820 09:14:24.634481  1992 net.cpp:434] conv11_1_relu <- conv11_1
I0820 09:14:24.634481  1992 net.cpp:395] conv11_1_relu -> conv11_1 (in-place)
I0820 09:14:24.635479  1992 net.cpp:150] Setting up conv11_1_relu
I0820 09:14:24.635479  1992 net.cpp:157] Top shape: 4 128 4 4 (8192)
I0820 09:14:24.635479  1992 net.cpp:165] Memory required for data: 2738028576
I0820 09:14:24.635479  1992 layer_factory.hpp:77] Creating layer conv11_2
I0820 09:14:24.635479  1992 net.cpp:100] Creating Layer conv11_2
I0820 09:14:24.635479  1992 net.cpp:434] conv11_2 <- conv11_1
I0820 09:14:24.635479  1992 net.cpp:408] conv11_2 -> conv11_2
I0820 09:14:24.640466  1992 net.cpp:150] Setting up conv11_2
I0820 09:14:24.640466  1992 net.cpp:157] Top shape: 4 256 2 2 (4096)
I0820 09:14:24.640466  1992 net.cpp:165] Memory required for data: 2738044960
I0820 09:14:24.640466  1992 layer_factory.hpp:77] Creating layer conv11_2_relu
I0820 09:14:24.640466  1992 net.cpp:100] Creating Layer conv11_2_relu
I0820 09:14:24.640466  1992 net.cpp:434] conv11_2_relu <- conv11_2
I0820 09:14:24.640466  1992 net.cpp:395] conv11_2_relu -> conv11_2 (in-place)
I0820 09:14:24.640466  1992 net.cpp:150] Setting up conv11_2_relu
I0820 09:14:24.640466  1992 net.cpp:157] Top shape: 4 256 2 2 (4096)
I0820 09:14:24.640466  1992 net.cpp:165] Memory required for data: 2738061344
I0820 09:14:24.640466  1992 layer_factory.hpp:77] Creating layer conv11_2_conv11_2_relu_0_split
I0820 09:14:24.640466  1992 net.cpp:100] Creating Layer conv11_2_conv11_2_relu_0_split
I0820 09:14:24.640466  1992 net.cpp:434] conv11_2_conv11_2_relu_0_split <- conv11_2
I0820 09:14:24.640466  1992 net.cpp:408] conv11_2_conv11_2_relu_0_split -> conv11_2_conv11_2_relu_0_split_0
I0820 09:14:24.641463  1992 net.cpp:408] conv11_2_conv11_2_relu_0_split -> conv11_2_conv11_2_relu_0_split_1
I0820 09:14:24.641463  1992 net.cpp:408] conv11_2_conv11_2_relu_0_split -> conv11_2_conv11_2_relu_0_split_2
I0820 09:14:24.641463  1992 net.cpp:408] conv11_2_conv11_2_relu_0_split -> conv11_2_conv11_2_relu_0_split_3
I0820 09:14:24.641463  1992 net.cpp:150] Setting up conv11_2_conv11_2_relu_0_split
I0820 09:14:24.641463  1992 net.cpp:157] Top shape: 4 256 2 2 (4096)
I0820 09:14:24.641463  1992 net.cpp:157] Top shape: 4 256 2 2 (4096)
I0820 09:14:24.641463  1992 net.cpp:157] Top shape: 4 256 2 2 (4096)
I0820 09:14:24.641463  1992 net.cpp:157] Top shape: 4 256 2 2 (4096)
I0820 09:14:24.641463  1992 net.cpp:165] Memory required for data: 2738126880
I0820 09:14:24.641463  1992 layer_factory.hpp:77] Creating layer conv12_1
I0820 09:14:24.641463  1992 net.cpp:100] Creating Layer conv12_1
I0820 09:14:24.641463  1992 net.cpp:434] conv12_1 <- conv11_2_conv11_2_relu_0_split_0
I0820 09:14:24.641463  1992 net.cpp:408] conv12_1 -> conv12_1
I0820 09:14:24.643458  1992 net.cpp:150] Setting up conv12_1
I0820 09:14:24.643458  1992 net.cpp:157] Top shape: 4 128 2 2 (2048)
I0820 09:14:24.643458  1992 net.cpp:165] Memory required for data: 2738135072
I0820 09:14:24.643458  1992 layer_factory.hpp:77] Creating layer conv12_1_relu
I0820 09:14:24.643458  1992 net.cpp:100] Creating Layer conv12_1_relu
I0820 09:14:24.643458  1992 net.cpp:434] conv12_1_relu <- conv12_1
I0820 09:14:24.643458  1992 net.cpp:395] conv12_1_relu -> conv12_1 (in-place)
I0820 09:14:24.644461  1992 net.cpp:150] Setting up conv12_1_relu
I0820 09:14:24.644461  1992 net.cpp:157] Top shape: 4 128 2 2 (2048)
I0820 09:14:24.644461  1992 net.cpp:165] Memory required for data: 2738143264
I0820 09:14:24.644461  1992 layer_factory.hpp:77] Creating layer conv12_2
I0820 09:14:24.644461  1992 net.cpp:100] Creating Layer conv12_2
I0820 09:14:24.644461  1992 net.cpp:434] conv12_2 <- conv12_1
I0820 09:14:24.644461  1992 net.cpp:408] conv12_2 -> conv12_2
I0820 09:14:24.649442  1992 net.cpp:150] Setting up conv12_2
I0820 09:14:24.650442  1992 net.cpp:157] Top shape: 4 256 1 1 (1024)
I0820 09:14:24.650442  1992 net.cpp:165] Memory required for data: 2738147360
I0820 09:14:24.650442  1992 layer_factory.hpp:77] Creating layer conv12_2_relu
I0820 09:14:24.650442  1992 net.cpp:100] Creating Layer conv12_2_relu
I0820 09:14:24.650442  1992 net.cpp:434] conv12_2_relu <- conv12_2
I0820 09:14:24.650442  1992 net.cpp:395] conv12_2_relu -> conv12_2 (in-place)
I0820 09:14:24.651437  1992 net.cpp:150] Setting up conv12_2_relu
I0820 09:14:24.651437  1992 net.cpp:157] Top shape: 4 256 1 1 (1024)
I0820 09:14:24.651437  1992 net.cpp:165] Memory required for data: 2738151456
I0820 09:14:24.651437  1992 layer_factory.hpp:77] Creating layer conv12_2_conv12_2_relu_0_split
I0820 09:14:24.651437  1992 net.cpp:100] Creating Layer conv12_2_conv12_2_relu_0_split
I0820 09:14:24.651437  1992 net.cpp:434] conv12_2_conv12_2_relu_0_split <- conv12_2
I0820 09:14:24.651437  1992 net.cpp:408] conv12_2_conv12_2_relu_0_split -> conv12_2_conv12_2_relu_0_split_0
I0820 09:14:24.651437  1992 net.cpp:408] conv12_2_conv12_2_relu_0_split -> conv12_2_conv12_2_relu_0_split_1
I0820 09:14:24.651437  1992 net.cpp:408] conv12_2_conv12_2_relu_0_split -> conv12_2_conv12_2_relu_0_split_2
I0820 09:14:24.651437  1992 net.cpp:150] Setting up conv12_2_conv12_2_relu_0_split
I0820 09:14:24.651437  1992 net.cpp:157] Top shape: 4 256 1 1 (1024)
I0820 09:14:24.651437  1992 net.cpp:157] Top shape: 4 256 1 1 (1024)
I0820 09:14:24.651437  1992 net.cpp:157] Top shape: 4 256 1 1 (1024)
I0820 09:14:24.651437  1992 net.cpp:165] Memory required for data: 2738163744
I0820 09:14:24.651437  1992 layer_factory.hpp:77] Creating layer conv4_3_norm
I0820 09:14:24.651437  1992 net.cpp:100] Creating Layer conv4_3_norm
I0820 09:14:24.651437  1992 net.cpp:434] conv4_3_norm <- conv4_3_relu4_3_0_split_1
I0820 09:14:24.651437  1992 net.cpp:408] conv4_3_norm -> conv4_3_norm
I0820 09:14:24.651437  1992 net.cpp:150] Setting up conv4_3_norm
I0820 09:14:24.651437  1992 net.cpp:157] Top shape: 4 512 64 64 (8388608)
I0820 09:14:24.651437  1992 net.cpp:165] Memory required for data: 2771718176
I0820 09:14:24.651437  1992 layer_factory.hpp:77] Creating layer conv4_3_norm_conv4_3_norm_0_split
I0820 09:14:24.651437  1992 net.cpp:100] Creating Layer conv4_3_norm_conv4_3_norm_0_split
I0820 09:14:24.651437  1992 net.cpp:434] conv4_3_norm_conv4_3_norm_0_split <- conv4_3_norm
I0820 09:14:24.651437  1992 net.cpp:408] conv4_3_norm_conv4_3_norm_0_split -> conv4_3_norm_conv4_3_norm_0_split_0
I0820 09:14:24.651437  1992 net.cpp:408] conv4_3_norm_conv4_3_norm_0_split -> conv4_3_norm_conv4_3_norm_0_split_1
I0820 09:14:24.651437  1992 net.cpp:408] conv4_3_norm_conv4_3_norm_0_split -> conv4_3_norm_conv4_3_norm_0_split_2
I0820 09:14:24.651437  1992 net.cpp:150] Setting up conv4_3_norm_conv4_3_norm_0_split
I0820 09:14:24.651437  1992 net.cpp:157] Top shape: 4 512 64 64 (8388608)
I0820 09:14:24.651437  1992 net.cpp:157] Top shape: 4 512 64 64 (8388608)
I0820 09:14:24.651437  1992 net.cpp:157] Top shape: 4 512 64 64 (8388608)
I0820 09:14:24.651437  1992 net.cpp:165] Memory required for data: 2872381472
I0820 09:14:24.651437  1992 layer_factory.hpp:77] Creating layer conv4_3_norm_mbox_loc
I0820 09:14:24.651437  1992 net.cpp:100] Creating Layer conv4_3_norm_mbox_loc
I0820 09:14:24.651437  1992 net.cpp:434] conv4_3_norm_mbox_loc <- conv4_3_norm_conv4_3_norm_0_split_0
I0820 09:14:24.651437  1992 net.cpp:408] conv4_3_norm_mbox_loc -> conv4_3_norm_mbox_loc
I0820 09:14:24.655426  1992 net.cpp:150] Setting up conv4_3_norm_mbox_loc
I0820 09:14:24.655426  1992 net.cpp:157] Top shape: 4 16 64 64 (262144)
I0820 09:14:24.655426  1992 net.cpp:165] Memory required for data: 2873430048
I0820 09:14:24.655426  1992 layer_factory.hpp:77] Creating layer conv4_3_norm_mbox_loc_perm
I0820 09:14:24.655426  1992 net.cpp:100] Creating Layer conv4_3_norm_mbox_loc_perm
I0820 09:14:24.655426  1992 net.cpp:434] conv4_3_norm_mbox_loc_perm <- conv4_3_norm_mbox_loc
I0820 09:14:24.655426  1992 net.cpp:408] conv4_3_norm_mbox_loc_perm -> conv4_3_norm_mbox_loc_perm
I0820 09:14:24.655426  1992 net.cpp:150] Setting up conv4_3_norm_mbox_loc_perm
I0820 09:14:24.655426  1992 net.cpp:157] Top shape: 4 64 64 16 (262144)
I0820 09:14:24.655426  1992 net.cpp:165] Memory required for data: 2874478624
I0820 09:14:24.655426  1992 layer_factory.hpp:77] Creating layer conv4_3_norm_mbox_loc_flat
I0820 09:14:24.655426  1992 net.cpp:100] Creating Layer conv4_3_norm_mbox_loc_flat
I0820 09:14:24.655426  1992 net.cpp:434] conv4_3_norm_mbox_loc_flat <- conv4_3_norm_mbox_loc_perm
I0820 09:14:24.655426  1992 net.cpp:408] conv4_3_norm_mbox_loc_flat -> conv4_3_norm_mbox_loc_flat
I0820 09:14:24.655426  1992 net.cpp:150] Setting up conv4_3_norm_mbox_loc_flat
I0820 09:14:24.655426  1992 net.cpp:157] Top shape: 4 65536 (262144)
I0820 09:14:24.655426  1992 net.cpp:165] Memory required for data: 2875527200
I0820 09:14:24.655426  1992 layer_factory.hpp:77] Creating layer conv4_3_norm_mbox_conf
I0820 09:14:24.655426  1992 net.cpp:100] Creating Layer conv4_3_norm_mbox_conf
I0820 09:14:24.655426  1992 net.cpp:434] conv4_3_norm_mbox_conf <- conv4_3_norm_conv4_3_norm_0_split_1
I0820 09:14:24.655426  1992 net.cpp:408] conv4_3_norm_mbox_conf -> conv4_3_norm_mbox_conf
I0820 09:14:24.658418  1992 net.cpp:150] Setting up conv4_3_norm_mbox_conf
I0820 09:14:24.658418  1992 net.cpp:157] Top shape: 4 12 64 64 (196608)
I0820 09:14:24.658418  1992 net.cpp:165] Memory required for data: 2876313632
I0820 09:14:24.658418  1992 layer_factory.hpp:77] Creating layer conv4_3_norm_mbox_conf_perm
I0820 09:14:24.658418  1992 net.cpp:100] Creating Layer conv4_3_norm_mbox_conf_perm
I0820 09:14:24.658418  1992 net.cpp:434] conv4_3_norm_mbox_conf_perm <- conv4_3_norm_mbox_conf
I0820 09:14:24.658418  1992 net.cpp:408] conv4_3_norm_mbox_conf_perm -> conv4_3_norm_mbox_conf_perm
I0820 09:14:24.658418  1992 net.cpp:150] Setting up conv4_3_norm_mbox_conf_perm
I0820 09:14:24.658418  1992 net.cpp:157] Top shape: 4 64 64 12 (196608)
I0820 09:14:24.658418  1992 net.cpp:165] Memory required for data: 2877100064
I0820 09:14:24.658418  1992 layer_factory.hpp:77] Creating layer conv4_3_norm_mbox_conf_flat
I0820 09:14:24.658418  1992 net.cpp:100] Creating Layer conv4_3_norm_mbox_conf_flat
I0820 09:14:24.658418  1992 net.cpp:434] conv4_3_norm_mbox_conf_flat <- conv4_3_norm_mbox_conf_perm
I0820 09:14:24.658418  1992 net.cpp:408] conv4_3_norm_mbox_conf_flat -> conv4_3_norm_mbox_conf_flat
I0820 09:14:24.658418  1992 net.cpp:150] Setting up conv4_3_norm_mbox_conf_flat
I0820 09:14:24.658418  1992 net.cpp:157] Top shape: 4 49152 (196608)
I0820 09:14:24.658418  1992 net.cpp:165] Memory required for data: 2877886496
I0820 09:14:24.658418  1992 layer_factory.hpp:77] Creating layer conv4_3_norm_mbox_priorbox
I0820 09:14:24.658418  1992 net.cpp:100] Creating Layer conv4_3_norm_mbox_priorbox
I0820 09:14:24.658418  1992 net.cpp:434] conv4_3_norm_mbox_priorbox <- conv4_3_norm_conv4_3_norm_0_split_2
I0820 09:14:24.658418  1992 net.cpp:434] conv4_3_norm_mbox_priorbox <- data_data_0_split_1
I0820 09:14:24.658418  1992 net.cpp:408] conv4_3_norm_mbox_priorbox -> conv4_3_norm_mbox_priorbox
I0820 09:14:24.658418  1992 net.cpp:150] Setting up conv4_3_norm_mbox_priorbox
I0820 09:14:24.658418  1992 net.cpp:157] Top shape: 1 2 65536 (131072)
I0820 09:14:24.658418  1992 net.cpp:165] Memory required for data: 2878410784
I0820 09:14:24.658418  1992 layer_factory.hpp:77] Creating layer fc7_mbox_loc
I0820 09:14:24.658418  1992 net.cpp:100] Creating Layer fc7_mbox_loc
I0820 09:14:24.658418  1992 net.cpp:434] fc7_mbox_loc <- fc7_relu7_0_split_1
I0820 09:14:24.658418  1992 net.cpp:408] fc7_mbox_loc -> fc7_mbox_loc
I0820 09:14:24.662407  1992 net.cpp:150] Setting up fc7_mbox_loc
I0820 09:14:24.662407  1992 net.cpp:157] Top shape: 4 24 32 32 (98304)
I0820 09:14:24.662407  1992 net.cpp:165] Memory required for data: 2878804000
I0820 09:14:24.662407  1992 layer_factory.hpp:77] Creating layer fc7_mbox_loc_perm
I0820 09:14:24.663408  1992 net.cpp:100] Creating Layer fc7_mbox_loc_perm
I0820 09:14:24.663408  1992 net.cpp:434] fc7_mbox_loc_perm <- fc7_mbox_loc
I0820 09:14:24.663408  1992 net.cpp:408] fc7_mbox_loc_perm -> fc7_mbox_loc_perm
I0820 09:14:24.663408  1992 net.cpp:150] Setting up fc7_mbox_loc_perm
I0820 09:14:24.663408  1992 net.cpp:157] Top shape: 4 32 32 24 (98304)
I0820 09:14:24.663408  1992 net.cpp:165] Memory required for data: 2879197216
I0820 09:14:24.663408  1992 layer_factory.hpp:77] Creating layer fc7_mbox_loc_flat
I0820 09:14:24.663408  1992 net.cpp:100] Creating Layer fc7_mbox_loc_flat
I0820 09:14:24.663408  1992 net.cpp:434] fc7_mbox_loc_flat <- fc7_mbox_loc_perm
I0820 09:14:24.663408  1992 net.cpp:408] fc7_mbox_loc_flat -> fc7_mbox_loc_flat
I0820 09:14:24.663408  1992 net.cpp:150] Setting up fc7_mbox_loc_flat
I0820 09:14:24.663408  1992 net.cpp:157] Top shape: 4 24576 (98304)
I0820 09:14:24.663408  1992 net.cpp:165] Memory required for data: 2879590432
I0820 09:14:24.663408  1992 layer_factory.hpp:77] Creating layer fc7_mbox_conf
I0820 09:14:24.663408  1992 net.cpp:100] Creating Layer fc7_mbox_conf
I0820 09:14:24.663408  1992 net.cpp:434] fc7_mbox_conf <- fc7_relu7_0_split_2
I0820 09:14:24.663408  1992 net.cpp:408] fc7_mbox_conf -> fc7_mbox_conf
I0820 09:14:24.666396  1992 net.cpp:150] Setting up fc7_mbox_conf
I0820 09:14:24.666396  1992 net.cpp:157] Top shape: 4 18 32 32 (73728)
I0820 09:14:24.666396  1992 net.cpp:165] Memory required for data: 2879885344
I0820 09:14:24.666396  1992 layer_factory.hpp:77] Creating layer fc7_mbox_conf_perm
I0820 09:14:24.667393  1992 net.cpp:100] Creating Layer fc7_mbox_conf_perm
I0820 09:14:24.667393  1992 net.cpp:434] fc7_mbox_conf_perm <- fc7_mbox_conf
I0820 09:14:24.667393  1992 net.cpp:408] fc7_mbox_conf_perm -> fc7_mbox_conf_perm
I0820 09:14:24.667393  1992 net.cpp:150] Setting up fc7_mbox_conf_perm
I0820 09:14:24.667393  1992 net.cpp:157] Top shape: 4 32 32 18 (73728)
I0820 09:14:24.667393  1992 net.cpp:165] Memory required for data: 2880180256
I0820 09:14:24.667393  1992 layer_factory.hpp:77] Creating layer fc7_mbox_conf_flat
I0820 09:14:24.667393  1992 net.cpp:100] Creating Layer fc7_mbox_conf_flat
I0820 09:14:24.667393  1992 net.cpp:434] fc7_mbox_conf_flat <- fc7_mbox_conf_perm
I0820 09:14:24.667393  1992 net.cpp:408] fc7_mbox_conf_flat -> fc7_mbox_conf_flat
I0820 09:14:24.667393  1992 net.cpp:150] Setting up fc7_mbox_conf_flat
I0820 09:14:24.667393  1992 net.cpp:157] Top shape: 4 18432 (73728)
I0820 09:14:24.667393  1992 net.cpp:165] Memory required for data: 2880475168
I0820 09:14:24.667393  1992 layer_factory.hpp:77] Creating layer fc7_mbox_priorbox
I0820 09:14:24.667393  1992 net.cpp:100] Creating Layer fc7_mbox_priorbox
I0820 09:14:24.667393  1992 net.cpp:434] fc7_mbox_priorbox <- fc7_relu7_0_split_3
I0820 09:14:24.667393  1992 net.cpp:434] fc7_mbox_priorbox <- data_data_0_split_2
I0820 09:14:24.667393  1992 net.cpp:408] fc7_mbox_priorbox -> fc7_mbox_priorbox
I0820 09:14:24.667393  1992 net.cpp:150] Setting up fc7_mbox_priorbox
I0820 09:14:24.667393  1992 net.cpp:157] Top shape: 1 2 24576 (49152)
I0820 09:14:24.667393  1992 net.cpp:165] Memory required for data: 2880671776
I0820 09:14:24.667393  1992 layer_factory.hpp:77] Creating layer conv8_2_mbox_loc
I0820 09:14:24.667393  1992 net.cpp:100] Creating Layer conv8_2_mbox_loc
I0820 09:14:24.667393  1992 net.cpp:434] conv8_2_mbox_loc <- conv8_2_conv8_2_relu_0_split_1
I0820 09:14:24.667393  1992 net.cpp:408] conv8_2_mbox_loc -> conv8_2_mbox_loc
I0820 09:14:24.671383  1992 net.cpp:150] Setting up conv8_2_mbox_loc
I0820 09:14:24.671383  1992 net.cpp:157] Top shape: 4 24 16 16 (24576)
I0820 09:14:24.671383  1992 net.cpp:165] Memory required for data: 2880770080
I0820 09:14:24.671383  1992 layer_factory.hpp:77] Creating layer conv8_2_mbox_loc_perm
I0820 09:14:24.671383  1992 net.cpp:100] Creating Layer conv8_2_mbox_loc_perm
I0820 09:14:24.671383  1992 net.cpp:434] conv8_2_mbox_loc_perm <- conv8_2_mbox_loc
I0820 09:14:24.671383  1992 net.cpp:408] conv8_2_mbox_loc_perm -> conv8_2_mbox_loc_perm
I0820 09:14:24.671383  1992 net.cpp:150] Setting up conv8_2_mbox_loc_perm
I0820 09:14:24.671383  1992 net.cpp:157] Top shape: 4 16 16 24 (24576)
I0820 09:14:24.671383  1992 net.cpp:165] Memory required for data: 2880868384
I0820 09:14:24.671383  1992 layer_factory.hpp:77] Creating layer conv8_2_mbox_loc_flat
I0820 09:14:24.671383  1992 net.cpp:100] Creating Layer conv8_2_mbox_loc_flat
I0820 09:14:24.671383  1992 net.cpp:434] conv8_2_mbox_loc_flat <- conv8_2_mbox_loc_perm
I0820 09:14:24.671383  1992 net.cpp:408] conv8_2_mbox_loc_flat -> conv8_2_mbox_loc_flat
I0820 09:14:24.671383  1992 net.cpp:150] Setting up conv8_2_mbox_loc_flat
I0820 09:14:24.671383  1992 net.cpp:157] Top shape: 4 6144 (24576)
I0820 09:14:24.671383  1992 net.cpp:165] Memory required for data: 2880966688
I0820 09:14:24.671383  1992 layer_factory.hpp:77] Creating layer conv8_2_mbox_conf
I0820 09:14:24.671383  1992 net.cpp:100] Creating Layer conv8_2_mbox_conf
I0820 09:14:24.671383  1992 net.cpp:434] conv8_2_mbox_conf <- conv8_2_conv8_2_relu_0_split_2
I0820 09:14:24.671383  1992 net.cpp:408] conv8_2_mbox_conf -> conv8_2_mbox_conf
I0820 09:14:24.674376  1992 net.cpp:150] Setting up conv8_2_mbox_conf
I0820 09:14:24.674376  1992 net.cpp:157] Top shape: 4 18 16 16 (18432)
I0820 09:14:24.674376  1992 net.cpp:165] Memory required for data: 2881040416
I0820 09:14:24.674376  1992 layer_factory.hpp:77] Creating layer conv8_2_mbox_conf_perm
I0820 09:14:24.674376  1992 net.cpp:100] Creating Layer conv8_2_mbox_conf_perm
I0820 09:14:24.674376  1992 net.cpp:434] conv8_2_mbox_conf_perm <- conv8_2_mbox_conf
I0820 09:14:24.674376  1992 net.cpp:408] conv8_2_mbox_conf_perm -> conv8_2_mbox_conf_perm
I0820 09:14:24.674376  1992 net.cpp:150] Setting up conv8_2_mbox_conf_perm
I0820 09:14:24.674376  1992 net.cpp:157] Top shape: 4 16 16 18 (18432)
I0820 09:14:24.674376  1992 net.cpp:165] Memory required for data: 2881114144
I0820 09:14:24.674376  1992 layer_factory.hpp:77] Creating layer conv8_2_mbox_conf_flat
I0820 09:14:24.674376  1992 net.cpp:100] Creating Layer conv8_2_mbox_conf_flat
I0820 09:14:24.674376  1992 net.cpp:434] conv8_2_mbox_conf_flat <- conv8_2_mbox_conf_perm
I0820 09:14:24.674376  1992 net.cpp:408] conv8_2_mbox_conf_flat -> conv8_2_mbox_conf_flat
I0820 09:14:24.674376  1992 net.cpp:150] Setting up conv8_2_mbox_conf_flat
I0820 09:14:24.674376  1992 net.cpp:157] Top shape: 4 4608 (18432)
I0820 09:14:24.674376  1992 net.cpp:165] Memory required for data: 2881187872
I0820 09:14:24.674376  1992 layer_factory.hpp:77] Creating layer conv8_2_mbox_priorbox
I0820 09:14:24.674376  1992 net.cpp:100] Creating Layer conv8_2_mbox_priorbox
I0820 09:14:24.674376  1992 net.cpp:434] conv8_2_mbox_priorbox <- conv8_2_conv8_2_relu_0_split_3
I0820 09:14:24.674376  1992 net.cpp:434] conv8_2_mbox_priorbox <- data_data_0_split_3
I0820 09:14:24.674376  1992 net.cpp:408] conv8_2_mbox_priorbox -> conv8_2_mbox_priorbox
I0820 09:14:24.674376  1992 net.cpp:150] Setting up conv8_2_mbox_priorbox
I0820 09:14:24.674376  1992 net.cpp:157] Top shape: 1 2 6144 (12288)
I0820 09:14:24.674376  1992 net.cpp:165] Memory required for data: 2881237024
I0820 09:14:24.674376  1992 layer_factory.hpp:77] Creating layer conv9_2_mbox_loc
I0820 09:14:24.674376  1992 net.cpp:100] Creating Layer conv9_2_mbox_loc
I0820 09:14:24.675372  1992 net.cpp:434] conv9_2_mbox_loc <- conv9_2_conv9_2_relu_0_split_1
I0820 09:14:24.675372  1992 net.cpp:408] conv9_2_mbox_loc -> conv9_2_mbox_loc
I0820 09:14:24.677367  1992 net.cpp:150] Setting up conv9_2_mbox_loc
I0820 09:14:24.677367  1992 net.cpp:157] Top shape: 4 24 8 8 (6144)
I0820 09:14:24.677367  1992 net.cpp:165] Memory required for data: 2881261600
I0820 09:14:24.677367  1992 layer_factory.hpp:77] Creating layer conv9_2_mbox_loc_perm
I0820 09:14:24.677367  1992 net.cpp:100] Creating Layer conv9_2_mbox_loc_perm
I0820 09:14:24.677367  1992 net.cpp:434] conv9_2_mbox_loc_perm <- conv9_2_mbox_loc
I0820 09:14:24.677367  1992 net.cpp:408] conv9_2_mbox_loc_perm -> conv9_2_mbox_loc_perm
I0820 09:14:24.677367  1992 net.cpp:150] Setting up conv9_2_mbox_loc_perm
I0820 09:14:24.677367  1992 net.cpp:157] Top shape: 4 8 8 24 (6144)
I0820 09:14:24.678364  1992 net.cpp:165] Memory required for data: 2881286176
I0820 09:14:24.678364  1992 layer_factory.hpp:77] Creating layer conv9_2_mbox_loc_flat
I0820 09:14:24.678364  1992 net.cpp:100] Creating Layer conv9_2_mbox_loc_flat
I0820 09:14:24.678364  1992 net.cpp:434] conv9_2_mbox_loc_flat <- conv9_2_mbox_loc_perm
I0820 09:14:24.678364  1992 net.cpp:408] conv9_2_mbox_loc_flat -> conv9_2_mbox_loc_flat
I0820 09:14:24.678364  1992 net.cpp:150] Setting up conv9_2_mbox_loc_flat
I0820 09:14:24.678364  1992 net.cpp:157] Top shape: 4 1536 (6144)
I0820 09:14:24.678364  1992 net.cpp:165] Memory required for data: 2881310752
I0820 09:14:24.678364  1992 layer_factory.hpp:77] Creating layer conv9_2_mbox_conf
I0820 09:14:24.678364  1992 net.cpp:100] Creating Layer conv9_2_mbox_conf
I0820 09:14:24.678364  1992 net.cpp:434] conv9_2_mbox_conf <- conv9_2_conv9_2_relu_0_split_2
I0820 09:14:24.678364  1992 net.cpp:408] conv9_2_mbox_conf -> conv9_2_mbox_conf
I0820 09:14:24.681356  1992 net.cpp:150] Setting up conv9_2_mbox_conf
I0820 09:14:24.681356  1992 net.cpp:157] Top shape: 4 18 8 8 (4608)
I0820 09:14:24.681356  1992 net.cpp:165] Memory required for data: 2881329184
I0820 09:14:24.681356  1992 layer_factory.hpp:77] Creating layer conv9_2_mbox_conf_perm
I0820 09:14:24.681356  1992 net.cpp:100] Creating Layer conv9_2_mbox_conf_perm
I0820 09:14:24.681356  1992 net.cpp:434] conv9_2_mbox_conf_perm <- conv9_2_mbox_conf
I0820 09:14:24.681356  1992 net.cpp:408] conv9_2_mbox_conf_perm -> conv9_2_mbox_conf_perm
I0820 09:14:24.681356  1992 net.cpp:150] Setting up conv9_2_mbox_conf_perm
I0820 09:14:24.681356  1992 net.cpp:157] Top shape: 4 8 8 18 (4608)
I0820 09:14:24.681356  1992 net.cpp:165] Memory required for data: 2881347616
I0820 09:14:24.681356  1992 layer_factory.hpp:77] Creating layer conv9_2_mbox_conf_flat
I0820 09:14:24.681356  1992 net.cpp:100] Creating Layer conv9_2_mbox_conf_flat
I0820 09:14:24.681356  1992 net.cpp:434] conv9_2_mbox_conf_flat <- conv9_2_mbox_conf_perm
I0820 09:14:24.681356  1992 net.cpp:408] conv9_2_mbox_conf_flat -> conv9_2_mbox_conf_flat
I0820 09:14:24.681356  1992 net.cpp:150] Setting up conv9_2_mbox_conf_flat
I0820 09:14:24.681356  1992 net.cpp:157] Top shape: 4 1152 (4608)
I0820 09:14:24.681356  1992 net.cpp:165] Memory required for data: 2881366048
I0820 09:14:24.681356  1992 layer_factory.hpp:77] Creating layer conv9_2_mbox_priorbox
I0820 09:14:24.681356  1992 net.cpp:100] Creating Layer conv9_2_mbox_priorbox
I0820 09:14:24.681356  1992 net.cpp:434] conv9_2_mbox_priorbox <- conv9_2_conv9_2_relu_0_split_3
I0820 09:14:24.681356  1992 net.cpp:434] conv9_2_mbox_priorbox <- data_data_0_split_4
I0820 09:14:24.681356  1992 net.cpp:408] conv9_2_mbox_priorbox -> conv9_2_mbox_priorbox
I0820 09:14:24.681356  1992 net.cpp:150] Setting up conv9_2_mbox_priorbox
I0820 09:14:24.681356  1992 net.cpp:157] Top shape: 1 2 1536 (3072)
I0820 09:14:24.681356  1992 net.cpp:165] Memory required for data: 2881378336
I0820 09:14:24.681356  1992 layer_factory.hpp:77] Creating layer conv10_2_mbox_loc
I0820 09:14:24.681356  1992 net.cpp:100] Creating Layer conv10_2_mbox_loc
I0820 09:14:24.681356  1992 net.cpp:434] conv10_2_mbox_loc <- conv10_2_conv10_2_relu_0_split_1
I0820 09:14:24.681356  1992 net.cpp:408] conv10_2_mbox_loc -> conv10_2_mbox_loc
I0820 09:14:24.684348  1992 net.cpp:150] Setting up conv10_2_mbox_loc
I0820 09:14:24.684348  1992 net.cpp:157] Top shape: 4 24 4 4 (1536)
I0820 09:14:24.684348  1992 net.cpp:165] Memory required for data: 2881384480
I0820 09:14:24.684348  1992 layer_factory.hpp:77] Creating layer conv10_2_mbox_loc_perm
I0820 09:14:24.684348  1992 net.cpp:100] Creating Layer conv10_2_mbox_loc_perm
I0820 09:14:24.684348  1992 net.cpp:434] conv10_2_mbox_loc_perm <- conv10_2_mbox_loc
I0820 09:14:24.684348  1992 net.cpp:408] conv10_2_mbox_loc_perm -> conv10_2_mbox_loc_perm
I0820 09:14:24.684348  1992 net.cpp:150] Setting up conv10_2_mbox_loc_perm
I0820 09:14:24.684348  1992 net.cpp:157] Top shape: 4 4 4 24 (1536)
I0820 09:14:24.684348  1992 net.cpp:165] Memory required for data: 2881390624
I0820 09:14:24.684348  1992 layer_factory.hpp:77] Creating layer conv10_2_mbox_loc_flat
I0820 09:14:24.684348  1992 net.cpp:100] Creating Layer conv10_2_mbox_loc_flat
I0820 09:14:24.684348  1992 net.cpp:434] conv10_2_mbox_loc_flat <- conv10_2_mbox_loc_perm
I0820 09:14:24.684348  1992 net.cpp:408] conv10_2_mbox_loc_flat -> conv10_2_mbox_loc_flat
I0820 09:14:24.684348  1992 net.cpp:150] Setting up conv10_2_mbox_loc_flat
I0820 09:14:24.684348  1992 net.cpp:157] Top shape: 4 384 (1536)
I0820 09:14:24.684348  1992 net.cpp:165] Memory required for data: 2881396768
I0820 09:14:24.684348  1992 layer_factory.hpp:77] Creating layer conv10_2_mbox_conf
I0820 09:14:24.684348  1992 net.cpp:100] Creating Layer conv10_2_mbox_conf
I0820 09:14:24.684348  1992 net.cpp:434] conv10_2_mbox_conf <- conv10_2_conv10_2_relu_0_split_2
I0820 09:14:24.684348  1992 net.cpp:408] conv10_2_mbox_conf -> conv10_2_mbox_conf
I0820 09:14:24.687340  1992 net.cpp:150] Setting up conv10_2_mbox_conf
I0820 09:14:24.687340  1992 net.cpp:157] Top shape: 4 18 4 4 (1152)
I0820 09:14:24.687340  1992 net.cpp:165] Memory required for data: 2881401376
I0820 09:14:24.687340  1992 layer_factory.hpp:77] Creating layer conv10_2_mbox_conf_perm
I0820 09:14:24.687340  1992 net.cpp:100] Creating Layer conv10_2_mbox_conf_perm
I0820 09:14:24.687340  1992 net.cpp:434] conv10_2_mbox_conf_perm <- conv10_2_mbox_conf
I0820 09:14:24.687340  1992 net.cpp:408] conv10_2_mbox_conf_perm -> conv10_2_mbox_conf_perm
I0820 09:14:24.687340  1992 net.cpp:150] Setting up conv10_2_mbox_conf_perm
I0820 09:14:24.687340  1992 net.cpp:157] Top shape: 4 4 4 18 (1152)
I0820 09:14:24.687340  1992 net.cpp:165] Memory required for data: 2881405984
I0820 09:14:24.687340  1992 layer_factory.hpp:77] Creating layer conv10_2_mbox_conf_flat
I0820 09:14:24.687340  1992 net.cpp:100] Creating Layer conv10_2_mbox_conf_flat
I0820 09:14:24.687340  1992 net.cpp:434] conv10_2_mbox_conf_flat <- conv10_2_mbox_conf_perm
I0820 09:14:24.687340  1992 net.cpp:408] conv10_2_mbox_conf_flat -> conv10_2_mbox_conf_flat
I0820 09:14:24.687340  1992 net.cpp:150] Setting up conv10_2_mbox_conf_flat
I0820 09:14:24.687340  1992 net.cpp:157] Top shape: 4 288 (1152)
I0820 09:14:24.687340  1992 net.cpp:165] Memory required for data: 2881410592
I0820 09:14:24.687340  1992 layer_factory.hpp:77] Creating layer conv10_2_mbox_priorbox
I0820 09:14:24.687340  1992 net.cpp:100] Creating Layer conv10_2_mbox_priorbox
I0820 09:14:24.687340  1992 net.cpp:434] conv10_2_mbox_priorbox <- conv10_2_conv10_2_relu_0_split_3
I0820 09:14:24.687340  1992 net.cpp:434] conv10_2_mbox_priorbox <- data_data_0_split_5
I0820 09:14:24.687340  1992 net.cpp:408] conv10_2_mbox_priorbox -> conv10_2_mbox_priorbox
I0820 09:14:24.687340  1992 net.cpp:150] Setting up conv10_2_mbox_priorbox
I0820 09:14:24.687340  1992 net.cpp:157] Top shape: 1 2 384 (768)
I0820 09:14:24.687340  1992 net.cpp:165] Memory required for data: 2881413664
I0820 09:14:24.687340  1992 layer_factory.hpp:77] Creating layer conv11_2_mbox_loc
I0820 09:14:24.687340  1992 net.cpp:100] Creating Layer conv11_2_mbox_loc
I0820 09:14:24.687340  1992 net.cpp:434] conv11_2_mbox_loc <- conv11_2_conv11_2_relu_0_split_1
I0820 09:14:24.687340  1992 net.cpp:408] conv11_2_mbox_loc -> conv11_2_mbox_loc
I0820 09:14:24.691329  1992 net.cpp:150] Setting up conv11_2_mbox_loc
I0820 09:14:24.691329  1992 net.cpp:157] Top shape: 4 16 2 2 (256)
I0820 09:14:24.691329  1992 net.cpp:165] Memory required for data: 2881414688
I0820 09:14:24.691329  1992 layer_factory.hpp:77] Creating layer conv11_2_mbox_loc_perm
I0820 09:14:24.691329  1992 net.cpp:100] Creating Layer conv11_2_mbox_loc_perm
I0820 09:14:24.691329  1992 net.cpp:434] conv11_2_mbox_loc_perm <- conv11_2_mbox_loc
I0820 09:14:24.691329  1992 net.cpp:408] conv11_2_mbox_loc_perm -> conv11_2_mbox_loc_perm
I0820 09:14:24.692332  1992 net.cpp:150] Setting up conv11_2_mbox_loc_perm
I0820 09:14:24.692332  1992 net.cpp:157] Top shape: 4 2 2 16 (256)
I0820 09:14:24.692332  1992 net.cpp:165] Memory required for data: 2881415712
I0820 09:14:24.692332  1992 layer_factory.hpp:77] Creating layer conv11_2_mbox_loc_flat
I0820 09:14:24.692332  1992 net.cpp:100] Creating Layer conv11_2_mbox_loc_flat
I0820 09:14:24.692332  1992 net.cpp:434] conv11_2_mbox_loc_flat <- conv11_2_mbox_loc_perm
I0820 09:14:24.692332  1992 net.cpp:408] conv11_2_mbox_loc_flat -> conv11_2_mbox_loc_flat
I0820 09:14:24.692332  1992 net.cpp:150] Setting up conv11_2_mbox_loc_flat
I0820 09:14:24.692332  1992 net.cpp:157] Top shape: 4 64 (256)
I0820 09:14:24.692332  1992 net.cpp:165] Memory required for data: 2881416736
I0820 09:14:24.692332  1992 layer_factory.hpp:77] Creating layer conv11_2_mbox_conf
I0820 09:14:24.692332  1992 net.cpp:100] Creating Layer conv11_2_mbox_conf
I0820 09:14:24.692332  1992 net.cpp:434] conv11_2_mbox_conf <- conv11_2_conv11_2_relu_0_split_2
I0820 09:14:24.692332  1992 net.cpp:408] conv11_2_mbox_conf -> conv11_2_mbox_conf
I0820 09:14:24.694321  1992 net.cpp:150] Setting up conv11_2_mbox_conf
I0820 09:14:24.694321  1992 net.cpp:157] Top shape: 4 12 2 2 (192)
I0820 09:14:24.694321  1992 net.cpp:165] Memory required for data: 2881417504
I0820 09:14:24.694321  1992 layer_factory.hpp:77] Creating layer conv11_2_mbox_conf_perm
I0820 09:14:24.694321  1992 net.cpp:100] Creating Layer conv11_2_mbox_conf_perm
I0820 09:14:24.694321  1992 net.cpp:434] conv11_2_mbox_conf_perm <- conv11_2_mbox_conf
I0820 09:14:24.694321  1992 net.cpp:408] conv11_2_mbox_conf_perm -> conv11_2_mbox_conf_perm
I0820 09:14:24.694321  1992 net.cpp:150] Setting up conv11_2_mbox_conf_perm
I0820 09:14:24.694321  1992 net.cpp:157] Top shape: 4 2 2 12 (192)
I0820 09:14:24.694321  1992 net.cpp:165] Memory required for data: 2881418272
I0820 09:14:24.694321  1992 layer_factory.hpp:77] Creating layer conv11_2_mbox_conf_flat
I0820 09:14:24.694321  1992 net.cpp:100] Creating Layer conv11_2_mbox_conf_flat
I0820 09:14:24.694321  1992 net.cpp:434] conv11_2_mbox_conf_flat <- conv11_2_mbox_conf_perm
I0820 09:14:24.694321  1992 net.cpp:408] conv11_2_mbox_conf_flat -> conv11_2_mbox_conf_flat
I0820 09:14:24.694321  1992 net.cpp:150] Setting up conv11_2_mbox_conf_flat
I0820 09:14:24.694321  1992 net.cpp:157] Top shape: 4 48 (192)
I0820 09:14:24.694321  1992 net.cpp:165] Memory required for data: 2881419040
I0820 09:14:24.694321  1992 layer_factory.hpp:77] Creating layer conv11_2_mbox_priorbox
I0820 09:14:24.694321  1992 net.cpp:100] Creating Layer conv11_2_mbox_priorbox
I0820 09:14:24.694321  1992 net.cpp:434] conv11_2_mbox_priorbox <- conv11_2_conv11_2_relu_0_split_3
I0820 09:14:24.694321  1992 net.cpp:434] conv11_2_mbox_priorbox <- data_data_0_split_6
I0820 09:14:24.694321  1992 net.cpp:408] conv11_2_mbox_priorbox -> conv11_2_mbox_priorbox
I0820 09:14:24.694321  1992 net.cpp:150] Setting up conv11_2_mbox_priorbox
I0820 09:14:24.694321  1992 net.cpp:157] Top shape: 1 2 64 (128)
I0820 09:14:24.694321  1992 net.cpp:165] Memory required for data: 2881419552
I0820 09:14:24.694321  1992 layer_factory.hpp:77] Creating layer conv12_2_mbox_loc
I0820 09:14:24.694321  1992 net.cpp:100] Creating Layer conv12_2_mbox_loc
I0820 09:14:24.694321  1992 net.cpp:434] conv12_2_mbox_loc <- conv12_2_conv12_2_relu_0_split_0
I0820 09:14:24.694321  1992 net.cpp:408] conv12_2_mbox_loc -> conv12_2_mbox_loc
I0820 09:14:24.697314  1992 net.cpp:150] Setting up conv12_2_mbox_loc
I0820 09:14:24.697314  1992 net.cpp:157] Top shape: 4 16 1 1 (64)
I0820 09:14:24.697314  1992 net.cpp:165] Memory required for data: 2881419808
I0820 09:14:24.697314  1992 layer_factory.hpp:77] Creating layer conv12_2_mbox_loc_perm
I0820 09:14:24.697314  1992 net.cpp:100] Creating Layer conv12_2_mbox_loc_perm
I0820 09:14:24.697314  1992 net.cpp:434] conv12_2_mbox_loc_perm <- conv12_2_mbox_loc
I0820 09:14:24.697314  1992 net.cpp:408] conv12_2_mbox_loc_perm -> conv12_2_mbox_loc_perm
I0820 09:14:24.697314  1992 net.cpp:150] Setting up conv12_2_mbox_loc_perm
I0820 09:14:24.697314  1992 net.cpp:157] Top shape: 4 1 1 16 (64)
I0820 09:14:24.697314  1992 net.cpp:165] Memory required for data: 2881420064
I0820 09:14:24.697314  1992 layer_factory.hpp:77] Creating layer conv12_2_mbox_loc_flat
I0820 09:14:24.697314  1992 net.cpp:100] Creating Layer conv12_2_mbox_loc_flat
I0820 09:14:24.697314  1992 net.cpp:434] conv12_2_mbox_loc_flat <- conv12_2_mbox_loc_perm
I0820 09:14:24.697314  1992 net.cpp:408] conv12_2_mbox_loc_flat -> conv12_2_mbox_loc_flat
I0820 09:14:24.697314  1992 net.cpp:150] Setting up conv12_2_mbox_loc_flat
I0820 09:14:24.697314  1992 net.cpp:157] Top shape: 4 16 (64)
I0820 09:14:24.697314  1992 net.cpp:165] Memory required for data: 2881420320
I0820 09:14:24.697314  1992 layer_factory.hpp:77] Creating layer conv12_2_mbox_conf
I0820 09:14:24.697314  1992 net.cpp:100] Creating Layer conv12_2_mbox_conf
I0820 09:14:24.697314  1992 net.cpp:434] conv12_2_mbox_conf <- conv12_2_conv12_2_relu_0_split_1
I0820 09:14:24.697314  1992 net.cpp:408] conv12_2_mbox_conf -> conv12_2_mbox_conf
I0820 09:14:24.699308  1992 net.cpp:150] Setting up conv12_2_mbox_conf
I0820 09:14:24.699308  1992 net.cpp:157] Top shape: 4 12 1 1 (48)
I0820 09:14:24.699308  1992 net.cpp:165] Memory required for data: 2881420512
I0820 09:14:24.699308  1992 layer_factory.hpp:77] Creating layer conv12_2_mbox_conf_perm
I0820 09:14:24.699308  1992 net.cpp:100] Creating Layer conv12_2_mbox_conf_perm
I0820 09:14:24.699308  1992 net.cpp:434] conv12_2_mbox_conf_perm <- conv12_2_mbox_conf
I0820 09:14:24.699308  1992 net.cpp:408] conv12_2_mbox_conf_perm -> conv12_2_mbox_conf_perm
I0820 09:14:24.699308  1992 net.cpp:150] Setting up conv12_2_mbox_conf_perm
I0820 09:14:24.699308  1992 net.cpp:157] Top shape: 4 1 1 12 (48)
I0820 09:14:24.699308  1992 net.cpp:165] Memory required for data: 2881420704
I0820 09:14:24.699308  1992 layer_factory.hpp:77] Creating layer conv12_2_mbox_conf_flat
I0820 09:14:24.699308  1992 net.cpp:100] Creating Layer conv12_2_mbox_conf_flat
I0820 09:14:24.699308  1992 net.cpp:434] conv12_2_mbox_conf_flat <- conv12_2_mbox_conf_perm
I0820 09:14:24.699308  1992 net.cpp:408] conv12_2_mbox_conf_flat -> conv12_2_mbox_conf_flat
I0820 09:14:24.700305  1992 net.cpp:150] Setting up conv12_2_mbox_conf_flat
I0820 09:14:24.700305  1992 net.cpp:157] Top shape: 4 12 (48)
I0820 09:14:24.700305  1992 net.cpp:165] Memory required for data: 2881420896
I0820 09:14:24.700305  1992 layer_factory.hpp:77] Creating layer conv12_2_mbox_priorbox
I0820 09:14:24.700305  1992 net.cpp:100] Creating Layer conv12_2_mbox_priorbox
I0820 09:14:24.700305  1992 net.cpp:434] conv12_2_mbox_priorbox <- conv12_2_conv12_2_relu_0_split_2
I0820 09:14:24.700305  1992 net.cpp:434] conv12_2_mbox_priorbox <- data_data_0_split_7
I0820 09:14:24.700305  1992 net.cpp:408] conv12_2_mbox_priorbox -> conv12_2_mbox_priorbox
I0820 09:14:24.700305  1992 net.cpp:150] Setting up conv12_2_mbox_priorbox
I0820 09:14:24.700305  1992 net.cpp:157] Top shape: 1 2 16 (32)
I0820 09:14:24.700305  1992 net.cpp:165] Memory required for data: 2881421024
I0820 09:14:24.700305  1992 layer_factory.hpp:77] Creating layer mbox_loc
I0820 09:14:24.700305  1992 net.cpp:100] Creating Layer mbox_loc
I0820 09:14:24.700305  1992 net.cpp:434] mbox_loc <- conv4_3_norm_mbox_loc_flat
I0820 09:14:24.700305  1992 net.cpp:434] mbox_loc <- fc7_mbox_loc_flat
I0820 09:14:24.700305  1992 net.cpp:434] mbox_loc <- conv8_2_mbox_loc_flat
I0820 09:14:24.700305  1992 net.cpp:434] mbox_loc <- conv9_2_mbox_loc_flat
I0820 09:14:24.700305  1992 net.cpp:434] mbox_loc <- conv10_2_mbox_loc_flat
I0820 09:14:24.700305  1992 net.cpp:434] mbox_loc <- conv11_2_mbox_loc_flat
I0820 09:14:24.700305  1992 net.cpp:434] mbox_loc <- conv12_2_mbox_loc_flat
I0820 09:14:24.700305  1992 net.cpp:408] mbox_loc -> mbox_loc
I0820 09:14:24.700305  1992 net.cpp:150] Setting up mbox_loc
I0820 09:14:24.700305  1992 net.cpp:157] Top shape: 4 98256 (393024)
I0820 09:14:24.700305  1992 net.cpp:165] Memory required for data: 2882993120
I0820 09:14:24.700305  1992 layer_factory.hpp:77] Creating layer mbox_conf
I0820 09:14:24.700305  1992 net.cpp:100] Creating Layer mbox_conf
I0820 09:14:24.700305  1992 net.cpp:434] mbox_conf <- conv4_3_norm_mbox_conf_flat
I0820 09:14:24.700305  1992 net.cpp:434] mbox_conf <- fc7_mbox_conf_flat
I0820 09:14:24.700305  1992 net.cpp:434] mbox_conf <- conv8_2_mbox_conf_flat
I0820 09:14:24.700305  1992 net.cpp:434] mbox_conf <- conv9_2_mbox_conf_flat
I0820 09:14:24.700305  1992 net.cpp:434] mbox_conf <- conv10_2_mbox_conf_flat
I0820 09:14:24.700305  1992 net.cpp:434] mbox_conf <- conv11_2_mbox_conf_flat
I0820 09:14:24.700305  1992 net.cpp:434] mbox_conf <- conv12_2_mbox_conf_flat
I0820 09:14:24.700305  1992 net.cpp:408] mbox_conf -> mbox_conf
I0820 09:14:24.700305  1992 net.cpp:150] Setting up mbox_conf
I0820 09:14:24.700305  1992 net.cpp:157] Top shape: 4 73692 (294768)
I0820 09:14:24.700305  1992 net.cpp:165] Memory required for data: 2884172192
I0820 09:14:24.700305  1992 layer_factory.hpp:77] Creating layer mbox_priorbox
I0820 09:14:24.700305  1992 net.cpp:100] Creating Layer mbox_priorbox
I0820 09:14:24.700305  1992 net.cpp:434] mbox_priorbox <- conv4_3_norm_mbox_priorbox
I0820 09:14:24.700305  1992 net.cpp:434] mbox_priorbox <- fc7_mbox_priorbox
I0820 09:14:24.700305  1992 net.cpp:434] mbox_priorbox <- conv8_2_mbox_priorbox
I0820 09:14:24.700305  1992 net.cpp:434] mbox_priorbox <- conv9_2_mbox_priorbox
I0820 09:14:24.700305  1992 net.cpp:434] mbox_priorbox <- conv10_2_mbox_priorbox
I0820 09:14:24.700305  1992 net.cpp:434] mbox_priorbox <- conv11_2_mbox_priorbox
I0820 09:14:24.700305  1992 net.cpp:434] mbox_priorbox <- conv12_2_mbox_priorbox
I0820 09:14:24.700305  1992 net.cpp:408] mbox_priorbox -> mbox_priorbox
I0820 09:14:24.700305  1992 net.cpp:150] Setting up mbox_priorbox
I0820 09:14:24.700305  1992 net.cpp:157] Top shape: 1 2 98256 (196512)
I0820 09:14:24.700305  1992 net.cpp:165] Memory required for data: 2884958240
I0820 09:14:24.700305  1992 layer_factory.hpp:77] Creating layer mbox_loss
I0820 09:14:24.700305  1992 net.cpp:100] Creating Layer mbox_loss
I0820 09:14:24.700305  1992 net.cpp:434] mbox_loss <- mbox_loc
I0820 09:14:24.700305  1992 net.cpp:434] mbox_loss <- mbox_conf
I0820 09:14:24.700305  1992 net.cpp:434] mbox_loss <- mbox_priorbox
…
layer {
  name: "data"
  type: "AnnotatedData"
  top: "data"
  include {
    phase: TEST
  }
  transform_param {
    mean_value: 104
    mean_value: 117
    mean_value: 123
    force_color: true
    resize_param {
      prob: 1
      resize_mode: WARP
      height: 512
      width: 512
      interp_mode: LINEAR
    }
  }
  data_param {
    source: "examples\\wastedata\\wastedata_test_lmdb"
    batch_size: 8
    backend: LMDB
  }
  annotated_data_param {
    batch_sampler {
    }
    label_map_file: "data\\wastedata\\labelmap_waste.prototxt"
  }
}
layer {
  name: "conv1_1"
  type: "Convolution"
  bottom: "data"
  top: "conv1_1"
  param {
    lr_mult: 1
    decay_mult: 1
  }
  param {
    lr_mult: 1
    decay_mult: 0
  }
  convolution_param {
    num_output: 64
    pad: 1
    kernel_size: 3
    weight_filler {
      type: "xavier"
    }
    bias_filler {
      type: "constant"
      value: 0
    }
  }
}
layer {
  name: "relu1_1"
  type: "ReLU"
  bottom: "conv1_1"
  top: "conv1_1"
}
layer {
  name: "conv1_2"
  type: "Convolution"
  bottom: "conv1_1"
  top: "conv1_2"
  param {
    lr_mult: 1
    decay_mult: 1
  }
  param {
    lr_mult: 1
    decay_mult: 0
  }
  convolution_param {
    num_output: 64
    pad: 1
    kernel_size: 3
    weight_filler {
      type: "xavier"
    }
    bias_filler {
      type: "constant"
      value: 0
    }
  }
}
layer {
  name: "relu1_2"
  type: "ReLU"
  bottom: "conv1_2"
  top: "conv1_2"
}
layer {
  name: "pool1"
  type: "Pooling"
  bottom: "conv1_2"
  top: "pool1"
  pooling_param {
    pool: MAX
    kernel_size: 2
    stride: 2
  }
}
layer {
  name: "conv2_1"
  type: "Convolution"
  bottom: "pool1"
  top: "conv2_1"
  param {
    lr_mult: 1
    decay_mult: 1
  }
  param {
    lr_mult: 1
    decay_mult: 0
  }
  convolution_param {
    num_output: 128
    pad: 1
    kernel_size: 3
    weight_filler {
      type: "xavier"
    }
    bias_filler {
      type: "constant"
      value: 0
    }
  }
}
layer {
  name: "relu2_1"
  type: "ReLU"
  bottom: "conv2_1"
  top: "conv2_1"
}
layer {
  name: "conv2_2"
  type: "Convolution"
  bottom: "conv2_1"
  top: "conv2_2"
  param {
    lr_mult: 1
    decay_mult: 1
  }
  param {
    lr_mult: 1
    decay_mult: 0
  }
  convolution_param {
    num_output: 128
    pad: 1
    kernel_size: 3
    weight_filler {
      type: "xavier"
    }
    bias_filler {
      type: "constant"
      value: 0
    }
  }
}
layer {
  name: "relu2_2"
  type: "ReLU"
  bottom: "conv2_2"
  top: "conv2_2"
}
layer {
  name: "pool2"
  type: "Pooling"
  bottom: "conv2_2"
  top: "pool2"
  pooling_param {
    pool: MAX
    kernel_size: 2
    stride: 2
  }
}
layer {
  name: "conv3_1"
  type: "Convolution"
  bottom: "pool2"
  top: "conv3_1"
  param {
    lr_mult: 1
    decay_mult: 1
  }
  param {
    lr_mult: 1
    decay_mult: 0
  }
  convolution_param {
    num_output: 256
    pad: 1
    kernel_size: 3
    weight_filler {
      type: "xavier"
    }
    bias_filler {
      type: "constant"
      value: 0
    }
  }
}
layer {
  name: "relu3_1"
  type: "ReLU"
  bottom: "conv3_1"
  top: "conv3_1"
}
layer {
  name: "conv3_2"
  type: "Convolution"
  bottom: "conv3_1"
  top: "conv3_2"
  param {
    lr_mult: 1
    decay_mult: 1
  }
  param {
    lr_mult: 1
    decay_mult: 0
  }
  convolution_param {
    num_output: 256
    pad: 1
    kernel_size: 3
    weight_filler {
      type: "xavier"
    }
    bias_filler {
      type: "constant"
      value: 0
    }
  }
}
layer {
  name: "relu3_2"
  type: "ReLU"
  bottom: "conv3_2"
  top: "conv3_2"
}
layer {
  name: "conv3_3"
  type: "Convolution"
  bottom: "conv3_2"
  top: "conv3_3"
  param {
    lr_mult: 1
    decay_mult: 1
  }
  param {
    lr_mult: 1
    decay_mult: 0
  }
  convolution_param {
    num_output: 256
    pad: 1
    kernel_size: 3
    weight_filler {
      type: "xavier"
    }
    bias_filler {
      type: "constant"
      value: 0
    }
  }
}
layer {
  name: "relu3_3"
  type: "ReLU"
  bottom: "conv3_3"
  top: "conv3_3"
}
layer {
  name: "pool3"
  type: "Pooling"
  bottom: "conv3_3"
  top: "pool3"
  pooling_param {
    pool: MAX
    kernel_size: 2
    stride: 2
  }
}
layer {
  name: "conv4_1"
  type: "Convolution"
  bottom: "pool3"
  top: "conv4_1"
  param {
    lr_mult: 1
    decay_mult: 1
  }
  param {
    lr_mult: 1
    decay_mult: 0
  }
  convolution_param {
    num_output: 512
    pad: 1
    kernel_size: 3
    weight_filler {
      type: "xavier"
    }
    bias_filler {
      type: "constant"
      value: 0
    }
  }
}
layer {
  name: "relu4_1"
  type: "ReLU"
  bottom: "conv4_1"
  top: "conv4_1"
}
layer {
  name: "conv4_2"
  type: "Convolution"
  bottom: "conv4_1"
  top: "conv4_2"
  param {
    lr_mult: 1
    decay_mult: 1
  }
  param {
    lr_mult: 1
    decay_mult: 0
  }
  convolution_param {
    num_output: 512
    pad: 1
    kernel_size: 3
    weight_filler {
      type: "xavier"
    }
    bias_filler {
      type: "constant"
      value: 0
    }
  }
}
layer {
  name: "relu4_2"
  type: "ReLU"
  bottom: "conv4_2"
  top: "conv4_2"
}
layer {
  name: "conv4_3"
  type: "Convolution"
  bottom: "conv4_2"
  top: "conv4_3"
  param {
    lr_mult: 1
    decay_mult: 1
  }
  param {
    lr_mult: 1
    decay_mult: 0
  }
  convolution_param {
    num_output: 512
    pad: 1
    kernel_size: 3
    weight_filler {
      type: "xavier"
    }
    bias_filler {
      type: "constant"
      value: 0
    }
  }
}
layer {
  name: "relu4_3"
  type: "ReLU"
  bottom: "conv4_3"
  top: "conv4_3"
}
layer {
  name: "pool4"
  type: "Pooling"
  bottom: "conv4_3"
  top: "pool4"
  pooling_param {
    pool: MAX
    kernel_size: 2
    stride: 2
  }
}
layer {
  name: "conv5_1"
  type: "Convolution"
  bottom: "pool4"
  top: "conv5_1"
  param {
    lr_mult: 1
    decay_mult: 1
  }
  param {
    lr_mult: 1
    decay_mult: 0
  }
  convolution_param {
    num_output: 512
    pad: 1
    kernel_size: 3
    weight_filler {
      type: "xavier"
    }
    bias_filler {
      type: "constant"
      value: 0
    }
    dilation: 1
  }
}
layer {
  name: "relu5_1"
  type: "ReLU"
  bottom: "conv5_1"
  top: "conv5_1"
}
layer {
  name: "conv5_2"
  type: "Convolution"
  bottom: "conv5_1"
  top: "conv5_2"
  param {
    lr_mult: 1
    decay_mult: 1
  }
  param {
    lr_mult: 1
    decay_mult: 0
  }
  convolution_param {
    num_output: 512
    pad: 1
    kernel_size: 3
    weight_filler {
      type: "xavier"
    }
    bias_filler {
      type: "constant"
      value: 0
    }
    dilation: 1
  }
}
layer {
  name: "relu5_2"
  type: "ReLU"
  bottom: "conv5_2"
  top: "conv5_2"
}
layer {
  name: "conv5_3"
  type: "Convolution"
  bottom: "conv5_2"
  top: "conv5_3"
  param {
    lr_mult: 1
    decay_mult: 1
  }
  param {
    lr_mult: 1
    decay_mult: 0
  }
  convolution_param {
    num_output: 512
    pad: 1
    kernel_size: 3
    weight_filler {
      type: "xavier"
    }
    bias_filler {
      type: "constant"
      value: 0
    }
    dilation: 1
  }
}
layer {
  name: "relu5_3"
  type: "ReLU"
  bottom: "conv5_3"
  top: "conv5_3"
}
layer {
  name: "pool5"
  type: "Pooling"
  bottom: "conv5_3"
  top: "pool5"
  pooling_param {
    pool: MAX
    kernel_size: 3
    stride: 1
    pad: 1
  }
}
layer {
  name: "fc6"
  type: "Convolution"
  bottom: "pool5"
  top: "fc6"
  param {
    lr_mult: 1
    decay_mult: 1
  }
  param {
    lr_mult: 1
    decay_mult: 0
  }
  convolution_param {
    num_output: 1024
    pad: 6
    kernel_size: 3
    weight_filler {
      type: "xavier"
    }
    bias_filler {
      type: "constant"
      value: 0
    }
    dilation: 6
  }
}
layer {
  name: "relu6"
  type: "ReLU"
  bottom: "fc6"
  top: "fc6"
}
layer {
  name: "fc7"
  type: "Convolution"
  bottom: "fc6"
  top: "fc7"
  param {
    lr_mult: 1
    decay_mult: 1
  }
  param {
    lr_mult: 1
    decay_mult: 0
  }
  convolution_param {
    num_output: 1024
    kernel_size: 1
    weight_filler {
      type: "xavier"
    }
    bias_filler {
      type: "constant"
      value: 0
    }
  }
}
layer {
  name: "relu7"
  type: "ReLU"
  bottom: "fc7"
  top: "fc7"
}
layer {
  name: "conv8_1"
  type: "Convolution"
  bottom: "fc7"
  top: "conv8_1"
  param {
    lr_mult: 1
    decay_mult: 1
  }
  param {
    lr_mult: 2
    decay_mult: 0
  }
  convolution_param {
    num_output: 256
    pad: 0
    kernel_size: 1
    stride: 1
    weight_filler {
      type: "xavier"
    }
    bias_filler {
      type: "constant"
      value: 0
    }
  }
}
layer {
  name: "conv8_1_relu"
  type: "ReLU"
  bottom: "conv8_1"
  top: "conv8_1"
}
layer {
  name: "conv8_2"
  type: "Convolution"
  bottom: "conv8_1"
  top: "conv8_2"
  param {
    lr_mult: 1
    decay_mult: 1
  }
  param {
    lr_mult: 2
    decay_mult: 0
  }
  convolution_param {
    num_output: 512
    pad: 1
    kernel_size: 3
    stride: 2
    weight_filler {
      type: "xavier"
    }
    bias_filler {
      type: "constant"
      value: 0
    }
  }
}
layer {
  name: "conv8_2_relu"
  type: "ReLU"
  bottom: "conv8_2"
  top: "conv8_2"
}
layer {
  name: "conv9_1"
  type: "Convolution"
  bottom: "conv8_2"
  top: "conv9_1"
  param {
    lr_mult: 1
    decay_mult: 1
  }
  param {
    lr_mult: 2
    decay_mult: 0
  }
  convolution_param {
    num_output: 128
    pad: 0
    kernel_size: 1
    stride: 1
    weight_filler {
      type: "xavier"
    }
    bias_filler {
      type: "constant"
      value: 0
    }
  }
}
layer {
  name: "conv9_1_relu"
  type: "ReLU"
  bottom: "conv9_1"
  top: "conv9_1"
}
layer {
  name: "conv9_2"
  type: "Convolution"
  bottom: "conv9_1"
  top: "conv9_2"
  param {
    lr_mult: 1
    decay_mult: 1
  }
  param {
    lr_mult: 2
    decay_mult: 0
  }
  convolution_param {
    num_output: 256
    pad: 1
    kernel_size: 3
    stride: 2
    weight_filler {
      type: "xavier"
    }
    bias_filler {
      type: "constant"
      value: 0
    }
  }
}
layer {
  name: "conv9_2_relu"
  type: "ReLU"
  bottom: "conv9_2"
  top: "conv9_2"
}
layer {
  name: "conv10_1"
  type: "Convolution"
  bottom: "conv9_2"
  top: "conv10_1"
  param {
    lr_mult: 1
    decay_mult: 1
  }
  param {
    lr_mult: 2
    decay_mult: 0
  }
  convolution_param {
    num_output: 128
    pad: 0
    kernel_size: 1
    stride: 1
    weight_filler {
      type: "xavier"
    }
    bias_filler {
      type: "constant"
      value: 0
    }
  }
}
layer {
  name: "conv10_1_relu"
  type: "ReLU"
  bottom: "conv10_1"
  top: "conv10_1"
}
layer {
  name: "conv10_2"
  type: "Convolution"
  bottom: "conv10_1"
  top: "conv10_2"
  param {
    lr_mult: 1
    decay_mult: 1
  }
  param {
    lr_mult: 2
    decay_mult: 0
  }
  convolution_param {
    num_output: 256
    pad: 1
    kernel_size: 3
    stride: 2
    weight_filler {
      type: "xavier"
    }
    bias_filler {
      type: "constant"
      value: 0
    }
  }
}
layer {
  name: "conv10_2_relu"
  type: "ReLU"
  bottom: "conv10_2"
  top: "conv10_2"
}
layer {
  name: "conv11_1"
  type: "Convolution"
  bottom: "conv10_2"
  top: "conv11_1"
  param {
    lr_mult: 1
    decay_mult: 1
  }
  param {
    lr_mult: 2
    decay_mult: 0
  }
  convolution_param {
    num_output: 128
    pad: 0
    kernel_size: 1
    stride: 1
    weight_filler {
      type: "xavier"
    }
    bias_filler {
      type: "constant"
      value: 0
    }
  }
}
layer {
  name: "conv11_1_relu"
  type: "ReLU"
  bottom: "conv11_1"
  top: "conv11_1"
}
layer {
  name: "conv11_2"
  type: "Convolution"
  bottom: "conv11_1"
  top: "conv11_2"
  param {
    lr_mult: 1
    decay_mult: 1
  }
  param {
    lr_mult: 2
    decay_mult: 0
  }
  convolution_param {
    num_output: 256
    pad: 1
    kernel_size: 3
    stride: 2
    weight_filler {
      type: "xavier"
    }
    bias_filler {
      type: "constant"
      value: 0
    }
  }
}
layer {
  name: "conv11_2_relu"
  type: "ReLU"
  bottom: "conv11_2"
  top: "conv11_2"
}
layer {
  name: "conv12_1"
  type: "Convolution"
  bottom: "conv11_2"
  top: "conv12_1"
  param {
    lr_mult: 1
    decay_mult: 1
  }
  param {
    lr_mult: 2
    decay_mult: 0
  }
  convolution_param {
    num_output: 128
    pad: 0
    kernel_size: 1
    stride: 1
    weight_filler {
      type: "xavier"
    }
    bias_filler {
      type: "constant"
      value: 0
    }
  }
}
layer {
  name: "conv12_1_relu"
  type: "ReLU"
  bottom: "conv12_1"
  top: "conv12_1"
}
layer {
  name: "conv12_2"
  type: "Convolution"
  bottom: "conv12_1"
  top: "conv12_2"
  param {
    lr_mult: 1
    decay_mult: 1
  }
  param {
    lr_mult: 2
    decay_mult: 0
  }
  convolution_param {
    num_output: 256
    pad: 1
    kernel_size: 4
    stride: 1
    weight_filler {
      type: "xavier"
    }
    bias_filler {
      type: "constant"
      value: 0
    }
  }
}
layer {
  name: "conv12_2_relu"
  type: "ReLU"
  bottom: "conv12_2"
  top: "conv12_2"
}
layer {
  name: "conv4_3_norm"
  type: "Normalize"
  bottom: "conv4_3"
  top: "conv4_3_norm"
  norm_param {
    across_spatial: false
    scale_filler {
      type: "constant"
      value: 20
    }
    channel_shared: false
  }
}
layer {
  name: "conv4_3_norm_mbox_loc"
  type: "Convolution"
  bottom: "conv4_3_norm"
  top: "conv4_3_norm_mbox_loc"
  param {
    lr_mult: 1
    decay_mult: 1
  }
  param {
    lr_mult: 2
    decay_mult: 0
  }
  convolution_param {
    num_output: 16
    pad: 1
    kernel_size: 3
    stride: 1
    weight_filler {
      type: "xavier"
    }
    bias_filler {
      type: "constant"
      value: 0
    }
  }
}
layer {
  name: "conv4_3_norm_mbox_loc_perm"
  type: "Permute"
  bottom: "conv4_3_norm_mbox_loc"
  top: "conv4_3_norm_mbox_loc_perm"
  permute_param {
    order: 0
    order: 2
    order: 3
    order: 1
  }
}
layer {
  name: "conv4_3_norm_mbox_loc_flat"
  type: "Flatten"
  bottom: "conv4_3_norm_mbox_loc_perm"
  top: "conv4_3_norm_mbox_loc_flat"
  flatten_param {
    axis: 1
  }
}
layer {
  name: "conv4_3_norm_mbox_conf"
  type: "Convolution"
  bottom: "conv4_3_norm"
  top: "conv4_3_norm_mbox_conf"
  param {
    lr_mult: 1
    decay_mult: 1
  }
  param {
    lr_mult: 2
    decay_mult: 0
  }
  convolution_param {
    num_output: 12
    pad: 1
    kernel_size: 3
    stride: 1
    weight_filler {
      type: "xavier"
    }
    bias_filler {
      type: "constant"
      value: 0
    }
  }
}
layer {
  name: "conv4_3_norm_mbox_conf_perm"
  type: "Permute"
  bottom: "conv4_3_norm_mbox_conf"
  top: "conv4_3_norm_mbox_conf_perm"
  permute_param {
    order: 0
    order: 2
    order: 3
    order: 1
  }
}
layer {
  name: "conv4_3_norm_mbox_conf_flat"
  type: "Flatten"
  bottom: "conv4_3_norm_mbox_conf_perm"
  top: "conv4_3_norm_mbox_conf_flat"
  flatten_param {
    axis: 1
  }
}
layer {
  name: "conv4_3_norm_mbox_priorbox"
  type: "PriorBox"
  bottom: "conv4_3_norm"
  bottom: "data"
  top: "conv4_3_norm_mbox_priorbox"
  prior_box_param {
    min_size: 35.84
    max_size: 76.8
    aspect_ratio: 2
    flip: true
    clip: false
    variance: 0.1
    variance: 0.1
    variance: 0.2
    variance: 0.2
    step: 8
    offset: 0.5
  }
}
layer {
  name: "fc7_mbox_loc"
  type: "Convolution"
  bottom: "fc7"
  top: "fc7_mbox_loc"
  param {
    lr_mult: 1
    decay_mult: 1
  }
  param {
    lr_mult: 2
    decay_mult: 0
  }
  convolution_param {
    num_output: 24
    pad: 1
    kernel_size: 3
    stride: 1
    weight_filler {
      type: "xavier"
    }
    bias_filler {
      type: "constant"
      value: 0
    }
  }
}
layer {
  name: "fc7_mbox_loc_perm"
  type: "Permute"
  bottom: "fc7_mbox_loc"
  top: "fc7_mbox_loc_perm"
  permute_param {
    order: 0
    order: 2
    order: 3
    order: 1
  }
}
layer {
  name: "fc7_mbox_loc_flat"
  type: "Flatten"
  bottom: "fc7_mbox_loc_perm"
  top: "fc7_mbox_loc_flat"
  flatten_param {
    axis: 1
  }
}
layer {
  name: "fc7_mbox_conf"
  type: "Convolution"
  bottom: "fc7"
  top: "fc7_mbox_conf"
  param {
    lr_mult: 1
    decay_mult: 1
  }
  param {
    lr_mult: 2
    decay_mult: 0
  }
  convolution_param {
    num_output: 18
    pad: 1
    kernel_size: 3
    stride: 1
    weight_filler {
      type: "xavier"
    }
    bias_filler {
      type: "constant"
      value: 0
    }
  }
}
layer {
  name: "fc7_mbox_conf_perm"
  type: "Permute"
  bottom: "fc7_mbox_conf"
  top: "fc7_mbox_conf_perm"
  permute_param {
    order: 0
    order: 2
    order: 3
    order: 1
  }
}
layer {
  name: "fc7_mbox_conf_flat"
  type: "Flatten"
  bottom: "fc7_mbox_conf_perm"
  top: "fc7_mbox_conf_flat"
  flatten_param {
    axis: 1
  }
}
layer {
  name: "fc7_mbox_priorbox"
  type: "PriorBox"
  bottom: "fc7"
  bottom: "data"
  top: "fc7_mbox_priorbox"
  prior_box_param {
    min_size: 76.8
    max_size: 153.6
    aspect_ratio: 2
    aspect_ratio: 3
    flip: true
    clip: false
    variance: 0.1
    variance: 0.1
    variance: 0.2
    variance: 0.2
    step: 16
    offset: 0.5
  }
}
layer {
  name: "conv8_2_mbox_loc"
  type: "Convolution"
  bottom: "conv8_2"
  top: "conv8_2_mbox_loc"
  param {
    lr_mult: 1
    decay_mult: 1
  }
  param {
    lr_mult: 2
    decay_mult: 0
  }
  convolution_param {
    num_output: 24
    pad: 1
    kernel_size: 3
    stride: 1
    weight_filler {
      type: "xavier"
    }
    bias_filler {
      type: "constant"
      value: 0
    }
  }
}
layer {
  name: "conv8_2_mbox_loc_perm"
  type: "Permute"
  bottom: "conv8_2_mbox_loc"
  top: "conv8_2_mbox_loc_perm"
  permute_param {
    order: 0
    order: 2
    order: 3
    order: 1
  }
}
layer {
  name: "conv8_2_mbox_loc_flat"
  type: "Flatten"
  bottom: "conv8_2_mbox_loc_perm"
  top: "conv8_2_mbox_loc_flat"
  flatten_param {
    axis: 1
  }
}
layer {
  name: "conv8_2_mbox_conf"
  type: "Convolution"
  bottom: "conv8_2"
  top: "conv8_2_mbox_conf"
  param {
    lr_mult: 1
    decay_mult: 1
  }
  param {
    lr_mult: 2
    decay_mult: 0
  }
  convolution_param {
    num_output: 18
    pad: 1
    kernel_size: 3
    stride: 1
    weight_filler {
      type: "xavier"
    }
    bias_filler {
      type: "constant"
      value: 0
    }
  }
}
layer {
  name: "conv8_2_mbox_conf_perm"
  type: "Permute"
  bottom: "conv8_2_mbox_conf"
  top: "conv8_2_mbox_conf_perm"
  permute_param {
    order: 0
    order: 2
    order: 3
    order: 1
  }
}
layer {
  name: "conv8_2_mbox_conf_flat"
  type: "Flatten"
  bottom: "conv8_2_mbox_conf_perm"
  top: "conv8_2_mbox_conf_flat"
  flatten_param {
    axis: 1
  }
}
layer {
  name: "conv8_2_mbox_priorbox"
  type: "PriorBox"
  bottom: "conv8_2"
  bottom: "data"
  top: "conv8_2_mbox_priorbox"
  prior_box_param {
    min_size: 153.6
    max_size: 230.4
    aspect_ratio: 2
    aspect_ratio: 3
    flip: true
    clip: false
    variance: 0.1
    variance: 0.1
    variance: 0.2
    variance: 0.2
    step: 32
    offset: 0.5
  }
}
layer {
  name: "conv9_2_mbox_loc"
  type: "Convolution"
  bottom: "conv9_2"
  top: "conv9_2_mbox_loc"
  param {
    lr_mult: 1
    decay_mult: 1
  }
  param {
    lr_mult: 2
    decay_mult: 0
  }
  convolution_param {
    num_output: 24
    pad: 1
    kernel_size: 3
    stride: 1
    weight_filler {
      type: "xavier"
    }
    bias_filler {
      type: "constant"
      value: 0
    }
  }
}
layer {
  name: "conv9_2_mbox_loc_perm"
  type: "Permute"
  bottom: "conv9_2_mbox_loc"
  top: "conv9_2_mbox_loc_perm"
  permute_param {
    order: 0
    order: 2
    order: 3
    order: 1
  }
}
layer {
  name: "conv9_2_mbox_loc_flat"
  type: "Flatten"
  bottom: "conv9_2_mbox_loc_perm"
  top: "conv9_2_mbox_loc_flat"
  flatten_param {
    axis: 1
  }
}
layer {
  name: "conv9_2_mbox_conf"
  type: "Convolution"
  bottom: "conv9_2"
  top: "conv9_2_mbox_conf"
  param {
    lr_mult: 1
    decay_mult: 1
  }
  param {
    lr_mult: 2
    decay_mult: 0
  }
  convolution_param {
    num_output: 18
    pad: 1
    kernel_size: 3
    stride: 1
    weight_filler {
      type: "xavier"
    }
    bias_filler {
      type: "constant"
      value: 0
    }
  }
}
layer {
  name: "conv9_2_mbox_conf_perm"
  type: "Permute"
  bottom: "conv9_2_mbox_conf"
  top: "conv9_2_mbox_conf_perm"
  permute_param {
    order: 0
    order: 2
    order: 3
    order: 1
  }
}
layer {
  name: "conv9_2_mbox_conf_flat"
  type: "Flatten"
  bottom: "conv9_2_mbox_conf_perm"
  top: "conv9_2_mbox_conf_flat"
  flatten_param {
    axis: 1
  }
}
layer {
  name: "conv9_2_mbox_priorbox"
  type: "PriorBox"
  bottom: "conv9_2"
  bottom: "data"
  top: "conv9_2_mbox_priorbox"
  prior_box_param {
    min_size: 230.4
    max_size: 307.2
    aspect_ratio: 2
    aspect_ratio: 3
    flip: true
    clip: false
    variance: 0.1
    variance: 0.1
    variance: 0.2
    variance: 0.2
    step: 64
    offset: 0.5
  }
}
layer {
  name: "conv10_2_mbox_loc"
  type: "Convolution"
  bottom: "conv10_2"
  top: "conv10_2_mbox_loc"
  param {
    lr_mult: 1
    decay_mult: 1
  }
  param {
    lr_mult: 2
    decay_mult: 0
  }
  convolution_param {
    num_output: 24
    pad: 1
    kernel_size: 3
    stride: 1
    weight_filler {
      type: "xavier"
    }
    bias_filler {
      type: "constant"
      value: 0
    }
  }
}
layer {
  name: "conv10_2_mbox_loc_perm"
  type: "Permute"
  bottom: "conv10_2_mbox_loc"
  top: "conv10_2_mbox_loc_perm"
  permute_param {
    order: 0
    order: 2
    order: 3
    order: 1
  }
}
layer {
  name: "conv10_2_mbox_loc_flat"
  type: "Flatten"
  bottom: "conv10_2_mbox_loc_perm"
  top: "conv10_2_mbox_loc_flat"
  flatten_param {
    axis: 1
  }
}
layer {
  name: "conv10_2_mbox_conf"
  type: "Convolution"
  bottom: "conv10_2"
  top: "conv10_2_mbox_conf"
  param {
    lr_mult: 1
    decay_mult: 1
  }
  param {
    lr_mult: 2
    decay_mult: 0
  }
  convolution_param {
    num_output: 18
    pad: 1
    kernel_size: 3
    stride: 1
    weight_filler {
      type: "xavier"
    }
    bias_filler {
      type: "constant"
      value: 0
    }
  }
}
layer {
  name: "conv10_2_mbox_conf_perm"
  type: "Permute"
  bottom: "conv10_2_mbox_conf"
  top: "conv10_2_mbox_conf_perm"
  permute_param {
    order: 0
    order: 2
    order: 3
    order: 1
  }
}
layer {
  name: "conv10_2_mbox_conf_flat"
  type: "Flatten"
  bottom: "conv10_2_mbox_conf_perm"
  top: "conv10_2_mbox_conf_flat"
  flatten_param {
    axis: 1
  }
}
layer {
  name: "conv10_2_mbox_priorbox"
  type: "PriorBox"
  bottom: "conv10_2"
  bottom: "data"
  top: "conv10_2_mbox_priorbox"
  prior_box_param {
    min_size: 307.2
    max_size: 384
    aspect_ratio: 2
    aspect_ratio: 3
    flip: true
    clip: false
    variance: 0.1
    variance: 0.1
    variance: 0.2
    variance: 0.2
    step: 128
    offset: 0.5
  }
}
layer {
  name: "conv11_2_mbox_loc"
  type: "Convolution"
  bottom: "conv11_2"
  top: "conv11_2_mbox_loc"
  param {
    lr_mult: 1
    decay_mult: 1
  }
  param {
    lr_mult: 2
    decay_mult: 0
  }
  convolution_param {
    num_output: 16
    pad: 1
    kernel_size: 3
    stride: 1
    weight_filler {
      type: "xavier"
    }
    bias_filler {
      type: "constant"
      value: 0
    }
  }
}
layer {
  name: "conv11_2_mbox_loc_perm"
  type: "Permute"
  bottom: "conv11_2_mbox_loc"
  top: "conv11_2_mbox_loc_perm"
  permute_param {
    order: 0
    order: 2
    order: 3
    order: 1
  }
}
layer {
  name: "conv11_2_mbox_loc_flat"
  type: "Flatten"
  bottom: "conv11_2_mbox_loc_perm"
  top: "conv11_2_mbox_loc_flat"
  flatten_param {
    axis: 1
  }
}
layer {
  name: "conv11_2_mbox_conf"
  type: "Convolution"
  bottom: "conv11_2"
  top: "conv11_2_mbox_conf"
  param {
    lr_mult: 1
    decay_mult: 1
  }
  param {
    lr_mult: 2
    decay_mult: 0
  }
  convolution_param {
    num_output: 12
    pad: 1
    kernel_size: 3
    stride: 1
    weight_filler {
      type: "xavier"
    }
    bias_filler {
      type: "constant"
      value: 0
    }
  }
}
layer {
  name: "conv11_2_mbox_conf_perm"
  type: "Permute"
  bottom: "conv11_2_mbox_conf"
  top: "conv11_2_mbox_conf_perm"
  permute_param {
    order: 0
    order: 2
    order: 3
    order: 1
  }
}
layer {
  name: "conv11_2_mbox_conf_flat"
  type: "Flatten"
  bottom: "conv11_2_mbox_conf_perm"
  top: "conv11_2_mbox_conf_flat"
  flatten_param {
    axis: 1
  }
}
layer {
  name: "conv11_2_mbox_priorbox"
  type: "PriorBox"
  bottom: "conv11_2"
  bottom: "data"
  top: "conv11_2_mbox_priorbox"
  prior_box_param {
    min_size: 384
    max_size: 460.8
    aspect_ratio: 2
    flip: true
    clip: false
    variance: 0.1
    variance: 0.1
    variance: 0.2
    variance: 0.2
    step: 256
    offset: 0.5
  }
}
layer {
  name: "conv12_2_mbox_loc"
  type: "Convolution"
  bottom: "conv12_2"
  top: "conv12_2_mbox_loc"
  param {
    lr_mult: 1
    decay_mult: 1
  }
  param {
    lr_mult: 2
    decay_mult: 0
  }
  convolution_param {
    num_output: 16
    pad: 1
    kernel_size: 3
    stride: 1
    weight_filler {
      type: "xavier"
    }
    bias_filler {
      type: "constant"
      value: 0
    }
  }
}
layer {
  name: "conv12_2_mbox_loc_perm"
  type: "Permute"
  bottom: "conv12_2_mbox_loc"
  top: "conv12_2_mbox_loc_perm"
  permute_param {
    order: 0
    order: 2
    order: 3
    order: 1
  }
}
layer {
  name: "conv12_2_mbox_loc_flat"
  type: "Flatten"
  bottom: "conv12_2_mbox_loc_perm"
  top: "conv12_2_mbox_loc_flat"
  flatten_param {
    axis: 1
  }
}
layer {
  name: "conv12_2_mbox_conf"
  type: "Convolution"
  bottom: "conv12_2"
  top: "conv12_2_mbox_conf"
  param {
    lr_mult: 1
    decay_mult: 1
  }
  param {
    lr_mult: 2
    decay_mult: 0
  }
  convolution_param {
    num_output: 12
    pad: 1
    kernel_size: 3
    stride: 1
    weight_filler {
      type: "xavier"
    }
    bias_filler {
      type: "constant"
      value: 0
    }
  }
}
layer {
  name: "conv12_2_mbox_conf_perm"
  type: "Permute"
  bottom: "conv12_2_mbox_conf"
  top: "conv12_2_mbox_conf_perm"
  permute_param {
    order: 0
    order: 2
    order: 3
    order: 1
  }
}
layer {
  name: "conv12_2_mbox_conf_flat"
  type: "Flatten"
  bottom: "conv12_2_mbox_conf_perm"
  top: "conv12_2_mbox_conf_flat"
  flatten_param {
    axis: 1
  }
}
layer {
  name: "conv12_2_mbox_priorbox"
  type: "PriorBox"
  bottom: "conv12_2"
  bottom: "data"
  top: "conv12_2_mbox_priorbox"
  prior_box_param {
    min_size: 460.8
    max_size: 537.6
    aspect_ratio: 2
    flip: true
    clip: false
    variance: 0.1
    variance: 0.1
    variance: 0.2
    variance: 0.2
    step: 512
    offset: 0.5
  }
}
layer {
  name: "mbox_loc"
  type: "Concat"
  bottom: "conv4_3_norm_mbox_loc_flat"
  bottom: "fc7_mbox_loc_flat"
  bottom: "conv8_2_mbox_loc_flat"
  bottom: "conv9_2_mbox_loc_flat"
  bottom: "conv10_2_mbox_loc_flat"
  bottom: "conv11_2_mbox_loc_flat"
  bottom: "conv12_2_mbox_loc_flat"
  top: "mbox_loc"
  concat_param {
    axis: 1
  }
}
layer {
  name: "mbox_conf"
  type: "Concat"
  bottom: "conv4_3_norm_mbox_conf_flat"
  bottom: "fc7_mbox_conf_flat"
  bottom: "conv8_2_mbox_conf_flat"
  bottom: "conv9_2_mbox_conf_flat"
  bottom: "conv10_2_mbox_conf_flat"
  bottom: "conv11_2_mbox_conf_flat"
  bottom: "conv12_2_mbox_conf_flat"
  top: "mbox_conf"
  concat_param {
    axis: 1
  }
}
layer {
  name: "mbox_priorbox"
  type: "Concat"
  bottom: "conv4_3_norm_mbox_priorbox"
  bottom: "fc7_mbox_priorbox"
  bottom: "conv8_2_mbox_priorbox"
  bottom: "conv9_2_mbox_priorbox"
  bottom: "conv10_2_mbox_priorbox"
  bottom: "conv11_2_mbox_priorbox"
  bottom: "conv12_2_mbox_priorbox"
  top: "mbox_priorbox"
  concat_param {
    axis: 2
  }
}
layer {
  name: "mbox_conf_reshape"
  type: "Reshape"
  bottom: "mbox_conf"
  top: "mbox_conf_reshape"
  reshape_param {
    shape {
      dim: 0
      dim: -1
      dim: 3
    }
  }
}
layer {
  name: "mbox_conf_softmax"
  type: "Softmax"
  bottom: "mbox_conf_reshape"
  top: "mbox_conf_softmax"
  softmax_param {
    axis: 2
  }
}
layer {
  name: "mbox_conf_flatten"
  type: "Flatten"
  bottom: "mbox_conf_softmax"
  top: "mbox_conf_flatten"
  flatten_param {
    axis: 1
  }
}
layer {
  name: "detection_out"
  type: "DetectionOutput"
  bottom: "mbox_loc"
  bottom: "mbox_conf_flatten"
  bottom: "mbox_priorbox"
  top: "detection_out"
  include {
    phase: TEST
  }
  detection_output_param {
    num_classes: 3
    share_location: true
    background_label_id: 0
    nms_param {
      nms_threshold: 0.45
      top_k: 400
    }
    code_type: CENTER_SIZE
    keep_top_k: 200
    confidence_threshold: 0.01
  }
}
layer {
  name: "slience"
  type: "Silence"
  bottom: "detection_out"
  include {
    phase: TEST
  }
}
I0820 09:14:24.720252  1992 layer_factory.hpp:77] Creating layer data
I0820 09:14:24.720252  1992 net.cpp:100] Creating Layer data
I0820 09:14:24.720252  1992 net.cpp:408] data -> data
I0820 09:14:24.721251 18468 common.cpp:36] System entropy source not available, using fallback algorithm to generate seed instead.
I0820 09:14:24.721251 18468 db_lmdb.cpp:40] Opened lmdb examples\wastedata\wastedata_test_lmdb
I0820 09:14:24.737208  1992 annotated_data_layer.cpp:62] output data size: 8,3,512,512
I0820 09:14:24.776103  1992 net.cpp:150] Setting up data
I0820 09:14:24.776103  1992 net.cpp:157] Top shape: 8 3 512 512 (6291456)
I0820 09:14:24.776103  1992 net.cpp:165] Memory required for data: 25165824
I0820 09:14:24.776103  1992 layer_factory.hpp:77] Creating layer data_data_0_split
I0820 09:14:24.776103  1992 net.cpp:100] Creating Layer data_data_0_split
I0820 09:14:24.776103  1992 net.cpp:434] data_data_0_split <- data
I0820 09:14:24.776103  1992 net.cpp:408] data_data_0_split -> data_data_0_split_0
I0820 09:14:24.776103  1992 net.cpp:408] data_data_0_split -> data_data_0_split_1
I0820 09:14:24.776103  1992 net.cpp:408] data_data_0_split -> data_data_0_split_2
I0820 09:14:24.776103  1992 net.cpp:408] data_data_0_split -> data_data_0_split_3
I0820 09:14:24.776103  1992 net.cpp:408] data_data_0_split -> data_data_0_split_4
I0820 09:14:24.776103  1992 net.cpp:408] data_data_0_split -> data_data_0_split_5
I0820 09:14:24.776103  1992 net.cpp:408] data_data_0_split -> data_data_0_split_6
I0820 09:14:24.776103  1992 net.cpp:408] data_data_0_split -> data_data_0_split_7
I0820 09:14:24.777101  1992 net.cpp:150] Setting up data_data_0_split
I0820 09:14:24.777101  1992 net.cpp:157] Top shape: 8 3 512 512 (6291456)
I0820 09:14:24.777101  1992 net.cpp:157] Top shape: 8 3 512 512 (6291456)
I0820 09:14:24.777101  1992 net.cpp:157] Top shape: 8 3 512 512 (6291456)
I0820 09:14:24.777101  1992 net.cpp:157] Top shape: 8 3 512 512 (6291456)
I0820 09:14:24.777101  1992 net.cpp:157] Top shape: 8 3 512 512 (6291456)
I0820 09:14:24.777101  1992 net.cpp:157] Top shape: 8 3 512 512 (6291456)
I0820 09:14:24.777101  1992 net.cpp:157] Top shape: 8 3 512 512 (6291456)
I0820 09:14:24.777101  1992 net.cpp:157] Top shape: 8 3 512 512 (6291456)
I0820 09:14:24.777101  1992 net.cpp:165] Memory required for data: 226492416
I0820 09:14:24.777101  1992 layer_factory.hpp:77] Creating layer conv1_1
I0820 09:14:24.777101  1992 net.cpp:100] Creating Layer conv1_1
I0820 09:14:24.777101  1992 net.cpp:434] conv1_1 <- data_data_0_split_0
I0820 09:14:24.777101  1992 net.cpp:408] conv1_1 -> conv1_1
I0820 09:14:24.777101 14744 common.cpp:36] System entropy source not available, using fallback algorithm to generate seed instead.
I0820 09:14:24.780092  1992 net.cpp:150] Setting up conv1_1
I0820 09:14:24.780092  1992 net.cpp:157] Top shape: 8 64 512 512 (134217728)
I0820 09:14:24.780092  1992 net.cpp:165] Memory required for data: 763363328
I0820 09:14:24.780092  1992 layer_factory.hpp:77] Creating layer relu1_1
I0820 09:14:24.780092  1992 net.cpp:100] Creating Layer relu1_1
I0820 09:14:24.780092  1992 net.cpp:434] relu1_1 <- conv1_1
I0820 09:14:24.780092  1992 net.cpp:395] relu1_1 -> conv1_1 (in-place)
I0820 09:14:24.780092  1992 net.cpp:150] Setting up relu1_1
I0820 09:14:24.780092  1992 net.cpp:157] Top shape: 8 64 512 512 (134217728)
I0820 09:14:24.780092  1992 net.cpp:165] Memory required for data: 1300234240
I0820 09:14:24.780092  1992 layer_factory.hpp:77] Creating layer conv1_2
I0820 09:14:24.780092  1992 net.cpp:100] Creating Layer conv1_2
I0820 09:14:24.780092  1992 net.cpp:434] conv1_2 <- conv1_1
I0820 09:14:24.780092  1992 net.cpp:408] conv1_2 -> conv1_2
I0820 09:14:24.784081  1992 net.cpp:150] Setting up conv1_2
I0820 09:14:24.784081  1992 net.cpp:157] Top shape: 8 64 512 512 (134217728)
I0820 09:14:24.784081  1992 net.cpp:165] Memory required for data: 1837105152
I0820 09:14:24.784081  1992 layer_factory.hpp:77] Creating layer relu1_2
I0820 09:14:24.784081  1992 net.cpp:100] Creating Layer relu1_2
I0820 09:14:24.784081  1992 net.cpp:434] relu1_2 <- conv1_2
I0820 09:14:24.784081  1992 net.cpp:395] relu1_2 -> conv1_2 (in-place)
I0820 09:14:24.784081  1992 net.cpp:150] Setting up relu1_2
I0820 09:14:24.784081  1992 net.cpp:157] Top shape: 8 64 512 512 (134217728)
I0820 09:14:24.784081  1992 net.cpp:165] Memory required for data: 2373976064
I0820 09:14:24.784081  1992 layer_factory.hpp:77] Creating layer pool1
I0820 09:14:24.784081  1992 net.cpp:100] Creating Layer pool1
I0820 09:14:24.784081  1992 net.cpp:434] pool1 <- conv1_2
I0820 09:14:24.784081  1992 net.cpp:408] pool1 -> pool1
I0820 09:14:24.785079  1992 net.cpp:150] Setting up pool1
I0820 09:14:24.785079  1992 net.cpp:157] Top shape: 8 64 256 256 (33554432)
I0820 09:14:24.785079  1992 net.cpp:165] Memory required for data: 2508193792
I0820 09:14:24.785079  1992 layer_factory.hpp:77] Creating layer conv2_1
I0820 09:14:24.785079  1992 net.cpp:100] Creating Layer conv2_1
I0820 09:14:24.785079  1992 net.cpp:434] conv2_1 <- pool1
I0820 09:14:24.785079  1992 net.cpp:408] conv2_1 -> conv2_1
I0820 09:14:24.788071  1992 net.cpp:150] Setting up conv2_1
I0820 09:14:24.788071  1992 net.cpp:157] Top shape: 8 128 256 256 (67108864)
I0820 09:14:24.788071  1992 net.cpp:165] Memory required for data: 2776629248
I0820 09:14:24.788071  1992 layer_factory.hpp:77] Creating layer relu2_1
I0820 09:14:24.788071  1992 net.cpp:100] Creating Layer relu2_1
I0820 09:14:24.788071  1992 net.cpp:434] relu2_1 <- conv2_1
I0820 09:14:24.788071  1992 net.cpp:395] relu2_1 -> conv2_1 (in-place)
I0820 09:14:24.789068  1992 net.cpp:150] Setting up relu2_1
I0820 09:14:24.789068  1992 net.cpp:157] Top shape: 8 128 256 256 (67108864)
I0820 09:14:24.789068  1992 net.cpp:165] Memory required for data: 3045064704
I0820 09:14:24.789068  1992 layer_factory.hpp:77] Creating layer conv2_2
I0820 09:14:24.789068  1992 net.cpp:100] Creating Layer conv2_2
I0820 09:14:24.789068  1992 net.cpp:434] conv2_2 <- conv2_1
I0820 09:14:24.789068  1992 net.cpp:408] conv2_2 -> conv2_2
I0820 09:14:24.796049  1992 net.cpp:150] Setting up conv2_2
I0820 09:14:24.796049  1992 net.cpp:157] Top shape: 8 128 256 256 (67108864)
I0820 09:14:24.796049  1992 net.cpp:165] Memory required for data: 3313500160
I0820 09:14:24.797060  1992 layer_factory.hpp:77] Creating layer relu2_2
I0820 09:14:24.797060  1992 net.cpp:100] Creating Layer relu2_2
I0820 09:14:24.797060  1992 net.cpp:434] relu2_2 <- conv2_2
I0820 09:14:24.797060  1992 net.cpp:395] relu2_2 -> conv2_2 (in-place)
I0820 09:14:24.797060  1992 net.cpp:150] Setting up relu2_2
I0820 09:14:24.797060  1992 net.cpp:157] Top shape: 8 128 256 256 (67108864)
I0820 09:14:24.797060  1992 net.cpp:165] Memory required for data: 3581935616
I0820 09:14:24.797060  1992 layer_factory.hpp:77] Creating layer pool2
I0820 09:14:24.797060  1992 net.cpp:100] Creating Layer pool2
I0820 09:14:24.797060  1992 net.cpp:434] pool2 <- conv2_2
I0820 09:14:24.797060  1992 net.cpp:408] pool2 -> pool2
I0820 09:14:24.797060  1992 net.cpp:150] Setting up pool2
I0820 09:14:24.797060  1992 net.cpp:157] Top shape: 8 128 128 128 (16777216)
I0820 09:14:24.797060  1992 net.cpp:165] Memory required for data: 3649044480
I0820 09:14:24.797060  1992 layer_factory.hpp:77] Creating layer conv3_1
I0820 09:14:24.797060  1992 net.cpp:100] Creating Layer conv3_1
I0820 09:14:24.797060  1992 net.cpp:434] conv3_1 <- pool2
I0820 09:14:24.797060  1992 net.cpp:408] conv3_1 -> conv3_1
I0820 09:14:24.802033  1992 net.cpp:150] Setting up conv3_1
I0820 09:14:24.802033  1992 net.cpp:157] Top shape: 8 256 128 128 (33554432)
I0820 09:14:24.802033  1992 net.cpp:165] Memory required for data: 3783262208
I0820 09:14:24.802033  1992 layer_factory.hpp:77] Creating layer relu3_1
I0820 09:14:24.802033  1992 net.cpp:100] Creating Layer relu3_1
I0820 09:14:24.802033  1992 net.cpp:434] relu3_1 <- conv3_1
I0820 09:14:24.802033  1992 net.cpp:395] relu3_1 -> conv3_1 (in-place)
I0820 09:14:24.804028  1992 net.cpp:150] Setting up relu3_1
I0820 09:14:24.804028  1992 net.cpp:157] Top shape: 8 256 128 128 (33554432)
I0820 09:14:24.804028  1992 net.cpp:165] Memory required for data: 3917479936
I0820 09:14:24.804028  1992 layer_factory.hpp:77] Creating layer conv3_2
I0820 09:14:24.804028  1992 net.cpp:100] Creating Layer conv3_2
I0820 09:14:24.804028  1992 net.cpp:434] conv3_2 <- conv3_1
I0820 09:14:24.804028  1992 net.cpp:408] conv3_2 -> conv3_2
I0820 09:14:24.810012  1992 net.cpp:150] Setting up conv3_2
I0820 09:14:24.810012  1992 net.cpp:157] Top shape: 8 256 128 128 (33554432)
I0820 09:14:24.810012  1992 net.cpp:165] Memory required for data: 4051697664
I0820 09:14:24.810012  1992 layer_factory.hpp:77] Creating layer relu3_2
I0820 09:14:24.810012  1992 net.cpp:100] Creating Layer relu3_2
I0820 09:14:24.810012  1992 net.cpp:434] relu3_2 <- conv3_2
I0820 09:14:24.810012  1992 net.cpp:395] relu3_2 -> conv3_2 (in-place)
I0820 09:14:24.811009  1992 net.cpp:150] Setting up relu3_2
I0820 09:14:24.811009  1992 net.cpp:157] Top shape: 8 256 128 128 (33554432)
I0820 09:14:24.811009  1992 net.cpp:165] Memory required for data: 4185915392
I0820 09:14:24.811009  1992 layer_factory.hpp:77] Creating layer conv3_3
I0820 09:14:24.811009  1992 net.cpp:100] Creating Layer conv3_3
I0820 09:14:24.811009  1992 net.cpp:434] conv3_3 <- conv3_2
I0820 09:14:24.811009  1992 net.cpp:408] conv3_3 -> conv3_3
I0820 09:14:24.817991  1992 net.cpp:150] Setting up conv3_3
I0820 09:14:24.817991  1992 net.cpp:157] Top shape: 8 256 128 128 (33554432)
I0820 09:14:24.817991  1992 net.cpp:165] Memory required for data: 4320133120
I0820 09:14:24.817991  1992 layer_factory.hpp:77] Creating layer relu3_3
I0820 09:14:24.817991  1992 net.cpp:100] Creating Layer relu3_3
I0820 09:14:24.817991  1992 net.cpp:434] relu3_3 <- conv3_3
I0820 09:14:24.817991  1992 net.cpp:395] relu3_3 -> conv3_3 (in-place)
I0820 09:14:24.818989  1992 net.cpp:150] Setting up relu3_3
I0820 09:14:24.818989  1992 net.cpp:157] Top shape: 8 256 128 128 (33554432)
I0820 09:14:24.818989  1992 net.cpp:165] Memory required for data: 4454350848
I0820 09:14:24.818989  1992 layer_factory.hpp:77] Creating layer pool3
I0820 09:14:24.818989  1992 net.cpp:100] Creating Layer pool3
I0820 09:14:24.818989  1992 net.cpp:434] pool3 <- conv3_3
I0820 09:14:24.818989  1992 net.cpp:408] pool3 -> pool3
I0820 09:14:24.818989  1992 net.cpp:150] Setting up pool3
I0820 09:14:24.818989  1992 net.cpp:157] Top shape: 8 256 64 64 (8388608)
I0820 09:14:24.818989  1992 net.cpp:165] Memory required for data: 4487905280
I0820 09:14:24.818989  1992 layer_factory.hpp:77] Creating layer conv4_1
I0820 09:14:24.818989  1992 net.cpp:100] Creating Layer conv4_1
I0820 09:14:24.818989  1992 net.cpp:434] conv4_1 <- pool3
I0820 09:14:24.818989  1992 net.cpp:408] conv4_1 -> conv4_1
I0820 09:14:24.829959  1992 net.cpp:150] Setting up conv4_1
I0820 09:14:24.829959  1992 net.cpp:157] Top shape: 8 512 64 64 (16777216)
I0820 09:14:24.829959  1992 net.cpp:165] Memory required for data: 4555014144
I0820 09:14:24.829959  1992 layer_factory.hpp:77] Creating layer relu4_1
I0820 09:14:24.829959  1992 net.cpp:100] Creating Layer relu4_1
I0820 09:14:24.829959  1992 net.cpp:434] relu4_1 <- conv4_1
I0820 09:14:24.829959  1992 net.cpp:395] relu4_1 -> conv4_1 (in-place)
I0820 09:14:24.830956  1992 net.cpp:150] Setting up relu4_1
I0820 09:14:24.830956  1992 net.cpp:157] Top shape: 8 512 64 64 (16777216)
I0820 09:14:24.830956  1992 net.cpp:165] Memory required for data: 4622123008
I0820 09:14:24.830956  1992 layer_factory.hpp:77] Creating layer conv4_2
I0820 09:14:24.830956  1992 net.cpp:100] Creating Layer conv4_2
I0820 09:14:24.830956  1992 net.cpp:434] conv4_2 <- conv4_1
I0820 09:14:24.830956  1992 net.cpp:408] conv4_2 -> conv4_2
I0820 09:14:24.846915  1992 net.cpp:150] Setting up conv4_2
I0820 09:14:24.846915  1992 net.cpp:157] Top shape: 8 512 64 64 (16777216)
I0820 09:14:24.846915  1992 net.cpp:165] Memory required for data: 4689231872
I0820 09:14:24.846915  1992 layer_factory.hpp:77] Creating layer relu4_2
I0820 09:14:24.846915  1992 net.cpp:100] Creating Layer relu4_2
I0820 09:14:24.846915  1992 net.cpp:434] relu4_2 <- conv4_2
I0820 09:14:24.846915  1992 net.cpp:395] relu4_2 -> conv4_2 (in-place)
I0820 09:14:24.847924  1992 net.cpp:150] Setting up relu4_2
I0820 09:14:24.847924  1992 net.cpp:157] Top shape: 8 512 64 64 (16777216)
I0820 09:14:24.847924  1992 net.cpp:165] Memory required for data: 4756340736
I0820 09:14:24.847924  1992 layer_factory.hpp:77] Creating layer conv4_3
I0820 09:14:24.847924  1992 net.cpp:100] Creating Layer conv4_3
I0820 09:14:24.847924  1992 net.cpp:434] conv4_3 <- conv4_2
I0820 09:14:24.847924  1992 net.cpp:408] conv4_3 -> conv4_3
I0820 09:14:24.864867  1992 net.cpp:150] Setting up conv4_3
I0820 09:14:24.864867  1992 net.cpp:157] Top shape: 8 512 64 64 (16777216)
I0820 09:14:24.864867  1992 net.cpp:165] Memory required for data: 4823449600
I0820 09:14:24.864867  1992 layer_factory.hpp:77] Creating layer relu4_3
I0820 09:14:24.864867  1992 net.cpp:100] Creating Layer relu4_3
I0820 09:14:24.864867  1992 net.cpp:434] relu4_3 <- conv4_3
I0820 09:14:24.864867  1992 net.cpp:395] relu4_3 -> conv4_3 (in-place)
I0820 09:14:24.865864  1992 net.cpp:150] Setting up relu4_3
I0820 09:14:24.865864  1992 net.cpp:157] Top shape: 8 512 64 64 (16777216)
I0820 09:14:24.865864  1992 net.cpp:165] Memory required for data: 4890558464
I0820 09:14:24.865864  1992 layer_factory.hpp:77] Creating layer conv4_3_relu4_3_0_split
I0820 09:14:24.865864  1992 net.cpp:100] Creating Layer conv4_3_relu4_3_0_split
I0820 09:14:24.865864  1992 net.cpp:434] conv4_3_relu4_3_0_split <- conv4_3
I0820 09:14:24.865864  1992 net.cpp:408] conv4_3_relu4_3_0_split -> conv4_3_relu4_3_0_split_0
I0820 09:14:24.865864  1992 net.cpp:408] conv4_3_relu4_3_0_split -> conv4_3_relu4_3_0_split_1
I0820 09:14:24.865864  1992 net.cpp:150] Setting up conv4_3_relu4_3_0_split
I0820 09:14:24.865864  1992 net.cpp:157] Top shape: 8 512 64 64 (16777216)
I0820 09:14:24.865864  1992 net.cpp:157] Top shape: 8 512 64 64 (16777216)
I0820 09:14:24.865864  1992 net.cpp:165] Memory required for data: 5024776192
I0820 09:14:24.865864  1992 layer_factory.hpp:77] Creating layer pool4
I0820 09:14:24.865864  1992 net.cpp:100] Creating Layer pool4
I0820 09:14:24.865864  1992 net.cpp:434] pool4 <- conv4_3_relu4_3_0_split_0
I0820 09:14:24.865864  1992 net.cpp:408] pool4 -> pool4
I0820 09:14:24.865864  1992 net.cpp:150] Setting up pool4
I0820 09:14:24.865864  1992 net.cpp:157] Top shape: 8 512 32 32 (4194304)
I0820 09:14:24.865864  1992 net.cpp:165] Memory required for data: 5041553408
I0820 09:14:24.865864  1992 layer_factory.hpp:77] Creating layer conv5_1
I0820 09:14:24.866861  1992 net.cpp:100] Creating Layer conv5_1
I0820 09:14:24.866861  1992 net.cpp:434] conv5_1 <- pool4
I0820 09:14:24.866861  1992 net.cpp:408] conv5_1 -> conv5_1
I0820 09:14:24.882818  1992 net.cpp:150] Setting up conv5_1
I0820 09:14:24.882818  1992 net.cpp:157] Top shape: 8 512 32 32 (4194304)
I0820 09:14:24.882818  1992 net.cpp:165] Memory required for data: 5058330624
I0820 09:14:24.882818  1992 layer_factory.hpp:77] Creating layer relu5_1
I0820 09:14:24.882818  1992 net.cpp:100] Creating Layer relu5_1
I0820 09:14:24.882818  1992 net.cpp:434] relu5_1 <- conv5_1
I0820 09:14:24.882818  1992 net.cpp:395] relu5_1 -> conv5_1 (in-place)
I0820 09:14:24.882818  1992 net.cpp:150] Setting up relu5_1
I0820 09:14:24.882818  1992 net.cpp:157] Top shape: 8 512 32 32 (4194304)
I0820 09:14:24.882818  1992 net.cpp:165] Memory required for data: 5075107840
I0820 09:14:24.882818  1992 layer_factory.hpp:77] Creating layer conv5_2
I0820 09:14:24.882818  1992 net.cpp:100] Creating Layer conv5_2
I0820 09:14:24.882818  1992 net.cpp:434] conv5_2 <- conv5_1
I0820 09:14:24.882818  1992 net.cpp:408] conv5_2 -> conv5_2
I0820 09:14:24.899778  1992 net.cpp:150] Setting up conv5_2
I0820 09:14:24.899778  1992 net.cpp:157] Top shape: 8 512 32 32 (4194304)
I0820 09:14:24.899778  1992 net.cpp:165] Memory required for data: 5091885056
I0820 09:14:24.899778  1992 layer_factory.hpp:77] Creating layer relu5_2
I0820 09:14:24.899778  1992 net.cpp:100] Creating Layer relu5_2
I0820 09:14:24.899778  1992 net.cpp:434] relu5_2 <- conv5_2
I0820 09:14:24.900772  1992 net.cpp:395] relu5_2 -> conv5_2 (in-place)
I0820 09:14:24.900772  1992 net.cpp:150] Setting up relu5_2
I0820 09:14:24.900772  1992 net.cpp:157] Top shape: 8 512 32 32 (4194304)
I0820 09:14:24.900772  1992 net.cpp:165] Memory required for data: 5108662272
I0820 09:14:24.900772  1992 layer_factory.hpp:77] Creating layer conv5_3
I0820 09:14:24.900772  1992 net.cpp:100] Creating Layer conv5_3
I0820 09:14:24.900772  1992 net.cpp:434] conv5_3 <- conv5_2
I0820 09:14:24.900772  1992 net.cpp:408] conv5_3 -> conv5_3
I0820 09:14:24.918722  1992 net.cpp:150] Setting up conv5_3
I0820 09:14:24.918722  1992 net.cpp:157] Top shape: 8 512 32 32 (4194304)
I0820 09:14:24.918722  1992 net.cpp:165] Memory required for data: 5125439488
I0820 09:14:24.918722  1992 layer_factory.hpp:77] Creating layer relu5_3
I0820 09:14:24.918722  1992 net.cpp:100] Creating Layer relu5_3
I0820 09:14:24.918722  1992 net.cpp:434] relu5_3 <- conv5_3
I0820 09:14:24.918722  1992 net.cpp:395] relu5_3 -> conv5_3 (in-place)
I0820 09:14:24.919719  1992 net.cpp:150] Setting up relu5_3
I0820 09:14:24.919719  1992 net.cpp:157] Top shape: 8 512 32 32 (4194304)
I0820 09:14:24.919719  1992 net.cpp:165] Memory required for data: 5142216704
I0820 09:14:24.919719  1992 layer_factory.hpp:77] Creating layer pool5
I0820 09:14:24.919719  1992 net.cpp:100] Creating Layer pool5
I0820 09:14:24.919719  1992 net.cpp:434] pool5 <- conv5_3
I0820 09:14:24.919719  1992 net.cpp:408] pool5 -> pool5
I0820 09:14:24.920717  1992 net.cpp:150] Setting up pool5
I0820 09:14:24.920717  1992 net.cpp:157] Top shape: 8 512 32 32 (4194304)
I0820 09:14:24.920717  1992 net.cpp:165] Memory required for data: 5158993920
I0820 09:14:24.920717  1992 layer_factory.hpp:77] Creating layer fc6
I0820 09:14:24.920717  1992 net.cpp:100] Creating Layer fc6
I0820 09:14:24.920717  1992 net.cpp:434] fc6 <- pool5
I0820 09:14:24.920717  1992 net.cpp:408] fc6 -> fc6
I0820 09:14:24.948642  1992 net.cpp:150] Setting up fc6
I0820 09:14:24.948642  1992 net.cpp:157] Top shape: 8 1024 32 32 (8388608)
I0820 09:14:24.948642  1992 net.cpp:165] Memory required for data: 5192548352
I0820 09:14:24.948642  1992 layer_factory.hpp:77] Creating layer relu6
I0820 09:14:24.948642  1992 net.cpp:100] Creating Layer relu6
I0820 09:14:24.948642  1992 net.cpp:434] relu6 <- fc6
I0820 09:14:24.948642  1992 net.cpp:395] relu6 -> fc6 (in-place)
I0820 09:14:24.948642  1992 net.cpp:150] Setting up relu6
I0820 09:14:24.948642  1992 net.cpp:157] Top shape: 8 1024 32 32 (8388608)
I0820 09:14:24.948642  1992 net.cpp:165] Memory required for data: 5226102784
I0820 09:14:24.948642  1992 layer_factory.hpp:77] Creating layer fc7
I0820 09:14:24.948642  1992 net.cpp:100] Creating Layer fc7
I0820 09:14:24.948642  1992 net.cpp:434] fc7 <- fc6
I0820 09:14:24.948642  1992 net.cpp:408] fc7 -> fc7
I0820 09:14:24.957618  1992 net.cpp:150] Setting up fc7
I0820 09:14:24.957618  1992 net.cpp:157] Top shape: 8 1024 32 32 (8388608)
I0820 09:14:24.957618  1992 net.cpp:165] Memory required for data: 5259657216
I0820 09:14:24.957618  1992 layer_factory.hpp:77] Creating layer relu7
I0820 09:14:24.958616  1992 net.cpp:100] Creating Layer relu7
I0820 09:14:24.958616  1992 net.cpp:434] relu7 <- fc7
I0820 09:14:24.958616  1992 net.cpp:395] relu7 -> fc7 (in-place)
I0820 09:14:24.958616  1992 net.cpp:150] Setting up relu7
I0820 09:14:24.958616  1992 net.cpp:157] Top shape: 8 1024 32 32 (8388608)
I0820 09:14:24.958616  1992 net.cpp:165] Memory required for data: 5293211648
I0820 09:14:24.958616  1992 layer_factory.hpp:77] Creating layer fc7_relu7_0_split
I0820 09:14:24.958616  1992 net.cpp:100] Creating Layer fc7_relu7_0_split
I0820 09:14:24.958616  1992 net.cpp:434] fc7_relu7_0_split <- fc7
I0820 09:14:24.958616  1992 net.cpp:408] fc7_relu7_0_split -> fc7_relu7_0_split_0
I0820 09:14:24.958616  1992 net.cpp:408] fc7_relu7_0_split -> fc7_relu7_0_split_1
I0820 09:14:24.958616  1992 net.cpp:408] fc7_relu7_0_split -> fc7_relu7_0_split_2
I0820 09:14:24.958616  1992 net.cpp:408] fc7_relu7_0_split -> fc7_relu7_0_split_3
I0820 09:14:24.958616  1992 net.cpp:150] Setting up fc7_relu7_0_split
I0820 09:14:24.958616  1992 net.cpp:157] Top shape: 8 1024 32 32 (8388608)
I0820 09:14:24.958616  1992 net.cpp:157] Top shape: 8 1024 32 32 (8388608)
I0820 09:14:24.958616  1992 net.cpp:157] Top shape: 8 1024 32 32 (8388608)
I0820 09:14:24.958616  1992 net.cpp:157] Top shape: 8 1024 32 32 (8388608)
I0820 09:14:24.958616  1992 net.cpp:165] Memory required for data: 5427429376
I0820 09:14:24.958616  1992 layer_factory.hpp:77] Creating layer conv8_1
I0820 09:14:24.958616  1992 net.cpp:100] Creating Layer conv8_1
I0820 09:14:24.959614  1992 net.cpp:434] conv8_1 <- fc7_relu7_0_split_0
I0820 09:14:24.959614  1992 net.cpp:408] conv8_1 -> conv8_1
I0820 09:14:24.963603  1992 net.cpp:150] Setting up conv8_1
I0820 09:14:24.963603  1992 net.cpp:157] Top shape: 8 256 32 32 (2097152)
I0820 09:14:24.963603  1992 net.cpp:165] Memory required for data: 5435817984
I0820 09:14:24.963603  1992 layer_factory.hpp:77] Creating layer conv8_1_relu
I0820 09:14:24.963603  1992 net.cpp:100] Creating Layer conv8_1_relu
I0820 09:14:24.963603  1992 net.cpp:434] conv8_1_relu <- conv8_1
I0820 09:14:24.963603  1992 net.cpp:395] conv8_1_relu -> conv8_1 (in-place)
I0820 09:14:24.964599  1992 net.cpp:150] Setting up conv8_1_relu
I0820 09:14:24.964599  1992 net.cpp:157] Top shape: 8 256 32 32 (2097152)
I0820 09:14:24.964599  1992 net.cpp:165] Memory required for data: 5444206592
I0820 09:14:24.964599  1992 layer_factory.hpp:77] Creating layer conv8_2
I0820 09:14:24.964599  1992 net.cpp:100] Creating Layer conv8_2
I0820 09:14:24.964599  1992 net.cpp:434] conv8_2 <- conv8_1
I0820 09:14:24.964599  1992 net.cpp:408] conv8_2 -> conv8_2
I0820 09:14:24.974573  1992 net.cpp:150] Setting up conv8_2
I0820 09:14:24.974573  1992 net.cpp:157] Top shape: 8 512 16 16 (1048576)
I0820 09:14:24.974573  1992 net.cpp:165] Memory required for data: 5448400896
I0820 09:14:24.974573  1992 layer_factory.hpp:77] Creating layer conv8_2_relu
I0820 09:14:24.974573  1992 net.cpp:100] Creating Layer conv8_2_relu
I0820 09:14:24.974573  1992 net.cpp:434] conv8_2_relu <- conv8_2
I0820 09:14:24.974573  1992 net.cpp:395] conv8_2_relu -> conv8_2 (in-place)
I0820 09:14:24.975570  1992 net.cpp:150] Setting up conv8_2_relu
I0820 09:14:24.975570  1992 net.cpp:157] Top shape: 8 512 16 16 (1048576)
I0820 09:14:24.975570  1992 net.cpp:165] Memory required for data: 5452595200
I0820 09:14:24.975570  1992 layer_factory.hpp:77] Creating layer conv8_2_conv8_2_relu_0_split
I0820 09:14:24.975570  1992 net.cpp:100] Creating Layer conv8_2_conv8_2_relu_0_split
I0820 09:14:24.975570  1992 net.cpp:434] conv8_2_conv8_2_relu_0_split <- conv8_2
I0820 09:14:24.975570  1992 net.cpp:408] conv8_2_conv8_2_relu_0_split -> conv8_2_conv8_2_relu_0_split_0
I0820 09:14:24.975570  1992 net.cpp:408] conv8_2_conv8_2_relu_0_split -> conv8_2_conv8_2_relu_0_split_1
I0820 09:14:24.975570  1992 net.cpp:408] conv8_2_conv8_2_relu_0_split -> conv8_2_conv8_2_relu_0_split_2
I0820 09:14:24.975570  1992 net.cpp:408] conv8_2_conv8_2_relu_0_split -> conv8_2_conv8_2_relu_0_split_3
I0820 09:14:24.975570  1992 net.cpp:150] Setting up conv8_2_conv8_2_relu_0_split
I0820 09:14:24.975570  1992 net.cpp:157] Top shape: 8 512 16 16 (1048576)
I0820 09:14:24.975570  1992 net.cpp:157] Top shape: 8 512 16 16 (1048576)
I0820 09:14:24.975570  1992 net.cpp:157] Top shape: 8 512 16 16 (1048576)
I0820 09:14:24.975570  1992 net.cpp:157] Top shape: 8 512 16 16 (1048576)
I0820 09:14:24.975570  1992 net.cpp:165] Memory required for data: 5469372416
I0820 09:14:24.975570  1992 layer_factory.hpp:77] Creating layer conv9_1
I0820 09:14:24.975570  1992 net.cpp:100] Creating Layer conv9_1
I0820 09:14:24.975570  1992 net.cpp:434] conv9_1 <- conv8_2_conv8_2_relu_0_split_0
I0820 09:14:24.975570  1992 net.cpp:408] conv9_1 -> conv9_1
I0820 09:14:24.977566  1992 net.cpp:150] Setting up conv9_1
I0820 09:14:24.977566  1992 net.cpp:157] Top shape: 8 128 16 16 (262144)
I0820 09:14:24.977566  1992 net.cpp:165] Memory required for data: 5470420992
I0820 09:14:24.977566  1992 layer_factory.hpp:77] Creating layer conv9_1_relu
I0820 09:14:24.977566  1992 net.cpp:100] Creating Layer conv9_1_relu
I0820 09:14:24.977566  1992 net.cpp:434] conv9_1_relu <- conv9_1
I0820 09:14:24.977566  1992 net.cpp:395] conv9_1_relu -> conv9_1 (in-place)
I0820 09:14:24.978562  1992 net.cpp:150] Setting up conv9_1_relu
I0820 09:14:24.978562  1992 net.cpp:157] Top shape: 8 128 16 16 (262144)
I0820 09:14:24.978562  1992 net.cpp:165] Memory required for data: 5471469568
I0820 09:14:24.978562  1992 layer_factory.hpp:77] Creating layer conv9_2
I0820 09:14:24.978562  1992 net.cpp:100] Creating Layer conv9_2
I0820 09:14:24.978562  1992 net.cpp:434] conv9_2 <- conv9_1
I0820 09:14:24.978562  1992 net.cpp:408] conv9_2 -> conv9_2
I0820 09:14:24.983549  1992 net.cpp:150] Setting up conv9_2
I0820 09:14:24.983549  1992 net.cpp:157] Top shape: 8 256 8 8 (131072)
I0820 09:14:24.983549  1992 net.cpp:165] Memory required for data: 5471993856
I0820 09:14:24.983549  1992 layer_factory.hpp:77] Creating layer conv9_2_relu
I0820 09:14:24.983549  1992 net.cpp:100] Creating Layer conv9_2_relu
I0820 09:14:24.983549  1992 net.cpp:434] conv9_2_relu <- conv9_2
I0820 09:14:24.983549  1992 net.cpp:395] conv9_2_relu -> conv9_2 (in-place)
I0820 09:14:24.984546  1992 net.cpp:150] Setting up conv9_2_relu
I0820 09:14:24.984546  1992 net.cpp:157] Top shape: 8 256 8 8 (131072)
I0820 09:14:24.984546  1992 net.cpp:165] Memory required for data: 5472518144
I0820 09:14:24.984546  1992 layer_factory.hpp:77] Creating layer conv9_2_conv9_2_relu_0_split
I0820 09:14:24.984546  1992 net.cpp:100] Creating Layer conv9_2_conv9_2_relu_0_split
I0820 09:14:24.984546  1992 net.cpp:434] conv9_2_conv9_2_relu_0_split <- conv9_2
I0820 09:14:24.984546  1992 net.cpp:408] conv9_2_conv9_2_relu_0_split -> conv9_2_conv9_2_relu_0_split_0
I0820 09:14:24.984546  1992 net.cpp:408] conv9_2_conv9_2_relu_0_split -> conv9_2_conv9_2_relu_0_split_1
I0820 09:14:24.984546  1992 net.cpp:408] conv9_2_conv9_2_relu_0_split -> conv9_2_conv9_2_relu_0_split_2
I0820 09:14:24.984546  1992 net.cpp:408] conv9_2_conv9_2_relu_0_split -> conv9_2_conv9_2_relu_0_split_3
I0820 09:14:24.984546  1992 net.cpp:150] Setting up conv9_2_conv9_2_relu_0_split
I0820 09:14:24.984546  1992 net.cpp:157] Top shape: 8 256 8 8 (131072)
I0820 09:14:24.984546  1992 net.cpp:157] Top shape: 8 256 8 8 (131072)
I0820 09:14:24.984546  1992 net.cpp:157] Top shape: 8 256 8 8 (131072)
I0820 09:14:24.984546  1992 net.cpp:157] Top shape: 8 256 8 8 (131072)
I0820 09:14:24.984546  1992 net.cpp:165] Memory required for data: 5474615296
I0820 09:14:24.984546  1992 layer_factory.hpp:77] Creating layer conv10_1
I0820 09:14:24.984546  1992 net.cpp:100] Creating Layer conv10_1
I0820 09:14:24.984546  1992 net.cpp:434] conv10_1 <- conv9_2_conv9_2_relu_0_split_0
I0820 09:14:24.984546  1992 net.cpp:408] conv10_1 -> conv10_1
I0820 09:14:24.986541  1992 net.cpp:150] Setting up conv10_1
I0820 09:14:24.986541  1992 net.cpp:157] Top shape: 8 128 8 8 (65536)
I0820 09:14:24.986541  1992 net.cpp:165] Memory required for data: 5474877440
I0820 09:14:24.986541  1992 layer_factory.hpp:77] Creating layer conv10_1_relu
I0820 09:14:24.986541  1992 net.cpp:100] Creating Layer conv10_1_relu
I0820 09:14:24.986541  1992 net.cpp:434] conv10_1_relu <- conv10_1
I0820 09:14:24.986541  1992 net.cpp:395] conv10_1_relu -> conv10_1 (in-place)
I0820 09:14:24.987538  1992 net.cpp:150] Setting up conv10_1_relu
I0820 09:14:24.987538  1992 net.cpp:157] Top shape: 8 128 8 8 (65536)
I0820 09:14:24.987538  1992 net.cpp:165] Memory required for data: 5475139584
I0820 09:14:24.987538  1992 layer_factory.hpp:77] Creating layer conv10_2
I0820 09:14:24.987538  1992 net.cpp:100] Creating Layer conv10_2
I0820 09:14:24.987538  1992 net.cpp:434] conv10_2 <- conv10_1
I0820 09:14:24.987538  1992 net.cpp:408] conv10_2 -> conv10_2
I0820 09:14:24.992524  1992 net.cpp:150] Setting up conv10_2
I0820 09:14:24.992524  1992 net.cpp:157] Top shape: 8 256 4 4 (32768)
I0820 09:14:24.992524  1992 net.cpp:165] Memory required for data: 5475270656
I0820 09:14:24.992524  1992 layer_factory.hpp:77] Creating layer conv10_2_relu
I0820 09:14:24.992524  1992 net.cpp:100] Creating Layer conv10_2_relu
I0820 09:14:24.992524  1992 net.cpp:434] conv10_2_relu <- conv10_2
I0820 09:14:24.992524  1992 net.cpp:395] conv10_2_relu -> conv10_2 (in-place)
I0820 09:14:24.993522  1992 net.cpp:150] Setting up conv10_2_relu
I0820 09:14:24.993522  1992 net.cpp:157] Top shape: 8 256 4 4 (32768)
I0820 09:14:24.993522  1992 net.cpp:165] Memory required for data: 5475401728
I0820 09:14:24.993522  1992 layer_factory.hpp:77] Creating layer conv10_2_conv10_2_relu_0_split
I0820 09:14:24.993522  1992 net.cpp:100] Creating Layer conv10_2_conv10_2_relu_0_split
I0820 09:14:24.993522  1992 net.cpp:434] conv10_2_conv10_2_relu_0_split <- conv10_2
I0820 09:14:24.993522  1992 net.cpp:408] conv10_2_conv10_2_relu_0_split -> conv10_2_conv10_2_relu_0_split_0
I0820 09:14:24.993522  1992 net.cpp:408] conv10_2_conv10_2_relu_0_split -> conv10_2_conv10_2_relu_0_split_1
I0820 09:14:24.993522  1992 net.cpp:408] conv10_2_conv10_2_relu_0_split -> conv10_2_conv10_2_relu_0_split_2
I0820 09:14:24.993522  1992 net.cpp:408] conv10_2_conv10_2_relu_0_split -> conv10_2_conv10_2_relu_0_split_3
I0820 09:14:24.993522  1992 net.cpp:150] Setting up conv10_2_conv10_2_relu_0_split
I0820 09:14:24.993522  1992 net.cpp:157] Top shape: 8 256 4 4 (32768)
I0820 09:14:24.993522  1992 net.cpp:157] Top shape: 8 256 4 4 (32768)
I0820 09:14:24.993522  1992 net.cpp:157] Top shape: 8 256 4 4 (32768)
I0820 09:14:24.993522  1992 net.cpp:157] Top shape: 8 256 4 4 (32768)
I0820 09:14:24.993522  1992 net.cpp:165] Memory required for data: 5475926016
I0820 09:14:24.993522  1992 layer_factory.hpp:77] Creating layer conv11_1
I0820 09:14:24.993522  1992 net.cpp:100] Creating Layer conv11_1
I0820 09:14:24.993522  1992 net.cpp:434] conv11_1 <- conv10_2_conv10_2_relu_0_split_0
I0820 09:14:24.993522  1992 net.cpp:408] conv11_1 -> conv11_1
I0820 09:14:24.995517  1992 net.cpp:150] Setting up conv11_1
I0820 09:14:24.995517  1992 net.cpp:157] Top shape: 8 128 4 4 (16384)
I0820 09:14:24.995517  1992 net.cpp:165] Memory required for data: 5475991552
I0820 09:14:24.995517  1992 layer_factory.hpp:77] Creating layer conv11_1_relu
I0820 09:14:24.995517  1992 net.cpp:100] Creating Layer conv11_1_relu
I0820 09:14:24.995517  1992 net.cpp:434] conv11_1_relu <- conv11_1
I0820 09:14:24.995517  1992 net.cpp:395] conv11_1_relu -> conv11_1 (in-place)
I0820 09:14:24.996516  1992 net.cpp:150] Setting up conv11_1_relu
I0820 09:14:24.996516  1992 net.cpp:157] Top shape: 8 128 4 4 (16384)
I0820 09:14:24.996516  1992 net.cpp:165] Memory required for data: 5476057088
I0820 09:14:24.996516  1992 layer_factory.hpp:77] Creating layer conv11_2
I0820 09:14:24.996516  1992 net.cpp:100] Creating Layer conv11_2
I0820 09:14:24.996516  1992 net.cpp:434] conv11_2 <- conv11_1
I0820 09:14:24.996516  1992 net.cpp:408] conv11_2 -> conv11_2
I0820 09:14:25.001502  1992 net.cpp:150] Setting up conv11_2
I0820 09:14:25.001502  1992 net.cpp:157] Top shape: 8 256 2 2 (8192)
I0820 09:14:25.001502  1992 net.cpp:165] Memory required for data: 5476089856
I0820 09:14:25.001502  1992 layer_factory.hpp:77] Creating layer conv11_2_relu
I0820 09:14:25.001502  1992 net.cpp:100] Creating Layer conv11_2_relu
I0820 09:14:25.001502  1992 net.cpp:434] conv11_2_relu <- conv11_2
I0820 09:14:25.001502  1992 net.cpp:395] conv11_2_relu -> conv11_2 (in-place)
I0820 09:14:25.002498  1992 net.cpp:150] Setting up conv11_2_relu
I0820 09:14:25.002498  1992 net.cpp:157] Top shape: 8 256 2 2 (8192)
I0820 09:14:25.002498  1992 net.cpp:165] Memory required for data: 5476122624
I0820 09:14:25.002498  1992 layer_factory.hpp:77] Creating layer conv11_2_conv11_2_relu_0_split
I0820 09:14:25.002498  1992 net.cpp:100] Creating Layer conv11_2_conv11_2_relu_0_split
I0820 09:14:25.002498  1992 net.cpp:434] conv11_2_conv11_2_relu_0_split <- conv11_2
I0820 09:14:25.002498  1992 net.cpp:408] conv11_2_conv11_2_relu_0_split -> conv11_2_conv11_2_relu_0_split_0
I0820 09:14:25.002498  1992 net.cpp:408] conv11_2_conv11_2_relu_0_split -> conv11_2_conv11_2_relu_0_split_1
I0820 09:14:25.002498  1992 net.cpp:408] conv11_2_conv11_2_relu_0_split -> conv11_2_conv11_2_relu_0_split_2
I0820 09:14:25.002498  1992 net.cpp:408] conv11_2_conv11_2_relu_0_split -> conv11_2_conv11_2_relu_0_split_3
I0820 09:14:25.002498  1992 net.cpp:150] Setting up conv11_2_conv11_2_relu_0_split
I0820 09:14:25.002498  1992 net.cpp:157] Top shape: 8 256 2 2 (8192)
I0820 09:14:25.002498  1992 net.cpp:157] Top shape: 8 256 2 2 (8192)
I0820 09:14:25.002498  1992 net.cpp:157] Top shape: 8 256 2 2 (8192)
I0820 09:14:25.002498  1992 net.cpp:157] Top shape: 8 256 2 2 (8192)
I0820 09:14:25.002498  1992 net.cpp:165] Memory required for data: 5476253696
I0820 09:14:25.002498  1992 layer_factory.hpp:77] Creating layer conv12_1
I0820 09:14:25.002498  1992 net.cpp:100] Creating Layer conv12_1
I0820 09:14:25.002498  1992 net.cpp:434] conv12_1 <- conv11_2_conv11_2_relu_0_split_0
I0820 09:14:25.002498  1992 net.cpp:408] conv12_1 -> conv12_1
I0820 09:14:25.006487  1992 net.cpp:150] Setting up conv12_1
I0820 09:14:25.006487  1992 net.cpp:157] Top shape: 8 128 2 2 (4096)
I0820 09:14:25.006487  1992 net.cpp:165] Memory required for data: 5476270080
I0820 09:14:25.006487  1992 layer_factory.hpp:77] Creating layer conv12_1_relu
I0820 09:14:25.006487  1992 net.cpp:100] Creating Layer conv12_1_relu
I0820 09:14:25.006487  1992 net.cpp:434] conv12_1_relu <- conv12_1
I0820 09:14:25.006487  1992 net.cpp:395] conv12_1_relu -> conv12_1 (in-place)
I0820 09:14:25.006487  1992 net.cpp:150] Setting up conv12_1_relu
I0820 09:14:25.006487  1992 net.cpp:157] Top shape: 8 128 2 2 (4096)
I0820 09:14:25.006487  1992 net.cpp:165] Memory required for data: 5476286464
I0820 09:14:25.006487  1992 layer_factory.hpp:77] Creating layer conv12_2
I0820 09:14:25.006487  1992 net.cpp:100] Creating Layer conv12_2
I0820 09:14:25.006487  1992 net.cpp:434] conv12_2 <- conv12_1
I0820 09:14:25.006487  1992 net.cpp:408] conv12_2 -> conv12_2
I0820 09:14:25.012478  1992 net.cpp:150] Setting up conv12_2
I0820 09:14:25.012478  1992 net.cpp:157] Top shape: 8 256 1 1 (2048)
I0820 09:14:25.012478  1992 net.cpp:165] Memory required for data: 5476294656
I0820 09:14:25.012478  1992 layer_factory.hpp:77] Creating layer conv12_2_relu
I0820 09:14:25.012478  1992 net.cpp:100] Creating Layer conv12_2_relu
I0820 09:14:25.012478  1992 net.cpp:434] conv12_2_relu <- conv12_2
I0820 09:14:25.012478  1992 net.cpp:395] conv12_2_relu -> conv12_2 (in-place)
I0820 09:14:25.012478  1992 net.cpp:150] Setting up conv12_2_relu
I0820 09:14:25.012478  1992 net.cpp:157] Top shape: 8 256 1 1 (2048)
I0820 09:14:25.012478  1992 net.cpp:165] Memory required for data: 5476302848
I0820 09:14:25.012478  1992 layer_factory.hpp:77] Creating layer conv12_2_conv12_2_relu_0_split
I0820 09:14:25.012478  1992 net.cpp:100] Creating Layer conv12_2_conv12_2_relu_0_split
I0820 09:14:25.012478  1992 net.cpp:434] conv12_2_conv12_2_relu_0_split <- conv12_2
I0820 09:14:25.012478  1992 net.cpp:408] conv12_2_conv12_2_relu_0_split -> conv12_2_conv12_2_relu_0_split_0
I0820 09:14:25.012478  1992 net.cpp:408] conv12_2_conv12_2_relu_0_split -> conv12_2_conv12_2_relu_0_split_1
I0820 09:14:25.012478  1992 net.cpp:408] conv12_2_conv12_2_relu_0_split -> conv12_2_conv12_2_relu_0_split_2
I0820 09:14:25.012478  1992 net.cpp:150] Setting up conv12_2_conv12_2_relu_0_split
I0820 09:14:25.012478  1992 net.cpp:157] Top shape: 8 256 1 1 (2048)
I0820 09:14:25.012478  1992 net.cpp:157] Top shape: 8 256 1 1 (2048)
I0820 09:14:25.012478  1992 net.cpp:157] Top shape: 8 256 1 1 (2048)
I0820 09:14:25.012478  1992 net.cpp:165] Memory required for data: 5476327424
I0820 09:14:25.012478  1992 layer_factory.hpp:77] Creating layer conv4_3_norm
I0820 09:14:25.012478  1992 net.cpp:100] Creating Layer conv4_3_norm
I0820 09:14:25.012478  1992 net.cpp:434] conv4_3_norm <- conv4_3_relu4_3_0_split_1
I0820 09:14:25.012478  1992 net.cpp:408] conv4_3_norm -> conv4_3_norm
I0820 09:14:25.012478  1992 net.cpp:150] Setting up conv4_3_norm
I0820 09:14:25.012478  1992 net.cpp:157] Top shape: 8 512 64 64 (16777216)
I0820 09:14:25.012478  1992 net.cpp:165] Memory required for data: 5543436288
I0820 09:14:25.012478  1992 layer_factory.hpp:77] Creating layer conv4_3_norm_conv4_3_norm_0_split
I0820 09:14:25.012478  1992 net.cpp:100] Creating Layer conv4_3_norm_conv4_3_norm_0_split
I0820 09:14:25.012478  1992 net.cpp:434] conv4_3_norm_conv4_3_norm_0_split <- conv4_3_norm
I0820 09:14:25.012478  1992 net.cpp:408] conv4_3_norm_conv4_3_norm_0_split -> conv4_3_norm_conv4_3_norm_0_split_0
I0820 09:14:25.012478  1992 net.cpp:408] conv4_3_norm_conv4_3_norm_0_split -> conv4_3_norm_conv4_3_norm_0_split_1
I0820 09:14:25.012478  1992 net.cpp:408] conv4_3_norm_conv4_3_norm_0_split -> conv4_3_norm_conv4_3_norm_0_split_2
I0820 09:14:25.012478  1992 net.cpp:150] Setting up conv4_3_norm_conv4_3_norm_0_split
I0820 09:14:25.012478  1992 net.cpp:157] Top shape: 8 512 64 64 (16777216)
I0820 09:14:25.012478  1992 net.cpp:157] Top shape: 8 512 64 64 (16777216)
I0820 09:14:25.012478  1992 net.cpp:157] Top shape: 8 512 64 64 (16777216)
I0820 09:14:25.012478  1992 net.cpp:165] Memory required for data: 5744762880
I0820 09:14:25.012478  1992 layer_factory.hpp:77] Creating layer conv4_3_norm_mbox_loc
I0820 09:14:25.012478  1992 net.cpp:100] Creating Layer conv4_3_norm_mbox_loc
I0820 09:14:25.012478  1992 net.cpp:434] conv4_3_norm_mbox_loc <- conv4_3_norm_conv4_3_norm_0_split_0
I0820 09:14:25.012478  1992 net.cpp:408] conv4_3_norm_mbox_loc -> conv4_3_norm_mbox_loc
I0820 09:14:25.017458  1992 net.cpp:150] Setting up conv4_3_norm_mbox_loc
I0820 09:14:25.017458  1992 net.cpp:157] Top shape: 8 16 64 64 (524288)
I0820 09:14:25.017458  1992 net.cpp:165] Memory required for data: 5746860032
I0820 09:14:25.017458  1992 layer_factory.hpp:77] Creating layer conv4_3_norm_mbox_loc_perm
I0820 09:14:25.017458  1992 net.cpp:100] Creating Layer conv4_3_norm_mbox_loc_perm
I0820 09:14:25.017458  1992 net.cpp:434] conv4_3_norm_mbox_loc_perm <- conv4_3_norm_mbox_loc
I0820 09:14:25.017458  1992 net.cpp:408] conv4_3_norm_mbox_loc_perm -> conv4_3_norm_mbox_loc_perm
I0820 09:14:25.017458  1992 net.cpp:150] Setting up conv4_3_norm_mbox_loc_perm
I0820 09:14:25.017458  1992 net.cpp:157] Top shape: 8 64 64 16 (524288)
I0820 09:14:25.017458  1992 net.cpp:165] Memory required for data: 5748957184
I0820 09:14:25.017458  1992 layer_factory.hpp:77] Creating layer conv4_3_norm_mbox_loc_flat
I0820 09:14:25.017458  1992 net.cpp:100] Creating Layer conv4_3_norm_mbox_loc_flat
I0820 09:14:25.017458  1992 net.cpp:434] conv4_3_norm_mbox_loc_flat <- conv4_3_norm_mbox_loc_perm
I0820 09:14:25.017458  1992 net.cpp:408] conv4_3_norm_mbox_loc_flat -> conv4_3_norm_mbox_loc_flat
I0820 09:14:25.017458  1992 net.cpp:150] Setting up conv4_3_norm_mbox_loc_flat
I0820 09:14:25.017458  1992 net.cpp:157] Top shape: 8 65536 (524288)
I0820 09:14:25.017458  1992 net.cpp:165] Memory required for data: 5751054336
I0820 09:14:25.017458  1992 layer_factory.hpp:77] Creating layer conv4_3_norm_mbox_conf
I0820 09:14:25.017458  1992 net.cpp:100] Creating Layer conv4_3_norm_mbox_conf
I0820 09:14:25.017458  1992 net.cpp:434] conv4_3_norm_mbox_conf <- conv4_3_norm_conv4_3_norm_0_split_1
I0820 09:14:25.017458  1992 net.cpp:408] conv4_3_norm_mbox_conf -> conv4_3_norm_mbox_conf
I0820 09:14:25.020450  1992 net.cpp:150] Setting up conv4_3_norm_mbox_conf
I0820 09:14:25.020450  1992 net.cpp:157] Top shape: 8 12 64 64 (393216)
I0820 09:14:25.020450  1992 net.cpp:165] Memory required for data: 5752627200
I0820 09:14:25.020450  1992 layer_factory.hpp:77] Creating layer conv4_3_norm_mbox_conf_perm
I0820 09:14:25.020450  1992 net.cpp:100] Creating Layer conv4_3_norm_mbox_conf_perm
I0820 09:14:25.020450  1992 net.cpp:434] conv4_3_norm_mbox_conf_perm <- conv4_3_norm_mbox_conf
I0820 09:14:25.020450  1992 net.cpp:408] conv4_3_norm_mbox_conf_perm -> conv4_3_norm_mbox_conf_perm
I0820 09:14:25.020450  1992 net.cpp:150] Setting up conv4_3_norm_mbox_conf_perm
I0820 09:14:25.020450  1992 net.cpp:157] Top shape: 8 64 64 12 (393216)
I0820 09:14:25.020450  1992 net.cpp:165] Memory required for data: 5754200064
I0820 09:14:25.020450  1992 layer_factory.hpp:77] Creating layer conv4_3_norm_mbox_conf_flat
I0820 09:14:25.020450  1992 net.cpp:100] Creating Layer conv4_3_norm_mbox_conf_flat
I0820 09:14:25.020450  1992 net.cpp:434] conv4_3_norm_mbox_conf_flat <- conv4_3_norm_mbox_conf_perm
I0820 09:14:25.020450  1992 net.cpp:408] conv4_3_norm_mbox_conf_flat -> conv4_3_norm_mbox_conf_flat
I0820 09:14:25.020450  1992 net.cpp:150] Setting up conv4_3_norm_mbox_conf_flat
I0820 09:14:25.020450  1992 net.cpp:157] Top shape: 8 49152 (393216)
I0820 09:14:25.020450  1992 net.cpp:165] Memory required for data: 5755772928
I0820 09:14:25.020450  1992 layer_factory.hpp:77] Creating layer conv4_3_norm_mbox_priorbox
I0820 09:14:25.020450  1992 net.cpp:100] Creating Layer conv4_3_norm_mbox_priorbox
I0820 09:14:25.020450  1992 net.cpp:434] conv4_3_norm_mbox_priorbox <- conv4_3_norm_conv4_3_norm_0_split_2
I0820 09:14:25.020450  1992 net.cpp:434] conv4_3_norm_mbox_priorbox <- data_data_0_split_1
I0820 09:14:25.020450  1992 net.cpp:408] conv4_3_norm_mbox_priorbox -> conv4_3_norm_mbox_priorbox
I0820 09:14:25.020450  1992 net.cpp:150] Setting up conv4_3_norm_mbox_priorbox
I0820 09:14:25.020450  1992 net.cpp:157] Top shape: 1 2 65536 (131072)
I0820 09:14:25.020450  1992 net.cpp:165] Memory required for data: 5756297216
I0820 09:14:25.020450  1992 layer_factory.hpp:77] Creating layer fc7_mbox_loc
I0820 09:14:25.020450  1992 net.cpp:100] Creating Layer fc7_mbox_loc
I0820 09:14:25.020450  1992 net.cpp:434] fc7_mbox_loc <- fc7_relu7_0_split_1
I0820 09:14:25.020450  1992 net.cpp:408] fc7_mbox_loc -> fc7_mbox_loc
I0820 09:14:25.024439  1992 net.cpp:150] Setting up fc7_mbox_loc
I0820 09:14:25.024439  1992 net.cpp:157] Top shape: 8 24 32 32 (196608)
I0820 09:14:25.024439  1992 net.cpp:165] Memory required for data: 5757083648
I0820 09:14:25.024439  1992 layer_factory.hpp:77] Creating layer fc7_mbox_loc_perm
I0820 09:14:25.024439  1992 net.cpp:100] Creating Layer fc7_mbox_loc_perm
I0820 09:14:25.024439  1992 net.cpp:434] fc7_mbox_loc_perm <- fc7_mbox_loc
I0820 09:14:25.024439  1992 net.cpp:408] fc7_mbox_loc_perm -> fc7_mbox_loc_perm
I0820 09:14:25.024439  1992 net.cpp:150] Setting up fc7_mbox_loc_perm
I0820 09:14:25.024439  1992 net.cpp:157] Top shape: 8 32 32 24 (196608)
I0820 09:14:25.024439  1992 net.cpp:165] Memory required for data: 5757870080
I0820 09:14:25.024439  1992 layer_factory.hpp:77] Creating layer fc7_mbox_loc_flat
I0820 09:14:25.024439  1992 net.cpp:100] Creating Layer fc7_mbox_loc_flat
I0820 09:14:25.024439  1992 net.cpp:434] fc7_mbox_loc_flat <- fc7_mbox_loc_perm
I0820 09:14:25.024439  1992 net.cpp:408] fc7_mbox_loc_flat -> fc7_mbox_loc_flat
I0820 09:14:25.024439  1992 net.cpp:150] Setting up fc7_mbox_loc_flat
I0820 09:14:25.024439  1992 net.cpp:157] Top shape: 8 24576 (196608)
I0820 09:14:25.024439  1992 net.cpp:165] Memory required for data: 5758656512
I0820 09:14:25.024439  1992 layer_factory.hpp:77] Creating layer fc7_mbox_conf
I0820 09:14:25.024439  1992 net.cpp:100] Creating Layer fc7_mbox_conf
I0820 09:14:25.024439  1992 net.cpp:434] fc7_mbox_conf <- fc7_relu7_0_split_2
I0820 09:14:25.024439  1992 net.cpp:408] fc7_mbox_conf -> fc7_mbox_conf
I0820 09:14:25.028429  1992 net.cpp:150] Setting up fc7_mbox_conf
I0820 09:14:25.028429  1992 net.cpp:157] Top shape: 8 18 32 32 (147456)
I0820 09:14:25.028429  1992 net.cpp:165] Memory required for data: 5759246336
I0820 09:14:25.028429  1992 layer_factory.hpp:77] Creating layer fc7_mbox_conf_perm
I0820 09:14:25.028429  1992 net.cpp:100] Creating Layer fc7_mbox_conf_perm
I0820 09:14:25.028429  1992 net.cpp:434] fc7_mbox_conf_perm <- fc7_mbox_conf
I0820 09:14:25.028429  1992 net.cpp:408] fc7_mbox_conf_perm -> fc7_mbox_conf_perm
I0820 09:14:25.028429  1992 net.cpp:150] Setting up fc7_mbox_conf_perm
I0820 09:14:25.028429  1992 net.cpp:157] Top shape: 8 32 32 18 (147456)
I0820 09:14:25.028429  1992 net.cpp:165] Memory required for data: 5759836160
I0820 09:14:25.028429  1992 layer_factory.hpp:77] Creating layer fc7_mbox_conf_flat
I0820 09:14:25.028429  1992 net.cpp:100] Creating Layer fc7_mbox_conf_flat
I0820 09:14:25.028429  1992 net.cpp:434] fc7_mbox_conf_flat <- fc7_mbox_conf_perm
I0820 09:14:25.028429  1992 net.cpp:408] fc7_mbox_conf_flat -> fc7_mbox_conf_flat
I0820 09:14:25.028429  1992 net.cpp:150] Setting up fc7_mbox_conf_flat
I0820 09:14:25.028429  1992 net.cpp:157] Top shape: 8 18432 (147456)
I0820 09:14:25.028429  1992 net.cpp:165] Memory required for data: 5760425984
I0820 09:14:25.028429  1992 layer_factory.hpp:77] Creating layer fc7_mbox_priorbox
I0820 09:14:25.028429  1992 net.cpp:100] Creating Layer fc7_mbox_priorbox
I0820 09:14:25.028429  1992 net.cpp:434] fc7_mbox_priorbox <- fc7_relu7_0_split_3
I0820 09:14:25.028429  1992 net.cpp:434] fc7_mbox_priorbox <- data_data_0_split_2
I0820 09:14:25.028429  1992 net.cpp:408] fc7_mbox_priorbox -> fc7_mbox_priorbox
I0820 09:14:25.028429  1992 net.cpp:150] Setting up fc7_mbox_priorbox
I0820 09:14:25.028429  1992 net.cpp:157] Top shape: 1 2 24576 (49152)
I0820 09:14:25.028429  1992 net.cpp:165] Memory required for data: 5760622592
I0820 09:14:25.028429  1992 layer_factory.hpp:77] Creating layer conv8_2_mbox_loc
I0820 09:14:25.028429  1992 net.cpp:100] Creating Layer conv8_2_mbox_loc
I0820 09:14:25.028429  1992 net.cpp:434] conv8_2_mbox_loc <- conv8_2_conv8_2_relu_0_split_1
I0820 09:14:25.028429  1992 net.cpp:408] conv8_2_mbox_loc -> conv8_2_mbox_loc
I0820 09:14:25.032418  1992 net.cpp:150] Setting up conv8_2_mbox_loc
I0820 09:14:25.032418  1992 net.cpp:157] Top shape: 8 24 16 16 (49152)
I0820 09:14:25.032418  1992 net.cpp:165] Memory required for data: 5760819200
I0820 09:14:25.032418  1992 layer_factory.hpp:77] Creating layer conv8_2_mbox_loc_perm
I0820 09:14:25.032418  1992 net.cpp:100] Creating Layer conv8_2_mbox_loc_perm
I0820 09:14:25.032418  1992 net.cpp:434] conv8_2_mbox_loc_perm <- conv8_2_mbox_loc
I0820 09:14:25.032418  1992 net.cpp:408] conv8_2_mbox_loc_perm -> conv8_2_mbox_loc_perm
I0820 09:14:25.032418  1992 net.cpp:150] Setting up conv8_2_mbox_loc_perm
I0820 09:14:25.032418  1992 net.cpp:157] Top shape: 8 16 16 24 (49152)
I0820 09:14:25.032418  1992 net.cpp:165] Memory required for data: 5761015808
I0820 09:14:25.032418  1992 layer_factory.hpp:77] Creating layer conv8_2_mbox_loc_flat
I0820 09:14:25.032418  1992 net.cpp:100] Creating Layer conv8_2_mbox_loc_flat
I0820 09:14:25.032418  1992 net.cpp:434] conv8_2_mbox_loc_flat <- conv8_2_mbox_loc_perm
I0820 09:14:25.032418  1992 net.cpp:408] conv8_2_mbox_loc_flat -> conv8_2_mbox_loc_flat
I0820 09:14:25.032418  1992 net.cpp:150] Setting up conv8_2_mbox_loc_flat
I0820 09:14:25.032418  1992 net.cpp:157] Top shape: 8 6144 (49152)
I0820 09:14:25.032418  1992 net.cpp:165] Memory required for data: 5761212416
I0820 09:14:25.032418  1992 layer_factory.hpp:77] Creating layer conv8_2_mbox_conf
I0820 09:14:25.032418  1992 net.cpp:100] Creating Layer conv8_2_mbox_conf
I0820 09:14:25.032418  1992 net.cpp:434] conv8_2_mbox_conf <- conv8_2_conv8_2_relu_0_split_2
I0820 09:14:25.032418  1992 net.cpp:408] conv8_2_mbox_conf -> conv8_2_mbox_conf
I0820 09:14:25.036408  1992 net.cpp:150] Setting up conv8_2_mbox_conf
I0820 09:14:25.036408  1992 net.cpp:157] Top shape: 8 18 16 16 (36864)
I0820 09:14:25.036408  1992 net.cpp:165] Memory required for data: 5761359872
I0820 09:14:25.036408  1992 layer_factory.hpp:77] Creating layer conv8_2_mbox_conf_perm
I0820 09:14:25.036408  1992 net.cpp:100] Creating Layer conv8_2_mbox_conf_perm
I0820 09:14:25.036408  1992 net.cpp:434] conv8_2_mbox_conf_perm <- conv8_2_mbox_conf
I0820 09:14:25.036408  1992 net.cpp:408] conv8_2_mbox_conf_perm -> conv8_2_mbox_conf_perm
I0820 09:14:25.036408  1992 net.cpp:150] Setting up conv8_2_mbox_conf_perm
I0820 09:14:25.036408  1992 net.cpp:157] Top shape: 8 16 16 18 (36864)
I0820 09:14:25.036408  1992 net.cpp:165] Memory required for data: 5761507328
I0820 09:14:25.036408  1992 layer_factory.hpp:77] Creating layer conv8_2_mbox_conf_flat
I0820 09:14:25.036408  1992 net.cpp:100] Creating Layer conv8_2_mbox_conf_flat
I0820 09:14:25.036408  1992 net.cpp:434] conv8_2_mbox_conf_flat <- conv8_2_mbox_conf_perm
I0820 09:14:25.036408  1992 net.cpp:408] conv8_2_mbox_conf_flat -> conv8_2_mbox_conf_flat
I0820 09:14:25.036408  1992 net.cpp:150] Setting up conv8_2_mbox_conf_flat
I0820 09:14:25.036408  1992 net.cpp:157] Top shape: 8 4608 (36864)
I0820 09:14:25.036408  1992 net.cpp:165] Memory required for data: 5761654784
I0820 09:14:25.036408  1992 layer_factory.hpp:77] Creating layer conv8_2_mbox_priorbox
I0820 09:14:25.036408  1992 net.cpp:100] Creating Layer conv8_2_mbox_priorbox
I0820 09:14:25.036408  1992 net.cpp:434] conv8_2_mbox_priorbox <- conv8_2_conv8_2_relu_0_split_3
I0820 09:14:25.036408  1992 net.cpp:434] conv8_2_mbox_priorbox <- data_data_0_split_3
I0820 09:14:25.036408  1992 net.cpp:408] conv8_2_mbox_priorbox -> conv8_2_mbox_priorbox
I0820 09:14:25.036408  1992 net.cpp:150] Setting up conv8_2_mbox_priorbox
I0820 09:14:25.036408  1992 net.cpp:157] Top shape: 1 2 6144 (12288)
I0820 09:14:25.036408  1992 net.cpp:165] Memory required for data: 5761703936
I0820 09:14:25.036408  1992 layer_factory.hpp:77] Creating layer conv9_2_mbox_loc
I0820 09:14:25.036408  1992 net.cpp:100] Creating Layer conv9_2_mbox_loc
I0820 09:14:25.036408  1992 net.cpp:434] conv9_2_mbox_loc <- conv9_2_conv9_2_relu_0_split_1
I0820 09:14:25.036408  1992 net.cpp:408] conv9_2_mbox_loc -> conv9_2_mbox_loc
I0820 09:14:25.039399  1992 net.cpp:150] Setting up conv9_2_mbox_loc
I0820 09:14:25.039399  1992 net.cpp:157] Top shape: 8 24 8 8 (12288)
I0820 09:14:25.039399  1992 net.cpp:165] Memory required for data: 5761753088
I0820 09:14:25.039399  1992 layer_factory.hpp:77] Creating layer conv9_2_mbox_loc_perm
I0820 09:14:25.039399  1992 net.cpp:100] Creating Layer conv9_2_mbox_loc_perm
I0820 09:14:25.039399  1992 net.cpp:434] conv9_2_mbox_loc_perm <- conv9_2_mbox_loc
I0820 09:14:25.039399  1992 net.cpp:408] conv9_2_mbox_loc_perm -> conv9_2_mbox_loc_perm
I0820 09:14:25.039399  1992 net.cpp:150] Setting up conv9_2_mbox_loc_perm
I0820 09:14:25.039399  1992 net.cpp:157] Top shape: 8 8 8 24 (12288)
I0820 09:14:25.039399  1992 net.cpp:165] Memory required for data: 5761802240
I0820 09:14:25.039399  1992 layer_factory.hpp:77] Creating layer conv9_2_mbox_loc_flat
I0820 09:14:25.039399  1992 net.cpp:100] Creating Layer conv9_2_mbox_loc_flat
I0820 09:14:25.039399  1992 net.cpp:434] conv9_2_mbox_loc_flat <- conv9_2_mbox_loc_perm
I0820 09:14:25.039399  1992 net.cpp:408] conv9_2_mbox_loc_flat -> conv9_2_mbox_loc_flat
I0820 09:14:25.039399  1992 net.cpp:150] Setting up conv9_2_mbox_loc_flat
I0820 09:14:25.039399  1992 net.cpp:157] Top shape: 8 1536 (12288)
I0820 09:14:25.039399  1992 net.cpp:165] Memory required for data: 5761851392
I0820 09:14:25.039399  1992 layer_factory.hpp:77] Creating layer conv9_2_mbox_conf
I0820 09:14:25.039399  1992 net.cpp:100] Creating Layer conv9_2_mbox_conf
I0820 09:14:25.039399  1992 net.cpp:434] conv9_2_mbox_conf <- conv9_2_conv9_2_relu_0_split_2
I0820 09:14:25.039399  1992 net.cpp:408] conv9_2_mbox_conf -> conv9_2_mbox_conf
I0820 09:14:25.043390  1992 net.cpp:150] Setting up conv9_2_mbox_conf
I0820 09:14:25.043390  1992 net.cpp:157] Top shape: 8 18 8 8 (9216)
I0820 09:14:25.043390  1992 net.cpp:165] Memory required for data: 5761888256
I0820 09:14:25.043390  1992 layer_factory.hpp:77] Creating layer conv9_2_mbox_conf_perm
I0820 09:14:25.043390  1992 net.cpp:100] Creating Layer conv9_2_mbox_conf_perm
I0820 09:14:25.043390  1992 net.cpp:434] conv9_2_mbox_conf_perm <- conv9_2_mbox_conf
I0820 09:14:25.043390  1992 net.cpp:408] conv9_2_mbox_conf_perm -> conv9_2_mbox_conf_perm
I0820 09:14:25.043390  1992 net.cpp:150] Setting up conv9_2_mbox_conf_perm
I0820 09:14:25.043390  1992 net.cpp:157] Top shape: 8 8 8 18 (9216)
I0820 09:14:25.043390  1992 net.cpp:165] Memory required for data: 5761925120
I0820 09:14:25.043390  1992 layer_factory.hpp:77] Creating layer conv9_2_mbox_conf_flat
I0820 09:14:25.043390  1992 net.cpp:100] Creating Layer conv9_2_mbox_conf_flat
I0820 09:14:25.043390  1992 net.cpp:434] conv9_2_mbox_conf_flat <- conv9_2_mbox_conf_perm
I0820 09:14:25.043390  1992 net.cpp:408] conv9_2_mbox_conf_flat -> conv9_2_mbox_conf_flat
I0820 09:14:25.043390  1992 net.cpp:150] Setting up conv9_2_mbox_conf_flat
I0820 09:14:25.043390  1992 net.cpp:157] Top shape: 8 1152 (9216)
I0820 09:14:25.043390  1992 net.cpp:165] Memory required for data: 5761961984
I0820 09:14:25.043390  1992 layer_factory.hpp:77] Creating layer conv9_2_mbox_priorbox
I0820 09:14:25.043390  1992 net.cpp:100] Creating Layer conv9_2_mbox_priorbox
I0820 09:14:25.043390  1992 net.cpp:434] conv9_2_mbox_priorbox <- conv9_2_conv9_2_relu_0_split_3
I0820 09:14:25.043390  1992 net.cpp:434] conv9_2_mbox_priorbox <- data_data_0_split_4
I0820 09:14:25.043390  1992 net.cpp:408] conv9_2_mbox_priorbox -> conv9_2_mbox_priorbox
I0820 09:14:25.043390  1992 net.cpp:150] Setting up conv9_2_mbox_priorbox
I0820 09:14:25.043390  1992 net.cpp:157] Top shape: 1 2 1536 (3072)
I0820 09:14:25.043390  1992 net.cpp:165] Memory required for data: 5761974272
I0820 09:14:25.043390  1992 layer_factory.hpp:77] Creating layer conv10_2_mbox_loc
I0820 09:14:25.043390  1992 net.cpp:100] Creating Layer conv10_2_mbox_loc
I0820 09:14:25.043390  1992 net.cpp:434] conv10_2_mbox_loc <- conv10_2_conv10_2_relu_0_split_1
I0820 09:14:25.043390  1992 net.cpp:408] conv10_2_mbox_loc -> conv10_2_mbox_loc
I0820 09:14:25.046381  1992 net.cpp:150] Setting up conv10_2_mbox_loc
I0820 09:14:25.046381  1992 net.cpp:157] Top shape: 8 24 4 4 (3072)
I0820 09:14:25.046381  1992 net.cpp:165] Memory required for data: 5761986560
I0820 09:14:25.046381  1992 layer_factory.hpp:77] Creating layer conv10_2_mbox_loc_perm
I0820 09:14:25.046381  1992 net.cpp:100] Creating Layer conv10_2_mbox_loc_perm
I0820 09:14:25.046381  1992 net.cpp:434] conv10_2_mbox_loc_perm <- conv10_2_mbox_loc
I0820 09:14:25.046381  1992 net.cpp:408] conv10_2_mbox_loc_perm -> conv10_2_mbox_loc_perm
I0820 09:14:25.046381  1992 net.cpp:150] Setting up conv10_2_mbox_loc_perm
I0820 09:14:25.046381  1992 net.cpp:157] Top shape: 8 4 4 24 (3072)
I0820 09:14:25.046381  1992 net.cpp:165] Memory required for data: 5761998848
I0820 09:14:25.046381  1992 layer_factory.hpp:77] Creating layer conv10_2_mbox_loc_flat
I0820 09:14:25.046381  1992 net.cpp:100] Creating Layer conv10_2_mbox_loc_flat
I0820 09:14:25.046381  1992 net.cpp:434] conv10_2_mbox_loc_flat <- conv10_2_mbox_loc_perm
I0820 09:14:25.046381  1992 net.cpp:408] conv10_2_mbox_loc_flat -> conv10_2_mbox_loc_flat
I0820 09:14:25.046381  1992 net.cpp:150] Setting up conv10_2_mbox_loc_flat
I0820 09:14:25.046381  1992 net.cpp:157] Top shape: 8 384 (3072)
I0820 09:14:25.046381  1992 net.cpp:165] Memory required for data: 5762011136
I0820 09:14:25.046381  1992 layer_factory.hpp:77] Creating layer conv10_2_mbox_conf
I0820 09:14:25.046381  1992 net.cpp:100] Creating Layer conv10_2_mbox_conf
I0820 09:14:25.047380  1992 net.cpp:434] conv10_2_mbox_conf <- conv10_2_conv10_2_relu_0_split_2
I0820 09:14:25.047380  1992 net.cpp:408] conv10_2_mbox_conf -> conv10_2_mbox_conf
I0820 09:14:25.049373  1992 net.cpp:150] Setting up conv10_2_mbox_conf
I0820 09:14:25.049373  1992 net.cpp:157] Top shape: 8 18 4 4 (2304)
I0820 09:14:25.049373  1992 net.cpp:165] Memory required for data: 5762020352
I0820 09:14:25.049373  1992 layer_factory.hpp:77] Creating layer conv10_2_mbox_conf_perm
I0820 09:14:25.049373  1992 net.cpp:100] Creating Layer conv10_2_mbox_conf_perm
I0820 09:14:25.049373  1992 net.cpp:434] conv10_2_mbox_conf_perm <- conv10_2_mbox_conf
I0820 09:14:25.049373  1992 net.cpp:408] conv10_2_mbox_conf_perm -> conv10_2_mbox_conf_perm
I0820 09:14:25.049373  1992 net.cpp:150] Setting up conv10_2_mbox_conf_perm
I0820 09:14:25.049373  1992 net.cpp:157] Top shape: 8 4 4 18 (2304)
I0820 09:14:25.049373  1992 net.cpp:165] Memory required for data: 5762029568
I0820 09:14:25.049373  1992 layer_factory.hpp:77] Creating layer conv10_2_mbox_conf_flat
I0820 09:14:25.049373  1992 net.cpp:100] Creating Layer conv10_2_mbox_conf_flat
I0820 09:14:25.049373  1992 net.cpp:434] conv10_2_mbox_conf_flat <- conv10_2_mbox_conf_perm
I0820 09:14:25.049373  1992 net.cpp:408] conv10_2_mbox_conf_flat -> conv10_2_mbox_conf_flat
I0820 09:14:25.049373  1992 net.cpp:150] Setting up conv10_2_mbox_conf_flat
I0820 09:14:25.049373  1992 net.cpp:157] Top shape: 8 288 (2304)
I0820 09:14:25.049373  1992 net.cpp:165] Memory required for data: 5762038784
I0820 09:14:25.049373  1992 layer_factory.hpp:77] Creating layer conv10_2_mbox_priorbox
I0820 09:14:25.049373  1992 net.cpp:100] Creating Layer conv10_2_mbox_priorbox
I0820 09:14:25.049373  1992 net.cpp:434] conv10_2_mbox_priorbox <- conv10_2_conv10_2_relu_0_split_3
I0820 09:14:25.049373  1992 net.cpp:434] conv10_2_mbox_priorbox <- data_data_0_split_5
I0820 09:14:25.049373  1992 net.cpp:408] conv10_2_mbox_priorbox -> conv10_2_mbox_priorbox
I0820 09:14:25.049373  1992 net.cpp:150] Setting up conv10_2_mbox_priorbox
I0820 09:14:25.049373  1992 net.cpp:157] Top shape: 1 2 384 (768)
I0820 09:14:25.049373  1992 net.cpp:165] Memory required for data: 5762041856
I0820 09:14:25.050370  1992 layer_factory.hpp:77] Creating layer conv11_2_mbox_loc
I0820 09:14:25.050370  1992 net.cpp:100] Creating Layer conv11_2_mbox_loc
I0820 09:14:25.050370  1992 net.cpp:434] conv11_2_mbox_loc <- conv11_2_conv11_2_relu_0_split_1
I0820 09:14:25.050370  1992 net.cpp:408] conv11_2_mbox_loc -> conv11_2_mbox_loc
I0820 09:14:25.054360  1992 net.cpp:150] Setting up conv11_2_mbox_loc
I0820 09:14:25.054360  1992 net.cpp:157] Top shape: 8 16 2 2 (512)
I0820 09:14:25.054360  1992 net.cpp:165] Memory required for data: 5762043904
I0820 09:14:25.054360  1992 layer_factory.hpp:77] Creating layer conv11_2_mbox_loc_perm
I0820 09:14:25.054360  1992 net.cpp:100] Creating Layer conv11_2_mbox_loc_perm
I0820 09:14:25.054360  1992 net.cpp:434] conv11_2_mbox_loc_perm <- conv11_2_mbox_loc
I0820 09:14:25.054360  1992 net.cpp:408] conv11_2_mbox_loc_perm -> conv11_2_mbox_loc_perm
I0820 09:14:25.054360  1992 net.cpp:150] Setting up conv11_2_mbox_loc_perm
I0820 09:14:25.054360  1992 net.cpp:157] Top shape: 8 2 2 16 (512)
I0820 09:14:25.054360  1992 net.cpp:165] Memory required for data: 5762045952
I0820 09:14:25.054360  1992 layer_factory.hpp:77] Creating layer conv11_2_mbox_loc_flat
I0820 09:14:25.054360  1992 net.cpp:100] Creating Layer conv11_2_mbox_loc_flat
I0820 09:14:25.054360  1992 net.cpp:434] conv11_2_mbox_loc_flat <- conv11_2_mbox_loc_perm
I0820 09:14:25.054360  1992 net.cpp:408] conv11_2_mbox_loc_flat -> conv11_2_mbox_loc_flat
I0820 09:14:25.054360  1992 net.cpp:150] Setting up conv11_2_mbox_loc_flat
I0820 09:14:25.054360  1992 net.cpp:157] Top shape: 8 64 (512)
I0820 09:14:25.054360  1992 net.cpp:165] Memory required for data: 5762048000
I0820 09:14:25.054360  1992 layer_factory.hpp:77] Creating layer conv11_2_mbox_conf
I0820 09:14:25.054360  1992 net.cpp:100] Creating Layer conv11_2_mbox_conf
I0820 09:14:25.054360  1992 net.cpp:434] conv11_2_mbox_conf <- conv11_2_conv11_2_relu_0_split_2
I0820 09:14:25.054360  1992 net.cpp:408] conv11_2_mbox_conf -> conv11_2_mbox_conf
I0820 09:14:25.057351  1992 net.cpp:150] Setting up conv11_2_mbox_conf
I0820 09:14:25.057351  1992 net.cpp:157] Top shape: 8 12 2 2 (384)
I0820 09:14:25.057351  1992 net.cpp:165] Memory required for data: 5762049536
I0820 09:14:25.057351  1992 layer_factory.hpp:77] Creating layer conv11_2_mbox_conf_perm
I0820 09:14:25.057351  1992 net.cpp:100] Creating Layer conv11_2_mbox_conf_perm
I0820 09:14:25.057351  1992 net.cpp:434] conv11_2_mbox_conf_perm <- conv11_2_mbox_conf
I0820 09:14:25.057351  1992 net.cpp:408] conv11_2_mbox_conf_perm -> conv11_2_mbox_conf_perm
I0820 09:14:25.057351  1992 net.cpp:150] Setting up conv11_2_mbox_conf_perm
I0820 09:14:25.057351  1992 net.cpp:157] Top shape: 8 2 2 12 (384)
I0820 09:14:25.057351  1992 net.cpp:165] Memory required for data: 5762051072
I0820 09:14:25.057351  1992 layer_factory.hpp:77] Creating layer conv11_2_mbox_conf_flat
I0820 09:14:25.057351  1992 net.cpp:100] Creating Layer conv11_2_mbox_conf_flat
I0820 09:14:25.057351  1992 net.cpp:434] conv11_2_mbox_conf_flat <- conv11_2_mbox_conf_perm
I0820 09:14:25.057351  1992 net.cpp:408] conv11_2_mbox_conf_flat -> conv11_2_mbox_conf_flat
I0820 09:14:25.057351  1992 net.cpp:150] Setting up conv11_2_mbox_conf_flat
I0820 09:14:25.057351  1992 net.cpp:157] Top shape: 8 48 (384)
I0820 09:14:25.057351  1992 net.cpp:165] Memory required for data: 5762052608
I0820 09:14:25.057351  1992 layer_factory.hpp:77] Creating layer conv11_2_mbox_priorbox
I0820 09:14:25.057351  1992 net.cpp:100] Creating Layer conv11_2_mbox_priorbox
I0820 09:14:25.057351  1992 net.cpp:434] conv11_2_mbox_priorbox <- conv11_2_conv11_2_relu_0_split_3
I0820 09:14:25.057351  1992 net.cpp:434] conv11_2_mbox_priorbox <- data_data_0_split_6
I0820 09:14:25.057351  1992 net.cpp:408] conv11_2_mbox_priorbox -> conv11_2_mbox_priorbox
I0820 09:14:25.057351  1992 net.cpp:150] Setting up conv11_2_mbox_priorbox
I0820 09:14:25.057351  1992 net.cpp:157] Top shape: 1 2 64 (128)
I0820 09:14:25.057351  1992 net.cpp:165] Memory required for data: 5762053120
I0820 09:14:25.057351  1992 layer_factory.hpp:77] Creating layer conv12_2_mbox_loc
I0820 09:14:25.057351  1992 net.cpp:100] Creating Layer conv12_2_mbox_loc
I0820 09:14:25.057351  1992 net.cpp:434] conv12_2_mbox_loc <- conv12_2_conv12_2_relu_0_split_0
I0820 09:14:25.057351  1992 net.cpp:408] conv12_2_mbox_loc -> conv12_2_mbox_loc
I0820 09:14:25.059346  1992 net.cpp:150] Setting up conv12_2_mbox_loc
I0820 09:14:25.060343  1992 net.cpp:157] Top shape: 8 16 1 1 (128)
I0820 09:14:25.060343  1992 net.cpp:165] Memory required for data: 5762053632
I0820 09:14:25.060343  1992 layer_factory.hpp:77] Creating layer conv12_2_mbox_loc_perm
I0820 09:14:25.060343  1992 net.cpp:100] Creating Layer conv12_2_mbox_loc_perm
I0820 09:14:25.060343  1992 net.cpp:434] conv12_2_mbox_loc_perm <- conv12_2_mbox_loc
I0820 09:14:25.060343  1992 net.cpp:408] conv12_2_mbox_loc_perm -> conv12_2_mbox_loc_perm
I0820 09:14:25.060343  1992 net.cpp:150] Setting up conv12_2_mbox_loc_perm
I0820 09:14:25.060343  1992 net.cpp:157] Top shape: 8 1 1 16 (128)
I0820 09:14:25.060343  1992 net.cpp:165] Memory required for data: 5762054144
I0820 09:14:25.060343  1992 layer_factory.hpp:77] Creating layer conv12_2_mbox_loc_flat
I0820 09:14:25.060343  1992 net.cpp:100] Creating Layer conv12_2_mbox_loc_flat
I0820 09:14:25.060343  1992 net.cpp:434] conv12_2_mbox_loc_flat <- conv12_2_mbox_loc_perm
I0820 09:14:25.060343  1992 net.cpp:408] conv12_2_mbox_loc_flat -> conv12_2_mbox_loc_flat
I0820 09:14:25.060343  1992 net.cpp:150] Setting up conv12_2_mbox_loc_flat
I0820 09:14:25.060343  1992 net.cpp:157] Top shape: 8 16 (128)
I0820 09:14:25.060343  1992 net.cpp:165] Memory required for data: 5762054656
I0820 09:14:25.060343  1992 layer_factory.hpp:77] Creating layer conv12_2_mbox_conf
I0820 09:14:25.060343  1992 net.cpp:100] Creating Layer conv12_2_mbox_conf
I0820 09:14:25.060343  1992 net.cpp:434] conv12_2_mbox_conf <- conv12_2_conv12_2_relu_0_split_1
I0820 09:14:25.060343  1992 net.cpp:408] conv12_2_mbox_conf -> conv12_2_mbox_conf
I0820 09:14:25.063335  1992 net.cpp:150] Setting up conv12_2_mbox_conf
I0820 09:14:25.063335  1992 net.cpp:157] Top shape: 8 12 1 1 (96)
I0820 09:14:25.063335  1992 net.cpp:165] Memory required for data: 5762055040
I0820 09:14:25.063335  1992 layer_factory.hpp:77] Creating layer conv12_2_mbox_conf_perm
I0820 09:14:25.063335  1992 net.cpp:100] Creating Layer conv12_2_mbox_conf_perm
I0820 09:14:25.063335  1992 net.cpp:434] conv12_2_mbox_conf_perm <- conv12_2_mbox_conf
I0820 09:14:25.063335  1992 net.cpp:408] conv12_2_mbox_conf_perm -> conv12_2_mbox_conf_perm
I0820 09:14:25.063335  1992 net.cpp:150] Setting up conv12_2_mbox_conf_perm
I0820 09:14:25.063335  1992 net.cpp:157] Top shape: 8 1 1 12 (96)
I0820 09:14:25.063335  1992 net.cpp:165] Memory required for data: 5762055424
I0820 09:14:25.063335  1992 layer_factory.hpp:77] Creating layer conv12_2_mbox_conf_flat
I0820 09:14:25.063335  1992 net.cpp:100] Creating Layer conv12_2_mbox_conf_flat
I0820 09:14:25.063335  1992 net.cpp:434] conv12_2_mbox_conf_flat <- conv12_2_mbox_conf_perm
I0820 09:14:25.063335  1992 net.cpp:408] conv12_2_mbox_conf_flat -> conv12_2_mbox_conf_flat
I0820 09:14:25.063335  1992 net.cpp:150] Setting up conv12_2_mbox_conf_flat
I0820 09:14:25.063335  1992 net.cpp:157] Top shape: 8 12 (96)
I0820 09:14:25.063335  1992 net.cpp:165] Memory required for data: 5762055808
I0820 09:14:25.063335  1992 layer_factory.hpp:77] Creating layer conv12_2_mbox_priorbox
I0820 09:14:25.063335  1992 net.cpp:100] Creating Layer conv12_2_mbox_priorbox
I0820 09:14:25.063335  1992 net.cpp:434] conv12_2_mbox_priorbox <- conv12_2_conv12_2_relu_0_split_2
I0820 09:14:25.063335  1992 net.cpp:434] conv12_2_mbox_priorbox <- data_data_0_split_7
I0820 09:14:25.063335  1992 net.cpp:408] conv12_2_mbox_priorbox -> conv12_2_mbox_priorbox
I0820 09:14:25.063335  1992 net.cpp:150] Setting up conv12_2_mbox_priorbox
I0820 09:14:25.063335  1992 net.cpp:157] Top shape: 1 2 16 (32)
I0820 09:14:25.063335  1992 net.cpp:165] Memory required for data: 5762055936
I0820 09:14:25.063335  1992 layer_factory.hpp:77] Creating layer mbox_loc
I0820 09:14:25.063335  1992 net.cpp:100] Creating Layer mbox_loc
I0820 09:14:25.064332  1992 net.cpp:434] mbox_loc <- conv4_3_norm_mbox_loc_flat
I0820 09:14:25.064332  1992 net.cpp:434] mbox_loc <- fc7_mbox_loc_flat
I0820 09:14:25.064332  1992 net.cpp:434] mbox_loc <- conv8_2_mbox_loc_flat
I0820 09:14:25.064332  1992 net.cpp:434] mbox_loc <- conv9_2_mbox_loc_flat
I0820 09:14:25.064332  1992 net.cpp:434] mbox_loc <- conv10_2_mbox_loc_flat
I0820 09:14:25.064332  1992 net.cpp:434] mbox_loc <- conv11_2_mbox_loc_flat
I0820 09:14:25.064332  1992 net.cpp:434] mbox_loc <- conv12_2_mbox_loc_flat
I0820 09:14:25.064332  1992 net.cpp:408] mbox_loc -> mbox_loc
I0820 09:14:25.064332  1992 net.cpp:150] Setting up mbox_loc
I0820 09:14:25.064332  1992 net.cpp:157] Top shape: 8 98256 (786048)
I0820 09:14:25.064332  1992 net.cpp:165] Memory required for data: 5765200128
I0820 09:14:25.064332  1992 layer_factory.hpp:77] Creating layer mbox_conf
I0820 09:14:25.064332  1992 net.cpp:100] Creating Layer mbox_conf
I0820 09:14:25.064332  1992 net.cpp:434] mbox_conf <- conv4_3_norm_mbox_conf_flat
I0820 09:14:25.064332  1992 net.cpp:434] mbox_conf <- fc7_mbox_conf_flat
I0820 09:14:25.064332  1992 net.cpp:434] mbox_conf <- conv8_2_mbox_conf_flat
I0820 09:14:25.064332  1992 net.cpp:434] mbox_conf <- conv9_2_mbox_conf_flat
I0820 09:14:25.064332  1992 net.cpp:434] mbox_conf <- conv10_2_mbox_conf_flat
I0820 09:14:25.064332  1992 net.cpp:434] mbox_conf <- conv11_2_mbox_conf_flat
I0820 09:14:25.064332  1992 net.cpp:434] mbox_conf <- conv12_2_mbox_conf_flat
I0820 09:14:25.064332  1992 net.cpp:408] mbox_conf -> mbox_conf
I0820 09:14:25.064332  1992 net.cpp:150] Setting up mbox_conf
I0820 09:14:25.064332  1992 net.cpp:157] Top shape: 8 73692 (589536)
I0820 09:14:25.064332  1992 net.cpp:165] Memory required for data: 5767558272
I0820 09:14:25.064332  1992 layer_factory.hpp:77] Creating layer mbox_priorbox
I0820 09:14:25.064332  1992 net.cpp:100] Creating Layer mbox_priorbox
I0820 09:14:25.064332  1992 net.cpp:434] mbox_priorbox <- conv4_3_norm_mbox_priorbox
I0820 09:14:25.064332  1992 net.cpp:434] mbox_priorbox <- fc7_mbox_priorbox
I0820 09:14:25.064332  1992 net.cpp:434] mbox_priorbox <- conv8_2_mbox_priorbox
I0820 09:14:25.064332  1992 net.cpp:434] mbox_priorbox <- conv9_2_mbox_priorbox
I0820 09:14:25.064332  1992 net.cpp:434] mbox_priorbox <- conv10_2_mbox_priorbox
I0820 09:14:25.064332  1992 net.cpp:434] mbox_priorbox <- conv11_2_mbox_priorbox
I0820 09:14:25.064332  1992 net.cpp:434] mbox_priorbox <- conv12_2_mbox_priorbox
I0820 09:14:25.064332  1992 net.cpp:408] mbox_priorbox -> mbox_priorbox
I0820 09:14:25.064332  1992 net.cpp:150] Setting up mbox_priorbox
I0820 09:14:25.064332  1992 net.cpp:157] Top shape: 1 2 98256 (196512)
I0820 09:14:25.064332  1992 net.cpp:165] Memory required for data: 5768344320
I0820 09:14:25.064332  1992 layer_factory.hpp:77] Creating layer mbox_conf_reshape
I0820 09:14:25.064332  1992 net.cpp:100] Creating Layer mbox_conf_reshape
I0820 09:14:25.064332  1992 net.cpp:434] mbox_conf_reshape <- mbox_conf
I0820 09:14:25.064332  1992 net.cpp:408] mbox_conf_reshape -> mbox_conf_reshape
I0820 09:14:25.064332  1992 net.cpp:150] Setting up mbox_conf_reshape
I0820 09:14:25.064332  1992 net.cpp:157] Top shape: 8 24564 3 (589536)
I0820 09:14:25.064332  1992 net.cpp:165] Memory required for data: 5770702464
I0820 09:14:25.064332  1992 layer_factory.hpp:77] Creating layer mbox_conf_softmax
I0820 09:14:25.064332  1992 net.cpp:100] Creating Layer mbox_conf_softmax
I0820 09:14:25.064332  1992 net.cpp:434] mbox_conf_softmax <- mbox_conf_reshape
I0820 09:14:25.064332  1992 net.cpp:408] mbox_conf_softmax -> mbox_conf_softmax
I0820 09:14:25.064332  1992 net.cpp:150] Setting up mbox_conf_softmax
I0820 09:14:25.064332  1992 net.cpp:157] Top shape: 8 24564 3 (589536)
I0820 09:14:25.064332  1992 net.cpp:165] Memory required for data: 5773060608
I0820 09:14:25.064332  1992 layer_factory.hpp:77] Creating layer mbox_conf_flatten
I0820 09:14:25.064332  1992 net.cpp:100] Creating Layer mbox_conf_flatten
I0820 09:14:25.064332  1992 net.cpp:434] mbox_conf_flatten <- mbox_conf_softmax
I0820 09:14:25.064332  1992 net.cpp:408] mbox_conf_flatten -> mbox_conf_flatten
I0820 09:14:25.064332  1992 net.cpp:150] Setting up mbox_conf_flatten
I0820 09:14:25.064332  1992 net.cpp:157] Top shape: 8 73692 (589536)
I0820 09:14:25.064332  1992 net.cpp:165] Memory required for data: 5775418752
I0820 09:14:25.064332  1992 layer_factory.hpp:77] Creating layer detection_out
I0820 09:14:25.064332  1992 net.cpp:100] Creating Layer detection_out
I0820 09:14:25.064332  1992 net.cpp:434] detection_out <- mbox_loc
I0820 09:14:25.064332  1992 net.cpp:434] detection_out <- mbox_conf_flatten
I0820 09:14:25.064332  1992 net.cpp:434] detection_out <- mbox_priorbox
I0820 09:14:25.065330  1992 net.cpp:408] detection_out -> detection_out
I0820 09:14:25.065330  1992 net.cpp:150] Setting up detection_out
I0820 09:14:25.065330  1992 net.cpp:157] Top shape: 1 1 1 7 (7)
I0820 09:14:25.065330  1992 net.cpp:165] Memory required for data: 5775418780
I0820 09:14:25.065330  1992 layer_factory.hpp:77] Creating layer slience
I0820 09:14:25.065330  1992 net.cpp:100] Creating Layer slience
I0820 09:14:25.065330  1992 net.cpp:434] slience <- detection_out
I0820 09:14:25.065330  1992 net.cpp:150] Setting up slience
I0820 09:14:25.065330  1992 net.cpp:165] Memory required for data: 5775418780
…
