…
      sampler {
        min_scale: 0.3
        max_scale: 1
        min_aspect_ratio: 0.5
        max_aspect_ratio: 2
      }
      sample_constraint {
        min_jaccard_overlap: 0.9
      }
      max_sample: 1
      max_trials: 50
    }
    batch_sampler {
      sampler {
        min_scale: 0.3
        max_scale: 1
        min_aspect_ratio: 0.5
        max_aspect_ratio: 2
      }
      sample_constraint {
        max_jaccard_overlap: 1
      }
      max_sample: 1
      max_trials: 50
    }
    label_map_file: "data\\wastedata\\labelmap_waste.prototxt"
  }
}
layer {
  name: "conv1_1"
  type: "Convolution"
  bottom: "data"
  top: "conv1_1"
  param {
    lr_mult: 1
    decay_mult: 1
  }
  param {
    lr_mult: 1
    decay_mult: 0
  }
  convolution_param {
    num_output: 64
    pad: 1
    kernel_size: 3
    weight_filler {
      type: "xavier"
    }
    bias_filler {
      type: "constant"
      value: 0
    }
  }
}
layer {
  name: "relu1_1"
  type: "ReLU"
  bottom: "conv1_1"
  top: "conv1_1"
}
layer {
  name: "conv1_2"
  type: "Convolution"
  bottom: "conv1_1"
  top: "conv1_2"
  param {
    lr_mult: 1
    decay_mult: 1
  }
  param {
    lr_mult: 1
    decay_mult: 0
  }
  convolution_param {
    num_output: 64
    pad: 1
    kernel_size: 3
    weight_filler {
      type: "xavier"
    }
    bias_filler {
      type: "constant"
      value: 0
    }
  }
}
layer {
  name: "relu1_2"
  type: "ReLU"
  bottom: "conv1_2"
  top: "conv1_2"
}
layer {
  name: "pool1"
  type: "Pooling"
  bottom: "conv1_2"
  top: "pool1"
  pooling_param {
    pool: MAX
    kernel_size: 2
    stride: 2
  }
}
layer {
  name: "conv2_1"
  type: "Convolution"
  bottom: "pool1"
  top: "conv2_1"
  param {
    lr_mult: 1
    decay_mult: 1
  }
  param {
    lr_mult: 1
    decay_mult: 0
  }
  convolution_param {
    num_output: 128
    pad: 1
    kernel_size: 3
    weight_filler {
      type: "xavier"
    }
    bias_filler {
      type: "constant"
      value: 0
    }
  }
}
layer {
  name: "relu2_1"
  type: "ReLU"
  bottom: "conv2_1"
  top: "conv2_1"
}
layer {
  name: "conv2_2"
  type: "Convolution"
  bottom: "conv2_1"
  top: "conv2_2"
  param {
    lr_mult: 1
    decay_mult: 1
  }
  param {
    lr_mult: 1
    decay_mult: 0
  }
  convolution_param {
    num_output: 128
    pad: 1
    kernel_size: 3
    weight_filler {
      type: "xavier"
    }
    bias_filler {
      type: "constant"
      value: 0
    }
  }
}
layer {
  name: "relu2_2"
  type: "ReLU"
  bottom: "conv2_2"
  top: "conv2_2"
}
layer {
  name: "pool2"
  type: "Pooling"
  bottom: "conv2_2"
  top: "pool2"
  pooling_param {
    pool: MAX
    kernel_size: 2
    stride: 2
  }
}
layer {
  name: "conv3_1"
  type: "Convolution"
  bottom: "pool2"
  top: "conv3_1"
  param {
    lr_mult: 1
    decay_mult: 1
  }
  param {
    lr_mult: 1
    decay_mult: 0
  }
  convolution_param {
    num_output: 256
    pad: 1
    kernel_size: 3
    weight_filler {
      type: "xavier"
    }
    bias_filler {
      type: "constant"
      value: 0
    }
  }
}
layer {
  name: "relu3_1"
  type: "ReLU"
  bottom: "conv3_1"
  top: "conv3_1"
}
layer {
  name: "conv3_2"
  type: "Convolution"
  bottom: "conv3_1"
  top: "conv3_2"
  param {
    lr_mult: 1
    decay_mult: 1
  }
  param {
    lr_mult: 1
    decay_mult: 0
  }
  convolution_param {
    num_output: 256
    pad: 1
    kernel_size: 3
    weight_filler {
      type: "xavier"
    }
    bias_filler {
      type: "constant"
      value: 0
    }
  }
}
layer {
  name: "relu3_2"
  type: "ReLU"
  bottom: "conv3_2"
  top: "conv3_2"
}
layer {
  name: "conv3_3"
  type: "Convolution"
  bottom: "conv3_2"
  top: "conv3_3"
  param {
    lr_mult: 1
    decay_mult: 1
  }
  param {
    lr_mult: 1
    decay_mult: 0
  }
  convolution_param {
    num_output: 256
    pad: 1
    kernel_size: 3
    weight_filler {
      type: "xavier"
    }
    bias_filler {
      type: "constant"
      value: 0
    }
  }
}
layer {
  name: "relu3_3"
  type: "ReLU"
  bottom: "conv3_3"
  top: "conv3_3"
}
layer {
  name: "pool3"
  type: "Pooling"
  bottom: "conv3_3"
  top: "pool3"
  pooling_param {
    pool: MAX
    kernel_size: 2
    stride: 2
  }
}
layer {
  name: "conv4_1"
  type: "Convolution"
  bottom: "pool3"
  top: "conv4_1"
  param {
    lr_mult: 1
    decay_mult: 1
  }
  param {
    lr_mult: 1
    decay_mult: 0
  }
  convolution_param {
    num_output: 512
    pad: 1
    kernel_size: 3
    weight_filler {
      type: "xavier"
    }
    bias_filler {
      type: "constant"
      value: 0
    }
  }
}
layer {
  name: "relu4_1"
  type: "ReLU"
  bottom: "conv4_1"
  top: "conv4_1"
}
layer {
  name: "conv4_2"
  type: "Convolution"
  bottom: "conv4_1"
  top: "conv4_2"
  param {
    lr_mult: 1
    decay_mult: 1
  }
  param {
    lr_mult: 1
    decay_mult: 0
  }
  convolution_param {
    num_output: 512
    pad: 1
    kernel_size: 3
    weight_filler {
      type: "xavier"
    }
    bias_filler {
      type: "constant"
      value: 0
    }
  }
}
layer {
  name: "relu4_2"
  type: "ReLU"
  bottom: "conv4_2"
  top: "conv4_2"
}
layer {
  name: "conv4_3"
  type: "Convolution"
  bottom: "conv4_2"
  top: "conv4_3"
  param {
    lr_mult: 1
    decay_mult: 1
  }
  param {
    lr_mult: 1
    decay_mult: 0
  }
  convolution_param {
    num_output: 512
    pad: 1
    kernel_size: 3
    weight_filler {
      type: "xavier"
    }
    bias_filler {
      type: "constant"
      value: 0
    }
  }
}
layer {
  name: "relu4_3"
  type: "ReLU"
  bottom: "conv4_3"
  top: "conv4_3"
}
layer {
  name: "pool4"
  type: "Pooling"
  bottom: "conv4_3"
  top: "pool4"
  pooling_param {
    pool: MAX
    kernel_size: 2
    stride: 2
  }
}
layer {
  name: "conv5_1"
  type: "Convolution"
  bottom: "pool4"
  top: "conv5_1"
  param {
    lr_mult: 1
    decay_mult: 1
  }
  param {
    lr_mult: 1
    decay_mult: 0
  }
  convolution_param {
    num_output: 512
    pad: 1
    kernel_size: 3
    weight_filler {
      type: "xavier"
    }
    bias_filler {
      type: "constant"
      value: 0
    }
    dilation: 1
  }
}
layer {
  name: "relu5_1"
  type: "ReLU"
  bottom: "conv5_1"
  top: "conv5_1"
}
layer {
  name: "conv5_2"
  type: "Convolution"
  bottom: "conv5_1"
  top: "conv5_2"
  param {
    lr_mult: 1
    decay_mult: 1
  }
  param {
    lr_mult: 1
    decay_mult: 0
  }
  convolution_param {
    num_output: 512
    pad: 1
    kernel_size: 3
    weight_filler {
      type: "xavier"
    }
    bias_filler {
      type: "constant"
      value: 0
    }
    dilation: 1
  }
}
layer {
  name: "relu5_2"
  type: "ReLU"
  bottom: "conv5_2"
  top: "conv5_2"
}
layer {
  name: "conv5_3"
  type: "Convolution"
  bottom: "conv5_2"
  top: "conv5_3"
  param {
    lr_mult: 1
    decay_mult: 1
  }
  param {
    lr_mult: 1
    decay_mult: 0
  }
  convolution_param {
    num_output: 512
    pad: 1
    kernel_size: 3
    weight_filler {
      type: "xavier"
    }
    bias_filler {
      type: "constant"
      value: 0
    }
    dilation: 1
  }
}
layer {
  name: "relu5_3"
  type: "ReLU"
  bottom: "conv5_3"
  top: "conv5_3"
}
layer {
  name: "pool5"
  type: "Pooling"
  bottom: "conv5_3"
  top: "pool5"
  pooling_param {
    pool: MAX
    kernel_size: 3
    stride: 1
    pad: 1
  }
}
layer {
  name: "fc6"
  type: "Convolution"
  bottom: "pool5"
  top: "fc6"
  param {
    lr_mult: 1
    decay_mult: 1
  }
  param {
    lr_mult: 1
    decay_mult: 0
  }
  convolution_param {
    num_output: 1024
    pad: 6
    kernel_size: 3
    weight_filler {
      type: "xavier"
    }
    bias_filler {
      type: "constant"
      value: 0
    }
    dilation: 6
  }
}
layer {
  name: "relu6"
  type: "ReLU"
  bottom: "fc6"
  top: "fc6"
}
layer {
  name: "fc7"
  type: "Convolution"
  bottom: "fc6"
  top: "fc7"
  param {
    lr_mult: 1
    decay_mult: 1
  }
  param {
    lr_mult: 1
    decay_mult: 0
  }
  convolution_param {
    num_output: 1024
    kernel_size: 1
    weight_filler {
      type: "xavier"
    }
    bias_filler {
      type: "constant"
      value: 0
    }
  }
}
layer {
  name: "relu7"
  type: "ReLU"
  bottom: "fc7"
  top: "fc7"
}
layer {
  name: "conv8_1"
  type: "Convolution"
  bottom: "fc7"
  top: "conv8_1"
  param {
    lr_mult: 1
    decay_mult: 1
  }
  param {
    lr_mult: 2
    decay_mult: 0
  }
  convolution_param {
    num_output: 256
    pad: 0
    kernel_size: 1
    stride: 1
    weight_filler {
      type: "xavier"
    }
    bias_filler {
      type: "constant"
      value: 0
    }
  }
}
layer {
  name: "conv8_1_relu"
  type: "ReLU"
  bottom: "conv8_1"
  top: "conv8_1"
}
layer {
  name: "conv8_2"
  type: "Convolution"
  bottom: "conv8_1"
  top: "conv8_2"
  param {
    lr_mult: 1
    decay_mult: 1
  }
  param {
    lr_mult: 2
    decay_mult: 0
  }
  convolution_param {
    num_output: 512
    pad: 1
    kernel_size: 3
    stride: 2
    weight_filler {
      type: "xavier"
    }
    bias_filler {
      type: "constant"
      value: 0
    }
  }
}
layer {
  name: "conv8_2_relu"
  type: "ReLU"
  bottom: "conv8_2"
  top: "conv8_2"
}
layer {
  name: "conv9_1"
  type: "Convolution"
  bottom: "conv8_2"
  top: "conv9_1"
  param {
    lr_mult: 1
    decay_mult: 1
  }
  param {
    lr_mult: 2
    decay_mult: 0
  }
  convolution_param {
    num_output: 128
    pad: 0
    kernel_size: 1
    stride: 1
    weight_filler {
      type: "xavier"
    }
    bias_filler {
      type: "constant"
      value: 0
    }
  }
}
layer {
  name: "conv9_1_relu"
  type: "ReLU"
  bottom: "conv9_1"
  top: "conv9_1"
}
layer {
  name: "conv9_2"
  type: "Convolution"
  bottom: "conv9_1"
  top: "conv9_2"
  param {
    lr_mult: 1
    decay_mult: 1
  }
  param {
    lr_mult: 2
    decay_mult: 0
  }
  convolution_param {
    num_output: 256
    pad: 1
    kernel_size: 3
    stride: 2
    weight_filler {
      type: "xavier"
    }
    bias_filler {
      type: "constant"
      value: 0
    }
  }
}
layer {
  name: "conv9_2_relu"
  type: "ReLU"
  bottom: "conv9_2"
  top: "conv9_2"
}
layer {
  name: "conv10_1"
  type: "Convolution"
  bottom: "conv9_2"
  top: "conv10_1"
  param {
    lr_mult: 1
    decay_mult: 1
  }
  param {
    lr_mult: 2
    decay_mult: 0
  }
  convolution_param {
    num_output: 128
    pad: 0
    kernel_size: 1
    stride: 1
    weight_filler {
      type: "xavier"
    }
    bias_filler {
      type: "constant"
      value: 0
    }
  }
}
layer {
  name: "conv10_1_relu"
  type: "ReLU"
  bottom: "conv10_1"
  top: "conv10_1"
}
layer {
  name: "conv10_2"
  type: "Convolution"
  bottom: "conv10_1"
  top: "conv10_2"
  param {
    lr_mult: 1
    decay_mult: 1
  }
  param {
    lr_mult: 2
    decay_mult: 0
  }
  convolution_param {
    num_output: 256
    pad: 0
    kernel_size: 3
    stride: 1
    weight_filler {
      type: "xavier"
    }
    bias_filler {
      type: "constant"
      value: 0
    }
  }
}
layer {
  name: "conv10_2_relu"
  type: "ReLU"
  bottom: "conv10_2"
  top: "conv10_2"
}
layer {
  name: "conv11_1"
  type: "Convolution"
  bottom: "conv10_2"
  top: "conv11_1"
  param {
    lr_mult: 1
    decay_mult: 1
  }
  param {
    lr_mult: 2
    decay_mult: 0
  }
  convolution_param {
    num_output: 128
    pad: 0
    kernel_size: 1
    stride: 1
    weight_filler {
      type: "xavier"
    }
    bias_filler {
      type: "constant"
      value: 0
    }
  }
}
layer {
  name: "conv11_1_relu"
  type: "ReLU"
  bottom: "conv11_1"
  top: "conv11_1"
}
layer {
  name: "conv11_2"
  type: "Convolution"
  bottom: "conv11_1"
  top: "conv11_2"
  param {
    lr_mult: 1
    decay_mult: 1
  }
  param {
    lr_mult: 2
    decay_mult: 0
  }
  convolution_param {
    num_output: 256
    pad: 0
    kernel_size: 3
    stride: 1
    weight_filler {
      type: "xavier"
    }
    bias_filler {
      type: "constant"
      value: 0
    }
  }
}
layer {
  name: "conv11_2_relu"
  type: "ReLU"
  bottom: "conv11_2"
  top: "conv11_2"
}
layer {
  name: "conv4_3_norm"
  type: "Normalize"
  bottom: "conv4_3"
  top: "conv4_3_norm"
  norm_param {
    across_spatial: false
    scale_filler {
      type: "constant"
      value: 20
    }
    channel_shared: false
  }
}
layer {
  name: "conv4_3_norm_mbox_loc"
  type: "Convolution"
  bottom: "conv4_3_norm"
  top: "conv4_3_norm_mbox_loc"
  param {
    lr_mult: 1
    decay_mult: 1
  }
  param {
    lr_mult: 2
    decay_mult: 0
  }
  convolution_param {
    num_output: 16
    pad: 1
    kernel_size: 3
    stride: 1
    weight_filler {
      type: "xavier"
    }
    bias_filler {
      type: "constant"
      value: 0
    }
  }
}
layer {
  name: "conv4_3_norm_mbox_loc_perm"
  type: "Permute"
  bottom: "conv4_3_norm_mbox_loc"
  top: "conv4_3_norm_mbox_loc_perm"
  permute_param {
    order: 0
    order: 2
    order: 3
    order: 1
  }
}
layer {
  name: "conv4_3_norm_mbox_loc_flat"
  type: "Flatten"
  bottom: "conv4_3_norm_mbox_loc_perm"
  top: "conv4_3_norm_mbox_loc_flat"
  flatten_param {
    axis: 1
  }
}
layer {
  name: "conv4_3_norm_mbox_conf"
  type: "Convolution"
  bottom: "conv4_3_norm"
  top: "conv4_3_norm_mbox_conf"
  param {
    lr_mult: 1
    decay_mult: 1
  }
  param {
    lr_mult: 2
    decay_mult: 0
  }
  convolution_param {
    num_output: 12
    pad: 1
    kernel_size: 3
    stride: 1
    weight_filler {
      type: "xavier"
    }
    bias_filler {
      type: "constant"
      value: 0
    }
  }
}
layer {
  name: "conv4_3_norm_mbox_conf_perm"
  type: "Permute"
  bottom: "conv4_3_norm_mbox_conf"
  top: "conv4_3_norm_mbox_conf_perm"
  permute_param {
    order: 0
    order: 2
    order: 3
    order: 1
  }
}
layer {
  name: "conv4_3_norm_mbox_conf_flat"
  type: "Flatten"
  bottom: "conv4_3_norm_mbox_conf_perm"
  top: "conv4_3_norm_mbox_conf_flat"
  flatten_param {
    axis: 1
  }
}
layer {
  name: "conv4_3_norm_mbox_priorbox"
  type: "PriorBox"
  bottom: "conv4_3_norm"
  bottom: "data"
  top: "conv4_3_norm_mbox_priorbox"
  prior_box_param {
    min_size: 30
    max_size: 60
    aspect_ratio: 2
    flip: true
    clip: false
    variance: 0.1
    variance: 0.1
    variance: 0.2
    variance: 0.2
    step: 8
    offset: 0.5
  }
}
layer {
  name: "fc7_mbox_loc"
  type: "Convolution"
  bottom: "fc7"
  top: "fc7_mbox_loc"
  param {
    lr_mult: 1
    decay_mult: 1
  }
  param {
    lr_mult: 2
    decay_mult: 0
  }
  convolution_param {
    num_output: 24
    pad: 1
    kernel_size: 3
    stride: 1
    weight_filler {
      type: "xavier"
    }
    bias_filler {
      type: "constant"
      value: 0
    }
  }
}
layer {
  name: "fc7_mbox_loc_perm"
  type: "Permute"
  bottom: "fc7_mbox_loc"
  top: "fc7_mbox_loc_perm"
  permute_param {
    order: 0
    order: 2
    order: 3
    order: 1
  }
}
layer {
  name: "fc7_mbox_loc_flat"
  type: "Flatten"
  bottom: "fc7_mbox_loc_perm"
  top: "fc7_mbox_loc_flat"
  flatten_param {
    axis: 1
  }
}
layer {
  name: "fc7_mbox_conf"
  type: "Convolution"
  bottom: "fc7"
  top: "fc7_mbox_conf"
  param {
    lr_mult: 1
    decay_mult: 1
  }
  param {
    lr_mult: 2
    decay_mult: 0
  }
  convolution_param {
    num_output: 18
    pad: 1
    kernel_size: 3
    stride: 1
    weight_filler {
      type: "xavier"
    }
    bias_filler {
      type: "constant"
      value: 0
    }
  }
}
layer {
  name: "fc7_mbox_conf_perm"
  type: "Permute"
  bottom: "fc7_mbox_conf"
  top: "fc7_mbox_conf_perm"
  permute_param {
    order: 0
    order: 2
    order: 3
    order: 1
  }
}
layer {
  name: "fc7_mbox_conf_flat"
  type: "Flatten"
  bottom: "fc7_mbox_conf_perm"
  top: "fc7_mbox_conf_flat"
  flatten_param {
    axis: 1
  }
}
layer {
  name: "fc7_mbox_priorbox"
  type: "PriorBox"
  bottom: "fc7"
  bottom: "data"
  top: "fc7_mbox_priorbox"
  prior_box_param {
    min_size: 60
    max_size: 111
    aspect_ratio: 2
    aspect_ratio: 3
    flip: true
    clip: false
    variance: 0.1
    variance: 0.1
    variance: 0.2
    variance: 0.2
    step: 16
    offset: 0.5
  }
}
layer {
  name: "conv8_2_mbox_loc"
  type: "Convolution"
  bottom: "conv8_2"
  top: "conv8_2_mbox_loc"
  param {
    lr_mult: 1
    decay_mult: 1
  }
  param {
    lr_mult: 2
    decay_mult: 0
  }
  convolution_param {
    num_output: 24
    pad: 1
    kernel_size: 3
    stride: 1
    weight_filler {
      type: "xavier"
    }
    bias_filler {
      type: "constant"
      value: 0
    }
  }
}
layer {
  name: "conv8_2_mbox_loc_perm"
  type: "Permute"
  bottom: "conv8_2_mbox_loc"
  top: "conv8_2_mbox_loc_perm"
  permute_param {
    order: 0
    order: 2
    order: 3
    order: 1
  }
}
layer {
  name: "conv8_2_mbox_loc_flat"
  type: "Flatten"
  bottom: "conv8_2_mbox_loc_perm"
  top: "conv8_2_mbox_loc_flat"
  flatten_param {
    axis: 1
  }
}
layer {
  name: "conv8_2_mbox_conf"
  type: "Convolution"
  bottom: "conv8_2"
  top: "conv8_2_mbox_conf"
  param {
    lr_mult: 1
    decay_mult: 1
  }
  param {
    lr_mult: 2
    decay_mult: 0
  }
  convolution_param {
    num_output: 18
    pad: 1
    kernel_size: 3
    stride: 1
    weight_filler {
      type: "xavier"
    }
    bias_filler {
      type: "constant"
      value: 0
    }
  }
}
layer {
  name: "conv8_2_mbox_conf_perm"
  type: "Permute"
  bottom: "conv8_2_mbox_conf"
  top: "conv8_2_mbox_conf_perm"
  permute_param {
    order: 0
    order: 2
    order: 3
    order: 1
  }
}
layer {
  name: "conv8_2_mbox_conf_flat"
  type: "Flatten"
  bottom: "conv8_2_mbox_conf_perm"
  top: "conv8_2_mbox_conf_flat"
  flatten_param {
    axis: 1
  }
}
layer {
  name: "conv8_2_mbox_priorbox"
  type: "PriorBox"
  bottom: "conv8_2"
  bottom: "data"
  top: "conv8_2_mbox_priorbox"
  prior_box_param {
    min_size: 111
    max_size: 162
    aspect_ratio: 2
    aspect_ratio: 3
    flip: true
    clip: false
    variance: 0.1
    variance: 0.1
    variance: 0.2
    variance: 0.2
    step: 32
    offset: 0.5
  }
}
layer {
  name: "conv9_2_mbox_loc"
  type: "Convolution"
  bottom: "conv9_2"
  top: "conv9_2_mbox_loc"
  param {
    lr_mult: 1
    decay_mult: 1
  }
  param {
    lr_mult: 2
    decay_mult: 0
  }
  convolution_param {
    num_output: 24
    pad: 1
    kernel_size: 3
    stride: 1
    weight_filler {
      type: "xavier"
    }
    bias_filler {
      type: "constant"
      value: 0
    }
  }
}
layer {
  name: "conv9_2_mbox_loc_perm"
  type: "Permute"
  bottom: "conv9_2_mbox_loc"
  top: "conv9_2_mbox_loc_perm"
  permute_param {
    order: 0
    order: 2
    order: 3
    order: 1
  }
}
layer {
  name: "conv9_2_mbox_loc_flat"
  type: "Flatten"
  bottom: "conv9_2_mbox_loc_perm"
  top: "conv9_2_mbox_loc_flat"
  flatten_param {
    axis: 1
  }
}
layer {
  name: "conv9_2_mbox_conf"
  type: "Convolution"
  bottom: "conv9_2"
  top: "conv9_2_mbox_conf"
  param {
    lr_mult: 1
    decay_mult: 1
  }
  param {
    lr_mult: 2
    decay_mult: 0
  }
  convolution_param {
    num_output: 18
    pad: 1
    kernel_size: 3
    stride: 1
    weight_filler {
      type: "xavier"
    }
    bias_filler {
      type: "constant"
      value: 0
    }
  }
}
layer {
  name: "conv9_2_mbox_conf_perm"
  type: "Permute"
  bottom: "conv9_2_mbox_conf"
  top: "conv9_2_mbox_conf_perm"
  permute_param {
    order: 0
    order: 2
    order: 3
    order: 1
  }
}
layer {
  name: "conv9_2_mbox_conf_flat"
  type: "Flatten"
  bottom: "conv9_2_mbox_conf_perm"
  top: "conv9_2_mbox_conf_flat"
  flatten_param {
    axis: 1
  }
}
layer {
  name: "conv9_2_mbox_priorbox"
  type: "PriorBox"
  bottom: "conv9_2"
  bottom: "data"
  top: "conv9_2_mbox_priorbox"
  prior_box_param {
    min_size: 162
    max_size: 213
    aspect_ratio: 2
    aspect_ratio: 3
    flip: true
    clip: false
    variance: 0.1
    variance: 0.1
    variance: 0.2
    variance: 0.2
    step: 64
    offset: 0.5
  }
}
layer {
  name: "conv10_2_mbox_loc"
  type: "Convolution"
  bottom: "conv10_2"
  top: "conv10_2_mbox_loc"
  param {
    lr_mult: 1
    decay_mult: 1
  }
  param {
    lr_mult: 2
    decay_mult: 0
  }
  convolution_param {
    num_output: 16
    pad: 1
    kernel_size: 3
    stride: 1
    weight_filler {
      type: "xavier"
    }
    bias_filler {
      type: "constant"
      value: 0
    }
  }
}
layer {
  name: "conv10_2_mbox_loc_perm"
  type: "Permute"
  bottom: "conv10_2_mbox_loc"
  top: "conv10_2_mbox_loc_perm"
  permute_param {
    order: 0
    order: 2
    order: 3
    order: 1
  }
}
layer {
  name: "conv10_2_mbox_loc_flat"
  type: "Flatten"
  bottom: "conv10_2_mbox_loc_perm"
  top: "conv10_2_mbox_loc_flat"
  flatten_param {
    axis: 1
  }
}
layer {
  name: "conv10_2_mbox_conf"
  type: "Convolution"
  bottom: "conv10_2"
  top: "conv10_2_mbox_conf"
  param {
    lr_mult: 1
    decay_mult: 1
  }
  param {
    lr_mult: 2
    decay_mult: 0
  }
  convolution_param {
    num_output: 12
    pad: 1
    kernel_size: 3
    stride: 1
    weight_filler {
      type: "xavier"
    }
    bias_filler {
      type: "constant"
      value: 0
    }
  }
}
layer {
  name: "conv10_2_mbox_conf_perm"
  type: "Permute"
  bottom: "conv10_2_mbox_conf"
  top: "conv10_2_mbox_conf_perm"
  permute_param {
    order: 0
    order: 2
    order: 3
    order: 1
  }
}
layer {
  name: "conv10_2_mbox_conf_flat"
  type: "Flatten"
  bottom: "conv10_2_mbox_conf_perm"
  top: "conv10_2_mbox_conf_flat"
  flatten_param {
    axis: 1
  }
}
layer {
  name: "conv10_2_mbox_priorbox"
  type: "PriorBox"
  bottom: "conv10_2"
  bottom: "data"
  top: "conv10_2_mbox_priorbox"
  prior_box_param {
    min_size: 213
    max_size: 264
    aspect_ratio: 2
    flip: true
    clip: false
    variance: 0.1
    variance: 0.1
    variance: 0.2
    variance: 0.2
    step: 100
    offset: 0.5
  }
}
layer {
  name: "conv11_2_mbox_loc"
  type: "Convolution"
  bottom: "conv11_2"
  top: "conv11_2_mbox_loc"
  param {
    lr_mult: 1
    decay_mult: 1
  }
  param {
    lr_mult: 2
    decay_mult: 0
  }
  convolution_param {
    num_output: 16
    pad: 1
    kernel_size: 3
    stride: 1
    weight_filler {
      type: "xavier"
    }
    bias_filler {
      type: "constant"
      value: 0
    }
  }
}
layer {
  name: "conv11_2_mbox_loc_perm"
  type: "Permute"
  bottom: "conv11_2_mbox_loc"
  top: "conv11_2_mbox_loc_perm"
  permute_param {
    order: 0
    order: 2
    order: 3
    order: 1
  }
}
layer {
  name: "conv11_2_mbox_loc_flat"
  type: "Flatten"
  bottom: "conv11_2_mbox_loc_perm"
  top: "conv11_2_mbox_loc_flat"
  flatten_param {
    axis: 1
  }
}
layer {
  name: "conv11_2_mbox_conf"
  type: "Convolution"
  bottom: "conv11_2"
  top: "conv11_2_mbox_conf"
  param {
    lr_mult: 1
    decay_mult: 1
  }
  param {
    lr_mult: 2
    decay_mult: 0
  }
  convolution_param {
    num_output: 12
    pad: 1
    kernel_size: 3
    stride: 1
    weight_filler {
      type: "xavier"
    }
    bias_filler {
      type: "constant"
      value: 0
    }
  }
}
layer {
  name: "conv11_2_mbox_conf_perm"
  type: "Permute"
  bottom: "conv11_2_mbox_conf"
  top: "conv11_2_mbox_conf_perm"
  permute_param {
    order: 0
    order: 2
    order: 3
    order: 1
  }
}
layer {
  name: "conv11_2_mbox_conf_flat"
  type: "Flatten"
  bottom: "conv11_2_mbox_conf_perm"
  top: "conv11_2_mbox_conf_flat"
  flatten_param {
    axis: 1
  }
}
layer {
  name: "conv11_2_mbox_priorbox"
  type: "PriorBox"
  bottom: "conv11_2"
  bottom: "data"
  top: "conv11_2_mbox_priorbox"
  prior_box_param {
    min_size: 264
    max_size: 315
    aspect_ratio: 2
    flip: true
    clip: false
    variance: 0.1
    variance: 0.1
    variance: 0.2
    variance: 0.2
    step: 300
    offset: 0.5
  }
}
layer {
  name: "mbox_loc"
  type: "Concat"
  bottom: "conv4_3_norm_mbox_loc_flat"
  bottom: "fc7_mbox_loc_flat"
  bottom: "conv8_2_mbox_loc_flat"
  bottom: "conv9_2_mbox_loc_flat"
  bottom: "conv10_2_mbox_loc_flat"
  bottom: "conv11_2_mbox_loc_flat"
  top: "mbox_loc"
  concat_param {
    axis: 1
  }
}
layer {
  name: "mbox_conf"
  type: "Concat"
  bottom: "conv4_3_norm_mbox_conf_flat"
  bottom: "fc7_mbox_conf_flat"
  bottom: "conv8_2_mbox_conf_flat"
  bottom: "conv9_2_mbox_conf_flat"
  bottom: "conv10_2_mbox_conf_flat"
  bottom: "conv11_2_mbox_conf_flat"
  top: "mbox_conf"
  concat_param {
    axis: 1
  }
}
layer {
  name: "mbox_priorbox"
  type: "Concat"
  bottom: "conv4_3_norm_mbox_priorbox"
  bottom: "fc7_mbox_priorbox"
  bottom: "conv8_2_mbox_priorbox"
  bottom: "conv9_2_mbox_priorbox"
  bottom: "conv10_2_mbox_priorbox"
  bottom: "conv11_2_mbox_priorbox"
  top: "mbox_priorbox"
  concat_param {
    axis: 2
  }
}
layer {
  name: "mbox_loss"
  type: "MultiBoxLoss"
  bottom: "mbox_loc"
  bottom: "mbox_conf"
  bottom: "mbox_priorbox"
  bottom: "label"
  top: "mbox_loss"
  include {
    phase: TRAIN
  }
  propagate_down: true
  propagate_down: true
  propagate_down: false
  propagate_down: false
  loss_param {
    normalization: VALID
  }
  multibox_loss_param {
    loc_loss_type: SMOOTH_L1
    conf_loss_type: SOFTMAX
    loc_weight: 1
    num_classes: 3
    share_location: true
    match_type: PER_PREDICTION
    overlap_threshold: 0.5
    use_prior_for_matching: true
    background_label_id: 0
    use_difficult_gt: true
    neg_pos_ratio: 3
    neg_overlap: 0.5
    code_type: CENTER_SIZE
    ignore_cross_boundary_bbox: false
    mining_type: MAX_NEGATIVE
  }
}
I0730 21:20:39.334380 18868 layer_factory.hpp:77] Creating layer data
I0730 21:20:39.334380 18868 common.cpp:36] System entropy source not available, using fallback algorithm to generate seed instead.
I0730 21:20:39.335377 18868 net.cpp:100] Creating Layer data
I0730 21:20:39.335377 18868 net.cpp:408] data -> data
I0730 21:20:39.335377 18868 net.cpp:408] data -> label
I0730 21:20:39.335377 16528 common.cpp:36] System entropy source not available, using fallback algorithm to generate seed instead.
I0730 21:20:39.418156 16528 db_lmdb.cpp:40] Opened lmdb examples\wastedata\wastedata_trainval_lmdb
I0730 21:20:39.430124 18868 annotated_data_layer.cpp:62] output data size: 8,3,300,300
I0730 21:20:39.447078 18868 net.cpp:150] Setting up data
I0730 21:20:39.447078 18868 net.cpp:157] Top shape: 8 3 300 300 (2160000)
I0730 21:20:39.447078 18868 net.cpp:157] Top shape: 1 1 1 8 (8)
I0730 21:20:39.447078 18868 net.cpp:165] Memory required for data: 8640032
I0730 21:20:39.447078 18868 layer_factory.hpp:77] Creating layer data_data_0_split
I0730 21:20:39.447078 18868 net.cpp:100] Creating Layer data_data_0_split
I0730 21:20:39.447078 18868 net.cpp:434] data_data_0_split <- data
I0730 21:20:39.447078 18868 net.cpp:408] data_data_0_split -> data_data_0_split_0
I0730 21:20:39.447078 18868 net.cpp:408] data_data_0_split -> data_data_0_split_1
I0730 21:20:39.447078 18868 net.cpp:408] data_data_0_split -> data_data_0_split_2
I0730 21:20:39.448079 18868 net.cpp:408] data_data_0_split -> data_data_0_split_3
I0730 21:20:39.448079 18868 net.cpp:408] data_data_0_split -> data_data_0_split_4
I0730 21:20:39.448079 18868 net.cpp:408] data_data_0_split -> data_data_0_split_5
I0730 21:20:39.448079 18868 net.cpp:408] data_data_0_split -> data_data_0_split_6
I0730 21:20:39.448079 18868 net.cpp:150] Setting up data_data_0_split
I0730 21:20:39.448079 18868 net.cpp:157] Top shape: 8 3 300 300 (2160000)
I0730 21:20:39.448079 18868 net.cpp:157] Top shape: 8 3 300 300 (2160000)
I0730 21:20:39.448079 18868 net.cpp:157] Top shape: 8 3 300 300 (2160000)
I0730 21:20:39.448079 18868 net.cpp:157] Top shape: 8 3 300 300 (2160000)
I0730 21:20:39.448079 18868 net.cpp:157] Top shape: 8 3 300 300 (2160000)
I0730 21:20:39.448079 18868 net.cpp:157] Top shape: 8 3 300 300 (2160000)
I0730 21:20:39.448079 18868 net.cpp:157] Top shape: 8 3 300 300 (2160000)
I0730 21:20:39.448079 18868 net.cpp:165] Memory required for data: 69120032
I0730 21:20:39.448079 18868 layer_factory.hpp:77] Creating layer conv1_1
I0730 21:20:39.448079 18868 net.cpp:100] Creating Layer conv1_1
I0730 21:20:39.448079 18868 net.cpp:434] conv1_1 <- data_data_0_split_0
I0730 21:20:39.448079 18868 net.cpp:408] conv1_1 -> conv1_1
I0730 21:20:39.448079 13412 common.cpp:36] System entropy source not available, using fallback algorithm to generate seed instead.
I0730 21:20:40.462363 18868 net.cpp:150] Setting up conv1_1
I0730 21:20:40.462363 18868 net.cpp:157] Top shape: 8 64 300 300 (46080000)
I0730 21:20:40.462363 18868 net.cpp:165] Memory required for data: 253440032
I0730 21:20:40.462363 18868 layer_factory.hpp:77] Creating layer relu1_1
I0730 21:20:40.463361 18868 net.cpp:100] Creating Layer relu1_1
I0730 21:20:40.463361 18868 net.cpp:434] relu1_1 <- conv1_1
I0730 21:20:40.463361 18868 net.cpp:395] relu1_1 -> conv1_1 (in-place)
I0730 21:20:40.463361 18868 net.cpp:150] Setting up relu1_1
I0730 21:20:40.463361 18868 net.cpp:157] Top shape: 8 64 300 300 (46080000)
I0730 21:20:40.463361 18868 net.cpp:165] Memory required for data: 437760032
I0730 21:20:40.463361 18868 layer_factory.hpp:77] Creating layer conv1_2
I0730 21:20:40.463361 18868 net.cpp:100] Creating Layer conv1_2
I0730 21:20:40.463361 18868 net.cpp:434] conv1_2 <- conv1_1
I0730 21:20:40.463361 18868 net.cpp:408] conv1_2 -> conv1_2
I0730 21:20:40.466353 18868 net.cpp:150] Setting up conv1_2
I0730 21:20:40.466353 18868 net.cpp:157] Top shape: 8 64 300 300 (46080000)
I0730 21:20:40.466353 18868 net.cpp:165] Memory required for data: 622080032
I0730 21:20:40.466353 18868 layer_factory.hpp:77] Creating layer relu1_2
I0730 21:20:40.466353 18868 net.cpp:100] Creating Layer relu1_2
I0730 21:20:40.466353 18868 net.cpp:434] relu1_2 <- conv1_2
I0730 21:20:40.466353 18868 net.cpp:395] relu1_2 -> conv1_2 (in-place)
I0730 21:20:40.466353 18868 net.cpp:150] Setting up relu1_2
I0730 21:20:40.466353 18868 net.cpp:157] Top shape: 8 64 300 300 (46080000)
I0730 21:20:40.466353 18868 net.cpp:165] Memory required for data: 806400032
I0730 21:20:40.466353 18868 layer_factory.hpp:77] Creating layer pool1
I0730 21:20:40.466353 18868 net.cpp:100] Creating Layer pool1
I0730 21:20:40.466353 18868 net.cpp:434] pool1 <- conv1_2
I0730 21:20:40.466353 18868 net.cpp:408] pool1 -> pool1
I0730 21:20:40.466353 18868 net.cpp:150] Setting up pool1
I0730 21:20:40.466353 18868 net.cpp:157] Top shape: 8 64 150 150 (11520000)
I0730 21:20:40.467350 18868 net.cpp:165] Memory required for data: 852480032
I0730 21:20:40.467350 18868 layer_factory.hpp:77] Creating layer conv2_1
I0730 21:20:40.467350 18868 net.cpp:100] Creating Layer conv2_1
I0730 21:20:40.467350 18868 net.cpp:434] conv2_1 <- pool1
I0730 21:20:40.467350 18868 net.cpp:408] conv2_1 -> conv2_1
I0730 21:20:40.470342 18868 net.cpp:150] Setting up conv2_1
I0730 21:20:40.470342 18868 net.cpp:157] Top shape: 8 128 150 150 (23040000)
I0730 21:20:40.470342 18868 net.cpp:165] Memory required for data: 944640032
I0730 21:20:40.470342 18868 layer_factory.hpp:77] Creating layer relu2_1
I0730 21:20:40.470342 18868 net.cpp:100] Creating Layer relu2_1
I0730 21:20:40.470342 18868 net.cpp:434] relu2_1 <- conv2_1
I0730 21:20:40.470342 18868 net.cpp:395] relu2_1 -> conv2_1 (in-place)
I0730 21:20:40.471339 18868 net.cpp:150] Setting up relu2_1
I0730 21:20:40.471339 18868 net.cpp:157] Top shape: 8 128 150 150 (23040000)
I0730 21:20:40.471339 18868 net.cpp:165] Memory required for data: 1036800032
I0730 21:20:40.471339 18868 layer_factory.hpp:77] Creating layer conv2_2
I0730 21:20:40.471339 18868 net.cpp:100] Creating Layer conv2_2
I0730 21:20:40.471339 18868 net.cpp:434] conv2_2 <- conv2_1
I0730 21:20:40.471339 18868 net.cpp:408] conv2_2 -> conv2_2
I0730 21:20:40.475329 18868 net.cpp:150] Setting up conv2_2
I0730 21:20:40.475329 18868 net.cpp:157] Top shape: 8 128 150 150 (23040000)
I0730 21:20:40.475329 18868 net.cpp:165] Memory required for data: 1128960032
I0730 21:20:40.475329 18868 layer_factory.hpp:77] Creating layer relu2_2
I0730 21:20:40.475329 18868 net.cpp:100] Creating Layer relu2_2
I0730 21:20:40.475329 18868 net.cpp:434] relu2_2 <- conv2_2
I0730 21:20:40.475329 18868 net.cpp:395] relu2_2 -> conv2_2 (in-place)
I0730 21:20:40.475329 18868 net.cpp:150] Setting up relu2_2
I0730 21:20:40.475329 18868 net.cpp:157] Top shape: 8 128 150 150 (23040000)
I0730 21:20:40.475329 18868 net.cpp:165] Memory required for data: 1221120032
I0730 21:20:40.475329 18868 layer_factory.hpp:77] Creating layer pool2
I0730 21:20:40.475329 18868 net.cpp:100] Creating Layer pool2
I0730 21:20:40.475329 18868 net.cpp:434] pool2 <- conv2_2
I0730 21:20:40.475329 18868 net.cpp:408] pool2 -> pool2
I0730 21:20:40.475329 18868 net.cpp:150] Setting up pool2
I0730 21:20:40.475329 18868 net.cpp:157] Top shape: 8 128 75 75 (5760000)
I0730 21:20:40.475329 18868 net.cpp:165] Memory required for data: 1244160032
I0730 21:20:40.475329 18868 layer_factory.hpp:77] Creating layer conv3_1
I0730 21:20:40.475329 18868 net.cpp:100] Creating Layer conv3_1
I0730 21:20:40.475329 18868 net.cpp:434] conv3_1 <- pool2
I0730 21:20:40.475329 18868 net.cpp:408] conv3_1 -> conv3_1
I0730 21:20:40.481312 18868 net.cpp:150] Setting up conv3_1
I0730 21:20:40.481312 18868 net.cpp:157] Top shape: 8 256 75 75 (11520000)
I0730 21:20:40.481312 18868 net.cpp:165] Memory required for data: 1290240032
I0730 21:20:40.481312 18868 layer_factory.hpp:77] Creating layer relu3_1
I0730 21:20:40.481312 18868 net.cpp:100] Creating Layer relu3_1
I0730 21:20:40.481312 18868 net.cpp:434] relu3_1 <- conv3_1
I0730 21:20:40.481312 18868 net.cpp:395] relu3_1 -> conv3_1 (in-place)
I0730 21:20:40.482311 18868 net.cpp:150] Setting up relu3_1
I0730 21:20:40.482311 18868 net.cpp:157] Top shape: 8 256 75 75 (11520000)
I0730 21:20:40.482311 18868 net.cpp:165] Memory required for data: 1336320032
I0730 21:20:40.482311 18868 layer_factory.hpp:77] Creating layer conv3_2
I0730 21:20:40.482311 18868 net.cpp:100] Creating Layer conv3_2
I0730 21:20:40.482311 18868 net.cpp:434] conv3_2 <- conv3_1
I0730 21:20:40.482311 18868 net.cpp:408] conv3_2 -> conv3_2
I0730 21:20:40.490289 18868 net.cpp:150] Setting up conv3_2
I0730 21:20:40.490289 18868 net.cpp:157] Top shape: 8 256 75 75 (11520000)
I0730 21:20:40.490289 18868 net.cpp:165] Memory required for data: 1382400032
I0730 21:20:40.490289 18868 layer_factory.hpp:77] Creating layer relu3_2
I0730 21:20:40.490289 18868 net.cpp:100] Creating Layer relu3_2
I0730 21:20:40.490289 18868 net.cpp:434] relu3_2 <- conv3_2
I0730 21:20:40.490289 18868 net.cpp:395] relu3_2 -> conv3_2 (in-place)
I0730 21:20:40.490289 18868 net.cpp:150] Setting up relu3_2
I0730 21:20:40.490289 18868 net.cpp:157] Top shape: 8 256 75 75 (11520000)
I0730 21:20:40.490289 18868 net.cpp:165] Memory required for data: 1428480032
I0730 21:20:40.490289 18868 layer_factory.hpp:77] Creating layer conv3_3
I0730 21:20:40.490289 18868 net.cpp:100] Creating Layer conv3_3
I0730 21:20:40.490289 18868 net.cpp:434] conv3_3 <- conv3_2
I0730 21:20:40.490289 18868 net.cpp:408] conv3_3 -> conv3_3
I0730 21:20:40.498267 18868 net.cpp:150] Setting up conv3_3
I0730 21:20:40.498267 18868 net.cpp:157] Top shape: 8 256 75 75 (11520000)
I0730 21:20:40.498267 18868 net.cpp:165] Memory required for data: 1474560032
I0730 21:20:40.498267 18868 layer_factory.hpp:77] Creating layer relu3_3
I0730 21:20:40.498267 18868 net.cpp:100] Creating Layer relu3_3
I0730 21:20:40.498267 18868 net.cpp:434] relu3_3 <- conv3_3
I0730 21:20:40.498267 18868 net.cpp:395] relu3_3 -> conv3_3 (in-place)
I0730 21:20:40.498267 18868 net.cpp:150] Setting up relu3_3
I0730 21:20:40.499265 18868 net.cpp:157] Top shape: 8 256 75 75 (11520000)
I0730 21:20:40.499265 18868 net.cpp:165] Memory required for data: 1520640032
I0730 21:20:40.499265 18868 layer_factory.hpp:77] Creating layer pool3
I0730 21:20:40.499265 18868 net.cpp:100] Creating Layer pool3
I0730 21:20:40.499265 18868 net.cpp:434] pool3 <- conv3_3
I0730 21:20:40.499265 18868 net.cpp:408] pool3 -> pool3
I0730 21:20:40.499265 18868 net.cpp:150] Setting up pool3
I0730 21:20:40.499265 18868 net.cpp:157] Top shape: 8 256 38 38 (2957312)
I0730 21:20:40.499265 18868 net.cpp:165] Memory required for data: 1532469280
I0730 21:20:40.499265 18868 layer_factory.hpp:77] Creating layer conv4_1
I0730 21:20:40.499265 18868 net.cpp:100] Creating Layer conv4_1
I0730 21:20:40.499265 18868 net.cpp:434] conv4_1 <- pool3
I0730 21:20:40.499265 18868 net.cpp:408] conv4_1 -> conv4_1
I0730 21:20:40.509238 18868 net.cpp:150] Setting up conv4_1
I0730 21:20:40.509238 18868 net.cpp:157] Top shape: 8 512 38 38 (5914624)
I0730 21:20:40.509238 18868 net.cpp:165] Memory required for data: 1556127776
I0730 21:20:40.509238 18868 layer_factory.hpp:77] Creating layer relu4_1
I0730 21:20:40.509238 18868 net.cpp:100] Creating Layer relu4_1
I0730 21:20:40.509238 18868 net.cpp:434] relu4_1 <- conv4_1
I0730 21:20:40.509238 18868 net.cpp:395] relu4_1 -> conv4_1 (in-place)
I0730 21:20:40.510236 18868 net.cpp:150] Setting up relu4_1
I0730 21:20:40.510236 18868 net.cpp:157] Top shape: 8 512 38 38 (5914624)
I0730 21:20:40.510236 18868 net.cpp:165] Memory required for data: 1579786272
I0730 21:20:40.510236 18868 layer_factory.hpp:77] Creating layer conv4_2
I0730 21:20:40.510236 18868 net.cpp:100] Creating Layer conv4_2
I0730 21:20:40.510236 18868 net.cpp:434] conv4_2 <- conv4_1
I0730 21:20:40.510236 18868 net.cpp:408] conv4_2 -> conv4_2
I0730 21:20:40.527190 18868 net.cpp:150] Setting up conv4_2
I0730 21:20:40.527190 18868 net.cpp:157] Top shape: 8 512 38 38 (5914624)
I0730 21:20:40.527190 18868 net.cpp:165] Memory required for data: 1603444768
I0730 21:20:40.527190 18868 layer_factory.hpp:77] Creating layer relu4_2
I0730 21:20:40.527190 18868 net.cpp:100] Creating Layer relu4_2
I0730 21:20:40.527190 18868 net.cpp:434] relu4_2 <- conv4_2
I0730 21:20:40.527190 18868 net.cpp:395] relu4_2 -> conv4_2 (in-place)
I0730 21:20:40.528187 18868 net.cpp:150] Setting up relu4_2
I0730 21:20:40.528187 18868 net.cpp:157] Top shape: 8 512 38 38 (5914624)
I0730 21:20:40.528187 18868 net.cpp:165] Memory required for data: 1627103264
I0730 21:20:40.528187 18868 layer_factory.hpp:77] Creating layer conv4_3
I0730 21:20:40.528187 18868 net.cpp:100] Creating Layer conv4_3
I0730 21:20:40.528187 18868 net.cpp:434] conv4_3 <- conv4_2
I0730 21:20:40.528187 18868 net.cpp:408] conv4_3 -> conv4_3
I0730 21:20:40.546139 18868 net.cpp:150] Setting up conv4_3
I0730 21:20:40.546139 18868 net.cpp:157] Top shape: 8 512 38 38 (5914624)
I0730 21:20:40.546139 18868 net.cpp:165] Memory required for data: 1650761760
I0730 21:20:40.546139 18868 layer_factory.hpp:77] Creating layer relu4_3
I0730 21:20:40.546139 18868 net.cpp:100] Creating Layer relu4_3
I0730 21:20:40.546139 18868 net.cpp:434] relu4_3 <- conv4_3
I0730 21:20:40.546139 18868 net.cpp:395] relu4_3 -> conv4_3 (in-place)
I0730 21:20:40.547137 18868 net.cpp:150] Setting up relu4_3
I0730 21:20:40.547137 18868 net.cpp:157] Top shape: 8 512 38 38 (5914624)
I0730 21:20:40.547137 18868 net.cpp:165] Memory required for data: 1674420256
I0730 21:20:40.547137 18868 layer_factory.hpp:77] Creating layer conv4_3_relu4_3_0_split
I0730 21:20:40.547137 18868 net.cpp:100] Creating Layer conv4_3_relu4_3_0_split
I0730 21:20:40.547137 18868 net.cpp:434] conv4_3_relu4_3_0_split <- conv4_3
I0730 21:20:40.547137 18868 net.cpp:408] conv4_3_relu4_3_0_split -> conv4_3_relu4_3_0_split_0
I0730 21:20:40.547137 18868 net.cpp:408] conv4_3_relu4_3_0_split -> conv4_3_relu4_3_0_split_1
I0730 21:20:40.548135 18868 net.cpp:150] Setting up conv4_3_relu4_3_0_split
I0730 21:20:40.548135 18868 net.cpp:157] Top shape: 8 512 38 38 (5914624)
I0730 21:20:40.548135 18868 net.cpp:157] Top shape: 8 512 38 38 (5914624)
I0730 21:20:40.548135 18868 net.cpp:165] Memory required for data: 1721737248
I0730 21:20:40.548135 18868 layer_factory.hpp:77] Creating layer pool4
I0730 21:20:40.548135 18868 net.cpp:100] Creating Layer pool4
I0730 21:20:40.548135 18868 net.cpp:434] pool4 <- conv4_3_relu4_3_0_split_0
I0730 21:20:40.548135 18868 net.cpp:408] pool4 -> pool4
I0730 21:20:40.548135 18868 net.cpp:150] Setting up pool4
I0730 21:20:40.548135 18868 net.cpp:157] Top shape: 8 512 19 19 (1478656)
I0730 21:20:40.548135 18868 net.cpp:165] Memory required for data: 1727651872
I0730 21:20:40.548135 18868 layer_factory.hpp:77] Creating layer conv5_1
I0730 21:20:40.548135 18868 net.cpp:100] Creating Layer conv5_1
I0730 21:20:40.548135 18868 net.cpp:434] conv5_1 <- pool4
I0730 21:20:40.548135 18868 net.cpp:408] conv5_1 -> conv5_1
I0730 21:20:40.565088 18868 net.cpp:150] Setting up conv5_1
I0730 21:20:40.565088 18868 net.cpp:157] Top shape: 8 512 19 19 (1478656)
I0730 21:20:40.565088 18868 net.cpp:165] Memory required for data: 1733566496
I0730 21:20:40.565088 18868 layer_factory.hpp:77] Creating layer relu5_1
I0730 21:20:40.565088 18868 net.cpp:100] Creating Layer relu5_1
I0730 21:20:40.565088 18868 net.cpp:434] relu5_1 <- conv5_1
I0730 21:20:40.565088 18868 net.cpp:395] relu5_1 -> conv5_1 (in-place)
I0730 21:20:40.566087 18868 net.cpp:150] Setting up relu5_1
I0730 21:20:40.566087 18868 net.cpp:157] Top shape: 8 512 19 19 (1478656)
I0730 21:20:40.566087 18868 net.cpp:165] Memory required for data: 1739481120
I0730 21:20:40.566087 18868 layer_factory.hpp:77] Creating layer conv5_2
I0730 21:20:40.566087 18868 net.cpp:100] Creating Layer conv5_2
I0730 21:20:40.566087 18868 net.cpp:434] conv5_2 <- conv5_1
I0730 21:20:40.566087 18868 net.cpp:408] conv5_2 -> conv5_2
I0730 21:20:40.583040 18868 net.cpp:150] Setting up conv5_2
I0730 21:20:40.583040 18868 net.cpp:157] Top shape: 8 512 19 19 (1478656)
I0730 21:20:40.583040 18868 net.cpp:165] Memory required for data: 1745395744
I0730 21:20:40.583040 18868 layer_factory.hpp:77] Creating layer relu5_2
I0730 21:20:40.583040 18868 net.cpp:100] Creating Layer relu5_2
I0730 21:20:40.583040 18868 net.cpp:434] relu5_2 <- conv5_2
I0730 21:20:40.583040 18868 net.cpp:395] relu5_2 -> conv5_2 (in-place)
I0730 21:20:40.584038 18868 net.cpp:150] Setting up relu5_2
I0730 21:20:40.584038 18868 net.cpp:157] Top shape: 8 512 19 19 (1478656)
I0730 21:20:40.584038 18868 net.cpp:165] Memory required for data: 1751310368
I0730 21:20:40.584038 18868 layer_factory.hpp:77] Creating layer conv5_3
I0730 21:20:40.584038 18868 net.cpp:100] Creating Layer conv5_3
I0730 21:20:40.584038 18868 net.cpp:434] conv5_3 <- conv5_2
I0730 21:20:40.584038 18868 net.cpp:408] conv5_3 -> conv5_3
I0730 21:20:40.600992 18868 net.cpp:150] Setting up conv5_3
I0730 21:20:40.600992 18868 net.cpp:157] Top shape: 8 512 19 19 (1478656)
I0730 21:20:40.600992 18868 net.cpp:165] Memory required for data: 1757224992
I0730 21:20:40.600992 18868 layer_factory.hpp:77] Creating layer relu5_3
I0730 21:20:40.600992 18868 net.cpp:100] Creating Layer relu5_3
I0730 21:20:40.600992 18868 net.cpp:434] relu5_3 <- conv5_3
I0730 21:20:40.600992 18868 net.cpp:395] relu5_3 -> conv5_3 (in-place)
I0730 21:20:40.601990 18868 net.cpp:150] Setting up relu5_3
I0730 21:20:40.601990 18868 net.cpp:157] Top shape: 8 512 19 19 (1478656)
I0730 21:20:40.601990 18868 net.cpp:165] Memory required for data: 1763139616
I0730 21:20:40.601990 18868 layer_factory.hpp:77] Creating layer pool5
I0730 21:20:40.601990 18868 net.cpp:100] Creating Layer pool5
I0730 21:20:40.601990 18868 net.cpp:434] pool5 <- conv5_3
I0730 21:20:40.601990 18868 net.cpp:408] pool5 -> pool5
I0730 21:20:40.601990 18868 net.cpp:150] Setting up pool5
I0730 21:20:40.601990 18868 net.cpp:157] Top shape: 8 512 19 19 (1478656)
I0730 21:20:40.601990 18868 net.cpp:165] Memory required for data: 1769054240
I0730 21:20:40.601990 18868 layer_factory.hpp:77] Creating layer fc6
I0730 21:20:40.601990 18868 net.cpp:100] Creating Layer fc6
I0730 21:20:40.601990 18868 net.cpp:434] fc6 <- pool5
I0730 21:20:40.601990 18868 net.cpp:408] fc6 -> fc6
I0730 21:20:40.631911 18868 net.cpp:150] Setting up fc6
I0730 21:20:40.631911 18868 net.cpp:157] Top shape: 8 1024 19 19 (2957312)
I0730 21:20:40.631911 18868 net.cpp:165] Memory required for data: 1780883488
I0730 21:20:40.631911 18868 layer_factory.hpp:77] Creating layer relu6
I0730 21:20:40.631911 18868 net.cpp:100] Creating Layer relu6
I0730 21:20:40.631911 18868 net.cpp:434] relu6 <- fc6
I0730 21:20:40.631911 18868 net.cpp:395] relu6 -> fc6 (in-place)
I0730 21:20:40.632907 18868 net.cpp:150] Setting up relu6
I0730 21:20:40.632907 18868 net.cpp:157] Top shape: 8 1024 19 19 (2957312)
I0730 21:20:40.632907 18868 net.cpp:165] Memory required for data: 1792712736
I0730 21:20:40.632907 18868 layer_factory.hpp:77] Creating layer fc7
I0730 21:20:40.632907 18868 net.cpp:100] Creating Layer fc7
I0730 21:20:40.632907 18868 net.cpp:434] fc7 <- fc6
I0730 21:20:40.632907 18868 net.cpp:408] fc7 -> fc7
I0730 21:20:40.642880 18868 net.cpp:150] Setting up fc7
I0730 21:20:40.642880 18868 net.cpp:157] Top shape: 8 1024 19 19 (2957312)
I0730 21:20:40.642880 18868 net.cpp:165] Memory required for data: 1804541984
I0730 21:20:40.642880 18868 layer_factory.hpp:77] Creating layer relu7
I0730 21:20:40.642880 18868 net.cpp:100] Creating Layer relu7
I0730 21:20:40.642880 18868 net.cpp:434] relu7 <- fc7
I0730 21:20:40.642880 18868 net.cpp:395] relu7 -> fc7 (in-place)
I0730 21:20:40.642880 18868 net.cpp:150] Setting up relu7
I0730 21:20:40.642880 18868 net.cpp:157] Top shape: 8 1024 19 19 (2957312)
I0730 21:20:40.642880 18868 net.cpp:165] Memory required for data: 1816371232
I0730 21:20:40.642880 18868 layer_factory.hpp:77] Creating layer fc7_relu7_0_split
I0730 21:20:40.642880 18868 net.cpp:100] Creating Layer fc7_relu7_0_split
I0730 21:20:40.642880 18868 net.cpp:434] fc7_relu7_0_split <- fc7
I0730 21:20:40.642880 18868 net.cpp:408] fc7_relu7_0_split -> fc7_relu7_0_split_0
I0730 21:20:40.642880 18868 net.cpp:408] fc7_relu7_0_split -> fc7_relu7_0_split_1
I0730 21:20:40.642880 18868 net.cpp:408] fc7_relu7_0_split -> fc7_relu7_0_split_2
I0730 21:20:40.642880 18868 net.cpp:408] fc7_relu7_0_split -> fc7_relu7_0_split_3
I0730 21:20:40.642880 18868 net.cpp:150] Setting up fc7_relu7_0_split
I0730 21:20:40.642880 18868 net.cpp:157] Top shape: 8 1024 19 19 (2957312)
I0730 21:20:40.642880 18868 net.cpp:157] Top shape: 8 1024 19 19 (2957312)
I0730 21:20:40.642880 18868 net.cpp:157] Top shape: 8 1024 19 19 (2957312)
I0730 21:20:40.642880 18868 net.cpp:157] Top shape: 8 1024 19 19 (2957312)
I0730 21:20:40.642880 18868 net.cpp:165] Memory required for data: 1863688224
I0730 21:20:40.642880 18868 layer_factory.hpp:77] Creating layer conv8_1
I0730 21:20:40.642880 18868 net.cpp:100] Creating Layer conv8_1
I0730 21:20:40.642880 18868 net.cpp:434] conv8_1 <- fc7_relu7_0_split_0
I0730 21:20:40.642880 18868 net.cpp:408] conv8_1 -> conv8_1
I0730 21:20:40.648864 18868 net.cpp:150] Setting up conv8_1
I0730 21:20:40.648864 18868 net.cpp:157] Top shape: 8 256 19 19 (739328)
I0730 21:20:40.648864 18868 net.cpp:165] Memory required for data: 1866645536
I0730 21:20:40.648864 18868 layer_factory.hpp:77] Creating layer conv8_1_relu
I0730 21:20:40.648864 18868 net.cpp:100] Creating Layer conv8_1_relu
I0730 21:20:40.648864 18868 net.cpp:434] conv8_1_relu <- conv8_1
I0730 21:20:40.648864 18868 net.cpp:395] conv8_1_relu -> conv8_1 (in-place)
I0730 21:20:40.648864 18868 net.cpp:150] Setting up conv8_1_relu
I0730 21:20:40.648864 18868 net.cpp:157] Top shape: 8 256 19 19 (739328)
I0730 21:20:40.648864 18868 net.cpp:165] Memory required for data: 1869602848
I0730 21:20:40.648864 18868 layer_factory.hpp:77] Creating layer conv8_2
I0730 21:20:40.648864 18868 net.cpp:100] Creating Layer conv8_2
I0730 21:20:40.648864 18868 net.cpp:434] conv8_2 <- conv8_1
I0730 21:20:40.648864 18868 net.cpp:408] conv8_2 -> conv8_2
I0730 21:20:40.658838 18868 net.cpp:150] Setting up conv8_2
I0730 21:20:40.658838 18868 net.cpp:157] Top shape: 8 512 10 10 (409600)
I0730 21:20:40.658838 18868 net.cpp:165] Memory required for data: 1871241248
I0730 21:20:40.658838 18868 layer_factory.hpp:77] Creating layer conv8_2_relu
I0730 21:20:40.658838 18868 net.cpp:100] Creating Layer conv8_2_relu
I0730 21:20:40.658838 18868 net.cpp:434] conv8_2_relu <- conv8_2
I0730 21:20:40.658838 18868 net.cpp:395] conv8_2_relu -> conv8_2 (in-place)
I0730 21:20:40.659835 18868 net.cpp:150] Setting up conv8_2_relu
I0730 21:20:40.659835 18868 net.cpp:157] Top shape: 8 512 10 10 (409600)
I0730 21:20:40.659835 18868 net.cpp:165] Memory required for data: 1872879648
I0730 21:20:40.659835 18868 layer_factory.hpp:77] Creating layer conv8_2_conv8_2_relu_0_split
I0730 21:20:40.659835 18868 net.cpp:100] Creating Layer conv8_2_conv8_2_relu_0_split
I0730 21:20:40.659835 18868 net.cpp:434] conv8_2_conv8_2_relu_0_split <- conv8_2
I0730 21:20:40.659835 18868 net.cpp:408] conv8_2_conv8_2_relu_0_split -> conv8_2_conv8_2_relu_0_split_0
I0730 21:20:40.659835 18868 net.cpp:408] conv8_2_conv8_2_relu_0_split -> conv8_2_conv8_2_relu_0_split_1
I0730 21:20:40.659835 18868 net.cpp:408] conv8_2_conv8_2_relu_0_split -> conv8_2_conv8_2_relu_0_split_2
I0730 21:20:40.659835 18868 net.cpp:408] conv8_2_conv8_2_relu_0_split -> conv8_2_conv8_2_relu_0_split_3
I0730 21:20:40.659835 18868 net.cpp:150] Setting up conv8_2_conv8_2_relu_0_split
I0730 21:20:40.659835 18868 net.cpp:157] Top shape: 8 512 10 10 (409600)
I0730 21:20:40.659835 18868 net.cpp:157] Top shape: 8 512 10 10 (409600)
I0730 21:20:40.659835 18868 net.cpp:157] Top shape: 8 512 10 10 (409600)
I0730 21:20:40.659835 18868 net.cpp:157] Top shape: 8 512 10 10 (409600)
I0730 21:20:40.659835 18868 net.cpp:165] Memory required for data: 1879433248
I0730 21:20:40.659835 18868 layer_factory.hpp:77] Creating layer conv9_1
I0730 21:20:40.659835 18868 net.cpp:100] Creating Layer conv9_1
I0730 21:20:40.659835 18868 net.cpp:434] conv9_1 <- conv8_2_conv8_2_relu_0_split_0
I0730 21:20:40.659835 18868 net.cpp:408] conv9_1 -> conv9_1
I0730 21:20:40.662827 18868 net.cpp:150] Setting up conv9_1
I0730 21:20:40.662827 18868 net.cpp:157] Top shape: 8 128 10 10 (102400)
I0730 21:20:40.662827 18868 net.cpp:165] Memory required for data: 1879842848
I0730 21:20:40.662827 18868 layer_factory.hpp:77] Creating layer conv9_1_relu
I0730 21:20:40.662827 18868 net.cpp:100] Creating Layer conv9_1_relu
I0730 21:20:40.662827 18868 net.cpp:434] conv9_1_relu <- conv9_1
I0730 21:20:40.662827 18868 net.cpp:395] conv9_1_relu -> conv9_1 (in-place)
I0730 21:20:40.662827 18868 net.cpp:150] Setting up conv9_1_relu
I0730 21:20:40.662827 18868 net.cpp:157] Top shape: 8 128 10 10 (102400)
I0730 21:20:40.662827 18868 net.cpp:165] Memory required for data: 1880252448
I0730 21:20:40.662827 18868 layer_factory.hpp:77] Creating layer conv9_2
I0730 21:20:40.662827 18868 net.cpp:100] Creating Layer conv9_2
I0730 21:20:40.662827 18868 net.cpp:434] conv9_2 <- conv9_1
I0730 21:20:40.662827 18868 net.cpp:408] conv9_2 -> conv9_2
I0730 21:20:40.667814 18868 net.cpp:150] Setting up conv9_2
I0730 21:20:40.667814 18868 net.cpp:157] Top shape: 8 256 5 5 (51200)
I0730 21:20:40.667814 18868 net.cpp:165] Memory required for data: 1880457248
I0730 21:20:40.667814 18868 layer_factory.hpp:77] Creating layer conv9_2_relu
I0730 21:20:40.667814 18868 net.cpp:100] Creating Layer conv9_2_relu
I0730 21:20:40.667814 18868 net.cpp:434] conv9_2_relu <- conv9_2
I0730 21:20:40.667814 18868 net.cpp:395] conv9_2_relu -> conv9_2 (in-place)
I0730 21:20:40.668812 18868 net.cpp:150] Setting up conv9_2_relu
I0730 21:20:40.668812 18868 net.cpp:157] Top shape: 8 256 5 5 (51200)
I0730 21:20:40.668812 18868 net.cpp:165] Memory required for data: 1880662048
I0730 21:20:40.668812 18868 layer_factory.hpp:77] Creating layer conv9_2_conv9_2_relu_0_split
I0730 21:20:40.668812 18868 net.cpp:100] Creating Layer conv9_2_conv9_2_relu_0_split
I0730 21:20:40.668812 18868 net.cpp:434] conv9_2_conv9_2_relu_0_split <- conv9_2
I0730 21:20:40.668812 18868 net.cpp:408] conv9_2_conv9_2_relu_0_split -> conv9_2_conv9_2_relu_0_split_0
I0730 21:20:40.668812 18868 net.cpp:408] conv9_2_conv9_2_relu_0_split -> conv9_2_conv9_2_relu_0_split_1
I0730 21:20:40.668812 18868 net.cpp:408] conv9_2_conv9_2_relu_0_split -> conv9_2_conv9_2_relu_0_split_2
I0730 21:20:40.668812 18868 net.cpp:408] conv9_2_conv9_2_relu_0_split -> conv9_2_conv9_2_relu_0_split_3
I0730 21:20:40.668812 18868 net.cpp:150] Setting up conv9_2_conv9_2_relu_0_split
I0730 21:20:40.668812 18868 net.cpp:157] Top shape: 8 256 5 5 (51200)
I0730 21:20:40.668812 18868 net.cpp:157] Top shape: 8 256 5 5 (51200)
I0730 21:20:40.668812 18868 net.cpp:157] Top shape: 8 256 5 5 (51200)
I0730 21:20:40.668812 18868 net.cpp:157] Top shape: 8 256 5 5 (51200)
I0730 21:20:40.668812 18868 net.cpp:165] Memory required for data: 1881481248
I0730 21:20:40.668812 18868 layer_factory.hpp:77] Creating layer conv10_1
I0730 21:20:40.668812 18868 net.cpp:100] Creating Layer conv10_1
I0730 21:20:40.668812 18868 net.cpp:434] conv10_1 <- conv9_2_conv9_2_relu_0_split_0
I0730 21:20:40.668812 18868 net.cpp:408] conv10_1 -> conv10_1
I0730 21:20:40.671803 18868 net.cpp:150] Setting up conv10_1
I0730 21:20:40.671803 18868 net.cpp:157] Top shape: 8 128 5 5 (25600)
I0730 21:20:40.671803 18868 net.cpp:165] Memory required for data: 1881583648
I0730 21:20:40.671803 18868 layer_factory.hpp:77] Creating layer conv10_1_relu
I0730 21:20:40.671803 18868 net.cpp:100] Creating Layer conv10_1_relu
I0730 21:20:40.671803 18868 net.cpp:434] conv10_1_relu <- conv10_1
I0730 21:20:40.671803 18868 net.cpp:395] conv10_1_relu -> conv10_1 (in-place)
I0730 21:20:40.672801 18868 net.cpp:150] Setting up conv10_1_relu
I0730 21:20:40.672801 18868 net.cpp:157] Top shape: 8 128 5 5 (25600)
I0730 21:20:40.672801 18868 net.cpp:165] Memory required for data: 1881686048
I0730 21:20:40.672801 18868 layer_factory.hpp:77] Creating layer conv10_2
I0730 21:20:40.672801 18868 net.cpp:100] Creating Layer conv10_2
I0730 21:20:40.672801 18868 net.cpp:434] conv10_2 <- conv10_1
I0730 21:20:40.672801 18868 net.cpp:408] conv10_2 -> conv10_2
I0730 21:20:40.678786 18868 net.cpp:150] Setting up conv10_2
I0730 21:20:40.678786 18868 net.cpp:157] Top shape: 8 256 3 3 (18432)
I0730 21:20:40.678786 18868 net.cpp:165] Memory required for data: 1881759776
I0730 21:20:40.678786 18868 layer_factory.hpp:77] Creating layer conv10_2_relu
I0730 21:20:40.678786 18868 net.cpp:100] Creating Layer conv10_2_relu
I0730 21:20:40.678786 18868 net.cpp:434] conv10_2_relu <- conv10_2
I0730 21:20:40.678786 18868 net.cpp:395] conv10_2_relu -> conv10_2 (in-place)
I0730 21:20:40.679782 18868 net.cpp:150] Setting up conv10_2_relu
I0730 21:20:40.679782 18868 net.cpp:157] Top shape: 8 256 3 3 (18432)
I0730 21:20:40.679782 18868 net.cpp:165] Memory required for data: 1881833504
I0730 21:20:40.679782 18868 layer_factory.hpp:77] Creating layer conv10_2_conv10_2_relu_0_split
I0730 21:20:40.679782 18868 net.cpp:100] Creating Layer conv10_2_conv10_2_relu_0_split
I0730 21:20:40.679782 18868 net.cpp:434] conv10_2_conv10_2_relu_0_split <- conv10_2
I0730 21:20:40.679782 18868 net.cpp:408] conv10_2_conv10_2_relu_0_split -> conv10_2_conv10_2_relu_0_split_0
I0730 21:20:40.679782 18868 net.cpp:408] conv10_2_conv10_2_relu_0_split -> conv10_2_conv10_2_relu_0_split_1
I0730 21:20:40.679782 18868 net.cpp:408] conv10_2_conv10_2_relu_0_split -> conv10_2_conv10_2_relu_0_split_2
I0730 21:20:40.679782 18868 net.cpp:408] conv10_2_conv10_2_relu_0_split -> conv10_2_conv10_2_relu_0_split_3
I0730 21:20:40.679782 18868 net.cpp:150] Setting up conv10_2_conv10_2_relu_0_split
I0730 21:20:40.679782 18868 net.cpp:157] Top shape: 8 256 3 3 (18432)
I0730 21:20:40.679782 18868 net.cpp:157] Top shape: 8 256 3 3 (18432)
I0730 21:20:40.679782 18868 net.cpp:157] Top shape: 8 256 3 3 (18432)
I0730 21:20:40.679782 18868 net.cpp:157] Top shape: 8 256 3 3 (18432)
I0730 21:20:40.679782 18868 net.cpp:165] Memory required for data: 1882128416
I0730 21:20:40.679782 18868 layer_factory.hpp:77] Creating layer conv11_1
I0730 21:20:40.679782 18868 net.cpp:100] Creating Layer conv11_1
I0730 21:20:40.679782 18868 net.cpp:434] conv11_1 <- conv10_2_conv10_2_relu_0_split_0
I0730 21:20:40.679782 18868 net.cpp:408] conv11_1 -> conv11_1
I0730 21:20:40.681777 18868 net.cpp:150] Setting up conv11_1
I0730 21:20:40.681777 18868 net.cpp:157] Top shape: 8 128 3 3 (9216)
I0730 21:20:40.681777 18868 net.cpp:165] Memory required for data: 1882165280
I0730 21:20:40.681777 18868 layer_factory.hpp:77] Creating layer conv11_1_relu
I0730 21:20:40.681777 18868 net.cpp:100] Creating Layer conv11_1_relu
I0730 21:20:40.681777 18868 net.cpp:434] conv11_1_relu <- conv11_1
I0730 21:20:40.681777 18868 net.cpp:395] conv11_1_relu -> conv11_1 (in-place)
I0730 21:20:40.682775 18868 net.cpp:150] Setting up conv11_1_relu
I0730 21:20:40.682775 18868 net.cpp:157] Top shape: 8 128 3 3 (9216)
I0730 21:20:40.682775 18868 net.cpp:165] Memory required for data: 1882202144
I0730 21:20:40.682775 18868 layer_factory.hpp:77] Creating layer conv11_2
I0730 21:20:40.682775 18868 net.cpp:100] Creating Layer conv11_2
I0730 21:20:40.682775 18868 net.cpp:434] conv11_2 <- conv11_1
I0730 21:20:40.682775 18868 net.cpp:408] conv11_2 -> conv11_2
I0730 21:20:40.687760 18868 net.cpp:150] Setting up conv11_2
I0730 21:20:40.687760 18868 net.cpp:157] Top shape: 8 256 1 1 (2048)
I0730 21:20:40.687760 18868 net.cpp:165] Memory required for data: 1882210336
I0730 21:20:40.687760 18868 layer_factory.hpp:77] Creating layer conv11_2_relu
I0730 21:20:40.687760 18868 net.cpp:100] Creating Layer conv11_2_relu
I0730 21:20:40.687760 18868 net.cpp:434] conv11_2_relu <- conv11_2
I0730 21:20:40.687760 18868 net.cpp:395] conv11_2_relu -> conv11_2 (in-place)
I0730 21:20:40.687760 18868 net.cpp:150] Setting up conv11_2_relu
I0730 21:20:40.687760 18868 net.cpp:157] Top shape: 8 256 1 1 (2048)
I0730 21:20:40.687760 18868 net.cpp:165] Memory required for data: 1882218528
I0730 21:20:40.687760 18868 layer_factory.hpp:77] Creating layer conv11_2_conv11_2_relu_0_split
I0730 21:20:40.687760 18868 net.cpp:100] Creating Layer conv11_2_conv11_2_relu_0_split
I0730 21:20:40.687760 18868 net.cpp:434] conv11_2_conv11_2_relu_0_split <- conv11_2
I0730 21:20:40.687760 18868 net.cpp:408] conv11_2_conv11_2_relu_0_split -> conv11_2_conv11_2_relu_0_split_0
I0730 21:20:40.687760 18868 net.cpp:408] conv11_2_conv11_2_relu_0_split -> conv11_2_conv11_2_relu_0_split_1
I0730 21:20:40.687760 18868 net.cpp:408] conv11_2_conv11_2_relu_0_split -> conv11_2_conv11_2_relu_0_split_2
I0730 21:20:40.687760 18868 net.cpp:150] Setting up conv11_2_conv11_2_relu_0_split
I0730 21:20:40.687760 18868 net.cpp:157] Top shape: 8 256 1 1 (2048)
I0730 21:20:40.687760 18868 net.cpp:157] Top shape: 8 256 1 1 (2048)
I0730 21:20:40.687760 18868 net.cpp:157] Top shape: 8 256 1 1 (2048)
I0730 21:20:40.687760 18868 net.cpp:165] Memory required for data: 1882243104
I0730 21:20:40.687760 18868 layer_factory.hpp:77] Creating layer conv4_3_norm
I0730 21:20:40.687760 18868 net.cpp:100] Creating Layer conv4_3_norm
I0730 21:20:40.687760 18868 net.cpp:434] conv4_3_norm <- conv4_3_relu4_3_0_split_1
I0730 21:20:40.687760 18868 net.cpp:408] conv4_3_norm -> conv4_3_norm
I0730 21:20:40.687760 18868 net.cpp:150] Setting up conv4_3_norm
I0730 21:20:40.687760 18868 net.cpp:157] Top shape: 8 512 38 38 (5914624)
I0730 21:20:40.687760 18868 net.cpp:165] Memory required for data: 1905901600
I0730 21:20:40.687760 18868 layer_factory.hpp:77] Creating layer conv4_3_norm_conv4_3_norm_0_split
I0730 21:20:40.687760 18868 net.cpp:100] Creating Layer conv4_3_norm_conv4_3_norm_0_split
I0730 21:20:40.688758 18868 net.cpp:434] conv4_3_norm_conv4_3_norm_0_split <- conv4_3_norm
I0730 21:20:40.688758 18868 net.cpp:408] conv4_3_norm_conv4_3_norm_0_split -> conv4_3_norm_conv4_3_norm_0_split_0
I0730 21:20:40.688758 18868 net.cpp:408] conv4_3_norm_conv4_3_norm_0_split -> conv4_3_norm_conv4_3_norm_0_split_1
I0730 21:20:40.688758 18868 net.cpp:408] conv4_3_norm_conv4_3_norm_0_split -> conv4_3_norm_conv4_3_norm_0_split_2
I0730 21:20:40.688758 18868 net.cpp:150] Setting up conv4_3_norm_conv4_3_norm_0_split
I0730 21:20:40.688758 18868 net.cpp:157] Top shape: 8 512 38 38 (5914624)
I0730 21:20:40.688758 18868 net.cpp:157] Top shape: 8 512 38 38 (5914624)
I0730 21:20:40.688758 18868 net.cpp:157] Top shape: 8 512 38 38 (5914624)
I0730 21:20:40.688758 18868 net.cpp:165] Memory required for data: 1976877088
I0730 21:20:40.688758 18868 layer_factory.hpp:77] Creating layer conv4_3_norm_mbox_loc
I0730 21:20:40.688758 18868 net.cpp:100] Creating Layer conv4_3_norm_mbox_loc
I0730 21:20:40.688758 18868 net.cpp:434] conv4_3_norm_mbox_loc <- conv4_3_norm_conv4_3_norm_0_split_0
I0730 21:20:40.688758 18868 net.cpp:408] conv4_3_norm_mbox_loc -> conv4_3_norm_mbox_loc
I0730 21:20:40.692749 18868 net.cpp:150] Setting up conv4_3_norm_mbox_loc
I0730 21:20:40.692749 18868 net.cpp:157] Top shape: 8 16 38 38 (184832)
I0730 21:20:40.692749 18868 net.cpp:165] Memory required for data: 1977616416
I0730 21:20:40.692749 18868 layer_factory.hpp:77] Creating layer conv4_3_norm_mbox_loc_perm
I0730 21:20:40.692749 18868 net.cpp:100] Creating Layer conv4_3_norm_mbox_loc_perm
I0730 21:20:40.692749 18868 net.cpp:434] conv4_3_norm_mbox_loc_perm <- conv4_3_norm_mbox_loc
I0730 21:20:40.692749 18868 net.cpp:408] conv4_3_norm_mbox_loc_perm -> conv4_3_norm_mbox_loc_perm
I0730 21:20:40.692749 18868 net.cpp:150] Setting up conv4_3_norm_mbox_loc_perm
I0730 21:20:40.692749 18868 net.cpp:157] Top shape: 8 38 38 16 (184832)
I0730 21:20:40.692749 18868 net.cpp:165] Memory required for data: 1978355744
I0730 21:20:40.692749 18868 layer_factory.hpp:77] Creating layer conv4_3_norm_mbox_loc_flat
I0730 21:20:40.692749 18868 net.cpp:100] Creating Layer conv4_3_norm_mbox_loc_flat
I0730 21:20:40.692749 18868 net.cpp:434] conv4_3_norm_mbox_loc_flat <- conv4_3_norm_mbox_loc_perm
I0730 21:20:40.692749 18868 net.cpp:408] conv4_3_norm_mbox_loc_flat -> conv4_3_norm_mbox_loc_flat
I0730 21:20:40.692749 18868 net.cpp:150] Setting up conv4_3_norm_mbox_loc_flat
I0730 21:20:40.692749 18868 net.cpp:157] Top shape: 8 23104 (184832)
I0730 21:20:40.692749 18868 net.cpp:165] Memory required for data: 1979095072
I0730 21:20:40.692749 18868 layer_factory.hpp:77] Creating layer conv4_3_norm_mbox_conf
I0730 21:20:40.692749 18868 net.cpp:100] Creating Layer conv4_3_norm_mbox_conf
I0730 21:20:40.692749 18868 net.cpp:434] conv4_3_norm_mbox_conf <- conv4_3_norm_conv4_3_norm_0_split_1
I0730 21:20:40.692749 18868 net.cpp:408] conv4_3_norm_mbox_conf -> conv4_3_norm_mbox_conf
I0730 21:20:40.695739 18868 net.cpp:150] Setting up conv4_3_norm_mbox_conf
I0730 21:20:40.695739 18868 net.cpp:157] Top shape: 8 12 38 38 (138624)
I0730 21:20:40.695739 18868 net.cpp:165] Memory required for data: 1979649568
I0730 21:20:40.695739 18868 layer_factory.hpp:77] Creating layer conv4_3_norm_mbox_conf_perm
I0730 21:20:40.695739 18868 net.cpp:100] Creating Layer conv4_3_norm_mbox_conf_perm
I0730 21:20:40.695739 18868 net.cpp:434] conv4_3_norm_mbox_conf_perm <- conv4_3_norm_mbox_conf
I0730 21:20:40.695739 18868 net.cpp:408] conv4_3_norm_mbox_conf_perm -> conv4_3_norm_mbox_conf_perm
I0730 21:20:40.695739 18868 net.cpp:150] Setting up conv4_3_norm_mbox_conf_perm
I0730 21:20:40.695739 18868 net.cpp:157] Top shape: 8 38 38 12 (138624)
I0730 21:20:40.695739 18868 net.cpp:165] Memory required for data: 1980204064
I0730 21:20:40.695739 18868 layer_factory.hpp:77] Creating layer conv4_3_norm_mbox_conf_flat
I0730 21:20:40.695739 18868 net.cpp:100] Creating Layer conv4_3_norm_mbox_conf_flat
I0730 21:20:40.695739 18868 net.cpp:434] conv4_3_norm_mbox_conf_flat <- conv4_3_norm_mbox_conf_perm
I0730 21:20:40.695739 18868 net.cpp:408] conv4_3_norm_mbox_conf_flat -> conv4_3_norm_mbox_conf_flat
I0730 21:20:40.695739 18868 net.cpp:150] Setting up conv4_3_norm_mbox_conf_flat
I0730 21:20:40.695739 18868 net.cpp:157] Top shape: 8 17328 (138624)
I0730 21:20:40.695739 18868 net.cpp:165] Memory required for data: 1980758560
I0730 21:20:40.695739 18868 layer_factory.hpp:77] Creating layer conv4_3_norm_mbox_priorbox
I0730 21:20:40.695739 18868 net.cpp:100] Creating Layer conv4_3_norm_mbox_priorbox
I0730 21:20:40.695739 18868 net.cpp:434] conv4_3_norm_mbox_priorbox <- conv4_3_norm_conv4_3_norm_0_split_2
I0730 21:20:40.695739 18868 net.cpp:434] conv4_3_norm_mbox_priorbox <- data_data_0_split_1
I0730 21:20:40.695739 18868 net.cpp:408] conv4_3_norm_mbox_priorbox -> conv4_3_norm_mbox_priorbox
I0730 21:20:40.695739 18868 net.cpp:150] Setting up conv4_3_norm_mbox_priorbox
I0730 21:20:40.695739 18868 net.cpp:157] Top shape: 1 2 23104 (46208)
I0730 21:20:40.695739 18868 net.cpp:165] Memory required for data: 1980943392
I0730 21:20:40.696738 18868 layer_factory.hpp:77] Creating layer fc7_mbox_loc
I0730 21:20:40.696738 18868 net.cpp:100] Creating Layer fc7_mbox_loc
I0730 21:20:40.696738 18868 net.cpp:434] fc7_mbox_loc <- fc7_relu7_0_split_1
I0730 21:20:40.696738 18868 net.cpp:408] fc7_mbox_loc -> fc7_mbox_loc
I0730 21:20:40.699728 18868 net.cpp:150] Setting up fc7_mbox_loc
I0730 21:20:40.699728 18868 net.cpp:157] Top shape: 8 24 19 19 (69312)
I0730 21:20:40.699728 18868 net.cpp:165] Memory required for data: 1981220640
I0730 21:20:40.699728 18868 layer_factory.hpp:77] Creating layer fc7_mbox_loc_perm
I0730 21:20:40.699728 18868 net.cpp:100] Creating Layer fc7_mbox_loc_perm
I0730 21:20:40.699728 18868 net.cpp:434] fc7_mbox_loc_perm <- fc7_mbox_loc
I0730 21:20:40.699728 18868 net.cpp:408] fc7_mbox_loc_perm -> fc7_mbox_loc_perm
I0730 21:20:40.699728 18868 net.cpp:150] Setting up fc7_mbox_loc_perm
I0730 21:20:40.699728 18868 net.cpp:157] Top shape: 8 19 19 24 (69312)
I0730 21:20:40.699728 18868 net.cpp:165] Memory required for data: 1981497888
I0730 21:20:40.699728 18868 layer_factory.hpp:77] Creating layer fc7_mbox_loc_flat
I0730 21:20:40.699728 18868 net.cpp:100] Creating Layer fc7_mbox_loc_flat
I0730 21:20:40.699728 18868 net.cpp:434] fc7_mbox_loc_flat <- fc7_mbox_loc_perm
I0730 21:20:40.699728 18868 net.cpp:408] fc7_mbox_loc_flat -> fc7_mbox_loc_flat
I0730 21:20:40.699728 18868 net.cpp:150] Setting up fc7_mbox_loc_flat
I0730 21:20:40.699728 18868 net.cpp:157] Top shape: 8 8664 (69312)
I0730 21:20:40.699728 18868 net.cpp:165] Memory required for data: 1981775136
I0730 21:20:40.699728 18868 layer_factory.hpp:77] Creating layer fc7_mbox_conf
I0730 21:20:40.699728 18868 net.cpp:100] Creating Layer fc7_mbox_conf
I0730 21:20:40.699728 18868 net.cpp:434] fc7_mbox_conf <- fc7_relu7_0_split_2
I0730 21:20:40.699728 18868 net.cpp:408] fc7_mbox_conf -> fc7_mbox_conf
I0730 21:20:40.703718 18868 net.cpp:150] Setting up fc7_mbox_conf
I0730 21:20:40.703718 18868 net.cpp:157] Top shape: 8 18 19 19 (51984)
I0730 21:20:40.703718 18868 net.cpp:165] Memory required for data: 1981983072
I0730 21:20:40.703718 18868 layer_factory.hpp:77] Creating layer fc7_mbox_conf_perm
I0730 21:20:40.703718 18868 net.cpp:100] Creating Layer fc7_mbox_conf_perm
I0730 21:20:40.703718 18868 net.cpp:434] fc7_mbox_conf_perm <- fc7_mbox_conf
I0730 21:20:40.703718 18868 net.cpp:408] fc7_mbox_conf_perm -> fc7_mbox_conf_perm
I0730 21:20:40.703718 18868 net.cpp:150] Setting up fc7_mbox_conf_perm
I0730 21:20:40.703718 18868 net.cpp:157] Top shape: 8 19 19 18 (51984)
I0730 21:20:40.703718 18868 net.cpp:165] Memory required for data: 1982191008
I0730 21:20:40.703718 18868 layer_factory.hpp:77] Creating layer fc7_mbox_conf_flat
I0730 21:20:40.704715 18868 net.cpp:100] Creating Layer fc7_mbox_conf_flat
I0730 21:20:40.704715 18868 net.cpp:434] fc7_mbox_conf_flat <- fc7_mbox_conf_perm
I0730 21:20:40.704715 18868 net.cpp:408] fc7_mbox_conf_flat -> fc7_mbox_conf_flat
I0730 21:20:40.704715 18868 net.cpp:150] Setting up fc7_mbox_conf_flat
I0730 21:20:40.704715 18868 net.cpp:157] Top shape: 8 6498 (51984)
I0730 21:20:40.704715 18868 net.cpp:165] Memory required for data: 1982398944
I0730 21:20:40.704715 18868 layer_factory.hpp:77] Creating layer fc7_mbox_priorbox
I0730 21:20:40.704715 18868 net.cpp:100] Creating Layer fc7_mbox_priorbox
I0730 21:20:40.704715 18868 net.cpp:434] fc7_mbox_priorbox <- fc7_relu7_0_split_3
I0730 21:20:40.704715 18868 net.cpp:434] fc7_mbox_priorbox <- data_data_0_split_2
I0730 21:20:40.704715 18868 net.cpp:408] fc7_mbox_priorbox -> fc7_mbox_priorbox
I0730 21:20:40.704715 18868 net.cpp:150] Setting up fc7_mbox_priorbox
I0730 21:20:40.704715 18868 net.cpp:157] Top shape: 1 2 8664 (17328)
I0730 21:20:40.704715 18868 net.cpp:165] Memory required for data: 1982468256
I0730 21:20:40.704715 18868 layer_factory.hpp:77] Creating layer conv8_2_mbox_loc
I0730 21:20:40.704715 18868 net.cpp:100] Creating Layer conv8_2_mbox_loc
I0730 21:20:40.704715 18868 net.cpp:434] conv8_2_mbox_loc <- conv8_2_conv8_2_relu_0_split_1
I0730 21:20:40.704715 18868 net.cpp:408] conv8_2_mbox_loc -> conv8_2_mbox_loc
I0730 21:20:40.708704 18868 net.cpp:150] Setting up conv8_2_mbox_loc
I0730 21:20:40.708704 18868 net.cpp:157] Top shape: 8 24 10 10 (19200)
I0730 21:20:40.708704 18868 net.cpp:165] Memory required for data: 1982545056
I0730 21:20:40.708704 18868 layer_factory.hpp:77] Creating layer conv8_2_mbox_loc_perm
I0730 21:20:40.708704 18868 net.cpp:100] Creating Layer conv8_2_mbox_loc_perm
I0730 21:20:40.708704 18868 net.cpp:434] conv8_2_mbox_loc_perm <- conv8_2_mbox_loc
I0730 21:20:40.708704 18868 net.cpp:408] conv8_2_mbox_loc_perm -> conv8_2_mbox_loc_perm
I0730 21:20:40.708704 18868 net.cpp:150] Setting up conv8_2_mbox_loc_perm
I0730 21:20:40.708704 18868 net.cpp:157] Top shape: 8 10 10 24 (19200)
I0730 21:20:40.708704 18868 net.cpp:165] Memory required for data: 1982621856
I0730 21:20:40.708704 18868 layer_factory.hpp:77] Creating layer conv8_2_mbox_loc_flat
I0730 21:20:40.708704 18868 net.cpp:100] Creating Layer conv8_2_mbox_loc_flat
I0730 21:20:40.708704 18868 net.cpp:434] conv8_2_mbox_loc_flat <- conv8_2_mbox_loc_perm
I0730 21:20:40.708704 18868 net.cpp:408] conv8_2_mbox_loc_flat -> conv8_2_mbox_loc_flat
I0730 21:20:40.708704 18868 net.cpp:150] Setting up conv8_2_mbox_loc_flat
I0730 21:20:40.708704 18868 net.cpp:157] Top shape: 8 2400 (19200)
I0730 21:20:40.708704 18868 net.cpp:165] Memory required for data: 1982698656
I0730 21:20:40.708704 18868 layer_factory.hpp:77] Creating layer conv8_2_mbox_conf
I0730 21:20:40.708704 18868 net.cpp:100] Creating Layer conv8_2_mbox_conf
I0730 21:20:40.708704 18868 net.cpp:434] conv8_2_mbox_conf <- conv8_2_conv8_2_relu_0_split_2
I0730 21:20:40.708704 18868 net.cpp:408] conv8_2_mbox_conf -> conv8_2_mbox_conf
I0730 21:20:40.711696 18868 net.cpp:150] Setting up conv8_2_mbox_conf
I0730 21:20:40.711696 18868 net.cpp:157] Top shape: 8 18 10 10 (14400)
I0730 21:20:40.711696 18868 net.cpp:165] Memory required for data: 1982756256
I0730 21:20:40.711696 18868 layer_factory.hpp:77] Creating layer conv8_2_mbox_conf_perm
I0730 21:20:40.711696 18868 net.cpp:100] Creating Layer conv8_2_mbox_conf_perm
I0730 21:20:40.711696 18868 net.cpp:434] conv8_2_mbox_conf_perm <- conv8_2_mbox_conf
I0730 21:20:40.711696 18868 net.cpp:408] conv8_2_mbox_conf_perm -> conv8_2_mbox_conf_perm
I0730 21:20:40.711696 18868 net.cpp:150] Setting up conv8_2_mbox_conf_perm
I0730 21:20:40.711696 18868 net.cpp:157] Top shape: 8 10 10 18 (14400)
I0730 21:20:40.711696 18868 net.cpp:165] Memory required for data: 1982813856
I0730 21:20:40.711696 18868 layer_factory.hpp:77] Creating layer conv8_2_mbox_conf_flat
I0730 21:20:40.711696 18868 net.cpp:100] Creating Layer conv8_2_mbox_conf_flat
I0730 21:20:40.711696 18868 net.cpp:434] conv8_2_mbox_conf_flat <- conv8_2_mbox_conf_perm
I0730 21:20:40.711696 18868 net.cpp:408] conv8_2_mbox_conf_flat -> conv8_2_mbox_conf_flat
I0730 21:20:40.711696 18868 net.cpp:150] Setting up conv8_2_mbox_conf_flat
I0730 21:20:40.711696 18868 net.cpp:157] Top shape: 8 1800 (14400)
I0730 21:20:40.711696 18868 net.cpp:165] Memory required for data: 1982871456
I0730 21:20:40.711696 18868 layer_factory.hpp:77] Creating layer conv8_2_mbox_priorbox
I0730 21:20:40.711696 18868 net.cpp:100] Creating Layer conv8_2_mbox_priorbox
I0730 21:20:40.711696 18868 net.cpp:434] conv8_2_mbox_priorbox <- conv8_2_conv8_2_relu_0_split_3
I0730 21:20:40.712694 18868 net.cpp:434] conv8_2_mbox_priorbox <- data_data_0_split_3
I0730 21:20:40.712694 18868 net.cpp:408] conv8_2_mbox_priorbox -> conv8_2_mbox_priorbox
I0730 21:20:40.712694 18868 net.cpp:150] Setting up conv8_2_mbox_priorbox
I0730 21:20:40.712694 18868 net.cpp:157] Top shape: 1 2 2400 (4800)
I0730 21:20:40.712694 18868 net.cpp:165] Memory required for data: 1982890656
I0730 21:20:40.712694 18868 layer_factory.hpp:77] Creating layer conv9_2_mbox_loc
I0730 21:20:40.712694 18868 net.cpp:100] Creating Layer conv9_2_mbox_loc
I0730 21:20:40.712694 18868 net.cpp:434] conv9_2_mbox_loc <- conv9_2_conv9_2_relu_0_split_1
I0730 21:20:40.712694 18868 net.cpp:408] conv9_2_mbox_loc -> conv9_2_mbox_loc
I0730 21:20:40.715687 18868 net.cpp:150] Setting up conv9_2_mbox_loc
I0730 21:20:40.715687 18868 net.cpp:157] Top shape: 8 24 5 5 (4800)
I0730 21:20:40.715687 18868 net.cpp:165] Memory required for data: 1982909856
I0730 21:20:40.715687 18868 layer_factory.hpp:77] Creating layer conv9_2_mbox_loc_perm
I0730 21:20:40.715687 18868 net.cpp:100] Creating Layer conv9_2_mbox_loc_perm
I0730 21:20:40.715687 18868 net.cpp:434] conv9_2_mbox_loc_perm <- conv9_2_mbox_loc
I0730 21:20:40.715687 18868 net.cpp:408] conv9_2_mbox_loc_perm -> conv9_2_mbox_loc_perm
I0730 21:20:40.715687 18868 net.cpp:150] Setting up conv9_2_mbox_loc_perm
I0730 21:20:40.715687 18868 net.cpp:157] Top shape: 8 5 5 24 (4800)
I0730 21:20:40.715687 18868 net.cpp:165] Memory required for data: 1982929056
I0730 21:20:40.715687 18868 layer_factory.hpp:77] Creating layer conv9_2_mbox_loc_flat
I0730 21:20:40.715687 18868 net.cpp:100] Creating Layer conv9_2_mbox_loc_flat
I0730 21:20:40.715687 18868 net.cpp:434] conv9_2_mbox_loc_flat <- conv9_2_mbox_loc_perm
I0730 21:20:40.715687 18868 net.cpp:408] conv9_2_mbox_loc_flat -> conv9_2_mbox_loc_flat
I0730 21:20:40.715687 18868 net.cpp:150] Setting up conv9_2_mbox_loc_flat
I0730 21:20:40.715687 18868 net.cpp:157] Top shape: 8 600 (4800)
I0730 21:20:40.715687 18868 net.cpp:165] Memory required for data: 1982948256
I0730 21:20:40.715687 18868 layer_factory.hpp:77] Creating layer conv9_2_mbox_conf
I0730 21:20:40.715687 18868 net.cpp:100] Creating Layer conv9_2_mbox_conf
I0730 21:20:40.715687 18868 net.cpp:434] conv9_2_mbox_conf <- conv9_2_conv9_2_relu_0_split_2
I0730 21:20:40.715687 18868 net.cpp:408] conv9_2_mbox_conf -> conv9_2_mbox_conf
I0730 21:20:40.717680 18868 net.cpp:150] Setting up conv9_2_mbox_conf
I0730 21:20:40.717680 18868 net.cpp:157] Top shape: 8 18 5 5 (3600)
I0730 21:20:40.717680 18868 net.cpp:165] Memory required for data: 1982962656
I0730 21:20:40.717680 18868 layer_factory.hpp:77] Creating layer conv9_2_mbox_conf_perm
I0730 21:20:40.717680 18868 net.cpp:100] Creating Layer conv9_2_mbox_conf_perm
I0730 21:20:40.717680 18868 net.cpp:434] conv9_2_mbox_conf_perm <- conv9_2_mbox_conf
I0730 21:20:40.717680 18868 net.cpp:408] conv9_2_mbox_conf_perm -> conv9_2_mbox_conf_perm
I0730 21:20:40.718678 18868 net.cpp:150] Setting up conv9_2_mbox_conf_perm
I0730 21:20:40.718678 18868 net.cpp:157] Top shape: 8 5 5 18 (3600)
I0730 21:20:40.718678 18868 net.cpp:165] Memory required for data: 1982977056
I0730 21:20:40.718678 18868 layer_factory.hpp:77] Creating layer conv9_2_mbox_conf_flat
I0730 21:20:40.718678 18868 net.cpp:100] Creating Layer conv9_2_mbox_conf_flat
I0730 21:20:40.718678 18868 net.cpp:434] conv9_2_mbox_conf_flat <- conv9_2_mbox_conf_perm
I0730 21:20:40.718678 18868 net.cpp:408] conv9_2_mbox_conf_flat -> conv9_2_mbox_conf_flat
I0730 21:20:40.718678 18868 net.cpp:150] Setting up conv9_2_mbox_conf_flat
I0730 21:20:40.718678 18868 net.cpp:157] Top shape: 8 450 (3600)
I0730 21:20:40.718678 18868 net.cpp:165] Memory required for data: 1982991456
I0730 21:20:40.718678 18868 layer_factory.hpp:77] Creating layer conv9_2_mbox_priorbox
I0730 21:20:40.718678 18868 net.cpp:100] Creating Layer conv9_2_mbox_priorbox
I0730 21:20:40.718678 18868 net.cpp:434] conv9_2_mbox_priorbox <- conv9_2_conv9_2_relu_0_split_3
I0730 21:20:40.718678 18868 net.cpp:434] conv9_2_mbox_priorbox <- data_data_0_split_4
I0730 21:20:40.718678 18868 net.cpp:408] conv9_2_mbox_priorbox -> conv9_2_mbox_priorbox
I0730 21:20:40.718678 18868 net.cpp:150] Setting up conv9_2_mbox_priorbox
I0730 21:20:40.718678 18868 net.cpp:157] Top shape: 1 2 600 (1200)
I0730 21:20:40.718678 18868 net.cpp:165] Memory required for data: 1982996256
I0730 21:20:40.718678 18868 layer_factory.hpp:77] Creating layer conv10_2_mbox_loc
I0730 21:20:40.718678 18868 net.cpp:100] Creating Layer conv10_2_mbox_loc
I0730 21:20:40.718678 18868 net.cpp:434] conv10_2_mbox_loc <- conv10_2_conv10_2_relu_0_split_1
I0730 21:20:40.718678 18868 net.cpp:408] conv10_2_mbox_loc -> conv10_2_mbox_loc
I0730 21:20:40.721670 18868 net.cpp:150] Setting up conv10_2_mbox_loc
I0730 21:20:40.721670 18868 net.cpp:157] Top shape: 8 16 3 3 (1152)
I0730 21:20:40.721670 18868 net.cpp:165] Memory required for data: 1983000864
I0730 21:20:40.721670 18868 layer_factory.hpp:77] Creating layer conv10_2_mbox_loc_perm
I0730 21:20:40.721670 18868 net.cpp:100] Creating Layer conv10_2_mbox_loc_perm
I0730 21:20:40.721670 18868 net.cpp:434] conv10_2_mbox_loc_perm <- conv10_2_mbox_loc
I0730 21:20:40.721670 18868 net.cpp:408] conv10_2_mbox_loc_perm -> conv10_2_mbox_loc_perm
I0730 21:20:40.721670 18868 net.cpp:150] Setting up conv10_2_mbox_loc_perm
I0730 21:20:40.721670 18868 net.cpp:157] Top shape: 8 3 3 16 (1152)
I0730 21:20:40.721670 18868 net.cpp:165] Memory required for data: 1983005472
I0730 21:20:40.721670 18868 layer_factory.hpp:77] Creating layer conv10_2_mbox_loc_flat
I0730 21:20:40.721670 18868 net.cpp:100] Creating Layer conv10_2_mbox_loc_flat
I0730 21:20:40.721670 18868 net.cpp:434] conv10_2_mbox_loc_flat <- conv10_2_mbox_loc_perm
I0730 21:20:40.721670 18868 net.cpp:408] conv10_2_mbox_loc_flat -> conv10_2_mbox_loc_flat
I0730 21:20:40.721670 18868 net.cpp:150] Setting up conv10_2_mbox_loc_flat
I0730 21:20:40.721670 18868 net.cpp:157] Top shape: 8 144 (1152)
I0730 21:20:40.721670 18868 net.cpp:165] Memory required for data: 1983010080
I0730 21:20:40.721670 18868 layer_factory.hpp:77] Creating layer conv10_2_mbox_conf
I0730 21:20:40.721670 18868 net.cpp:100] Creating Layer conv10_2_mbox_conf
I0730 21:20:40.721670 18868 net.cpp:434] conv10_2_mbox_conf <- conv10_2_conv10_2_relu_0_split_2
I0730 21:20:40.721670 18868 net.cpp:408] conv10_2_mbox_conf -> conv10_2_mbox_conf
I0730 21:20:40.724663 18868 net.cpp:150] Setting up conv10_2_mbox_conf
I0730 21:20:40.724663 18868 net.cpp:157] Top shape: 8 12 3 3 (864)
I0730 21:20:40.724663 18868 net.cpp:165] Memory required for data: 1983013536
I0730 21:20:40.724663 18868 layer_factory.hpp:77] Creating layer conv10_2_mbox_conf_perm
I0730 21:20:40.724663 18868 net.cpp:100] Creating Layer conv10_2_mbox_conf_perm
I0730 21:20:40.724663 18868 net.cpp:434] conv10_2_mbox_conf_perm <- conv10_2_mbox_conf
I0730 21:20:40.724663 18868 net.cpp:408] conv10_2_mbox_conf_perm -> conv10_2_mbox_conf_perm
I0730 21:20:40.724663 18868 net.cpp:150] Setting up conv10_2_mbox_conf_perm
I0730 21:20:40.724663 18868 net.cpp:157] Top shape: 8 3 3 12 (864)
I0730 21:20:40.724663 18868 net.cpp:165] Memory required for data: 1983016992
I0730 21:20:40.724663 18868 layer_factory.hpp:77] Creating layer conv10_2_mbox_conf_flat
I0730 21:20:40.724663 18868 net.cpp:100] Creating Layer conv10_2_mbox_conf_flat
I0730 21:20:40.724663 18868 net.cpp:434] conv10_2_mbox_conf_flat <- conv10_2_mbox_conf_perm
I0730 21:20:40.724663 18868 net.cpp:408] conv10_2_mbox_conf_flat -> conv10_2_mbox_conf_flat
I0730 21:20:40.724663 18868 net.cpp:150] Setting up conv10_2_mbox_conf_flat
I0730 21:20:40.724663 18868 net.cpp:157] Top shape: 8 108 (864)
I0730 21:20:40.724663 18868 net.cpp:165] Memory required for data: 1983020448
I0730 21:20:40.724663 18868 layer_factory.hpp:77] Creating layer conv10_2_mbox_priorbox
I0730 21:20:40.724663 18868 net.cpp:100] Creating Layer conv10_2_mbox_priorbox
I0730 21:20:40.724663 18868 net.cpp:434] conv10_2_mbox_priorbox <- conv10_2_conv10_2_relu_0_split_3
I0730 21:20:40.724663 18868 net.cpp:434] conv10_2_mbox_priorbox <- data_data_0_split_5
I0730 21:20:40.724663 18868 net.cpp:408] conv10_2_mbox_priorbox -> conv10_2_mbox_priorbox
I0730 21:20:40.725659 18868 net.cpp:150] Setting up conv10_2_mbox_priorbox
I0730 21:20:40.725659 18868 net.cpp:157] Top shape: 1 2 144 (288)
I0730 21:20:40.725659 18868 net.cpp:165] Memory required for data: 1983021600
I0730 21:20:40.725659 18868 layer_factory.hpp:77] Creating layer conv11_2_mbox_loc
I0730 21:20:40.725659 18868 net.cpp:100] Creating Layer conv11_2_mbox_loc
I0730 21:20:40.725659 18868 net.cpp:434] conv11_2_mbox_loc <- conv11_2_conv11_2_relu_0_split_0
I0730 21:20:40.725659 18868 net.cpp:408] conv11_2_mbox_loc -> conv11_2_mbox_loc
I0730 21:20:40.728652 18868 net.cpp:150] Setting up conv11_2_mbox_loc
I0730 21:20:40.728652 18868 net.cpp:157] Top shape: 8 16 1 1 (128)
I0730 21:20:40.728652 18868 net.cpp:165] Memory required for data: 1983022112
I0730 21:20:40.728652 18868 layer_factory.hpp:77] Creating layer conv11_2_mbox_loc_perm
I0730 21:20:40.728652 18868 net.cpp:100] Creating Layer conv11_2_mbox_loc_perm
I0730 21:20:40.728652 18868 net.cpp:434] conv11_2_mbox_loc_perm <- conv11_2_mbox_loc
I0730 21:20:40.728652 18868 net.cpp:408] conv11_2_mbox_loc_perm -> conv11_2_mbox_loc_perm
I0730 21:20:40.728652 18868 net.cpp:150] Setting up conv11_2_mbox_loc_perm
I0730 21:20:40.728652 18868 net.cpp:157] Top shape: 8 1 1 16 (128)
I0730 21:20:40.728652 18868 net.cpp:165] Memory required for data: 1983022624
I0730 21:20:40.728652 18868 layer_factory.hpp:77] Creating layer conv11_2_mbox_loc_flat
I0730 21:20:40.728652 18868 net.cpp:100] Creating Layer conv11_2_mbox_loc_flat
I0730 21:20:40.728652 18868 net.cpp:434] conv11_2_mbox_loc_flat <- conv11_2_mbox_loc_perm
I0730 21:20:40.728652 18868 net.cpp:408] conv11_2_mbox_loc_flat -> conv11_2_mbox_loc_flat
I0730 21:20:40.728652 18868 net.cpp:150] Setting up conv11_2_mbox_loc_flat
I0730 21:20:40.728652 18868 net.cpp:157] Top shape: 8 16 (128)
I0730 21:20:40.728652 18868 net.cpp:165] Memory required for data: 1983023136
I0730 21:20:40.728652 18868 layer_factory.hpp:77] Creating layer conv11_2_mbox_conf
I0730 21:20:40.728652 18868 net.cpp:100] Creating Layer conv11_2_mbox_conf
I0730 21:20:40.728652 18868 net.cpp:434] conv11_2_mbox_conf <- conv11_2_conv11_2_relu_0_split_1
I0730 21:20:40.728652 18868 net.cpp:408] conv11_2_mbox_conf -> conv11_2_mbox_conf
I0730 21:20:40.731643 18868 net.cpp:150] Setting up conv11_2_mbox_conf
I0730 21:20:40.731643 18868 net.cpp:157] Top shape: 8 12 1 1 (96)
I0730 21:20:40.732640 18868 net.cpp:165] Memory required for data: 1983023520
I0730 21:20:40.732640 18868 layer_factory.hpp:77] Creating layer conv11_2_mbox_conf_perm
I0730 21:20:40.732640 18868 net.cpp:100] Creating Layer conv11_2_mbox_conf_perm
I0730 21:20:40.732640 18868 net.cpp:434] conv11_2_mbox_conf_perm <- conv11_2_mbox_conf
I0730 21:20:40.732640 18868 net.cpp:408] conv11_2_mbox_conf_perm -> conv11_2_mbox_conf_perm
I0730 21:20:40.732640 18868 net.cpp:150] Setting up conv11_2_mbox_conf_perm
I0730 21:20:40.732640 18868 net.cpp:157] Top shape: 8 1 1 12 (96)
I0730 21:20:40.732640 18868 net.cpp:165] Memory required for data: 1983023904
I0730 21:20:40.732640 18868 layer_factory.hpp:77] Creating layer conv11_2_mbox_conf_flat
I0730 21:20:40.732640 18868 net.cpp:100] Creating Layer conv11_2_mbox_conf_flat
I0730 21:20:40.732640 18868 net.cpp:434] conv11_2_mbox_conf_flat <- conv11_2_mbox_conf_perm
I0730 21:20:40.732640 18868 net.cpp:408] conv11_2_mbox_conf_flat -> conv11_2_mbox_conf_flat
I0730 21:20:40.732640 18868 net.cpp:150] Setting up conv11_2_mbox_conf_flat
I0730 21:20:40.732640 18868 net.cpp:157] Top shape: 8 12 (96)
I0730 21:20:40.732640 18868 net.cpp:165] Memory required for data: 1983024288
I0730 21:20:40.732640 18868 layer_factory.hpp:77] Creating layer conv11_2_mbox_priorbox
I0730 21:20:40.732640 18868 net.cpp:100] Creating Layer conv11_2_mbox_priorbox
I0730 21:20:40.732640 18868 net.cpp:434] conv11_2_mbox_priorbox <- conv11_2_conv11_2_relu_0_split_2
I0730 21:20:40.732640 18868 net.cpp:434] conv11_2_mbox_priorbox <- data_data_0_split_6
I0730 21:20:40.732640 18868 net.cpp:408] conv11_2_mbox_priorbox -> conv11_2_mbox_priorbox
I0730 21:20:40.732640 18868 net.cpp:150] Setting up conv11_2_mbox_priorbox
I0730 21:20:40.732640 18868 net.cpp:157] Top shape: 1 2 16 (32)
I0730 21:20:40.732640 18868 net.cpp:165] Memory required for data: 1983024416
I0730 21:20:40.732640 18868 layer_factory.hpp:77] Creating layer mbox_loc
I0730 21:20:40.732640 18868 net.cpp:100] Creating Layer mbox_loc
I0730 21:20:40.732640 18868 net.cpp:434] mbox_loc <- conv4_3_norm_mbox_loc_flat
I0730 21:20:40.732640 18868 net.cpp:434] mbox_loc <- fc7_mbox_loc_flat
I0730 21:20:40.732640 18868 net.cpp:434] mbox_loc <- conv8_2_mbox_loc_flat
I0730 21:20:40.732640 18868 net.cpp:434] mbox_loc <- conv9_2_mbox_loc_flat
I0730 21:20:40.732640 18868 net.cpp:434] mbox_loc <- conv10_2_mbox_loc_flat
I0730 21:20:40.732640 18868 net.cpp:434] mbox_loc <- conv11_2_mbox_loc_flat
I0730 21:20:40.732640 18868 net.cpp:408] mbox_loc -> mbox_loc
I0730 21:20:40.732640 18868 net.cpp:150] Setting up mbox_loc
I0730 21:20:40.732640 18868 net.cpp:157] Top shape: 8 34928 (279424)
I0730 21:20:40.732640 18868 net.cpp:165] Memory required for data: 1984142112
I0730 21:20:40.732640 18868 layer_factory.hpp:77] Creating layer mbox_conf
I0730 21:20:40.732640 18868 net.cpp:100] Creating Layer mbox_conf
I0730 21:20:40.732640 18868 net.cpp:434] mbox_conf <- conv4_3_norm_mbox_conf_flat
I0730 21:20:40.732640 18868 net.cpp:434] mbox_conf <- fc7_mbox_conf_flat
I0730 21:20:40.732640 18868 net.cpp:434] mbox_conf <- conv8_2_mbox_conf_flat
I0730 21:20:40.732640 18868 net.cpp:434] mbox_conf <- conv9_2_mbox_conf_flat
I0730 21:20:40.732640 18868 net.cpp:434] mbox_conf <- conv10_2_mbox_conf_flat
I0730 21:20:40.732640 18868 net.cpp:434] mbox_conf <- conv11_2_mbox_conf_flat
I0730 21:20:40.732640 18868 net.cpp:408] mbox_conf -> mbox_conf
I0730 21:20:40.732640 18868 net.cpp:150] Setting up mbox_conf
I0730 21:20:40.732640 18868 net.cpp:157] Top shape: 8 26196 (209568)
I0730 21:20:40.732640 18868 net.cpp:165] Memory required for data: 1984980384
I0730 21:20:40.732640 18868 layer_factory.hpp:77] Creating layer mbox_priorbox
I0730 21:20:40.732640 18868 net.cpp:100] Creating Layer mbox_priorbox
I0730 21:20:40.732640 18868 net.cpp:434] mbox_priorbox <- conv4_3_norm_mbox_priorbox
I0730 21:20:40.732640 18868 net.cpp:434] mbox_priorbox <- fc7_mbox_priorbox
I0730 21:20:40.732640 18868 net.cpp:434] mbox_priorbox <- conv8_2_mbox_priorbox
I0730 21:20:40.732640 18868 net.cpp:434] mbox_priorbox <- conv9_2_mbox_priorbox
I0730 21:20:40.732640 18868 net.cpp:434] mbox_priorbox <- conv10_2_mbox_priorbox
I0730 21:20:40.732640 18868 net.cpp:434] mbox_priorbox <- conv11_2_mbox_priorbox
I0730 21:20:40.732640 18868 net.cpp:408] mbox_priorbox -> mbox_priorbox
I0730 21:20:40.732640 18868 net.cpp:150] Setting up mbox_priorbox
I0730 21:20:40.732640 18868 net.cpp:157] Top shape: 1 2 34928 (69856)
I0730 21:20:40.732640 18868 net.cpp:165] Memory required for data: 1985259808
I0730 21:20:40.732640 18868 layer_factory.hpp:77] Creating layer mbox_loss
I0730 21:20:40.732640 18868 net.cpp:100] Creating Layer mbox_loss
I0730 21:20:40.732640 18868 net.cpp:434] mbox_loss <- mbox_loc
I0730 21:20:40.732640 18868 net.cpp:434] mbox_loss <- mbox_conf
I0730 21:20:40.732640 18868 net.cpp:434] mbox_loss <- mbox_priorbox
…
  name: "data"
  type: "AnnotatedData"
  top: "data"
  top: "label"
  include {
    phase: TEST
  }
  transform_param {
    mean_value: 104
    mean_value: 117
    mean_value: 123
    force_color: true
    resize_param {
      prob: 1
      resize_mode: WARP
      height: 300
      width: 300
      interp_mode: LINEAR
    }
  }
  data_param {
    source: "examples\\wastedata\\wastedata_test_lmdb"
    batch_size: 8
    backend: LMDB
  }
  annotated_data_param {
    batch_sampler {
    }
    label_map_file: "data\\wastedata\\labelmap_waste.prototxt"
  }
}
layer {
  name: "conv1_1"
  type: "Convolution"
  bottom: "data"
  top: "conv1_1"
  param {
    lr_mult: 1
    decay_mult: 1
  }
  param {
    lr_mult: 1
    decay_mult: 0
  }
  convolution_param {
    num_output: 64
    pad: 1
    kernel_size: 3
    weight_filler {
      type: "xavier"
    }
    bias_filler {
      type: "constant"
      value: 0
    }
  }
}
layer {
  name: "relu1_1"
  type: "ReLU"
  bottom: "conv1_1"
  top: "conv1_1"
}
layer {
  name: "conv1_2"
  type: "Convolution"
  bottom: "conv1_1"
  top: "conv1_2"
  param {
    lr_mult: 1
    decay_mult: 1
  }
  param {
    lr_mult: 1
    decay_mult: 0
  }
  convolution_param {
    num_output: 64
    pad: 1
    kernel_size: 3
    weight_filler {
      type: "xavier"
    }
    bias_filler {
      type: "constant"
      value: 0
    }
  }
}
layer {
  name: "relu1_2"
  type: "ReLU"
  bottom: "conv1_2"
  top: "conv1_2"
}
layer {
  name: "pool1"
  type: "Pooling"
  bottom: "conv1_2"
  top: "pool1"
  pooling_param {
    pool: MAX
    kernel_size: 2
    stride: 2
  }
}
layer {
  name: "conv2_1"
  type: "Convolution"
  bottom: "pool1"
  top: "conv2_1"
  param {
    lr_mult: 1
    decay_mult: 1
  }
  param {
    lr_mult: 1
    decay_mult: 0
  }
  convolution_param {
    num_output: 128
    pad: 1
    kernel_size: 3
    weight_filler {
      type: "xavier"
    }
    bias_filler {
      type: "constant"
      value: 0
    }
  }
}
layer {
  name: "relu2_1"
  type: "ReLU"
  bottom: "conv2_1"
  top: "conv2_1"
}
layer {
  name: "conv2_2"
  type: "Convolution"
  bottom: "conv2_1"
  top: "conv2_2"
  param {
    lr_mult: 1
    decay_mult: 1
  }
  param {
    lr_mult: 1
    decay_mult: 0
  }
  convolution_param {
    num_output: 128
    pad: 1
    kernel_size: 3
    weight_filler {
      type: "xavier"
    }
    bias_filler {
      type: "constant"
      value: 0
    }
  }
}
layer {
  name: "relu2_2"
  type: "ReLU"
  bottom: "conv2_2"
  top: "conv2_2"
}
layer {
  name: "pool2"
  type: "Pooling"
  bottom: "conv2_2"
  top: "pool2"
  pooling_param {
    pool: MAX
    kernel_size: 2
    stride: 2
  }
}
layer {
  name: "conv3_1"
  type: "Convolution"
  bottom: "pool2"
  top: "conv3_1"
  param {
    lr_mult: 1
    decay_mult: 1
  }
  param {
    lr_mult: 1
    decay_mult: 0
  }
  convolution_param {
    num_output: 256
    pad: 1
    kernel_size: 3
    weight_filler {
      type: "xavier"
    }
    bias_filler {
      type: "constant"
      value: 0
    }
  }
}
layer {
  name: "relu3_1"
  type: "ReLU"
  bottom: "conv3_1"
  top: "conv3_1"
}
layer {
  name: "conv3_2"
  type: "Convolution"
  bottom: "conv3_1"
  top: "conv3_2"
  param {
    lr_mult: 1
    decay_mult: 1
  }
  param {
    lr_mult: 1
    decay_mult: 0
  }
  convolution_param {
    num_output: 256
    pad: 1
    kernel_size: 3
    weight_filler {
      type: "xavier"
    }
    bias_filler {
      type: "constant"
      value: 0
    }
  }
}
layer {
  name: "relu3_2"
  type: "ReLU"
  bottom: "conv3_2"
  top: "conv3_2"
}
layer {
  name: "conv3_3"
  type: "Convolution"
  bottom: "conv3_2"
  top: "conv3_3"
  param {
    lr_mult: 1
    decay_mult: 1
  }
  param {
    lr_mult: 1
    decay_mult: 0
  }
  convolution_param {
    num_output: 256
    pad: 1
    kernel_size: 3
    weight_filler {
      type: "xavier"
    }
    bias_filler {
      type: "constant"
      value: 0
    }
  }
}
layer {
  name: "relu3_3"
  type: "ReLU"
  bottom: "conv3_3"
  top: "conv3_3"
}
layer {
  name: "pool3"
  type: "Pooling"
  bottom: "conv3_3"
  top: "pool3"
  pooling_param {
    pool: MAX
    kernel_size: 2
    stride: 2
  }
}
layer {
  name: "conv4_1"
  type: "Convolution"
  bottom: "pool3"
  top: "conv4_1"
  param {
    lr_mult: 1
    decay_mult: 1
  }
  param {
    lr_mult: 1
    decay_mult: 0
  }
  convolution_param {
    num_output: 512
    pad: 1
    kernel_size: 3
    weight_filler {
      type: "xavier"
    }
    bias_filler {
      type: "constant"
      value: 0
    }
  }
}
layer {
  name: "relu4_1"
  type: "ReLU"
  bottom: "conv4_1"
  top: "conv4_1"
}
layer {
  name: "conv4_2"
  type: "Convolution"
  bottom: "conv4_1"
  top: "conv4_2"
  param {
    lr_mult: 1
    decay_mult: 1
  }
  param {
    lr_mult: 1
    decay_mult: 0
  }
  convolution_param {
    num_output: 512
    pad: 1
    kernel_size: 3
    weight_filler {
      type: "xavier"
    }
    bias_filler {
      type: "constant"
      value: 0
    }
  }
}
layer {
  name: "relu4_2"
  type: "ReLU"
  bottom: "conv4_2"
  top: "conv4_2"
}
layer {
  name: "conv4_3"
  type: "Convolution"
  bottom: "conv4_2"
  top: "conv4_3"
  param {
    lr_mult: 1
    decay_mult: 1
  }
  param {
    lr_mult: 1
    decay_mult: 0
  }
  convolution_param {
    num_output: 512
    pad: 1
    kernel_size: 3
    weight_filler {
      type: "xavier"
    }
    bias_filler {
      type: "constant"
      value: 0
    }
  }
}
layer {
  name: "relu4_3"
  type: "ReLU"
  bottom: "conv4_3"
  top: "conv4_3"
}
layer {
  name: "pool4"
  type: "Pooling"
  bottom: "conv4_3"
  top: "pool4"
  pooling_param {
    pool: MAX
    kernel_size: 2
    stride: 2
  }
}
layer {
  name: "conv5_1"
  type: "Convolution"
  bottom: "pool4"
  top: "conv5_1"
  param {
    lr_mult: 1
    decay_mult: 1
  }
  param {
    lr_mult: 1
    decay_mult: 0
  }
  convolution_param {
    num_output: 512
    pad: 1
    kernel_size: 3
    weight_filler {
      type: "xavier"
    }
    bias_filler {
      type: "constant"
      value: 0
    }
    dilation: 1
  }
}
layer {
  name: "relu5_1"
  type: "ReLU"
  bottom: "conv5_1"
  top: "conv5_1"
}
layer {
  name: "conv5_2"
  type: "Convolution"
  bottom: "conv5_1"
  top: "conv5_2"
  param {
    lr_mult: 1
    decay_mult: 1
  }
  param {
    lr_mult: 1
    decay_mult: 0
  }
  convolution_param {
    num_output: 512
    pad: 1
    kernel_size: 3
    weight_filler {
      type: "xavier"
    }
    bias_filler {
      type: "constant"
      value: 0
    }
    dilation: 1
  }
}
layer {
  name: "relu5_2"
  type: "ReLU"
  bottom: "conv5_2"
  top: "conv5_2"
}
layer {
  name: "conv5_3"
  type: "Convolution"
  bottom: "conv5_2"
  top: "conv5_3"
  param {
    lr_mult: 1
    decay_mult: 1
  }
  param {
    lr_mult: 1
    decay_mult: 0
  }
  convolution_param {
    num_output: 512
    pad: 1
    kernel_size: 3
    weight_filler {
      type: "xavier"
    }
    bias_filler {
      type: "constant"
      value: 0
    }
    dilation: 1
  }
}
layer {
  name: "relu5_3"
  type: "ReLU"
  bottom: "conv5_3"
  top: "conv5_3"
}
layer {
  name: "pool5"
  type: "Pooling"
  bottom: "conv5_3"
  top: "pool5"
  pooling_param {
    pool: MAX
    kernel_size: 3
    stride: 1
    pad: 1
  }
}
layer {
  name: "fc6"
  type: "Convolution"
  bottom: "pool5"
  top: "fc6"
  param {
    lr_mult: 1
    decay_mult: 1
  }
  param {
    lr_mult: 1
    decay_mult: 0
  }
  convolution_param {
    num_output: 1024
    pad: 6
    kernel_size: 3
    weight_filler {
      type: "xavier"
    }
    bias_filler {
      type: "constant"
      value: 0
    }
    dilation: 6
  }
}
layer {
  name: "relu6"
  type: "ReLU"
  bottom: "fc6"
  top: "fc6"
}
layer {
  name: "fc7"
  type: "Convolution"
  bottom: "fc6"
  top: "fc7"
  param {
    lr_mult: 1
    decay_mult: 1
  }
  param {
    lr_mult: 1
    decay_mult: 0
  }
  convolution_param {
    num_output: 1024
    kernel_size: 1
    weight_filler {
      type: "xavier"
    }
    bias_filler {
      type: "constant"
      value: 0
    }
  }
}
layer {
  name: "relu7"
  type: "ReLU"
  bottom: "fc7"
  top: "fc7"
}
layer {
  name: "conv8_1"
  type: "Convolution"
  bottom: "fc7"
  top: "conv8_1"
  param {
    lr_mult: 1
    decay_mult: 1
  }
  param {
    lr_mult: 2
    decay_mult: 0
  }
  convolution_param {
    num_output: 256
    pad: 0
    kernel_size: 1
    stride: 1
    weight_filler {
      type: "xavier"
    }
    bias_filler {
      type: "constant"
      value: 0
    }
  }
}
layer {
  name: "conv8_1_relu"
  type: "ReLU"
  bottom: "conv8_1"
  top: "conv8_1"
}
layer {
  name: "conv8_2"
  type: "Convolution"
  bottom: "conv8_1"
  top: "conv8_2"
  param {
    lr_mult: 1
    decay_mult: 1
  }
  param {
    lr_mult: 2
    decay_mult: 0
  }
  convolution_param {
    num_output: 512
    pad: 1
    kernel_size: 3
    stride: 2
    weight_filler {
      type: "xavier"
    }
    bias_filler {
      type: "constant"
      value: 0
    }
  }
}
layer {
  name: "conv8_2_relu"
  type: "ReLU"
  bottom: "conv8_2"
  top: "conv8_2"
}
layer {
  name: "conv9_1"
  type: "Convolution"
  bottom: "conv8_2"
  top: "conv9_1"
  param {
    lr_mult: 1
    decay_mult: 1
  }
  param {
    lr_mult: 2
    decay_mult: 0
  }
  convolution_param {
    num_output: 128
    pad: 0
    kernel_size: 1
    stride: 1
    weight_filler {
      type: "xavier"
    }
    bias_filler {
      type: "constant"
      value: 0
    }
  }
}
layer {
  name: "conv9_1_relu"
  type: "ReLU"
  bottom: "conv9_1"
  top: "conv9_1"
}
layer {
  name: "conv9_2"
  type: "Convolution"
  bottom: "conv9_1"
  top: "conv9_2"
  param {
    lr_mult: 1
    decay_mult: 1
  }
  param {
    lr_mult: 2
    decay_mult: 0
  }
  convolution_param {
    num_output: 256
    pad: 1
    kernel_size: 3
    stride: 2
    weight_filler {
      type: "xavier"
    }
    bias_filler {
      type: "constant"
      value: 0
    }
  }
}
layer {
  name: "conv9_2_relu"
  type: "ReLU"
  bottom: "conv9_2"
  top: "conv9_2"
}
layer {
  name: "conv10_1"
  type: "Convolution"
  bottom: "conv9_2"
  top: "conv10_1"
  param {
    lr_mult: 1
    decay_mult: 1
  }
  param {
    lr_mult: 2
    decay_mult: 0
  }
  convolution_param {
    num_output: 128
    pad: 0
    kernel_size: 1
    stride: 1
    weight_filler {
      type: "xavier"
    }
    bias_filler {
      type: "constant"
      value: 0
    }
  }
}
layer {
  name: "conv10_1_relu"
  type: "ReLU"
  bottom: "conv10_1"
  top: "conv10_1"
}
layer {
  name: "conv10_2"
  type: "Convolution"
  bottom: "conv10_1"
  top: "conv10_2"
  param {
    lr_mult: 1
    decay_mult: 1
  }
  param {
    lr_mult: 2
    decay_mult: 0
  }
  convolution_param {
    num_output: 256
    pad: 0
    kernel_size: 3
    stride: 1
    weight_filler {
      type: "xavier"
    }
    bias_filler {
      type: "constant"
      value: 0
    }
  }
}
layer {
  name: "conv10_2_relu"
  type: "ReLU"
  bottom: "conv10_2"
  top: "conv10_2"
}
layer {
  name: "conv11_1"
  type: "Convolution"
  bottom: "conv10_2"
  top: "conv11_1"
  param {
    lr_mult: 1
    decay_mult: 1
  }
  param {
    lr_mult: 2
    decay_mult: 0
  }
  convolution_param {
    num_output: 128
    pad: 0
    kernel_size: 1
    stride: 1
    weight_filler {
      type: "xavier"
    }
    bias_filler {
      type: "constant"
      value: 0
    }
  }
}
layer {
  name: "conv11_1_relu"
  type: "ReLU"
  bottom: "conv11_1"
  top: "conv11_1"
}
layer {
  name: "conv11_2"
  type: "Convolution"
  bottom: "conv11_1"
  top: "conv11_2"
  param {
    lr_mult: 1
    decay_mult: 1
  }
  param {
    lr_mult: 2
    decay_mult: 0
  }
  convolution_param {
    num_output: 256
    pad: 0
    kernel_size: 3
    stride: 1
    weight_filler {
      type: "xavier"
    }
    bias_filler {
      type: "constant"
      value: 0
    }
  }
}
layer {
  name: "conv11_2_relu"
  type: "ReLU"
  bottom: "conv11_2"
  top: "conv11_2"
}
layer {
  name: "conv4_3_norm"
  type: "Normalize"
  bottom: "conv4_3"
  top: "conv4_3_norm"
  norm_param {
    across_spatial: false
    scale_filler {
      type: "constant"
      value: 20
    }
    channel_shared: false
  }
}
layer {
  name: "conv4_3_norm_mbox_loc"
  type: "Convolution"
  bottom: "conv4_3_norm"
  top: "conv4_3_norm_mbox_loc"
  param {
    lr_mult: 1
    decay_mult: 1
  }
  param {
    lr_mult: 2
    decay_mult: 0
  }
  convolution_param {
    num_output: 16
    pad: 1
    kernel_size: 3
    stride: 1
    weight_filler {
      type: "xavier"
    }
    bias_filler {
      type: "constant"
      value: 0
    }
  }
}
layer {
  name: "conv4_3_norm_mbox_loc_perm"
  type: "Permute"
  bottom: "conv4_3_norm_mbox_loc"
  top: "conv4_3_norm_mbox_loc_perm"
  permute_param {
    order: 0
    order: 2
    order: 3
    order: 1
  }
}
layer {
  name: "conv4_3_norm_mbox_loc_flat"
  type: "Flatten"
  bottom: "conv4_3_norm_mbox_loc_perm"
  top: "conv4_3_norm_mbox_loc_flat"
  flatten_param {
    axis: 1
  }
}
layer {
  name: "conv4_3_norm_mbox_conf"
  type: "Convolution"
  bottom: "conv4_3_norm"
  top: "conv4_3_norm_mbox_conf"
  param {
    lr_mult: 1
    decay_mult: 1
  }
  param {
    lr_mult: 2
    decay_mult: 0
  }
  convolution_param {
    num_output: 12
    pad: 1
    kernel_size: 3
    stride: 1
    weight_filler {
      type: "xavier"
    }
    bias_filler {
      type: "constant"
      value: 0
    }
  }
}
layer {
  name: "conv4_3_norm_mbox_conf_perm"
  type: "Permute"
  bottom: "conv4_3_norm_mbox_conf"
  top: "conv4_3_norm_mbox_conf_perm"
  permute_param {
    order: 0
    order: 2
    order: 3
    order: 1
  }
}
layer {
  name: "conv4_3_norm_mbox_conf_flat"
  type: "Flatten"
  bottom: "conv4_3_norm_mbox_conf_perm"
  top: "conv4_3_norm_mbox_conf_flat"
  flatten_param {
    axis: 1
  }
}
layer {
  name: "conv4_3_norm_mbox_priorbox"
  type: "PriorBox"
  bottom: "conv4_3_norm"
  bottom: "data"
  top: "conv4_3_norm_mbox_priorbox"
  prior_box_param {
    min_size: 30
    max_size: 60
    aspect_ratio: 2
    flip: true
    clip: false
    variance: 0.1
    variance: 0.1
    variance: 0.2
    variance: 0.2
    step: 8
    offset: 0.5
  }
}
layer {
  name: "fc7_mbox_loc"
  type: "Convolution"
  bottom: "fc7"
  top: "fc7_mbox_loc"
  param {
    lr_mult: 1
    decay_mult: 1
  }
  param {
    lr_mult: 2
    decay_mult: 0
  }
  convolution_param {
    num_output: 24
    pad: 1
    kernel_size: 3
    stride: 1
    weight_filler {
      type: "xavier"
    }
    bias_filler {
      type: "constant"
      value: 0
    }
  }
}
layer {
  name: "fc7_mbox_loc_perm"
  type: "Permute"
  bottom: "fc7_mbox_loc"
  top: "fc7_mbox_loc_perm"
  permute_param {
    order: 0
    order: 2
    order: 3
    order: 1
  }
}
layer {
  name: "fc7_mbox_loc_flat"
  type: "Flatten"
  bottom: "fc7_mbox_loc_perm"
  top: "fc7_mbox_loc_flat"
  flatten_param {
    axis: 1
  }
}
layer {
  name: "fc7_mbox_conf"
  type: "Convolution"
  bottom: "fc7"
  top: "fc7_mbox_conf"
  param {
    lr_mult: 1
    decay_mult: 1
  }
  param {
    lr_mult: 2
    decay_mult: 0
  }
  convolution_param {
    num_output: 18
    pad: 1
    kernel_size: 3
    stride: 1
    weight_filler {
      type: "xavier"
    }
    bias_filler {
      type: "constant"
      value: 0
    }
  }
}
layer {
  name: "fc7_mbox_conf_perm"
  type: "Permute"
  bottom: "fc7_mbox_conf"
  top: "fc7_mbox_conf_perm"
  permute_param {
    order: 0
    order: 2
    order: 3
    order: 1
  }
}
layer {
  name: "fc7_mbox_conf_flat"
  type: "Flatten"
  bottom: "fc7_mbox_conf_perm"
  top: "fc7_mbox_conf_flat"
  flatten_param {
    axis: 1
  }
}
layer {
  name: "fc7_mbox_priorbox"
  type: "PriorBox"
  bottom: "fc7"
  bottom: "data"
  top: "fc7_mbox_priorbox"
  prior_box_param {
    min_size: 60
    max_size: 111
    aspect_ratio: 2
    aspect_ratio: 3
    flip: true
    clip: false
    variance: 0.1
    variance: 0.1
    variance: 0.2
    variance: 0.2
    step: 16
    offset: 0.5
  }
}
layer {
  name: "conv8_2_mbox_loc"
  type: "Convolution"
  bottom: "conv8_2"
  top: "conv8_2_mbox_loc"
  param {
    lr_mult: 1
    decay_mult: 1
  }
  param {
    lr_mult: 2
    decay_mult: 0
  }
  convolution_param {
    num_output: 24
    pad: 1
    kernel_size: 3
    stride: 1
    weight_filler {
      type: "xavier"
    }
    bias_filler {
      type: "constant"
      value: 0
    }
  }
}
layer {
  name: "conv8_2_mbox_loc_perm"
  type: "Permute"
  bottom: "conv8_2_mbox_loc"
  top: "conv8_2_mbox_loc_perm"
  permute_param {
    order: 0
    order: 2
    order: 3
    order: 1
  }
}
layer {
  name: "conv8_2_mbox_loc_flat"
  type: "Flatten"
  bottom: "conv8_2_mbox_loc_perm"
  top: "conv8_2_mbox_loc_flat"
  flatten_param {
    axis: 1
  }
}
layer {
  name: "conv8_2_mbox_conf"
  type: "Convolution"
  bottom: "conv8_2"
  top: "conv8_2_mbox_conf"
  param {
    lr_mult: 1
    decay_mult: 1
  }
  param {
    lr_mult: 2
    decay_mult: 0
  }
  convolution_param {
    num_output: 18
    pad: 1
    kernel_size: 3
    stride: 1
    weight_filler {
      type: "xavier"
    }
    bias_filler {
      type: "constant"
      value: 0
    }
  }
}
layer {
  name: "conv8_2_mbox_conf_perm"
  type: "Permute"
  bottom: "conv8_2_mbox_conf"
  top: "conv8_2_mbox_conf_perm"
  permute_param {
    order: 0
    order: 2
    order: 3
    order: 1
  }
}
layer {
  name: "conv8_2_mbox_conf_flat"
  type: "Flatten"
  bottom: "conv8_2_mbox_conf_perm"
  top: "conv8_2_mbox_conf_flat"
  flatten_param {
    axis: 1
  }
}
layer {
  name: "conv8_2_mbox_priorbox"
  type: "PriorBox"
  bottom: "conv8_2"
  bottom: "data"
  top: "conv8_2_mbox_priorbox"
  prior_box_param {
    min_size: 111
    max_size: 162
    aspect_ratio: 2
    aspect_ratio: 3
    flip: true
    clip: false
    variance: 0.1
    variance: 0.1
    variance: 0.2
    variance: 0.2
    step: 32
    offset: 0.5
  }
}
layer {
  name: "conv9_2_mbox_loc"
  type: "Convolution"
  bottom: "conv9_2"
  top: "conv9_2_mbox_loc"
  param {
    lr_mult: 1
    decay_mult: 1
  }
  param {
    lr_mult: 2
    decay_mult: 0
  }
  convolution_param {
    num_output: 24
    pad: 1
    kernel_size: 3
    stride: 1
    weight_filler {
      type: "xavier"
    }
    bias_filler {
      type: "constant"
      value: 0
    }
  }
}
layer {
  name: "conv9_2_mbox_loc_perm"
  type: "Permute"
  bottom: "conv9_2_mbox_loc"
  top: "conv9_2_mbox_loc_perm"
  permute_param {
    order: 0
    order: 2
    order: 3
    order: 1
  }
}
layer {
  name: "conv9_2_mbox_loc_flat"
  type: "Flatten"
  bottom: "conv9_2_mbox_loc_perm"
  top: "conv9_2_mbox_loc_flat"
  flatten_param {
    axis: 1
  }
}
layer {
  name: "conv9_2_mbox_conf"
  type: "Convolution"
  bottom: "conv9_2"
  top: "conv9_2_mbox_conf"
  param {
    lr_mult: 1
    decay_mult: 1
  }
  param {
    lr_mult: 2
    decay_mult: 0
  }
  convolution_param {
    num_output: 18
    pad: 1
    kernel_size: 3
    stride: 1
    weight_filler {
      type: "xavier"
    }
    bias_filler {
      type: "constant"
      value: 0
    }
  }
}
layer {
  name: "conv9_2_mbox_conf_perm"
  type: "Permute"
  bottom: "conv9_2_mbox_conf"
  top: "conv9_2_mbox_conf_perm"
  permute_param {
    order: 0
    order: 2
    order: 3
    order: 1
  }
}
layer {
  name: "conv9_2_mbox_conf_flat"
  type: "Flatten"
  bottom: "conv9_2_mbox_conf_perm"
  top: "conv9_2_mbox_conf_flat"
  flatten_param {
    axis: 1
  }
}
layer {
  name: "conv9_2_mbox_priorbox"
  type: "PriorBox"
  bottom: "conv9_2"
  bottom: "data"
  top: "conv9_2_mbox_priorbox"
  prior_box_param {
    min_size: 162
    max_size: 213
    aspect_ratio: 2
    aspect_ratio: 3
    flip: true
    clip: false
    variance: 0.1
    variance: 0.1
    variance: 0.2
    variance: 0.2
    step: 64
    offset: 0.5
  }
}
layer {
  name: "conv10_2_mbox_loc"
  type: "Convolution"
  bottom: "conv10_2"
  top: "conv10_2_mbox_loc"
  param {
    lr_mult: 1
    decay_mult: 1
  }
  param {
    lr_mult: 2
    decay_mult: 0
  }
  convolution_param {
    num_output: 16
    pad: 1
    kernel_size: 3
    stride: 1
    weight_filler {
      type: "xavier"
    }
    bias_filler {
      type: "constant"
      value: 0
    }
  }
}
layer {
  name: "conv10_2_mbox_loc_perm"
  type: "Permute"
  bottom: "conv10_2_mbox_loc"
  top: "conv10_2_mbox_loc_perm"
  permute_param {
    order: 0
    order: 2
    order: 3
    order: 1
  }
}
layer {
  name: "conv10_2_mbox_loc_flat"
  type: "Flatten"
  bottom: "conv10_2_mbox_loc_perm"
  top: "conv10_2_mbox_loc_flat"
  flatten_param {
    axis: 1
  }
}
layer {
  name: "conv10_2_mbox_conf"
  type: "Convolution"
  bottom: "conv10_2"
  top: "conv10_2_mbox_conf"
  param {
    lr_mult: 1
    decay_mult: 1
  }
  param {
    lr_mult: 2
    decay_mult: 0
  }
  convolution_param {
    num_output: 12
    pad: 1
    kernel_size: 3
    stride: 1
    weight_filler {
      type: "xavier"
    }
    bias_filler {
      type: "constant"
      value: 0
    }
  }
}
layer {
  name: "conv10_2_mbox_conf_perm"
  type: "Permute"
  bottom: "conv10_2_mbox_conf"
  top: "conv10_2_mbox_conf_perm"
  permute_param {
    order: 0
    order: 2
    order: 3
    order: 1
  }
}
layer {
  name: "conv10_2_mbox_conf_flat"
  type: "Flatten"
  bottom: "conv10_2_mbox_conf_perm"
  top: "conv10_2_mbox_conf_flat"
  flatten_param {
    axis: 1
  }
}
layer {
  name: "conv10_2_mbox_priorbox"
  type: "PriorBox"
  bottom: "conv10_2"
  bottom: "data"
  top: "conv10_2_mbox_priorbox"
  prior_box_param {
    min_size: 213
    max_size: 264
    aspect_ratio: 2
    flip: true
    clip: false
    variance: 0.1
    variance: 0.1
    variance: 0.2
    variance: 0.2
    step: 100
    offset: 0.5
  }
}
layer {
  name: "conv11_2_mbox_loc"
  type: "Convolution"
  bottom: "conv11_2"
  top: "conv11_2_mbox_loc"
  param {
    lr_mult: 1
    decay_mult: 1
  }
  param {
    lr_mult: 2
    decay_mult: 0
  }
  convolution_param {
    num_output: 16
    pad: 1
    kernel_size: 3
    stride: 1
    weight_filler {
      type: "xavier"
    }
    bias_filler {
      type: "constant"
      value: 0
    }
  }
}
layer {
  name: "conv11_2_mbox_loc_perm"
  type: "Permute"
  bottom: "conv11_2_mbox_loc"
  top: "conv11_2_mbox_loc_perm"
  permute_param {
    order: 0
    order: 2
    order: 3
    order: 1
  }
}
layer {
  name: "conv11_2_mbox_loc_flat"
  type: "Flatten"
  bottom: "conv11_2_mbox_loc_perm"
  top: "conv11_2_mbox_loc_flat"
  flatten_param {
    axis: 1
  }
}
layer {
  name: "conv11_2_mbox_conf"
  type: "Convolution"
  bottom: "conv11_2"
  top: "conv11_2_mbox_conf"
  param {
    lr_mult: 1
    decay_mult: 1
  }
  param {
    lr_mult: 2
    decay_mult: 0
  }
  convolution_param {
    num_output: 12
    pad: 1
    kernel_size: 3
    stride: 1
    weight_filler {
      type: "xavier"
    }
    bias_filler {
      type: "constant"
      value: 0
    }
  }
}
layer {
  name: "conv11_2_mbox_conf_perm"
  type: "Permute"
  bottom: "conv11_2_mbox_conf"
  top: "conv11_2_mbox_conf_perm"
  permute_param {
    order: 0
    order: 2
    order: 3
    order: 1
  }
}
layer {
  name: "conv11_2_mbox_conf_flat"
  type: "Flatten"
  bottom: "conv11_2_mbox_conf_perm"
  top: "conv11_2_mbox_conf_flat"
  flatten_param {
    axis: 1
  }
}
layer {
  name: "conv11_2_mbox_priorbox"
  type: "PriorBox"
  bottom: "conv11_2"
  bottom: "data"
  top: "conv11_2_mbox_priorbox"
  prior_box_param {
    min_size: 264
    max_size: 315
    aspect_ratio: 2
    flip: true
    clip: false
    variance: 0.1
    variance: 0.1
    variance: 0.2
    variance: 0.2
    step: 300
    offset: 0.5
  }
}
layer {
  name: "mbox_loc"
  type: "Concat"
  bottom: "conv4_3_norm_mbox_loc_flat"
  bottom: "fc7_mbox_loc_flat"
  bottom: "conv8_2_mbox_loc_flat"
  bottom: "conv9_2_mbox_loc_flat"
  bottom: "conv10_2_mbox_loc_flat"
  bottom: "conv11_2_mbox_loc_flat"
  top: "mbox_loc"
  concat_param {
    axis: 1
  }
}
layer {
  name: "mbox_conf"
  type: "Concat"
  bottom: "conv4_3_norm_mbox_conf_flat"
  bottom: "fc7_mbox_conf_flat"
  bottom: "conv8_2_mbox_conf_flat"
  bottom: "conv9_2_mbox_conf_flat"
  bottom: "conv10_2_mbox_conf_flat"
  bottom: "conv11_2_mbox_conf_flat"
  top: "mbox_conf"
  concat_param {
    axis: 1
  }
}
layer {
  name: "mbox_priorbox"
  type: "Concat"
  bottom: "conv4_3_norm_mbox_priorbox"
  bottom: "fc7_mbox_priorbox"
  bottom: "conv8_2_mbox_priorbox"
  bottom: "conv9_2_mbox_priorbox"
  bottom: "conv10_2_mbox_priorbox"
  bottom: "conv11_2_mbox_priorbox"
  top: "mbox_priorbox"
  concat_param {
    axis: 2
  }
}
layer {
  name: "mbox_conf_reshape"
  type: "Reshape"
  bottom: "mbox_conf"
  top: "mbox_conf_reshape"
  reshape_param {
    shape {
      dim: 0
      dim: -1
      dim: 3
    }
  }
}
layer {
  name: "mbox_conf_softmax"
  type: "Softmax"
  bottom: "mbox_conf_reshape"
  top: "mbox_conf_softmax"
  softmax_param {
    axis: 2
  }
}
layer {
  name: "mbox_conf_flatten"
  type: "Flatten"
  bottom: "mbox_conf_softmax"
  top: "mbox_conf_flatten"
  flatten_param {
    axis: 1
  }
}
layer {
  name: "detection_out"
  type: "DetectionOutput"
  bottom: "mbox_loc"
  bottom: "mbox_conf_flatten"
  bottom: "mbox_priorbox"
  top: "detection_out"
  include {
    phase: TEST
  }
  detection_output_param {
    num_classes: 3
    share_location: true
    background_label_id: 0
    nms_param {
      nms_threshold: 0.45
      top_k: 400
    }
    save_output_param {
      output_directory: "data\\wastedata\\results\\SSD_300x300_score\\Main"
      output_name_prefix: "comp4_det_test_"
      output_format: "VOC"
      label_map_file: "data\\wastedata\\labelmap_waste.prototxt"
      name_size_file: "data\\wastedata\\test_name_size.txt"
      num_test_image: 1000
    }
    code_type: CENTER_SIZE
    keep_top_k: 200
    confidence_threshold: 0.01
  }
}
layer {
  name: "detection_eval"
  type: "DetectionEvaluate"
  bottom: "detection_out"
  bottom: "label"
  top: "detection_eval"
  include {
    phase: TEST
  }
  detection_evaluate_param {
    num_classes: 3
    background_label_id: 0
    overlap_threshold: 0.5
    evaluate_difficult_gt: false
    name_size_file: "data\\wastedata\\test_name_size.txt"
  }
}
I0730 21:20:40.747601 18868 layer_factory.hpp:77] Creating layer data
I0730 21:20:40.747601 18868 net.cpp:100] Creating Layer data
I0730 21:20:40.747601 18868 net.cpp:408] data -> data
I0730 21:20:40.747601 18868 net.cpp:408] data -> label
I0730 21:20:40.748598  2752 common.cpp:36] System entropy source not available, using fallback algorithm to generate seed instead.
I0730 21:20:40.775527  2752 db_lmdb.cpp:40] Opened lmdb examples\wastedata\wastedata_test_lmdb
I0730 21:20:40.791483 18868 annotated_data_layer.cpp:62] output data size: 8,3,300,300
I0730 21:20:40.813426 18868 net.cpp:150] Setting up data
I0730 21:20:40.813426 18868 net.cpp:157] Top shape: 8 3 300 300 (2160000)
I0730 21:20:40.813426 18868 net.cpp:157] Top shape: 1 1 3 8 (24)
I0730 21:20:40.813426 18868 net.cpp:165] Memory required for data: 8640096
I0730 21:20:40.813426 18868 layer_factory.hpp:77] Creating layer data_data_0_split
I0730 21:20:40.813426 18868 net.cpp:100] Creating Layer data_data_0_split
I0730 21:20:40.813426 18868 net.cpp:434] data_data_0_split <- data
I0730 21:20:40.813426 18868 net.cpp:408] data_data_0_split -> data_data_0_split_0
I0730 21:20:40.813426 18868 net.cpp:408] data_data_0_split -> data_data_0_split_1
I0730 21:20:40.813426 18868 net.cpp:408] data_data_0_split -> data_data_0_split_2
I0730 21:20:40.813426 18868 net.cpp:408] data_data_0_split -> data_data_0_split_3
I0730 21:20:40.813426 18868 net.cpp:408] data_data_0_split -> data_data_0_split_4
I0730 21:20:40.813426 18868 net.cpp:408] data_data_0_split -> data_data_0_split_5
I0730 21:20:40.813426 18868 net.cpp:408] data_data_0_split -> data_data_0_split_6
I0730 21:20:40.814422 18868 net.cpp:150] Setting up data_data_0_split
I0730 21:20:40.814422 18868 net.cpp:157] Top shape: 8 3 300 300 (2160000)
I0730 21:20:40.814422 18868 net.cpp:157] Top shape: 8 3 300 300 (2160000)
I0730 21:20:40.814422 18868 net.cpp:157] Top shape: 8 3 300 300 (2160000)
I0730 21:20:40.814422 18868 net.cpp:157] Top shape: 8 3 300 300 (2160000)
I0730 21:20:40.814422 18868 net.cpp:157] Top shape: 8 3 300 300 (2160000)
I0730 21:20:40.814422 18868 net.cpp:157] Top shape: 8 3 300 300 (2160000)
I0730 21:20:40.814422 18868 net.cpp:157] Top shape: 8 3 300 300 (2160000)
I0730 21:20:40.814422 18868 net.cpp:165] Memory required for data: 69120096
I0730 21:20:40.814422 18868 layer_factory.hpp:77] Creating layer conv1_1
I0730 21:20:40.814422 18868 net.cpp:100] Creating Layer conv1_1
I0730 21:20:40.814422 18868 net.cpp:434] conv1_1 <- data_data_0_split_0
I0730 21:20:40.814422 18868 net.cpp:408] conv1_1 -> conv1_1
I0730 21:20:40.815419 14436 common.cpp:36] System entropy source not available, using fallback algorithm to generate seed instead.
I0730 21:20:40.816416 18868 net.cpp:150] Setting up conv1_1
I0730 21:20:40.816416 18868 net.cpp:157] Top shape: 8 64 300 300 (46080000)
I0730 21:20:40.816416 18868 net.cpp:165] Memory required for data: 253440096
I0730 21:20:40.816416 18868 layer_factory.hpp:77] Creating layer relu1_1
I0730 21:20:40.816416 18868 net.cpp:100] Creating Layer relu1_1
I0730 21:20:40.816416 18868 net.cpp:434] relu1_1 <- conv1_1
I0730 21:20:40.816416 18868 net.cpp:395] relu1_1 -> conv1_1 (in-place)
I0730 21:20:40.818411 18868 net.cpp:150] Setting up relu1_1
I0730 21:20:40.818411 18868 net.cpp:157] Top shape: 8 64 300 300 (46080000)
I0730 21:20:40.818411 18868 net.cpp:165] Memory required for data: 437760096
I0730 21:20:40.818411 18868 layer_factory.hpp:77] Creating layer conv1_2
I0730 21:20:40.818411 18868 net.cpp:100] Creating Layer conv1_2
I0730 21:20:40.818411 18868 net.cpp:434] conv1_2 <- conv1_1
I0730 21:20:40.818411 18868 net.cpp:408] conv1_2 -> conv1_2
I0730 21:20:40.821403 18868 net.cpp:150] Setting up conv1_2
I0730 21:20:40.821403 18868 net.cpp:157] Top shape: 8 64 300 300 (46080000)
I0730 21:20:40.821403 18868 net.cpp:165] Memory required for data: 622080096
I0730 21:20:40.821403 18868 layer_factory.hpp:77] Creating layer relu1_2
I0730 21:20:40.821403 18868 net.cpp:100] Creating Layer relu1_2
I0730 21:20:40.821403 18868 net.cpp:434] relu1_2 <- conv1_2
I0730 21:20:40.821403 18868 net.cpp:395] relu1_2 -> conv1_2 (in-place)
I0730 21:20:40.821403 18868 net.cpp:150] Setting up relu1_2
I0730 21:20:40.821403 18868 net.cpp:157] Top shape: 8 64 300 300 (46080000)
I0730 21:20:40.821403 18868 net.cpp:165] Memory required for data: 806400096
I0730 21:20:40.821403 18868 layer_factory.hpp:77] Creating layer pool1
I0730 21:20:40.821403 18868 net.cpp:100] Creating Layer pool1
I0730 21:20:40.821403 18868 net.cpp:434] pool1 <- conv1_2
I0730 21:20:40.821403 18868 net.cpp:408] pool1 -> pool1
I0730 21:20:40.821403 18868 net.cpp:150] Setting up pool1
I0730 21:20:40.821403 18868 net.cpp:157] Top shape: 8 64 150 150 (11520000)
I0730 21:20:40.821403 18868 net.cpp:165] Memory required for data: 852480096
I0730 21:20:40.821403 18868 layer_factory.hpp:77] Creating layer conv2_1
I0730 21:20:40.821403 18868 net.cpp:100] Creating Layer conv2_1
I0730 21:20:40.821403 18868 net.cpp:434] conv2_1 <- pool1
I0730 21:20:40.821403 18868 net.cpp:408] conv2_1 -> conv2_1
I0730 21:20:40.824395 18868 net.cpp:150] Setting up conv2_1
I0730 21:20:40.824395 18868 net.cpp:157] Top shape: 8 128 150 150 (23040000)
I0730 21:20:40.824395 18868 net.cpp:165] Memory required for data: 944640096
I0730 21:20:40.824395 18868 layer_factory.hpp:77] Creating layer relu2_1
I0730 21:20:40.824395 18868 net.cpp:100] Creating Layer relu2_1
I0730 21:20:40.825393 18868 net.cpp:434] relu2_1 <- conv2_1
I0730 21:20:40.825393 18868 net.cpp:395] relu2_1 -> conv2_1 (in-place)
I0730 21:20:40.825393 18868 net.cpp:150] Setting up relu2_1
I0730 21:20:40.825393 18868 net.cpp:157] Top shape: 8 128 150 150 (23040000)
I0730 21:20:40.825393 18868 net.cpp:165] Memory required for data: 1036800096
I0730 21:20:40.825393 18868 layer_factory.hpp:77] Creating layer conv2_2
I0730 21:20:40.825393 18868 net.cpp:100] Creating Layer conv2_2
I0730 21:20:40.825393 18868 net.cpp:434] conv2_2 <- conv2_1
I0730 21:20:40.825393 18868 net.cpp:408] conv2_2 -> conv2_2
I0730 21:20:40.829382 18868 net.cpp:150] Setting up conv2_2
I0730 21:20:40.829382 18868 net.cpp:157] Top shape: 8 128 150 150 (23040000)
I0730 21:20:40.829382 18868 net.cpp:165] Memory required for data: 1128960096
I0730 21:20:40.829382 18868 layer_factory.hpp:77] Creating layer relu2_2
I0730 21:20:40.829382 18868 net.cpp:100] Creating Layer relu2_2
I0730 21:20:40.829382 18868 net.cpp:434] relu2_2 <- conv2_2
I0730 21:20:40.829382 18868 net.cpp:395] relu2_2 -> conv2_2 (in-place)
I0730 21:20:40.830379 18868 net.cpp:150] Setting up relu2_2
I0730 21:20:40.830379 18868 net.cpp:157] Top shape: 8 128 150 150 (23040000)
I0730 21:20:40.830379 18868 net.cpp:165] Memory required for data: 1221120096
I0730 21:20:40.830379 18868 layer_factory.hpp:77] Creating layer pool2
I0730 21:20:40.830379 18868 net.cpp:100] Creating Layer pool2
I0730 21:20:40.830379 18868 net.cpp:434] pool2 <- conv2_2
I0730 21:20:40.830379 18868 net.cpp:408] pool2 -> pool2
I0730 21:20:40.830379 18868 net.cpp:150] Setting up pool2
I0730 21:20:40.830379 18868 net.cpp:157] Top shape: 8 128 75 75 (5760000)
I0730 21:20:40.830379 18868 net.cpp:165] Memory required for data: 1244160096
I0730 21:20:40.830379 18868 layer_factory.hpp:77] Creating layer conv3_1
I0730 21:20:40.830379 18868 net.cpp:100] Creating Layer conv3_1
I0730 21:20:40.830379 18868 net.cpp:434] conv3_1 <- pool2
I0730 21:20:40.830379 18868 net.cpp:408] conv3_1 -> conv3_1
I0730 21:20:40.836364 18868 net.cpp:150] Setting up conv3_1
I0730 21:20:40.836364 18868 net.cpp:157] Top shape: 8 256 75 75 (11520000)
I0730 21:20:40.836364 18868 net.cpp:165] Memory required for data: 1290240096
I0730 21:20:40.836364 18868 layer_factory.hpp:77] Creating layer relu3_1
I0730 21:20:40.836364 18868 net.cpp:100] Creating Layer relu3_1
I0730 21:20:40.836364 18868 net.cpp:434] relu3_1 <- conv3_1
I0730 21:20:40.836364 18868 net.cpp:395] relu3_1 -> conv3_1 (in-place)
I0730 21:20:40.836364 18868 net.cpp:150] Setting up relu3_1
I0730 21:20:40.836364 18868 net.cpp:157] Top shape: 8 256 75 75 (11520000)
I0730 21:20:40.836364 18868 net.cpp:165] Memory required for data: 1336320096
I0730 21:20:40.836364 18868 layer_factory.hpp:77] Creating layer conv3_2
I0730 21:20:40.836364 18868 net.cpp:100] Creating Layer conv3_2
I0730 21:20:40.836364 18868 net.cpp:434] conv3_2 <- conv3_1
I0730 21:20:40.836364 18868 net.cpp:408] conv3_2 -> conv3_2
I0730 21:20:40.844342 18868 net.cpp:150] Setting up conv3_2
I0730 21:20:40.844342 18868 net.cpp:157] Top shape: 8 256 75 75 (11520000)
I0730 21:20:40.844342 18868 net.cpp:165] Memory required for data: 1382400096
I0730 21:20:40.844342 18868 layer_factory.hpp:77] Creating layer relu3_2
I0730 21:20:40.844342 18868 net.cpp:100] Creating Layer relu3_2
I0730 21:20:40.844342 18868 net.cpp:434] relu3_2 <- conv3_2
I0730 21:20:40.844342 18868 net.cpp:395] relu3_2 -> conv3_2 (in-place)
I0730 21:20:40.846338 18868 net.cpp:150] Setting up relu3_2
I0730 21:20:40.846338 18868 net.cpp:157] Top shape: 8 256 75 75 (11520000)
I0730 21:20:40.846338 18868 net.cpp:165] Memory required for data: 1428480096
I0730 21:20:40.846338 18868 layer_factory.hpp:77] Creating layer conv3_3
I0730 21:20:40.846338 18868 net.cpp:100] Creating Layer conv3_3
I0730 21:20:40.846338 18868 net.cpp:434] conv3_3 <- conv3_2
I0730 21:20:40.846338 18868 net.cpp:408] conv3_3 -> conv3_3
I0730 21:20:40.854315 18868 net.cpp:150] Setting up conv3_3
I0730 21:20:40.854315 18868 net.cpp:157] Top shape: 8 256 75 75 (11520000)
I0730 21:20:40.854315 18868 net.cpp:165] Memory required for data: 1474560096
I0730 21:20:40.854315 18868 layer_factory.hpp:77] Creating layer relu3_3
I0730 21:20:40.854315 18868 net.cpp:100] Creating Layer relu3_3
I0730 21:20:40.854315 18868 net.cpp:434] relu3_3 <- conv3_3
I0730 21:20:40.854315 18868 net.cpp:395] relu3_3 -> conv3_3 (in-place)
I0730 21:20:40.855312 18868 net.cpp:150] Setting up relu3_3
I0730 21:20:40.855312 18868 net.cpp:157] Top shape: 8 256 75 75 (11520000)
I0730 21:20:40.855312 18868 net.cpp:165] Memory required for data: 1520640096
I0730 21:20:40.855312 18868 layer_factory.hpp:77] Creating layer pool3
I0730 21:20:40.855312 18868 net.cpp:100] Creating Layer pool3
I0730 21:20:40.855312 18868 net.cpp:434] pool3 <- conv3_3
I0730 21:20:40.855312 18868 net.cpp:408] pool3 -> pool3
I0730 21:20:40.855312 18868 net.cpp:150] Setting up pool3
I0730 21:20:40.855312 18868 net.cpp:157] Top shape: 8 256 38 38 (2957312)
I0730 21:20:40.855312 18868 net.cpp:165] Memory required for data: 1532469344
I0730 21:20:40.855312 18868 layer_factory.hpp:77] Creating layer conv4_1
I0730 21:20:40.855312 18868 net.cpp:100] Creating Layer conv4_1
I0730 21:20:40.855312 18868 net.cpp:434] conv4_1 <- pool3
I0730 21:20:40.855312 18868 net.cpp:408] conv4_1 -> conv4_1
I0730 21:20:40.866283 18868 net.cpp:150] Setting up conv4_1
I0730 21:20:40.866283 18868 net.cpp:157] Top shape: 8 512 38 38 (5914624)
I0730 21:20:40.866283 18868 net.cpp:165] Memory required for data: 1556127840
I0730 21:20:40.866283 18868 layer_factory.hpp:77] Creating layer relu4_1
I0730 21:20:40.866283 18868 net.cpp:100] Creating Layer relu4_1
I0730 21:20:40.866283 18868 net.cpp:434] relu4_1 <- conv4_1
I0730 21:20:40.866283 18868 net.cpp:395] relu4_1 -> conv4_1 (in-place)
I0730 21:20:40.867281 18868 net.cpp:150] Setting up relu4_1
I0730 21:20:40.867281 18868 net.cpp:157] Top shape: 8 512 38 38 (5914624)
I0730 21:20:40.867281 18868 net.cpp:165] Memory required for data: 1579786336
I0730 21:20:40.867281 18868 layer_factory.hpp:77] Creating layer conv4_2
I0730 21:20:40.867281 18868 net.cpp:100] Creating Layer conv4_2
I0730 21:20:40.867281 18868 net.cpp:434] conv4_2 <- conv4_1
I0730 21:20:40.867281 18868 net.cpp:408] conv4_2 -> conv4_2
I0730 21:20:40.886230 18868 net.cpp:150] Setting up conv4_2
I0730 21:20:40.886230 18868 net.cpp:157] Top shape: 8 512 38 38 (5914624)
I0730 21:20:40.886230 18868 net.cpp:165] Memory required for data: 1603444832
I0730 21:20:40.886230 18868 layer_factory.hpp:77] Creating layer relu4_2
I0730 21:20:40.886230 18868 net.cpp:100] Creating Layer relu4_2
I0730 21:20:40.886230 18868 net.cpp:434] relu4_2 <- conv4_2
I0730 21:20:40.886230 18868 net.cpp:395] relu4_2 -> conv4_2 (in-place)
I0730 21:20:40.888224 18868 net.cpp:150] Setting up relu4_2
I0730 21:20:40.888224 18868 net.cpp:157] Top shape: 8 512 38 38 (5914624)
I0730 21:20:40.888224 18868 net.cpp:165] Memory required for data: 1627103328
I0730 21:20:40.888224 18868 layer_factory.hpp:77] Creating layer conv4_3
I0730 21:20:40.888224 18868 net.cpp:100] Creating Layer conv4_3
I0730 21:20:40.888224 18868 net.cpp:434] conv4_3 <- conv4_2
I0730 21:20:40.888224 18868 net.cpp:408] conv4_3 -> conv4_3
I0730 21:20:40.907174 18868 net.cpp:150] Setting up conv4_3
I0730 21:20:40.907174 18868 net.cpp:157] Top shape: 8 512 38 38 (5914624)
I0730 21:20:40.907174 18868 net.cpp:165] Memory required for data: 1650761824
I0730 21:20:40.907174 18868 layer_factory.hpp:77] Creating layer relu4_3
I0730 21:20:40.907174 18868 net.cpp:100] Creating Layer relu4_3
I0730 21:20:40.907174 18868 net.cpp:434] relu4_3 <- conv4_3
I0730 21:20:40.907174 18868 net.cpp:395] relu4_3 -> conv4_3 (in-place)
I0730 21:20:40.908171 18868 net.cpp:150] Setting up relu4_3
I0730 21:20:40.908171 18868 net.cpp:157] Top shape: 8 512 38 38 (5914624)
I0730 21:20:40.908171 18868 net.cpp:165] Memory required for data: 1674420320
I0730 21:20:40.908171 18868 layer_factory.hpp:77] Creating layer conv4_3_relu4_3_0_split
I0730 21:20:40.908171 18868 net.cpp:100] Creating Layer conv4_3_relu4_3_0_split
I0730 21:20:40.908171 18868 net.cpp:434] conv4_3_relu4_3_0_split <- conv4_3
I0730 21:20:40.908171 18868 net.cpp:408] conv4_3_relu4_3_0_split -> conv4_3_relu4_3_0_split_0
I0730 21:20:40.908171 18868 net.cpp:408] conv4_3_relu4_3_0_split -> conv4_3_relu4_3_0_split_1
I0730 21:20:40.908171 18868 net.cpp:150] Setting up conv4_3_relu4_3_0_split
I0730 21:20:40.908171 18868 net.cpp:157] Top shape: 8 512 38 38 (5914624)
I0730 21:20:40.908171 18868 net.cpp:157] Top shape: 8 512 38 38 (5914624)
I0730 21:20:40.908171 18868 net.cpp:165] Memory required for data: 1721737312
I0730 21:20:40.908171 18868 layer_factory.hpp:77] Creating layer pool4
I0730 21:20:40.908171 18868 net.cpp:100] Creating Layer pool4
I0730 21:20:40.908171 18868 net.cpp:434] pool4 <- conv4_3_relu4_3_0_split_0
I0730 21:20:40.908171 18868 net.cpp:408] pool4 -> pool4
I0730 21:20:40.908171 18868 net.cpp:150] Setting up pool4
I0730 21:20:40.908171 18868 net.cpp:157] Top shape: 8 512 19 19 (1478656)
I0730 21:20:40.908171 18868 net.cpp:165] Memory required for data: 1727651936
I0730 21:20:40.908171 18868 layer_factory.hpp:77] Creating layer conv5_1
I0730 21:20:40.908171 18868 net.cpp:100] Creating Layer conv5_1
I0730 21:20:40.908171 18868 net.cpp:434] conv5_1 <- pool4
I0730 21:20:40.908171 18868 net.cpp:408] conv5_1 -> conv5_1
I0730 21:20:40.926124 18868 net.cpp:150] Setting up conv5_1
I0730 21:20:40.926124 18868 net.cpp:157] Top shape: 8 512 19 19 (1478656)
I0730 21:20:40.926124 18868 net.cpp:165] Memory required for data: 1733566560
I0730 21:20:40.926124 18868 layer_factory.hpp:77] Creating layer relu5_1
I0730 21:20:40.927121 18868 net.cpp:100] Creating Layer relu5_1
I0730 21:20:40.927121 18868 net.cpp:434] relu5_1 <- conv5_1
I0730 21:20:40.927121 18868 net.cpp:395] relu5_1 -> conv5_1 (in-place)
I0730 21:20:40.928119 18868 net.cpp:150] Setting up relu5_1
I0730 21:20:40.928119 18868 net.cpp:157] Top shape: 8 512 19 19 (1478656)
I0730 21:20:40.928119 18868 net.cpp:165] Memory required for data: 1739481184
I0730 21:20:40.928119 18868 layer_factory.hpp:77] Creating layer conv5_2
I0730 21:20:40.928119 18868 net.cpp:100] Creating Layer conv5_2
I0730 21:20:40.928119 18868 net.cpp:434] conv5_2 <- conv5_1
I0730 21:20:40.928119 18868 net.cpp:408] conv5_2 -> conv5_2
I0730 21:20:40.947067 18868 net.cpp:150] Setting up conv5_2
I0730 21:20:40.947067 18868 net.cpp:157] Top shape: 8 512 19 19 (1478656)
I0730 21:20:40.947067 18868 net.cpp:165] Memory required for data: 1745395808
I0730 21:20:40.947067 18868 layer_factory.hpp:77] Creating layer relu5_2
I0730 21:20:40.947067 18868 net.cpp:100] Creating Layer relu5_2
I0730 21:20:40.947067 18868 net.cpp:434] relu5_2 <- conv5_2
I0730 21:20:40.947067 18868 net.cpp:395] relu5_2 -> conv5_2 (in-place)
I0730 21:20:40.947067 18868 net.cpp:150] Setting up relu5_2
I0730 21:20:40.947067 18868 net.cpp:157] Top shape: 8 512 19 19 (1478656)
I0730 21:20:40.947067 18868 net.cpp:165] Memory required for data: 1751310432
I0730 21:20:40.947067 18868 layer_factory.hpp:77] Creating layer conv5_3
I0730 21:20:40.947067 18868 net.cpp:100] Creating Layer conv5_3
I0730 21:20:40.947067 18868 net.cpp:434] conv5_3 <- conv5_2
I0730 21:20:40.948065 18868 net.cpp:408] conv5_3 -> conv5_3
I0730 21:20:40.966017 18868 net.cpp:150] Setting up conv5_3
I0730 21:20:40.966017 18868 net.cpp:157] Top shape: 8 512 19 19 (1478656)
I0730 21:20:40.966017 18868 net.cpp:165] Memory required for data: 1757225056
I0730 21:20:40.966017 18868 layer_factory.hpp:77] Creating layer relu5_3
I0730 21:20:40.966017 18868 net.cpp:100] Creating Layer relu5_3
I0730 21:20:40.966017 18868 net.cpp:434] relu5_3 <- conv5_3
I0730 21:20:40.966017 18868 net.cpp:395] relu5_3 -> conv5_3 (in-place)
I0730 21:20:40.967015 18868 net.cpp:150] Setting up relu5_3
I0730 21:20:40.967015 18868 net.cpp:157] Top shape: 8 512 19 19 (1478656)
I0730 21:20:40.967015 18868 net.cpp:165] Memory required for data: 1763139680
I0730 21:20:40.967015 18868 layer_factory.hpp:77] Creating layer pool5
I0730 21:20:40.967015 18868 net.cpp:100] Creating Layer pool5
I0730 21:20:40.967015 18868 net.cpp:434] pool5 <- conv5_3
I0730 21:20:40.967015 18868 net.cpp:408] pool5 -> pool5
I0730 21:20:40.967015 18868 net.cpp:150] Setting up pool5
I0730 21:20:40.967015 18868 net.cpp:157] Top shape: 8 512 19 19 (1478656)
I0730 21:20:40.967015 18868 net.cpp:165] Memory required for data: 1769054304
I0730 21:20:40.967015 18868 layer_factory.hpp:77] Creating layer fc6
I0730 21:20:40.967015 18868 net.cpp:100] Creating Layer fc6
I0730 21:20:40.967015 18868 net.cpp:434] fc6 <- pool5
I0730 21:20:40.967015 18868 net.cpp:408] fc6 -> fc6
I0730 21:20:40.997932 18868 net.cpp:150] Setting up fc6
I0730 21:20:40.997932 18868 net.cpp:157] Top shape: 8 1024 19 19 (2957312)
I0730 21:20:40.997932 18868 net.cpp:165] Memory required for data: 1780883552
I0730 21:20:40.997932 18868 layer_factory.hpp:77] Creating layer relu6
I0730 21:20:40.997932 18868 net.cpp:100] Creating Layer relu6
I0730 21:20:40.997932 18868 net.cpp:434] relu6 <- fc6
I0730 21:20:40.997932 18868 net.cpp:395] relu6 -> fc6 (in-place)
I0730 21:20:40.998929 18868 net.cpp:150] Setting up relu6
I0730 21:20:40.998929 18868 net.cpp:157] Top shape: 8 1024 19 19 (2957312)
I0730 21:20:40.998929 18868 net.cpp:165] Memory required for data: 1792712800
I0730 21:20:40.998929 18868 layer_factory.hpp:77] Creating layer fc7
I0730 21:20:40.998929 18868 net.cpp:100] Creating Layer fc7
I0730 21:20:40.998929 18868 net.cpp:434] fc7 <- fc6
I0730 21:20:40.998929 18868 net.cpp:408] fc7 -> fc7
I0730 21:20:41.009900 18868 net.cpp:150] Setting up fc7
I0730 21:20:41.009900 18868 net.cpp:157] Top shape: 8 1024 19 19 (2957312)
I0730 21:20:41.009900 18868 net.cpp:165] Memory required for data: 1804542048
I0730 21:20:41.009900 18868 layer_factory.hpp:77] Creating layer relu7
I0730 21:20:41.009900 18868 net.cpp:100] Creating Layer relu7
I0730 21:20:41.009900 18868 net.cpp:434] relu7 <- fc7
I0730 21:20:41.009900 18868 net.cpp:395] relu7 -> fc7 (in-place)
I0730 21:20:41.009900 18868 net.cpp:150] Setting up relu7
I0730 21:20:41.009900 18868 net.cpp:157] Top shape: 8 1024 19 19 (2957312)
I0730 21:20:41.009900 18868 net.cpp:165] Memory required for data: 1816371296
I0730 21:20:41.009900 18868 layer_factory.hpp:77] Creating layer fc7_relu7_0_split
I0730 21:20:41.009900 18868 net.cpp:100] Creating Layer fc7_relu7_0_split
I0730 21:20:41.009900 18868 net.cpp:434] fc7_relu7_0_split <- fc7
I0730 21:20:41.009900 18868 net.cpp:408] fc7_relu7_0_split -> fc7_relu7_0_split_0
I0730 21:20:41.009900 18868 net.cpp:408] fc7_relu7_0_split -> fc7_relu7_0_split_1
I0730 21:20:41.009900 18868 net.cpp:408] fc7_relu7_0_split -> fc7_relu7_0_split_2
I0730 21:20:41.009900 18868 net.cpp:408] fc7_relu7_0_split -> fc7_relu7_0_split_3
I0730 21:20:41.009900 18868 net.cpp:150] Setting up fc7_relu7_0_split
I0730 21:20:41.009900 18868 net.cpp:157] Top shape: 8 1024 19 19 (2957312)
I0730 21:20:41.009900 18868 net.cpp:157] Top shape: 8 1024 19 19 (2957312)
I0730 21:20:41.009900 18868 net.cpp:157] Top shape: 8 1024 19 19 (2957312)
I0730 21:20:41.009900 18868 net.cpp:157] Top shape: 8 1024 19 19 (2957312)
I0730 21:20:41.009900 18868 net.cpp:165] Memory required for data: 1863688288
I0730 21:20:41.009900 18868 layer_factory.hpp:77] Creating layer conv8_1
I0730 21:20:41.009900 18868 net.cpp:100] Creating Layer conv8_1
I0730 21:20:41.009900 18868 net.cpp:434] conv8_1 <- fc7_relu7_0_split_0
I0730 21:20:41.009900 18868 net.cpp:408] conv8_1 -> conv8_1
I0730 21:20:41.015883 18868 net.cpp:150] Setting up conv8_1
I0730 21:20:41.015883 18868 net.cpp:157] Top shape: 8 256 19 19 (739328)
I0730 21:20:41.015883 18868 net.cpp:165] Memory required for data: 1866645600
I0730 21:20:41.015883 18868 layer_factory.hpp:77] Creating layer conv8_1_relu
I0730 21:20:41.015883 18868 net.cpp:100] Creating Layer conv8_1_relu
I0730 21:20:41.015883 18868 net.cpp:434] conv8_1_relu <- conv8_1
I0730 21:20:41.015883 18868 net.cpp:395] conv8_1_relu -> conv8_1 (in-place)
I0730 21:20:41.016881 18868 net.cpp:150] Setting up conv8_1_relu
I0730 21:20:41.016881 18868 net.cpp:157] Top shape: 8 256 19 19 (739328)
I0730 21:20:41.016881 18868 net.cpp:165] Memory required for data: 1869602912
I0730 21:20:41.016881 18868 layer_factory.hpp:77] Creating layer conv8_2
I0730 21:20:41.016881 18868 net.cpp:100] Creating Layer conv8_2
I0730 21:20:41.016881 18868 net.cpp:434] conv8_2 <- conv8_1
I0730 21:20:41.016881 18868 net.cpp:408] conv8_2 -> conv8_2
I0730 21:20:41.027851 18868 net.cpp:150] Setting up conv8_2
I0730 21:20:41.027851 18868 net.cpp:157] Top shape: 8 512 10 10 (409600)
I0730 21:20:41.027851 18868 net.cpp:165] Memory required for data: 1871241312
I0730 21:20:41.027851 18868 layer_factory.hpp:77] Creating layer conv8_2_relu
I0730 21:20:41.027851 18868 net.cpp:100] Creating Layer conv8_2_relu
I0730 21:20:41.027851 18868 net.cpp:434] conv8_2_relu <- conv8_2
I0730 21:20:41.027851 18868 net.cpp:395] conv8_2_relu -> conv8_2 (in-place)
I0730 21:20:41.027851 18868 net.cpp:150] Setting up conv8_2_relu
I0730 21:20:41.027851 18868 net.cpp:157] Top shape: 8 512 10 10 (409600)
I0730 21:20:41.027851 18868 net.cpp:165] Memory required for data: 1872879712
I0730 21:20:41.027851 18868 layer_factory.hpp:77] Creating layer conv8_2_conv8_2_relu_0_split
I0730 21:20:41.027851 18868 net.cpp:100] Creating Layer conv8_2_conv8_2_relu_0_split
I0730 21:20:41.027851 18868 net.cpp:434] conv8_2_conv8_2_relu_0_split <- conv8_2
I0730 21:20:41.028849 18868 net.cpp:408] conv8_2_conv8_2_relu_0_split -> conv8_2_conv8_2_relu_0_split_0
I0730 21:20:41.028849 18868 net.cpp:408] conv8_2_conv8_2_relu_0_split -> conv8_2_conv8_2_relu_0_split_1
I0730 21:20:41.028849 18868 net.cpp:408] conv8_2_conv8_2_relu_0_split -> conv8_2_conv8_2_relu_0_split_2
I0730 21:20:41.028849 18868 net.cpp:408] conv8_2_conv8_2_relu_0_split -> conv8_2_conv8_2_relu_0_split_3
I0730 21:20:41.028849 18868 net.cpp:150] Setting up conv8_2_conv8_2_relu_0_split
I0730 21:20:41.028849 18868 net.cpp:157] Top shape: 8 512 10 10 (409600)
I0730 21:20:41.028849 18868 net.cpp:157] Top shape: 8 512 10 10 (409600)
I0730 21:20:41.028849 18868 net.cpp:157] Top shape: 8 512 10 10 (409600)
I0730 21:20:41.028849 18868 net.cpp:157] Top shape: 8 512 10 10 (409600)
I0730 21:20:41.028849 18868 net.cpp:165] Memory required for data: 1879433312
I0730 21:20:41.028849 18868 layer_factory.hpp:77] Creating layer conv9_1
I0730 21:20:41.028849 18868 net.cpp:100] Creating Layer conv9_1
I0730 21:20:41.028849 18868 net.cpp:434] conv9_1 <- conv8_2_conv8_2_relu_0_split_0
I0730 21:20:41.028849 18868 net.cpp:408] conv9_1 -> conv9_1
I0730 21:20:41.030843 18868 net.cpp:150] Setting up conv9_1
I0730 21:20:41.030843 18868 net.cpp:157] Top shape: 8 128 10 10 (102400)
I0730 21:20:41.030843 18868 net.cpp:165] Memory required for data: 1879842912
I0730 21:20:41.030843 18868 layer_factory.hpp:77] Creating layer conv9_1_relu
I0730 21:20:41.030843 18868 net.cpp:100] Creating Layer conv9_1_relu
I0730 21:20:41.030843 18868 net.cpp:434] conv9_1_relu <- conv9_1
I0730 21:20:41.030843 18868 net.cpp:395] conv9_1_relu -> conv9_1 (in-place)
I0730 21:20:41.031841 18868 net.cpp:150] Setting up conv9_1_relu
I0730 21:20:41.031841 18868 net.cpp:157] Top shape: 8 128 10 10 (102400)
I0730 21:20:41.031841 18868 net.cpp:165] Memory required for data: 1880252512
I0730 21:20:41.031841 18868 layer_factory.hpp:77] Creating layer conv9_2
I0730 21:20:41.031841 18868 net.cpp:100] Creating Layer conv9_2
I0730 21:20:41.031841 18868 net.cpp:434] conv9_2 <- conv9_1
I0730 21:20:41.031841 18868 net.cpp:408] conv9_2 -> conv9_2
I0730 21:20:41.037825 18868 net.cpp:150] Setting up conv9_2
I0730 21:20:41.037825 18868 net.cpp:157] Top shape: 8 256 5 5 (51200)
I0730 21:20:41.037825 18868 net.cpp:165] Memory required for data: 1880457312
I0730 21:20:41.037825 18868 layer_factory.hpp:77] Creating layer conv9_2_relu
I0730 21:20:41.037825 18868 net.cpp:100] Creating Layer conv9_2_relu
I0730 21:20:41.037825 18868 net.cpp:434] conv9_2_relu <- conv9_2
I0730 21:20:41.037825 18868 net.cpp:395] conv9_2_relu -> conv9_2 (in-place)
I0730 21:20:41.037825 18868 net.cpp:150] Setting up conv9_2_relu
I0730 21:20:41.037825 18868 net.cpp:157] Top shape: 8 256 5 5 (51200)
I0730 21:20:41.037825 18868 net.cpp:165] Memory required for data: 1880662112
I0730 21:20:41.037825 18868 layer_factory.hpp:77] Creating layer conv9_2_conv9_2_relu_0_split
I0730 21:20:41.037825 18868 net.cpp:100] Creating Layer conv9_2_conv9_2_relu_0_split
I0730 21:20:41.037825 18868 net.cpp:434] conv9_2_conv9_2_relu_0_split <- conv9_2
I0730 21:20:41.037825 18868 net.cpp:408] conv9_2_conv9_2_relu_0_split -> conv9_2_conv9_2_relu_0_split_0
I0730 21:20:41.037825 18868 net.cpp:408] conv9_2_conv9_2_relu_0_split -> conv9_2_conv9_2_relu_0_split_1
I0730 21:20:41.037825 18868 net.cpp:408] conv9_2_conv9_2_relu_0_split -> conv9_2_conv9_2_relu_0_split_2
I0730 21:20:41.037825 18868 net.cpp:408] conv9_2_conv9_2_relu_0_split -> conv9_2_conv9_2_relu_0_split_3
I0730 21:20:41.037825 18868 net.cpp:150] Setting up conv9_2_conv9_2_relu_0_split
I0730 21:20:41.037825 18868 net.cpp:157] Top shape: 8 256 5 5 (51200)
I0730 21:20:41.037825 18868 net.cpp:157] Top shape: 8 256 5 5 (51200)
I0730 21:20:41.037825 18868 net.cpp:157] Top shape: 8 256 5 5 (51200)
I0730 21:20:41.037825 18868 net.cpp:157] Top shape: 8 256 5 5 (51200)
I0730 21:20:41.037825 18868 net.cpp:165] Memory required for data: 1881481312
I0730 21:20:41.038822 18868 layer_factory.hpp:77] Creating layer conv10_1
I0730 21:20:41.038822 18868 net.cpp:100] Creating Layer conv10_1
I0730 21:20:41.038822 18868 net.cpp:434] conv10_1 <- conv9_2_conv9_2_relu_0_split_0
I0730 21:20:41.038822 18868 net.cpp:408] conv10_1 -> conv10_1
I0730 21:20:41.042812 18868 net.cpp:150] Setting up conv10_1
I0730 21:20:41.042812 18868 net.cpp:157] Top shape: 8 128 5 5 (25600)
I0730 21:20:41.042812 18868 net.cpp:165] Memory required for data: 1881583712
I0730 21:20:41.042812 18868 layer_factory.hpp:77] Creating layer conv10_1_relu
I0730 21:20:41.042812 18868 net.cpp:100] Creating Layer conv10_1_relu
I0730 21:20:41.042812 18868 net.cpp:434] conv10_1_relu <- conv10_1
I0730 21:20:41.042812 18868 net.cpp:395] conv10_1_relu -> conv10_1 (in-place)
I0730 21:20:41.042812 18868 net.cpp:150] Setting up conv10_1_relu
I0730 21:20:41.042812 18868 net.cpp:157] Top shape: 8 128 5 5 (25600)
I0730 21:20:41.042812 18868 net.cpp:165] Memory required for data: 1881686112
I0730 21:20:41.042812 18868 layer_factory.hpp:77] Creating layer conv10_2
I0730 21:20:41.042812 18868 net.cpp:100] Creating Layer conv10_2
I0730 21:20:41.042812 18868 net.cpp:434] conv10_2 <- conv10_1
I0730 21:20:41.042812 18868 net.cpp:408] conv10_2 -> conv10_2
I0730 21:20:41.047798 18868 net.cpp:150] Setting up conv10_2
I0730 21:20:41.047798 18868 net.cpp:157] Top shape: 8 256 3 3 (18432)
I0730 21:20:41.047798 18868 net.cpp:165] Memory required for data: 1881759840
I0730 21:20:41.047798 18868 layer_factory.hpp:77] Creating layer conv10_2_relu
I0730 21:20:41.047798 18868 net.cpp:100] Creating Layer conv10_2_relu
I0730 21:20:41.047798 18868 net.cpp:434] conv10_2_relu <- conv10_2
I0730 21:20:41.047798 18868 net.cpp:395] conv10_2_relu -> conv10_2 (in-place)
I0730 21:20:41.047798 18868 net.cpp:150] Setting up conv10_2_relu
I0730 21:20:41.047798 18868 net.cpp:157] Top shape: 8 256 3 3 (18432)
I0730 21:20:41.047798 18868 net.cpp:165] Memory required for data: 1881833568
I0730 21:20:41.047798 18868 layer_factory.hpp:77] Creating layer conv10_2_conv10_2_relu_0_split
I0730 21:20:41.047798 18868 net.cpp:100] Creating Layer conv10_2_conv10_2_relu_0_split
I0730 21:20:41.047798 18868 net.cpp:434] conv10_2_conv10_2_relu_0_split <- conv10_2
I0730 21:20:41.047798 18868 net.cpp:408] conv10_2_conv10_2_relu_0_split -> conv10_2_conv10_2_relu_0_split_0
I0730 21:20:41.047798 18868 net.cpp:408] conv10_2_conv10_2_relu_0_split -> conv10_2_conv10_2_relu_0_split_1
I0730 21:20:41.047798 18868 net.cpp:408] conv10_2_conv10_2_relu_0_split -> conv10_2_conv10_2_relu_0_split_2
I0730 21:20:41.047798 18868 net.cpp:408] conv10_2_conv10_2_relu_0_split -> conv10_2_conv10_2_relu_0_split_3
I0730 21:20:41.047798 18868 net.cpp:150] Setting up conv10_2_conv10_2_relu_0_split
I0730 21:20:41.047798 18868 net.cpp:157] Top shape: 8 256 3 3 (18432)
I0730 21:20:41.047798 18868 net.cpp:157] Top shape: 8 256 3 3 (18432)
I0730 21:20:41.047798 18868 net.cpp:157] Top shape: 8 256 3 3 (18432)
I0730 21:20:41.047798 18868 net.cpp:157] Top shape: 8 256 3 3 (18432)
I0730 21:20:41.047798 18868 net.cpp:165] Memory required for data: 1882128480
I0730 21:20:41.047798 18868 layer_factory.hpp:77] Creating layer conv11_1
I0730 21:20:41.047798 18868 net.cpp:100] Creating Layer conv11_1
I0730 21:20:41.047798 18868 net.cpp:434] conv11_1 <- conv10_2_conv10_2_relu_0_split_0
I0730 21:20:41.047798 18868 net.cpp:408] conv11_1 -> conv11_1
I0730 21:20:41.051787 18868 net.cpp:150] Setting up conv11_1
I0730 21:20:41.051787 18868 net.cpp:157] Top shape: 8 128 3 3 (9216)
I0730 21:20:41.051787 18868 net.cpp:165] Memory required for data: 1882165344
I0730 21:20:41.051787 18868 layer_factory.hpp:77] Creating layer conv11_1_relu
I0730 21:20:41.051787 18868 net.cpp:100] Creating Layer conv11_1_relu
I0730 21:20:41.051787 18868 net.cpp:434] conv11_1_relu <- conv11_1
I0730 21:20:41.051787 18868 net.cpp:395] conv11_1_relu -> conv11_1 (in-place)
I0730 21:20:41.052785 18868 net.cpp:150] Setting up conv11_1_relu
I0730 21:20:41.052785 18868 net.cpp:157] Top shape: 8 128 3 3 (9216)
I0730 21:20:41.052785 18868 net.cpp:165] Memory required for data: 1882202208
I0730 21:20:41.052785 18868 layer_factory.hpp:77] Creating layer conv11_2
I0730 21:20:41.052785 18868 net.cpp:100] Creating Layer conv11_2
I0730 21:20:41.052785 18868 net.cpp:434] conv11_2 <- conv11_1
I0730 21:20:41.052785 18868 net.cpp:408] conv11_2 -> conv11_2
I0730 21:20:41.058769 18868 net.cpp:150] Setting up conv11_2
I0730 21:20:41.058769 18868 net.cpp:157] Top shape: 8 256 1 1 (2048)
I0730 21:20:41.058769 18868 net.cpp:165] Memory required for data: 1882210400
I0730 21:20:41.058769 18868 layer_factory.hpp:77] Creating layer conv11_2_relu
I0730 21:20:41.058769 18868 net.cpp:100] Creating Layer conv11_2_relu
I0730 21:20:41.058769 18868 net.cpp:434] conv11_2_relu <- conv11_2
I0730 21:20:41.058769 18868 net.cpp:395] conv11_2_relu -> conv11_2 (in-place)
I0730 21:20:41.059767 18868 net.cpp:150] Setting up conv11_2_relu
I0730 21:20:41.059767 18868 net.cpp:157] Top shape: 8 256 1 1 (2048)
I0730 21:20:41.059767 18868 net.cpp:165] Memory required for data: 1882218592
I0730 21:20:41.059767 18868 layer_factory.hpp:77] Creating layer conv11_2_conv11_2_relu_0_split
I0730 21:20:41.059767 18868 net.cpp:100] Creating Layer conv11_2_conv11_2_relu_0_split
I0730 21:20:41.059767 18868 net.cpp:434] conv11_2_conv11_2_relu_0_split <- conv11_2
I0730 21:20:41.059767 18868 net.cpp:408] conv11_2_conv11_2_relu_0_split -> conv11_2_conv11_2_relu_0_split_0
I0730 21:20:41.059767 18868 net.cpp:408] conv11_2_conv11_2_relu_0_split -> conv11_2_conv11_2_relu_0_split_1
I0730 21:20:41.059767 18868 net.cpp:408] conv11_2_conv11_2_relu_0_split -> conv11_2_conv11_2_relu_0_split_2
I0730 21:20:41.059767 18868 net.cpp:150] Setting up conv11_2_conv11_2_relu_0_split
I0730 21:20:41.059767 18868 net.cpp:157] Top shape: 8 256 1 1 (2048)
I0730 21:20:41.059767 18868 net.cpp:157] Top shape: 8 256 1 1 (2048)
I0730 21:20:41.059767 18868 net.cpp:157] Top shape: 8 256 1 1 (2048)
I0730 21:20:41.059767 18868 net.cpp:165] Memory required for data: 1882243168
I0730 21:20:41.059767 18868 layer_factory.hpp:77] Creating layer conv4_3_norm
I0730 21:20:41.059767 18868 net.cpp:100] Creating Layer conv4_3_norm
I0730 21:20:41.059767 18868 net.cpp:434] conv4_3_norm <- conv4_3_relu4_3_0_split_1
I0730 21:20:41.059767 18868 net.cpp:408] conv4_3_norm -> conv4_3_norm
I0730 21:20:41.059767 18868 net.cpp:150] Setting up conv4_3_norm
I0730 21:20:41.059767 18868 net.cpp:157] Top shape: 8 512 38 38 (5914624)
I0730 21:20:41.059767 18868 net.cpp:165] Memory required for data: 1905901664
I0730 21:20:41.059767 18868 layer_factory.hpp:77] Creating layer conv4_3_norm_conv4_3_norm_0_split
I0730 21:20:41.059767 18868 net.cpp:100] Creating Layer conv4_3_norm_conv4_3_norm_0_split
I0730 21:20:41.059767 18868 net.cpp:434] conv4_3_norm_conv4_3_norm_0_split <- conv4_3_norm
I0730 21:20:41.059767 18868 net.cpp:408] conv4_3_norm_conv4_3_norm_0_split -> conv4_3_norm_conv4_3_norm_0_split_0
I0730 21:20:41.059767 18868 net.cpp:408] conv4_3_norm_conv4_3_norm_0_split -> conv4_3_norm_conv4_3_norm_0_split_1
I0730 21:20:41.059767 18868 net.cpp:408] conv4_3_norm_conv4_3_norm_0_split -> conv4_3_norm_conv4_3_norm_0_split_2
I0730 21:20:41.059767 18868 net.cpp:150] Setting up conv4_3_norm_conv4_3_norm_0_split
I0730 21:20:41.059767 18868 net.cpp:157] Top shape: 8 512 38 38 (5914624)
I0730 21:20:41.059767 18868 net.cpp:157] Top shape: 8 512 38 38 (5914624)
I0730 21:20:41.059767 18868 net.cpp:157] Top shape: 8 512 38 38 (5914624)
I0730 21:20:41.059767 18868 net.cpp:165] Memory required for data: 1976877152
I0730 21:20:41.059767 18868 layer_factory.hpp:77] Creating layer conv4_3_norm_mbox_loc
I0730 21:20:41.059767 18868 net.cpp:100] Creating Layer conv4_3_norm_mbox_loc
I0730 21:20:41.059767 18868 net.cpp:434] conv4_3_norm_mbox_loc <- conv4_3_norm_conv4_3_norm_0_split_0
I0730 21:20:41.059767 18868 net.cpp:408] conv4_3_norm_mbox_loc -> conv4_3_norm_mbox_loc
I0730 21:20:41.062758 18868 net.cpp:150] Setting up conv4_3_norm_mbox_loc
I0730 21:20:41.062758 18868 net.cpp:157] Top shape: 8 16 38 38 (184832)
I0730 21:20:41.062758 18868 net.cpp:165] Memory required for data: 1977616480
I0730 21:20:41.062758 18868 layer_factory.hpp:77] Creating layer conv4_3_norm_mbox_loc_perm
I0730 21:20:41.062758 18868 net.cpp:100] Creating Layer conv4_3_norm_mbox_loc_perm
I0730 21:20:41.062758 18868 net.cpp:434] conv4_3_norm_mbox_loc_perm <- conv4_3_norm_mbox_loc
I0730 21:20:41.062758 18868 net.cpp:408] conv4_3_norm_mbox_loc_perm -> conv4_3_norm_mbox_loc_perm
I0730 21:20:41.062758 18868 net.cpp:150] Setting up conv4_3_norm_mbox_loc_perm
I0730 21:20:41.062758 18868 net.cpp:157] Top shape: 8 38 38 16 (184832)
I0730 21:20:41.062758 18868 net.cpp:165] Memory required for data: 1978355808
I0730 21:20:41.062758 18868 layer_factory.hpp:77] Creating layer conv4_3_norm_mbox_loc_flat
I0730 21:20:41.062758 18868 net.cpp:100] Creating Layer conv4_3_norm_mbox_loc_flat
I0730 21:20:41.062758 18868 net.cpp:434] conv4_3_norm_mbox_loc_flat <- conv4_3_norm_mbox_loc_perm
I0730 21:20:41.062758 18868 net.cpp:408] conv4_3_norm_mbox_loc_flat -> conv4_3_norm_mbox_loc_flat
I0730 21:20:41.062758 18868 net.cpp:150] Setting up conv4_3_norm_mbox_loc_flat
I0730 21:20:41.062758 18868 net.cpp:157] Top shape: 8 23104 (184832)
I0730 21:20:41.062758 18868 net.cpp:165] Memory required for data: 1979095136
I0730 21:20:41.062758 18868 layer_factory.hpp:77] Creating layer conv4_3_norm_mbox_conf
I0730 21:20:41.062758 18868 net.cpp:100] Creating Layer conv4_3_norm_mbox_conf
I0730 21:20:41.062758 18868 net.cpp:434] conv4_3_norm_mbox_conf <- conv4_3_norm_conv4_3_norm_0_split_1
I0730 21:20:41.062758 18868 net.cpp:408] conv4_3_norm_mbox_conf -> conv4_3_norm_mbox_conf
I0730 21:20:41.066748 18868 net.cpp:150] Setting up conv4_3_norm_mbox_conf
I0730 21:20:41.066748 18868 net.cpp:157] Top shape: 8 12 38 38 (138624)
I0730 21:20:41.066748 18868 net.cpp:165] Memory required for data: 1979649632
I0730 21:20:41.066748 18868 layer_factory.hpp:77] Creating layer conv4_3_norm_mbox_conf_perm
I0730 21:20:41.066748 18868 net.cpp:100] Creating Layer conv4_3_norm_mbox_conf_perm
I0730 21:20:41.066748 18868 net.cpp:434] conv4_3_norm_mbox_conf_perm <- conv4_3_norm_mbox_conf
I0730 21:20:41.066748 18868 net.cpp:408] conv4_3_norm_mbox_conf_perm -> conv4_3_norm_mbox_conf_perm
I0730 21:20:41.066748 18868 net.cpp:150] Setting up conv4_3_norm_mbox_conf_perm
I0730 21:20:41.066748 18868 net.cpp:157] Top shape: 8 38 38 12 (138624)
I0730 21:20:41.066748 18868 net.cpp:165] Memory required for data: 1980204128
I0730 21:20:41.066748 18868 layer_factory.hpp:77] Creating layer conv4_3_norm_mbox_conf_flat
I0730 21:20:41.066748 18868 net.cpp:100] Creating Layer conv4_3_norm_mbox_conf_flat
I0730 21:20:41.066748 18868 net.cpp:434] conv4_3_norm_mbox_conf_flat <- conv4_3_norm_mbox_conf_perm
I0730 21:20:41.066748 18868 net.cpp:408] conv4_3_norm_mbox_conf_flat -> conv4_3_norm_mbox_conf_flat
I0730 21:20:41.066748 18868 net.cpp:150] Setting up conv4_3_norm_mbox_conf_flat
I0730 21:20:41.066748 18868 net.cpp:157] Top shape: 8 17328 (138624)
I0730 21:20:41.066748 18868 net.cpp:165] Memory required for data: 1980758624
I0730 21:20:41.066748 18868 layer_factory.hpp:77] Creating layer conv4_3_norm_mbox_priorbox
I0730 21:20:41.066748 18868 net.cpp:100] Creating Layer conv4_3_norm_mbox_priorbox
I0730 21:20:41.066748 18868 net.cpp:434] conv4_3_norm_mbox_priorbox <- conv4_3_norm_conv4_3_norm_0_split_2
I0730 21:20:41.066748 18868 net.cpp:434] conv4_3_norm_mbox_priorbox <- data_data_0_split_1
I0730 21:20:41.066748 18868 net.cpp:408] conv4_3_norm_mbox_priorbox -> conv4_3_norm_mbox_priorbox
I0730 21:20:41.066748 18868 net.cpp:150] Setting up conv4_3_norm_mbox_priorbox
I0730 21:20:41.066748 18868 net.cpp:157] Top shape: 1 2 23104 (46208)
I0730 21:20:41.066748 18868 net.cpp:165] Memory required for data: 1980943456
I0730 21:20:41.066748 18868 layer_factory.hpp:77] Creating layer fc7_mbox_loc
I0730 21:20:41.066748 18868 net.cpp:100] Creating Layer fc7_mbox_loc
I0730 21:20:41.066748 18868 net.cpp:434] fc7_mbox_loc <- fc7_relu7_0_split_1
I0730 21:20:41.066748 18868 net.cpp:408] fc7_mbox_loc -> fc7_mbox_loc
I0730 21:20:41.070737 18868 net.cpp:150] Setting up fc7_mbox_loc
I0730 21:20:41.071734 18868 net.cpp:157] Top shape: 8 24 19 19 (69312)
I0730 21:20:41.071734 18868 net.cpp:165] Memory required for data: 1981220704
I0730 21:20:41.071734 18868 layer_factory.hpp:77] Creating layer fc7_mbox_loc_perm
I0730 21:20:41.071734 18868 net.cpp:100] Creating Layer fc7_mbox_loc_perm
I0730 21:20:41.071734 18868 net.cpp:434] fc7_mbox_loc_perm <- fc7_mbox_loc
I0730 21:20:41.071734 18868 net.cpp:408] fc7_mbox_loc_perm -> fc7_mbox_loc_perm
I0730 21:20:41.071734 18868 net.cpp:150] Setting up fc7_mbox_loc_perm
I0730 21:20:41.071734 18868 net.cpp:157] Top shape: 8 19 19 24 (69312)
I0730 21:20:41.071734 18868 net.cpp:165] Memory required for data: 1981497952
I0730 21:20:41.071734 18868 layer_factory.hpp:77] Creating layer fc7_mbox_loc_flat
I0730 21:20:41.071734 18868 net.cpp:100] Creating Layer fc7_mbox_loc_flat
I0730 21:20:41.071734 18868 net.cpp:434] fc7_mbox_loc_flat <- fc7_mbox_loc_perm
I0730 21:20:41.071734 18868 net.cpp:408] fc7_mbox_loc_flat -> fc7_mbox_loc_flat
I0730 21:20:41.071734 18868 net.cpp:150] Setting up fc7_mbox_loc_flat
I0730 21:20:41.071734 18868 net.cpp:157] Top shape: 8 8664 (69312)
I0730 21:20:41.071734 18868 net.cpp:165] Memory required for data: 1981775200
I0730 21:20:41.071734 18868 layer_factory.hpp:77] Creating layer fc7_mbox_conf
I0730 21:20:41.071734 18868 net.cpp:100] Creating Layer fc7_mbox_conf
I0730 21:20:41.071734 18868 net.cpp:434] fc7_mbox_conf <- fc7_relu7_0_split_2
I0730 21:20:41.071734 18868 net.cpp:408] fc7_mbox_conf -> fc7_mbox_conf
I0730 21:20:41.075724 18868 net.cpp:150] Setting up fc7_mbox_conf
I0730 21:20:41.075724 18868 net.cpp:157] Top shape: 8 18 19 19 (51984)
I0730 21:20:41.075724 18868 net.cpp:165] Memory required for data: 1981983136
I0730 21:20:41.075724 18868 layer_factory.hpp:77] Creating layer fc7_mbox_conf_perm
I0730 21:20:41.075724 18868 net.cpp:100] Creating Layer fc7_mbox_conf_perm
I0730 21:20:41.075724 18868 net.cpp:434] fc7_mbox_conf_perm <- fc7_mbox_conf
I0730 21:20:41.075724 18868 net.cpp:408] fc7_mbox_conf_perm -> fc7_mbox_conf_perm
I0730 21:20:41.075724 18868 net.cpp:150] Setting up fc7_mbox_conf_perm
I0730 21:20:41.075724 18868 net.cpp:157] Top shape: 8 19 19 18 (51984)
I0730 21:20:41.075724 18868 net.cpp:165] Memory required for data: 1982191072
I0730 21:20:41.075724 18868 layer_factory.hpp:77] Creating layer fc7_mbox_conf_flat
I0730 21:20:41.075724 18868 net.cpp:100] Creating Layer fc7_mbox_conf_flat
I0730 21:20:41.075724 18868 net.cpp:434] fc7_mbox_conf_flat <- fc7_mbox_conf_perm
I0730 21:20:41.075724 18868 net.cpp:408] fc7_mbox_conf_flat -> fc7_mbox_conf_flat
I0730 21:20:41.075724 18868 net.cpp:150] Setting up fc7_mbox_conf_flat
I0730 21:20:41.075724 18868 net.cpp:157] Top shape: 8 6498 (51984)
I0730 21:20:41.075724 18868 net.cpp:165] Memory required for data: 1982399008
I0730 21:20:41.075724 18868 layer_factory.hpp:77] Creating layer fc7_mbox_priorbox
I0730 21:20:41.075724 18868 net.cpp:100] Creating Layer fc7_mbox_priorbox
I0730 21:20:41.075724 18868 net.cpp:434] fc7_mbox_priorbox <- fc7_relu7_0_split_3
I0730 21:20:41.075724 18868 net.cpp:434] fc7_mbox_priorbox <- data_data_0_split_2
I0730 21:20:41.075724 18868 net.cpp:408] fc7_mbox_priorbox -> fc7_mbox_priorbox
I0730 21:20:41.075724 18868 net.cpp:150] Setting up fc7_mbox_priorbox
I0730 21:20:41.075724 18868 net.cpp:157] Top shape: 1 2 8664 (17328)
I0730 21:20:41.075724 18868 net.cpp:165] Memory required for data: 1982468320
I0730 21:20:41.075724 18868 layer_factory.hpp:77] Creating layer conv8_2_mbox_loc
I0730 21:20:41.075724 18868 net.cpp:100] Creating Layer conv8_2_mbox_loc
I0730 21:20:41.075724 18868 net.cpp:434] conv8_2_mbox_loc <- conv8_2_conv8_2_relu_0_split_1
I0730 21:20:41.075724 18868 net.cpp:408] conv8_2_mbox_loc -> conv8_2_mbox_loc
I0730 21:20:41.079713 18868 net.cpp:150] Setting up conv8_2_mbox_loc
I0730 21:20:41.079713 18868 net.cpp:157] Top shape: 8 24 10 10 (19200)
I0730 21:20:41.079713 18868 net.cpp:165] Memory required for data: 1982545120
I0730 21:20:41.079713 18868 layer_factory.hpp:77] Creating layer conv8_2_mbox_loc_perm
I0730 21:20:41.079713 18868 net.cpp:100] Creating Layer conv8_2_mbox_loc_perm
I0730 21:20:41.079713 18868 net.cpp:434] conv8_2_mbox_loc_perm <- conv8_2_mbox_loc
I0730 21:20:41.079713 18868 net.cpp:408] conv8_2_mbox_loc_perm -> conv8_2_mbox_loc_perm
I0730 21:20:41.079713 18868 net.cpp:150] Setting up conv8_2_mbox_loc_perm
I0730 21:20:41.079713 18868 net.cpp:157] Top shape: 8 10 10 24 (19200)
I0730 21:20:41.079713 18868 net.cpp:165] Memory required for data: 1982621920
I0730 21:20:41.079713 18868 layer_factory.hpp:77] Creating layer conv8_2_mbox_loc_flat
I0730 21:20:41.079713 18868 net.cpp:100] Creating Layer conv8_2_mbox_loc_flat
I0730 21:20:41.079713 18868 net.cpp:434] conv8_2_mbox_loc_flat <- conv8_2_mbox_loc_perm
I0730 21:20:41.079713 18868 net.cpp:408] conv8_2_mbox_loc_flat -> conv8_2_mbox_loc_flat
I0730 21:20:41.079713 18868 net.cpp:150] Setting up conv8_2_mbox_loc_flat
I0730 21:20:41.079713 18868 net.cpp:157] Top shape: 8 2400 (19200)
I0730 21:20:41.079713 18868 net.cpp:165] Memory required for data: 1982698720
I0730 21:20:41.079713 18868 layer_factory.hpp:77] Creating layer conv8_2_mbox_conf
I0730 21:20:41.079713 18868 net.cpp:100] Creating Layer conv8_2_mbox_conf
I0730 21:20:41.079713 18868 net.cpp:434] conv8_2_mbox_conf <- conv8_2_conv8_2_relu_0_split_2
I0730 21:20:41.079713 18868 net.cpp:408] conv8_2_mbox_conf -> conv8_2_mbox_conf
I0730 21:20:41.083703 18868 net.cpp:150] Setting up conv8_2_mbox_conf
I0730 21:20:41.083703 18868 net.cpp:157] Top shape: 8 18 10 10 (14400)
I0730 21:20:41.083703 18868 net.cpp:165] Memory required for data: 1982756320
I0730 21:20:41.083703 18868 layer_factory.hpp:77] Creating layer conv8_2_mbox_conf_perm
I0730 21:20:41.083703 18868 net.cpp:100] Creating Layer conv8_2_mbox_conf_perm
I0730 21:20:41.083703 18868 net.cpp:434] conv8_2_mbox_conf_perm <- conv8_2_mbox_conf
I0730 21:20:41.083703 18868 net.cpp:408] conv8_2_mbox_conf_perm -> conv8_2_mbox_conf_perm
I0730 21:20:41.083703 18868 net.cpp:150] Setting up conv8_2_mbox_conf_perm
I0730 21:20:41.083703 18868 net.cpp:157] Top shape: 8 10 10 18 (14400)
I0730 21:20:41.083703 18868 net.cpp:165] Memory required for data: 1982813920
I0730 21:20:41.083703 18868 layer_factory.hpp:77] Creating layer conv8_2_mbox_conf_flat
I0730 21:20:41.083703 18868 net.cpp:100] Creating Layer conv8_2_mbox_conf_flat
I0730 21:20:41.083703 18868 net.cpp:434] conv8_2_mbox_conf_flat <- conv8_2_mbox_conf_perm
I0730 21:20:41.083703 18868 net.cpp:408] conv8_2_mbox_conf_flat -> conv8_2_mbox_conf_flat
I0730 21:20:41.083703 18868 net.cpp:150] Setting up conv8_2_mbox_conf_flat
I0730 21:20:41.083703 18868 net.cpp:157] Top shape: 8 1800 (14400)
I0730 21:20:41.083703 18868 net.cpp:165] Memory required for data: 1982871520
I0730 21:20:41.083703 18868 layer_factory.hpp:77] Creating layer conv8_2_mbox_priorbox
I0730 21:20:41.083703 18868 net.cpp:100] Creating Layer conv8_2_mbox_priorbox
I0730 21:20:41.083703 18868 net.cpp:434] conv8_2_mbox_priorbox <- conv8_2_conv8_2_relu_0_split_3
I0730 21:20:41.083703 18868 net.cpp:434] conv8_2_mbox_priorbox <- data_data_0_split_3
I0730 21:20:41.083703 18868 net.cpp:408] conv8_2_mbox_priorbox -> conv8_2_mbox_priorbox
I0730 21:20:41.083703 18868 net.cpp:150] Setting up conv8_2_mbox_priorbox
I0730 21:20:41.083703 18868 net.cpp:157] Top shape: 1 2 2400 (4800)
I0730 21:20:41.083703 18868 net.cpp:165] Memory required for data: 1982890720
I0730 21:20:41.083703 18868 layer_factory.hpp:77] Creating layer conv9_2_mbox_loc
I0730 21:20:41.083703 18868 net.cpp:100] Creating Layer conv9_2_mbox_loc
I0730 21:20:41.083703 18868 net.cpp:434] conv9_2_mbox_loc <- conv9_2_conv9_2_relu_0_split_1
I0730 21:20:41.083703 18868 net.cpp:408] conv9_2_mbox_loc -> conv9_2_mbox_loc
I0730 21:20:41.086694 18868 net.cpp:150] Setting up conv9_2_mbox_loc
I0730 21:20:41.086694 18868 net.cpp:157] Top shape: 8 24 5 5 (4800)
I0730 21:20:41.086694 18868 net.cpp:165] Memory required for data: 1982909920
I0730 21:20:41.086694 18868 layer_factory.hpp:77] Creating layer conv9_2_mbox_loc_perm
I0730 21:20:41.086694 18868 net.cpp:100] Creating Layer conv9_2_mbox_loc_perm
I0730 21:20:41.086694 18868 net.cpp:434] conv9_2_mbox_loc_perm <- conv9_2_mbox_loc
I0730 21:20:41.086694 18868 net.cpp:408] conv9_2_mbox_loc_perm -> conv9_2_mbox_loc_perm
I0730 21:20:41.086694 18868 net.cpp:150] Setting up conv9_2_mbox_loc_perm
I0730 21:20:41.086694 18868 net.cpp:157] Top shape: 8 5 5 24 (4800)
I0730 21:20:41.086694 18868 net.cpp:165] Memory required for data: 1982929120
I0730 21:20:41.086694 18868 layer_factory.hpp:77] Creating layer conv9_2_mbox_loc_flat
I0730 21:20:41.086694 18868 net.cpp:100] Creating Layer conv9_2_mbox_loc_flat
I0730 21:20:41.086694 18868 net.cpp:434] conv9_2_mbox_loc_flat <- conv9_2_mbox_loc_perm
I0730 21:20:41.086694 18868 net.cpp:408] conv9_2_mbox_loc_flat -> conv9_2_mbox_loc_flat
I0730 21:20:41.086694 18868 net.cpp:150] Setting up conv9_2_mbox_loc_flat
I0730 21:20:41.086694 18868 net.cpp:157] Top shape: 8 600 (4800)
I0730 21:20:41.086694 18868 net.cpp:165] Memory required for data: 1982948320
I0730 21:20:41.086694 18868 layer_factory.hpp:77] Creating layer conv9_2_mbox_conf
I0730 21:20:41.086694 18868 net.cpp:100] Creating Layer conv9_2_mbox_conf
I0730 21:20:41.086694 18868 net.cpp:434] conv9_2_mbox_conf <- conv9_2_conv9_2_relu_0_split_2
I0730 21:20:41.086694 18868 net.cpp:408] conv9_2_mbox_conf -> conv9_2_mbox_conf
I0730 21:20:41.089686 18868 net.cpp:150] Setting up conv9_2_mbox_conf
I0730 21:20:41.089686 18868 net.cpp:157] Top shape: 8 18 5 5 (3600)
I0730 21:20:41.089686 18868 net.cpp:165] Memory required for data: 1982962720
I0730 21:20:41.089686 18868 layer_factory.hpp:77] Creating layer conv9_2_mbox_conf_perm
I0730 21:20:41.089686 18868 net.cpp:100] Creating Layer conv9_2_mbox_conf_perm
I0730 21:20:41.089686 18868 net.cpp:434] conv9_2_mbox_conf_perm <- conv9_2_mbox_conf
I0730 21:20:41.089686 18868 net.cpp:408] conv9_2_mbox_conf_perm -> conv9_2_mbox_conf_perm
I0730 21:20:41.089686 18868 net.cpp:150] Setting up conv9_2_mbox_conf_perm
I0730 21:20:41.089686 18868 net.cpp:157] Top shape: 8 5 5 18 (3600)
I0730 21:20:41.089686 18868 net.cpp:165] Memory required for data: 1982977120
I0730 21:20:41.089686 18868 layer_factory.hpp:77] Creating layer conv9_2_mbox_conf_flat
I0730 21:20:41.089686 18868 net.cpp:100] Creating Layer conv9_2_mbox_conf_flat
I0730 21:20:41.089686 18868 net.cpp:434] conv9_2_mbox_conf_flat <- conv9_2_mbox_conf_perm
I0730 21:20:41.089686 18868 net.cpp:408] conv9_2_mbox_conf_flat -> conv9_2_mbox_conf_flat
I0730 21:20:41.089686 18868 net.cpp:150] Setting up conv9_2_mbox_conf_flat
I0730 21:20:41.089686 18868 net.cpp:157] Top shape: 8 450 (3600)
I0730 21:20:41.089686 18868 net.cpp:165] Memory required for data: 1982991520
I0730 21:20:41.089686 18868 layer_factory.hpp:77] Creating layer conv9_2_mbox_priorbox
I0730 21:20:41.089686 18868 net.cpp:100] Creating Layer conv9_2_mbox_priorbox
I0730 21:20:41.089686 18868 net.cpp:434] conv9_2_mbox_priorbox <- conv9_2_conv9_2_relu_0_split_3
I0730 21:20:41.089686 18868 net.cpp:434] conv9_2_mbox_priorbox <- data_data_0_split_4
I0730 21:20:41.089686 18868 net.cpp:408] conv9_2_mbox_priorbox -> conv9_2_mbox_priorbox
I0730 21:20:41.089686 18868 net.cpp:150] Setting up conv9_2_mbox_priorbox
I0730 21:20:41.089686 18868 net.cpp:157] Top shape: 1 2 600 (1200)
I0730 21:20:41.089686 18868 net.cpp:165] Memory required for data: 1982996320
I0730 21:20:41.089686 18868 layer_factory.hpp:77] Creating layer conv10_2_mbox_loc
I0730 21:20:41.089686 18868 net.cpp:100] Creating Layer conv10_2_mbox_loc
I0730 21:20:41.089686 18868 net.cpp:434] conv10_2_mbox_loc <- conv10_2_conv10_2_relu_0_split_1
I0730 21:20:41.089686 18868 net.cpp:408] conv10_2_mbox_loc -> conv10_2_mbox_loc
I0730 21:20:41.095671 18868 net.cpp:150] Setting up conv10_2_mbox_loc
I0730 21:20:41.096668 18868 net.cpp:157] Top shape: 8 16 3 3 (1152)
I0730 21:20:41.096668 18868 net.cpp:165] Memory required for data: 1983000928
I0730 21:20:41.096668 18868 layer_factory.hpp:77] Creating layer conv10_2_mbox_loc_perm
I0730 21:20:41.096668 18868 net.cpp:100] Creating Layer conv10_2_mbox_loc_perm
I0730 21:20:41.096668 18868 net.cpp:434] conv10_2_mbox_loc_perm <- conv10_2_mbox_loc
I0730 21:20:41.096668 18868 net.cpp:408] conv10_2_mbox_loc_perm -> conv10_2_mbox_loc_perm
I0730 21:20:41.096668 18868 net.cpp:150] Setting up conv10_2_mbox_loc_perm
I0730 21:20:41.096668 18868 net.cpp:157] Top shape: 8 3 3 16 (1152)
I0730 21:20:41.096668 18868 net.cpp:165] Memory required for data: 1983005536
I0730 21:20:41.096668 18868 layer_factory.hpp:77] Creating layer conv10_2_mbox_loc_flat
I0730 21:20:41.096668 18868 net.cpp:100] Creating Layer conv10_2_mbox_loc_flat
I0730 21:20:41.096668 18868 net.cpp:434] conv10_2_mbox_loc_flat <- conv10_2_mbox_loc_perm
I0730 21:20:41.096668 18868 net.cpp:408] conv10_2_mbox_loc_flat -> conv10_2_mbox_loc_flat
I0730 21:20:41.096668 18868 net.cpp:150] Setting up conv10_2_mbox_loc_flat
I0730 21:20:41.096668 18868 net.cpp:157] Top shape: 8 144 (1152)
I0730 21:20:41.096668 18868 net.cpp:165] Memory required for data: 1983010144
I0730 21:20:41.096668 18868 layer_factory.hpp:77] Creating layer conv10_2_mbox_conf
I0730 21:20:41.096668 18868 net.cpp:100] Creating Layer conv10_2_mbox_conf
I0730 21:20:41.096668 18868 net.cpp:434] conv10_2_mbox_conf <- conv10_2_conv10_2_relu_0_split_2
I0730 21:20:41.096668 18868 net.cpp:408] conv10_2_mbox_conf -> conv10_2_mbox_conf
I0730 21:20:41.098664 18868 net.cpp:150] Setting up conv10_2_mbox_conf
I0730 21:20:41.098664 18868 net.cpp:157] Top shape: 8 12 3 3 (864)
I0730 21:20:41.098664 18868 net.cpp:165] Memory required for data: 1983013600
I0730 21:20:41.098664 18868 layer_factory.hpp:77] Creating layer conv10_2_mbox_conf_perm
I0730 21:20:41.098664 18868 net.cpp:100] Creating Layer conv10_2_mbox_conf_perm
I0730 21:20:41.098664 18868 net.cpp:434] conv10_2_mbox_conf_perm <- conv10_2_mbox_conf
I0730 21:20:41.098664 18868 net.cpp:408] conv10_2_mbox_conf_perm -> conv10_2_mbox_conf_perm
I0730 21:20:41.098664 18868 net.cpp:150] Setting up conv10_2_mbox_conf_perm
I0730 21:20:41.098664 18868 net.cpp:157] Top shape: 8 3 3 12 (864)
I0730 21:20:41.098664 18868 net.cpp:165] Memory required for data: 1983017056
I0730 21:20:41.098664 18868 layer_factory.hpp:77] Creating layer conv10_2_mbox_conf_flat
I0730 21:20:41.098664 18868 net.cpp:100] Creating Layer conv10_2_mbox_conf_flat
I0730 21:20:41.098664 18868 net.cpp:434] conv10_2_mbox_conf_flat <- conv10_2_mbox_conf_perm
I0730 21:20:41.098664 18868 net.cpp:408] conv10_2_mbox_conf_flat -> conv10_2_mbox_conf_flat
I0730 21:20:41.098664 18868 net.cpp:150] Setting up conv10_2_mbox_conf_flat
I0730 21:20:41.098664 18868 net.cpp:157] Top shape: 8 108 (864)
I0730 21:20:41.098664 18868 net.cpp:165] Memory required for data: 1983020512
I0730 21:20:41.098664 18868 layer_factory.hpp:77] Creating layer conv10_2_mbox_priorbox
I0730 21:20:41.098664 18868 net.cpp:100] Creating Layer conv10_2_mbox_priorbox
I0730 21:20:41.098664 18868 net.cpp:434] conv10_2_mbox_priorbox <- conv10_2_conv10_2_relu_0_split_3
I0730 21:20:41.098664 18868 net.cpp:434] conv10_2_mbox_priorbox <- data_data_0_split_5
I0730 21:20:41.098664 18868 net.cpp:408] conv10_2_mbox_priorbox -> conv10_2_mbox_priorbox
I0730 21:20:41.098664 18868 net.cpp:150] Setting up conv10_2_mbox_priorbox
I0730 21:20:41.098664 18868 net.cpp:157] Top shape: 1 2 144 (288)
I0730 21:20:41.098664 18868 net.cpp:165] Memory required for data: 1983021664
I0730 21:20:41.098664 18868 layer_factory.hpp:77] Creating layer conv11_2_mbox_loc
I0730 21:20:41.098664 18868 net.cpp:100] Creating Layer conv11_2_mbox_loc
I0730 21:20:41.098664 18868 net.cpp:434] conv11_2_mbox_loc <- conv11_2_conv11_2_relu_0_split_0
I0730 21:20:41.098664 18868 net.cpp:408] conv11_2_mbox_loc -> conv11_2_mbox_loc
I0730 21:20:41.101655 18868 net.cpp:150] Setting up conv11_2_mbox_loc
I0730 21:20:41.101655 18868 net.cpp:157] Top shape: 8 16 1 1 (128)
I0730 21:20:41.101655 18868 net.cpp:165] Memory required for data: 1983022176
I0730 21:20:41.101655 18868 layer_factory.hpp:77] Creating layer conv11_2_mbox_loc_perm
I0730 21:20:41.101655 18868 net.cpp:100] Creating Layer conv11_2_mbox_loc_perm
I0730 21:20:41.101655 18868 net.cpp:434] conv11_2_mbox_loc_perm <- conv11_2_mbox_loc
I0730 21:20:41.101655 18868 net.cpp:408] conv11_2_mbox_loc_perm -> conv11_2_mbox_loc_perm
I0730 21:20:41.101655 18868 net.cpp:150] Setting up conv11_2_mbox_loc_perm
I0730 21:20:41.101655 18868 net.cpp:157] Top shape: 8 1 1 16 (128)
I0730 21:20:41.101655 18868 net.cpp:165] Memory required for data: 1983022688
I0730 21:20:41.101655 18868 layer_factory.hpp:77] Creating layer conv11_2_mbox_loc_flat
I0730 21:20:41.101655 18868 net.cpp:100] Creating Layer conv11_2_mbox_loc_flat
I0730 21:20:41.101655 18868 net.cpp:434] conv11_2_mbox_loc_flat <- conv11_2_mbox_loc_perm
I0730 21:20:41.101655 18868 net.cpp:408] conv11_2_mbox_loc_flat -> conv11_2_mbox_loc_flat
I0730 21:20:41.101655 18868 net.cpp:150] Setting up conv11_2_mbox_loc_flat
I0730 21:20:41.101655 18868 net.cpp:157] Top shape: 8 16 (128)
I0730 21:20:41.101655 18868 net.cpp:165] Memory required for data: 1983023200
I0730 21:20:41.101655 18868 layer_factory.hpp:77] Creating layer conv11_2_mbox_conf
I0730 21:20:41.101655 18868 net.cpp:100] Creating Layer conv11_2_mbox_conf
I0730 21:20:41.101655 18868 net.cpp:434] conv11_2_mbox_conf <- conv11_2_conv11_2_relu_0_split_1
I0730 21:20:41.101655 18868 net.cpp:408] conv11_2_mbox_conf -> conv11_2_mbox_conf
I0730 21:20:41.105644 18868 net.cpp:150] Setting up conv11_2_mbox_conf
I0730 21:20:41.105644 18868 net.cpp:157] Top shape: 8 12 1 1 (96)
I0730 21:20:41.105644 18868 net.cpp:165] Memory required for data: 1983023584
I0730 21:20:41.105644 18868 layer_factory.hpp:77] Creating layer conv11_2_mbox_conf_perm
I0730 21:20:41.105644 18868 net.cpp:100] Creating Layer conv11_2_mbox_conf_perm
I0730 21:20:41.105644 18868 net.cpp:434] conv11_2_mbox_conf_perm <- conv11_2_mbox_conf
I0730 21:20:41.105644 18868 net.cpp:408] conv11_2_mbox_conf_perm -> conv11_2_mbox_conf_perm
I0730 21:20:41.106642 18868 net.cpp:150] Setting up conv11_2_mbox_conf_perm
I0730 21:20:41.106642 18868 net.cpp:157] Top shape: 8 1 1 12 (96)
I0730 21:20:41.106642 18868 net.cpp:165] Memory required for data: 1983023968
I0730 21:20:41.106642 18868 layer_factory.hpp:77] Creating layer conv11_2_mbox_conf_flat
I0730 21:20:41.106642 18868 net.cpp:100] Creating Layer conv11_2_mbox_conf_flat
I0730 21:20:41.106642 18868 net.cpp:434] conv11_2_mbox_conf_flat <- conv11_2_mbox_conf_perm
I0730 21:20:41.106642 18868 net.cpp:408] conv11_2_mbox_conf_flat -> conv11_2_mbox_conf_flat
I0730 21:20:41.106642 18868 net.cpp:150] Setting up conv11_2_mbox_conf_flat
I0730 21:20:41.106642 18868 net.cpp:157] Top shape: 8 12 (96)
I0730 21:20:41.106642 18868 net.cpp:165] Memory required for data: 1983024352
I0730 21:20:41.106642 18868 layer_factory.hpp:77] Creating layer conv11_2_mbox_priorbox
I0730 21:20:41.106642 18868 net.cpp:100] Creating Layer conv11_2_mbox_priorbox
I0730 21:20:41.106642 18868 net.cpp:434] conv11_2_mbox_priorbox <- conv11_2_conv11_2_relu_0_split_2
I0730 21:20:41.106642 18868 net.cpp:434] conv11_2_mbox_priorbox <- data_data_0_split_6
I0730 21:20:41.106642 18868 net.cpp:408] conv11_2_mbox_priorbox -> conv11_2_mbox_priorbox
I0730 21:20:41.106642 18868 net.cpp:150] Setting up conv11_2_mbox_priorbox
I0730 21:20:41.106642 18868 net.cpp:157] Top shape: 1 2 16 (32)
I0730 21:20:41.106642 18868 net.cpp:165] Memory required for data: 1983024480
I0730 21:20:41.106642 18868 layer_factory.hpp:77] Creating layer mbox_loc
I0730 21:20:41.106642 18868 net.cpp:100] Creating Layer mbox_loc
I0730 21:20:41.106642 18868 net.cpp:434] mbox_loc <- conv4_3_norm_mbox_loc_flat
I0730 21:20:41.106642 18868 net.cpp:434] mbox_loc <- fc7_mbox_loc_flat
I0730 21:20:41.106642 18868 net.cpp:434] mbox_loc <- conv8_2_mbox_loc_flat
I0730 21:20:41.106642 18868 net.cpp:434] mbox_loc <- conv9_2_mbox_loc_flat
I0730 21:20:41.106642 18868 net.cpp:434] mbox_loc <- conv10_2_mbox_loc_flat
I0730 21:20:41.106642 18868 net.cpp:434] mbox_loc <- conv11_2_mbox_loc_flat
I0730 21:20:41.106642 18868 net.cpp:408] mbox_loc -> mbox_loc
I0730 21:20:41.106642 18868 net.cpp:150] Setting up mbox_loc
I0730 21:20:41.106642 18868 net.cpp:157] Top shape: 8 34928 (279424)
I0730 21:20:41.106642 18868 net.cpp:165] Memory required for data: 1984142176
I0730 21:20:41.106642 18868 layer_factory.hpp:77] Creating layer mbox_conf
I0730 21:20:41.106642 18868 net.cpp:100] Creating Layer mbox_conf
I0730 21:20:41.106642 18868 net.cpp:434] mbox_conf <- conv4_3_norm_mbox_conf_flat
I0730 21:20:41.106642 18868 net.cpp:434] mbox_conf <- fc7_mbox_conf_flat
I0730 21:20:41.106642 18868 net.cpp:434] mbox_conf <- conv8_2_mbox_conf_flat
I0730 21:20:41.106642 18868 net.cpp:434] mbox_conf <- conv9_2_mbox_conf_flat
I0730 21:20:41.106642 18868 net.cpp:434] mbox_conf <- conv10_2_mbox_conf_flat
I0730 21:20:41.106642 18868 net.cpp:434] mbox_conf <- conv11_2_mbox_conf_flat
I0730 21:20:41.106642 18868 net.cpp:408] mbox_conf -> mbox_conf
I0730 21:20:41.106642 18868 net.cpp:150] Setting up mbox_conf
I0730 21:20:41.106642 18868 net.cpp:157] Top shape: 8 26196 (209568)
I0730 21:20:41.106642 18868 net.cpp:165] Memory required for data: 1984980448
I0730 21:20:41.106642 18868 layer_factory.hpp:77] Creating layer mbox_priorbox
I0730 21:20:41.106642 18868 net.cpp:100] Creating Layer mbox_priorbox
I0730 21:20:41.106642 18868 net.cpp:434] mbox_priorbox <- conv4_3_norm_mbox_priorbox
I0730 21:20:41.106642 18868 net.cpp:434] mbox_priorbox <- fc7_mbox_priorbox
I0730 21:20:41.106642 18868 net.cpp:434] mbox_priorbox <- conv8_2_mbox_priorbox
I0730 21:20:41.106642 18868 net.cpp:434] mbox_priorbox <- conv9_2_mbox_priorbox
I0730 21:20:41.106642 18868 net.cpp:434] mbox_priorbox <- conv10_2_mbox_priorbox
I0730 21:20:41.106642 18868 net.cpp:434] mbox_priorbox <- conv11_2_mbox_priorbox
I0730 21:20:41.106642 18868 net.cpp:408] mbox_priorbox -> mbox_priorbox
I0730 21:20:41.106642 18868 net.cpp:150] Setting up mbox_priorbox
I0730 21:20:41.106642 18868 net.cpp:157] Top shape: 1 2 34928 (69856)
I0730 21:20:41.106642 18868 net.cpp:165] Memory required for data: 1985259872
I0730 21:20:41.106642 18868 layer_factory.hpp:77] Creating layer mbox_conf_reshape
I0730 21:20:41.106642 18868 net.cpp:100] Creating Layer mbox_conf_reshape
I0730 21:20:41.106642 18868 net.cpp:434] mbox_conf_reshape <- mbox_conf
I0730 21:20:41.106642 18868 net.cpp:408] mbox_conf_reshape -> mbox_conf_reshape
I0730 21:20:41.106642 18868 net.cpp:150] Setting up mbox_conf_reshape
I0730 21:20:41.106642 18868 net.cpp:157] Top shape: 8 8732 3 (209568)
I0730 21:20:41.106642 18868 net.cpp:165] Memory required for data: 1986098144
I0730 21:20:41.106642 18868 layer_factory.hpp:77] Creating layer mbox_conf_softmax
I0730 21:20:41.106642 18868 net.cpp:100] Creating Layer mbox_conf_softmax
I0730 21:20:41.106642 18868 net.cpp:434] mbox_conf_softmax <- mbox_conf_reshape
I0730 21:20:41.106642 18868 net.cpp:408] mbox_conf_softmax -> mbox_conf_softmax
I0730 21:20:41.107640 18868 net.cpp:150] Setting up mbox_conf_softmax
I0730 21:20:41.107640 18868 net.cpp:157] Top shape: 8 8732 3 (209568)
I0730 21:20:41.107640 18868 net.cpp:165] Memory required for data: 1986936416
I0730 21:20:41.107640 18868 layer_factory.hpp:77] Creating layer mbox_conf_flatten
I0730 21:20:41.107640 18868 net.cpp:100] Creating Layer mbox_conf_flatten
I0730 21:20:41.107640 18868 net.cpp:434] mbox_conf_flatten <- mbox_conf_softmax
I0730 21:20:41.107640 18868 net.cpp:408] mbox_conf_flatten -> mbox_conf_flatten
I0730 21:20:41.107640 18868 net.cpp:150] Setting up mbox_conf_flatten
I0730 21:20:41.107640 18868 net.cpp:157] Top shape: 8 26196 (209568)
I0730 21:20:41.107640 18868 net.cpp:165] Memory required for data: 1987774688
I0730 21:20:41.107640 18868 layer_factory.hpp:77] Creating layer detection_out
I0730 21:20:41.107640 18868 net.cpp:100] Creating Layer detection_out
I0730 21:20:41.107640 18868 net.cpp:434] detection_out <- mbox_loc
I0730 21:20:41.107640 18868 net.cpp:434] detection_out <- mbox_conf_flatten
I0730 21:20:41.107640 18868 net.cpp:434] detection_out <- mbox_priorbox
I0730 21:20:41.107640 18868 net.cpp:408] detection_out -> detection_out
W0730 21:20:41.108637 18868 detection_output_layer.cpp:49] Failed to create directory: data\wastedata\results\SSD_300x300_score\Main
I0730 21:20:41.120604 18868 net.cpp:150] Setting up detection_out
I0730 21:20:41.120604 18868 net.cpp:157] Top shape: 1 1 1 7 (7)
I0730 21:20:41.120604 18868 net.cpp:165] Memory required for data: 1987774716
I0730 21:20:41.120604 18868 layer_factory.hpp:77] Creating layer detection_eval
I0730 21:20:41.120604 18868 net.cpp:100] Creating Layer detection_eval
I0730 21:20:41.120604 18868 net.cpp:434] detection_eval <- detection_out
I0730 21:20:41.120604 18868 net.cpp:434] detection_eval <- label
I0730 21:20:41.120604 18868 net.cpp:408] detection_eval -> detection_eval
I0730 21:20:41.121601 18868 net.cpp:150] Setting up detection_eval
I0730 21:20:41.121601 18868 net.cpp:157] Top shape: 1 1 3 5 (15)
I0730 21:20:41.121601 18868 net.cpp:165] Memory required for data: 1987774776
I0730 21:20:41.121601 18868 net.cpp:228] detection_eval does not need backward computation.
I0730 21:20:41.121601 18868 net.cpp:228] detection_out does not need backward computation.
I0730 21:20:41.121601 18868 net.cpp:228] mbox_conf_flatten does not need backward computation.
I0730 21:20:41.121601 18868 net.cpp:228] mbox_conf_softmax does not need backward computation.
…
